src/backend/controller/checkpoints/checkpoint_epoch_31.pth (torch, 420207 bytes, 25 tensors)

fc1.weight f8 [64, 5]
0	0x3fc64c0d68adcc65	0.17419593440317552
1	0xbfdd8a3de18cb03c	-0.46156260515522596
2	0x3fd01cb539bfc86f	0.2517521919209064
3	0xbfc78a9b015f4354	-0.18391740386007405
4	0x3fbbf08a7941bbca	0.1091391130482712
5	0xbfc4288740000000	-0.15748682618141174
6	0xbfd24cb4a0000000	-0.2859317362308502
7	0xbfdac41960000000	-0.4182189404964447
8	0xbfce277ec0000000	-0.23558029532432556
9	0x3fba497600000000	0.102683424949646
10	0xbfcf4ad9ed4053c8	-0.24447177967581823
11	0x3fbaa2a245f52915	0.10404409606886518
12	0xbfd8417c7359e998	-0.37899695648925436
13	0x3fd9208f52f1c6e4	0.39261229610484194
14	0x3fac9361814fa473	0.05581192687515903
15	0x3fd2b3e300000000	0.29222941398620605
16	0xbfc07d2140000000	-0.12881866097450256
17	0xbfd1032180000000	-0.2658160924911499
18	0xbfd7520880000000	-0.36438190937042236
19	0xbfb5e70380000000	-0.08555623888969421
20	0xbfc4ff4bc0000000	-0.16404101252555847
21	0xbf8a2da400000000	-0.012782365083694458
22	0x3fd9654240000000	0.3968053460121155
23	0x3f93ab9800000000	0.01920926570892334
24	0xbfda0d1c40000000	-0.4070501923561096
25	0xbfc306da7749db37	-0.1486466486419091
26	0x3fd53336aa103024	0.33125082595575095
27	0x3fd72a3136bbaab7	0.36195021004702305
28	0x3fba55b82d948e60	0.10287047493744117
29	0xbfd6f0a4708a7651	-0.35843764295882347
30	0xbfca5afd7b0dc02d	-0.20590179928285704
31	0xbfd18fae62cd27ad	-0.27439460419247547
32	0x3fd25de652b8e841	0.2869811828455831
33	0x3fd101a9bfe208a1	0.26572650660103575
34	0x3fda50fe2f6c9a22	0.4111934149863449
35	0x3fd7ec50c0000000	0.37379854917526245
36	0xbfda694480000000	-0.41267502307891846
37	0xbfb6651080000000	-0.0874796211719513
38	0xbfd48f5840000000	-0.3212490677833557
39	0x3fb6020000000000	0.085968017578125
40	0x3fc925571291d3b7	0.19645203024597688
41	0xbfcf3c0f9ca852c8	-0.2440204157761825
42	0x3f404b5beb2fdc49	0.0004972647496960327
43	0x3fbfc56fb3477c83	0.12410638930258426
44	0x3fd085da37497367	0.25816970252144816
45	0x3fd4e6bde9ea8cfb	0.3265833649004006
46	0x3f96409fb76d4ff8	0.021730895586486526
47	0x3fb39ecca7130327	0.07664183691941827
48	0xbfd801a6becb73c9	-0.37510079033182514
49	0x3fc152d654ca017f	0.1353404916772085
50	0xbfd51c831d00c753	-0.32986524422004954
51	0xbfb734e309103f9c	-0.09065073939586771
52	0x3fd5f0d9e754c54a	0.34282538977557364
53	0x3f80f59a923bc74f	0.00828095206040627
54	0x3fc0405eb8e0a367	0.1269644167635093
55	0x3fd2250a538f9c6d	0.2835107627892686
56	0x3fc83d336936d564	0.18936770093356892
57	0x3f80617e6e6777f4	0.00799845480372239
58	0x3fd52b7dae3d3b19	0.3307794763140222
59	0x3f908a38aa9c6d39	0.016152272618552763
60	0xbfc448db80000000	-0.1584734320640564
61	0x3fba708500000000	0.10327941179275513
62	0xbfd6b83380000000	-0.35499274730682373
63	0x3fd3168c80000000	0.29825127124786377
64	0xbfc9870540000000	-0.19943299889564514
65	0xbfd517d46bc54220	-0.32957945370165653
66	0x3fc8d151b53dd736	0.19388791417775914
67	0x3fda163152af6da5	0.40760453295453153
68	0xbf874f35e233c476	-0.011381550756114783
69	0x3fd1b7c2b717f6cd	0.2768408573173076
70	0xbfd62486e342115c	-0.34597942536517734
71	0x3fd0285e86b1d170	0.2524639430405591
72	0xbfbce14785ca1f45	-0.11281249061914618
73	0x3f9f520eb39b9002	0.03058646174658009
74	0xbfb15f2e531b7656	-0.06785859612451736
75	0xbfd204caa0000000	-0.28154245018959045
76	0xbfd90499c0000000	-0.39090579748153687
77	0xbfd1fa7e40000000	-0.2809138894081116
78	0x3fd95630c0000000	0.3958856463432312
79	0x3fc04c8800000000	0.1273355484008789
80	0x3fcab31f2ee2e0bd	0.20859136380545876
81	0xbfa5b8eeb6a05b30	-0.0424265478069884
82	0x3fcc03056df1f05b	0.21884219997798735
83	0xbf6f063328728b96	-0.003787135999645706
84	0x3fc24267b2094686	0.14265152161765488
85	0xbfa38cc025edaa8f	-0.03818321669571844
86	0x3fd6f8e5d9d6b77b	0.35894151948274783
87	0x3fc224af9e565647	0.1417445681697009
88	0x3fc24de4793f5fbe	0.14300208969393496
89	0x3fd001556cb9b412	0.2500814019938967
90	0x3fcd812080000000	0.2305031418800354
91	0xbfc6dee0c0000000	-0.17867669463157654
92	0xbfdb4c6980000000	-0.4265388250350952
93	0x3fa7d42d00000000	0.046540647745132446
94	0xbfd2233d80000000	-0.28340089321136475
95	0x3fb86ffb8b61a06b	0.0954587188040265
96	0x3fa998fda5cb115f	0.04999535225718676
97	0x3fbc74ec0e9488cc	0.11115908962213722
98	0x3fd1a2195a5e7751	0.27551873993967485
99	0xbfc8f2c483cfcee8	-0.19490868030663155
100	0x3fdf4681bd9ee10f	0.48867839353216963
101	0xbfd74d2c66112549	-0.3640852925060086
102	0xbfd1a145d88d7590	-0.2754683127185098
103	0x3fcb7297fff83ed9	0.21443462370415636
104	0xbfa3fa9f88c4a74c	-0.03902147812398357
105	0x3fc9b45f80000000	0.2008170485496521
106	0xbfcdd7d000000000	-0.23314857482910156
107	0xbfaae2ed00000000	-0.052512556314468384
108	0xbfc343f100000000	-0.15051090717315674
109	0xbfd027f300000000	-0.2524383068084717
110	0x3fdb511f40000000	0.4268262982368469
111	0xbfc98f40e0000000	-0.1996842473745346
112	0xbfd3d18280000000	-0.30966246128082275
113	0xbfda45af40000000	-0.41050320863723755
114	0xbfda46c9a0000000	-0.41057053208351135
115	0x3fc50cddc58e07aa	0.16445514818411527
116	0x3fd188bfaba00a3c	0.2739714790369907
117	0xbfb902aa675f1878	-0.09769692443578204
118	0xbfe0300b417c51f7	-0.5058647421852233
119	0x3fc0c9d4ba98e030	0.13115939246358854
120	0xbfbded0f00000000	-0.11689847707748413
121	0xbfd8b6bce0000000	-0.3861534297466278
122	0x3fd8779a80000000	0.3823000192642212
123	0x3fc1621480000000	0.1358056664466858
124	0xbfcf462520000000	-0.24432815611362457
125	0xbfcdbbfd325aed0f	-0.23229947050808916
126	0x3fc0fd68a6634b1e	0.13273342251212567
127	0xbfd2718fd78fbbbf	-0.28818126727031407
128	0x3fd18ff98b23cf57	0.2744125231540599
129	0xbfd1dc6873f714f0	-0.27907763790820095
130	0x3fd6de8e00000000	0.3573336601257324
131	0xbfbd75e580000000	-0.11508020758628845
132	0x3fb55c7700000000	0.08344215154647827
133	0xbfdbb0c0c0000000	-0.4326631426811218
134	0xbfb32a1280000000	-0.07486072182655334
135	0xbfb02ea600000000	-0.06321179866790771
136	0xbfc009dd40000000	-0.1253010332584381
137	0xbfaf07b000000000	-0.060605525970458984
138	0xbfb2adbd80000000	-0.07296356558799744
139	0x3fd42570c0000000	0.3147851824760437
140	0x3facfb546c86df53	0.05660499405661192
141	0xbfca49d5af095d85	-0.20537825628956
142	0x3fd016979f325106	0.25137892290628405
143	0x3fc39fce541d539d	0.1533143912044154
144	0xbfd2ceefed9e8c67	-0.29388044552815135
145	0xbfc1f1d900000000	-0.14019310474395752
146	0xbfbf608880000000	-0.12256672978401184
147	0x3fd6096880000000	0.3443242311477661
148	0xbf8bff2800000000	-0.013670265674591064
149	0x3fc1659000000000	0.1359119415283203
150	0xbfc3e10e80000000	-0.1553056836128235
151	0x3fcb704080000000	0.21436315774917603
152	0xbfb8635e00000000	-0.09526622295379639
153	0x3fc8a01500000000	0.19238531589508057
154	0x3fa1f78d00000000	0.035091787576675415
155	0x3fc8d98180000000	0.19413775205612183
156	0x3f9103a400000000	0.016615450382232666
157	0xbfd4bdf880000000	-0.32409489154815674
158	0xbfd96889c0000000	-0.39700549840927124
159	0xbfd1d09740000000	-0.2783563733100891
160	0x3fb035670f9576f8	0.06331485872712139
161	0x3fc42392b0b0fb89	0.15733560206896538
162	0xbfcdfd7c2f520390	-0.23429825125279224
163	0x3fcd8e7c23bacd12	0.2309107946835885
164	0x3fd4e48e46f9c159	0.326449937164417
165	0x3fc2c9de97b6a369	0.14678556831247683
166	0xbfd3dbb3f6748a55	-0.3102846056737339
167	0x3fab42c5c99d7f27	0.053243809567673765
168	0x3fcc53925ea36e78	0.22130040761009062
169	0x3fd8aca741b6278f	0.3855379239763516
170	0xbfd191cb00000000	-0.2745234966278076
171	0x3fadf6f400000000	0.0585247278213501
172	0xbfc0a04500000000	-0.129891037940979
173	0x3fcb790000000000	0.214630126953125
174	0x3fac667c00000000	0.055469393730163574
175	0xbfd8793520000000	-0.38239791989326477
176	0xbfb4eae080000000	-0.08170893788337708
177	0x3f9fbf0800000000	0.031002163887023926
178	0xbfd7095e00000000	-0.35994672775268555
179	0xbfd9241620000000	-0.3928275406360626
180	0x3fda10815e6f2a82	0.40725740644544584
181	0xbfbcb27700a7433c	-0.11209815755797775
182	0xbfd694f191429e72	-0.35284079728669504
183	0x3fa177955c549d5d	0.034115474243942435
184	0x3fcc939ffc8f52f6	0.22325515586876293
185	0x3fd59c2ce9e21058	0.3376571926130558
186	0x3fb2a2d523cc2591	0.07279712795220507
187	0x3fcd4c2d236fa24b	0.22888721685673583
188	0x3fd1857b82319118	0.27377212251873706
189	0x3fd898feb1193edc	0.38433806700503026
190	0x3fd0b54ddcfdb231	0.2610659273257481
191	0xbfc0f20accd9d463	-0.13238654139027792
192	0xbfd13be1eb2bf26a	-0.2692799374197309
193	0xbfc94874a6ded63a	-0.1975236716076994
194	0xbfbbe2b1b41e9757	-0.10892782828758861
195	0xbfd3071bfdedda2b	-0.29730891988529845
196	0xbfd4300a886b1257	-0.3154321987351855
197	0x3fdf15de0a8dcf42	0.4857096770349366
198	0xbfc02ef1e2157384	-0.12643264331100224
199	0x3fd4b7577484f9a0	0.3236902845273111
200	0x3fda17cbfb4f4c94	0.4077024416157624
201	0xbfbf25e7c2a644f0	-0.12167213918862152
202	0xbfda1ed1415c6265	-0.4081309450425919
203	0x3fd642403dfdd5c0	0.34779363683568576
204	0xbfbf7e03a7d2a35a	-0.12301657531010105
205	0x3fb0fe1700000000	0.06637710332870483
206	0x3fc4448500000000	0.15834105014801025
207	0xbfc4852280000000	-0.1603129506111145
208	0xbfbd61bf80000000	-0.11477276682853699
209	0xbfd7ff0c60000000	-0.3749419152736664
210	0x3f98d4dc00000000	0.024249494075775146
211	0xbfc0415d40000000	-0.1269947588443756
212	0xbfcd6e9dc0000000	-0.22993823885917664
213	0x3fc5a90800000000	0.1692209243774414
214	0xbfb4ba4600000000	-0.08096730709075928
215	0x3fc122a3ad5c44e4	0.133869609497686
216	0xbf93dc11ced39c87	-0.019394186257070813
217	0xbfdafa63a8d2e391	-0.42153254973123305
218	0x3fca9a6e7a9ca8cb	0.20783787714873933
219	0xbfc222611787233d	-0.14167417191336
220	0xbfb9db169cbde1e2	-0.10099927260114996
221	0x3fdcb747398f84c1	0.4486864149203705
222	0x3fda732c8d9b7494	0.4132796652682569
223	0x3fd3d5cc4b950ac4	0.30992419606279165
224	0xbfd5236dd4896c0c	-0.3302874160341964
225	0xbfd4f81c3361909c	-0.3276434423226051
226	0xbf97868a7738acb8	-0.02297417023343648
227	0xbfd73aa59e2771d1	-0.36295452542051715
228	0x3fd9e6c2185fa3b6	0.40470936184152195
229	0x3fceb2c7cd0b7e1c	0.23983094703633945
230	0x3fcbf4907f1f085a	0.2184010143956268
231	0xbfcf04324a6d841e	-0.2423155654351214
232	0x3f76b6f088dccea2	0.005545558536869473
233	0x3fd2247d946b88ce	0.2834772061743366
234	0x3fc4b455a172b863	0.161753372032254
235	0x3fba1782c6f0b9cf	0.1019212470716646
236	0x3fd4b5958d063752	0.3235830189886332
237	0x3fb7013969d24093	0.08986243089225558
238	0x3fd8bcd7678ffee1	0.38652596581958504
239	0xbfb2753a28d0ac66	-0.0721012448927226
240	0x3f9d63ffbdd8a2ef	0.028701778375906647
241	0x3fd0c0c1e6a3afaa	0.26176497958544565
242	0x3fd80028f40d9716	0.37500976403531305
243	0x3fc87b3f4705e073	0.19126120536725785
244	0x3f3dddd77be4d594	0.00045572768057707794
245	0x3fb2078500000000	0.07042723894119263
246	0xbfb9034f00000000	-0.09770673513412476
247	0xbf9bdd8c00000000	-0.027212321758270264
248	0x3fcd0ced80000000	0.2269570231437683
249	0xbf89036800000000	-0.012213528156280518
250	0x3fc49084047fd85e	0.1606602689714149
251	0xbfd445e52e1f771f	-0.31676606659117285
252	0xbfd4d261fa0fa77a	-0.3253407423022662
253	0x3f840885fe8cd250	0.009781882124664382
254	0xbfd26a0dfafa0bed	-0.28772305974433615
255	0x3fc2fc5a197b5229	0.14832617038941123

fc1.bias f8 [64]
0	0xbfd05310ce3ee0f5	-0.2550699247472175
1	0x3fc4dbbe80000000	0.16295605897903442
2	0x3fcfbed05d719acf	0.24801067888912207
3	0x3fb083fe00000000	0.06451404094696045
4	0xbfd8a4e500000000	-0.38506436347961426
5	0xbfc4b99c2213f4d9	-0.16191436447107924
6	0xbfc8f64ba1b04008	-0.19501634020753067
7	0xbfd18a4b60000000	-0.2740658223628998
8	0xbfd9efb6b97f4c31	-0.40525596728292884
9	0xbfa1e9f3ac82fe26	-0.03498803597312543
10	0x3fc2a26b0a39ff09	0.14558160781233934
11	0xbfb4512581db7e12	-0.07936319752069945
12	0xbfca1b0d40000000	-0.20395055413246155
13	0xbfd0bf88f654b2b5	-0.26169036918399097
14	0xbfb7264b6b186cd2	-0.0904280792678265
15	0x3fcb36a380000000	0.21260493993759155
16	0xbfc4900609889e6b	-0.16064525094519708
17	0xbfa57119cf0eafe4	-0.04187851574474147
18	0xbfcc602f40000000	-0.22168532013893127
19	0xbfcdb8ff521e01fe	-0.23220817098264485
20	0x3fa1df85aa496580	0.03490846351332788
21	0x3fac574a00000000	0.05535346269607544
22	0x3fa63d9800000000	0.04343867301940918
23	0xbfbe2274dc79d52b	-0.11771326430046673
24	0xbfd06eaee0000000	-0.2567555606365204
25	0x3fd14830df94a5b0	0.27003118356750644
26	0xbfd7cf8cc0000000	-0.37204283475875854
27	0xbfcff34560000000	-0.24961154162883759
28	0xbfd00a7363d8e1bd	-0.2506378626890429
29	0xbfd5b36b80000000	-0.3390759229660034
30	0xbfd4fb0ea0000000	-0.32782331109046936
31	0xbfc40220c0000000	-0.1563149392604828
32	0xbfc1eb582ee77346	-0.1399946431182803
33	0xbfdc9fe0c8137e47	-0.4472581819408998
34	0xbfc13cbd80000000	-0.13466614484786987
35	0xbf73036000000000	-0.004641890525817871
36	0xbfad41fb7e5e8506	-0.05714403073876366
37	0x3fd0b0968abc7ba7	0.26077807949507775
38	0xbfbbf546e29e11ae	-0.10921137840893522
39	0x3fbfd9523b9d0048	0.12440980868723372
40	0xbfb7e13fef48ad64	-0.09328078834430681
41	0xbfca783ce0000000	-0.2067943662405014
42	0x3fa0047f00000000	0.03128430247306824
43	0x3fd40ad33d4b1fd8	0.3131607149666684
44	0x3fd2a7ee2201d9ae	0.2914996463872751
45	0x3fb2b5a3876238bd	0.07308408789887984
46	0xbfdedcbac63e50fe	-0.4822222648592883
47	0xbf90085b2cfbab20	-0.015656876202153502
48	0xbfbe805cac732e31	-0.11914614877894604
49	0xbfdc691be0000000	-0.44391533732414246
50	0x3fdc0aff9d4b0cf2	0.4381712947908475
51	0x3fdb7731861ca9ea	0.429149991005629
52	0x3fb4aeb7c2c1a442	0.0807909822921298
53	0xbfd0b5b420000000	-0.26109030842781067
54	0xbfd49eebe0000000	-0.3221997916698456
55	0x3fab82d600000000	0.05373257398605347
56	0xbfd0ee0d7a082bc2	-0.2645295802801081
57	0x3fbd07a2da1d4122	0.11339776825957817
58	0xbfd27f1a80000000	-0.2890077829360962
59	0xbfda1cfea9609540	-0.40801970043897384
60	0xbfd0c8c900000000	-0.2622549533843994
61	0xbfca26b769a4409c	-0.2043065324619463
62	0xbfce2f04a94862d1	-0.23580988183746013
63	0x3fd9949d05af158b	0.39969564013548425

fc2.weight f8 [128, 64]
0	0x3fc52bd923bec0b7	0.16540064092032988
1	0x3fa8d37b80000000	0.04848848283290863
2	0xbfc3d08558690161	-0.15480105225470722
3	0x3fb540ed80000000	0.08302196860313416
4	0xbfb3f9a7c0000000	-0.07802818715572357
5	0xbf915979c2ed8aa1	-0.016942884943441986
6	0xbfb81d76a3d395e4	-0.09419957637472681
7	0x3fb5832ec0000000	0.08403293788433075
8	0xbf6bb997025e692c	-0.0033843945884203443
9	0xbfb9e0bb05b86056	-0.1010853661504155
10	0x3fc88365cb6447d1	0.19150993758427018
11	0xbf76ab915be8f27e	-0.005534713562664549
12	0x3fa762e000000000	0.045676231384277344
13	0x3fc00f7d649b50c2	0.12547271168171475
14	0x3facf9afefd8272d	0.05659246256625603
15	0xbfbd6edd80000000	-0.11497291922569275
16	0x3fb1e84174ac9e6b	0.06995019052976097
17	0xbfabc27c535bec4e	-0.054218182731312056
18	0xbfb9da7e80000000	-0.10099020600318909
19	0x3fb2ac165ab5e407	0.07293834414112164
20	0xbfc4072fa38d48ed	-0.1564693020432694
21	0x3fbfe46200000000	0.12457859516143799
22	0xbfb16f1700000000	-0.06810134649276733
23	0xbfb611a11dec9525	-0.08620650272913062
24	0x3fab41db80000000	0.05323682725429535
25	0xbfae490ed5e238da	-0.05915113793263212
26	0xbfbe08a700000000	-0.11731952428817749
27	0x3fbc932d80000000	0.11162075400352478
28	0xbfa306efd7f8fe8e	-0.037162299264761875
29	0x3fbeee6740000000	0.12082524597644806
30	0xbf9a2eab00000000	-0.025568649172782898
31	0x3fa09e0880000000	0.032455697655677795
32	0x3fb7e89f5bf8c508	0.09339328761486254
33	0x3fb276f672b8f4c2	0.0721277265628997
34	0x3fafd07f00000000	0.06213757395744324
35	0x3fb45ad740000000	0.0795111209154129
36	0x3f6236082f86b2f8	0.002223030078502549
37	0x3fc1a5c3c0290875	0.13787123568369322
38	0xbfb20f7b048651de	-0.07054871426073059
39	0x3fb7ec5f285cca27	0.09345049605762111
40	0xbfc2baaad6efa266	-0.1463216351978815
41	0xbfb8bca940000000	-0.09662874042987823
42	0xbfac6f6780000000	-0.055537447333335876
43	0xbfba7751a80f8e5b	-0.10338316300436061
44	0x3fc0b340e675d6d9	0.13047038319535068
45	0x3fa0d12ee8b293de	0.03284594145342344
46	0x3fba6548bb83b49f	0.10310797288885219
47	0x3fc25604ef8ea037	0.14325010010839076
48	0xbfa6c93a9893a5bd	-0.044504004597750925
49	0xbfbe851040000000	-0.1192178875207901
50	0xbf9ffe7315a0e961	-0.031244085497953992
51	0x3fb74285c62593c5	0.09085880363052386
52	0x3fc118ddf9a2d3c9	0.13357138337383237
53	0xbfa35c3900000000	-0.0378129780292511
54	0x3fa6a6c280000000	0.04424102604389191
55	0xbfb2f88300000000	-0.07410448789596558
56	0xbfa34f7a23868031	-0.03771573718700017
57	0x3fb249dc1c8f6c25	0.07143951127311306
58	0xbfaf5fbb00000000	-0.06127724051475525
59	0x3fc5ab8855dbef7d	0.16929725830402367
60	0x3f959b3100000000	0.021099820733070374
61	0xbfa3e539cc1a9ea2	-0.03885822884086322
62	0x3fc04fb4a048394e	0.12743242098117452
63	0xbfa1b9ddbff1228c	-0.03462117164651088
64	0x3fc285fbcb0d111c	0.144713853975312
65	0x3fa8580e00000000	0.04754680395126343
66	0x3f8fa36ef3eecbc5	0.01544844324039286
67	0xbfbd74b280000000	-0.11506190896034241
68	0x3fb93d1500000000	0.09858828783035278
69	0x3fc1fffa49bda603	0.14062431908250525
70	0x3fb2fc194f30963d	0.07415922339767973
71	0xbfa0285e00000000	-0.03155797719955444
72	0xbfbdc55842d4b1b3	-0.1162924922143194
73	0x3fc1ef8c8a517859	0.14012295488186302
74	0x3fb8a094484a1241	0.09620024456860056
75	0x3fc23a1b89ddd8a6	0.14239830238120027
76	0xbfb1ff7000000000	-0.07030391693115234
77	0x3fb076e12c4e1083	0.06431395846999703
78	0xbf77a4316e5cfef2	-0.0057718211081121285
79	0xbfad186900000000	-0.05682685971260071
80	0x3fbde73fad989fc2	0.11680982578457047
81	0x3fbde8b24a5bcc83	0.11683191600222824
82	0x3f91da6200000000	0.017434626817703247
83	0x3fc29a6c41255a07	0.14533761197044745
84	0xbfc1fe420020408e	-0.1405718327155267
85	0x3fbf7b6200000000	0.12297642230987549
86	0xbfbea010c0000000	-0.11962990462779999
87	0x3fa4aa34fff532ba	0.040361076588486935
88	0x3fa8fdea80000000	0.048812225461006165
89	0x3f8466054eddf35c	0.0099602141087815
90	0xbfb331e240000000	-0.07497991621494293
91	0x3f8952cc00000000	0.012364953756332397
92	0xbfbf546aacd58c8d	-0.12238184661468861
93	0xbfba802540000000	-0.10351784527301788
94	0x3fbb5a2000000000	0.10684394836425781
95	0x3fb5a48ac0000000	0.08454196155071259
96	0x3fb149c588a69b6e	0.0675319155330791
97	0x3f79ded1ff02ca08	0.006316013619811496
98	0xbfb0e51480000000	-0.0659954845905304
99	0x3fb1cbd7c0000000	0.06951664388179779
100	0xbfc284edecf8d0f3	-0.14468168326278139
101	0xbf86d5bb480014fa	-0.011149848112845796
102	0xbfabd9a3cd3b5a35	-0.05439483528396175
103	0x3fafd4992886648e	0.062168871113677956
104	0xbfc586c9c5d71edf	-0.16817590866252538
105	0xbf98a68200000000	-0.02407267689704895
106	0x3fab0b7e00000000	0.0528220534324646
107	0xbfb3c7582e72fccc	-0.07726050504696785
108	0x3fc120a2b3b0cd5b	0.13380845807987893
109	0xbf972f315e7106d6	-0.022640963925602296
110	0xbfb2a40bb2999c01	-0.07281563864090403
111	0x3f8732a132768cd7	0.011327037193785845
112	0x3fb7aa7c1a9409a1	0.09244514130481331
113	0xbf95a92b00000000	-0.02115313708782196
114	0xbfc503bc46549ea2	-0.16417649683102292
115	0xbf8eeedb0d150ede	-0.015104018532503923
116	0x3fb803c8e37ecafc	0.09380775026401617
117	0xbf517af000000000	-0.0010669082403182983
118	0x3fa4d55700000000	0.04069015383720398
119	0xbfa3228880000000	-0.03737284243106842
120	0x3fb348522198ce68	0.07532227821575932
121	0x3fc738e703b77eef	0.18142402345164707
122	0x3f99621900000000	0.024788275361061096
123	0xbf823b618d98aa36	-0.008902322896649922
124	0x3fb362ef40000000	0.07572837173938751
125	0xbfa35c833063c8cd	-0.03781518903441992
126	0xbf977dd52049c46a	-0.022940950484955293
127	0xbfb4330bd936180f	-0.07890390446672789
128	0x3faa422180000000	0.05128578841686249
129	0x3fbd5c6bc0000000	0.11469148099422455
130	0x3faccf1900000000	0.05626752972602844
131	0xbf957f9100000000	-0.020994439721107483
132	0xbfa7421f00000000	-0.04542633891105652
133	0x3f990aeb00000000	0.024455711245536804
134	0x3f98444800000000	0.023697972297668457
135	0xbf9f04c200000000	-0.030291587114334106
136	0x3fbdb363c0000000	0.11601851880550385
137	0x3fbda7a980000000	0.11583957076072693
138	0x3f8d86bc00000000	0.014417141675949097
139	0xbfa2c37980000000	-0.036647602915763855
140	0x3fbf4a42c0000000	0.12222687900066376
141	0x3fb7b0cb00000000	0.0925413966178894
142	0x3f8555da00000000	0.010417655110359192
143	0x3fbdbc1740000000	0.11615128815174103
144	0xbfb7e5e940000000	-0.09335191547870636
145	0x3f67e92800000000	0.0029187947511672974
146	0x3fae3b8a80000000	0.059048011898994446
147	0x3f8274f800000000	0.009012162685394287
148	0xbfbb640840000000	-0.1069951206445694
149	0x3faa555d80000000	0.0514325350522995
150	0x3f85d2bc00000000	0.010655850172042847
151	0x3fa4ea7100000000	0.04085114598274231
152	0xbfabe73200000000	-0.054498255252838135
153	0xbfa4c6ed00000000	-0.040580183267593384
154	0xbfb3c8cd40000000	-0.07728274166584015
155	0xbfa1ce2b80000000	-0.034776076674461365
156	0x3f7ba5f800000000	0.00675007700920105
157	0x3fa6613d00000000	0.0437106192111969
158	0xbf9b64d400000000	-0.026751816272735596
159	0xbf792b2400000000	-0.006144657731056213
160	0x3f81be0800000000	0.00866323709487915
161	0xbf9502f900000000	-0.020519152283668518
162	0x3fb4800600000000	0.08007848262786865
163	0xbf8f40ae00000000	-0.015260085463523865
164	0x3fb4a106c0000000	0.08058206737041473
165	0xbfaf20c880000000	-0.06079699099063873
166	0x3fb8585580000000	0.0950978696346283
167	0x3fa926a300000000	0.049122899770736694
168	0x3f9798ee00000000	0.023044317960739136
169	0x3f8bff3600000000	0.013670369982719421
170	0x3f94cc5900000000	0.020310774445533752
171	0x3fbc160380000000	0.10971090197563171
172	0x3fbb755100000000	0.1072588562965393
173	0x3fbd85b480000000	0.11532142758369446
174	0xbfaaae8100000000	-0.05211260914802551
175	0x3fba411c80000000	0.1025560200214386
176	0xbfb9a50b80000000	-0.10017463564872742
177	0xbfbe7b8480000000	-0.11907222867012024
178	0x3fba74a7c0000000	0.10334251821041107
179	0xbfb5fcbf80000000	-0.08588787913322449
180	0xbfa6d1cc80000000	-0.044569388031959534
181	0xbfbc571400000000	-0.11070370674133301
182	0x3fb6f6a680000000	0.0897010862827301
183	0xbf9e245700000000	-0.029435500502586365
184	0xbfa3e07580000000	-0.038821861147880554
185	0x3f8141b400000000	0.008426100015640259
186	0xbfb89c81c0000000	-0.0961381047964096
187	0x3fb2d22ec0000000	0.07351963222026825
188	0x3fb3c338c0000000	0.0771975964307785
189	0xbfb20ac3c0000000	-0.07047675549983978
190	0x3f92dde100000000	0.01842452585697174
191	0xbfaf727a00000000	-0.0614202618598938
192	0xbfbaeeee80000000	-0.10520830750465393
193	0x3f9014a600000000	0.01570376753807068
194	0xbfb4136400000000	-0.07842087745666504
195	0x3f9ba8f800000000	0.027011752128601074
196	0xbfa12c6f80000000	-0.03354214131832123
197	0xbfaeeca600000000	-0.06039923429489136
198	0x3fb1aa3200000000	0.06900322437286377
199	0xbfb65e8300000000	-0.08737963438034058
200	0xbf93a39d00000000	-0.01917882263660431
201	0xbfba8706c0000000	-0.10362283885478973
202	0x3f919cbe00000000	0.01719948649406433
203	0x3fbbd5a300000000	0.10872858762741089
204	0x3f79fdb800000000	0.006345480680465698
205	0xbfbb8dec00000000	-0.10763430595397949
206	0xbfb44831c0000000	-0.07922659814357758
207	0xbfb2776580000000	-0.0721343457698822
208	0x3fb23cd140000000	0.07124049961566925
209	0x3fb3b74080000000	0.07701495289802551
210	0xbfae427800000000	-0.05910086631774902
211	0x3fa28d5700000000	0.03623458743095398
212	0x3f619f5800000000	0.002151176333427429
213	0x3f73bb3400000000	0.004817202687263489
214	0xbfb3cd0480000000	-0.07734706997871399
215	0x3fbc710040000000	0.1110992580652237
216	0x3f97631400000000	0.022838890552520752
217	0x3fb3de43c0000000	0.07761023938655853
218	0xbfa6932300000000	-0.04409131407737732
219	0x3fa7c4fd80000000	0.04642479121685028
220	0xbfb4dab480000000	-0.08146217465400696
221	0x3fb8681b80000000	0.09533855319023132
222	0x3fb275f340000000	0.07211227715015411
223	0xbf82cb1e00000000	-0.009176477789878845
224	0xbfb32057c0000000	-0.07471226155757904
225	0xbfb7b31a40000000	-0.09257663786411285
226	0x3f708bb400000000	0.004039481282234192
227	0xbfaab8b680000000	-0.052190497517585754
228	0x3f9194ab00000000	0.017168685793876648
229	0xbfb9bb9e40000000	-0.1005190759897232
230	0x3fbb961140000000	0.10775859653949738
231	0xbfbb4b4000000000	-0.10661697387695312
232	0x3f6c101000000000	0.0034256279468536377
233	0xbfb0e3ccc0000000	-0.06597594916820526
234	0xbfa9867280000000	-0.04985387623310089
235	0x3fb4f39a80000000	0.0818420946598053
236	0xbfb4fbf580000000	-0.08196958899497986
237	0xbfb6676400000000	-0.08751511573791504
238	0xbfb14e3cc0000000	-0.0676000565290451
239	0xbfb8dcf040000000	-0.09712125360965729
240	0xbf824c2000000000	-0.008934259414672852
241	0xbf9fd30c00000000	-0.0310785174369812
242	0x3f9f394800000000	0.030491948127746582
243	0x3fae50f280000000	0.059211328625679016
244	0x3fafb76000000000	0.06194591522216797
245	0x3fbabe4440000000	0.10446573793888092
246	0x3f5befe000000000	0.0017051398754119873
247	0x3fa71d8700000000	0.04514715075492859
248	0x3fb5343680000000	0.08282795548439026
249	0x3fa011d480000000	0.031386032700538635
250	0xbf9988c200000000	-0.024935752153396606
251	0xbf98b29700000000	-0.02411876618862152
252	0xbf7c8e0c00000000	-0.006971403956413269
253	0x3fa2e5a580000000	0.036908313632011414
254	0xbfb98cf900000000	-0.09980732202529907
255	0xbfba360300000000	-0.10238665342330933

fc2.bias f8 [128]
0	0xbf952a8a3e93d356	-0.020670089787887612
1	0x3fab00f193ed1055	0.05274157458055188
2	0xbfb86d1880000000	-0.0954146683216095
3	0x3f8b1b0a00000000	0.013235166668891907
4	0xbf944615914c25b3	-0.019798600190403536
5	0x3f95e0389a0f884e	0.021363148120038304
6	0xbfb0fed840000000	-0.06638862192630768
7	0xbfa6a78280000000	-0.044246748089790344
8	0xbfb29ee640000000	-0.07273711264133453
9	0xbfa81ff6ca1aa6e4	-0.04711886612979102
10	0xbf8efb3200000000	-0.015127554535865784
11	0x3f6f120800000000	0.00379277765750885
12	0x3faa3ba0c9a001a4	0.05123617612116796
13	0xbfc267d6ea42e750	-0.14379393042127697
14	0x3fa07105b6907108	0.03211229184691616
15	0xbfb8abd4bddbac53	-0.09637193331916309
16	0x3fc016b6f0b65248	0.1256931948997979
17	0xbfc535b89f41d016	-0.16570194030975988
18	0x3fa7268573ac2b82	0.0452157691671209
19	0xbfbc2679c0000000	-0.1099620908498764
20	0xbfa8246400000000	-0.04715263843536377
21	0x3fb53e6ebd2efd66	0.08298389548052895
22	0xbf93e042ac232dce	-0.019410173183855232
23	0x3fa8990e00000000	0.04804271459579468
24	0x3fc32caa57de4206	0.1498005799335404
25	0xbfa1125180000000	-0.0333428829908371
26	0xbfa3874acbf82869	-0.038141572378734896
27	0xbf7ed9685b10da95	-0.007531554832033512
28	0x3fb294210fe168d3	0.07257277143199596
29	0xbfc18e856e302376	-0.13716190223956531
30	0xbfa06773dc2682c8	-0.03203928053267685
31	0x3f985a76d20114a2	0.023782593314781615
32	0xbfad99bd00000000	-0.057813555002212524
33	0xbf9d665057458705	-0.028710608793864462
34	0x3fac16f6727c9e2e	0.054862691379011216
35	0xbf5dc96f652ce3de	-0.0018180454105289827
36	0xbfa9cc7d9029477e	-0.05038826355725144
37	0xbfb2fcad80000000	-0.07416805624961853
38	0xbfa18a6280000000	-0.03425891697406769
39	0xbfa2f76400000000	-0.03704369068145752
40	0xbfbed9115c2fb888	-0.12049969196934474
41	0xbfc3b9ab9d9fe357	-0.15410371014129495
42	0x3fc05fff0c4cc430	0.1279295740182831
43	0x3fa0c7f700000000	0.03277561068534851
44	0xbfb83e8ec0000000	-0.09470455348491669
45	0x3f9d3eaccae25a18	0.028559398539608066
46	0xbfc4abf9e27c6ad4	-0.16149829443823782
47	0xbf91b005e76c3530	-0.017273037195129237
48	0xbfb71dc279e717ab	-0.09029784656658417
49	0x3fbe3fe254499a3e	0.1181622939853719
50	0xbfbdcfffc0000000	-0.1164550632238388
51	0xbf945fb700000000	-0.01989637315273285
52	0x3f9fb9176af948ea	0.030979505447540946
53	0xbfa380c642b6ea91	-0.038091846126424696
54	0xbfa4fa477304edaf	-0.04097197798770524
55	0x3f85a6fc00000000	0.0105724036693573
56	0xbfa36a40fee16e5e	-0.03792002784095126
57	0xbfa7fe8680000000	-0.046863749623298645
58	0xbf93c9d600000000	-0.01932463049888611
59	0xbfadd81b00000000	-0.05828937888145447
60	0xbfaf39b206646f78	-0.060987056045830934
61	0xbfb2110a80000000	-0.07057252526283264
62	0xbfb9998a930f1e80	-0.0999991044073969
63	0xbfaeb3a700000000	-0.059964388608932495
64	0xbfa6207d00000000	-0.04321661591529846
65	0x3fc2322b70ea27a7	0.14215605748569013
66	0xbf962fff3d065d5d	-0.021667469119703287
67	0x3fc27e87bc3e9ae6	0.14448639575603933
68	0x3faaff0728a56344	0.05272695895354798
69	0x3fa8745f57211408	0.047762851129427075
70	0x3fb64c3bc60e71eb	0.08710073075639684
71	0xbfb6ef8a1bb7700b	-0.08959258248017947
72	0xbfad3bb500000000	-0.05709615349769592
73	0xbfa411c7ceaf7218	-0.039198154430526155
74	0x3fb79df1c64df6c3	0.09225379077357858
75	0x3fb087a6ab5341f0	0.0645698707842326
76	0x3fb8e5998b66b9bd	0.09725341466285094
77	0xbfa8b8ff80000000	-0.048286423087120056
78	0x3fb6f4243c22eef0	0.08966280430007223
79	0xbf50129000000000	-0.0009809881448745728
80	0xbf61d52000000000	-0.002176821231842041
81	0x3fa435d200000000	0.039473116397857666
82	0xbfb53f55f0015a0f	-0.08299767598632733
83	0xbfc1a633a369727a	-0.1378845737371142
84	0xbfbbf868c0000000	-0.10925917327404022
85	0x3f9552ac5f843f36	0.020823186235303846
86	0xbfb95d65f728f32e	-0.09908139499834753
87	0x3fa3faec3f53fd08	0.039023764353254775
88	0x3f9441ee5a633ad2	0.01978275705988148
89	0x3fbc904fc0000000	0.11157701909542084
90	0xbfc18e025a1445cf	-0.13714627645872077
91	0xbfc5a65e03bcb3d4	-0.1691396253821994
92	0x3f8a8a4e00000000	0.012959107756614685
93	0xbfa9a3572e0c861e	-0.05007431447144149
94	0x3fae32f7849b58a4	0.05898259633765804
95	0xbfb0f214fd17bc0e	-0.06619387797375983
96	0x3fb9805e63a8c5b2	0.09961500104034007
97	0xbfb7a19d00000000	-0.09230977296829224
98	0xbfb867205205b175	-0.09532358171936102
99	0xbfb53371d9bdc598	-0.08281623426389328
100	0x3f6e242d7a30571c	0.00367936022076777
101	0xbface0463664b9a8	-0.056398576869799044
102	0x3fa1bf47d1f67a1b	0.03466247976324529
103	0x3f9afd64b8c2bef8	0.026357244278812225
104	0x3f89c4a9663d0c05	0.012582133705683072
105	0x3fbf9113a8a2ff88	0.12330744616610734
106	0xbf818b24b78e7a16	-0.008566176273061148
107	0xbfc5e4752590689a	-0.17103447279152278
108	0x3f89fb4a00000000	0.01268632709980011
109	0x3fb2869d30ac21dc	0.07236654699602901
110	0x3f99ff374f1f8b03	0.0253876344721773
111	0x3fc0b1a06b7c8f90	0.13042073486678563
112	0xbfa6b9d17dee51a4	-0.0443864313339504
113	0xbfaf4a3700000000	-0.06111308932304382
114	0xbfb58791285d5eb6	-0.08409983859507517
115	0x3f6c4832f2e4c749	0.003452395924932104
116	0xbfb0cb6ca86824eb	-0.06560401069158998
117	0x3faa1744122fa07d	0.050958754749275116
118	0x3f72ca96395fbc86	0.004587733090359985
119	0xbfbcd03584f542ca	-0.11255201812788154
120	0x3fbb97c6961acddd	0.10778466381707781
121	0xbfbc9eb1aa874edb	-0.1117964783982716
122	0x3fb5d35127c5f821	0.0852556917288614
123	0x3fb7956200000000	0.09212315082550049
124	0x3fb156e176481e05	0.06773194444405568
125	0x3fbdd02c419b263d	0.11645771600446948
126	0x3fadfd935510c17c	0.05857525266071925
127	0xbf98febd00000000	-0.024409249424934387

fc3.weight f8 [64, 128]
0	0x3fb5b9f3a0000000	0.0848686471581459
1	0xbfa1e94460000000	-0.03498281165957451
2	0x3fb0e88020000000	0.06604767590761185
3	0x3f9249e600000000	0.01786002516746521
4	0xbf46bf0000000000	-0.0006941556930541992
5	0x3fb47dd360000000	0.0800449475646019
6	0x3f63761400000000	0.0023756399750709534
7	0xbfb0fc5980000000	-0.0663505494594574
8	0x3faa0559c0000000	0.050822071731090546
9	0x3f82c64300000000	0.009167216718196869
10	0xbfb3fa9880000000	-0.07804253697395325
11	0x3fadf818c0000000	0.058533452451229095
12	0xbf9a6c5b80000000	-0.025803975760936737
13	0xbfadb39520000000	-0.058010730892419815
14	0x3f7256fa00000000	0.004477478563785553
15	0x3f996e9e00000000	0.024836033582687378
16	0xbf9ff52040000000	-0.031208518892526627
17	0x3f81c54800000000	0.008677065372467041
18	0xbf999e2200000000	-0.02501729130744934
19	0xbfb6614120000000	-0.0874214842915535
20	0xbfb4a3e6c0000000	-0.08062593638896942
21	0xbfae678ba0000000	-0.05938373878598213
22	0xbf9ec95d80000000	-0.03006502240896225
23	0x3f698b7000000000	0.0031182467937469482
24	0xbf7d72ee00000000	-0.0071896836161613464
25	0xbfb09a27e0000000	-0.06485223025083542
26	0x3f9dff0500000000	0.029293134808540344
27	0x3faec7ddc0000000	0.06011860817670822
28	0xbfb1ae6ba0000000	-0.06906769424676895
29	0x3fa48d1b40000000	0.040139056742191315
30	0x3fb04bfda0000000	0.06365952640771866
31	0x3f8e1fc400000000	0.014709025621414185
32	0xbfa0b415a0000000	-0.032623935490846634
33	0x3f818acd00000000	0.008565522730350494
34	0xbf8da82400000000	-0.01448085904121399
35	0xbfb102bd60000000	-0.06644805520772934
36	0xbf97d65780000000	-0.02327858656644821
37	0xbfa371c5a0000000	-0.03797738626599312
38	0xbf9a6cce80000000	-0.02580568939447403
39	0xbf739fd200000000	-0.004791088402271271
40	0x3f91104c80000000	0.01666373759508133
41	0x3fa4753440000000	0.03995669633150101
42	0x3fb58ab5a0000000	0.08414778858423233
43	0x3fa520b240000000	0.04126507788896561
44	0x3f8f851b00000000	0.01539059728384018
45	0xbf85582e00000000	-0.010422095656394958
46	0xbfa41e67c0000000	-0.03929447382688522
47	0xbfb0b1f860000000	-0.06521560996770859
48	0xbf9fd7c3c0000000	-0.03109651431441307
49	0x3fa57829c0000000	0.041932396590709686
50	0x3fabc306c0000000	0.05422230809926987
51	0xbf9be6b580000000	-0.027247272431850433
52	0x3fb1f7a360000000	0.07018490880727768
53	0x3f8b5a8e00000000	0.013356313109397888
54	0x3fb54c6220000000	0.08319676667451859
55	0x3fa0ae8000000000	0.032581329345703125
56	0x3faf82bb40000000	0.061544276773929596
57	0xbf96368500000000	-0.021692350506782532
58	0xbfb4a473c0000000	-0.08063434064388275
59	0xbfa6a3fd00000000	-0.04421988129615784
60	0x3f81f9c200000000	0.008777156472206116
61	0x3fa2b43440000000	0.03653109818696976
62	0xbfa6668d40000000	-0.04375115782022476
63	0xbfa24dea40000000	-0.03575069457292557
64	0x3fa482cd40000000	0.040060438215732574
65	0xbf881b6400000000	-0.01177099347114563
66	0xbf98e44700000000	-0.024308308959007263
67	0xbfa3786060000000	-0.038027774542570114
68	0xbf9ddae1c0000000	-0.02915528044104576
69	0xbfac283a20000000	-0.054994408041238785
70	0x3fb3060fa0000000	0.07431123405694962
71	0x3fa75a46c0000000	0.04561062902212143
72	0x3fb2d97860000000	0.07363083213567734
73	0xbf90bf4b00000000	-0.016354724764823914
74	0x3f95c83780000000	0.02127157896757126
75	0xbfaea3daa0000000	-0.05984385684132576
76	0x3fae8f50c0000000	0.059687159955501556
77	0xbf2a084000000000	-0.00019861012697219849
78	0x3f70e9d400000000	0.00412924587726593
79	0xbfb1399b80000000	-0.06728526949882507
80	0xbfa6f12780000000	-0.044808611273765564
81	0xbf921cd400000000	-0.017688095569610596
82	0xbfb0785b80000000	-0.06433650851249695
83	0x3fb1a45ca0000000	0.06891421228647232
84	0x3fa3410740000000	0.03760550171136856
85	0xbfa4f5ef60000000	-0.040938835591077805
86	0xbf86afe800000000	-0.011077702045440674
87	0xbfb3789e80000000	-0.0760592520236969
88	0xbfb3d3c780000000	-0.07745024561882019
89	0xbfa6452080000000	-0.04349614679813385
90	0xbf83ac8200000000	-0.00960637629032135
91	0xbfadfd27a0000000	-0.05857204273343086
92	0xbfa7708700000000	-0.04578039050102234
93	0xbfb6181c20000000	-0.08630538731813431
94	0xbf8d163000000000	-0.014202475547790527
95	0xbfac856be0000000	-0.05570542439818382
96	0xbf868f7400000000	-0.01101580262184143
97	0x3fb5416920000000	0.08302933722734451
98	0xbfab40e3e0000000	-0.053229447454214096
99	0x3fac6d2540000000	0.05552021414041519
100	0xbfa20de1c0000000	-0.03526216000318527
101	0xbfa5638840000000	-0.041774995625019073
102	0x3f9e832a80000000	0.029797233641147614
103	0xbfb6467820000000	-0.08701277524232864
104	0xbfa8e9ade0000000	-0.04865783080458641
105	0x3fa23acd00000000	0.03560486435890198
106	0x3faa7c4bc0000000	0.05172955244779587
107	0xbf85bec600000000	-0.010617777705192566
108	0xbf8b4bf900000000	-0.013328500092029572
109	0xbfb5bacae0000000	-0.08488147705793381
110	0xbfa6004a60000000	-0.042970966547727585
111	0x3f64383800000000	0.002468213438987732
112	0x3fb63ed4a0000000	0.08689621835947037
113	0x3faf1a48c0000000	0.060747407376766205
114	0x3fb262bfa0000000	0.07181928306818008
115	0xbf9556d800000000	-0.02083909511566162
116	0x3fafac4440000000	0.06186116486787796
117	0xbfb5c98e60000000	-0.0851067528128624
118	0xbf91b36f00000000	-0.017286047339439392
119	0xbf9e808940000000	-0.029787201434373856
120	0x3fb0d5ba20000000	0.06576121598482132
121	0x3fb622f4a0000000	0.08647087961435318
122	0xbf972fb400000000	-0.022642910480499268
123	0xbfb52bf0e0000000	-0.08270173519849777
124	0xbfae9e0860000000	-0.0597994439303875
125	0xbf91d8ab80000000	-0.017428092658519745
126	0xbf8e054d00000000	-0.014658547937870026
127	0xbfaf79e240000000	-0.061476774513721466
128	0x3f847ee8c736d36b	0.0100076852603281
129	0xbfb01a0bee6451c3	-0.06289743967165067
130	0xbfb2c5bda0000000	-0.07332978397607803
131	0xbfa8586180000000	-0.0475492924451828
132	0xbfc1a253692e66c4	-0.1377662910061216
133	0xbfbb3cce302e52de	-0.10639656711857579
134	0x3f6f65fc00000000	0.003832809627056122
135	0xbfb1cee0a0000000	-0.06956294924020767
136	0xbfa4305760000000	-0.039431314915418625
137	0x3f9f2a3678e1190e	0.030434466483961357
138	0x3fa62a9fc0000000	0.043293945491313934
139	0x3fa3b3ac40000000	0.03848017007112503
140	0x3f74cb6882b081b6	0.005076797718203732
141	0x3f97b9432ca2490b	0.023167657469977104
142	0xbfb2a547cf0dda59	-0.07283448033363395
143	0x3f943a45ef01c79b	0.019753544533564243
144	0x3f810a2059f9761e	0.008320095773508614
145	0x3f94af29a5e60119	0.020199442625654294
146	0x3fc08051271ae556	0.12891592416216707
147	0xbfa10cfec0000000	-0.033302269876003265
148	0x3f9a875f80000000	0.025907032191753387
149	0xbfb1c4e2bfd7e2f9	-0.0694104879729699
150	0x3fb9dd6638c057d1	0.1010345352700306
151	0x3f760cde00000000	0.0053833648562431335
152	0xbfa8ed999f4bb822	-0.048687744803700875
153	0xbf87d6e800000000	-0.011640369892120361
154	0xbf7db17c00000000	-0.0072493404150009155
155	0x3fa8efd9fd346633	0.04870492187383171
156	0xbfae1317b4be5bfe	-0.058739414990832
157	0x3fae6891f536d276	0.059391556914680274
158	0xbf9df3c92d0ecf3a	-0.029250281691658865
159	0x3f825519d45a9964	0.008951379578615977
160	0x3fb5af6320000000	0.08470744639635086
161	0xbf75a784502d19d4	-0.005286709640876148
162	0x3fa38c83dea3ea75	0.03818142025734953
163	0x3fc110435279290e	0.1333088066770149
164	0x3fa69d124f4d533f	0.044167110615183074
165	0xbfaeae4ea0000000	-0.05992360785603523
166	0x3fb55f70a0000000	0.08348754793405533
167	0xbfb438c520000000	-0.07899124175310135
168	0xbfc1c689b0b6e786	-0.13887139443050617
169	0x3f9ef8fcff04d157	0.03024668985854481
170	0x3fa2f588577aa949	0.03702951495991386
171	0x3fb4b95b60000000	0.08095332235097885
172	0xbfb1c6e080000000	-0.06944087147712708
173	0x3fb0d8a0e7019109	0.06580548896596751
174	0x3fa9a07550c39250	0.05005232439888074
175	0x3fa72654f264a351	0.04521432360554079
176	0x3fa03d9205ee99b8	0.03171974489605439
177	0xbfb929db74b2e5f1	-0.09829494093982995
178	0x3fa6b7dac0000000	0.04437144845724106
179	0x3f6bb92000000000	0.0033841729164123535
180	0x3fad1729ec4b1956	0.056817350477603654
181	0x3f7bfc20f19fc7fa	0.006832245528118003
182	0x3fa8b4d7e242e6ef	0.04825472485522463
183	0x3fb01fb320000000	0.06298369914293289
184	0xbf7d1816ce70c2c4	-0.007103051269084563
185	0x3fa8b6bd40000000	0.04826918989419937
186	0xbf9778e580000000	-0.022922120988368988
187	0x3f726f4c00000000	0.004500672221183777
188	0x3fa51c727abfbab2	0.04123265980148484
189	0x3f6924a800000000	0.0030692368745803833
190	0x3fc2202379ca39bd	0.14160579153799616
191	0xbfac19d340000000	-0.05488453060388565
192	0x3fb5d7b3e0000000	0.08532261103391647
193	0xbfad9eff4533387e	-0.057853676984096034
194	0x3f9b71235a847815	0.02679877510046687
195	0xbf9fb90a86b75186	-0.030979313347260916
196	0x3faafb22a50497fc	0.052697260516922
197	0xbf942f5dd05a55d0	-0.01971193870720872
198	0xbf71072c00000000	-0.004157230257987976
199	0x3fbc422a8886bdcf	0.11038461526071973
200	0x3fb16f9a20000000	0.06810916215181351
201	0x3f9c0ac60e38759b	0.027384848230317265
202	0x3f9638d87e77e5d1	0.02170122405911973
203	0x3fb51c95ed9d27a0	0.08246743250961552
204	0xbfa58f4b47e6c6cf	-0.04210887196258072
205	0xbfa8c477c0000000	-0.048373930156230927
206	0x3f849ac5dae67ffe	0.010060830824670571
207	0xbfa36b5120000000	-0.03792813792824745
208	0x3faad86f40000000	0.05243251472711563
209	0x3faeda7040000000	0.06026030331850052
210	0x3fb7f2abc5909b4f	0.0935466153465374
211	0x3f8df1cc0c7def38	0.01462134755251264
212	0x3fa187f500000000	0.034240394830703735
213	0x3fbf31d5e924fe35	0.12185418073658456
214	0x3fb205475565660a	0.07039304575791774
215	0x3fb8626c8ab9902b	0.09525183092915827
216	0x3f974457dc5168e9	0.022721646139282212
217	0x3fa6ae9cc0000000	0.04430093616247177
218	0x3fb7aeea97a95a08	0.09251276209520409
219	0x3fb9011b178932de	0.09767312359435773
220	0x3f91da7e80000000	0.01743505150079727
221	0xbf711200e4be20e7	-0.00416756009133954
222	0xbfb3d4178b2d1f24	-0.0774550165925772
223	0x3f76b2ee85a3a8eb	0.005541736342119056
224	0xbfb0dac5eddfb8ba	-0.0658382135149819
225	0x3fb54fc4e0000000	0.08324842900037766
226	0x3f9a7628198cc3aa	0.025841356810989126
227	0xbf7db0b5c86e1298	-0.007248601998871472
228	0x3fbd4c1853abcecb	0.1144423679614263
229	0x3f967b22b249db28	0.021954099780909037
230	0x3fa6e9fc6c27a215	0.04475392170190077
231	0x3faca7ccb85b2904	0.05596771002235992
232	0xbf9076132387974c	-0.01607541946750439
233	0xbf99a3afaca3e66d	-0.025038475906490044
234	0x3f8e117356baf76d	0.014681721767711509
235	0x3fc0d4c573d10600	0.13149326472380096
236	0x3f806e2e00000000	0.008022651076316833
237	0xbfb3f0e7ed07c06b	-0.07789468323585573
238	0x3fb8b14c34d08d2e	0.09645534791393537
239	0xbf950247e744ffdb	-0.02051651333863434
240	0x3fb020a6286c3246	0.0629981850326625
241	0xbf98438d80000000	-0.023695193231105804
242	0xbfbe787bc3d72436	-0.1190259316564529
243	0x3fb56e54e0000000	0.08371477574110031
244	0xbfb1c2936c1d5076	-0.0693752421332777
245	0x3fbb3f2d0c1395c6	0.10643273873173262
246	0x3fa2bc3bc0000000	0.036592356860637665
247	0x3fb559c51c354957	0.08340103090930505
248	0xbf92034ecf58a934	-0.01759074345151497
249	0xbfaefdf240000000	-0.06053120642900467
250	0xbfb75ae6df001673	-0.09123080200523663
251	0xbfb0027120000000	-0.06253726035356522
252	0x3f939f9000000000	0.01916337013244629
253	0xbfa218d9df3901f7	-0.03534584855924899
254	0xbfa75f625d33c43f	-0.04564959895822839
255	0xbf8ad90300000000	-0.013109229505062103

fc3.bias f8 [64]
0	0xbfabaa8d20000000	-0.054035577923059464
1	0x3fa39397fbc44e09	0.03823542545628917
2	0xbf66fe37bb7ed0e6	-0.002806767322875203
3	0x3fb51f02e41f52b9	0.08250444478410203
4	0xbfc04d26d363264e	-0.12735448190351167
5	0x3fa3b6b741a307c4	0.03850338627081798
6	0xbfa0159a8bf30db6	-0.03141482313506165
7	0xbf9e62edc0000000	-0.029674258083105087
8	0xbf99725e00000000	-0.02485033869743347
9	0x3fb89d776742da30	0.09615274687789888
10	0x3f9bf79d00000000	0.02731175720691681
11	0x3fc24fb2d15b2998	0.14305720541444766
12	0xbfb0323820000000	-0.06326628476381302
13	0x3fc0c82b1f4f6ebc	0.13110865620443757
14	0xbfa9fbe62bc6acb6	-0.05074996265769853
15	0xbfaf84e7841a06ba	-0.06156085479325442
16	0x3fbad2acb6418061	0.10477714013677676
17	0xbfacbeac18fb87aa	-0.05614221386873848
18	0x3fc5bc7ef04c7a84	0.16981493695580607
19	0x3fb55a2b20000000	0.08340711146593094
20	0xbfaf9e4ba0000000	-0.06175457313656807
21	0xbfb8fbb101f7887d	-0.09759050653477348
22	0xbfc13cbe7708ecb2	-0.13466625988244157
23	0x3f9be471adac8db0	0.02723863241693686
24	0x3fc9f22bd79e4eb8	0.2027029803108371
25	0x3fbbf276864c1d9f	0.10916844156974158
26	0xbfc08d168cde9fc9	-0.12930566671752633
27	0xbfb46ef7a0000000	-0.0798182263970375
28	0x3fbf4c55b9fc06ac	0.12225852766644135
29	0xbfc1f3e231be9be8	-0.14025523594793232
30	0xbfa382c2f8ba2c6b	-0.038107006895267435
31	0xbf916cb100000000	-0.01701618731021881
32	0xbfa92d9c20000000	-0.04917610064148903
33	0xbfa6c5da80000000	-0.04447825253009796
34	0xbf9a65233f301501	-0.02577643464248514
35	0xbfb5a3ff40000000	-0.08453364670276642
36	0xbfad9fa5a278f168	-0.05785863502794336
37	0xbfb3914740000000	-0.07643552124500275
38	0xbfa78dec00000000	-0.046004652976989746
39	0xbf8238c400000000	-0.008897334337234497
40	0xbfa7916cba6919f1	-0.046031377558893534
41	0xbfbf6bd3ca7a9270	-0.12273906415300373
42	0x3f8acb4933396fd8	0.013083049655669685
43	0xbfc11e4a92e5ebc8	-0.1337369172359486
44	0xbf7dd4ac42cef626	-0.007282898802200266
45	0xbfba93e695c9c46c	-0.10381928593575801
46	0xbfb4a81d5a489e5e	-0.08069022611800267
47	0xbf9abcafec1bf0f6	-0.026110409532507504
48	0xbfb07834c90cadc3	-0.06433420093951896
49	0xbfa589d7caa0c322	-0.042067283139095815
50	0x3fb927d20cee819a	0.09826386275972823
51	0x3f81cf939f20023d	0.00869670228348795
52	0x3faf700f3f0d9542	0.06140182156267794
53	0x3fb9df2793b9e3bf	0.101061318937254
54	0xbfae2dca4d757ad9	-0.058943101840432006
55	0xbfaa7c318a1fbb94	-0.05172877131541678
56	0x3fab8eabdd1b23ce	0.0538228709606937
57	0x3f89adfd4741d213	0.012538889634222483
58	0xbf91be0c8ede0929	-0.017326542110376018
59	0xbfb383ca4fc51e32	-0.07622971007833071
60	0x3fbabe0caac8650d	0.10446242494107967
61	0x3fc0515a67e2ca2e	0.12748270103982534
62	0xbfc0ed8433f9d645	-0.1322484258450222
63	0x3fb78a555731d721	0.09195454958702644

fc4.weight f8 [2, 64]
0	0xbfb6f857c0000000	-0.08972690999507904
1	0x3fb8b1ac9517ab64	0.09646109237625705
2	0x3fa2686d04432ea2	0.035952955980602455
3	0x3fa74d8f095e3f18	0.045513601201603915
4	0xbfab8c51343f0ee2	-0.05380491030476066
5	0x3f7d686be63216c6	0.007179662209755916
6	0x3fb602d3080e0f41	0.08598059603360488
7	0x3fa75fd400000000	0.04565298557281494
8	0x3fa52fda80000000	0.04138071835041046
9	0xbfc0e31fabc58d93	-0.13193126570977806
10	0x3f83c02a00000000	0.00964386761188507
11	0x3fb122eb55a6e10a	0.06693907586202755
12	0x3fb938be00000000	0.09852206707000732
13	0x3f7ed5e4a82a74ab	0.007528203192717668
14	0x3fa7161d3e95eaa8	0.045090593232960885
15	0xbfa49f1eaa60428f	-0.04027648763451907
16	0x3fb00c2606bf0778	0.06268537201597535
17	0x3fa3944d8a75b13f	0.03824083628828356
18	0x3fb03f43f6d39d60	0.06346535469093828
19	0x3fad9c2880000000	0.0578320175409317
20	0x3fa8d1fc80000000	0.04847706854343414
21	0x3f79030a12f2cbc1	0.006106414176588027
22	0x3fa755c02044ce6d	0.04557609933763449
23	0x3f86f3752f5cfbeb	0.011206546314154372
24	0x3f90432197fc44cf	0.01588108530183235
25	0x3fa78abd296d5a8b	0.04598036890700027
26	0xbfac7e693bfeab1a	-0.05565193993910196
27	0xbfa4d1d580000000	-0.04066340625286102
28	0x3fa10af991b77091	0.033286856687227424
29	0xbf9a814ff77d001e	-0.025883912544713998
30	0xbfa8370d17c3e515	-0.04729500689604486
31	0xbfbcbf26c0000000	-0.11229173839092255
32	0xbf805d8400000000	-0.007990866899490356
33	0x3fb8456ec0000000	0.09480945765972137
34	0x3f91d7a804c74a40	0.017424226085333894
35	0xbf8bb2d200000000	-0.013524666428565979
36	0x3fbb37a6c1d268ad	0.10631792289715021
37	0x3fbc6ae140000000	0.11100585758686066
38	0x3fbbf985c0000000	0.10927616059780121
39	0x3fa7525c80000000	0.04555024206638336
40	0xbfa4446798802362	-0.039584386220730364
41	0xbf93204fd6947372	-0.01867794749442759
42	0xbfa7e23073f72750	-0.04664756217569155
43	0x3fa2e43e084e3496	0.036897600663999316
44	0x3f7d70fa1adc42bd	0.0071878213618822824
45	0x3fa3d61a744ef7be	0.038742853830157284
46	0x3f5964c39ab6f42a	0.001549902934910872
47	0x3f9df0b5d8645a5b	0.029238549549598463
48	0x3fa8c439cc3c1d29	0.04837208383656339
49	0x3fb0899aea6b7bb9	0.06459968779698401
50	0x3f7e66c525ed2519	0.0074222279643632256
51	0xbfa576222293ce6d	-0.04191691085898417
52	0x3fb6a5d41deada92	0.08846784334569183
53	0x3fb948bf697214c6	0.09876629185062588
54	0x3f3821a1b5db4099	0.00036821554190869795
55	0xbf6cce250fd1bce0	-0.003516266237560836
56	0xbfae8955de31f90d	-0.05964153611511067
57	0xbfb0ac6a7d61277b	-0.0651308590032879
58	0x3f9bce908165e437	0.02715516843588636
59	0xbfb01e09773fc52a	-0.06295832787852321
60	0x3fa1abb8dfa245e0	0.03451326112657305
61	0x3fb5a4adede30256	0.08454405839712228
62	0x3f8ef917502a997d	0.015123541006073488
63	0x3fb8ddd5ff1d18d7	0.09713494757042739
64	0x3fbeef5780000000	0.12083956599235535
65	0xbf9f5066ead24e01	-0.03058014686810218
66	0xbfcd321fee42b178	-0.22809218534292675
67	0xbfabe2e8eadfcd5d	-0.05446555964581521
68	0xbfc4a21b1237790e	-0.1611970747898756
69	0xbfc9c3b733b1784a	-0.20128526710590428
70	0xbfc576b113d95557	-0.16768468350589202
71	0x3f8a2a9200000000	0.012776508927345276
72	0x3fbb478d80000000	0.10656055808067322
73	0xbfcea3c7050e2f64	-0.23937309023710462
74	0xbfb8257380000000	-0.09432145953178406
75	0xbfd15868bd55ac78	-0.2710210656138723
76	0xbf9ac55a00000000	-0.02614346146583557
77	0xbfc511c82d08ba63	-0.16460516165666936
78	0xbfb1391983247cf0	-0.06727752162668188
79	0xbfbaf65fe7fcdb75	-0.10532187856447968
80	0xbfc4a562a8c60b7b	-0.16129716149233872
81	0xbfb592f7fa7fb3fb	-0.08427381387419068
82	0xbfd1f244a7dad99d	-0.2804118766029207
83	0x3fb7a61200000000	0.09237778186798096
84	0xbfad056900000000	-0.05668190121650696
85	0x3faf8d65279576ba	0.061625634271633215
86	0xbfb8e37cd1a4bf57	-0.09722118490458108
87	0xbfc0b604dd0a05db	-0.1305547789852842
88	0xbfd088c16718ee84	-0.2583468920526928
89	0xbfbfc2a00f2cd673	-0.12406349535452836
90	0xbfa65a40a54c80c3	-0.04365732209976294
91	0xbfb8ce9fc0000000	-0.09690283238887787
92	0xbfc78206cc5b5434	-0.18365559557301625
93	0x3fa35c989970e358	0.037815827112757716
94	0x3fb4823eb089ac0f	0.0801123791695064
95	0xbfb0425ac0000000	-0.06351248919963837
96	0x3fa49dfa00000000	0.040267765522003174
97	0xbf97871000000000	-0.022976160049438477
98	0xbfa8f91be2521cde	-0.04877555024818901
99	0xbfa68e6700000000	-0.04405519366264343
100	0xbf89b8afbfc815dc	-0.012559292831620654
101	0x3fbff86480000000	0.12488391995429993
102	0xbfbd0fd800000000	-0.11352300643920898
103	0x3fbb2ce3c0000000	0.1061537116765976
104	0xbfc3bcaf554ee6d9	-0.15419570603790225
105	0xbfc07706c36001e8	-0.12863239803119986
106	0xbfa051b33eb143f3	-0.031873322871099584
107	0x3f9f795b63ed4d8c	0.030736377691324132
108	0xbf540b7136820cbb	-0.0012234311671200221
109	0xbfba13193d1620d6	-0.10185392133110169
110	0x3faed4c337a48c9b	0.06021699957116163
111	0xbf6e4e1b6bda4d07	-0.003699353749490822
112	0xbfa94eb7ec5475fb	-0.04942869911085875
113	0xbfc10b2e8ec95200	-0.13315374347679665
114	0xbfc7f8da4914c4df	-0.18728188103117469
115	0x3f9942fcd430644e	0.024669599963179238
116	0xbfc9655855bf42d9	-0.19840530573721685
117	0xbfce6bb1c1ee8d91	-0.2376615712101793
118	0x3f8881815a6cba81	0.01196576173023556
119	0xbfb58bb009053ce4	-0.08416271419740756
120	0xbfbfd804a2c7ffc3	-0.12438992475654147
121	0x3fab85850aaf8adb	0.053753049425514475
122	0xbf8f8efbba999314	-0.01540943778236107
123	0xbfb79a36cb62405f	-0.0921968695204227
124	0xbfcfc53776b1a5c6	-0.2482060746727212
125	0xbfc6edb04d58bf49	-0.1791286828679353
126	0xbfaea963b561745a	-0.05988608922118806
127	0xbfcf02f4d887b182	-0.2422777230525633

fc4.bias f8 [2]
0	0x3fb4dac94bc79110	0.08146341419302794
1	0xbfb1c1932aa08dc7	-0.06935996809675436
