src/backend/controller/checkpoints/checkpoint_epoch_106.pth (torch, 420244 bytes, 25 tensors)

fc1.weight f8 [64, 5]
00000000: 6b91 fd92 54fa c53f c03b 311d 19b3 ddbf
00000010: 547d df2e b2e7 cf3f c217 6759 46dc c7bf
00000020: 8b69 5d61 324d bb3f 0000 0040 8728 c4bf
00000030: 0000 00a0 b44c d2bf 0000 0060 19c4 dabf
00000040: 0000 00c0 7e27 cebf 0000 0000 7649 ba3f
00000050: 1e32 b930 58cb cbbf d0f2 a46f 92c7 b33f
00000060: 2979 cba3 60fd d8bf 38dc c867 0fdc da3f
00000070: 12b0 6f68 0ff0 b03f 0000 0000 e3b3 d23f
00000080: 0000 0040 217d c0bf 0000 0080 2103 d1bf
00000090: 0000 0080 0852 d7bf 0000 0080 03e7 b5bf
000000a0: 0000 00c0 4bff c4bf 0000 0000 a42d 8abf
000000b0: 0000 0040 4265 d93f 0000 0000 98ab 933f
000000c0: 0000 0040 1c0d dabf 1ffb 4560 6f7d c3bf
000000d0: 576e 3267 fc2b d73f fb0e 0bf1 0e7d d83f
000000e0: de9b fd33 2a19 b93f 6d5f 4758 2a8e d6bf
000000f0: 5a5d 0070 0e70 ccbf 2feb b248 cf25 d2bf
00000100: c1bd 6148 99a5 d13f a14e e37f 27ad cf3f
00000110: 85c3 2cae 5191 d93f 0000 00c0 50ec d73f
00000120: 0000 0080 4469 dabf 0000 0080 1065 b6bf
00000130: 0000 0040 588f d4bf 0000 0000 0002 b63f
00000140: ef37 1a1e b33c c83f e619 0f5e 5012 d0bf
00000150: 07dc e0ae 130a 7bbf 77ea 04a7 6ef5 bd3f
00000160: 39e9 c958 c111 d03f f29b 2c67 d1a9 d33f
00000170: 2f3c 483c 78f0 973f 8f6e 7d3b 1b12 b23f
00000180: 60d8 5a3f 9f76 d9bf ad2e ed08 85e6 bd3f
00000190: 4d31 4c82 ca62 d4bf f5fc 6876 7d01 98bf
000001a0: 61a8 9c12 c939 d93f 32e1 eaa8 58a1 803f
000001b0: a576 c179 73fb c13f 96ad 819b c3ee d03f
000001c0: 22ee 1ea0 d9bb c83f d456 3e1d 7292 713f
000001d0: 4d34 f42c d4ac d33f 0b92 cdc3 1c6f 5dbf
000001e0: 0000 0080 db48 c4bf 0000 0000 8570 ba3f
000001f0: 0000 0080 33b8 d6bf 0000 0080 8c16 d33f
00000200: 0000 0040 0587 c9bf 4821 2950 ea83 d4bf
00000210: 8768 026e 14ec ce3f c659 61c1 0458 dc3f
00000220: 2e1b 7f37 3368 6fbf a37a 0fe9 21ce d23f
00000230: d629 775b fb6a d6bf f2e1 3d2a 225d cf3f
00000240: 41d9 710f e488 bebf 8e17 e209 f4b7 963f
00000250: 232b 8000 2d11 b3bf 0000 00a0 ca04 d2bf
00000260: 0000 00c0 9904 d9bf 0000 0040 7efa d1bf
00000270: 0000 00c0 3056 d93f 0000 0000 884c c03f
00000280: c4b2 52d4 686c c73f c613 169e 62be a0bf
00000290: dabf 8978 6b20 cc3f 7d6e 6197 eea7 9ebf
000002a0: 7f02 5a4c 6e7f c03f 3ead 6220 fb38 aabf
000002b0: 17f8 c331 b747 d83f bbf4 c80a cb83 c33f
000002c0: 5a0f 9d11 037f c03f c3b5 2727 e185 cf3f
000002d0: 0000 0080 2081 cd3f 0000 00c0 e0de c6bf
000002e0: 0000 0080 694c dbbf 0000 0000 2dd4 a73f
000002f0: 0000 0080 3d23 d2bf 132d 6d6b 495c b73f
00000300: 77f1 79cf d742 b13f f993 480b 6174 bf3f
00000310: 4148 2c20 3a4b d13f 1e58 86b9 1dc3 c8bf
00000320: 7181 25b7 fb74 e03f 8469 5c11 f725 d9bf
00000330: 6433 a3c5 fc46 d2bf ceb3 7269 1788 cf3f
00000340: d3fd 1e03 a8b9 92bf 0000 0080 5fb4 c93f
00000350: 0000 0000 d0d7 cdbf 0000 0000 ede2 aabf
00000360: 0000 0000 f143 c3bf 0000 0000 f327 d0bf
00000370: 0000 0040 1f51 db3f 0000 00e0 408f c9bf
00000380: 0000 0080 82d1 d3bf 0000 0040 af45 dabf
00000390: 0000 00a0 c946 dabf 3f82 0f9e de66 c83f
000003a0: ebf5 d1ba 861a d53f 611e 23f7 0cdd aabf
000003b0: 983a f9e3 6c08 debf c587 6ca5 a084 c63f
000003c0: 0000 0000 0fed bdbf 0000 00e0 bcb6 d8bf
000003d0: 0000 0080 9a77 d83f 0000 0080 1462 c13f
000003e0: 0000 0020 2546 cfbf 115d 9832 edb8 d2bf
000003f0: b462 3b3b 2d97 af3f 7f7d e77d 5218 d6bf
00000400: 20a7 46be 1642 c83f 7dfb c8ea 591e d5bf
00000410: 0000 0000 8ede d63f 0000 0080 e575 bdbf
00000420: 0000 0000 775c b53f 0000 00c0 c0b0 dbbf
00000430: 0000 0080 122a b3bf 0000 0000 a62e b0bf
00000440: 0000 0040 dd09 c0bf 0000 0000 b007 afbf
00000450: 0000 0080 bdad b2bf 0000 00c0 7025 d43f
00000460: 2906 3362 fa17 ab3f 6fd2 6299 bec6 cabf
00000470: 4d8b 070f 50b1 cf3f 6923 7140 6827 c33f
00000480: 88fd 27b8 200a d3bf 0000 0000 d9f1 c1bf
00000490: 0000 0080 8860 bfbf 0000 0080 6809 d63f
000004a0: 0000 0000 28ff 8bbf 0000 0000 9065 c13f
000004b0: 0000 0080 0ee1 c3bf 0000 0080 4070 cb3f
000004c0: 0000 0000 5e63 b8bf 0000 0000 15a0 c83f
000004d0: 0000 0000 8df7 a13f 0000 0080 81d9 c83f
000004e0: 0000 0000 a403 913f 0000 0080 f8bd d4bf
000004f0: 0000 00c0 8968 d9bf 0000 0040 97d0 d1bf
00000500: 35f3 0604 0851 aa3f cd7e 4b5b 005a c53f
00000510: 5b2a 8485 7a90 cdbf 9de0 9cb2 6e91 cb3f
00000520: d4f1 f4b4 1358 d43f 4a6d 3971 5478 c23f
00000530: 306a 4093 7f04 d4bf c2d3 29ae 7ffc a93f
00000540: 169b 5011 0902 cc3f 360d 771c e483 d83f
00000550: 0000 0000 cb91 d1bf 0000 0000 f4f6 ad3f
00000560: 0000 0000 45a0 c0bf 0000 0000 0079 cb3f
00000570: 0000 0000 7c66 ac3f 0000 0020 3579 d8bf
00000580: 0000 0080 e0ea b4bf 0000 0000 08bf 9f3f
00000590: 0000 0000 5e09 d7bf 0000 0020 1624 d9bf
000005a0: 8785 6b17 d0f5 da3f 530c 52c7 b1a0 c1bf
000005b0: 2636 ad7e 397a d7bf fdeb 4e8d 6b30 a83f
000005c0: 3110 3dd0 1361 cc3f 9764 07e4 e0df d43f
000005d0: 0765 4bb0 0122 b63f 9d22 cac6 05fa cd3f
000005e0: 4e0c 8691 00aa d03f 886e d726 452a d83f
000005f0: 6ade edcf 728c d03f f799 8256 bd43 c1bf
00000600: e3de 6375 b864 d1bf ba1a c716 1a9a c9bf
00000610: d3cf fc3f be85 bcbf 84bb 7a65 0423 d4bf
00000620: c1c9 3b81 11b0 d1bf dd5d 74ee f06b e03f
00000630: 60b1 5369 df62 c3bf 0c51 aed4 8363 d43f
00000640: 2f2a 8cab c087 dc3f 681b 0014 a538 c0bf
00000650: d76c 49f9 b07b d9bf 3c5d 123a 7bc9 d93f
00000660: cdf3 22cc c414 b4bf 0000 0000 17fe b03f
00000670: 0000 0000 8544 c43f 0000 0080 2285 c4bf
00000680: 0000 0080 bf61 bdbf 0000 0060 0cff d7bf
00000690: 0000 0000 dcd4 983f 0000 0040 5d41 c0bf
000006a0: 0000 00c0 9d6e cdbf 0000 0000 08a9 c53f
000006b0: 0000 0000 46ba b4bf 091d 29d3 773b c23f
000006c0: 1dcb 60b3 e931 a3bf fcc1 b06d 858b dbbf
000006d0: aef3 60f0 3196 cb3f b256 def5 5156 c2bf
000006e0: 39c4 80ad 4456 bdbf f021 23bc af70 dd3f
000006f0: 556a f129 c0a9 da3f ce0d c9eb 07d0 d23f
00000700: b140 fd9d 5ebe d5bf 7757 6e43 fcf3 e0bf
00000710: c52f 47c6 5ba0 a4bf 9eab d157 b598 d5bf
00000720: 9be6 eec9 bb6d d63f 7a9c b704 cb91 d03f
00000730: c7a2 99df 576b cb3f 5995 b765 9b8b cfbf
00000740: 3066 5b46 7d89 563f 29a4 5292 d1df d13f
00000750: cfce 5ef0 042a c43f 5b74 8718 8e47 b73f
00000760: 853e 4663 4ae8 d53f c82f 7818 789e b93f
00000770: 1900 045b 4df8 d73f 0c42 5943 3119 b3bf
00000780: 30d9 fcf9 5cae 863f 89b0 95dc af91 d13f
00000790: fd71 7e1c 8535 d83f d168 2ab4 054a c63f
000007a0: a5b0 a11c 5ca1 80bf 0000 0000 8507 b23f
000007b0: 0000 0000 4f03 b9bf 0000 0000 8cdd 9bbf
000007c0: 0000 0080 ed0c cd3f 0000 0000 6803 89bf
000007d0: f659 7d5d 3f7c cc3f ac15 2c5d e7ba d3bf
000007e0: 86ca 8e0f 5deb d2bf 1828 b934 502a b53f
000007f0: 072d d10c 3786 ccbf 132a 7fa5 9de9 bd3f
0.1717019765593578 -0.46405628062069226 0.2492583016273594 -0.18640975346914784 0.10664667965958168 -0.15748682618141174 -0.2859317362308502 -0.4182189404964447
-0.23558029532432556 0.102683424949646 -0.2171430814654664 0.07726397729579593 -0.3904649352606549 0.41968140731063697 0.06616302776063801 0.29222941398620605
-0.12881866097450256 -0.2658160924911499 -0.36438190937042236 -0.08555623888969421 -0.16404101252555847 -0.012782365083694458 0.3968053460121155 0.01920926570892334
-0.4070501923561096 -0.1522654743275433 0.36205968931037574 0.38263295688032856 0.0980402352266618 -0.3524270879838614 -0.2221696898347812 -0.2835577211332518
0.2757323462346584 0.24747174973037026 0.3994945717741348 0.37379854917526245 -0.41267502307891846 -0.0874796211719513 -0.3212490677833557 0.085968017578125
0.18935240716785937 -0.25111779389808786 -0.006601406943494765 0.11702624871842625 0.2510836951329512 0.3072398669777946 0.023378256491977275 0.07058878137962153
-0.3978651159953923 0.11679870098049135 -0.3185297272146002 -0.023443184234790377 0.39415194337437326 0.008120243697121585 0.14048617787459708 0.26457300363718994
0.1932327300872752 0.0042900521838384505 0.3074236334803729 -0.0017965107828895623 -0.1584734320640564 0.10327941179275513 -0.35499274730682373 0.29825127124786377
-0.19943299889564514 -0.3205514700716958 0.2415795838504133 0.442872227523733 -0.003833866150645979 0.2938313270550827 -0.3502796548097228 0.24502970755180759
-0.11927628876751319 0.022186101058216993 -0.07448083173964597 -0.28154245018959045 -0.39090579748153687 -0.2809138894081116 0.3958856463432312 0.1273355484008789
0.18299589507423353 -0.03270252399219191 0.21973937402390115 -0.02993748473123369 0.1288888809977102 -0.05121598024683259 0.3793771730414632 0.15245950724230348
0.12887609825167595 0.2462731782137962 0.2305031418800354 -0.17867669463157654 -0.4265388250350952 0.046540647745132446 -0.28340089321136475 0.09125193474499253
0.06742619338360166 0.12286955380893962 0.27021649495975814 -0.19345447119548081 0.5142801835136607 -0.39294220633896537 -0.28558272648370164 0.24634068154173722
-0.018286347570890826 0.2008170485496521 -0.23314857482910156 -0.052512556314468384 -0.15051090717315674 -0.2524383068084717 0.4268262982368469 -0.1996842473745346
-0.30966246128082275 -0.41050320863723755 -0.41057053208351135 0.19063933103372396 0.32974403614193076 -0.052467732589829515 -0.4692642427734568 0.1759224708303561
-0.11689847707748413 -0.3861534297466278 0.3823000192642212 0.1358056664466858 -0.24432815611362457 -0.29253702107367113 0.06170026157423561 -0.34523451133096467
0.18951687136478146 -0.3299774926016921 0.3573336601257324 -0.11508020758628845 0.08344215154647827 -0.4326631426811218 -0.07486072182655334 -0.06321179866790771
-0.1253010332584381 -0.060605525970458984 -0.07296356558799744 0.3147851824760437 0.05291731308672027 -0.2091902016596978 0.2475986550699311 0.14964011332110808
-0.29749315246586905 -0.14019310474395752 -0.12256672978401184 0.3443242311477661 -0.013670265674591064 0.1359119415283203 -0.1553056836128235 0.21436315774917603
-0.09526622295379639 0.19238531589508057 0.035091787576675415 0.19413775205612183 0.016615450382232666 -0.32409489154815674 -0.39700549840927124 -0.2783563733100891
0.051399469844432145 0.16680912454375232 -0.23097163695668396 0.21537574502304305 0.3178757922321698 0.14429717567950667 -0.312774556923304 0.050754537592105034
0.21881211610271895 0.38304999141492446 -0.2745234966278076 0.0585247278213501 -0.129891037940979 0.214630126953125 0.055469393730163574 -0.38239791989326477
-0.08170893788337708 0.031002163887023926 -0.35994672775268555 -0.3928275406360626 0.4212532261572836 -0.13771650536009136 -0.366834996898293 0.047244416236445354
0.22171256702324763 0.3261644579739111 0.08645639947953408 0.23419258314631444 0.26037611209193734 0.37757996361845203 0.2585722952421522 -0.13487974857453341
-0.27177249397162323 -0.20001531707949544 -0.11141575872608138 -0.3146372786531446 -0.2763713609739647 0.5131764085116931 -0.15145485537449144 0.3185739113771582
0.44578568222701426 -0.12672866322119636 -0.3981745180551121 0.4029224459749974 -0.07844190582086626 0.06637710332870483 0.15834105014801025 -0.1603129506111145
-0.11477276682853699 -0.3749419152736664 0.024249494075775146 -0.1269947588443756 -0.22993823885917664 0.1692209243774414 -0.08096730709075928 0.14243982134414804
-0.03749018015550674 -0.4303906985469721 0.21552108990900137 -0.14325928216265066 -0.11459759937203352 0.46000283596779834 0.416610756835927 0.29394720102228866
-0.3397442381729077 -0.5297833745014334 -0.04028593821894292 -0.33744557930065777 0.35044760437049555 0.2588985010210717 0.21421335618949497 -0.24644796816498163
0.0013755534541161178 0.27928580560052524 0.15753232704957162 0.09093559359412622 0.3423028916813354 0.10007429692649261 0.3745301617454984 -0.07460315603498929
0.01107475889112361 0.27451702634312675 0.3782665994893078 0.1741339807238718 -0.008120269416587009 0.07042723894119263 -0.09770673513412476 -0.027212321758270264
0.2269570231437683 -0.012213528156280518 0.2225417334072543 -0.30828270052765094 -0.2956154491359161 0.08267689978779946 -0.22284591794809946 0.11684594431350374

fc1.bias f8 [64]
00000000: f7d0 f257 ed7b d0bf 0000 0080 bedb c43f
00000010: 48f1 42d6 5027 d23f 0000 0000 fe83 b03f
00000020: 0000 0000 e5a4 d8bf 006f 8d19 380a c6bf
00000030: 9bd9 12fe ed23 cbbf 0000 0060 4b8a d1bf
00000040: e336 c8a6 0a64 dabf 471e 84d9 a506 aebf
00000050: b7e8 1e03 d3f3 c23f 45c0 198c ec72 babf
00000060: 0000 0040 0d1b cabf 68cb 7b97 859d d0bf
00000070: 986a 62a7 555a b9bf 0000 0080 a336 cb3f
00000080: 218a c216 9390 c8bf 4571 fbf2 b462 afbf
00000090: 0000 0040 2f60 ccbf f1df 7bd2 7bc2 cebf
000000a0: 7691 951d d2af b13f 0000 0000 4a57 ac3f
000000b0: 0000 0000 983d a63f d71a f70d 13c5 b8bf
000000c0: 0000 00e0 ae6e d0bf 24d6 8801 70cf ca3f
000000d0: 0000 00c0 8ccf d7bf 0000 0060 45f3 cfbf
000000e0: 40b3 4d9f a646 d0bf 0000 0080 6bb3 d5bf
000000f0: 0000 00a0 0efb d4bf 0000 00c0 2002 c4bf
00000100: e0fa fbc3 61fc c3bf e91d f486 a5c8 dcbf
00000110: 0000 0080 bd3c c1bf 0000 0000 6003 73bf
00000120: 06c4 c974 9b1b a3bf e57d cec5 c13d cf3f
00000130: 7ea0 cebe b398 bcbf 9168 9d76 2e4d b93f
00000140: 210e 1332 398a a8bf 0000 00e0 3c78 cabf
00000150: 0000 0000 7f04 a03f b271 2d60 c8f3 d43f
00000160: 6cfb 0e5a d471 d13f d89c 3e00 e3d8 923f
00000170: 08a1 9fda 6621 dfbf 6011 5a80 c497 a0bf
00000180: bbc1 c88e 0243 c2bf 0000 00e0 1b69 dcbf
00000190: 4788 99dd f557 e03f 710b 34d0 712b d93f
000001a0: ce37 7b91 de5d ac3f 0000 0020 b4b5 d0bf
000001b0: 0000 00e0 eb9e d4bf 0000 0000 d682 ab3f
000001c0: a45c 9f9f 1961 d1bf 318f 101b 1933 9dbf
000001d0: 0000 0080 1a7f d2bf f10b d660 f2a7 dabf
000001e0: 0000 0000 c9c8 d0bf a957 5514 7978 cabf
000001f0: d6ec 19ce 5fd9 d2bf 48ce 9892 acce da3f
-0.2575639113304215 0.16295605897903442 0.2836496441266445 0.06451404094696045 -0.38506436347961426 -0.17218686340026323 -0.2120339861482535 -0.2740658223628998
-0.41235605513871415 -0.05864446907258674 0.1480659260976773 -0.10331610126900255 -0.20395055413246155 -0.25961437028234124 -0.09903464638265758 0.21260493993759155
-0.1919120656139777 -0.06129994836894296 -0.22168532013893127 -0.24031017091306198 0.06908906194946049 0.05535346269607544 0.04343867301940918 -0.09675711718510215
-0.2567555606365204 0.2094554908268701 -0.37204283475875854 -0.24961154162883759 -0.2543121867845919 -0.3390759229660034 -0.32782331109046936 -0.1563149392604828
-0.15613958425088637 -0.44974649600086863 -0.13466614484786987 -0.004641890525817871 -0.0373200016082436 0.24407217176938825 -0.11170504959466318 0.09883394618865028
-0.04792956100711999 -0.2067943662405014 0.03128430247306824 0.32737931625686223 0.27257260126855587 0.018405482187202477 -0.48641368246036665 -0.03240789477152606
-0.14266998264203132 -0.44391533732414246 0.5107373550529325 0.3932766469226215 0.055403666743231036 -0.26109030842781067 -0.3221997916698456 0.05373257398605347
-0.27155151928077204 -0.028515236164948724 -0.2890077829360962 -0.4165006585755569 -0.2622549533843994 -0.20680154316749835 -0.29451747061803013 0.4188643867121056

fc2.weight f8 [128, 64]
00000000: 2b3b 3bb5 e27b c53f 0000 0080 7bd3 a83f
00000010: 8aa4 ddfa a094 ccbf 0000 0080 ed40 b53f
00000020: 0000 00c0 a7f9 b3bf bffd 6363 c550 963f
00000030: fefd e07f 987d b9bf 0000 00c0 2e83 b53f
00000040: eab1 f65e 1461 85bf 1409 aa30 0cfd babf
00000050: 32ce 2f31 4b16 cc3f 06ba fb33 edef 67bf
00000060: 0000 0000 e062 a73f 8d5e 2eb4 7538 c73f
00000070: 865d b3e8 f543 ae3f 0000 0080 dd6e bdbf
00000080: 564a 6b09 e312 b23f cbc6 7979 ec9d a4bf
00000090: 0000 0080 7eda b9bf 3ea3 6618 1e27 b23f
000000a0: b2b6 0168 a8b4 dbbf 0000 0000 62e4 bf3f
000000b0: 0000 0000 176f b1bf 4c79 23d5 808d b1bf
000000c0: 0000 0080 db41 ab3f 1d4e 219e bd55 aebf
000000d0: 0000 0000 a708 bebf 0000 0080 2d93 bc3f
000000e0: e9db 8927 999f a4bf 0000 0040 67ee be3f
000000f0: 0000 0000 ab2e 9abf 0000 0080 089e a03f
00000100: f935 ce03 4ede b53f 8c22 25d1 e318 b33f
00000110: 0000 0000 7fd0 af3f 0000 0040 d75a b43f
00000120: ff2b 7d80 6658 aabf 8716 eeed 71ed c13f
00000130: e4a2 0314 a7dd b1bf 4612 0b94 dfcb b33f
00000140: 033a 95b3 f0a6 c8bf 0000 0040 a9bc b8bf
00000150: 0000 0080 676f acbf cfeb 3042 8c05 c4bf
00000160: da28 3512 905f c23f 12ec 35ed f960 c33f
00000170: 4ce3 b4ab 61c9 ba3f 8323 18e4 cf7c c33f
00000180: 6b04 05d3 7855 9fbf 0000 0040 1085 bebf
00000190: 9938 f294 69b3 cabf d91c 02f2 0fb2 b63f
000001a0: f413 78c8 a1cf c03f 0000 0000 395c a3bf
000001b0: 0000 0080 c2a6 a63f 0000 0000 83f8 b2bf
000001c0: d85f 0683 ab15 a3bf dfb8 9a50 08fb d13f
000001d0: 0000 0000 bb5f afbf 99bb 2f8c 42e5 ce3f
000001e0: 0000 0000 319b 953f 6239 4080 57a3 a2bf
000001f0: 3e0f 07c9 7be9 bf3f c64c a972 c622 c9bf
00000200: 37da 51fc cbd4 c23f 0000 0000 0e58 a83f
00000210: 5f51 0d90 40da a9bf 0000 0080 b274 bdbf
00000220: 0000 0000 153d b93f e7d5 4229 e96a c73f
00000230: ecb4 0feb a227 b33f 0000 0000 5e28 a0bf
00000240: 1381 036d 9394 bfbf ac67 eeaa 6ee1 c13f
00000250: 3293 1fe8 f904 c03f 2db1 1d5d 4411 c33f
00000260: 0000 0000 70ff b1bf 2475 4b0c fa22 c03f
00000270: 1fea 2f9b e75d 6fbf 0000 0000 6918 adbf
00000280: 7426 3074 d514 bf3f 88fd c6d0 083c c13f
00000290: 0000 0000 62da 913f 9a6f dec0 08bb c23f
000002a0: 59fa caf0 ecfe dabf 0000 0000 627b bf3f
000002b0: 0000 00c0 10a0 bebf 0c99 20a2 68ef af3f
000002c0: 0000 0080 eafd a83f 48b0 5636 3ab2 883f
000002d0: 0000 0040 e231 b3bf 0000 0000 cc52 893f
000002e0: ab19 4232 1307 c0bf 0000 0040 2580 babf
000002f0: 0000 0000 205a bb3f 0000 00c0 8aa4 b53f
00000300: 4565 91e2 4177 b03f 9e25 6aff b3de 813f
00000310: 0000 0080 14e5 b0bf 0000 00c0 d7cb b13f
00000320: 86a5 e875 67a9 c8bf 0902 c0f9 5af5 75bf
00000330: adc0 b134 2775 abbf 251e 032f d205 aa3f
00000340: e2a8 1537 f4de cabf 0000 0000 82a6 98bf
00000350: 0000 0000 7e0b ab3f 3be1 0c23 06c4 c0bf
00000360: 8b18 6149 823f c33f e727 21c8 3148 b83f
00000370: 3bec a3cf 5485 b2bf 6c43 dc8a 998e 983f
00000380: d2d3 2cab a71e bc3f 0000 0000 2ba9 95bf
00000390: 4e9e 7274 3f12 d6bf 5875 d503 da5c 8bbf
000003a0: 11f4 4db3 d057 b83f 0000 0000 f07a 51bf
000003b0: 0000 0000 57d5 a43f 0000 0080 8822 a3bf
000003c0: 170a be7f b0b3 b23f 0bfb f19e be0a d93f
000003d0: 0000 0000 1962 993f 5b09 69cd d450 b13f
000003e0: 0000 0040 ef62 b33f 3dff 67ed 071e a2bf
000003f0: 3148 9ea5 ad05 95bf 20a4 f6a3 bb3a d0bf
00000400: 0000 0080 2142 aa3f 0000 00c0 6b5c bd3f
00000410: 0000 0000 19cf ac3f 0000 0000 917f 95bf
00000420: 0000 0000 1f42 a7bf 0000 0000 eb0a 993f
00000430: 0000 0000 4844 983f 0000 0000 c204 9fbf
00000440: 0000 00c0 63b3 bd3f 0000 0080 a9a7 bd3f
00000450: 0000 0000 bc86 8d3f 0000 0080 79c3 a2bf
00000460: 0000 00c0 424a bf3f 0000 0000 cbb0 b73f
00000470: 0000 0000 da55 853f 0000 0040 17bc bd3f
00000480: 0000 0040 e9e5 b7bf 0000 0000 28e9 673f
00000490: 0000 0080 8a3b ae3f 0000 0000 f874 823f
000004a0: 0000 0040 0864 bbbf 0000 0080 5d55 aa3f
000004b0: 0000 0000 bcd2 853f 0000 0000 71ea a43f
000004c0: 0000 0000 32e7 abbf 0000 0000 edc6 a4bf
000004d0: 0000 0040 cdc8 b3bf 0000 0080 2bce a1bf
000004e0: 0000 0000 f8a5 7b3f 0000 0000 3d61 a63f
000004f0: 0000 0000 d464 9bbf 0000 0000 242b 79bf
00000500: 0000 0000 08be 813f 0000 0000 f902 95bf
00000510: 0000 0000 0680 b43f 0000 0000 ae40 8fbf
00000520: 0000 00c0 06a1 b43f 0000 0080 c820 afbf
00000530: 0000 0080 5558 b83f 0000 0000 a326 a93f
00000540: 0000 0000 ee98 973f 0000 0000 36ff 8b3f
00000550: 0000 0000 59cc 943f 0000 0080 0316 bc3f
00000560: 0000 0000 5175 bb3f 0000 0080 b485 bd3f
00000570: 0000 0000 81ae aabf 0000 0080 1c41 ba3f
00000580: 0000 0080 0ba5 b9bf 0000 0080 847b bebf
00000590: 0000 00c0 a774 ba3f 0000 0080 bffc b5bf
000005a0: 0000 0080 ccd1 a6bf 0000 0000 1457 bcbf
000005b0: 0000 0080 a6f6 b63f 0000 0000 5724 9ebf
000005c0: 0000 0080 75e0 a3bf 0000 0000 b441 813f
000005d0: 0000 00c0 819c b8bf 0000 00c0 2ed2 b23f
000005e0: 0000 00c0 38c3 b33f 0000 00c0 c30a b2bf
000005f0: 0000 0000 e1dd 923f 0000 0000 7a72 afbf
00000600: 0000 0080 eeee babf 0000 0000 a614 903f
00000610: 0000 0000 6413 b4bf 0000 0000 f8a8 9b3f
00000620: 0000 0080 6f2c a1bf 0000 0000 a6ec aebf
00000630: 0000 0000 32aa b13f 0000 0000 835e b6bf
00000640: 0000 0000 9da3 93bf 0000 00c0 0687 babf
00000650: 0000 0000 be9c 913f 0000 0000 a3d5 bb3f
00000660: 0000 0000 b8fd 793f 0000 0000 ec8d bbbf
00000670: 0000 00c0 3148 b4bf 0000 0080 6577 b2bf
00000680: 0000 0040 d13c b23f 0000 0080 40b7 b33f
00000690: 0000 0000 7842 aebf 0000 0000 578d a23f
000006a0: 0000 0000 589f 613f 0000 0000 34bb 733f
000006b0: 0000 0080 04cd b3bf 0000 0040 0071 bc3f
000006c0: 0000 0000 1463 973f 0000 00c0 43de b33f
000006d0: 0000 0000 2393 a6bf 0000 0080 fdc4 a73f
000006e0: 0000 0080 b4da b4bf 0000 0080 1b68 b83f
000006f0: 0000 0040 f375 b23f 0000 0000 1ecb 82bf
00000700: 0000 00c0 5720 b3bf 0000 0040 1ab3 b7bf
00000710: 0000 0000 b48b 703f 0000 0080 b6b8 aabf
00000720: 0000 0000 ab94 913f 0000 0040 9ebb b9bf
00000730: 0000 0040 1196 bb3f 0000 0000 404b bbbf
00000740: 0000 0000 1010 6c3f 0000 00c0 cce3 b0bf
00000750: 0000 0080 7286 a9bf 0000 0080 9af3 b43f
00000760: 0000 0080 f5fb b4bf 0000 0000 6467 b6bf
00000770: 0000 00c0 3c4e b1bf 0000 0040 f0dc b8bf
00000780: 0000 0000 204c 82bf 0000 0000 0cd3 9fbf
00000790: 0000 0000 4839 9f3f 0000 0080 f250 ae3f
000007a0: 0000 0000 60b7 af3f 0000 0040 44be ba3f
000007b0: 0000 0000 e0ef 5b3f 0000 0000 871d a73f
000007c0: 0000 0080 3634 b53f 0000 0080 d411 a03f
000007d0: 0000 0000 c288 99bf 0000 0000 97b2 98bf
000007e0: 0000 0000 0c8e 7cbf 0000 0080 a5e5 a23f
000007f0: 0000 0000 f98c b9bf 0000 0000 0336 babf
0.16784318780124727 0.04848848283290863 -0.22328579186731573 0.08302196860313416 -0.07802818715572357 0.021792492095298984 -0.09957268831293928 0.08403293788433075
-0.010439070842800786 -0.10542370021906705 0.219430350319827 -0.0029220230934392548 0.045676231384277344 0.1814105157652545 0.059112248092499306 -0.11497291922569275
0.07060069065054483 -0.040267362431121244 -0.10099020600318909 0.07090938659406462 -0.43290147931007106 0.12457859516143799 -0.06810134649276733 -0.0685654182775341
0.05323682725429535 -0.05924789958285379 -0.11731952428817749 0.11162075400352478 -0.040280138088682645 0.12082524597644806 -0.025568649172782898 0.032455697655677795
0.08542335122020707 0.07459853988724258 0.06213757395744324 0.0795111209154129 -0.05145569151371631 0.14005874746014887 -0.06978840101841005 0.07732961048447703
-0.19259461182305423 -0.09662874042987823 -0.055537447333335876 -0.15641930801379408 0.1435413445381702 0.15139698107290706 0.10463533823066234 0.1522464622251186
-0.030599487189878632 -0.1192178875207901 -0.20860023281824594 0.08865451486973387 0.13133642471817064 -0.0378129780292511 0.04424102604389191 -0.07410448789596558
-0.03727470373559044 0.2809468066360647 -0.06127724051475525 0.24137145848314104 0.021099820733070374 -0.036402449041008436 0.12465642602824986 -0.19637375448892253
0.14711904354381186 0.04754680395126343 -0.050493257126307915 -0.11506190896034241 0.09858828783035278 0.18295015825940128 0.07482355345537756 -0.03155797719955444
-0.12336083804575919 0.13969214769605054 0.12515186151645136 0.14896444842032378 -0.07030391693115234 0.12606740570382968 -0.003828956943377606 -0.05682685971260071
0.12141164862273418 0.13464460558132552 0.017434626817703247 0.1463328305952672 -0.42180942072801525 0.12297642230987549 -0.11962990462779999 0.06237341860860299
0.048812225461006165 0.012058691771777444 -0.07497991621494293 0.012364953756332397 -0.1252159114266765 -0.10351784527301788 0.10684394836425781 0.08454196155071259
0.06431972295230988 0.008725553733955501 -0.0659954845905304 0.06951664388179779 -0.192669804165501 -0.005360942242987673 -0.05362818258515865 0.05082566093329558
-0.20992901506116995 -0.02407267689704895 0.0528220534324646 -0.1309821768898106 0.15037563879940694 0.09485160003637781 -0.07234697408050376 0.023981474972120706
0.10984275750236286 -0.02115313708782196 -0.3448637616333813 -0.013360694162367778 0.09508995416213419 -0.0010669082403182983 0.04069015383720398 -0.03737284243106842
0.07305434340199955 0.3912807991218165 0.024788275361061096 0.06763963713550451 0.07572837173938751 -0.03538536808991786 -0.02052947352746787 -0.2535847760396468
0.05128578841686249 0.11469148099422455 0.05626752972602844 -0.020994439721107483 -0.04542633891105652 0.024455711245536804 0.023697972297668457 -0.030291587114334106
0.11601851880550385 0.11583957076072693 0.014417141675949097 -0.036647602915763855 0.12222687900066376 0.0925413966178894 0.010417655110359192 0.11615128815174103
-0.09335191547870636 0.0029187947511672974 0.059048011898994446 0.009012162685394287 -0.1069951206445694 0.0514325350522995 0.010655850172042847 0.04085114598274231
-0.054498255252838135 -0.040580183267593384 -0.07728274166584015 -0.034776076674461365 0.00675007700920105 0.0437106192111969 -0.026751816272735596 -0.006144657731056213
0.00866323709487915 -0.020519152283668518 0.08007848262786865 -0.015260085463523865 0.08058206737041473 -0.06079699099063873 0.0950978696346283 0.049122899770736694
0.023044317960739136 0.013670369982719421 0.020310774445533752 0.10971090197563171 0.1072588562965393 0.11532142758369446 -0.05211260914802551 0.1025560200214386
-0.10017463564872742 -0.11907222867012024 0.10334251821041107 -0.08588787913322449 -0.044569388031959534 -0.11070370674133301 0.0897010862827301 -0.029435500502586365
-0.038821861147880554 0.008426100015640259 -0.0961381047964096 0.07351963222026825 0.0771975964307785 -0.07047675549983978 0.01842452585697174 -0.0614202618598938
-0.10520830750465393 0.01570376753807068 -0.07842087745666504 0.027011752128601074 -0.03354214131832123 -0.06039923429489136 0.06900322437286377 -0.08737963438034058
-0.01917882263660431 -0.10362283885478973 0.01719948649406433 0.10872858762741089 0.006345480680465698 -0.10763430595397949 -0.07922659814357758 -0.0721343457698822
0.07124049961566925 0.07701495289802551 -0.05910086631774902 0.03623458743095398 0.002151176333427429 0.004817202687263489 -0.07734706997871399 0.1110992580652237
0.022838890552520752 0.07761023938655853 -0.04409131407737732 0.04642479121685028 -0.08146217465400696 0.09533855319023132 0.07211227715015411 -0.009176477789878845
-0.07471226155757904 -0.09257663786411285 0.004039481282234192 -0.052190497517585754 0.017168685793876648 -0.1005190759897232 0.10775859653949738 -0.10661697387695312
0.0034256279468536377 -0.06597594916820526 -0.04985387623310089 0.0818420946598053 -0.08196958899497986 -0.08751511573791504 -0.0676000565290451 -0.09712125360965729
-0.008934259414672852 -0.0310785174369812 0.030491948127746582 0.059211328625679016 0.06194591522216797 0.10446573793888092 0.0017051398754119873 0.04514715075492859
0.08282795548439026 0.031386032700538635 -0.024935752153396606 -0.02411876618862152 -0.006971403956413269 0.036908313632011414 -0.09980732202529907 -0.10238665342330933

fc2.bias f8 [128]
00000000: 9034 3799 c83c 9abf 9f30 d406 8607 aa3f
00000010: 0000 0080 186d b8bf 0000 0000 0a1b 8b3f
00000020: e80a eb52 5513 92bf 565f 4df2 47e1 913f
00000030: 0000 0040 d8fe b0bf 0000 0080 82a7 a6bf
00000040: 0000 0040 e69e b2bf 5b0c 02f9 1868 a9bf
00000050: 0000 0000 32fb 8ebf 0f91 1f53 80f1 abbf
00000060: 295d ddf8 f777 a53f 3879 107f 62b9 c2bf
00000070: 2092 5eb1 8c4b a03f e4d1 930c ce56 b9bf
00000080: a3f6 6f2b 90c3 be3f 543a b635 7c87 c5bf
00000090: b3c4 5951 6112 a63f 0000 00c0 7926 bcbf
000000a0: 0000 0000 6424 a8bf 7093 6825 2b58 b43f
000000b0: ed79 3ae2 7b36 97bf 0000 0000 0e99 a83f
000000c0: 936f 4cba ba49 c23f 0000 0080 5112 a1bf
000000d0: 6f35 ee7d 6020 b2bf d770 ff2b 238c 86bf
000000e0: d62b 4ddf ef2b b23f 7b10 758b 49e0 c1bf
000000f0: 8955 c608 a9a8 a1bf 2155 700e 73cc 953f
00000100: 0000 0000 bd99 adbf d728 9fb1 71f4 9fbf
00000110: db41 8d49 92ce aa3f cf77 8a32 049a 74bf
00000120: 4f1e 18cc 25e5 acbf 0000 0080 adfc b2bf
00000130: 0000 0080 628a a1bf 0000 0000 64f7 a2bf
00000140: e0b0 db9c b683 bfbf 325d d715 bd33 c4bf
00000150: 61c3 a85d b81d c03f 0000 0000 f7c7 a03f
00000160: 0000 00c0 8e3e b8bf 3326 0b9c aafc 9a3f
00000170: a593 2906 bdfd c4bf de44 d24e 7684 94bf
00000180: d504 39e9 9d92 b7bf 2ab9 e01c c6c5 c43f
00000190: 0000 00c0 ffcf bdbf 0000 0000 b75f 94bf
000001a0: 39fe 6ba4 8e73 963f 6d44 19b3 156f a1bf
000001b0: a7a0 3828 5841 a6bf 0000 0000 fca6 853f
000001c0: 8f31 ec67 53e1 a4bf 0000 0080 86fe a7bf
000001d0: 0000 0000 d6c9 93bf e504 47b6 e9d9 c0bf
000001e0: 5535 a9ec 0f51 b0bf 0000 0080 0a11 b2bf
000001f0: bc19 bfd3 123d babf 0000 0000 a7b3 aebf
00000200: 0000 0000 7d20 a6bf e0de 8f09 46d7 c03f
00000210: a6f0 ebeb 17be 98bf 5c29 fe10 fc0e c23f
00000220: 7a6f 6f45 5ba8 a73f 8170 35d2 0cd1 a43f
00000230: e318 274d 42c2 ab3f 2546 7a66 ef05 b8bf
00000240: 0000 0000 b53b adbf 6fe7 da6a b794 9cbf
00000250: 31e7 868f 6298 b63f 93fe 2a03 3ec8 af3f
00000260: ac1a e8bc 89a2 ba3f 0000 0080 ffb8 a8bf
00000270: e7ec 1735 b230 be3f 0000 0000 9012 50bf
00000280: 0000 0000 20d5 61bf 0000 0000 d235 a43f
00000290: f5ec 8d25 dee2 b5bf 1780 aac6 f7f7 c1bf
000002a0: 0000 00c0 68f8 bbbf f0f5 d740 f2cf 923f
000002b0: df0f cf25 893d babf a0a5 cdc0 990d a23f
000002c0: 5baf 06e2 3b39 903f 2346 fb1e e441 bf3f
000002d0: c7ea 1c3f c6df c1bf eae0 8f55 f91e c6bf
000002e0: 0000 0000 4e8a 8a3f a048 65e7 b2e1 aabf
000002f0: 2f55 8184 73a2 a83f 900d b449 9d95 b1bf
00000300: 61bb afe6 48e6 b83f 0000 0000 9da1 b7bf
00000310: d836 9eea 052b b9bf 3376 60a4 dfd6 b5bf
00000320: dd73 aba2 2b67 533f 04c8 059a e6e5 acbf
00000330: fe6c 540a 3b7e a03f 8431 7c4e a3d5 963f
00000340: fee2 8762 dad3 873f ee34 4fa2 c19e be3f
00000350: 962f 2cc2 c7bd 8ebf 993f 7645 3936 c6bf
00000360: 0000 0000 4afb 893f abf1 2a9e 62eb b03f
00000370: 21ed 7866 016e 973f 646a 7855 4139 c03f
00000380: fb20 cf1b 5902 a7bf 0000 0000 374a afbf
00000390: 09da 2fdd 9c81 b5bf 1f74 4f4a a933 91bf
000003a0: 51ce 510f 5c80 b1bf a11c b7d0 33d0 a83f
000003b0: 28c5 5b9b 8804 90bf 1655 a6d9 bd73 bdbf
000003c0: 921e 280c 5242 bb3f 71c1 aea4 e8ad c3bf
000003d0: a55e 8732 0a01 b63f 0000 0000 6295 b73f
000003e0: 8e3f 7ffd 269b b83f a46a 5638 bde9 bc3f
000003f0: c19c be5d c068 ae3f 0000 0000 bdfe 98bf
-0.025622495986500626 0.05083865006790344 -0.0954146683216095 0.013235166668891907 -0.017651875673219047 0.017460941471056778 -0.06638862192630768 -0.044246748089790344
-0.07273711264133453 -0.04962232627533388 -0.015127554535865784 -0.05457688345612343 0.041930913094512974 -0.1462824936324496 0.03182639756349581 -0.09898078734460786
0.12017155704958297 -0.16819718001029804 0.0431089793972971 -0.1099620908498764 -0.04715263843536377 0.07947034514707041 -0.022668777163397925 0.04804271459579468
0.14287504288301686 -0.0333428829908371 -0.07080653261637847 -0.011009478359419607 0.07098292543120918 -0.139657204717995 -0.03448990089524801 0.021287725216173507
-0.057813555002212524 -0.031205917802972074 0.052357264975060956 -0.005029693981354512 -0.05643575779327802 -0.07416805624961853 -0.03425891697406769 -0.03704369068145752
-0.12310353593392476 -0.15782893721073205 0.12590698788838053 0.03277561068534851 -0.09470455348491669 0.026354470991270595 -0.16399348069094546 -0.020036552964090563
-0.09208094543375307 0.1622855797772414 -0.1164550632238388 -0.01989637315273285 0.02192519072104757 -0.03405063449157173 -0.04346728793126547 0.0105724036693573
-0.040781599460475985 -0.046863749623298645 -0.01932463049888611 -0.13165017509712765 -0.06373691108566011 -0.07057252526283264 -0.10249440831748918 -0.059964388608932495
-0.04321661591529846 0.13156962839979425 -0.024162648939623076 0.14108229474761458 0.046206333375919464 0.04065742555641894 0.05421645347409922 -0.09384056331534703
-0.05709615349769592 -0.027911058327596047 0.08826271061016368 0.062074602019035606 0.10404263364771776 -0.048286423087120056 0.11793054386355416 -0.0009809881448745728
-0.002176821231842041 0.039473116397857666 -0.08549297730307955 -0.14037987900246726 -0.10925917327404022 0.01837137718938736 -0.10250146077220233 0.035260014329490774
0.015843330069102417 0.12209916836152294 -0.13964155275046705 -0.17282025029977116 0.012959107756614685 -0.05250319552091409 0.04811440460677329 -0.06868918465993645
0.09726386672967414 -0.09230977296829224 -0.098312730579177 -0.08530996096711689 0.001184265721057224 -0.05644150381239402 0.03221306325050398 0.022299338975288588
0.01163454640571748 0.11960993015891905 -0.015010414708306812 -0.17352977649397586 0.01268632709980011 0.06609169351117454 0.02288057506505681 0.1267472903571899
-0.04493978943315998 -0.06111308932304382 -0.08400898361274058 -0.0167986346822212 -0.06836486219418104 0.04846345827859833 -0.01564229439003842 -0.11504732669557813
0.1064807204894527 -0.15374477425713054 0.08595336660016047 0.09212315082550049 0.09611743630307343 0.1129415762465365 0.059392939990453815 -0.024409249424934387

fc3.weight f8 [64, 128]
00000000: ef31 372b bc29 923f 4517 32dc 3b30 babf
00000010: 0000 0020 80e8 b03f 0000 0000 e649 923f
00000020: fa5b 0e02 4ccf b0bf 14ee bc6a c0d2 8c3f
00000030: 0000 0000 1476 633f 0000 0080 59fc b0bf
00000040: 0000 00c0 5905 aa3f 0000 0000 43c6 823f
00000050: 0000 0080 98fa b3bf 0000 00c0 18f8 ad3f
00000060: d772 f569 87a8 b7bf 0000 0020 95b3 adbf
00000070: 7878 44e9 926c afbf 0000 0000 9e6e 993f
00000080: 565f d271 3d0f b9bf 0000 0000 48c5 813f
00000090: 0000 0000 229e 99bf 0000 0020 4161 b6bf
000000a0: 0000 00c0 e6a3 b4bf 71fd 2d1c 5612 c0bf
000000b0: 0000 0080 5dc9 9ebf 0000 0000 708b 693f
000000c0: 99bc 2710 8fd1 b2bf 0000 00e0 279a b0bf
000000d0: 0000 0000 05ff 9d3f 0000 00c0 ddc7 ae3f
000000e0: a121 01d8 f363 c1bf 0000 0040 1b8d a43f
000000f0: 0000 00a0 fd4b b03f 0000 0000 c41f 8e3f
00000100: 0000 00a0 15b4 a0bf 0000 0000 cd8a 813f
00000110: 0000 0000 24a8 8dbf 0000 0060 bd02 b1bf
00000120: 0000 0080 57d6 97bf 0000 00a0 c571 a3bf
00000130: 0000 0080 ce6c 9abf 0000 0000 d29f 73bf
00000140: 0000 0080 4c10 913f 0000 0040 3475 a43f
00000150: 0ddb 6c38 4bbc 913f 0000 0040 b220 a53f
00000160: 0000 0000 1b85 8f3f 0000 0000 2e58 85bf
00000170: 0000 00c0 671e a4bf 0000 0060 f8b1 b0bf
00000180: 0000 00c0 c3d7 9fbf 5dc7 e5c0 cd43 91bf
00000190: 0000 00c0 06c3 ab3f 0000 0080 b5e6 9bbf
000001a0: 7e12 6842 5c42 6b3f d3c3 c49e e2f4 afbf
000001b0: 0000 0020 624c b53f 0000 0000 80ae a03f
000001c0: 0000 0040 bb82 af3f 0000 0000 8536 96bf
000001d0: 0000 00c0 73a4 b4bf 0000 0000 fda3 a6bf
000001e0: 0000 0000 c2f9 813f 0000 0040 34b4 a23f
000001f0: 0000 0040 8d66 a6bf 0000 0040 ea4d a2bf
00000200: 0000 0040 cd82 a43f 9852 1a8f c329 b4bf
00000210: 0000 0000 47e4 98bf 59e9 0038 47c4 babf
00000220: 4d20 131e 66ab b8bf 0c66 3d98 0b27 bfbf
00000230: fe6e 7c1c 168f 913f 0000 00c0 465a a73f
00000240: 0000 0060 78d9 b23f 94e7 4e8f 6c07 b5bf
00000250: 3c85 f56c 9b02 a7bf 0000 00a0 daa3 aebf
00000260: 17b4 74c2 9378 90bf 0000 0000 4008 2abf
00000270: 3250 8ae9 c298 aebf 0000 0080 9b39 b1bf
00000280: 0000 0080 27f1 a6bf 0000 0000 d41c 92bf
00000290: 0000 0080 5b78 b0bf 0000 00a0 5ca4 b13f
000002a0: 0000 0040 0741 a33f 0000 0060 eff5 a4bf
000002b0: 0000 0000 e8af 86bf 825a 129c 5b6f c2bf
000002c0: ffc8 53fc 92a3 c2bf 0000 0080 2045 a6bf
000002d0: 0000 0000 82ac 83bf 0000 00a0 27fd adbf
000002e0: 0000 0000 8770 a7bf 0000 0020 1c18 b6bf
000002f0: 8de5 e08a 21f7 b4bf 0000 00e0 6b85 acbf
00000300: 0e01 1413 3de2 b3bf 0000 0020 6941 b53f
00000310: 0000 00e0 e340 abbf 0000 0040 256d ac3f
00000320: 0000 00c0 e10d a2bf ac0e 2f31 23e2 bbbf
00000330: 0000 0080 2a83 9e3f 0000 0020 7846 b6bf
00000340: 0000 00e0 ade9 a8bf 17ab c10a f16b 9fbf
00000350: 0000 00c0 4b7c aa3f 0000 0000 c6be 85bf
00000360: 0000 0000 f94b 8bbf 04a5 5521 de80 c3bf
00000370: 0000 0060 4a00 a6bf 9d0f 133a 4423 b0bf
00000380: ae0f 5ca6 c8d7 933f 0000 00c0 481a af3f
00000390: 2711 11df 41b1 703f 0000 0000 d856 95bf
000003a0: 0000 0040 44ac af3f 0000 0060 8ec9 b5bf
000003b0: 0000 0000 6fb3 91bf 0000 0040 8980 9ebf
000003c0: 48df 4c0e a91c 4cbf 0000 00a0 f422 b63f
000003d0: 16c8 b280 61dc b6bf 0000 00e0 f02b b5bf
000003e0: 5c59 ffab 79cd bebf 1743 1808 5dc0 b5bf
000003f0: 24c0 c1c5 bcbb b4bf 0000 0040 e279 afbf
00000400: 84d9 e110 ffc0 783f 8f40 35d5 dfec b0bf
00000410: 0000 00a0 bdc5 b2bf 0000 0080 6158 a8bf
00000420: aca3 4c95 e388 c2bf 3cea eb40 68a6 bcbf
00000430: 0000 0000 fc65 6f3f 0000 00a0 e0ce b1bf
00000440: 0000 0060 5730 a4bf f3fd 1142 2cdc a03f
00000450: 0000 00c0 9f2a a63f 0000 0040 acb3 a33f
00000460: 6fb8 c219 96fe 4fbf fa11 a18d e350 9a3f
00000470: 7df6 5a50 7e45 b4bf 6d81 893f 29d4 963f
00000480: 2d2e 60ff 1d2f 713f 4540 7ccd 473d 973f
00000490: 5632 5bff 4ed2 c03f 0000 00c0 fe0c a1bf
000004a0: 0000 0080 5f87 9a3f d56e 46d4 46f1 b2bf
000004b0: a93f 7d5f 2f79 ba3f 0000 0000 de0c 763f
000004c0: 5488 3388 4432 abbf 0000 0000 e8d6 87bf
000004d0: 0000 0000 7cb1 7dbf a5dc 194c 13dd a93f
000004e0: da06 527f 0bbe afbf 2c38 a2ec 99af af3f
000004f0: 28ed 0708 b868 9bbf 3898 ed10 5971 873f
00000500: 0000 0020 63af b53f 7811 5ad1 17de 66bf
00000510: 463e 2cc1 aad0 a43f dcc4 1d9e de6a c13f
00000520: ac05 ff57 9258 a33f 0000 00a0 4eae aebf
00000530: 0000 00a0 705f b53f 0000 0020 c538 b4bf
00000540: 2672 39b1 332d c2bf 14e5 9b57 d280 9e3f
00000550: f1d2 7318 89f4 a03f 0000 0060 5bb9 b43f
00000560: 0000 0080 e0c6 b1bf faed 6a25 1d2a b03f
00000570: f67f 5c9d 85e7 aa3f 8846 b4dd 2481 a83f
00000580: 7bc4 2519 bc9f a13f 5ae9 513e 8b8e babf
00000590: 0000 00c0 dab7 a63f 0000 0000 20b9 6b3f
000005a0: b407 3787 7cfa aa3f 0340 5511 d646 793f
000005b0: 447b 0d5d e6fb a93f 0000 0020 b31f b03f
000005c0: 5e4e 28ff 227e 72bf 0000 0040 bdb6 a83f
000005d0: 0000 0080 e578 97bf 0000 0000 4c6f 723f
000005e0: fd8d 8250 bffb a43f 0000 0000 a824 693f
000005f0: 80e2 2b88 e771 c23f 0000 0040 d319 acbf
00000600: 0000 00e0 b3d7 b53f 742f 24d3 11e9 afbf
00000610: ab7e 72b7 39ff 9d3f 2cf5 ac70 a3a7 a1bf
00000620: 940e 07ae bb3a a93f d0a9 b882 d521 99bf
00000630: 0000 0000 2c07 71bf 9313 daff edaa bc3f
00000640: 0000 0020 9a6f b13f 21a8 b3c3 80c6 993f
00000650: 1df2 9331 d169 913f a1f7 c19d 1dc0 b53f
00000660: 955f f5f6 dcea a6bf 0000 00c0 77c4 a8bf
00000670: 11fc bd62 f5f1 6b3f 0000 0020 516b a3bf
00000680: 0000 0040 6fd8 aa3f 0000 0040 70da ae3f
00000690: 2528 8ed9 3396 b83f d36a 8b34 0587 913f
000006a0: 0000 0000 f587 a13f 5f06 ded0 62d5 bf3f
000006b0: 7da4 0390 d0a2 b23f d0b1 aa78 cc0e b83f
000006c0: 559b 84c6 1a56 943f 0000 00c0 9cae a63f
000006d0: c713 9b8d 5f52 b83f b944 2873 1531 b93f
000006e0: 0000 0080 7eda 913f d42d ff5c 699d 5bbf
000006f0: 42c6 f386 8916 b5bf 50c5 004a b875 803f
00000700: c63e 0124 061e b2bf 0000 00e0 c44f b53f
00000710: 14d3 c4ee 8204 9b3f f7a7 8c32 1349 87bf
00000720: 0b57 31e4 87ef bd3f a800 274c cc3d 923f
00000730: 10c2 ddf3 c83d a83f 67cb fdc7 3031 ad3f
00000740: 6455 8e54 c2a5 8bbf 3092 d84f 73e4 9ebf
00000750: 6f67 67a0 eecc 903f 0eeb 886f 8926 c13f
00000760: 0000 0000 2e6e 803f 5446 5f34 04bc b4bf
00000770: 431f 2f4e 6353 b93f cbec 2476 0599 9bbf
00000780: b9b8 3daf bf2a ae3f 0000 0080 8d43 98bf
00000790: 406f 10f3 9a86 bfbf 0000 00e0 546e b53f
000007a0: ef16 2f03 0269 b2bf e617 0116 b5e2 bb3f
000007b0: 0000 00c0 3bbc a23f f631 0786 4cfd b53f
000007c0: eb9d 8a3a c528 96bf 0000 0040 f2fd aebf
000007d0: 3e77 50ff 1c70 b8bf 0000 0020 7102 b0bf
000007e0: 0000 0000 909f 933f 5963 17cb 1181 a4bf
000007f0: c1c0 288b ea53 aabf 0000 0000 03d9 8abf
0.01773733152167439 -0.10229848981734076 0.06604767590761185 0.01786002516746521 -0.06566309976766141 0.014073851830850116 0.0023756399750709534 -0.0663505494594574
0.050822071731090546 0.009167216718196869 -0.07804253697395325 0.058533452451229095 -0.09241529785999646 -0.058010730892419815 -0.061375227904350405 0.024836033582687378
-0.09788879422046412 0.008677065372467041 -0.02501729130744934 -0.0874214842915535 -0.08062593638896942 -0.12555958152732274 -0.03006502240896225 0.0031182467937469482
-0.073510114139696 -0.06485223025083542 0.029293134808540344 0.06011860817670822 -0.13586280867663184 0.040139056742191315 0.06365952640771866 0.014709025621414185
-0.032623935490846634 0.008565522730350494 -0.01448085904121399 -0.06644805520772934 -0.02327858656644821 -0.03797738626599312 -0.02580568939447403 -0.004791088402271271
0.01666373759508133 0.03995669633150101 0.017319846457406963 0.04126507788896561 0.01539059728384018 -0.010422095656394958 -0.03929447382688522 -0.06521560996770859
-0.03109651431441307 -0.01686021318295815 0.05422230809926987 -0.027247272431850433 0.003327541536466249 -0.0624152010735838 0.08319676667451859 0.032581329345703125
0.061544276773929596 -0.021692350506782532 -0.08063434064388275 -0.04421988129615784 0.008777156472206116 0.03653109818696976 -0.04375115782022476 -0.03575069457292557
0.040060438215732574 -0.07876226657601604 -0.024308308959007263 -0.10455746762537411 -0.09636533960576905 -0.12168953387062958 0.017147393692638062 0.04561062902212143
0.07363083213567734 -0.0821445321916186 -0.04494176583353712 -0.05984385684132576 -0.01608496546139201 -0.00019861012697219849 -0.05975922680696079 -0.06728526949882507
-0.044808611273765564 -0.017688095569610596 -0.06433650851249695 0.06891421228647232 0.03760550171136856 -0.040938835591077805 -0.011077702045440674 -0.14402337189376985
-0.1456168872896981 -0.04349614679813385 -0.00960637629032135 -0.05857204273343086 -0.04578039050102234 -0.08630538731813431 -0.08189592018688625 -0.05570542439818382
-0.07767087665343217 0.08302933722734451 -0.053229447454214096 0.05552021414041519 -0.03526216000318527 -0.10891933394219205 0.029797233641147614 -0.08701277524232864
-0.04865783080458641 -0.03068520191338128 0.05172955244779587 -0.010617777705192566 -0.013328500092029572 -0.15237022998488936 -0.042970966547727585 -0.06303812425454543
0.01937783732775216 0.060747407376766205 0.004075295743920549 -0.02083909511566162 0.06186116486787796 -0.0851067528128624 -0.017286047339439392 -0.029787201434373856
-0.0008579087703770383 0.08647087961435318 -0.0893002452092165 -0.08270173519849777 -0.120322803966109 -0.08496648261667548 -0.08098964527175717 -0.061476774513721466
0.006043430663444819 -0.06611441569589459 -0.07332978397607803 -0.0475492924451828 -0.144802520656666 -0.11191417298315626 0.003832809627056122 -0.06956294924020767
-0.039431314915418625 0.03292978579065311 0.043293945491313934 0.03848017007112503 -0.0009763939774723017 0.02569919158874432 -0.07918538533973592 0.022293705466269232
0.004195325067495354 0.022694703976469794 0.13141810864034892 -0.033302269876003265 0.025907032191753387 -0.07399408991335162 0.1034116371276911 0.0053833648562431335
-0.053117887140402914 -0.011640369892120361 -0.0072493404150009155 0.0505147962948567 -0.06199680260853109 0.06188660634607887 -0.026766658296748208 0.011446662739853605
0.08470744639635086 -0.0027914490881945607 0.040654502945582524 0.13607390137216313 0.03778512310192225 -0.05992360785603523 0.08348754793405533 -0.07899124175310135
-0.1420044532159334 0.02978829059336359 0.03311565803043049 0.08095332235097885 -0.06944087147712708 0.0631426063873092 0.0525476221648659 0.04786029058790314
0.034421804494635354 -0.10373754760249679 0.04437144845724106 0.0033841729164123535 0.05269230986188181 0.006171070291500771 0.05074996839424853 0.06298369914293289
-0.004514824586766856 0.04826918989419937 -0.022922120988368988 0.004500672221183777 0.04098317964351492 0.0030692368745803833 0.14410108708377223 -0.05488453060388565
0.08532261103391647 -0.062325055145349945 0.029293920346957474 -0.034482104782436046 0.049276223176574124 -0.024543129066083413 -0.004157230257987976 0.11198318001159029
0.06810916215181351 0.025171291298569657 0.017005222941394494 0.08496270276552177 -0.04476061358098985 -0.048373930156230927 0.003411273259132049 -0.03792813792824745
0.05243251472711563 0.06026030331850052 0.09604190884979909 0.01711662419516353 0.034240394830703735 0.12434976195620483 0.07279685512516383 0.09397581048933223
0.01985971295030294 0.04430093616247177 0.09500691611454136 0.09840520917375074 0.01743505150079727 -0.0016854790628596421 -0.08237514061672704 0.008037032850639975
-0.07077062968277933 0.08324842900037766 0.026384397338193713 -0.011369848232408926 0.11693620034324341 0.017813865802737056 0.04734638192065088 0.0570159191255673
-0.013499754147953076 -0.03016834425774756 0.016406754055288738 0.13398855157887407 0.008022651076316833 -0.08099390295617442 0.09892864855566778 -0.02695091756434635
0.05891989721463759 -0.023695193231105804 -0.12314766344246397 0.08371477574110031 -0.07191479280217171 0.1089280298920979 0.036592356860637665 0.08589628479166564
-0.021639901826942348 -0.06053120642900467 -0.09546071275005105 -0.06253726035356522 0.01916337013244629 -0.04004722217695784 -0.0514214796897945 -0.013109229505062103

fc3.bias f8 [64]
00000000: 7543 7ad3 2c7c bebf fe6d dec4 3b5a a23f
00000010: df8a ab43 8f62 7e3f 42cf aa30 a7ab b43f
00000020: fd95 3b03 eb9e c0bf 6bbe b319 7d5a b13f
00000030: 736e d1ae 6130 a1bf cb0c c826 f40c babf
00000040: 0000 0000 5e72 99bf 194a 6c0f 869f bd3f
00000050: 0000 0000 9df7 9b3f 67e9 0d02 fa45 c33f
00000060: 0000 0020 3832 b0bf 5652 ae0e 1c2f c33f
00000070: 4a2f 697b f642 abbf 84e7 3521 fc65 b0bf
00000080: ba56 605b a491 ba3f 1e08 af91 bc05 aebf
00000090: 5a4d f02e ebe9 c63f 0000 0020 2b5a b53f
000000a0: 0000 00a0 4b9e afbf 6bd9 a83f 2b9f b9bf
000000b0: 125e 1c7c 828e c1bf 21a4 b862 cd7c a23f
000000c0: ae46 948c 2607 ce3f f2d7 6c55 ef60 bb3f
000000d0: f068 9f72 3390 c1bf 0000 00a0 f76e b4bf
000000e0: eed3 abe8 ea62 c03f a9c1 6761 a645 c2bf
000000f0: e4a5 df87 ee7f b3bf 0000 0000 b16c 91bf
00000100: 0000 0020 9c2d a9bf 0000 0080 dac5 a6bf
00000110: 016d d496 44f3 9cbf 0000 0040 ffa3 b5bf
00000120: 324f e539 48b3 aebf 0000 0040 4791 b3bf
00000130: 0000 0000 ec8d a7bf 0000 0000 c438 82bf
00000140: f9e8 a377 7dd8 a8bf e873 7e13 ae07 c0bf
00000150: 025f e1ee 26e1 943f 1cc6 b1f2 a79c c1bf
00000160: 0aa6 ea7f 1dea 87bf ae73 82e3 0737 bbbf
00000170: 3e9a e2fa b95d b5bf 840c d8f0 230b 9ebf
00000180: d731 d3eb bc1b b1bf 78ad b59f d149 a7bf
00000190: e300 9058 8ee8 be3f e0f1 9839 a166 793f
000001a0: 8449 5e00 0248 af3f ad6f b864 a537 ba3f
000001b0: a2f4 8a77 3bbd afbf 9fe7 2534 c640 aebf
000001c0: 3f87 7799 6fb7 c33f 4ede 0c3b ba91 843f
000001d0: 3a4f d665 f819 a7bf cfef 78b0 5227 b4bf
000001e0: bc68 97b0 5ee0 bd3f 02f2 1fa3 371c c03f
000001f0: 7224 3e59 5c52 c1bf 9088 33fa 0cfc b73f
-0.11908226168658394 0.03584467676338575 0.007418212534249873 0.08074421823658631 -0.1298497930321644 0.06778699758046407 -0.033572247114276 -0.10176015803158404
-0.02485033869743347 0.11571538807428573 0.02731175720691681 0.15057301616964056 -0.06326628476381302 0.14987517086832963 -0.05324526077728693 -0.06405616579823287
0.10378482085101384 -0.05863751676908201 0.17901363174369572 0.08340711146593094 -0.06175457313656807 -0.10008497528256093 -0.13716155109499134 0.03610841589063108
0.2345932184621708 0.10694785914969865 -0.13721316429911878 -0.0798182263970375 0.12801872597597658 -0.14275054699056725 -0.07617083375193762 -0.01701618731021881
-0.04917610064148903 -0.04447825253009796 -0.028271743493957228 -0.08453364670276642 -0.05996156412825683 -0.07643552124500275 -0.046004652976989746 -0.008897334337234497
-0.04852668843700942 -0.12523437454083752 0.02039013703355775 -0.13759326315225529 -0.01167700811977836 -0.10630845360215233 -0.08346140265585064 -0.02933937222952611
-0.06682949788518698 -0.04548506807881386 0.12073602354212513 0.006201391015164565 0.061096251053771616 0.10241159161563358 -0.06199060282004011 -0.05908793818066659
0.15403552049161282 0.010043578078337802 -0.04512001269463757 -0.0787250214424937 0.11670486270250796 0.12586112465932336 -0.13532595021777954 0.09368973835401762
