src/backend/controller/checkpoints/checkpoint_epoch_78.pth (torch, 420207 bytes, 25 tensors)

fc1.weight f8 [64, 5]
0	0x3fc5fb2003253709	0.17172622827131814
1	0xbfddb2b3696d3596	-0.4640320329243307
2	0x3fcfe87d9cf7042f	0.24928255237867478
3	0xbfc7db7b1a5968a6	-0.18638552462181684
4	0x3fbb4ec8e4960fe2	0.10667090969769746
5	0xbfc4288740000000	-0.15748682618141174
6	0xbfd24cb4a0000000	-0.2859317362308502
7	0xbfdac41960000000	-0.4182189404964447
8	0xbfce277ec0000000	-0.23558029532432556
9	0x3fba497600000000	0.102683424949646
10	0xbfcda9fc1629164f	-0.2317500217633772
11	0x3fb15b1314d7e264	0.06779593714589677
12	0xbfd9b34b9d42df00	-0.40156832082310245
13	0x3fda47e14122ac86	0.4106372009361582
14	0x3faded885b85e4e0	0.058452855274433224
15	0x3fd2b3e300000000	0.29222941398620605
16	0xbfc07d2140000000	-0.12881866097450256
17	0xbfd1032180000000	-0.2658160924911499
18	0xbfd7520880000000	-0.36438190937042236
19	0xbfb5e70380000000	-0.08555623888969421
20	0xbfc4ff4bc0000000	-0.16404101252555847
21	0xbf8a2da400000000	-0.012782365083694458
22	0x3fd9654240000000	0.3968053460121155
23	0x3f93ab9800000000	0.01920926570892334
24	0xbfda0d1c40000000	-0.4070501923561096
25	0xbfc2faf797acc72a	-0.14828390985490475
26	0x3fd6ba1e67e8b5c4	0.35510978839269236
27	0x3fd84bd426e5fc38	0.37962821768445876
28	0x3fb9e91429f35351	0.10121274971181761
29	0xbfd67332a86bf304	-0.3507811207526148
30	0xbfcc91ef2cf8cd78	-0.2232035607899936
31	0xbfd23bdcda161072	-0.28490372941474285
32	0x3fd19188c7f961c0	0.274507708823446
33	0x3fcf9be20a7b4e5d	0.24694467078971885
34	0x3fd97462d1e61d26	0.3977286386293194
35	0x3fd7ec50c0000000	0.37379854917526245
36	0xbfda694480000000	-0.41267502307891846
37	0xbfb6651080000000	-0.0874796211719513
38	0xbfd48f5840000000	-0.3212490677833557
39	0x3fb6020000000000	0.085968017578125
40	0x3fc83ef599d7308e	0.18942136775729462
41	0xbfd0112f4263ffd2	-0.251048865160553
42	0xbf7ac1c7d6f0666d	-0.006532459853610823
43	0x3fbdf9eefc91a718	0.11709493318781161
44	0x3fd012e1c7611b48	0.25115246267926183
45	0x3fd4036d2ab9dd74	0.3127091328855933
46	0x3f94ca3f8b0d7481	0.020302765714735663
47	0x3fb23888bb6bc9cd	0.07117514205655269
48	0xbfd9227336ccd9a4	-0.39272766448575624
49	0x3fbf1d31f5c35760	0.12153923273157607
50	0xbfd43120ad1bb802	-0.315498513270427
51	0xbf9f6c3dc0c0a438	-0.03068634499519282
52	0x3fd9049bd0b2905e	0.39090628986946807
53	0x3f86372714390f2e	0.010847382836011468
54	0x3fc22f2c3aeed795	0.14206459882342118
55	0x3fd130a175d89ef0	0.26859318264403864
56	0x3fc80a4c0db3d732	0.18781424206798075
57	0x3f660a9d3b60d5cc	0.00269060811390418
58	0x3fd3fcb7bdeda771	0.31229966685952265
59	0x3f615efe2b2a6ee4	0.002120491431311199
60	0xbfc448db80000000	-0.1584734320640564
61	0x3fba708500000000	0.10327941179275513
62	0xbfd6b83380000000	-0.35499274730682373
63	0x3fd3168c80000000	0.29825127124786377
64	0xbfc9870540000000	-0.19943299889564514
65	0xbfd432c2565254ee	-0.3155980914101083
66	0x3fce2982706fa34c	0.2356417702678989
67	0x3fdc36da1f045907	0.440847902574561
68	0xbf26e3598cf6e7b0	-0.00017462223193637
69	0x3fd2f0eb6ecce1d4	0.29595456905692896
70	0xbfd668b44f027ca0	-0.35014064517776866
71	0x3fd02da91ea88436	0.2527869033238547
72	0xbfbcc2f54276b6a5	-0.11234982369088671
73	0x3fa0584daffeede2	0.031923701986183564
74	0xbfb0e021c8b78208	-0.06591998243630581
75	0xbfd204caa0000000	-0.28154245018959045
76	0xbfd90499c0000000	-0.39090579748153687
77	0xbfd1fa7e40000000	-0.2809138894081116
78	0x3fd95630c0000000	0.3958856463432312
79	0x3fc04c8800000000	0.1273355484008789
80	0x3fc904c761fd4d2d	0.19545833859101816
81	0xbf9f9a5041948075	-0.030862096789065114
82	0x3fccc5322ee75403	0.22476794519630525
83	0xbf951accfb988bc0	-0.020610049110597606
84	0x3fc180c5f39e1992	0.13674234767331633
85	0xbfa6592f37178f15	-0.043649173235989526
86	0x3fd81b4e9b141e4b	0.37666669029610905
87	0x3fc3a37cbb6da49f	0.15342673446437957
88	0x3fc14ef181ec73ba	0.1352216610329416
89	0x3fd014e465c6a0bf	0.25127515734721934
90	0x3fcd812080000000	0.2305031418800354
91	0xbfc6dee0c0000000	-0.17867669463157654
92	0xbfdb4c6980000000	-0.4265388250350952
93	0x3fa7d42d00000000	0.046540647745132446
94	0xbfd2233d80000000	-0.28340089321136475
95	0x3fb5658aabb6d88c	0.08358065311662893
96	0x3fab2c7f4a99fcfd	0.053073861939077795
97	0x3fbc45a72c437438	0.11043782072688735
98	0x3fd0ce7bda1cd622	0.2626027708059572
99	0xbfc9ce7c54afaece	-0.20161394248076764
100	0x3fe029ba40b0f0d0	0.5050936950206282
101	0xbfd8fbb79affcbe5	-0.3903635991729842
102	0xbfd266dc9769bbb4	-0.2875281790392663
103	0x3fced000e14c8495	0.2407227611629749
104	0xbf96d8cf54f18627	-0.02231143909410185
105	0x3fc9b45f80000000	0.2008170485496521
106	0xbfcdd7d000000000	-0.23314857482910156
107	0xbfaae2ed00000000	-0.052512556314468384
108	0xbfc343f100000000	-0.15051090717315674
109	0xbfd027f300000000	-0.2524383068084717
110	0x3fdb511f40000000	0.4268262982368469
111	0xbfc98f40e0000000	-0.1996842473745346
112	0xbfd3d18280000000	-0.30966246128082275
113	0xbfda45af40000000	-0.41050320863723755
114	0xbfda46c9a0000000	-0.41057053208351135
115	0x3fc9dd251a28dc89	0.20206130769085842
116	0x3fd538c4194e000a	0.3315897223583312
117	0xbfa852c4dbc0f413	-0.04750647718945102
118	0xbfdd87d81cd58d42	-0.4614162713607649
119	0x3fc75d81c0491632	0.18254110230388815
120	0xbfbded0f00000000	-0.11689847707748413
121	0xbfd8b6bce0000000	-0.3861534297466278
122	0x3fd8779a80000000	0.3823000192642212
123	0x3fc1621480000000	0.1358056664466858
124	0xbfcf462520000000	-0.24432815611362457
125	0xbfd1ea506cc9b73b	-0.2799264013655038
126	0x3fb32d53c8ce506a	0.07491038944709918
127	0xbfd56cca9ddc86a5	-0.3347651044478915
128	0x3fca8d722c45ef05	0.20744158899093904
129	0xbfd4787d9dbd526c	-0.3198541679787812
130	0x3fd6de8e00000000	0.3573336601257324
131	0xbfbd75e580000000	-0.11508020758628845
132	0x3fb55c7700000000	0.08344215154647827
133	0xbfdbb0c0c0000000	-0.4326631426811218
134	0xbfb32a1280000000	-0.07486072182655334
135	0xbfb02ea600000000	-0.06321179866790771
136	0xbfc009dd40000000	-0.1253010332584381
137	0xbfaf07b000000000	-0.060605525970458984
138	0xbfb2adbd80000000	-0.07296356558799744
139	0x3fd42570c0000000	0.3147851824760437
140	0x3fab1cadee9680a1	0.05295318162393526
141	0xbfcac58792b8a03c	-0.2091531244670949
142	0x3fcfb2848005c0c6	0.24763542414758016
143	0x3fc328940b245c0a	0.14967585128826527
144	0xbfd3098d55d7a578	-0.29745801337283906
145	0xbfc1f1d900000000	-0.14019310474395752
146	0xbfbf608880000000	-0.12256672978401184
147	0x3fd6096880000000	0.3443242311477661
148	0xbf8bff2800000000	-0.013670265674591064
149	0x3fc1659000000000	0.1359119415283203
150	0xbfc3e10e80000000	-0.1553056836128235
151	0x3fcb704080000000	0.21436315774917603
152	0xbfb8635e00000000	-0.09526622295379639
153	0x3fc8a01500000000	0.19238531589508057
154	0x3fa1f78d00000000	0.035091787576675415
155	0x3fc8d98180000000	0.19413775205612183
156	0x3f9103a400000000	0.016615450382232666
157	0xbfd4bdf880000000	-0.32409489154815674
158	0xbfd96889c0000000	-0.39700549840927124
159	0xbfd1d09740000000	-0.2783563733100891
160	0x3fab124513578329	0.05287376271349437
161	0x3fc48cfec6652115	0.16055283248193378
162	0xbfce028b7647939a	-0.23445266032572648
163	0x3fcbdf900168a946	0.21776008671560926
164	0x3fd46e40d5395bc4	0.31922932455693975
165	0x3fc2791f7a0ad318	0.14432137927146793
166	0xbfd40419fe91aec8	-0.3127503381754022
167	0x3fa9ffac1ae10fb0	0.05077874973406382
168	0x3fcc02d417ce60bc	0.21883631861124353
169	0x3fd884499bf9f5dd	0.38307419044562413
170	0xbfd191cb00000000	-0.2745234966278076
171	0x3fadf6f400000000	0.0585247278213501
172	0xbfc0a04500000000	-0.129891037940979
173	0x3fcb790000000000	0.214630126953125
174	0x3fac667c00000000	0.055469393730163574
175	0xbfd8793520000000	-0.38239791989326477
176	0xbfb4eae080000000	-0.08170893788337708
177	0x3f9fbf0800000000	0.031002163887023926
178	0xbfd7095e00000000	-0.35994672775268555
179	0xbfd9241620000000	-0.3928275406360626
180	0x3fd9b8b7440fa71e	0.4018991627368552
181	0xbfc34b5dd8ab2d98	-0.15073750571751243
182	0xbfd86ba51ece1965	-0.3815701294737635
183	0x3fa22149fba0b25a	0.03541022488238772
184	0x3fcb031d084be0b4	0.2110325136670831
185	0x3fd533558aa362f6	0.3312581876648858
186	0x3fb504330564c266	0.08209532624892688
187	0x3fcdeb082af356bb	0.23373510453409616
188	0x3fd0fd57d2679f8b	0.26546283290235156
189	0x3fd86d60da0f21b5	0.3816759232982137
190	0x3fd08cd88308536c	0.25859654232163254
191	0xbfc142f1fd470530	-0.13485550753652253
192	0xbfd16452d2b48048	-0.27174826218288617
193	0xbfc9994eed36a7af	-0.19999109823885194
194	0xbfbc8428cf6ea2cb	-0.11139159263860703
195	0xbfd392349db9e344	-0.3057986774725132
196	0xbfd1b255618de462	-0.2765096142462139
197	0x3fe079dc2bb5d140	0.5148754934039417
198	0xbfc274fc00b7ba46	-0.1441950801376654
199	0x3fd4b645942e1514	0.3236249873228456
200	0x3fdcc4984910e630	0.4494991982970502
201	0xbfbcbb586247734f	-0.1122336616458146
202	0xbfd8cac4dc8d4e74	-0.3873760370090402
203	0x3fda1735b571a864	0.40766661376131297
204	0xbfb27ebcda1ac1a0	-0.07224636387650785
205	0x3fb0fe1700000000	0.06637710332870483
206	0x3fc4448500000000	0.15834105014801025
207	0xbfc4852280000000	-0.1603129506111145
208	0xbfbd61bf80000000	-0.11477276682853699
209	0xbfd7ff0c60000000	-0.3749419152736664
210	0x3f98d4dc00000000	0.024249494075775146
211	0xbfc0415d40000000	-0.1269947588443756
212	0xbfcd6e9dc0000000	-0.22993823885917664
213	0x3fc5a90800000000	0.1692209243774414
214	0xbfb4ba4600000000	-0.08096730709075928
215	0x3fc0415c2f06b9de	0.12699463173107878
216	0xbfa6dacaa3964f8f	-0.0446379971209857
217	0xbfdc318b77050811	-0.440523973684436
218	0x3fca24d589dc3f7e	0.20424908858739949
219	0xbfc399f7b41cbd5d	-0.15313621801895297
220	0xbfbc56d32278cdc7	-0.11069984046553492
221	0x3fdd076451629a1f	0.4535761637475008
222	0x3fda81b8e884c70e	0.41416762072468394
223	0x3fd3193bab744901	0.29841510528162024
224	0xbfd588fe7f030aa4	-0.3364864578581239
225	0xbfe07d3254974919	-0.5152827884833499
226	0xbf9939f8761b88f3	-0.02463520260688141
227	0xbfd49a704988bb4e	-0.3219261854273342
228	0x3fd76aba5145b080	0.3658891481088702
229	0x3fd18c4b14a5dd6e	0.2741878224982973
230	0x3fcb6cad8e59010f	0.21425408793039266
231	0xbfcf8a4a39237200	-0.24640777387584478
232	0x3f57339c4708ea12	0.0014161134860289954
233	0x3fd1e07c90b35932	0.2793265736667251
234	0x3fc42b5d5854fab6	0.15757338345607302
235	0x3fb8ae63731e631c	0.09641095695986873
236	0x3fd59e1268aa5a35	0.3377729436992099
237	0x3fb95dd418f44fc3	0.09908795937764041
238	0x3fd846e834162dfc	0.37932782255731445
239	0xbfb239d95bc94504	-0.07119520655512096
240	0x3f9558c9553a188a	0.02084650595363561
241	0x3fd18b43e18b86e5	0.2741250708187251
242	0x3fd86e3c854e5106	0.3817282964530623
243	0x3fc754a6fbca5453	0.18227088255358356
244	0xbf5450dbdd81dd9b	-0.001239981376810784
245	0x3fb2078500000000	0.07042723894119263
246	0xbfb9034f00000000	-0.09770673513412476
247	0xbf9bdd8c00000000	-0.027212321758270264
248	0x3fcd0ced80000000	0.2269570231437683
249	0xbf89036800000000	-0.012213528156280518
250	0x3fcd198d118509d5	0.227342256121189
251	0xbfd2a1160fc6dce9	-0.291081920058288
252	0xbfd219d8f9b8fdf6	-0.2828276098916541
253	0x3fb6695553d682b0	0.08754475876640799
254	0xbfcbb4c89127d391	-0.21645457351374067
255	0x3fbf50d5f4d7783f	0.12232720592098277

fc1.bias f8 [64]
0	0xbfd07b879f6ea562	-0.257539659209746
1	0x3fc4dbbe80000000	0.16295605897903442
2	0x3fd10dcba392440c	0.2664670083404992
3	0x3fb083fe00000000	0.06451404094696045
4	0xbfd8a4e500000000	-0.38506436347961426
5	0xbfc5110cc0b66b62	-0.16458281907838584
6	0xbfcb326af3984f76	-0.2124761285236862
7	0xbfd18a4b60000000	-0.2740658223628998
8	0xbfda62e961d4c5f7	-0.41228708795378516
9	0xbfaa32b8d70f92df	-0.051168228390258134
10	0x3fc3c7c0b5630095	0.15453347069524584
11	0xbfb89412a68ef454	-0.09600941244475908
12	0xbfca1b0d40000000	-0.20395055413246155
13	0xbfd012d536ba5f2b	-0.25114946693928414
14	0xbfb71e2a1446de18	-0.0903040217880221
15	0x3fcb36a380000000	0.21260493993759155
16	0xbfc6a75d8c3a8f23	-0.17698258730990188
17	0xbfa9c39364969e93	-0.05032024958501071
18	0xbfcc602f40000000	-0.22168532013893127
19	0xbfcf94c6c92bc305	-0.24672779867935205
20	0x3fad681bc0a3df71	0.05743490912021699
21	0x3fac574a00000000	0.05535346269607544
22	0x3fa63d9800000000	0.04343867301940918
23	0xbfb544653e8743a7	-0.08307488228389436
24	0xbfd06eaee0000000	-0.2567555606365204
25	0x3fcc69b066ceeb55	0.2219753744119212
26	0xbfd7cf8cc0000000	-0.37204283475875854
27	0xbfcff34560000000	-0.24961154162883759
28	0xbfd04610b93f5a89	-0.2542764481599212
29	0xbfd5b36b80000000	-0.3390759229660034
30	0xbfd4fb0ea0000000	-0.32782331109046936
31	0xbfc40220c0000000	-0.1563149392604828
32	0xbfc37848239afa75	-0.15210820902389668
33	0xbfdcc840035d06fd	-0.44972229317146156
34	0xbfc13cbd80000000	-0.13466614484786987
35	0xbf73036000000000	-0.004641890525817871
36	0xbfadad40b8fcb479	-0.057962439137875195
37	0x3fd0265ada4f7873	0.2523409969270524
38	0xbfbc971cf00171b0	-0.11168080195915908
39	0x3fbc5184d5e9dea4	0.1106188795328032
40	0xbfa7d9fed7c01322	-0.046585048519807395
41	0xbfca783ce0000000	-0.2067943662405014
42	0x3fa0047f00000000	0.03128430247306824
43	0x3fd3cd403d18412c	0.3094025227192272
44	0x3fd1eac5957f25dc	0.27995433425220795
45	0x3fa18a1f91ffe46c	0.03425692231389452
46	0xbfdf20bbdbfc53dd	-0.48637291415189826
47	0xbf9840ed741e4d54	-0.0236851789591815
48	0xbfc095286f8e49cf	-0.12955193945943086
49	0xbfdc691be0000000	-0.44391533732414246
50	0x3fe067b8207577a8	0.512661040683942
51	0x3fd9b7e779112318	0.40184962103789834
52	0x3fb1c9fbc6bb31bb	0.06948827363812075
53	0xbfd0b5b420000000	-0.26109030842781067
54	0xbfd49eebe0000000	-0.3221997916698456
55	0x3fab82d600000000	0.05373257398605347
56	0xbfd15ffb277ef67d	-0.27148321969057304
57	0x3fb125e27fe758b1	0.06698432562493185
58	0xbfd27f1a80000000	-0.2890077829360962
59	0xbfda0aa6281fed0e	-0.40689996641567994
60	0xbfd0c8c900000000	-0.2622549533843994
61	0xbfca77ad84049059	-0.20677727647955882
62	0xbfd1bae5d0d74011	-0.27703233141528566
63	0x3fd923f28b29db18	0.3928190573710011

fc2.weight f8 [128, 64]
0	0x3fc57b1d58b117f1	0.1678196604790965
1	0x3fa8d37b80000000	0.04848848283290863
2	0xbfccb5dcade67a65	-0.2242999886629661
3	0x3fb540ed80000000	0.08302196860313416
4	0xbfb3f9a7c0000000	-0.07802818715572357
5	0x3f71b18f7b0340b4	0.004319725485587057
6	0xbfb9358e9e4928bf	-0.09847346653365018
7	0x3fb5832ec0000000	0.08403293788433075
8	0xbf853d41ffbbeac7	-0.01037074624718083
9	0xbfba12bbd6655b3d	-0.10184835418963885
10	0x3fcc50f042ea4134	0.22122004763924397
11	0xbf708a891d5b5877	-0.004038367847632888
12	0x3fa762e000000000	0.045676231384277344
13	0x3fc4d7bb60474458	0.16283361626713844
14	0x3faec9c78bc2aecc	0.06013320523319762
15	0xbfbd6edd80000000	-0.11497291922569275
16	0x3fb20183df4b0af1	0.07033561898701259
17	0xbfa783a1160422b1	-0.04592612642051586
18	0xbfb9da7e80000000	-0.10099020600318909
19	0x3fb2195f47ae0c59	0.07069964885708781
20	0xbfd767a3b6aafe84	-0.3657006534449254
21	0x3fbfe46200000000	0.12457859516143799
22	0xbfb16f1700000000	-0.06810134649276733
23	0xbfb437c40babec8c	-0.07897591862631453
24	0x3fab41db80000000	0.05323682725429535
25	0xbfaf6e9a76a15709	-0.06139071176646211
26	0xbfbe08a700000000	-0.11731952428817749
27	0x3fbc932d80000000	0.11162075400352478
28	0xbfa49b9f9d09df9a	-0.04024981300329884
29	0x3fbeee6740000000	0.12082524597644806
30	0xbf9a2eab00000000	-0.025568649172782898
31	0x3fa09e0880000000	0.032455697655677795
32	0x3fb6a1002b237061	0.08839417508301174
33	0x3fb31750be15f0c0	0.07457451477779653
34	0x3fafd07f00000000	0.06213757395744324
35	0x3fb45ad740000000	0.0795111209154129
36	0xbfa46db0c519102d	-0.0398993721578623
37	0x3fc1cd726dc1eef9	0.13908224448447706
38	0xbfb1de046a826b54	-0.06979396438911795
39	0x3fb657e25e85391d	0.08727850730540294
40	0xbfc73587dcda9abd	-0.18132112773783673
41	0xbfb8bca940000000	-0.09662874042987823
42	0xbfac6f6780000000	-0.055537447333335876
43	0xbfc0c2b60a3ad7a6	-0.13094211101059477
44	0x3fc1ba6a9ae0d13e	0.138501477836721
45	0x3fc5d7a255347e26	0.17064313087847544
46	0x3fbac8686e8f1bf7	0.10462048243708454
47	0x3fc2f4b9faf6f83b	0.1480934596456239
48	0xbfa2d56ccd3bf335	-0.03678455357837721
49	0xbfbe851040000000	-0.1192178875207901
50	0xbfc631308234d948	-0.1733761440061221
51	0x3fb7121b41ad99f6	0.09012003282041534
52	0x3fc0fd13a3eae6d6	0.1327232885722
53	0xbfa35c3900000000	-0.0378129780292511
54	0x3fa6a6c280000000	0.04424102604389191
55	0xbfb2f88300000000	-0.07410448789596558
56	0xbfa3163b70084137	-0.03727899305897824
57	0x3fd3299cabd7e2fa	0.2994147947461411
58	0xbfaf5fbb00000000	-0.06127724051475525
59	0x3fcb60e974196573	0.21389501732737023
60	0x3f959b3100000000	0.021099820733070374
61	0xbfa2a67329099b98	-0.036426161536659396
62	0x3fc004ff91367bad	0.1251525363013263
63	0xbfbe92c59f6275e4	-0.1194270624277674
64	0x3fc2d40af841106b	0.14709603425774573
65	0x3fa8580e00000000	0.04754680395126343
66	0xbfab1dceb4db49f5	-0.05296178777429709
67	0xbfbd74b280000000	-0.11506190896034241
68	0x3fb93d1500000000	0.09858828783035278
69	0x3fc5344e42d1ce20	0.16565874350236331
70	0x3fb32110a9404d0c	0.07472328312023907
71	0xbfa0285e00000000	-0.03155797719955444
72	0xbfbf9015e401afc7	-0.12329232040946102
73	0x3fc2516e6615f3ab	0.14311008438735703
74	0x3fc030b2682519d1	0.12648611149979996
75	0x3fc2f20524d26eaf	0.14801086709927833
76	0xbfb1ff7000000000	-0.07030391693115234
77	0x3fbb6ca0c3a9eb9a	0.1071262815184312
78	0xbf6388249889e495	-0.0023842539561057066
79	0xbfad186900000000	-0.05682685971260071
80	0x3fbefef1000b4727	0.1210775971515231
81	0x3fc08aae95cea41f	0.1292322379570416
82	0x3f91da6200000000	0.017434626817703247
83	0x3fc29a49988f6cf3	0.1453334803507925
84	0xbfd69edd1c7bdae5	-0.3534462717210956
85	0x3fbf7b6200000000	0.12297642230987549
86	0xbfbea010c0000000	-0.11962990462779999
87	0x3faaf75402bde194	0.05266821416347792
88	0x3fa8fdea80000000	0.048812225461006165
89	0x3f8405eb4bc1231a	0.009776914834348772
90	0xbfb331e240000000	-0.07497991621494293
91	0x3f8952cc00000000	0.012364953756332397
92	0xbfc0062bf603a4bb	-0.1251883460275048
93	0xbfba802540000000	-0.10351784527301788
94	0x3fbb5a2000000000	0.10684394836425781
95	0x3fb5a48ac0000000	0.08454196155071259
96	0x3fb114d6002cf230	0.06672418121611012
97	0x3f81d26c321bb1d4	0.008702130583935132
98	0xbfb0e51480000000	-0.0659954845905304
99	0x3fb1cbd7c0000000	0.06951664388179779
100	0xbfc74cb8a744e956	-0.18202884833756156
101	0xbf7852c81768a3c5	-0.005938321692647135
102	0xbfab75e39cbdd343	-0.05363379753445099
103	0x3fae333bd2627d02	0.05898463195011951
104	0xbfc96beca166f3c3	-0.1986060894104452
105	0xbf98a68200000000	-0.02407267689704895
106	0x3fab0b7e00000000	0.0528220534324646
107	0xbfba7516694260b9	-0.10334911413008542
108	0x3fc2a8d365fe79d4	0.14577715377977418
109	0x3fbd2a2e5de6b75c	0.11392488281736973
110	0xbfb285a14a05653e	-0.07235153252749613
111	0x3f94b46fce5e049c	0.020219561548860385
112	0x3fba98b66027e74b	0.10389270637088292
113	0xbf95a92b00000000	-0.02115313708782196
114	0xbfd3b96e4877a995	-0.30819279744050593
115	0xbf8816809cfd9695	-0.011761669913265474
116	0x3fb8be7bcac9acc2	0.09665654850839459
117	0xbf517af000000000	-0.0010669082403182983
118	0x3fa4d55700000000	0.04069015383720398
119	0xbfa3228880000000	-0.03737284243106842
120	0x3fb2b52288f88a7b	0.07307639926924907
121	0x3fda36b95082aa92	0.40959008085580095
122	0x3f99621900000000	0.024788275361061096
123	0x3fa4dc634cbef14c	0.04074392616118647
124	0x3fb362ef40000000	0.07572837173938751
125	0xbfa221176cfe2a84	-0.035408718161382274
126	0xbf95ce09bd47443f	-0.021293785264621553
127	0xbfc5b395813abcf5	-0.16954296884566813
128	0x3faa422180000000	0.05128578841686249
129	0x3fbd5c6bc0000000	0.11469148099422455
130	0x3faccf1900000000	0.05626752972602844
131	0xbf957f9100000000	-0.020994439721107483
132	0xbfa7421f00000000	-0.04542633891105652
133	0x3f990aeb00000000	0.024455711245536804
134	0x3f98444800000000	0.023697972297668457
135	0xbf9f04c200000000	-0.030291587114334106
136	0x3fbdb363c0000000	0.11601851880550385
137	0x3fbda7a980000000	0.11583957076072693
138	0x3f8d86bc00000000	0.014417141675949097
139	0xbfa2c37980000000	-0.036647602915763855
140	0x3fbf4a42c0000000	0.12222687900066376
141	0x3fb7b0cb00000000	0.0925413966178894
142	0x3f8555da00000000	0.010417655110359192
143	0x3fbdbc1740000000	0.11615128815174103
144	0xbfb7e5e940000000	-0.09335191547870636
145	0x3f67e92800000000	0.0029187947511672974
146	0x3fae3b8a80000000	0.059048011898994446
147	0x3f8274f800000000	0.009012162685394287
148	0xbfbb640840000000	-0.1069951206445694
149	0x3faa555d80000000	0.0514325350522995
150	0x3f85d2bc00000000	0.010655850172042847
151	0x3fa4ea7100000000	0.04085114598274231
152	0xbfabe73200000000	-0.054498255252838135
153	0xbfa4c6ed00000000	-0.040580183267593384
154	0xbfb3c8cd40000000	-0.07728274166584015
155	0xbfa1ce2b80000000	-0.034776076674461365
156	0x3f7ba5f800000000	0.00675007700920105
157	0x3fa6613d00000000	0.0437106192111969
158	0xbf9b64d400000000	-0.026751816272735596
159	0xbf792b2400000000	-0.006144657731056213
160	0x3f81be0800000000	0.00866323709487915
161	0xbf9502f900000000	-0.020519152283668518
162	0x3fb4800600000000	0.08007848262786865
163	0xbf8f40ae00000000	-0.015260085463523865
164	0x3fb4a106c0000000	0.08058206737041473
165	0xbfaf20c880000000	-0.06079699099063873
166	0x3fb8585580000000	0.0950978696346283
167	0x3fa926a300000000	0.049122899770736694
168	0x3f9798ee00000000	0.023044317960739136
169	0x3f8bff3600000000	0.013670369982719421
170	0x3f94cc5900000000	0.020310774445533752
171	0x3fbc160380000000	0.10971090197563171
172	0x3fbb755100000000	0.1072588562965393
173	0x3fbd85b480000000	0.11532142758369446
174	0xbfaaae8100000000	-0.05211260914802551
175	0x3fba411c80000000	0.1025560200214386
176	0xbfb9a50b80000000	-0.10017463564872742
177	0xbfbe7b8480000000	-0.11907222867012024
178	0x3fba74a7c0000000	0.10334251821041107
179	0xbfb5fcbf80000000	-0.08588787913322449
180	0xbfa6d1cc80000000	-0.044569388031959534
181	0xbfbc571400000000	-0.11070370674133301
182	0x3fb6f6a680000000	0.0897010862827301
183	0xbf9e245700000000	-0.029435500502586365
184	0xbfa3e07580000000	-0.038821861147880554
185	0x3f8141b400000000	0.008426100015640259
186	0xbfb89c81c0000000	-0.0961381047964096
187	0x3fb2d22ec0000000	0.07351963222026825
188	0x3fb3c338c0000000	0.0771975964307785
189	0xbfb20ac3c0000000	-0.07047675549983978
190	0x3f92dde100000000	0.01842452585697174
191	0xbfaf727a00000000	-0.0614202618598938
192	0xbfbaeeee80000000	-0.10520830750465393
193	0x3f9014a600000000	0.01570376753807068
194	0xbfb4136400000000	-0.07842087745666504
195	0x3f9ba8f800000000	0.027011752128601074
196	0xbfa12c6f80000000	-0.03354214131832123
197	0xbfaeeca600000000	-0.06039923429489136
198	0x3fb1aa3200000000	0.06900322437286377
199	0xbfb65e8300000000	-0.08737963438034058
200	0xbf93a39d00000000	-0.01917882263660431
201	0xbfba8706c0000000	-0.10362283885478973
202	0x3f919cbe00000000	0.01719948649406433
203	0x3fbbd5a300000000	0.10872858762741089
204	0x3f79fdb800000000	0.006345480680465698
205	0xbfbb8dec00000000	-0.10763430595397949
206	0xbfb44831c0000000	-0.07922659814357758
207	0xbfb2776580000000	-0.0721343457698822
208	0x3fb23cd140000000	0.07124049961566925
209	0x3fb3b74080000000	0.07701495289802551
210	0xbfae427800000000	-0.05910086631774902
211	0x3fa28d5700000000	0.03623458743095398
212	0x3f619f5800000000	0.002151176333427429
213	0x3f73bb3400000000	0.004817202687263489
214	0xbfb3cd0480000000	-0.07734706997871399
215	0x3fbc710040000000	0.1110992580652237
216	0x3f97631400000000	0.022838890552520752
217	0x3fb3de43c0000000	0.07761023938655853
218	0xbfa6932300000000	-0.04409131407737732
219	0x3fa7c4fd80000000	0.04642479121685028
220	0xbfb4dab480000000	-0.08146217465400696
221	0x3fb8681b80000000	0.09533855319023132
222	0x3fb275f340000000	0.07211227715015411
223	0xbf82cb1e00000000	-0.009176477789878845
224	0xbfb32057c0000000	-0.07471226155757904
225	0xbfb7b31a40000000	-0.09257663786411285
226	0x3f708bb400000000	0.004039481282234192
227	0xbfaab8b680000000	-0.052190497517585754
228	0x3f9194ab00000000	0.017168685793876648
229	0xbfb9bb9e40000000	-0.1005190759897232
230	0x3fbb961140000000	0.10775859653949738
231	0xbfbb4b4000000000	-0.10661697387695312
232	0x3f6c101000000000	0.0034256279468536377
233	0xbfb0e3ccc0000000	-0.06597594916820526
234	0xbfa9867280000000	-0.04985387623310089
235	0x3fb4f39a80000000	0.0818420946598053
236	0xbfb4fbf580000000	-0.08196958899497986
237	0xbfb6676400000000	-0.08751511573791504
238	0xbfb14e3cc0000000	-0.0676000565290451
239	0xbfb8dcf040000000	-0.09712125360965729
240	0xbf824c2000000000	-0.008934259414672852
241	0xbf9fd30c00000000	-0.0310785174369812
242	0x3f9f394800000000	0.030491948127746582
243	0x3fae50f280000000	0.059211328625679016
244	0x3fafb76000000000	0.06194591522216797
245	0x3fbabe4440000000	0.10446573793888092
246	0x3f5befe000000000	0.0017051398754119873
247	0x3fa71d8700000000	0.04514715075492859
248	0x3fb5343680000000	0.08282795548439026
249	0x3fa011d480000000	0.031386032700538635
250	0xbf9988c200000000	-0.024935752153396606
251	0xbf98b29700000000	-0.02411876618862152
252	0xbf7c8e0c00000000	-0.006971403956413269
253	0x3fa2e5a580000000	0.036908313632011414
254	0xbfb98cf900000000	-0.09980732202529907
255	0xbfba360300000000	-0.10238665342330933

fc2.bias f8 [128]
0	0xbf982bb690dcd77e	-0.02360425242587593
1	0x3fab6cc60c94ea91	0.05356425193391091
2	0xbfb86d1880000000	-0.0954146683216095
3	0x3f8b1b0a00000000	0.013235166668891907
4	0xbfa04e04a55e87b3	-0.03184523123424245
5	0x3f9345ab97b334a6	0.01882045853999572
6	0xbfb0fed840000000	-0.06638862192630768
7	0xbfa6a78280000000	-0.044246748089790344
8	0xbfb29ee640000000	-0.07273711264133453
9	0xbfa964e7ea4ac603	-0.04959797606478491
10	0xbf8efb3200000000	-0.015127554535865784
11	0xbfab97a3ed2970d7	-0.0538912989620443
12	0x3fa7bb9eb2f9ee24	0.046353301379863404
13	0xbfc2b89772952446	-0.14625828833439608
14	0x3fa0455e2c98734f	0.03177923483256128
15	0xbfb95524525527d0	-0.09895541200708569
16	0x3fbf94c9d56b25ce	0.1233640810052272
17	0xbfc586b09e6658c2	-0.1681729100643619
18	0x3fa61510e9ca0bf3	0.04312947133896463
19	0xbfbc2679c0000000	-0.1099620908498764
20	0xbfa8246400000000	-0.04715263843536377
21	0x3fb513b9a6620828	0.08233223259051725
22	0xbf972e2cdac95647	-0.022637081960360097
23	0x3fa8990e00000000	0.04804271459579468
24	0x3fc2d5028fde5a6b	0.1471255495532263
25	0xbfa1125180000000	-0.0333428829908371
26	0xbfb2418c9fb47a89	-0.07131270312354777
27	0xbf867a66cb3af372	-0.010975649907203542
28	0x3fb25c56cbc4f4a5	0.07172148203695146
29	0xbfc1df7df23a2291	-0.13963293387884737
30	0xbfa1a58938ecabe2	-0.03446606464270709
31	0x3f95d2cf6e1bde54	0.021311989875327633
32	0xbfad99bd00000000	-0.057813555002212524
33	0xbf9fee14e62f0e68	-0.031181646870903995
34	0x3faad1c3fc5869a6	0.05238163428676339
35	0xbf747942af89556c	-0.0049984555158365356
36	0xbfacdd70145cbb11	-0.05637693642198916
37	0xbfb2fcad80000000	-0.07416805624961853
38	0xbfa18a6280000000	-0.03425891697406769
39	0xbfa2f76400000000	-0.03704369068145752
40	0xbfbf820db45dd25b	-0.12307820943335328
41	0xbfc4328d228aab77	-0.1577927035007993
42	0x3fc0073b636000b6	0.12522070267005397
43	0x3fa0c7f700000000	0.03277561068534851
44	0xbfb83e8ec0000000	-0.09470455348491669
45	0x3f9b0249dc01114d	0.02637591748522654
46	0xbfc4fcf1707bc15f	-0.1639692115054556
47	0xbf947d6a715cb0ad	-0.020009673279830654
48	0xbfb7917aef5d901e	-0.09206360191234395
49	0x3fc236522e5f9ac2	0.142282745974816
50	0xbfbdcfffc0000000	-0.1164550632238388
51	0xbf945fb700000000	-0.01989637315273285
52	0x3f9b4aa801fe6830	0.026651978608789928
53	0xbfa5a2e216a2a0d5	-0.042258324874013965
54	0xbfa63e29c263569f	-0.04344301698590169
55	0x3f85a6fc00000000	0.0105724036693573
56	0xbfa4ddad78902f42	-0.040753766028585506
57	0xbfa7fe8680000000	-0.046863749623298645
58	0xbf93c9d600000000	-0.01932463049888611
59	0xbfbe07f33d3af043	-0.11730880970839146
60	0xbfb04f50c7c7df60	-0.06371025922260065
61	0xbfb2110a80000000	-0.07057252526283264
62	0xbfba3b7ba132d83a	-0.10247013745797143
63	0xbfaeb3a700000000	-0.059964388608932495
64	0xbfa6207d00000000	-0.04321661591529846
65	0x3fc18b3abc058902	0.1370614450525594
66	0xbf98b7bb400fe4e1	-0.024138379845656813
67	0x3fc271b95db97fe7	0.14409558369061345
68	0x3fa9b788aee4a541	0.05022837767530542
69	0x3fa6e81b56835512	0.04473958426539516
70	0x3fb06e72c7128a44	0.0641853080765396
71	0xbfb8033a30d11867	-0.09379924480262646
72	0xbfad3bb500000000	-0.05709615349769592
73	0xbfa7476516ed892c	-0.045466574715435776
74	0x3fb70bda57f2ecf1	0.09002461096945404
75	0x3fafcb6c63f7e33b	0.06209887237850472
76	0x3fb5c0907b4579df	0.08496954927020493
77	0xbfa8b8ff80000000	-0.048286423087120056
78	0x3fba140694c5fb8a	0.10186806804811802
79	0xbf50129000000000	-0.0009809881448745728
80	0xbf61d52000000000	-0.002176821231842041
81	0x3fa435d200000000	0.039473116397857666
82	0xbfb5e146f32a3d89	-0.08546870648046058
83	0xbfc1f72c2d59c57f	-0.14035560812366651
84	0xbfbbf868c0000000	-0.10925917327404022
85	0x3f92d632a7000ebd	0.018395224993595905
86	0xbfba3b5b0ac88717	-0.10246819508804737
87	0x3fa3767fac062f92	0.03801344847587908
88	0x3f930d9094ae19d8	0.018606432985984828
89	0x3fbc904fc0000000	0.11157701909542084
90	0xbfc1defaa6aed236	-0.13961728228390918
91	0xbfc61dcd05902e90	-0.17278445026055467
92	0x3f8a8a4e00000000	0.012959107756614685
93	0xbfaade9a2fd2f6cc	-0.052479570711040674
94	0x3fab905d7420f9e1	0.05383579294765518
95	0xbfb1940616fc5e16	-0.06866491376091974
96	0x3fb83f43f5d0c7b9	0.0947153544555296
97	0xbfb7a19d00000000	-0.09230977296829224
98	0xbfb9291e2153e45f	-0.0982836562506164
99	0xbfb5d548b3a47d0e	-0.08528570543102296
100	0x3f53ccf512c072d3	0.0012085336011359762
101	0xbfadaba8846613e9	-0.05795027366824696
102	0x3fa0815a75b96b30	0.03223688780845746
103	0x3f96dffc12f6824d	0.022338808686642776
104	0x3f87d8af720ebedb	0.011643763225805006
105	0x3fbf5f31d916c2aa	0.12254630613348164
106	0xbf8e9ceae8d16331	-0.014947734098471695
107	0xbfc6356dac31bea3	-0.1735055056374125
108	0x3f89fb4a00000000	0.01268632709980011
109	0x3fb23fa9c8763318	0.07128392356953517
110	0x3f977465dc9b3687	0.02290496024106983
111	0x3fbf9818d769c4b6	0.1234145666037588
112	0xbfa81015d9a81d56	-0.046997721499844644
113	0xbfaf4a3700000000	-0.06111308932304382
114	0xbfb535f06ed9ac60	-0.08285429674440214
115	0xbf91001b6352a887	-0.016601970612704988
116	0xbfb17e9a4de5cec6	-0.06833805467413887
117	0x3fa8d36234e6db5c	0.04848772903226603
118	0xbf8fa21d6079bd4e	-0.015445928103160835
119	0xbfbd7226a6d13649	-0.11502305576979056
120	0x3fbb3f0b962885e0	0.10643074432348198
121	0xbfc3a0986a883b3d	-0.15333848191991165
122	0x3fb56e00ddd69568	0.08370976844760991
123	0x3fb7956200000000	0.09212315082550049
124	0x3fb42c8d68a74d47	0.07880481534021043
125	0x3fbcedf45d94102b	0.11300589832905021
126	0x3fae8889813a3ac5	0.05963544561847337
127	0xbf98febd00000000	-0.024409249424934387

fc3.weight f8 [64, 128]
0	0x3f964cc9cfdd7bc4	0.02177729922493278
1	0xbfb926ca870e1f9a	-0.09824815556760172
2	0x3fb0e88020000000	0.06604767590761185
3	0x3f9249e600000000	0.01786002516746521
4	0xbfaf9d0987bfe5f8	-0.061744973965641436
5	0x3f927b5e8378afa8	0.01804874112546853
6	0x3f63761400000000	0.0023756399750709534
7	0xbfb0fc5980000000	-0.0663505494594574
8	0x3faa0559c0000000	0.050822071731090546
9	0x3f82c64300000000	0.009167216718196869
10	0xbfb3fa9880000000	-0.07804253697395325
11	0x3fadf818c0000000	0.058533452451229095
12	0xbfb6a1b34071fd70	-0.08840484927531178
13	0xbfadb39520000000	-0.058010730892419815
14	0xbfad647518e75472	-0.05740705422400873
15	0x3f996e9e00000000	0.024836033582687378
16	0xbfb80821f924a9ba	-0.09387409527395266
17	0x3f81c54800000000	0.008677065372467041
18	0xbf999e2200000000	-0.02501729130744934
19	0xbfb6614120000000	-0.0874214842915535
20	0xbfb4a3e6c0000000	-0.08062593638896942
21	0xbfbf1f6db84140eb	-0.12157331226740424
22	0xbf9ec95d80000000	-0.03006502240896225
23	0x3f698b7000000000	0.0031182467937469482
24	0xbfb1cbc4069d134e	-0.06951546822990659
25	0xbfb09a27e0000000	-0.06485223025083542
26	0x3f9dff0500000000	0.029293134808540344
27	0x3faec7ddc0000000	0.06011860817670822
28	0xbfc0e02fe5f18b15	-0.13184164741240836
29	0x3fa48d1b40000000	0.040139056742191315
30	0x3fb04bfda0000000	0.06365952640771866
31	0x3f8e1fc400000000	0.014709025621414185
32	0xbfa0b415a0000000	-0.032623935490846634
33	0x3f818acd00000000	0.008565522730350494
34	0xbf8da82400000000	-0.01448085904121399
35	0xbfb102bd60000000	-0.06644805520772934
36	0xbf97d65780000000	-0.02327858656644821
37	0xbfa371c5a0000000	-0.03797738626599312
38	0xbf9a6cce80000000	-0.02580568939447403
39	0xbf739fd200000000	-0.004791088402271271
40	0x3f91104c80000000	0.01666373759508133
41	0x3fa4753440000000	0.03995669633150101
42	0x3f95dad7ecd1fb23	0.021342634038315055
43	0x3fa520b240000000	0.04126507788896561
44	0x3f8f851b00000000	0.01539059728384018
45	0xbf85582e00000000	-0.010422095656394958
46	0xbfa41e67c0000000	-0.03929447382688522
47	0xbfb0b1f860000000	-0.06521560996770859
48	0xbf9fd7c3c0000000	-0.03109651431441307
49	0xbf8b37edf0b5b815	-0.013290270717984535
50	0x3fabc306c0000000	0.05422230809926987
51	0xbf9be6b580000000	-0.027247272431850433
52	0x3f7e1d68004d0aac	0.007352262739746134
53	0xbfadd6df23478dd8	-0.05827996545465525
54	0x3fb54c6220000000	0.08319676667451859
55	0x3fa0ae8000000000	0.032581329345703125
56	0x3faf82bb40000000	0.061544276773929596
57	0xbf96368500000000	-0.021692350506782532
58	0xbfb4a473c0000000	-0.08063434064388275
59	0xbfa6a3fd00000000	-0.04421988129615784
60	0x3f81f9c200000000	0.008777156472206116
61	0x3fa2b43440000000	0.03653109818696976
62	0xbfa6668d40000000	-0.04375115782022476
63	0xbfa24dea40000000	-0.03575069457292557
64	0x3fa482cd40000000	0.040060438215732574
65	0xbfb32183d4c843b1	-0.07473014778976396
66	0xbf98e44700000000	-0.024308308959007263
67	0xbfb9bdb7a9001089	-0.10055110813124392
68	0xbfb7a25954277401	-0.0923209982351665
69	0xbfbe1fe4042bbddb	-0.11767411329105164
70	0x3f951ef694c623be	0.020625927763407985
71	0x3fa75a46c0000000	0.04561062902212143
72	0x3fb2d97860000000	0.07363083213567734
73	0xbfb4039edfd7650c	-0.0781802460181959
74	0xbfa4f7d45e2e8aad	-0.04095328950576991
75	0xbfaea3daa0000000	-0.05984385684132576
76	0xbf8879142335f925	-0.011949689220952362
77	0xbf2a084000000000	-0.00019861012697219849
78	0xbfac9f33a7347fef	-0.055902113114143386
79	0xbfb1399b80000000	-0.06728526949882507
80	0xbfa6f12780000000	-0.044808611273765564
81	0xbf921cd400000000	-0.017688095569610596
82	0xbfb0785b80000000	-0.06433650851249695
83	0x3fb1a45ca0000000	0.06891421228647232
84	0x3fa3410740000000	0.03760550171136856
85	0xbfa4f5ef60000000	-0.040938835591077805
86	0xbf86afe800000000	-0.011077702045440674
87	0xbfc1e97e130bd89d	-0.13993812494272087
88	0xbfc21d5967779803	-0.14152066757304746
89	0xbfa6452080000000	-0.04349614679813385
90	0xbf83ac8200000000	-0.00960637629032135
91	0xbfadfd27a0000000	-0.05857204273343086
92	0xbfa7708700000000	-0.04578039050102234
93	0xbfb6181c20000000	-0.08630538731813431
94	0xbfb3ec5aa25639a0	-0.07782522643376533
95	0xbfac856be0000000	-0.05570542439818382
96	0xbfb2db40519d1af2	-0.07365800850412166
97	0x3fb5416920000000	0.08302933722734451
98	0xbfab40e3e0000000	-0.053229447454214096
99	0x3fac6d2540000000	0.05552021414041519
100	0xbfa20de1c0000000	-0.03526216000318527
101	0xbfbad95a9e0eb71c	-0.10487905844521744
102	0x3f9e832a80000000	0.029797233641147614
103	0xbfb6467820000000	-0.08701277524232864
104	0xbfa8e9ade0000000	-0.04865783080458641
105	0xbf9b553b5152aa96	-0.026692320669705248
106	0x3faa7c4bc0000000	0.05172955244779587
107	0xbf85bec600000000	-0.010617777705192566
108	0xbf8b4bf900000000	-0.013328500092029572
109	0xbfc2fbd44cec70e3	-0.1483102202991012
110	0xbfa6004a60000000	-0.042970966547727585
111	0xbfae40fbceab2622	-0.05908953569230514
112	0x3f98006335ac8f3d	0.023438978339199713
113	0x3faf1a48c0000000	0.060747407376766205
114	0x3f80ad9fcbf686b7	0.008143661891895844
115	0xbf9556d800000000	-0.02083909511566162
116	0x3fafac4440000000	0.06186116486787796
117	0xbfb5c98e60000000	-0.0851067528128624
118	0xbf91b36f00000000	-0.017286047339439392
119	0xbf9e808940000000	-0.029787201434373856
120	0x3f69d534e3be9d74	0.0031534226418050097
121	0x3fb622f4a0000000	0.08647087961435318
122	0xbfb5d55edc6dfbcf	-0.08528702622969252
123	0xbfb52bf0e0000000	-0.08270173519849777
124	0xbfbddd1d97e8908f	-0.11665520628645452
125	0xbfb4b62720e54fbf	-0.08090443184965944
126	0xbfb3b5eac0c93714	-0.07699458319367763
127	0xbfaf79e240000000	-0.061476774513721466
128	0x3f78e96d9ec2fca2	0.006081989482651514
129	0xbfb0ead2de4abfa5	-0.06608312537241419
130	0xbfb2c5bda0000000	-0.07332978397607803
131	0xbfa8586180000000	-0.0475492924451828
132	0xbfc286a57a4f0376	-0.14473408195592768
133	0xbfbca2e3dbf8e041	-0.11186050529875137
134	0x3f6f65fc00000000	0.003832809627056122
135	0xbfb1cee0a0000000	-0.06956294924020767
136	0xbfa4305760000000	-0.039431314915418625
137	0x3fa0d8fddc205966	0.03290551483239561
138	0x3fa62a9fc0000000	0.043293945491313934
139	0x3fa3b3ac40000000	0.03848017007112503
140	0xbf4e10b080e834ef	-0.0009175168832499507
141	0x3f9a4a6f1da4f005	0.025674568352073397
142	0xbfb44171efe9ca72	-0.07912361247307745
143	0x3f96cdaf2d81e8ce	0.022268998291544766
144	0x3f71592fa78d66a6	0.004235445166011742
145	0x3f9736eb0db26cf4	0.02267043372249318
146	0x3fc0d182d6727c11	0.13139377089552842
147	0xbfa10cfec0000000	-0.033302269876003265
148	0x3f9a875f80000000	0.025907032191753387
149	0xbfb2ee5ad9d70d27	-0.07394950693474255
150	0x3fba77ab76e4e703	0.10338851597489555
151	0x3f760cde00000000	0.0053833648562431335
152	0xbfab2c9ea907b2e2	-0.053074796804002636
153	0xbf87d6e800000000	-0.011640369892120361
154	0xbf7db17c00000000	-0.0072493404150009155
155	0x3fa9dac49b46ecef	0.050497192339628565
156	0xbfafb9e4610e44f2	-0.061965119216560796
157	0x3fafac6ba6a38ec5	0.061862339107191334
158	0xbf9b6f0d31c9a160	-0.02679081550960072
159	0x3f87649f86b053be	0.011422392175555515
160	0x3fb5af6320000000	0.08470744639635086
161	0xbf6710fdce191f09	-0.0028157193308152623
162	0x3fa4cd839d898e0e	0.04063044832289729
163	0x3fc169fd01816734	0.13604700635442557
164	0x3fa360b522b912e5	0.03784719513763494
165	0xbfaeae4ea0000000	-0.05992360785603523
166	0x3fb55f70a0000000	0.08348754793405533
167	0xbfb438c520000000	-0.07899124175310135
168	0xbfc22c340ef83407	-0.1419739792912937
169	0x3f9e81fd8e999c65	0.029792749241462597
170	0x3fa0f98677601cd6	0.03315372664661147
171	0x3fb4b95b60000000	0.08095332235097885
172	0xbfb1c6e080000000	-0.06944087147712708
173	0x3fb02bcfb0b20bef	0.06316850723128174
174	0x3faae45739043a12	0.05252335139276822
175	0x3fa87dc54c9b0d7a	0.04783455429199086
176	0x3fa19c4a3993494b	0.03439552262138309
177	0xbfba8b1316bce2de	-0.10368460946200339
178	0x3fa6b7dac0000000	0.04437144845724106
179	0x3f6bb92000000000	0.0033841729164123535
180	0x3faaffbed2cd86f6	0.05273243258740294
181	0x3f794d94607b2193	0.006177501294310511
182	0x3fa9f8b7ff55dc1f	0.05072569839369855
183	0x3fb01fb320000000	0.06298369914293289
184	0xbf729888c5d8d776	-0.004539999264627661
185	0x3fa8b6bd40000000	0.04826918989419937
186	0xbf9778e580000000	-0.022922120988368988
187	0x3f726f4c00000000	0.004500672221183777
188	0x3fa4fbf81aa2913d	0.04098487210402133
189	0x3f6924a800000000	0.0030692368745803833
190	0x3fc2711bef272ee2	0.14407681634326425
191	0xbfac19d340000000	-0.05488453060388565
192	0x3fb5d7b3e0000000	0.08532261103391647
193	0xbfafe35e7ebc3161	-0.06228156373080896
194	0x3f9df8dd1409d426	0.029269651744886847
195	0xbfa1a32c3aa0855a	-0.03444803443586393
196	0x3fa93f1835682e4a	0.04930949832859406
197	0xbf991583fc98670f	-0.024496137897677402
198	0xbf71072c00000000	-0.004157230257987976
199	0x3fbca9e922fdb3c6	0.1119676313807779
200	0x3fb16f9a20000000	0.06810916215181351
201	0x3f99cc25a5b809c0	0.02519282173126114
202	0x3f9175ca797e4c2c	0.01705089918648299
203	0x3fb5be866d443338	0.08493843238484267
204	0xbfa6e77b831c052b	-0.0447348210855217
205	0xbfa8c477c0000000	-0.048373930156230927
206	0x3f6c7998f346976d	0.0034759509382692928
207	0xbfa36b5120000000	-0.03792813792824745
208	0x3faad86f40000000	0.05243251472711563
209	0x3faeda7040000000	0.06026030331850052
210	0x3fb8949ca7a4b4f9	0.09601763813835253
211	0x3f9180a87104b107	0.017092353723612976
212	0x3fa187f500000000	0.034240394830703735
213	0x3fbfd3cb92e17e33	0.12432548843343554
214	0x3fb2a1484baf28ed	0.07277347419509157
215	0x3fb80f9cb3185106	0.0939882218593234
216	0x3f945d66e1b1b9ca	0.019887549901278757
217	0x3fa6ae9cc0000000	0.04430093616247177
218	0x3fb850c8a1502a83	0.09498266161259931
219	0x3fb9309dfbf50d76	0.09839808846759532
220	0x3f91da7e80000000	0.01743505150079727
221	0xbf5c02abdfc3b483	-0.0017096212823688734
222	0xbfb51366a22f1f4e	-0.08232728442737633
223	0x3f8068feb93d0de1	0.008012762096433814
224	0xbfb21ae13db8c5d2	-0.07072265393141855
225	0x3fb54fc4e0000000	0.08324842900037766
226	0x3f9b0320779371a6	0.026379115389191597
227	0xbf87340efa5f731e	-0.011329762473843593
228	0x3fbdedf10b8bcb62	0.11691195041548277
229	0x3f92485ace08910f	0.017854136300358422
230	0x3fa83a7ad947e171	0.04732116606095616
231	0x3fad2fdaad2d156f	0.05700572360960165
232	0xbf8bb2e4d252b9d8	-0.013524806660225971
233	0xbf9ed75ed3d361da	-0.030118447951140805
234	0x3f90c888a174a5ab	0.01638997540900326
235	0x3fc125bdd6c83215	0.13396428096201932
236	0x3f806e2e00000000	0.008022651076316833
237	0xbfb4ba0a74cb6c2e	-0.08096375800543917
238	0x3fb951cfb3003488	0.09890459175240285
239	0xbf9b889d73d5c1ba	-0.026888332552916096
240	0x3fae2ff2b875a255	0.05895956517889959
241	0xbf98438d80000000	-0.023695193231105804
242	0xbfbf83fa57a8b7b9	-0.12310757293809517
243	0x3fb56e54e0000000	0.08371477574110031
244	0xbfb2677312778624	-0.07189101410724469
245	0x3fbbe11de43c4bc5	0.10890375921398661
246	0x3fa2bc3bc0000000	0.036592356860637665
247	0x3fb5fbb55689931a	0.08587201464395058
248	0xbf961e722b6a5e99	-0.021600517177459897
249	0xbfaefdf240000000	-0.06053120642900467
250	0xbfb86d6abc85dcc5	-0.09541956999406682
251	0xbfb0027120000000	-0.06253726035356522
252	0x3f939f9000000000	0.01916337013244629
253	0xbfa47b136667f168	-0.04000149369309974
254	0xbfaa4c8ec463883a	-0.051365338776819106
255	0xbf8ad90300000000	-0.013109229505062103

fc3.bias f8 [64]
0	0xbfbd7b10f38bbcb0	-0.11515909143394043
1	0x3fa25d480a8fbbee	0.035867930688134084
2	0x3f6ea086423e6ec0	0.003738653396750141
3	0x3fb4acc66f1718cf	0.08076133930362349
4	0xbfc09e1f69bcfe63	-0.12982552206993878
5	0x3fa9a6aee4504aad	0.050099816675488774
6	0xbfa04bdc72f6d955	-0.03182877448436964
7	0xbfb97cab5c3676f2	-0.0995585537079611
8	0xbf99725e00000000	-0.02485033869743347
9	0x3fbbc9e2f24a125b	0.10854929366366532
10	0x3f9bf79d00000000	0.02731175720691681
11	0x3fc3123c29fc5f19	0.14899398851479687
12	0xbfb0323820000000	-0.06326628476381302
13	0x3fc185406097babb	0.13687901226463403
14	0xbfab3fc81705d91c	-0.05322099000015809
15	0xbfb06464ee3aa79f	-0.06403189483776693
16	0x3fbada5603449bf3	0.1048940427759673
17	0xbfae028e2cb61d05	-0.05861324592393128
18	0x3fc6ad1867326cf6	0.1771574500934105
19	0x3fb55a2b20000000	0.08340711146593094
20	0xbfaf9e4ba0000000	-0.06175457313656807
21	0xbfb99d9440240a80	-0.10006071630417956
22	0xbfc18db6e3398f82	-0.13713728041613754
23	0x3f9dc73d1b30983b	0.02908034780934819
24	0x3fcc3ee73c327222	0.2206696552210739
25	0x3fbb8a69096fc884	0.1075807235754685
26	0xbfc18dae45916e38	-0.13713625332717228
27	0xbfb46ef7a0000000	-0.0798182263970375
28	0x3fc01d38dc8df3b4	0.12589178818953217
29	0xbfc244dac7e9d64c	-0.14272627602956545
30	0xbfb367af68bc8b2d	-0.07580086047213959
31	0xbf916cb100000000	-0.01701618731021881
32	0xbfa92d9c20000000	-0.04917610064148903
33	0xbfa6c5da80000000	-0.04447825253009796
34	0xbf9cece7cb6e2fda	-0.02824747256413205
35	0xbfb5a3ff40000000	-0.08453364670276642
36	0xbfaeb099e3d84271	-0.059941109717446824
37	0xbfb3914740000000	-0.07643552124500275
38	0xbfa78dec00000000	-0.046004652976989746
39	0xbf8238c400000000	-0.008897334337234497
40	0xbfa8d54f11b16150	-0.04850241747834849
41	0xbfc006e27a05a7c3	-0.1252101035891525
42	0x3f9110c1b47e597c	0.016665484086467938
43	0xbfc19b6d4c388f9b	-0.13755575391507766
44	0xbf87d3b50de828b9	-0.011634268271354707
45	0xbfbb357227881fae	-0.10628426995401583
46	0xbfb55bf5c38f3aff	-0.08343444847490032
47	0xbf9e02e8423e6925	-0.029307965319824398
48	0xbfb11a25b9b3e430	-0.066805227124761
49	0xbfa74576283d6f8d	-0.045451824581248614
50	0x3fbb34333779e381	0.10626525978467606
51	0x3f798014698edb25	0.0062256619793774936
52	0x3faff5392a854022	0.062417780342571186
53	0x3fba6e9d22e66ebc	0.10325033285192381
54	0xbfafb958d9a2ad20	-0.061960960928752806
55	0xbfae376463143ed0	-0.059016358465780905
56	0x3fc096c7b373d51c	0.12960144293143905
57	0x3f849e73d32bd035	0.010067849046642244
58	0xbfa6f68f43ec3f84	-0.044849850694048704
59	0xbfb425bb7d781167	-0.07870075047691714
60	0x3fbcc369cf76fc70	0.11235677065904937
61	0x3fc05ad6987a9d17	0.12777216382276244
62	0xbfc151613edc784a	-0.1352960164012436
63	0x3fb835ac37f21113	0.09456898084505765

fc4.weight f8 [2, 64]
0	0xbf99860ee3d95cc2	-0.024925453812411964
1	0x3fb811bf19b8407f	0.09402078988955685
2	0x3fa151e06fecb5ca	0.033827794706990114
3	0x3fa65243761f4031	0.043596370858381646
4	0xbfaa486edb0aa23f	-0.05133387016150381
5	0x3f7e989f6c9ce128	0.007469771147775618
6	0x3fb370ad848584cd	0.0759380768336257
7	0xbf94760f3f513fe4	-0.01998161148031831
8	0x3fa52fda80000000	0.04138071835041046
9	0xbfc0297b515251ef	-0.12626592131404332
10	0x3f83c02a00000000	0.00964386761188507
11	0x3fb02dcb92f752f0	0.06319877946891572
12	0x3fb938be00000000	0.09852206707000732
13	0x3f72f6214dd4a266	0.004629259199000124
14	0x3fa859fe5e2fb9eb	0.04756159686791136
15	0xbfa35b3c5013bf05	-0.037805447363892276
16	0x3fa9351178e52b46	0.04923300362368947
17	0x3fa4d82fc00cc5ed	0.04071187228545257
18	0x3fb0034cbdf108e5	0.0625503505444019
19	0x3fad9c2880000000	0.0578320175409317
20	0x3fa8d1fc80000000	0.04847706854343414
21	0x3f818d96047ce393	0.008570835124929654
22	0x3fa899a1f4f517a9	0.048047124053979325
23	0x3f63976bc0502417	0.002391539050681245
24	0x3f906cad9483319b	0.01603957385013786
25	0x3f9d3874afacc71e	0.02853567430719927
26	0xbfa8b0d657e140e6	-0.0482241613650574
27	0xbfa4d1d580000000	-0.04066340625286102
28	0x3f9c55c429a4c8fa	0.027670922319154002
29	0xbf97f98b54edef73	-0.02341287332409032
30	0xbf8524478468f960	-0.010323103645643428
31	0xbfbcbf26c0000000	-0.11229173839092255
32	0xbf805d8400000000	-0.007990866899490356
33	0x3fb8456ec0000000	0.09480945765972137
34	0x3f945f6ca6ec6ac7	0.019895265281870047
35	0xbf8bb2d200000000	-0.013524666428565979
36	0x3fba9974eaa6b630	0.10390406349935044
37	0x3fbc6ae140000000	0.11100585758686066
38	0x3fbbf985c0000000	0.10927616059780121
39	0x3fa7525c80000000	0.04555024206638336
40	0xbfa300854a689ffd	-0.0371133473711893
41	0xbf90988b305f8b99	-0.016206908061473155
42	0xbf9b8c4dbbb2106e	-0.026902403431919124
43	0x3fa11c5a5e1229e0	0.03341944120718998
44	0x3f73f82d7b405cb0	0.0048753525370763134
45	0x3fa5162e628743ad	0.04118485405672998
46	0x3f7196b31ad1c946	0.004294108989699124
47	0x3f9c7f756896873f	0.027829966076416964
48	0x3faa081c257e310b	0.05084312398602905
49	0x3faf579be6bed15e	0.06121527854648677
50	0x3f7b8fb37b624d7a	0.00672884092468295
51	0xbfa4323fc769fd91	-0.039445870487720865
52	0x3fb4abc046273189	0.08074571335527571
53	0x3fb7cb375ab60710	0.0929445835554612
54	0xbf65f235d770a7dd	-0.0026789714425108206
55	0xbf87b980e179d49e	-0.0115842884835991
56	0xbfb263026c114bfa	-0.0718232644879179
57	0xbfb00a794d9748b0	-0.06265981811819432
58	0x3fac0202176c5b30	0.05470282112053437
59	0xbfaef8309bc020d3	-0.06048728848696929
60	0x3fa0b3bf5457beb4	0.03262136368345861
61	0x3fb3bf398a90a9a6	0.07713660843788847
62	0x3f88bbc96600ba2c	0.012076924729709303
63	0x3fb7e370fb64a723	0.09331422936943716
64	0x3fa7be484a5776e8	0.04637361438265747
65	0xbfa45b52131fdc92	-0.039759220919159635
66	0xbfd1d9eaf289ded9	-0.2789256447353928
67	0xbfb01708d925f564	-0.06285147954436848
68	0xbfc4f3138c0f9cca	-0.16366810168185558
69	0xbfd215410cad8b75	-0.28254724729611463
70	0xbfc864c7e44a5f4a	-0.1905755867671764
71	0xbf869fbd02b46dac	-0.011046864171070002
72	0x3fbb478d80000000	0.10656055808067322
73	0xbfd2f2db766c8542	-0.29607283177218247
74	0xbfb8257380000000	-0.09432145953178406
75	0xbfd402c77e0d80cb	-0.3126696330055096
76	0xbf9ac55a00000000	-0.02614346146583557
77	0xbfcb662cf3f751be	-0.21405565178305425
78	0xbfb1db049348860c	-0.06974819751533107
79	0xbfbb9850e32a1d45	-0.1077929071999409
80	0xbfc7de32ab574cc3	-0.18646844259510517
81	0xbfb634e84d77c8d2	-0.08674480334574078
82	0xbfd46247820d926e	-0.3184984941529255
83	0x3fb7a61200000000	0.09237778186798096
84	0xbfad056900000000	-0.05668190121650696
85	0x3fae4dc0280777d3	0.05918694008481364
86	0xbfb9856bbd62ccbd	-0.09969209073715297
87	0xbfc2995e675fe846	-0.14530544326390976
88	0xbfd4534925b74f52	-0.317583357650837
89	0xbfc20f33e0cc4615	-0.14108894802534225
90	0xbfa3122aaa2428dd	-0.037247975606150986
91	0xbfb8ce9fc0000000	-0.09690283238887787
92	0xbfccb1175ef3f4fb	-0.2241543973577008
93	0x3fa218b6f5b6e458	0.035344808096348046
94	0x3fbbf391fa2436b1	0.10918533665627696
95	0xbfb0425ac0000000	-0.06351248919963837
96	0x3fa49dfa00000000	0.040267765522003174
97	0xbf97871000000000	-0.022976160049438477
98	0xbfaa3cfd8593d728	-0.051246569209906945
99	0xbfa68e6700000000	-0.04405519366264343
100	0xbf94a7f1275090fd	-0.020171897911624537
101	0x3fbff86480000000	0.12488391995429993
102	0xbfbd0fd800000000	-0.11352300643920898
103	0x3fbb2ce3c0000000	0.1061537116765976
104	0xbfc40da7ba366e51	-0.1566667231789887
105	0xbfc0c7ff30eed135	-0.13110341920185822
106	0xbfc1faaa5e4ee56a	-0.1404622040261459
107	0x3f9b3caad8e50303	0.026598615158266458
108	0xbf7d84edf3f4dad4	-0.007206849578600145
109	0xbfbab1be2296eac4	-0.10427463860006997
110	0x3fad6d14e3074fba	0.05747285147995691
111	0xbf861531cb371219	-0.010782612814076708
112	0xbfaa9299d7a359d7	-0.051899726460465416
113	0xbfc17a126faff29b	-0.13653784230691177
114	0xbfd0805a11977ea7	-0.25783397405573755
115	0x3f96bb38d7fa9366	0.022198570425320162
116	0xbfcd64d4f4d7b94e	-0.22963964419563826
117	0xbfd170c543443314	-0.27250796860680393
118	0x3f824369b152fa75	0.008917642330172651
119	0xbfb72e9202115238	-0.090554357056427
120	0xbfe2f193b67edf12	-0.5919893802992837
121	0x3faa41a2e5a0bfe6	0.05128201535296721
122	0x3f85c474e09c4aa5	0.010628617386406811
123	0xbfb83c27a7035c82	-0.09466789081067087
124	0xbfd2f19551bd334e	-0.29599507314997175
125	0xbfcabdcc81017687	-0.2089172010336606
126	0xbfb01bff1de8ab15	-0.06292719345280447
127	0xbfd1ae96d938bae9	-0.2762810822777469

fc4.bias f8 [2]
0	0x3fb423274faa78a5	0.0786614007469973
1	0xbfb7f04eec5e133b	-0.0935105635708852
