src/backend/controller/checkpoints/checkpoint_epoch_69.pth (torch, 420207 bytes, 25 tensors)

fc1.weight f8 [64, 5]
0	0x3fc5fc57d1ef29db	0.17176339865393583
1	0xbfddb2178817e5b4	-0.4639948681866273
2	0x3fcfe9b568da91d4	0.24931972141088343
3	0xbfc7da439096cc52	-0.18634838638317547
4	0x3fbb5137ff4c0f7c	0.10670804961051589
5	0xbfc4288740000000	-0.15748682618141174
6	0xbfd24cb4a0000000	-0.2859317362308502
7	0xbfdac41960000000	-0.4182189404964447
8	0xbfce277ec0000000	-0.23558029532432556
9	0x3fba497600000000	0.102683424949646
10	0xbfccd01eb1dddacd	-0.2251013153542857
11	0x3fb396b7230b051b	0.076518484168464
12	0xbfd93313136e77c3	-0.39374234101876143
13	0x3fdada239b47069d	0.4195641533261581
14	0x3fb164cca7bcd51b	0.06794432730824378
15	0x3fd2b3e300000000	0.29222941398620605
16	0xbfc07d2140000000	-0.12881866097450256
17	0xbfd1032180000000	-0.2658160924911499
18	0xbfd7520880000000	-0.36438190937042236
19	0xbfb5e70380000000	-0.08555623888969421
20	0xbfc4ff4bc0000000	-0.16404101252555847
21	0xbf8a2da400000000	-0.012782365083694458
22	0x3fd9654240000000	0.3968053460121155
23	0x3f93ab9800000000	0.01920926570892334
24	0xbfda0d1c40000000	-0.4070501923561096
25	0xbfc2a5a68abd4172	-0.1456802537382021
26	0x3fd6ba6f9baa8313	0.3551291485000984
27	0x3fd85e432ce5a061	0.38075332054586936
28	0x3fb9a4609b9ec8a1	0.10016444968531114
29	0xbfd685d858a3be52	-0.35191925674641766
30	0xbfcc848776a0949a	-0.22279446880671544
31	0xbfd240d2dd925487	-0.28520652425624643
32	0x3fd18f64bb6089ea	0.27437704371018745
33	0x3fcfaf67a873d960	0.24754043317052332
34	0x3fd968a88c2b12d1	0.39701284111315
35	0x3fd7ec50c0000000	0.37379854917526245
36	0xbfda694480000000	-0.41267502307891846
37	0xbfb6651080000000	-0.0874796211719513
38	0xbfd48f5840000000	-0.3212490677833557
39	0x3fb6020000000000	0.085968017578125
40	0x3fc8426c7f75f9f1	0.18952709411310267
41	0xbfd00f73ffb01da6	-0.2509431836083088
42	0xbf7a52f03bf58659	-0.006426752486136411
43	0x3fbe00d6432a0044	0.11720027103183478
44	0x3fd0149c1691e7f7	0.25125791744323983
45	0x3fd4b98131c637f9	0.3238223062588755
46	0x3f9e610c0aebd0c1	0.029667080084394785
47	0x3fb4d7a958e880ee	0.081415733533962
48	0xbfd8905912b1764d	-0.3838102991629498
49	0x3fc0bd88b378d4d4	0.1307841183021653
50	0xbfd3c1288d0c4535	-0.3086644532605363
51	0xbf9b22f711204c84	-0.026500568790720283
52	0x3fd95a1f1c83f159	0.3961255815954892
53	0x3f8c04bedafc48a7	0.013680926378161052
54	0x3fc2890cc920f28a	0.14480743237244936
55	0x3fd1d97691f8a166	0.27889789824486966
56	0x3fc91f0c832fddce	0.19626003652204677
57	0x3f886e9d74ac2f5b	0.011929731486382591
58	0x3fd481d3f0bf02b4	0.3204240656887507
59	0x3f8547814b7d30d3	0.010390291324846512
60	0xbfc448db80000000	-0.1584734320640564
61	0x3fba708500000000	0.10327941179275513
62	0xbfd6b83380000000	-0.35499274730682373
63	0x3fd3168c80000000	0.29825127124786377
64	0xbfc9870540000000	-0.19943299889564514
65	0xbfd42dc3b9233e84	-0.31529324607706877
66	0x3fcdddbb4c20abc2	0.2333292123524569
67	0x3fdc243c53bbaffa	0.4397116487223226
68	0xbf6b1bc63e4aaaac	-0.003309142297742559
69	0x3fd2bc20a4553fd9	0.292732391816569
70	0xbfd667ae86e8f33c	-0.3500782315712063
71	0x3fd02d3b0b00c7ea	0.25276065897480626
72	0xbfbcc4d74f2f21c7	-0.11237855609136381
73	0x3fa0521744648c77	0.03187630376694355
74	0xbfb0e4116e5eff46	-0.0659800428829814
75	0xbfd204caa0000000	-0.28154245018959045
76	0xbfd90499c0000000	-0.39090579748153687
77	0xbfd1fa7e40000000	-0.2809138894081116
78	0x3fd95630c0000000	0.3958856463432312
79	0x3fc04c8800000000	0.1273355484008789
80	0x3fc99fad6c43e9f3	0.2001854685439209
81	0xbf9d631d0d0f2bb6	-0.028698400423120517
82	0x3fcd2cd68ee00339	0.2279308507568432
83	0xbf93e3c1b438a79d	-0.01942351019366805
84	0x3fc1a37740f2ba8c	0.13780108138367486
85	0xbfa397ee7432855b	-0.03826852005409861
86	0x3fd84a67d4dbeb54	0.37954135691659485
87	0x3fc423cf06018f59	0.15734279435411727
88	0x3fc18b21c4140b7b	0.13705846857200385
89	0x3fd031c34b18d8cf	0.2530372842187604
90	0x3fcd812080000000	0.2305031418800354
91	0xbfc6dee0c0000000	-0.17867669463157654
92	0xbfdb4c6980000000	-0.4265388250350952
93	0x3fa7d42d00000000	0.046540647745132446
94	0xbfd2233d80000000	-0.28340089321136475
95	0x3fb72d0d5cf80c7c	0.09053119201421284
96	0x3fad7bbfe3239c27	0.057584759213391394
97	0x3fbd95a1efcec083	0.11556446175268502
98	0x3fd103a998226791	0.26584853989481255
99	0xbfc9681f89519087	-0.1984900875569375
100	0x3fe02f939ba2accf	0.5058076896433706
101	0xbfd8c3864e8a943e	-0.38693387670565815
102	0xbfd242a1555c7441	-0.2853167852025003
103	0x3fcf637c927f427c	0.2452235904043113
104	0xbf92164cb1a8ff57	-0.01766319116927603
105	0x3fc9b45f80000000	0.2008170485496521
106	0xbfcdd7d000000000	-0.23314857482910156
107	0xbfaae2ed00000000	-0.052512556314468384
108	0xbfc343f100000000	-0.15051090717315674
109	0xbfd027f300000000	-0.2524383068084717
110	0x3fdb511f40000000	0.4268262982368469
111	0xbfc98f40e0000000	-0.1996842473745346
112	0xbfd3d18280000000	-0.30966246128082275
113	0xbfda45af40000000	-0.41050320863723755
114	0xbfda46c9a0000000	-0.41057053208351135
115	0x3fca2ca13a5b0406	0.20448699330702896
116	0x3fd537a73f4eda8d	0.3315218084566503
117	0xbfa7d10d3c4fbea4	-0.046516812908405286
118	0xbfdd9bc23ba7a23d	-0.4626317579809756
119	0x3fc73114ff3a8aa9	0.1811853643640309
120	0xbfbded0f00000000	-0.11689847707748413
121	0xbfd8b6bce0000000	-0.3861534297466278
122	0x3fd8779a80000000	0.3823000192642212
123	0x3fc1621480000000	0.1358056664466858
124	0xbfcf462520000000	-0.24432815611362457
125	0xbfd0ada96bee5ccf	-0.2605994752897915
126	0x3fb85c26bd9fb59f	0.09515611772049802
127	0xbfd465e7a6dcd312	-0.3187197808759247
128	0x3fce11a00558864c	0.23491287480378487
129	0xbfd37a4b447550bd	-0.30433923421265857
130	0x3fd6de8e00000000	0.3573336601257324
131	0xbfbd75e580000000	-0.11508020758628845
132	0x3fb55c7700000000	0.08344215154647827
133	0xbfdbb0c0c0000000	-0.4326631426811218
134	0xbfb32a1280000000	-0.07486072182655334
135	0xbfb02ea600000000	-0.06321179866790771
136	0xbfc009dd40000000	-0.1253010332584381
137	0xbfaf07b000000000	-0.060605525970458984
138	0xbfb2adbd80000000	-0.07296356558799744
139	0x3fd42570c0000000	0.3147851824760437
140	0x3fab23e27b13f3ae	0.053008153461611016
141	0xbfcac3aae5a422b4	-0.20909630024859427
142	0x3fcfb45d3707b806	0.24769177615183952
143	0x3fc32a5f80b4ba35	0.14973062309714327
144	0xbfd308ab7492adfd	-0.29740415939406245
145	0xbfc1f1d900000000	-0.14019310474395752
146	0xbfbf608880000000	-0.12256672978401184
147	0x3fd6096880000000	0.3443242311477661
148	0xbf8bff2800000000	-0.013670265674591064
149	0x3fc1659000000000	0.1359119415283203
150	0xbfc3e10e80000000	-0.1553056836128235
151	0x3fcb704080000000	0.21436315774917603
152	0xbfb8635e00000000	-0.09526622295379639
153	0x3fc8a01500000000	0.19238531589508057
154	0x3fa1f78d00000000	0.035091787576675415
155	0x3fc8d98180000000	0.19413775205612183
156	0x3f9103a400000000	0.016615450382232666
157	0xbfd4bdf880000000	-0.32409489154815674
158	0xbfd96889c0000000	-0.39700549840927124
159	0xbfd1d09740000000	-0.2783563733100891
160	0x3fae4267fc5f1dfb	0.05910038905818379
161	0x3fc51f59336a54d1	0.1650191784907862
162	0xbfcd56f2aed7d9db	-0.22921594178451596
163	0x3fcc711552e91bcd	0.2222010283314532
164	0x3fd4b544beac02b1	0.3235637533216887
165	0x3fc27a56a5469542	0.14435847349265357
166	0xbfd4037e5002862d	-0.3127132207247055
167	0x3faa04893861ff07	0.05081585706011365
168	0x3fcc040b3f8f52e6	0.21887341121205067
169	0x3fd884e52a1fd222	0.3831112777109259
170	0xbfd191cb00000000	-0.2745234966278076
171	0x3fadf6f400000000	0.0585247278213501
172	0xbfc0a04500000000	-0.129891037940979
173	0x3fcb790000000000	0.214630126953125
174	0x3fac667c00000000	0.055469393730163574
175	0xbfd8793520000000	-0.38239791989326477
176	0xbfb4eae080000000	-0.08170893788337708
177	0x3f9fbf0800000000	0.031002163887023926
178	0xbfd7095e00000000	-0.35994672775268555
179	0xbfd9241620000000	-0.3928275406360626
180	0x3fda1561f587c9d0	0.4075550935514487
181	0xbfc2476479489fce	-0.14280372545294856
182	0xbfd7f94565d058d4	-0.37458929960974996
183	0x3fa665bcd85d661e	0.04374494687244755
184	0x3fcc27df40c196a5	0.21996679937290256
185	0x3fd59892a63bc589	0.3374373076795441
186	0x3fb61243fce73bb3	0.08621621059795252
187	0x3fce935732e8fe19	0.2388714788994413
188	0x3fd1362cc4ec691f	0.26893157225426195
189	0x3fd8a95fb9cb761d	0.38533776420612914
190	0x3fd08d74636f440b	0.25863370619214326
191	0xbfc141ba4eb6468a	-0.13481835215911914
192	0xbfd163b709627546	-0.27171111980881724
193	0xbfc9981781aac628	-0.19995397406960191
194	0xbfbc81bb36f86754	-0.11135454265641204
195	0xbfd2ff57ad7594c1	-0.2968348688066947
196	0xbfd14ad777a7e501	-0.27019297299519
197	0x3fe0afcccbad2d6e	0.5214599588447706
198	0xbfc1d5ac8dae15c4	-0.13933331411332806
199	0x3fd4f139a8588782	0.32722321929951914
200	0x3fdd17d2def17f51	0.45457908412753506
201	0xbfbabec574213fdd	-0.10447343907549063
202	0xbfd85e8a56165320	-0.38077028662637424
203	0x3fdaa085237291ee	0.416047367684114
204	0xbfb04804b509da8a	-0.06359891338238746
205	0x3fb0fe1700000000	0.06637710332870483
206	0x3fc4448500000000	0.15834105014801025
207	0xbfc4852280000000	-0.1603129506111145
208	0xbfbd61bf80000000	-0.11477276682853699
209	0xbfd7ff0c60000000	-0.3749419152736664
210	0x3f98d4dc00000000	0.024249494075775146
211	0xbfc0415d40000000	-0.1269947588443756
212	0xbfcd6e9dc0000000	-0.22993823885917664
213	0x3fc5a90800000000	0.1692209243774414
214	0xbfb4ba4600000000	-0.08096730709075928
215	0x3fc0304a9c086c86	0.1264737378959106
216	0xbfa612cc98175a63	-0.043112176481078256
217	0xbfdc2bc8f26fb774	-0.44017242122105604
218	0x3fca6275eaec394f	0.20612977953755737
219	0xbfc358d82147170a	-0.1511488115776774
220	0xbfba6524989d63f3	-0.10310581899592801
221	0x3fdd621fdd17e2c5	0.45911404219763724
222	0x3fdaeb9645552e51	0.4206290890767593
223	0x3fd368346cc858a6	0.30323515532780687
224	0xbfd5382b558a24d3	-0.3315533004138846
225	0xbfdf8eab1520659f	-0.4930827814401599
226	0xbf64017a0153761d	-0.002442110339514482
227	0xbfd32eded8f431ad	-0.29973574816610943
228	0x3fd8d661b2e641a8	0.3880848166527593
229	0x3fd2f7b6b2b90f87	0.2963692422238115
230	0x3fcb6eb937362956	0.21431651302220683
231	0xbfcf88457923fd3d	-0.24634617247645876
232	0x3f583856254632c3	0.001478275419773898
233	0x3fd1e182a0f1309f	0.279389054460589
234	0x3fc42d6d2dcdde7e	0.1576363061574177
235	0x3fb9ccb47e9167d4	0.10077980127371627
236	0x3fd5be188575034d	0.3397275260249913
237	0x3fba1dcbd5fe5dca	0.10201715444997386
238	0x3fd857455bf056a6	0.38032659510040856
239	0xbfb2003113900540	-0.07031542518236211
240	0x3f9ac0085fa1c772	0.026123171650801642
241	0x3fd1b9fa746b0bf9	0.2769762169738779
242	0x3fd8ae9be23645be	0.38565728274360456
243	0x3fc78efd8f12cf90	0.18405122266778706
244	0x3f432d1e031f08fc	0.0005852123779208902
245	0x3fb2078500000000	0.07042723894119263
246	0xbfb9034f00000000	-0.09770673513412476
247	0xbf9bdd8c00000000	-0.027212321758270264
248	0x3fcd0ced80000000	0.2269570231437683
249	0xbf89036800000000	-0.012213528156280518
250	0x3fcd546b84345695	0.2291387935189745
251	0xbfd25783926a0a4f	-0.28659142778648045
252	0xbfd1e3f5fc46fd39	-0.2795386279721757
253	0x3fb7c06917f33041	0.09277970156398486
254	0xbfcb05545adc0648	-0.21110014378068542
255	0x3fc1ed29f382ed21	0.14005016699034292

fc1.bias f8 [64]
0	0xbfd07aebb76bbe3a	-0.25750248825258704
1	0x3fc4dbbe80000000	0.16295605897903442
2	0x3fd1723b5558b0b1	0.2725971539937389
3	0x3fb083fe00000000	0.06451404094696045
4	0xbfd8a4e500000000	-0.38506436347961426
5	0xbfc4a7a259c90b3f	-0.16136578926133358
6	0xbfcb22bf32b30e20	-0.21199789023931803
7	0xbfd18a4b60000000	-0.2740658223628998
8	0xbfda612de50f5b7c	-0.4121813523210489
9	0xbfa445a6de48c53c	-0.03959390128546622
10	0x3fc4bcc62470e0d1	0.16201092509596163
11	0xbfb5d111e7db4952	-0.08522140417634219
12	0xbfca1b0d40000000	-0.20395055413246155
13	0xbfd003b5957c8ed2	-0.25022639845176997
14	0xbfb71f9bf58f398b	-0.09032606835464756
15	0x3fcb36a380000000	0.21260493993759155
16	0xbfc5f85f7aa5ece5	-0.17164224137000086
17	0xbfa6b41e702cd039	-0.04434294814419144
18	0xbfcc602f40000000	-0.22168532013893127
19	0xbfce9ebd04479fc0	-0.2392193098924036
20	0x3fad7e8794c30748	0.05760596934261614
21	0x3fac574a00000000	0.05535346269607544
22	0x3fa63d9800000000	0.04343867301940918
23	0xbfb47f3dbe2b71ab	-0.0800665463716032
24	0xbfd06eaee0000000	-0.2567555606365204
25	0x3fcede6fdfaa0933	0.24116323872665077
26	0xbfd7cf8cc0000000	-0.37204283475875854
27	0xbfcff34560000000	-0.24961154162883759
28	0xbfd0452afd792324	-0.25422167542687846
29	0xbfd5b36b80000000	-0.3390759229660034
30	0xbfd4fb0ea0000000	-0.32782331109046936
31	0xbfc40220c0000000	-0.1563149392604828
32	0xbfc29eb38fdc5485	-0.1454681827969219
33	0xbfdcc7a46f00949b	-0.44968520011964025
34	0xbfc13cbd80000000	-0.13466614484786987
35	0xbf73036000000000	-0.004641890525817871
36	0xbfaafd055b9bd86a	-0.05271164649268274
37	0x3fd093ca7327b4fe	0.2590204357682778
38	0xbfbc94ad6b0a42b4	-0.11164363730700694
39	0x3fbec5714450304e	0.12020023267558708
40	0xbfa592e103b76188	-0.04213622255673771
41	0xbfca783ce0000000	-0.2067943662405014
42	0x3fa0047f00000000	0.03128430247306824
43	0x3fd3bc9ffd71271e	0.308387753965336
44	0x3fd26f8ba9b4ef30	0.28805820057799547
45	0x3face77fd120cc1b	0.05645369937737873
46	0xbfdf1fb5cb60e29a	-0.4863104330175162
47	0xbf9331587d0e948a	-0.01874292624747346
48	0xbfbfaa3f39a87959	-0.12369151265781876
49	0xbfdc691be0000000	-0.44391533732414246
50	0x3fe07112830b5ddb	0.5138027724705653
51	0x3fdae05c7ddf1718	0.4199439267361966
52	0x3fb2f4aee4dbe308	0.07404606902481359
53	0xbfd0b5b420000000	-0.26109030842781067
54	0xbfd49eebe0000000	-0.3221997916698456
55	0x3fab82d600000000	0.05373257398605347
56	0xbfd15e441d2cc2df	-0.2713785443220739
57	0x3fb18e51c55cb6c4	0.06857787197506143
58	0xbfd27f1a80000000	-0.2890077829360962
59	0xbfd9f707df8eac4f	-0.4057025607277795
60	0xbfd0c8c900000000	-0.2622549533843994
61	0xbfca76758805ae8f	-0.20674008504589778
62	0xbfd0407a645821b2	-0.2539354305195288
63	0x3fd8e1beed5ddeba	0.38877843075122664

fc2.weight f8 [128, 64]
0	0x3fc579ee1a2e85d4	0.16778351095585597
1	0x3fa8d37b80000000	0.04848848283290863
2	0xbfceca3f09c4df79	-0.24054706551555308
3	0x3fb540ed80000000	0.08302196860313416
4	0xbfb3f9a7c0000000	-0.07802818715572357
5	0x3f7ddaea622d42e2	0.0072888522725669
6	0xbfb8bfba86d645f3	-0.09667554656905235
7	0x3fb5832ec0000000	0.08403293788433075
8	0xbf85064bceb7c9c1	-0.010265915151625006
9	0xbfb83ddb516cb4ba	-0.09469385850816794
10	0x3fccffc7481efc3d	0.22655573865447023
11	0xbf5e0dcaa1a57c8e	-0.0018343428442546858
12	0x3fa762e000000000	0.045676231384277344
13	0x3fc4cfdf0485adb8	0.1625937244492499
14	0x3faec288c02ada2a	0.06007792802613594
15	0xbfbd6edd80000000	-0.11497291922569275
16	0x3fb30c44e887b8dc	0.07440596272474259
17	0xbfa6d1e602c428c5	-0.044570148313213966
18	0xbfb9da7e80000000	-0.10099020600318909
19	0x3fb3266b3da8a449	0.074804976037414
20	0xbfd7a1bf153473b6	-0.3692472178534517
21	0x3fbfe46200000000	0.12457859516143799
22	0xbfb16f1700000000	-0.06810134649276733
23	0xbfb269d57432c7e8	-0.07192739569543927
24	0x3fab41db80000000	0.05323682725429535
25	0xbfb08e8715ea152e	-0.0646747997762602
26	0xbfbe08a700000000	-0.11731952428817749
27	0x3fbc932d80000000	0.11162075400352478
28	0xbfa495882078934a	-0.040203336681122595
29	0x3fbeee6740000000	0.12082524597644806
30	0xbf9a2eab00000000	-0.025568649172782898
31	0x3fa09e0880000000	0.032455697655677795
32	0x3fb6b1cbc0b25f38	0.08865045027266383
33	0x3fb314e6f18b0e59	0.0745376910882042
34	0x3fafd07f00000000	0.06213757395744324
35	0x3fb45ad740000000	0.0795111209154129
36	0xbfa8e3d11ef89683	-0.04861310484947714
37	0x3fc20c1156d43d57	0.14099327792835467
38	0xbfb1de9d1dc0bd5d	-0.06980306602848914
39	0x3fb838a705cee444	0.09461444751549758
40	0xbfc7a6dad343143b	-0.18477950397041973
41	0xbfb8bca940000000	-0.09662874042987823
42	0xbfac6f6780000000	-0.055537447333335876
43	0xbfc0ea30cd32fd40	-0.13214693088046126
44	0x3fc1ff2cc23d0171	0.14059981807987357
45	0x3fc8ac63072a8b86	0.19276082849418347
46	0x3fbac6ea72db15ad	0.10459771446320217
47	0x3fc32c43176e39c0	0.14978827137060868
48	0xbfa2031b434e7609	-0.035179950681804746
49	0xbfbe851040000000	-0.1192178875207901
50	0xbfc54f10955c94bd	-0.1664753655724435
51	0x3fb7aa7a3c06c9bd	0.0924450298832999
52	0x3fc19595339226d5	0.1373774053393421
53	0xbfa35c3900000000	-0.0378129780292511
54	0x3fa6a6c280000000	0.04424102604389191
55	0xbfb2f88300000000	-0.07410448789596558
56	0xbfa3171805de0f02	-0.037285567013013235
57	0x3fd2e40e1f3e5dff	0.2951693825829977
58	0xbfaf5fbb00000000	-0.06127724051475525
59	0x3fcb9d21d1b58660	0.2157327913255811
60	0x3f959b3100000000	0.021099820733070374
61	0xbfa2ab38e8e5eedb	-0.03646257250781356
62	0x3fbffd5bd6b07690	0.12495969764173709
63	0xbfbdea086d190aae	-0.11685230887909867
64	0x3fc2d2e1e04c4f32	0.1470606179433332
65	0x3fa8580e00000000	0.04754680395126343
66	0xbfb240edf0978a28	-0.07130324481799077
67	0xbfbd74b280000000	-0.11506190896034241
68	0x3fb93d1500000000	0.09858828783035278
69	0x3fc552f9e5c50961	0.1665947315141905
70	0x3fb31f9621191dce	0.0747007208639083
71	0xbfa0285e00000000	-0.03155797719955444
72	0xbfbf89328e2898e3	-0.12318721743267562
73	0x3fc2fa447a176369	0.1482625576161596
74	0x3fc08705c31b1f6c	0.12912055994660976
75	0x3fc2f0d49c887fa4	0.14797456401083509
76	0xbfb1ff7000000000	-0.07030391693115234
77	0x3fbab579fb1b439b	0.10433161144761842
78	0xbf63f9402818c22d	-0.0024381878909241123
79	0xbfad186900000000	-0.05682685971260071
80	0x3fbf7d0161ee153b	0.12300118103856487
81	0x3fc06c7054178956	0.1283092890362904
82	0x3f91da6200000000	0.017434626817703247
83	0x3fc2fe8f759282f2	0.14839356652102925
84	0xbfd6fb22be9ce015	-0.3590781079724377
85	0x3fbf7b6200000000	0.12297642230987549
86	0xbfbea010c0000000	-0.11962990462779999
87	0x3fad5ccc206c5d57	0.05734861274521091
88	0x3fa8fdea80000000	0.048812225461006165
89	0x3f79b8ea4e782936	0.006279864559028339
90	0xbfb331e240000000	-0.07497991621494293
91	0x3f8952cc00000000	0.012364953756332397
92	0xbfc004c991ffa23b	-0.12514609936558138
93	0xbfba802540000000	-0.10351784527301788
94	0x3fbb5a2000000000	0.10684394836425781
95	0x3fb5a48ac0000000	0.08454196155071259
96	0x3fb09c21206ee7fb	0.06488234559847676
97	0x3f81bf994e2cf369	0.00866622705290761
98	0xbfb0e51480000000	-0.0659954845905304
99	0x3fb1cbd7c0000000	0.06951664388179779
100	0xbfc89ada5fdf55c7	-0.1922257393004385
101	0xbf79bd5b8e1c2972	-0.006284101140190722
102	0xbfab7717c98b2a8e	-0.05364298186539883
103	0x3fb0501989951d46	0.06372222527453628
104	0xbfca2edebab13d44	-0.20455535999142616
105	0xbf98a68200000000	-0.02407267689704895
106	0x3fab0b7e00000000	0.0528220534324646
107	0xbfbaf8023e1063a4	-0.10534681334719537
108	0x3fc2a44d2bb85aab	0.14563908228656905
109	0x3fc169cd2e97eb92	0.13604130530424335
110	0xbfb286167fcb1766	-0.07235851879076236
111	0x3f942443a8ff1783	0.01966958731625069
112	0x3fba79183bae2fab	0.10341025788346651
113	0xbf95a92b00000000	-0.02115313708782196
114	0xbfd370e294daa7d8	-0.3037649587300826
115	0xbf87e6df48f05390	-0.011670822537817732
116	0x3fb965d3235d4616	0.09920997250926464
117	0xbf517af000000000	-0.0010669082403182983
118	0x3fa4d55700000000	0.04069015383720398
119	0xbfa3228880000000	-0.03737284243106842
120	0x3fb2b759ac164721	0.0731102032789548
121	0x3fd9f0960cac7434	0.40530921209011983
122	0x3f99621900000000	0.024788275361061096
123	0x3fa47c07567324a9	0.04000876360221046
124	0x3fb362ef40000000	0.07572837173938751
125	0xbfa225cbfe97f975	-0.03544461710770267
126	0xbf97fa76452561d5	-0.023416374178255445
127	0xbfc56cc75043b049	-0.16738215846214846
128	0x3faa422180000000	0.05128578841686249
129	0x3fbd5c6bc0000000	0.11469148099422455
130	0x3faccf1900000000	0.05626752972602844
131	0xbf957f9100000000	-0.020994439721107483
132	0xbfa7421f00000000	-0.04542633891105652
133	0x3f990aeb00000000	0.024455711245536804
134	0x3f98444800000000	0.023697972297668457
135	0xbf9f04c200000000	-0.030291587114334106
136	0x3fbdb363c0000000	0.11601851880550385
137	0x3fbda7a980000000	0.11583957076072693
138	0x3f8d86bc00000000	0.014417141675949097
139	0xbfa2c37980000000	-0.036647602915763855
140	0x3fbf4a42c0000000	0.12222687900066376
141	0x3fb7b0cb00000000	0.0925413966178894
142	0x3f8555da00000000	0.010417655110359192
143	0x3fbdbc1740000000	0.11615128815174103
144	0xbfb7e5e940000000	-0.09335191547870636
145	0x3f67e92800000000	0.0029187947511672974
146	0x3fae3b8a80000000	0.059048011898994446
147	0x3f8274f800000000	0.009012162685394287
148	0xbfbb640840000000	-0.1069951206445694
149	0x3faa555d80000000	0.0514325350522995
150	0x3f85d2bc00000000	0.010655850172042847
151	0x3fa4ea7100000000	0.04085114598274231
152	0xbfabe73200000000	-0.054498255252838135
153	0xbfa4c6ed00000000	-0.040580183267593384
154	0xbfb3c8cd40000000	-0.07728274166584015
155	0xbfa1ce2b80000000	-0.034776076674461365
156	0x3f7ba5f800000000	0.00675007700920105
157	0x3fa6613d00000000	0.0437106192111969
158	0xbf9b64d400000000	-0.026751816272735596
159	0xbf792b2400000000	-0.006144657731056213
160	0x3f81be0800000000	0.00866323709487915
161	0xbf9502f900000000	-0.020519152283668518
162	0x3fb4800600000000	0.08007848262786865
163	0xbf8f40ae00000000	-0.015260085463523865
164	0x3fb4a106c0000000	0.08058206737041473
165	0xbfaf20c880000000	-0.06079699099063873
166	0x3fb8585580000000	0.0950978696346283
167	0x3fa926a300000000	0.049122899770736694
168	0x3f9798ee00000000	0.023044317960739136
169	0x3f8bff3600000000	0.013670369982719421
170	0x3f94cc5900000000	0.020310774445533752
171	0x3fbc160380000000	0.10971090197563171
172	0x3fbb755100000000	0.1072588562965393
173	0x3fbd85b480000000	0.11532142758369446
174	0xbfaaae8100000000	-0.05211260914802551
175	0x3fba411c80000000	0.1025560200214386
176	0xbfb9a50b80000000	-0.10017463564872742
177	0xbfbe7b8480000000	-0.11907222867012024
178	0x3fba74a7c0000000	0.10334251821041107
179	0xbfb5fcbf80000000	-0.08588787913322449
180	0xbfa6d1cc80000000	-0.044569388031959534
181	0xbfbc571400000000	-0.11070370674133301
182	0x3fb6f6a680000000	0.0897010862827301
183	0xbf9e245700000000	-0.029435500502586365
184	0xbfa3e07580000000	-0.038821861147880554
185	0x3f8141b400000000	0.008426100015640259
186	0xbfb89c81c0000000	-0.0961381047964096
187	0x3fb2d22ec0000000	0.07351963222026825
188	0x3fb3c338c0000000	0.0771975964307785
189	0xbfb20ac3c0000000	-0.07047675549983978
190	0x3f92dde100000000	0.01842452585697174
191	0xbfaf727a00000000	-0.0614202618598938
192	0xbfbaeeee80000000	-0.10520830750465393
193	0x3f9014a600000000	0.01570376753807068
194	0xbfb4136400000000	-0.07842087745666504
195	0x3f9ba8f800000000	0.027011752128601074
196	0xbfa12c6f80000000	-0.03354214131832123
197	0xbfaeeca600000000	-0.06039923429489136
198	0x3fb1aa3200000000	0.06900322437286377
199	0xbfb65e8300000000	-0.08737963438034058
200	0xbf93a39d00000000	-0.01917882263660431
201	0xbfba8706c0000000	-0.10362283885478973
202	0x3f919cbe00000000	0.01719948649406433
203	0x3fbbd5a300000000	0.10872858762741089
204	0x3f79fdb800000000	0.006345480680465698
205	0xbfbb8dec00000000	-0.10763430595397949
206	0xbfb44831c0000000	-0.07922659814357758
207	0xbfb2776580000000	-0.0721343457698822
208	0x3fb23cd140000000	0.07124049961566925
209	0x3fb3b74080000000	0.07701495289802551
210	0xbfae427800000000	-0.05910086631774902
211	0x3fa28d5700000000	0.03623458743095398
212	0x3f619f5800000000	0.002151176333427429
213	0x3f73bb3400000000	0.004817202687263489
214	0xbfb3cd0480000000	-0.07734706997871399
215	0x3fbc710040000000	0.1110992580652237
216	0x3f97631400000000	0.022838890552520752
217	0x3fb3de43c0000000	0.07761023938655853
218	0xbfa6932300000000	-0.04409131407737732
219	0x3fa7c4fd80000000	0.04642479121685028
220	0xbfb4dab480000000	-0.08146217465400696
221	0x3fb8681b80000000	0.09533855319023132
222	0x3fb275f340000000	0.07211227715015411
223	0xbf82cb1e00000000	-0.009176477789878845
224	0xbfb32057c0000000	-0.07471226155757904
225	0xbfb7b31a40000000	-0.09257663786411285
226	0x3f708bb400000000	0.004039481282234192
227	0xbfaab8b680000000	-0.052190497517585754
228	0x3f9194ab00000000	0.017168685793876648
229	0xbfb9bb9e40000000	-0.1005190759897232
230	0x3fbb961140000000	0.10775859653949738
231	0xbfbb4b4000000000	-0.10661697387695312
232	0x3f6c101000000000	0.0034256279468536377
233	0xbfb0e3ccc0000000	-0.06597594916820526
234	0xbfa9867280000000	-0.04985387623310089
235	0x3fb4f39a80000000	0.0818420946598053
236	0xbfb4fbf580000000	-0.08196958899497986
237	0xbfb6676400000000	-0.08751511573791504
238	0xbfb14e3cc0000000	-0.0676000565290451
239	0xbfb8dcf040000000	-0.09712125360965729
240	0xbf824c2000000000	-0.008934259414672852
241	0xbf9fd30c00000000	-0.0310785174369812
242	0x3f9f394800000000	0.030491948127746582
243	0x3fae50f280000000	0.059211328625679016
244	0x3fafb76000000000	0.06194591522216797
245	0x3fbabe4440000000	0.10446573793888092
246	0x3f5befe000000000	0.0017051398754119873
247	0x3fa71d8700000000	0.04514715075492859
248	0x3fb5343680000000	0.08282795548439026
249	0x3fa011d480000000	0.031386032700538635
250	0xbf9988c200000000	-0.024935752153396606
251	0xbf98b29700000000	-0.02411876618862152
252	0xbf7c8e0c00000000	-0.006971403956413269
253	0x3fa2e5a580000000	0.036908313632011414
254	0xbfb98cf900000000	-0.09980732202529907
255	0xbfba360300000000	-0.10238665342330933

fc2.bias f8 [128]
0	0xbf9527878174c450	-0.02065860488545851
1	0x3fabd2cae4ef5168	0.054342594572207414
2	0xbfb86d1880000000	-0.0954146683216095
3	0x3f8b1b0a00000000	0.013235166668891907
4	0xbf8e0c1086d4f540	-0.014671448817007104
5	0x3f9d2ff4ecd687fb	0.02850325294060239
6	0xbfb0fed840000000	-0.06638862192630768
7	0xbfa6a78280000000	-0.044246748089790344
8	0xbfb29ee640000000	-0.07273711264133453
9	0xbfa96003b35cb751	-0.04956065716247216
10	0xbf8efb3200000000	-0.015127554535865784
11	0xbfab0deb877be31c	-0.052840576447073156
12	0x3faa02daf67555d9	0.05080303438687012
13	0xbfc2b76041c64701	-0.14622119151731997
14	0x3fa4559f91473937	0.039715754017026254
15	0xbfb95297db0bc1be	-0.0989165220050898
16	0x3fc00b438c912de3	0.12534374583843463
17	0xbfc585789891f429	-0.1681357140513751
18	0x3fa6192eb7330de4	0.04316087709733177
19	0xbfbc2679c0000000	-0.1099620908498764
20	0xbfa8246400000000	-0.04715263843536377
21	0x3fb6dd0052412ce6	0.08930971153420195
22	0xbf972170fd662329	-0.02258850618958089
23	0x3fa8990e00000000	0.04804271459579468
24	0x3fc31b9e962463c1	0.14928037959250953
25	0xbfa1125180000000	-0.0333428829908371
26	0xbfb221029a021ee4	-0.07081619510619991
27	0xbf865f3840f63915	-0.010923804743268076
28	0x3fb2dfe4d7a05903	0.07372885002437006
29	0xbfc1de45e9b38d43	-0.13959573661041177
30	0xbfa1a0bf7028435f	-0.034429533425401664
31	0x3f95dc8f1d154540	0.02134917845734674
32	0xbfad99bd00000000	-0.057813555002212524
33	0xbf9fe4549fbbfda2	-0.031144449471865017
34	0x3faad6a92ed252f5	0.05241898247292013
35	0xbf74470f207dadb5	-0.004950579728624606
36	0xbfacd19f2c95bce3	-0.05628678721665794
37	0xbfb2fcad80000000	-0.07416805624961853
38	0xbfa18a6280000000	-0.03425891697406769
39	0xbfa2f76400000000	-0.03704369068145752
40	0xbfbf7f827e5cd45f	-0.12303939423584741
41	0xbfc430bb4d898813	-0.15773717199323353
42	0x3fc08dac081181f0	0.12932348627056411
43	0x3fa0c7f700000000	0.03277561068534851
44	0xbfb83e8ec0000000	-0.09470455348491669
45	0x3f9b0ae7a3e1ecc6	0.026408786180110132
46	0xbfc4fbb96cf2f7a9	-0.1639320165613161
47	0xbf94729ddb480433	-0.01996847773444106
48	0xbfb78fbcfce70710	-0.09203702139259584
49	0x3fc3046285f0ef1e	0.14857131519408368
50	0xbfbdcfffc0000000	-0.1164550632238388
51	0xbf945fb700000000	-0.01989637315273285
52	0x3f9ca4d8edec62fe	0.027972592851344118
53	0xbfa33fce79761447	-0.037596180273830763
54	0xbfa639499f00b60a	-0.04340581956817509
55	0x3f85a6fc00000000	0.0105724036693573
56	0xbfa4d816218f6b89	-0.04071110877676804
57	0xbfa7fe8680000000	-0.046863749623298645
58	0xbf93c9d600000000	-0.01932463049888611
59	0xbfb8678150551340	-0.09532936297644046
60	0xbfb04ca2da9ad757	-0.06366937481911115
61	0xbfb2110a80000000	-0.07057252526283264
62	0xbfba390b900632b6	-0.10243294016090485
63	0xbfaeb3a700000000	-0.059964388608932495
64	0xbfa6207d00000000	-0.04321661591529846
65	0x3fc1dd6cf933c35c	0.1395698754127136
66	0xbf98adfb25ff5cbd	-0.02410118503015889
67	0x3fc2a77d983d50f9	0.14573640760011822
68	0x3faa486d2600cf8c	0.051333819283541166
69	0x3fa8335ffcdb9eef	0.047266959778253674
70	0x3fb497be85fc3064	0.08044043322678501
71	0xbfb7ff13c8c500a1	-0.09373592044448965
72	0xbfad3bb500000000	-0.05709615349769592
73	0xbf9daecefb000cd3	-0.028987154073558962
74	0x3fb8989e99d09361	0.09607878928416148
75	0x3fafd04c80479eb8	0.06213606897273166
76	0x3fb776232aca1034	0.09164638323460467
77	0xbfa8b8ff80000000	-0.048286423087120056
78	0x3fbec818b0587a34	0.12024072938263758
79	0xbf50129000000000	-0.0009809881448745728
80	0xbf61d52000000000	-0.002176821231842041
81	0x3fa435d200000000	0.039473116397857666
82	0xbfb5ded6e2369e13	-0.0854315092352567
83	0xbfc1f5f424b48c51	-0.14031841079949683
84	0xbfbbf868c0000000	-0.10925917327404022
85	0x3f92dfc768c1cf8f	0.018431773918976154
86	0xbfba3803b1ddafdc	-0.10241721241408136
87	0x3fa5ef80557dde0b	0.04284287494277458
88	0x3f94a2c238e7c8ad	0.020152125094633423
89	0x3fbc904fc0000000	0.11157701909542084
90	0xbfc1ddc29f4823d2	-0.1395800855391643
91	0xbfc61c00c3ff5492	-0.17272958345589423
92	0x3f8a8a4e00000000	0.012959107756614685
93	0xbfaad9db46b1a74d	-0.05244336355174415
94	0x3fad319ef96df1a7	0.05701920313638036
95	0xbfb191960592add3	-0.0686277164083358
96	0x3fba3b6c68cdce60	0.10246923025788979
97	0xbfb7a19d00000000	-0.09230977296829224
98	0xbfb926328db79e63	-0.09823909721273476
99	0xbfb5d2d9075d1310	-0.0852485316255065
100	0x3f5468f4deca1b64	0.001245726710438177
101	0xbfaa960b6047cf59	-0.051925998213760045
102	0x3fa08623a47ba0f6	0.0322734010968037
103	0x3f96efd78cd0ec01	0.022399299592716918
104	0x3f87e0175a69737a	0.01165788883843687
105	0x3fc045ecc9e2dc9f	0.12713394029353695
106	0xbf8e6a8d740a169f	-0.014851670364133538
107	0xbfc63435a39db449	-0.17346830834449836
108	0x3f89fb4a00000000	0.01268632709980011
109	0x3fb273c91ebdca7a	0.0720792484333205
110	0x3f977e31e364fb13	0.022942332748466642
111	0x3fc133599ddce111	0.134379579621744
112	0xbfa575ce4b31a4b9	-0.04191441219229248
113	0xbfaf4a3700000000	-0.06111308932304382
114	0xbfb497d186df1551	-0.08044156592139486
115	0xbf90b11010394a26	-0.016300440778943458
116	0xbfb17be8b3bd8cdb	-0.06829695118135552
117	0x3fa8d84255f8fca9	0.0485249261805561
118	0xbf8f043ef544b973	-0.015144817218779782
119	0xbfbd6fb6953e26d1	-0.1149858583795791
120	0x3fbbb7e08bd66c0e	0.10827449239734241
121	0xbfc38c2b3760f688	-0.15271511272469618
122	0x3fb776a029349d0a	0.09165383344644709
123	0x3fb7956200000000	0.09212315082550049
124	0x3fb5b5b419d78c94	0.08480382567317896
125	0x3fbdd44b8472b676	0.11652061446758374
126	0x3faffdd90906bd4b	0.06248357997116701
127	0xbf98febd00000000	-0.024409249424934387

fc3.weight f8 [64, 128]
0	0x3f9ca3e2ec33d3f5	0.027968927065518973
1	0xbfb78ff9b2cffc88	-0.09204064002550372
2	0x3fb0e88020000000	0.06604767590761185
3	0x3f9249e600000000	0.01786002516746521
4	0xbfac89f6cb0295a6	-0.05574008205557428
5	0x3f98b851d7a3f5fa	0.024140623842859178
6	0x3f63761400000000	0.0023756399750709534
7	0xbfb0fc5980000000	-0.0663505494594574
8	0x3faa0559c0000000	0.050822071731090546
9	0x3f82c64300000000	0.009167216718196869
10	0xbfb3fa9880000000	-0.07804253697395325
11	0x3fadf818c0000000	0.058533452451229095
12	0xbfb50ee3d85f6bc7	-0.08225845367944294
13	0xbfadb39520000000	-0.058010730892419815
14	0xbfaa4754c830f5ed	-0.05132546371212841
15	0x3f996e9e00000000	0.024836033582687378
16	0xbfb674e568095d14	-0.08772119321780664
17	0x3f81c54800000000	0.008677065372467041
18	0xbf999e2200000000	-0.02501729130744934
19	0xbfb6614120000000	-0.0874214842915535
20	0xbfb4a3e6c0000000	-0.08062593638896942
21	0xbfbd8f0c35ab215d	-0.11546398458734104
22	0xbf9ec95d80000000	-0.03006502240896225
23	0x3f698b7000000000	0.0031182467937469482
24	0xbfb03a8b1cecaadd	-0.06339330154575458
25	0xbfb09a27e0000000	-0.06485223025083542
26	0x3f9dff0500000000	0.029293134808540344
27	0x3faec7ddc0000000	0.06011860817670822
28	0xbfc0163e8aef1413	-0.1256788423908409
29	0x3fa48d1b40000000	0.040139056742191315
30	0x3fb04bfda0000000	0.06365952640771866
31	0x3f8e1fc400000000	0.014709025621414185
32	0xbfa0b415a0000000	-0.032623935490846634
33	0x3f818acd00000000	0.008565522730350494
34	0xbf8da82400000000	-0.01448085904121399
35	0xbfb102bd60000000	-0.06644805520772934
36	0xbf97d65780000000	-0.02327858656644821
37	0xbfa371c5a0000000	-0.03797738626599312
38	0xbf9a6cce80000000	-0.02580568939447403
39	0xbf739fd200000000	-0.004791088402271271
40	0x3f91104c80000000	0.01666373759508133
41	0x3fa4753440000000	0.03995669633150101
42	0x3f9c2b0a708bd0fa	0.027507937545082385
43	0x3fa520b240000000	0.04126507788896561
44	0x3f8f851b00000000	0.01539059728384018
45	0xbf85582e00000000	-0.010422095656394958
46	0xbfa41e67c0000000	-0.03929447382688522
47	0xbfb0b1f860000000	-0.06521560996770859
48	0xbf9fd7c3c0000000	-0.03109651431441307
49	0xbf80036591df5039	-0.007818978799981934
50	0x3fabc306c0000000	0.05422230809926987
51	0xbf9be6b580000000	-0.027247272431850433
52	0x3f8bb0a6036a5623	0.013520524005154638
53	0xbfaa982d77870c23	-0.051942272988093195
54	0x3fb54c6220000000	0.08319676667451859
55	0x3fa0ae8000000000	0.032581329345703125
56	0x3faf82bb40000000	0.061544276773929596
57	0xbf96368500000000	-0.021692350506782532
58	0xbfb4a473c0000000	-0.08063434064388275
59	0xbfa6a3fd00000000	-0.04421988129615784
60	0x3f81f9c200000000	0.008777156472206116
61	0x3fa2b43440000000	0.03653109818696976
62	0xbfa6668d40000000	-0.04375115782022476
63	0xbfa24dea40000000	-0.03575069457292557
64	0x3fa482cd40000000	0.040060438215732574
65	0xbfb18c8751ba4832	-0.06855054612449932
66	0xbf98e44700000000	-0.024308308959007263
67	0xbfb82b519a6595fb	-0.09441099185422523
68	0xbfb60c228e40aff2	-0.0861226651474565
69	0xbfbc8c94dbd67935	-0.1115201031411502
70	0x3f9a9481af1ab1a5	0.025957132637516662
71	0x3fa75a46c0000000	0.04561062902212143
72	0x3fb2d97860000000	0.07363083213567734
73	0xbfb275728242b585	-0.0721046035784721
74	0xbfa1d69fe2340e66	-0.034840580332482315
75	0xbfaea3daa0000000	-0.05984385684132576
76	0xbf76fc8b94c5ff38	-0.0056119396580241385
77	0xbf2a084000000000	-0.00019861012697219849
78	0xbfa99862501c063f	-0.04999072292231376
79	0xbfb1399b80000000	-0.06728526949882507
80	0xbfa6f12780000000	-0.044808611273765564
81	0xbf921cd400000000	-0.017688095569610596
82	0xbfb0785b80000000	-0.06433650851249695
83	0x3fb1a45ca0000000	0.06891421228647232
84	0x3fa3410740000000	0.03760550171136856
85	0xbfa4f5ef60000000	-0.040938835591077805
86	0xbf86afe800000000	-0.011077702045440674
87	0xbfc11c54a1345642	-0.13367708083448987
88	0xbfc14fa2e75d6525	-0.13524280831442428
89	0xbfa6452080000000	-0.04349614679813385
90	0xbf83ac8200000000	-0.00960637629032135
91	0xbfadfd27a0000000	-0.05857204273343086
92	0xbfa7708700000000	-0.04578039050102234
93	0xbfb6181c20000000	-0.08630538731813431
94	0xbfb2537e1c0c8286	-0.07158649620806487
95	0xbfac856be0000000	-0.05570542439818382
96	0xbfb14832befb7d92	-0.06750790751129035
97	0x3fb5416920000000	0.08302933722734451
98	0xbfab40e3e0000000	-0.053229447454214096
99	0x3fac6d2540000000	0.05552021414041519
100	0xbfa20de1c0000000	-0.03526216000318527
101	0xbfb9438c4d501ddf	-0.09868695151828132
102	0x3f9e832a80000000	0.029797233641147614
103	0xbfb6467820000000	-0.08701277524232864
104	0xbfa8e9ade0000000	-0.04865783080458641
105	0xbf95110d59189c28	-0.02057286125468863
106	0x3faa7c4bc0000000	0.05172955244779587
107	0xbf85bec600000000	-0.010617777705192566
108	0xbf8b4bf900000000	-0.013328500092029572
109	0xbfc22fef7d7ea9bd	-0.14208787563013728
110	0xbfa6004a60000000	-0.042970966547727585
111	0xbfab27ca7101d985	-0.05303795461161357
112	0x3f9e5ffec9853b26	0.02966306786521069
113	0x3faf1a48c0000000	0.060747407376766205
114	0x3f8d72abd22f1751	0.01437887416058073
115	0xbf9556d800000000	-0.02083909511566162
116	0x3fafac4440000000	0.06186116486787796
117	0xbfb5c98e60000000	-0.0851067528128624
118	0xbf91b36f00000000	-0.017286047339439392
119	0xbf9e808940000000	-0.029787201434373856
120	0x3f830c7cca0d8c64	0.009301161686101796
121	0x3fb622f4a0000000	0.08647087961435318
122	0xbfb4424850fd6baa	-0.07913639046948498
123	0xbfb52bf0e0000000	-0.08270173519849777
124	0xbfbc6cbda875a82e	-0.11103425371916906
125	0xbfb31e28cde5b031	-0.07467894579684821
126	0xbfb224a72e48f1af	-0.07087178115847935
127	0xbfaf79e240000000	-0.061476774513721466
128	0x3f792764c7bba5de	0.00614108435886737
129	0xbfb0e7ae5011b2d6	-0.06603517012417667
130	0xbfb2c5bda0000000	-0.07332978397607803
131	0xbfa8586180000000	-0.0475492924451828
132	0xbfc283359beb67d8	-0.1446291934324211
133	0xbfbc9d7fec6db5c7	-0.1117782547205116
134	0x3f6f65fc00000000	0.003832809627056122
135	0xbfb1cee0a0000000	-0.06956294924020767
136	0xbfa4305760000000	-0.039431314915418625
137	0x3fa0d41db84d3b87	0.03286831736351475
138	0x3fa62a9fc0000000	0.043293945491313934
139	0x3fa3b3ac40000000	0.03848017007112503
140	0xbf4b1bbf6d4ce5d7	-0.0008272824003149837
141	0x3f9a408a9ad1cc2e	0.025636830996926978
142	0xbfb43b3d98996470	-0.07902893996778615
143	0x3f96c3c208d04f5a	0.02223113230509397
144	0x3f7199a9209fb84a	0.004296932844210908
145	0x3f972d2ad79f1439	0.02263323727654074
146	0x3fc0d049f1b137ce	0.1313564710748651
147	0xbfa10cfec0000000	-0.033302269876003265
148	0x3f9a875f80000000	0.025907032191753387
149	0xbfb2e9e081b29a54	-0.07388117948958356
150	0x3fba7558f5945293	0.10335308070745901
151	0x3f760cde00000000	0.0053833648562431335
152	0xbfab23f6bb2a1ab7	-0.05300875696871315
153	0xbf87d6e800000000	-0.011640369892120361
154	0xbf7db17c00000000	-0.0072493404150009155
155	0x3fa9d73b51c58fdf	0.05047021268072149
156	0xbfafb3870dec09c5	-0.061916561555353
157	0x3fafa78bb0011ae3	0.06182514689912979
158	0xbf9b78c1c6710692	-0.026827838646801334
159	0x3f87511f0b8d093f	0.011385195293432402
160	0x3fb5af6320000000	0.08470744639635086
161	0xbf675eff7c824ec0	-0.002852915760806457
162	0x3fa4c8ae99925662	0.04059358238843626
163	0x3fc168a33c424267	0.13600578729939913
164	0x3fa36d2d3ec34ca2	0.03794232741497551
165	0xbfaeae4ea0000000	-0.05992360785603523
166	0x3fb55f70a0000000	0.08348754793405533
167	0xbfb438c520000000	-0.07899124175310135
168	0xbfc22aac46a7fba3	-0.14192727518090206
169	0x3f9e83c821af2705	0.029799582534713504
170	0x3fa1012c270f5cd4	0.033212070243899966
171	0x3fb4b95b60000000	0.08095332235097885
172	0xbfb1c6e080000000	-0.06944087147712708
173	0x3fb02e69ab1addc9	0.06320820262305128
174	0x3faadf7717b92210	0.052486154218574055
175	0x3fa87899cdfb20e9	0.04779511107841634
176	0x3fa19702ac74bb56	0.03435524325538235
177	0xbfba85c1e944afea	-0.10360347695376473
178	0x3fa6b7dac0000000	0.04437144845724106
179	0x3f6bb92000000000	0.0033841729164123535
180	0x3fab07ce2483db85	0.05279392429104405
181	0x3f7957ea1a131286	0.006187357387891118
182	0x3fa9f3d7e75b7c4a	0.05068850230394924
183	0x3fb01fb320000000	0.06298369914293289
184	0xbf72c0fdade4c64a	-0.004578581747681174
185	0x3fa8b6bd40000000	0.04826918989419937
186	0xbf9778e580000000	-0.022922120988368988
187	0x3f726f4c00000000	0.004500672221183777
188	0x3fa4fc565e0be3f9	0.040987681370047775
189	0x3f6924a800000000	0.0030692368745803833
190	0x3fc26fe3e6ecd1b6	0.1440396192134707
191	0xbfac19d340000000	-0.05488453060388565
192	0x3fb5d7b3e0000000	0.08532261103391647
193	0xbfafdaa1f0b5d932	-0.062214909204089244
194	0x3f9def1d05da0e85	0.02923245762077766
195	0xbfa19c54279a76a6	-0.03439581855239497
196	0x3fa945c763d2c269	0.04936049550577055
197	0xbf9902a2ed092507	-0.02442411967993954
198	0xbf71072c00000000	-0.004157230257987976
199	0x3fbca8595744a4b3	0.11194380169458178
200	0x3fb16f9a20000000	0.06810916215181351
201	0x3f99d4cc0fa6e2d9	0.02522581906825647
202	0x3f9188244b6e8853	0.01712090216063473
203	0x3fb5bc165efb8e42	0.08490123576080413
204	0xbfa6e24d20bc5b11	-0.04469529175383092
205	0xbfa8c477c0000000	-0.048373930156230927
206	0x3f6d4979f7ed6d1e	0.0035750753590214754
207	0xbfa36b5120000000	-0.03792813792824745
208	0x3faad86f40000000	0.05243251472711563
209	0x3faeda7040000000	0.06026030331850052
210	0x3fb8922c975ce40b	0.09598044104940599
211	0x3f9176e835b060e5	0.017055156971850578
212	0x3fa187f500000000	0.034240394830703735
213	0x3fbfd15b701df8bf	0.12428828704102822
214	0x3fb29eef1c691d03	0.07273764079683435
215	0x3fb810dbd4051b9b	0.09400724340694781
216	0x3f946895ec575d52	0.019930212545515254
217	0x3fa6ae9cc0000000	0.04430093616247177
218	0x3fb84e58f2e41417	0.09494548730806716
219	0x3fb92fe6e4692996	0.09838717533526728
220	0x3f91da7e80000000	0.01743505150079727
221	0xbf5c9ddc7cf1cfd0	-0.0017466214374310847
222	0xbfb50e98205a220c	-0.08225394048543694
223	0x3f80557e34ede076	0.00797556494738692
224	0xbfb2160fa8e2231b	-0.07064912675026529
225	0x3fb54fc4e0000000	0.08324842900037766
226	0x3f9b010137691953	0.026371020323744897
227	0xbf8713d94d592144	-0.011268327401140817
228	0x3fbdeb8178bd98d6	0.11687478254097824
229	0x3f925888a44f11e3	0.01791585448133216
230	0x3fa8356a1e22a87e	0.04728252046454971
231	0x3fad2dce5ea6aeaa	0.05699009805115669
232	0xbf8bc70624fc26b1	-0.013563201907817431
233	0xbf9ec352f8e7bb56	-0.030041977350204384
234	0x3f90c1caf005ee51	0.016364260578013937
235	0x3fc12485ceed6113	0.13392708400602568
236	0x3f806e2e00000000	0.008022651076316833
237	0xbfb4b70359e6856d	-0.08091755814395692
238	0x3fb94f6522c4de36	0.09886772250035211
239	0xbf9b6f788ee79260	-0.026792415353968813
240	0x3fae37eaa75b53e9	0.05902035992554728
241	0xbf98438d80000000	-0.023695193231105804
242	0xbfbf7ff382d4ee95	-0.12304613060126209
243	0x3fb56e54e0000000	0.08371477574110031
244	0xbfb26509a3e6c3b8	-0.07185421229838951
245	0x3fbbdeadd427ff19	0.10886656217189418
246	0x3fa2bc3bc0000000	0.036592356860637665
247	0x3fb5f94549a8f4c8	0.08583481834735374
248	0xbf960e9f7153f931	-0.021540156642907596
249	0xbfaefdf240000000	-0.06053120642900467
250	0xbfb86948d9637f74	-0.09535651500072878
251	0xbfb0027120000000	-0.06253726035356522
252	0x3f939f9000000000	0.01916337013244629
253	0xbfa471e3cda925d8	-0.03993141065127376
254	0xbfaa4147b5969b01	-0.05127929774908147
255	0xbf8ad90300000000	-0.013109229505062103

fc3.bias f8 [64]
0	0xbfbbf105f04dc325	-0.10914647213736524
1	0x3fa261f3e0fee5d3	0.035903569426817626
2	0x3f6c02ffac19f741	0.0034193986510321632
3	0x3fb4ae7ea93c70ee	0.08078757888546637
4	0xbfc09ce760d74ec2	-0.12978832462851214
5	0x3fab9babfcd1e48f	0.053922056781581344
6	0xbfa0fd27e877a024	-0.033181426169733436
7	0xbfb89f8426dd91a0	-0.096184024323128
8	0xbf99725e00000000	-0.02485033869743347
9	0x3fbcf613c99573f8	0.11312984153251182
10	0x3f9bf79d00000000	0.02731175720691681
11	0x3fc2da93f1dbc536	0.14729546842094415
12	0xbfb0323820000000	-0.06326628476381302
13	0x3fc2443e89726a02	0.14270765029216653
14	0xbfab3ae7f5ab3434	-0.053183792818892434
15	0xbfb061f4dc720089	-0.0639946973988136
16	0x3fbaa5dc224dd163	0.10409332120417995
17	0xbfadfdae0a8939db	-0.058576048647058086
18	0x3fc671567c47bb01	0.17533379619950298
19	0x3fb55a2b20000000	0.08340711146593094
20	0xbfaf9e4ba0000000	-0.06175457313656807
21	0xbfb99b2476b159fc	-0.10002353570721562
22	0xbfc18c7edb2ed64c	-0.1371000833730015
23	0x3fa02058342e0a20	0.031496769303903216
24	0x3fcc74144d431add	0.2222924592262733
25	0x3fbb927706513042	0.10770362762667765
26	0xbfc189d17936517f	-0.13701837938846137
27	0xbfb46ef7a0000000	-0.0798182263970375
28	0x3fc02af957c2bea5	0.1263114622611187
29	0xbfc243a2bf0518c5	-0.14268907858985905
30	0xbfb34284b02b22e2	-0.07523373890866084
31	0xbf916cb100000000	-0.01701618731021881
32	0xbfa92d9c20000000	-0.04917610064148903
33	0xbfa6c5da80000000	-0.04447825253009796
34	0xbf9ce3278508fc70	-0.028210275168245535
35	0xbfb5a3ff40000000	-0.08453364670276642
36	0xbfaeac7e0497dc22	-0.05990976148671502
37	0xbfb3914740000000	-0.07643552124500275
38	0xbfa78dec00000000	-0.046004652976989746
39	0xbf8238c400000000	-0.008897334337234497
40	0xbfa8d06eee25a75f	-0.048465220041932204
41	0xbfc005aa71281d31	-0.1251729061625411
42	0x3f96d840c91d9e07	0.022309314990165443
43	0xbfc1998b1157cd34	-0.13749826762032458
44	0xbf87b15d6ed17dff	-0.01156876558724118
45	0xbfbb330424fd6ba4	-0.10624719527315435
46	0xbfb55940b3a43a04	-0.08339313874987658
47	0xbf9df64a0ba58a60	-0.029259831391195923
48	0xbfb117b5a92061c9	-0.06676802996697186
49	0xbfa73ec89a7b7a71	-0.045400875909526024
50	0x3fbc3c044fb5e1a2	0.1102907843213701
51	0x3f79a7158675f2bc	0.00626285942359733
52	0x3faf0d0999f64ed5	0.06064634327335986
53	0x3fb9eaeaebc87dee	0.10124080902505003
54	0xbfafb3648283685e	-0.06191553204708165
55	0xbfae290362477fb9	-0.058906656023963895
56	0x3fc14d2db326119b	0.1351678013562719
57	0x3f84b1f461d1f1a0	0.010105046496612868
58	0xbfa6c047c7280bfa	-0.04443573289974974
59	0xbfb4234b6ba78471	-0.07866355303078067
60	0x3fbcafddde0e9546	0.112058512414099
61	0x3fc0220346df6578	0.12603798828676438
62	0xbfc14fe0683495f5	-0.1352501400771612
63	0x3fb7a1f5f7b1b854	0.09231507584783688

fc4.weight f8 [2, 64]
0	0xbfa0000a8a23b7d9	-0.031250314104781025
1	0x3fb81427683add2d	0.09405752463031965
2	0x3fa16ac03ee4a3da	0.034017570187934346
3	0x3fa6560bde1343cb	0.043625231608195834
4	0xbfaa4d4efea05826	-0.051371067602460393
5	0x3f7811426df131c9	0.005875834932407683
6	0x3fb57d5a37da8ab5	0.08394397605529032
7	0xbf9140b712006136	-0.01684843108532271
8	0x3fa52fda80000000	0.04138071835041046
9	0xbfc0db23c8afbe1e	-0.13168761538644075
10	0x3f83c02a00000000	0.00964386761188507
11	0x3fb03566816facd6	0.06331482563080057
12	0x3fb938be00000000	0.09852206707000732
13	0x3f6a77acd295bd5d	0.003230893653998797
14	0x3fa8551e40f6b606	0.047524400167599665
15	0xbfa3601c73af2391	-0.03784264480743283
16	0x3fac0e062534ec25	0.05479449466880507
17	0x3fa4d34f9d3006f6	0.04067467492860814
18	0x3fb014a447daca6a	0.06281496767295783
19	0x3fad9c2880000000	0.0578320175409317
20	0x3fa8d1fc80000000	0.04847706854343414
21	0x3f817a2777f861c1	0.008533771847439977
22	0x3fa894c1d40f9a88	0.048009926925989765
23	0x3f7afd5535cdb8bb	0.006589253284671577
24	0x3f8e166c3cee913d	0.014691205605978136
25	0x3fa2ca098876ff92	0.03669767180281193
26	0xbfa8bf3c059b135c	-0.04833400314740885
27	0xbfa4d1d580000000	-0.04066340625286102
28	0x3f9d76fc5bb0f645	0.02877420720709824
29	0xbf98034b9bc70924	-0.023450070746329335
30	0xbf8645fe0ca6d561	-0.010875687371348421
31	0xbfbcbf26c0000000	-0.11229173839092255
32	0xbf805d8400000000	-0.007990866899490356
33	0x3fb8456ec0000000	0.09480945765972137
34	0x3f9455ac60157749	0.019858067860119708
35	0xbf8bb2d200000000	-0.013524666428565979
36	0x3fba9bd68b852c34	0.10394040018324874
37	0x3fbc6ae140000000	0.11100585758686066
38	0x3fbbf985c0000000	0.10927616059780121
39	0x3fa7525c80000000	0.04555024206638336
40	0xbfa305656dc49ed6	-0.037150544785900116
41	0xbf90a24b774b972f	-0.01624410548801974
42	0xbfa346d573e7c822	-0.037649794005020235
43	0x3fa12337358e4b37	0.03347179917104486
44	0x3f741cadd4a9923c	0.004910162950726046
45	0x3fa51161efa4241f	0.0411482434302075
46	0x3f716b6232dbd866	0.004252799595397238
47	0x3f9c850460f45859	0.027851169984465993
48	0x3faa033c01e8343c	0.050805926544946506
49	0x3faf5e495d778b23	0.06126622453645882
50	0x3f7597b03b5e74f7	0.005271614461802124
51	0xbfa4371feb09df71	-0.039483067933303036
52	0x3fb577d4cf66e705	0.08385973037266232
53	0x3fb85709dfcd1049	0.09507810319797828
54	0xbf6592035f245ad6	-0.0026331010677823436
55	0xbf8779d419b102a0	-0.011462838205376358
56	0xbfb586fbde2d037a	-0.08409094022955613
57	0xbfb00ce95f72afc3	-0.06269701557420064
58	0x3fabcbaa0b0a50e4	0.05428820976990936
59	0xbfaefd10bf344dcd	-0.060524485912675986
60	0x3fa0bb69d60995bf	0.03267985093843206
61	0x3fb4284d5f863676	0.07873996336112463
62	0x3f88d3d42970d204	0.012122781290693226
63	0x3fb7fa3f9455857a	0.09366223689496236
64	0x3fab007b6c138cee	0.052738053267398985
65	0xbfa44935a9d9b551	-0.039621045097059444
66	0xbfd18cfb1f1aefb1	-0.274229793907348
67	0xbfb00ec2f4d55649	-0.0627252433526674
68	0xbfc4f1db83bdf9c0	-0.16363090450972884
69	0xbfd185420a29fc9b	-0.2737584208734433
70	0xbfc83844dfd3352f	-0.18921719483334118
71	0xbf8488c234aeb7ed	-0.010026471359960676
72	0x3fbb478d80000000	0.10656055808067322
73	0xbfd29350ef48cf65	-0.2902414643060552
74	0xbfb8257380000000	-0.09432145953178406
75	0xbfd3c7c44c7c1a43	-0.30906779736725215
76	0xbf9ac55a00000000	-0.02614346146583557
77	0xbfcac675238790c0	-0.20918144450036458
78	0xbfb1d894a13a4d82	-0.06971100746368644
79	0xbfbb95e0d25ff363	-0.10775570999244403
80	0xbfc7a4c674af78ec	-0.18471604058772273
81	0xbfb632784017336d	-0.08670760693276032
82	0xbfd42d7989397d4a	-0.31527555847965927
83	0x3fb7a61200000000	0.09237778186798096
84	0xbfad056900000000	-0.05668190121650696
85	0x3fae528a5f9440fb	0.05922348419892561
86	0xbfb982fbb74bd078	-0.09965489602092414
87	0xbfc2752d1eb1a51f	-0.14420093535162778
88	0xbfd3f20df07f94a2	-0.31164883123558174
89	0xbfc1f39c7f628cf3	-0.14024692745179088
90	0xbfa31e0e75516453	-0.03733868772605633
91	0xbfb8ce9fc0000000	-0.09690283238887787
92	0xbfcc40054e54fd55	-0.2207037575226233
93	0x3fa21d97159e18e7	0.03538200510870287
94	0x3fbbd907c82c616b	0.10878037106556852
95	0xbfb0425ac0000000	-0.06351248919963837
96	0x3fa49dfa00000000	0.040267765522003174
97	0xbf97871000000000	-0.022976160049438477
98	0xbfaa381d65af1333	-0.05120937219866164
99	0xbfa68e6700000000	-0.04405519366264343
100	0xbf9489e6cc7b1636	-0.020057302694814726
101	0x3fbff86480000000	0.12488391995429993
102	0xbfbd0fd800000000	-0.11352300643920898
103	0x3fbb2ce3c0000000	0.1061537116765976
104	0xbfc40c6fb2518b7d	-0.15662952620467854
105	0xbfc0c6c728dcfd61	-0.13106622214580013
106	0xbfc048ae233e24e6	-0.12721802445256641
107	0x3f9b4cfedddf37c8	0.026660902301777673
108	0xbf7d267bd80f202c	-0.0071167791038036325
109	0xbfbaaf5f13afbfc8	-0.10423845511081631
110	0x3fad727ef5ec38f8	0.05751415969835877
111	0xbf85dd4a96b89562	-0.01067598602737502
112	0xbfaa8db9b648634e	-0.051862529279054756
113	0xbfc178671f87ac1e	-0.13648690261411017
114	0xbfd006327250c9c8	-0.2503782383311344
115	0x3f96c4f91b73bec6	0.022235767651124026
116	0xbfcd1807ebaa1008	-0.22729586607977148
117	0xbfd1437bb3db8859	-0.2697438484593753
118	0x3f825b782eee62f9	0.00896352666113519
119	0xbfb72843c927f929	-0.09045814190901481
120	0xbfe0ca6794ed32bd	-0.524707594749621
121	0x3faa46830827a27e	0.051319212670766653
122	0x3f84fad73d3ebd19	0.010244065815497682
123	0xbfb839b796dd09f3	-0.09463069375218662
124	0xbfd2a91a9b000916	-0.2915712846444348
125	0xbfca766908d0b6fa	-0.20673859529909305
126	0xbfb018ffa55c0272	-0.06288144862265613
127	0xbfd18209a140a047	-0.27356186625775475

fc4.bias f8 [2]
0	0x3fb3432a1d322d6a	0.07524359905999281
1	0xbfb7800287106303	-0.09179702565633012
