src/backend/controller/checkpoints/checkpoint_epoch_49.pth (torch, 420207 bytes, 25 tensors)

fc1.weight f8 [64, 5]
0.17214640239397597 -0.46361191522481204 0.24970271300363917 -0.1859656718166977 0.10709077923976897 -0.15748682618141174 -0.2859317362308502 -0.4182189404964447
-0.23558029532432556 0.102683424949646 -0.22228169757881072 0.09698057734773191 -0.3799383795226631 0.41787086208859575 0.07208033163826973 0.29222941398620605
-0.12881866097450256 -0.2658160924911499 -0.36438190937042236 -0.08555623888969421 -0.16404101252555847 -0.012782365083694458 0.3968053460121155 0.01920926570892334
-0.4070501923561096 -0.14799757604497343 0.34378893751087497 0.372815678700108 0.10001909257212045 -0.3553638298986453 -0.2122450455038586 -0.27712494143065536
0.28339969528982745 0.25795104798978924 0.40504629111306334 0.37379854917526245 -0.41267502307891846 -0.0874796211719513 -0.3212490677833557 0.085968017578125
0.1906169494810601 -0.24985373160892277 -0.0053370680658118225 0.11828662718770701 0.2523453270013132 0.32935044034587885 0.03095021567959604 0.08478975203424491
-0.3748898998999514 0.1389280826532323 -0.312357738075538 -0.04605984416987944 0.3825044458403437 0.0154724137539581 0.14261059405671384 0.2866380119899559
0.19978059192105752 0.01736559892245738 0.33195896866694824 0.02104791056443437 -0.1584734320640564 0.10327941179275513 -0.35499274730682373 0.29825127124786377
-0.19943299889564514 -0.32309194292274773 0.2143841460835451 0.42521669336636836 -0.00824200940863506 0.2846756590272469 -0.34943518062638984 0.25249026194336777
-0.11267458766275877 0.031387956785558675 -0.06659884962043373 -0.28154245018959045 -0.39090579748153687 -0.2809138894081116 0.3958856463432312 0.1273355484008789
0.2051887436444226 -0.03258984428430638 0.22723919235362178 -0.011795207660928132 0.1420476866786048 -0.03716703769083982 0.37194265828726936 0.1530418352470748
0.1404567453449725 0.2534561160227013 0.2305031418800354 -0.17867669463157654 -0.4265388250350952 0.046540647745132446 -0.28340089321136475 0.09462195457134259
0.05603272785104592 0.11622488951020424 0.27204906764248504 -0.19452780291957203 0.5074819919305162 -0.36850561034964163 -0.27365303680542663 0.24185609351575577
-0.016374402942292077 0.2008170485496521 -0.23314857482910156 -0.052512556314468384 -0.15051090717315674 -0.2524383068084717 0.4268262982368469 -0.1996842473745346
-0.30966246128082275 -0.41050320863723755 -0.41057053208351135 0.19435337926211999 0.311853361014515 -0.06219099234653145 -0.4712764282773007 0.16911518427816946
-0.11689847707748413 -0.3861534297466278 0.3823000192642212 0.1358056664466858 -0.24432815611362457 -0.2269422929957449 0.13337341932283445 -0.2888530545173273
0.28127492237974167 -0.2772688060642033 0.3573336601257324 -0.11508020758628845 0.08344215154647827 -0.4326631426811218 -0.07486072182655334 -0.06321179866790771
-0.1253010332584381 -0.060605525970458984 -0.07296356558799744 0.3147851824760437 0.05357453202694957 -0.20851083640439272 0.24827237474524208 0.1502949419378797
-0.29684929702378227 -0.14019310474395752 -0.12256672978401184 0.3443242311477661 -0.013670265674591064 0.1359119415283203 -0.1553056836128235 0.21436315774917603
-0.09526622295379639 0.19238531589508057 0.035091787576675415 0.19413775205612183 0.016615450382232666 -0.32409489154815674 -0.39700549840927124 -0.2783563733100891
0.06256619451637802 0.163767517354941 -0.22866022520908275 0.22813542545204268 0.3276724731378445 0.14474065757291676 -0.31233079728551644 0.051198176178142436
0.21925557917818017 0.38349339062649224 -0.2745234966278076 0.0585247278213501 -0.129891037940979 0.214630126953125 0.055469393730163574 -0.38239791989326477
-0.08170893788337708 0.031002163887023926 -0.35994672775268555 -0.3928275406360626 0.4135146387307483 -0.12246154694682425 -0.35956495555836804 0.0456493488060231
0.2272822363728467 0.3399318298386798 0.08323803715629159 0.23822458933093182 0.2737716761750778 0.38863717089614014 0.25901665135304786 -0.1344354834011476
-0.2713283680357016 -0.19957138609388156 -0.11097262238493505 -0.2949541051208766 -0.28445012691840543 0.5121190312660021 -0.13261770165946374 0.3280375990650219
0.45761767989682356 -0.08532130740918996 -0.36783088860567315 0.41336237174562895 -0.06090811397536586 0.06637710332870483 0.15834105014801025 -0.1603129506111145
-0.11477276682853699 -0.3749419152736664 0.024249494075775146 -0.1269947588443756 -0.22993823885917664 0.1692209243774414 -0.08096730709075928 0.13676851453408462
-0.022743118223849123 -0.423472081875318 0.2135825856028052 -0.13842348752461484 -0.09892620488756873 0.45828020058117735 0.4218912253114546 0.3100024632240916
-0.32629010084646426 -0.4204457699096267 0.03316003118978141 -0.27008175758445574 0.4292166399871739 0.3277732168583612 0.21495968219410266 -0.2457114898357732
0.002118733281888315 0.28003279797163855 0.15828460266254826 0.10221247495429943 0.3339917930928615 0.09898136066166366 0.3837931488970874 -0.06948095492958498
0.0278247490891952 0.27105357847173306 0.38277137859893984 0.18770826522778322 0.0017952122976562458 0.07042723894119263 -0.09770673513412476 -0.027212321758270264
0.2269570231437683 -0.012213528156280518 0.23648723083987142 -0.26118368351848775 -0.2615928099547755 0.09354401847290497 -0.2060400702173212 0.15368300324971107
00000000: cdfd 33b0 e408 c63f a64b 7b4f d1ab ddbf
00000010: 7a5b 092d 42f6 cf3f 3ed1 501f b9cd c7bf
00000020: f9b7 8922 4d6a bb3f 0000 0040 8728 c4bf
00000030: 0000 00a0 b44c d2bf 0000 0060 19c4 dabf
00000040: 0000 00c0 7e27 cebf 0000 0000 7649 ba3f
00000050: 6ad8 cc06 ba73 ccbf d042 0e18 b8d3 b83f
00000060: 7fe2 a210 e950 d8bf 4fcc a76d 65be da3f
00000070: 553a 124b db73 b23f 0000 0000 e3b3 d23f
00000080: 0000 0040 217d c0bf 0000 0080 2103 d1bf
00000090: 0000 0080 0852 d7bf 0000 0080 03e7 b5bf
000000a0: 0000 00c0 4bff c4bf 0000 0000 a42d 8abf
000000b0: 0000 0040 4265 d93f 0000 0000 98ab 933f
000000c0: 0000 0040 1c0d dabf 380e 80a6 95f1 c2bf
000000d0: ad7d d550 a300 d63f 14fe dc4a 36dc d73f
000000e0: 8da6 92eb d99a b93f ad24 e6ee 47be d6bf
000000f0: 5cab 967c d82a cbbf e86f 1640 6abc d1bf
00000100: ccd5 bd79 3823 d23f cf71 c51c 4582 d03f
00000110: c696 6c47 47ec d93f 0000 00c0 50ec d73f
00000120: 0000 0080 4469 dabf 0000 0080 1065 b6bf
00000130: 0000 0040 588f d4bf 0000 0000 0002 b63f
00000140: d7ce 0ade 2266 c83f 049e 0503 35fb cfbf
00000150: 1979 c94c 52dc 75bf e149 534b 0848 be3f
00000160: 6038 b103 6d26 d03f 235c 8dde 1314 d53f
00000170: 4d90 97d0 69b1 9f3f 62e5 05fc c7b4 b53f
00000180: bff1 ea34 32fe d7bf 54ed be39 65c8 c13f
00000190: 50f7 6b4f abfd d3bf 85aa bce8 2795 a7bf
000001a0: 485e 5ded f37a d83f ebe7 8138 00b0 8f3f
000001b0: 2cb3 c45e 1041 c23f 6563 d2f5 4658 d23f
000001c0: 5e96 5612 6992 c93f 2325 ca9d 49c8 913f
000001d0: a975 82d4 d03e d53f 8af0 175e 958d 953f
000001e0: 0000 0080 db48 c4bf 0000 0000 8570 ba3f
000001f0: 0000 0080 33b8 d6bf 0000 0080 8c16 d33f
00000200: 0000 0040 0587 c9bf 4113 1dd4 89ad d4bf
00000210: ded7 1a90 f070 cb3f 2c32 ee13 c036 db3f
00000220: 7d44 e8c6 2fe1 80bf 3e50 5f41 2038 d23f
00000230: 3d2e 3760 255d d6bf 38bc 66ea cc28 d03f
00000240: cb11 1ae5 3dd8 bcbf 69b4 c30f 1512 a03f
00000250: 112c 1249 9f0c b1bf 0000 00a0 ca04 d2bf
00000260: 0000 00c0 9904 d9bf 0000 0040 7efa d1bf
00000270: 0000 00c0 3056 d93f 0000 0000 884c c03f
00000280: 4fe5 baef 9f43 ca3f 1602 c4b6 9daf a0bf
00000290: fc9d c381 2c16 cd3f c7c8 39f9 1528 88bf
000002a0: 6ce7 605c 9e2e c23f 6d22 bed6 8e07 a3bf
000002b0: 2831 5594 e8cd d73f 372b a7f6 df96 c33f
000002c0: 562f e193 7cfa c13f cb79 5200 a038 d03f
000002d0: 0000 0080 2081 cd3f 0000 00c0 e0de c6bf
000002e0: 0000 0080 694c dbbf 0000 0000 2dd4 a73f
000002f0: 0000 0080 3d23 d2bf 6815 5ef8 2439 b83f
00000300: 5a77 405b 52b0 ac3f 4e73 6d13 eac0 bd3f
00000310: 0aa2 1b7e 4069 d13f cfe4 d97b 49e6 c8bf
00000320: ecd0 d4df 4a3d e03f dd07 368e 9895 d7bf
00000330: f0f1 e106 8883 d1bf cc86 fef5 23f5 ce3f
00000340: 3dc2 8394 73c4 90bf 0000 0080 5fb4 c93f
00000350: 0000 0000 d0d7 cdbf 0000 0000 ede2 aabf
00000360: 0000 0000 f143 c3bf 0000 0000 f327 d0bf
00000370: 0000 0040 1f51 db3f 0000 00e0 408f c9bf
00000380: 0000 0080 82d1 d3bf 0000 0040 af45 dabf
00000390: 0000 00a0 c946 dabf 4221 e64f 92e0 c83f
000003a0: 1a1f adcc 67f5 d33f 0de1 776c 7fd7 afbf
000003b0: 97e8 b49b 6429 debf 06aa ddfc 90a5 c53f
000003c0: 0000 0000 0fed bdbf 0000 00e0 bcb6 d8bf
000003d0: 0000 0080 9a77 d83f 0000 0080 1462 c13f
000003e0: 0000 0020 2546 cfbf 157c 3fef 710c cdbf
000003f0: b1d9 1255 6112 c13f a31a a085 917c d2bf
00000400: 5794 3388 6800 d23f 41ca 8fa9 c5be d1bf
00000410: 0000 0000 8ede d63f 0000 0080 e575 bdbf
00000420: 0000 0000 775c b53f 0000 00c0 c0b0 dbbf
00000430: 0000 0080 122a b3bf 0000 0000 a62e b0bf
00000440: 0000 0040 dd09 c0bf 0000 0000 b007 afbf
00000450: 0000 0080 bdad b2bf 0000 00c0 7025 d43f
00000460: d993 e8fd 1e6e ab3f ecf6 9bab 7bb0 cabf
00000470: 23fa 03a1 63c7 cf3f 0b4f 305a dd3c c33f
00000480: eeb1 a331 94ff d2bf 0000 0000 d9f1 c1bf
00000490: 0000 0080 8860 bfbf 0000 0080 6809 d63f
000004a0: 0000 0000 28ff 8bbf 0000 0000 9065 c13f
000004b0: 0000 0080 0ee1 c3bf 0000 0080 4070 cb3f
000004c0: 0000 0000 5e63 b8bf 0000 0000 15a0 c83f
000004d0: 0000 0000 8df7 a13f 0000 0080 81d9 c83f
000004e0: 0000 0000 a403 913f 0000 0080 f8bd d4bf
000004f0: 0000 00c0 8968 d9bf 0000 0040 97d0 d1bf
00000500: e073 488f 5604 b03f fce1 9781 55f6 c43f
00000510: f6a1 95fe bc44 cdbf a812 b0a7 8a33 cd3f
00000520: 754b fbf6 95f8 d43f e4ae 56a3 dc86 c23f
00000530: 57fe f74f 3afd d3bf 6995 99b8 a536 aa3f
00000540: d495 041b 9110 cc3f 9a44 bedc 278b d83f
00000550: 0000 0000 cb91 d1bf 0000 0000 f4f6 ad3f
00000560: 0000 0000 45a0 c0bf 0000 0000 0079 cb3f
00000570: 0000 0000 7c66 ac3f 0000 0020 3579 d8bf
00000580: 0000 0080 e0ea b4bf 0000 0000 08bf 9f3f
00000590: 0000 0000 5e09 d7bf 0000 0020 1624 d9bf
000005a0: 2d03 711a 0677 da3f 4378 27d3 a359 bfbf
000005b0: ed4b 3abb 1c03 d7bf ee3f 69f8 595f a73f
000005c0: 6b70 1796 9517 cd3f 45b3 016f 71c1 d53f
000005d0: e597 5e87 164f b53f d0c2 23b2 247e ce3f
000005e0: 528e efa2 7985 d13f 9291 c070 6edf d83f
000005f0: d091 ab93 ba93 d03f e79f 5092 2e35 c1bf
00000600: 5a2f cca8 715d d1bf 53cc 3e20 8e8b c9bf
00000610: 0408 e5a7 b368 bcbf c82a d42e 87e0 d2bf
00000620: 5449 1d4e 6e34 d2bf 354b 5e73 4763 e03f
00000630: 24c1 bfe9 9df9 c0bf a3ed f569 91fe d43f
00000640: b69b 4eaa 9b49 dd3f 7774 f900 9ed7 b5bf
00000650: 7047 4191 8a8a d7bf 9cd8 0273 8774 da3f
00000660: 2ca4 2b2b 592f afbf 0000 0000 17fe b03f
00000670: 0000 0000 8544 c43f 0000 0080 2285 c4bf
00000680: 0000 0080 bf61 bdbf 0000 0060 0cff d7bf
00000690: 0000 0000 dcd4 983f 0000 0040 5d41 c0bf
000006a0: 0000 00c0 9d6e cdbf 0000 0000 08a9 c53f
000006b0: 0000 0000 46ba b4bf 3ef0 8574 a181 c13f
000006c0: 8306 ecd3 f849 97bf 091b 9ba5 2a1a dbbf
000006d0: a55f 1496 ac56 cb3f 5f4f f55f dcb7 c1bf
000006e0: fea1 b54e 3a53 b9bf 6aa1 797a 7654 dd3f
000006f0: f4a6 cb0d 4400 db3f cb85 4e92 14d7 d33f
00000700: 0839 09e0 efe1 d4bf 8037 e05f 95e8 dabf
00000710: b328 fd02 5afa a03f 6e92 04ff 0449 d1bf
00000720: f335 e911 4978 db3f 0154 ba83 3cfa d43f
00000730: 88b9 7d82 cc83 cb3f 6d4c 8c5e 7973 cfbf
00000740: 5ef3 f244 4e5b 613f b31d 46af 0eec d13f
00000750: 1bb0 f27b ab42 c43f f103 2cc5 982a ba3f
00000760: dbd6 1d1d 1f60 d53f d296 f4aa d756 b93f
00000770: 4047 bc23 1190 d83f 120f 1efd 80c9 b1bf
00000780: 4314 6e4d 177e 9c3f c2fd bf1b f158 d13f
00000790: 9258 3b86 537f d83f f6cd 2b0e d306 c83f
000007a0: 675e e686 aa69 5d3f 0000 0000 8507 b23f
000007b0: 0000 0000 4f03 b9bf 0000 0000 8cdd 9bbf
000007c0: 0000 0080 ed0c cd3f 0000 0000 6803 89bf
000007d0: 2b7e 30ad 3645 ce3f 6c7c bdc4 3bb7 d0bf
000007e0: e0f7 e7c4 efbd d0bf 1ada 1334 80f2 b73f
000007f0: 35dd 9f61 855f cabf 0c4c 7478 e2ab c33f

fc1.bias f8 [64]
-0.2571194793444306 0.16295605897903442 0.2729288193567763 0.06451404094696045 -0.38506436347961426 -0.162429777531838 -0.20135031908007273 -0.2740658223628998
-0.4110914134378161 -0.033366058184894465 0.1605224883171924 -0.07692933113851537 -0.20395055413246155 -0.25649549663940996 -0.09055321538318331 0.21260493993759155
-0.16540256106666043 -0.042047836258800306 -0.22168532013893127 -0.23422923263733805 0.0568115266828011 0.05535346269607544 0.04343867301940918 -0.08879180329019376
-0.2567555606365204 0.27436700676204295 -0.37204283475875854 -0.24961154162883759 -0.2536573482745485 -0.3390759229660034 -0.32782331109046936 -0.1563149392604828
-0.1413911431898579 -0.44930302809726314 -0.13466614484786987 -0.004641890525817871 -0.048794263644584 0.26225407099631654 -0.11126068511477448 0.1242719899619676
-0.04144999280627765 -0.2067943662405014 0.03128430247306824 0.317130645500743 0.2928979257028239 0.09763584324362816 -0.4856666864439831 -0.016336124463511327
-0.12095246256738616 -0.44391533732414246 0.5183053271681611 0.43389637931501557 0.07768015865732268 -0.26109030842781067 -0.3221997916698456 0.05373257398605347
-0.2703000675740065 0.08499645971504886 -0.2890077829360962 -0.40843395812584987 -0.2622549533843994 -0.20635689196048707 -0.2367328036139445 0.4024335774553556
00000000: 66ba bc42 a574 d0bf 0000 0080 bedb c43f
00000010: dd7c 5170 aa77 d13f 0000 0000 fe83 b03f
00000020: 0000 0000 e5a4 d8bf 91a9 32bb 7fca c4bf
00000030: 5079 bee5 d8c5 c9bf 0000 0060 4b8a d1bf
00000040: fc6f 185c 524f dabf 20af 6621 5b15 a1bf
00000050: 2425 cc3a 008c c43f f5d3 5701 a4b1 b3bf
00000060: 0000 0040 0d1b cabf 84cd 6816 6c6a d0bf
00000070: 8a50 9eda 7e2e b7bf 0000 0080 a336 cb3f
00000080: 8d5c 3a3f e92b c5bf 96be 3243 4b87 a5bf
00000090: 0000 0040 2f60 ccbf c7e6 f836 39fb cdbf
000000a0: 81e4 4682 6616 ad3f 0000 0000 4a57 ac3f
000000b0: 0000 0000 983d a63f 70c4 4843 0fbb b6bf
000000c0: 0000 00e0 ae6e d0bf 9c3d 49a2 3a8f d13f
000000d0: 0000 00c0 8ccf d7bf 0000 0060 45f3 cfbf
000000e0: 53ac ce07 ec3b d0bf 0000 0080 6bb3 d5bf
000000f0: 0000 00a0 0efb d4bf 0000 00c0 2002 c4bf
00000100: 24e5 f8df 1a19 c2bf 17fa ea7c 61c1 dcbf
00000110: 0000 0080 bd3c c1bf 0000 0000 6003 73bf
00000120: c8f9 2bcd 8ffb a8bf bb02 8b4c c5c8 d03f
00000130: c704 e68b 947b bcbf b50b b204 4ad0 bf3f
00000140: b877 0bf7 ee38 a5bf 0000 00e0 3c78 cabf
00000150: 0000 0000 7f04 a03f 3c0b bf55 de4b d43f
00000160: 746e fdf0 d6be d23f 7f15 a6a1 a9fe b83f
00000170: 6726 c2b9 2915 dfbf eab4 41c1 6aba 90bf
00000180: 83fb 1897 bdf6 bebf 0000 00e0 1b69 dcbf
00000190: 63f4 b00d f595 e03f feb0 c051 f5c4 db3f
000001a0: f735 fbcc d8e2 b33f 0000 0020 b4b5 d0bf
000001b0: 0000 00e0 eb9e d4bf 0000 0000 d682 ab3f
000001c0: 8e90 95a7 984c d1bf 977d c0f6 53c2 b53f
000001d0: 0000 0080 1a7f d2bf a97c 2e2f c823 dabf
000001e0: 0000 0000 c9c8 d0bf ba22 2313 e769 cabf
000001f0: aac5 b4b0 424d cebf 0cea 7ec3 78c1 d93f

fc2.weight f8 [128, 64]
0.16740972181026448 0.04848848283290863 -0.2182531702451367 0.08302196860313416 -0.07802818715572357 0.0014493152038177433 -0.09258745485374072 0.08403293788433075
-0.009184127968838449 -0.09426219983563275 0.21942375702474728 -0.0009070187778408668 0.045676231384277344 0.15446003216297208 0.059508398779358686 -0.11497291922569275
0.07652948908566191 -0.04538328289895051 -0.10099020600318909 0.07760305579304387 -0.2995040361329644 0.12457859516143799 -0.06810134649276733 -0.07466696669154665
0.05323682725429535 -0.06919314647945912 -0.11731952428817749 0.11162075400352478 -0.03972448313230895 0.12082524597644806 -0.025568649172782898 0.032455697655677795
0.09303754375328115 0.07415825070949225 0.06213757395744324 0.0795111209154129 -0.037633021134938834 0.14237336363211298 -0.06990690274524022 0.0999027793477947
-0.170874006604559 -0.09662874042987823 -0.055537447333335876 -0.12630101701278687 0.13920715167249603 0.20227499359389914 0.10436313301451813 0.14984427082464427
-0.035943844363729445 -0.1192178875207901 -0.1415805067601712 0.09404196425909024 0.13945618960647913 -0.0378129780292511 0.04424102604389191 -0.07410448789596558
-0.03735330138081118 0.251409365148621 -0.06127724051475525 0.20269658955108413 0.021099820733070374 -0.036838727627082485 0.12964315451992423 -0.08951658802140669
0.1466934863900716 0.04754680395126343 -0.050720329139691954 -0.11506190896034241 0.09858828783035278 0.15823993321855012 0.07529729407104044 -0.03155797719955444
-0.12210297821808179 0.14633262525509516 0.1180830614941089 0.14632844821185992 -0.07030391693115234 0.09240076146266683 -0.0029938765652444 -0.05682685971260071
0.1226042809923615 0.12486214267436599 0.017434626817703247 0.1498294092491292 -0.2887503296220539 0.12297642230987549 -0.11962990462779999 0.05138214955110746
0.048812225461006165 0.0012926034693132135 -0.07497991621494293 0.012364953756332397 -0.12471082700025345 -0.10351784527301788 0.10684394836425781 0.08454196155071259
0.06678262211687655 0.008296232344491991 -0.0659954845905304 0.06951664388179779 -0.1829154716014762 -0.007392836839117601 -0.05374772855576977 0.06459823812543362
-0.19339584082762482 -0.02407267689704895 0.0528220534324646 -0.10009461998494261 0.1417200578819656 0.1457493426395944 -0.07243049907176631 0.017180485560034944
0.10031507383431507 -0.02115313708782196 -0.2803284990619711 -0.012608872253095023 0.09899131798938397 -0.0010669082403182983 0.04069015383720398 -0.03737284243106842
0.07345850800138307 0.3611909794899093 0.024788275361061096 0.023325892431195892 0.07572837173938751 -0.035816134720039264 -0.021499983181460843 -0.13749075845903716
0.05128578841686249 0.11469148099422455 0.05626752972602844 -0.020994439721107483 -0.04542633891105652 0.024455711245536804 0.023697972297668457 -0.030291587114334106
0.11601851880550385 0.11583957076072693 0.014417141675949097 -0.036647602915763855 0.12222687900066376 0.0925413966178894 0.010417655110359192 0.11615128815174103
-0.09335191547870636 0.0029187947511672974 0.059048011898994446 0.009012162685394287 -0.1069951206445694 0.0514325350522995 0.010655850172042847 0.04085114598274231
-0.054498255252838135 -0.040580183267593384 -0.07728274166584015 -0.034776076674461365 0.00675007700920105 0.0437106192111969 -0.026751816272735596 -0.006144657731056213
0.00866323709487915 -0.020519152283668518 0.08007848262786865 -0.015260085463523865 0.08058206737041473 -0.06079699099063873 0.0950978696346283 0.049122899770736694
0.023044317960739136 0.013670369982719421 0.020310774445533752 0.10971090197563171 0.1072588562965393 0.11532142758369446 -0.05211260914802551 0.1025560200214386
-0.10017463564872742 -0.11907222867012024 0.10334251821041107 -0.08588787913322449 -0.044569388031959534 -0.11070370674133301 0.0897010862827301 -0.029435500502586365
-0.038821861147880554 0.008426100015640259 -0.0961381047964096 0.07351963222026825 0.0771975964307785 -0.07047675549983978 0.01842452585697174 -0.0614202618598938
-0.10520830750465393 0.01570376753807068 -0.07842087745666504 0.027011752128601074 -0.03354214131832123 -0.06039923429489136 0.06900322437286377 -0.08737963438034058
-0.01917882263660431 -0.10362283885478973 0.01719948649406433 0.10872858762741089 0.006345480680465698 -0.10763430595397949 -0.07922659814357758 -0.0721343457698822
0.07124049961566925 0.07701495289802551 -0.05910086631774902 0.03623458743095398 0.002151176333427429 0.004817202687263489 -0.07734706997871399 0.1110992580652237
0.022838890552520752 0.07761023938655853 -0.04409131407737732 0.04642479121685028 -0.08146217465400696 0.09533855319023132 0.07211227715015411 -0.009176477789878845
-0.07471226155757904 -0.09257663786411285 0.004039481282234192 -0.052190497517585754 0.017168685793876648 -0.1005190759897232 0.10775859653949738 -0.10661697387695312
0.0034256279468536377 -0.06597594916820526 -0.04985387623310089 0.0818420946598053 -0.08196958899497986 -0.08751511573791504 -0.0676000565290451 -0.09712125360965729
-0.008934259414672852 -0.0310785174369812 0.030491948127746582 0.059211328625679016 0.06194591522216797 0.10446573793888092 0.0017051398754119873 0.04514715075492859
0.08282795548439026 0.031386032700538635 -0.024935752153396606 -0.02411876618862152 -0.006971403956413269 0.036908313632011414 -0.09980732202529907 -0.10238665342330933
00000000: cc90 1a88 ae6d c53f 0000 0080 7bd3 a83f
00000010: 59c0 394a b8ef cbbf 0000 0080 ed40 b53f
00000020: 0000 00c0 a7f9 b3bf ef3f ba59 debe 573f
00000030: 95df 9dba cfb3 b7bf 0000 00c0 2e83 b53f
00000040: e5c3 25ca 20cf 82bf ee05 8b49 9121 b8bf
00000050: b180 31e2 1316 cc3f 5d71 6cfe 9fb8 4dbf
00000060: 0000 0000 e062 a73f dfeb 56a9 58c5 c33f
00000070: d578 3085 e277 ae3f 0000 0080 dd6e bdbf
00000080: 1771 cdc4 6f97 b33f 6a16 ac47 7a3c a7bf
00000090: 0000 0080 7eda b9bf c366 b33a cbdd b33f
000000a0: 6882 0dfa 122b d3bf 0000 0000 62e4 bf3f
000000b0: 0000 0000 176f b1bf 6c1e 08d4 5f1d b3bf
000000c0: 0000 0080 db41 ab3f c492 3c5d a4b6 b1bf
000000d0: 0000 0000 a708 bebf 0000 0080 2d93 bc3f
000000e0: 05bb ce77 c456 a4bf 0000 0040 67ee be3f
000000f0: 0000 0000 ab2e 9abf 0000 0080 089e a03f
00000100: 7373 b8f7 4ed1 b73f 529d 86fd 08fc b23f
00000110: 0000 0000 7fd0 af3f 0000 0040 d75a b43f
00000120: 1169 0ca6 a244 a3bf 618b 4f56 4a39 c23f
00000130: 9632 0e35 6be5 b1bf 520a 1482 3a93 b93f
00000140: 5d31 0d0f 33df c5bf 0000 0040 a9bc b8bf
00000150: 0000 0080 676f acbf 2dbf c2b8 a12a c0bf
00000160: 4abe e639 8ad1 c13f 6d67 24a1 25e4 c93f
00000170: 9698 34d3 8ab7 ba3f fda7 57d9 182e c33f
00000180: 61c8 1148 3b67 a2bf 0000 0040 1085 bebf
00000190: 089d 245f 4f1f c2bf c5c3 f158 2213 b83f
000001a0: 45d4 ca4e b3d9 c13f 0000 0000 395c a3bf
000001b0: 0000 0080 c2a6 a63f 0000 0000 83f8 b2bf
000001c0: e20b a8cf f81f a3bf 3a2c 4e4e 1717 d03f
000001d0: 0000 0000 bb5f afbf 67fa 903b f6f1 c93f
000001e0: 0000 0000 319b 953f 7ce6 c494 86dc a2bf
000001f0: d31b 689a 2598 c03f d65e 0022 8fea b6bf
00000200: 2b71 4a27 dac6 c23f 0000 0000 0e58 a83f
00000210: 336f cbd5 03f8 a9bf 0000 0080 b274 bdbf
00000220: 0000 0000 153d b93f 9425 0cc5 3441 c43f
00000230: 862d 83f7 ae46 b33f 0000 0000 5e28 a0bf
00000240: 4fdc 300a 2442 bfbf 887b e707 07bb c23f
00000250: 4329 5407 b13a be3f daad c5fd e3ba c23f
00000260: 0000 0000 70ff b1bf 078f 9b88 93a7 b73f
00000270: e197 f33d 9d86 68bf 0000 0000 6918 adbf
00000280: ad37 3681 fe62 bf3f c67d 4b23 f7f6 bf3f
00000290: 0000 0000 62da 913f fe1c 5a2e 9c2d c33f
000002a0: 77e6 9ba9 e27a d2bf 0000 0000 627b bf3f
000002b0: 0000 00c0 10a0 bebf d522 d7d7 c24e aa3f
000002c0: 0000 0080 eafd a83f 3243 2768 922d 553f
000002d0: 0000 0040 e231 b3bf 0000 0000 cc52 893f
000002e0: fd56 6c7b 0ced bfbf 0000 0040 2580 babf
000002f0: 0000 0000 205a bb3f 0000 00c0 8aa4 b53f
00000300: 5ee0 ee79 aa18 b13f 9800 cc74 9dfd 803f
00000310: 0000 0080 14e5 b0bf 0000 00c0 d7cb b13f
00000320: 16fa 3a30 c669 c7bf e7c4 2d87 f347 7ebf
00000330: ea3b c380 d284 abbf d7c1 2098 8289 b03f
00000340: b7be c4e5 31c1 c8bf 0000 0000 82a6 98bf
00000350: 0000 0000 7e0b ab3f af43 570f cd9f b9bf
00000360: 8b27 e502 e223 c23f a178 061a eaa7 c23f
00000370: 9d06 bf20 ce8a b2bf 6462 70de c297 913f
00000380: 9209 6aa9 3fae b93f 0000 0000 2ba9 95bf
00000390: 5ee8 e6f1 e6f0 d1bf 775c bb2f aed2 89bf
000003a0: ff32 5ab9 7e57 b93f 0000 0000 f07a 51bf
000003b0: 0000 0000 57d5 a43f 0000 0080 8822 a3bf
000003c0: d698 7a41 2dce b23f 503d 21c5 c01d d73f
000003d0: 0000 0000 1962 993f 8668 9124 bee2 973f
000003e0: 0000 0040 ef62 b33f 8a59 950e 7e56 a2bf
000003f0: bf04 8472 1704 96bf f5b9 8a13 4c99 c1bf
00000400: 0000 0080 2142 aa3f 0000 00c0 6b5c bd3f
00000410: 0000 0000 19cf ac3f 0000 0000 917f 95bf
00000420: 0000 0000 1f42 a7bf 0000 0000 eb0a 993f
00000430: 0000 0000 4844 983f 0000 0000 c204 9fbf
00000440: 0000 00c0 63b3 bd3f 0000 0080 a9a7 bd3f
00000450: 0000 0000 bc86 8d3f 0000 0080 79c3 a2bf
00000460: 0000 00c0 424a bf3f 0000 0000 cbb0 b73f
00000470: 0000 0000 da55 853f 0000 0040 17bc bd3f
00000480: 0000 0040 e9e5 b7bf 0000 0000 28e9 673f
00000490: 0000 0080 8a3b ae3f 0000 0000 f874 823f
000004a0: 0000 0040 0864 bbbf 0000 0080 5d55 aa3f
000004b0: 0000 0000 bcd2 853f 0000 0000 71ea a43f
000004c0: 0000 0000 32e7 abbf 0000 0000 edc6 a4bf
000004d0: 0000 0040 cdc8 b3bf 0000 0080 2bce a1bf
000004e0: 0000 0000 f8a5 7b3f 0000 0000 3d61 a63f
000004f0: 0000 0000 d464 9bbf 0000 0000 242b 79bf
00000500: 0000 0000 08be 813f 0000 0000 f902 95bf
00000510: 0000 0000 0680 b43f 0000 0000 ae40 8fbf
00000520: 0000 00c0 06a1 b43f 0000 0080 c820 afbf
00000530: 0000 0080 5558 b83f 0000 0000 a326 a93f
00000540: 0000 0000 ee98 973f 0000 0000 36ff 8b3f
00000550: 0000 0000 59cc 943f 0000 0080 0316 bc3f
00000560: 0000 0000 5175 bb3f 0000 0080 b485 bd3f
00000570: 0000 0000 81ae aabf 0000 0080 1c41 ba3f
00000580: 0000 0080 0ba5 b9bf 0000 0080 847b bebf
00000590: 0000 00c0 a774 ba3f 0000 0080 bffc b5bf
000005a0: 0000 0080 ccd1 a6bf 0000 0000 1457 bcbf
000005b0: 0000 0080 a6f6 b63f 0000 0000 5724 9ebf
000005c0: 0000 0080 75e0 a3bf 0000 0000 b441 813f
000005d0: 0000 00c0 819c b8bf 0000 00c0 2ed2 b23f
000005e0: 0000 00c0 38c3 b33f 0000 00c0 c30a b2bf
000005f0: 0000 0000 e1dd 923f 0000 0000 7a72 afbf
00000600: 0000 0080 eeee babf 0000 0000 a614 903f
00000610: 0000 0000 6413 b4bf 0000 0000 f8a8 9b3f
00000620: 0000 0080 6f2c a1bf 0000 0000 a6ec aebf
00000630: 0000 0000 32aa b13f 0000 0000 835e b6bf
00000640: 0000 0000 9da3 93bf 0000 00c0 0687 babf
00000650: 0000 0000 be9c 913f 0000 0000 a3d5 bb3f
00000660: 0000 0000 b8fd 793f 0000 0000 ec8d bbbf
00000670: 0000 00c0 3148 b4bf 0000 0080 6577 b2bf
00000680: 0000 0040 d13c b23f 0000 0080 40b7 b33f
00000690: 0000 0000 7842 aebf 0000 0000 578d a23f
000006a0: 0000 0000 589f 613f 0000 0000 34bb 733f
000006b0: 0000 0080 04cd b3bf 0000 0040 0071 bc3f
000006c0: 0000 0000 1463 973f 0000 00c0 43de b33f
000006d0: 0000 0000 2393 a6bf 0000 0080 fdc4 a73f
000006e0: 0000 0080 b4da b4bf 0000 0080 1b68 b83f
000006f0: 0000 0040 f375 b23f 0000 0000 1ecb 82bf
00000700: 0000 00c0 5720 b3bf 0000 0040 1ab3 b7bf
00000710: 0000 0000 b48b 703f 0000 0080 b6b8 aabf
00000720: 0000 0000 ab94 913f 0000 0040 9ebb b9bf
00000730: 0000 0040 1196 bb3f 0000 0000 404b bbbf
00000740: 0000 0000 1010 6c3f 0000 00c0 cce3 b0bf
00000750: 0000 0080 7286 a9bf 0000 0080 9af3 b43f
00000760: 0000 0080 f5fb b4bf 0000 0000 6467 b6bf
00000770: 0000 00c0 3c4e b1bf 0000 0040 f0dc b8bf
00000780: 0000 0000 204c 82bf 0000 0000 0cd3 9fbf
00000790: 0000 0000 4839 9f3f 0000 0080 f250 ae3f
000007a0: 0000 0000 60b7 af3f 0000 0040 44be ba3f
000007b0: 0000 0000 e0ef 5b3f 0000 0000 871d a73f
000007c0: 0000 0080 3634 b53f 0000 0080 d411 a03f
000007d0: 0000 0000 c288 99bf 0000 0000 97b2 98bf
000007e0: 0000 0000 0c8e 7cbf 0000 0080 a5e5 a23f
000007f0: 0000 0000 f98c b9bf 0000 0000 0336 babf

fc2.bias f8 [128]
-0.01850156788968139 0.05425012164199393 -0.0954146683216095 0.013235166668891907 -0.008082239770157928 0.031914175820687514 -0.06638862192630768 -0.044246748089790344
-0.07273711264133453 -0.04917615854480266 -0.015127554535865784 -0.04201489503887077 0.05281943098445569 -0.14583898096453574 0.04175131917334632 -0.09851583626771912
0.12643744069694515 -0.16775247978039567 0.04348445231657692 -0.1099620908498764 -0.04715263843536377 0.08984194184566213 -0.022088027426977627 0.04804271459579468
0.15057438823957478 -0.0333428829908371 -0.06570064205926829 -0.010389641313683716 0.07426250257965705 -0.13921249104839217 -0.03405315033639968 0.02173234589499968
-0.057813555002212524 -0.03076120273525236 0.05280378294260284 -0.004457312817221227 -0.05535797334510666 -0.07416805624961853 -0.03425891697406769 -0.03704369068145752
-0.12263947859655669 -0.15716502697990142 0.1311388997759481 0.03277561068534851 -0.09470455348491669 0.026747434092712883 -0.16354879190322885 -0.019544037922567765
-0.09176316085420418 0.1428346317608811 -0.1164550632238388 -0.01989637315273285 0.029930122665888844 -0.036581966902688466 -0.043022572663493804 0.0105724036693573
-0.040271608899971896 -0.046863749623298645 -0.01932463049888611 -0.05828937888145447 -0.0632475886244022 -0.07057252526283264 -0.1020496943413897 -0.059964388608932495
-0.04321661591529846 0.14146482482744632 -0.023717961529040175 0.14612518063987556 0.052196017488875465 0.04849285121227451 0.0998936745441541 -0.09308348629608465
-0.05709615349769592 -0.025007474345435234 0.0977376501896829 0.06251930847118067 0.09651068899322313 -0.048286423087120056 0.11776645931404207 -0.0009809881448745728
-0.002176821231842041 0.039473116397857666 -0.08504826388217368 -0.1399351647362276 -0.10925917327404022 0.01880833951457709 -0.10189193522012407 0.042839131359554423
0.020173796484532575 0.11157701909542084 -0.13919684468701277 -0.17216428782817014 0.012959107756614685 -0.052070319292616664 0.05895312144631962 -0.06824447008952042
0.10483737822040262 -0.09230977296829224 -0.09778000314013771 -0.08486552794230501 0.00162893486638804 -0.05111659191034552 0.032649599376671334 0.023022540584709726
0.011803425789741775 0.12836272212459568 -0.013861920287477703 -0.17308506256232875 0.01268632709980011 0.0723345662068132 0.02332738391340537 0.13787398583308957
-0.039987436451680694 -0.06111308932304382 -0.07960967866159269 -0.013191959723200503 -0.06787319080319336 0.04890817066203566 -0.01204010899340521 -0.11460261172235767
0.1095498676901702 -0.14628248990401108 0.09267913127941155 0.09212315082550049 0.08286171740918545 0.1181835962892165 0.06317985722677215 -0.024409249424934387
00000000: c32a 0b34 13f2 92bf fe44 8304 acc6 ab3f
00000010: 0000 0080 186d b8bf 0000 0000 0a1b 8b3f
00000020: 2019 eedb 6b8d 80bf 9977 db0a 0e57 a03f
00000030: 0000 0040 d8fe b0bf 0000 0080 82a7 a6bf
00000040: 0000 0040 e69e b2bf b6bb 6211 9e2d a9bf
00000050: 0000 0000 32fb 8ebf 9d0d 46f0 f982 a5bf
00000060: 89d7 5701 260b ab3f 40c1 dc0a daaa c2bf
00000070: a429 d4cc 6d60 a53f 0a6f e876 5538 b9bf
00000080: cb43 6420 1a2f c03f d566 3dcb e978 c5bf
00000090: 3d18 2b19 9843 a63f 0000 00c0 7926 bcbf
000000a0: 0000 0000 6424 a8bf dc47 09aa e1ff b63f
000000b0: 6f63 ba6d 3e9e 96bf 0000 0000 0e99 a83f
000000c0: cb55 8d84 0546 c33f 0000 0080 5112 a1bf
000000d0: b083 f8dc c1d1 b0bf 8c89 460d 2a47 85bf
000000e0: 0014 e60b de02 b33f 4caf 1f04 b7d1 c1bf
000000f0: 238d 0a1e 6a6f a1bf d29b 890b 0141 963f
00000100: 0000 0000 bd99 adbf b423 ef5e dd7f 9fbf
00000110: 56e7 aff1 1809 ab3f 41b7 72cc d441 72bf
00000120: 071e 2e5a e157 acbf 0000 0080 adfc b2bf
00000130: 0000 0080 628a a1bf 0000 0000 64f7 a2bf
00000140: ca4c c505 4d65 bfbf b010 7acd fb1d c4bf
00000150: 05b4 e2d2 28c9 c03f 0000 0000 f7c7 a03f
00000160: 0000 00c0 8e3e b8bf a970 b8ea ad63 9b3f
00000170: a228 43b4 2aef c4bf c23b d62e 5a03 94bf
00000180: 4dad d85e ca7d b7bf 9118 13bc 6748 c23f
00000190: 0000 00c0 ffcf bdbf 0000 0000 b75f 94bf
000001a0: 8fa0 0f88 00a6 9e3f 73d8 f01e dfba a2bf
000001b0: d9b2 28fd 0d07 a6bf 0000 0000 fca6 853f
000001c0: 7988 5df6 7a9e a4bf 0000 0080 86fe a7bf
000001d0: 0000 0000 d6c9 93bf 0000 0000 1bd8 adbf
000001e0: c352 b174 fe30 b0bf 0000 0080 0a11 b2bf
000001f0: 3b58 c3c3 ed1f babf 0000 0000 a7b3 aebf
00000200: 0000 0000 7d20 a6bf 3e89 15f6 841b c23f
00000210: 464b 6174 8549 98bf b034 fcdb 3ab4 c23f
00000220: 6e3c 31b8 6fb9 aa3f 8cd0 1714 0ed4 a83f
00000230: a091 3ec1 a192 b93f 1879 70c1 51d4 b7bf
00000240: 0000 0000 b53b adbf d776 e031 8f9b 99bf
00000250: 3d0f 27ab 5505 b93f e693 40f1 4301 b03f
00000260: d8b8 f0ac ecb4 b83f 0000 0080 ffb8 a8bf
00000270: 69cc 5153 f125 be3f 0000 0000 9012 50bf
00000280: 0000 0000 20d5 61bf 0000 0000 d235 a43f
00000290: 909c f417 b9c5 b5bf bd1d 0d3e 65e9 c1bf
000002a0: 0000 00c0 68f8 bbbf cabe 6d4c 7e42 933f
000002b0: 1820 7f01 9715 babf a14e 5bb8 02ef a53f
000002c0: 4885 8c90 70a8 943f 0000 00c0 4f90 bc3f
000002d0: dc8c d1c3 33d1 c1bf 6f6c e1b8 7a09 c6bf
000002e0: 0000 0000 4e8a 8a3f 657b e8fc f5a8 aabf
000002f0: 94d6 3781 1a2f ae3f d2d6 2a37 7878 b1bf
00000300: 10e2 da56 9fd6 ba3f 0000 0000 9da1 b7bf
00000310: 228e b03b 1c08 b9bf d4e9 114b bfb9 b5bf
00000320: f1ef 9e7e 3fb0 5a3f 3969 1335 f42b aabf
00000330: a0c1 19c3 72b7 a03f 3655 878b 3893 973f
00000340: 2e4c fbfd 642c 883f 7d7c c68e 306e c03f
00000350: 0d16 5b72 a363 8cbf f6ce 90bd a627 c6bf
00000360: 0000 0000 4afb 893f 2686 3aa4 8484 b23f
00000370: 3b89 093c 22e3 973f 1aa7 0fd2 daa5 c13f
00000380: 5227 9fb7 3b79 a4bf 0000 0000 374a afbf
00000390: 9cee 4bc6 4c61 b4bf 307e a6dc 6204 8bbf
000003a0: c35e c62e 2360 b1bf 8e52 00e3 7d0a a93f
000003b0: ee83 ef12 7ca8 88bf fa3a 62c5 9856 bdbf
000003c0: 1aaa 02cb 750b bc3f 25be 0e77 62b9 c2bf
000003d0: 32e4 ddcd d1b9 b73f 0000 0000 6295 b73f
000003e0: 6fe3 5cee 6c36 b53f c960 fcb8 4741 be3f
000003f0: 4310 8e1c 8e2c b03f 0000 0000 bdfe 98bf

fc3.weight f8 [64, 128]
0.09181746503497691 -0.02803489383054681 0.06604767590761185 0.01786002516746521 0.006259461003981621 0.08699924504860547 0.0023756399750709534 -0.0663505494594574
0.050822071731090546 0.009167216718196869 -0.07804253697395325 0.058533452451229095 -0.018857407434965792 -0.058010730892419815 0.011431827175312416 0.024836033582687378
-0.02425846423007563 0.008677065372467041 -0.02501729130744934 -0.0874214842915535 -0.08062593638896942 -0.05243126138926585 -0.03006502240896225 0.0031182467937469482
-0.00023773826006075367 -0.06485223025083542 0.029293134808540344 0.06011860817670822 -0.06211745004462435 0.040139056742191315 0.06365952640771866 0.014709025621414185
-0.032623935490846634 0.008565522730350494 -0.01448085904121399 -0.06644805520772934 -0.02327858656644821 -0.03797738626599312 -0.02580568939447403 -0.004791088402271271
0.01666373759508133 0.03995669633150101 0.09109483520315635 0.04126507788896561 0.01539059728384018 -0.010422095656394958 -0.03929447382688522 -0.06521560996770859
-0.03109651431441307 0.04888502462163872 0.05422230809926987 -0.027247272431850433 0.07713485793072693 0.013356313109397888 0.08319676667451859 0.032581329345703125
0.061544276773929596 -0.021692350506782532 -0.08063434064388275 -0.04421988129615784 0.008777156472206116 0.03653109818696976 -0.04375115782022476 -0.03575069457292557
0.040060438215732574 -0.004823139910660166 -0.024308308959007263 -0.031075166897976063 -0.022208161211500745 -0.048045458193400156 0.08126384943749675 0.04561062902212143
0.07363083213567734 -0.009403827512927414 0.028224441427577497 -0.05984385684132576 0.059687159955501556 -0.00019861012697219849 0.011082384970647407 -0.06728526949882507
-0.044808611273765564 -0.017688095569610596 -0.06433650851249695 0.06891421228647232 0.03760550171136856 -0.040938835591077805 -0.011077702045440674 -0.06914078326253853
-0.07053965584392083 -0.04349614679813385 -0.00960637629032135 -0.05857204273343086 -0.04578039050102234 -0.08630538731813431 -0.0072683504352596354 -0.05570542439818382
-0.0040682097838387575 0.08302933722734451 -0.053229447454214096 0.05552021414041519 -0.03526216000318527 -0.03483096150531034 0.029797233641147614 -0.08701277524232864
-0.04865783080458641 0.04255792571695793 0.05172955244779587 -0.010617777705192566 -0.013328500092029572 -0.07793510630695845 -0.042970966547727585 0.00942072038258821
0.09383390765085077 0.060747407376766205 0.07868423727797504 -0.02083909511566162 0.06186116486787796 -0.0851067528128624 -0.017286047339439392 -0.029787201434373856
0.07271235957627545 0.08647087961435318 -0.01569379362787843 -0.08270173519849777 -0.052846801079523074 -0.010492754749182095 -0.007705710454928674 -0.061476774513721466
0.006749941906735848 -0.06554108475337783 -0.07332978397607803 -0.0475492924451828 -0.14354852118156466 -0.11093082278070521 0.003832809627056122 -0.06956294924020767
-0.039431314915418625 0.032485069477010124 0.043293945491313934 0.03848017007112503 0.00010240831141201246 0.025248020811923913 -0.07805352423833423 0.02184099698958122
0.004930443558264105 0.02224999911161874 0.1309721687202334 -0.033302269876003265 0.025907032191753387 -0.07317719830828402 0.10298798917188368 0.0053833648562431335
-0.05232834516033464 -0.011640369892120361 -0.0072493404150009155 0.050192239779643315 -0.06141626949310478 0.061441946848821864 -0.027209290289948198 0.011001953205753773
0.08470744639635086 -0.003236153782178712 0.04021375003704091 0.13558110512606783 0.03892249857509632 -0.05992360785603523 0.08348754793405533 -0.07899124175310135
-0.14144607937443632 0.02986998647979666 0.033813187348443095 0.08095332235097885 -0.06944087147712708 0.0636171863852799 0.052102909504123524 0.0473887254257361
0.03394024259678747 -0.10276756422803064 0.04437144845724106 0.0033841729164123535 0.05342747646957746 0.006288905232592018 0.0503052673425941 0.06298369914293289
-0.004976099248306575 0.04826918989419937 -0.022922120988368988 0.004500672221183777 0.04102056723882881 0.0030692368745803833 0.14365637489834154 -0.05488453060388565
0.08532261103391647 -0.061528164155980794 0.02884924033784385 -0.03385783565912804 0.049885922023494254 -0.02368211222090739 -0.004157230257987976 0.11169828315673029
0.06810916215181351 0.025565792364136093 0.017842146392858742 0.08451799599424076 -0.044288019006960194 -0.048373930156230927 0.004596359804163944 -0.03792813792824745
0.05243251472711563 0.06026030331850052 0.09559719710163832 0.016671916056586415 0.034240394830703735 0.1239049988290219 0.07236844731835783 0.09420322340606561
0.020369767967681973 0.04430093616247177 0.09456244829000131 0.0982747366788001 0.01743505150079727 -0.0021278362439475797 -0.08149827400145314 0.007592320459100821
-0.0698915723486745 0.08324842900037766 0.026287616432267524 -0.010635358342589019 0.11649180136216435 0.0185517401142607 0.04688435272597464 0.056829106995494115
-0.013958790229936157 -0.02925409681210792 0.016099318791073583 0.1335438412539839 0.008022651076316833 -0.08044155860560852 0.09848785632034379 -0.025804175360477966
0.059646731403603874 -0.023695193231105804 -0.12241308683389455 0.08371477574110031 -0.07146970174186854 0.10848331864551386 0.036592356860637665 0.08545158152568295
-0.020918258969766537 -0.06053120642900467 -0.09470685615648919 -0.06253726035356522 0.01916337013244629 -0.03920934137573942 -0.05039281256788585 -0.013109229505062103
00000000: 99df 8671 5981 b73f 829b 98e0 2db5 9cbf
00000010: 0000 0020 80e8 b03f 0000 0000 e649 923f
00000020: c7cf d744 85a3 793f e1ac 4220 9545 b63f
00000030: 0000 0000 1476 633f 0000 0080 59fc b0bf
00000040: 0000 00c0 5905 aa3f 0000 0000 43c6 823f
00000050: 0000 0080 98fa b3bf 0000 00c0 18f8 ad3f
00000060: 64d1 e130 5b4f 93bf 0000 0020 95b3 adbf
00000070: 74da cfde 9169 873f 0000 0000 9e6e 993f
00000080: 47d3 13fa 35d7 98bf 0000 0000 48c5 813f
00000090: 0000 0000 229e 99bf 0000 0020 4161 b6bf
000000a0: 0000 00c0 e6a3 b4bf d8eb e831 45d8 aabf
000000b0: 0000 0080 5dc9 9ebf 0000 0000 708b 693f
000000c0: 40aa 9b1a 2c29 2fbf 0000 00e0 279a b0bf
000000d0: 0000 0000 05ff 9d3f 0000 00c0 ddc7 ae3f
000000e0: f4b7 e7c0 dbcd afbf 0000 0040 1b8d a43f
000000f0: 0000 00a0 fd4b b03f 0000 0000 c41f 8e3f
00000100: 0000 00a0 15b4 a0bf 0000 0000 cd8a 813f
00000110: 0000 0000 24a8 8dbf 0000 0060 bd02 b1bf
00000120: 0000 0080 57d6 97bf 0000 00a0 c571 a3bf
00000130: 0000 0080 ce6c 9abf 0000 0000 d29f 73bf
00000140: 0000 0080 4c10 913f 0000 0040 3475 a43f
00000150: 7b35 08ba fd51 b73f 0000 0040 b220 a53f
00000160: 0000 0000 1b85 8f3f 0000 0000 2e58 85bf
00000170: 0000 00c0 671e a4bf 0000 0060 f8b1 b0bf
00000180: 0000 00c0 c3d7 9fbf 3537 073c 7507 a93f
00000190: 0000 00c0 06c3 ab3f 0000 0080 b5e6 9bbf
000001a0: 1faf 312c 1cbf b33f 0000 0000 8e5a 8b3f
000001b0: 0000 0020 624c b53f 0000 0000 80ae a03f
000001c0: 0000 0040 bb82 af3f 0000 0000 8536 96bf
000001d0: 0000 00c0 73a4 b4bf 0000 0000 fda3 a6bf
000001e0: 0000 0000 c2f9 813f 0000 0040 34b4 a23f
000001f0: 0000 0040 8d66 a6bf 0000 0040 ea4d a2bf
00000200: 0000 0040 cd82 a43f e494 e2c2 6dc1 73bf
00000210: 0000 0000 47e4 98bf 3e9e 2d26 2bd2 9fbf
00000220: aa46 6e78 bcbd 96bf 36f0 520f 6a99 a8bf
00000230: a75d ae27 b5cd b43f 0000 00c0 465a a73f
00000240: 0000 0060 78d9 b23f 2982 005d 5042 83bf
00000250: 9a6a 8433 dee6 9c3f 0000 00a0 daa3 aebf
00000260: 0000 00c0 508f ae3f 0000 0000 4008 2abf
00000270: 06bc 1588 5cb2 863f 0000 0080 9b39 b1bf
00000280: 0000 0080 27f1 a6bf 0000 0000 d41c 92bf
00000290: 0000 0080 5b78 b0bf 0000 00a0 5ca4 b13f
000002a0: 0000 0040 0741 a33f 0000 0060 eff5 a4bf
000002b0: 0000 0000 e8af 86bf 8cb3 eeda 35b3 b1bf
000002c0: 4eb5 eb0a e30e b2bf 0000 0080 2045 a6bf
000002d0: 0000 0000 82ac 83bf 0000 00a0 27fd adbf
000002e0: 0000 0000 8770 a7bf 0000 0020 1c18 b6bf
000002f0: 7a19 a5f6 6ac5 7dbf 0000 00e0 6b85 acbf
00000300: 3c01 99bf d3a9 70bf 0000 0020 6941 b53f
00000310: 0000 00e0 e340 abbf 0000 0040 256d ac3f
00000320: 0000 00c0 e10d a2bf f869 1b21 5dd5 a1bf
00000330: 0000 0080 2a83 9e3f 0000 0020 7846 b6bf
00000340: 0000 00e0 ade9 a8bf 1fa5 4706 27ca a53f
00000350: 0000 00c0 4b7c aa3f 0000 0000 c6be 85bf
00000360: 0000 0000 f94b 8bbf a175 cc1c 8ef3 b3bf
00000370: 0000 0060 4a00 a6bf f374 95af 2b4b 833f
00000380: 11c5 9dbc 7f05 b83f 0000 00c0 481a af3f
00000390: c1d1 d171 a624 b43f 0000 0000 d856 95bf
000003a0: 0000 0040 44ac af3f 0000 0060 8ec9 b5bf
000003b0: 0000 0000 6fb3 91bf 0000 0040 8980 9ebf
000003c0: fa24 65f6 469d b23f 0000 00a0 f422 b63f
000003d0: b113 87a9 0812 90bf 0000 00e0 f02b b5bf
000003e0: db66 ab64 bc0e abbf 3e05 f1b3 397d 85bf
000003f0: b681 57e6 0590 7fbf 0000 0040 e279 afbf
00000400: 0f4c d4bb d3a5 7b3f 2864 8fef 4cc7 b0bf
00000410: 0000 00a0 bdc5 b2bf 0000 0080 6158 a8bf
00000420: 0397 ee45 cc5f c2bf e824 f65f f665 bcbf
00000430: 0000 0000 fc65 6f3f 0000 00a0 e0ce b1bf
00000440: 0000 0060 5730 a4bf ef2a 060e e2a1 a03f
00000450: 0000 00c0 9f2a a63f 0000 0040 acb3 a33f
00000460: fcb1 b664 81d8 1a3f c429 b4fe 9dda 993f
00000470: c0f1 f0d5 50fb b3bf 870f 217f 7c5d 963f
00000480: 7c79 66dd f131 743f 02ec 142a b4c8 963f
00000490: e777 ab2e b2c3 c03f 0000 00c0 fe0c a1bf
000004a0: 0000 0080 5f87 9a3f 4d07 8ca9 bdbb b2bf
000004b0: 40c1 5fbd 6b5d ba3f 0000 0000 de0c 763f
000004c0: b920 3ce6 c7ca aabf 0000 0000 e8d6 87bf
000004d0: 0000 0000 7cb1 7dbf 87ad bb18 ccb2 a93f
000004e0: 1596 d409 f471 afbf fff2 a2a0 5175 af3f
000004f0: 9752 c58f c0dc 9bbf 2aca af29 3188 863f
00000500: 0000 0020 63af b53f 56db 18d5 b482 6abf
00000510: 7768 848a e596 a43f 796a 3cbe b85a c13f
00000520: 8ed3 ea54 a6ed a33f 0000 00a0 4eae aebf
00000530: 0000 00a0 705f b53f 0000 0020 c538 b4bf
00000540: 88c2 87b6 e71a c2bf 7f31 40dc 3c96 9e3f
00000550: 2390 ab4b f64f a13f 0000 0060 5bb9 b43f
00000560: 0000 0080 e0c6 b1bf 1f02 fd46 3749 b03f
00000570: 2c7d b188 3bad aa3f 7b29 cec3 5543 a83f
00000580: 8969 f18f 9d60 a13f c5ef 729f f94e babf
00000590: 0000 00c0 dab7 a63f 0000 0000 20b9 6b3f
000005a0: e00e 4aa0 d85a ab3f c675 d324 65c2 793f
000005b0: ff1f 1bac 9cc1 a93f 0000 0020 b31f b03f
000005c0: 19b0 8778 d161 74bf 0000 0040 bdb6 a83f
000005d0: 0000 0080 e578 97bf 0000 0000 4c6f 723f
000005e0: 7a1e 82d5 a500 a53f 0000 0000 a824 693f
000005f0: fa6f 0604 5563 c23f 0000 0040 d319 acbf
00000600: 0000 00e0 b3d7 b53f 3a6c aa99 9e80 afbf
00000610: dcda 0fbf a78a 9d3f 9114 bd71 d055 a1bf
00000620: 4b51 3ec7 a58a a93f 33bc f4a5 1f40 98bf
00000630: 0000 0000 2c07 71bf eb70 2d39 4298 bc3f
00000640: 0000 0020 9a6f b13f b2b2 6648 eb2d 9a3f
00000650: 1eb8 fd2c 3645 923f 3cfe b7ac f8a2 b53f
00000660: 6ca2 7a52 ebac a6bf 0000 00c0 77c4 a8bf
00000670: 77ed a1f0 a1d3 723f 0000 0020 516b a3bf
00000680: 0000 0040 6fd8 aa3f 0000 0040 70da ae3f
00000690: a30b 24d3 0e79 b83f b116 e658 7112 913f
000006a0: 0000 0000 f587 a13f cc14 c8ed 3cb8 bf3f
000006b0: 1ba1 7e12 bd86 b23f 0bf3 b4d3 b31d b83f
000006c0: 0043 fefc cfdb 943f 0000 00c0 9cae a63f
000006d0: bbd2 d59e 3e35 b83f 1cf7 0e7c 8828 b93f
000006e0: 0000 0080 7eda 913f 8327 8762 656e 61bf
000006f0: af45 8425 12dd b4bf da53 2901 2019 7f3f
00000700: 49ea 8001 6ae4 b1bf 0000 00e0 c44f b53f
00000710: a32c 7713 24eb 9a3f cded 19a2 fdc7 85bf
00000720: 9345 1a1d 68d2 bd3f b16e 4c34 3aff 923f
00000730: c9eb 4dd3 3901 a83f 2b58 0368 b418 ad3f
00000740: b301 3c1c 6d96 8cbf 69fd 5334 c9f4 9dbf
00000750: 743b c8fe 567c 903f 5550 62ef f617 c13f
00000760: 0000 0000 2e6e 803f 874a 7367 d197 b4bf
00000770: 34f3 f209 8036 b93f e010 18e5 686c 9abf
00000780: 4f30 6231 048a ae3f 0000 0080 8d43 98bf
00000790: fbd1 8dcc 7656 bfbf 0000 00e0 546e b53f
000007a0: fadd a29f d64b b2bf b078 be11 90c5 bb3f
000007b0: 0000 00c0 3bbc a23f 5556 0ba4 27e0 b53f
000007c0: 075a a898 986b 95bf 0000 0040 f2fd aebf
000007d0: 3e2b e661 b53e b8bf 0000 0020 7102 b0bf
000007e0: 0000 0000 909f 933f d420 d02d 3f13 a4bf
000007f0: 3f74 dd33 16cd a9bf 0000 0000 03d9 8abf

fc3.bias f8 [64]
-0.04708088099756865 0.03627075713758526 0.002175176765565107 0.08105792662936533 -0.12940507751068264 0.05134572487553798 -0.03245337492784676 -0.06141068793609083
-0.02485033869743347 0.10939414636556886 0.02731175720691681 0.14627084321747322 -0.06326628476381302 0.14181128297398268 -0.052800548040843664 -0.0636114503032279
0.10437823223872117 -0.058192803009154026 0.1739443662012617 0.08340711146593094 -0.06175457313656807 -0.09964044009002564 -0.1367168398372354 0.031170828390165
0.21795423816291382 0.10839206104573085 -0.13580390479080992 -0.0798182263970375 0.12576269425708655 -0.14230583148750056 -0.06938914798926916 -0.01701618731021881
-0.04917610064148903 -0.04447825253009796 -0.02782702845998485 -0.08453364670276642 -0.059586779096490544 -0.07643552124500275 -0.046004652976989746 -0.008897334337234497
-0.048081972969163736 -0.1247896591779537 0.021730657701418257 -0.13690598340066928 -0.010893888026762931 -0.10586505266965189 -0.08296752244199121 -0.028763905045887248
-0.06638478540006154 -0.04487594903213097 0.10865851789668601 0.00664610656654769 0.060894659684697566 0.10121077667975473 -0.061447475891503955 -0.057776385288109626
0.11829999619029719 0.010488293691283393 -0.040168039933437094 -0.07828030587059279 0.11042928375276503 0.126455796030406 -0.13477747331159845 0.09221788000902977
00000000: 9b87 4d38 fc1a a8bf 5807 6aa7 1492 a23f
00000010: f49f 4622 add1 613f ab66 f457 36c0 b43f
00000020: 0420 ec77 5890 c0bf 9b7b 42a2 fc49 aa3f
00000030: b57b eb8f ba9d a0bf 0fe9 9ec0 3871 afbf
00000040: 0000 0000 5e72 99bf 9792 0339 4101 bc3f
00000050: 0000 0000 9df7 9b3f 251b fdc3 00b9 c23f
00000060: 0000 0020 3832 b0bf 03dd 4943 df26 c23f
00000070: b0b4 1766 ac08 abbf 2018 b40a d748 b0bf
00000080: 7c2d e125 88b8 ba3f d8e2 9273 72cb adbf
00000090: fa34 141a cf43 c63f 0000 0020 2b5a b53f
000000a0: 0000 00a0 4b9e afbf 7bb3 8b2f 0982 b9bf
000000b0: 29ea f4f9 ef7f c1bf 3196 19e2 3eeb 9f3f
000000c0: 7897 77aa ece5 cb3f 1863 5605 95bf bb3f
000000d0: af70 dfb8 0562 c1bf 0000 00a0 f76e b4bf
000000e0: 650d 72f1 fd18 c03f 616b 22d6 1337 c2bf
000000f0: cdab 4fb9 7cc3 b1bf 0000 0000 b16c 91bf
00000100: 0000 0020 9c2d a9bf 0000 0080 dac5 a6bf
00000110: fdd3 b844 b07e 9cbf 0000 0040 ffa3 b5bf
00000120: 5c9f fc86 2882 aebf 0000 0040 4791 b3bf
00000130: 0000 0000 ec8d a7bf 0000 0000 c438 82bf
00000140: 8203 dc4a 339e a8bf 385d 0c11 37f2 bfbf
00000150: c4b7 97c0 8f40 963f 6c92 aaa0 2286 c1bf
00000160: b9ec 68e6 884f 86bf a366 01db f819 bbbf
00000170: 4ebc 840b 5c3d b5bf 89ca e8fd 4874 9dbf
00000180: 38c8 3ee2 97fe b0bf 4d9f f0fa faf9 a6bf
00000190: 1850 cc6c 0bd1 bb3f c9b8 95a5 f238 7b3f
000001a0: 2493 b1b7 952d af3f 5ea1 d70f f3e8 b93f
000001b0: 5863 c026 0b76 afbf 1749 96ca dd94 adbf
000001c0: 9816 c196 e848 be3f 1bc4 28f3 e27a 853f
000001d0: d091 b7c3 e790 a4bf 2294 a299 2d0a b4bf
000001e0: f623 3df2 1745 bc3f ff8c 2b1a b42f c03f
000001f0: 9e2f 0e64 6340 c1bf b9c7 be4a 979b b73f
