src/backend/controller/checkpoints/checkpoint_epoch_103.pth (torch, 420244 bytes, 25 tensors)

fc1.weight f8 [64, 5]
0	0x3fc5fa5932f4c55d	0.17170252788632015
1	0xbfddb316cd516107	-0.46405572939467316
2	0x3fcfe7b6cec96aa1	0.24925885293017294
3	0xbfc7dc41baabd86f	-0.18640920271690528
4	0x3fbb4d3b9ef4d051	0.10664723044175274
5	0xbfc4288740000000	-0.15748682618141174
6	0xbfd24cb4a0000000	-0.2859317362308502
7	0xbfdac41960000000	-0.4182189404964447
8	0xbfce277ec0000000	-0.23558029532432556
9	0x3fba497600000000	0.102683424949646
10	0xbfcc9d1702fcf055	-0.22354400297070023
11	0x3fb260316b14682e	0.07178028930903288
12	0xbfd959c3c15b69ad	-0.3961038006069895
13	0x3fda820ac8b3f0ee	0.41418714141742796
14	0x3faf398faad3cdda	0.06098603210730476
15	0x3fd2b3e300000000	0.29222941398620605
16	0xbfc07d2140000000	-0.12881866097450256
17	0xbfd1032180000000	-0.2658160924911499
18	0xbfd7520880000000	-0.36438190937042236
19	0xbfb5e70380000000	-0.08555623888969421
20	0xbfc4ff4bc0000000	-0.16404101252555847
21	0xbf8a2da400000000	-0.012782365083694458
22	0x3fd9654240000000	0.3968053460121155
23	0x3f93ab9800000000	0.01920926570892334
24	0xbfda0d1c40000000	-0.4070501923561096
25	0xbfc2eecf6d25286a	-0.1479129107413571
26	0x3fd75d43c1407ef1	0.3650674235559413
27	0x3fd8b46b436dc38c	0.38601190171089494
28	0x3fba4d3c615e9bff	0.10274102570711817
29	0xbfd647a307adc3c7	-0.3481223654735541
30	0xbfcc5a8414329c7f	-0.2215123270627579
31	0xbfd21d3e346d57af	-0.2830348503097139
32	0x3fd1aef7b512f9a7	0.2763041752149555
33	0x3fcfc6b28dfbd0b9	0.24825126583858095
34	0x3fd99af45cdef492	0.4000826746885845
35	0x3fd7ec50c0000000	0.37379854917526245
36	0xbfda694480000000	-0.41267502307891846
37	0xbfb6651080000000	-0.0874796211719513
38	0xbfd48f5840000000	-0.3212490677833557
39	0x3fb6020000000000	0.085968017578125
40	0x3fc83cc0437c9e56	0.18935397429707973
41	0xbfd01249cc39d2a3	-0.25111622756893776
42	0xbf7b086f19e184d6	-0.006599840153371525
43	0x3fbdf588d402a0d6	0.1170278089144888
44	0x3fd011c7e6469120	0.25108525741440424
45	0x3fd3d35a4c42e14e	0.3097749466646932
46	0x3f9977deae63c761	0.024871329683214486
47	0x3fb28a0a561fb1a7	0.07241882898933359
48	0xbfd945869ae0d98e	-0.394868518112525
49	0x3fbe9d14def24c93	0.11958437388448066
50	0xbfd424ba350d9856	-0.3147416608902679
51	0xbf95672612526cf8	-0.020901293628964063
52	0x3fd9694dd8993021	0.39705225135981165
53	0x3f8913529b937137	0.012243886349488349
54	0x3fc276805edb210c	0.144241377178567
55	0x3fd1258e1e80c5aa	0.2679171846276299
56	0x3fc9048ec56983dd	0.19545158995882064
57	0x3f7c2899f3a89fad	0.006874657987772465
58	0x3fd3f153144da37e	0.31160428030721465
59	0x3f60b10b82010be6	0.002037546612002827
60	0xbfc448db80000000	-0.1584734320640564
61	0x3fba708500000000	0.10327941179275513
62	0xbfd6b83380000000	-0.35499274730682373
63	0x3fd3168c80000000	0.29825127124786377
64	0xbfc9870540000000	-0.19943299889564514
65	0xbfd4399e90421efe	-0.3160168083927458
66	0x3fcf5498abd3dccd	0.2447691763879675
67	0x3fdc922eb322094f	0.4464222668977031
68	0x3f4d556cae832d89	0.0008951931640920767
69	0x3fd31542a2e1463a	0.298172625601271
70	0xbfd66aae61f91c83	-0.3502613026398153
71	0x3fcf8a483032e9c1	0.24640753129444984
72	0xbfbe3839fd659a81	-0.11804544865081291
73	0x3f987db26e812152	0.02391699599709913
74	0xbfb2ad5252a0bdfa	-0.07295717732699095
75	0xbfd204caa0000000	-0.28154245018959045
76	0xbfd90499c0000000	-0.39090579748153687
77	0xbfd1fa7e40000000	-0.2809138894081116
78	0x3fd95630c0000000	0.3958856463432312
79	0x3fc04c8800000000	0.1273355484008789
80	0x3fc7ef8ba6b067a0	0.1869978488837747
81	0xbf9eb79768cc4ac0	-0.029997220774997002
82	0x3fcc829cfb570532	0.22273599884469203
83	0xbf9a86cbe39667fc	-0.025904832616653536
84	0x3fc0f7ec72285585	0.13256602834796297
85	0xbfa815900007bc77	-0.04703950882309809
86	0x3fd877cfac694ed2	0.38231269681021474
87	0x3fc3ef482cc34409	0.15573980508500565
88	0x3fc1129141f13d06	0.13337913246002858
89	0x3fd006c668d6bd12	0.2504135154549242
90	0x3fcd812080000000	0.2305031418800354
91	0xbfc6dee0c0000000	-0.17867669463157654
92	0xbfdb4c6980000000	-0.4265388250350952
93	0x3fa7d42d00000000	0.046540647745132446
94	0xbfd2233d80000000	-0.28340089321136475
95	0x3fb7c11859dd17e7	0.09279014772354764
96	0x3fb16c78da467eb5	0.06806140259731815
97	0x3fbfad5ce75d9d2a	0.12373905800415189
98	0x3fd16cdc665f05d6	0.2722693443029959
99	0xbfc8891f4ec592bc	-0.191684640372065
100	0x3fe04aad65c97338	0.5091158855462714
101	0xbfd9610b6fd7ec38	-0.3965481369229482
102	0xbfd288c20c60caf8	-0.2895970459823469
103	0x3fcee23fc58ea563	0.24127957483623694
104	0xbf977b39f70d23c9	-0.02293100901013981
105	0x3fc9b45f80000000	0.2008170485496521
106	0xbfcdd7d000000000	-0.23314857482910156
107	0xbfaae2ed00000000	-0.052512556314468384
108	0xbfc343f100000000	-0.15051090717315674
109	0xbfd027f300000000	-0.2524383068084717
110	0x3fdb511f40000000	0.4268262982368469
111	0xbfc98f40e0000000	-0.1996842473745346
112	0xbfd3d18280000000	-0.30966246128082275
113	0xbfda45af40000000	-0.41050320863723755
114	0xbfda46c9a0000000	-0.41057053208351135
115	0x3fc8f5e9a7b61fcd	0.19500466050180734
116	0x3fd54dc77b075f40	0.3328722669079873
117	0xbfa91ccff736e6f3	-0.04904794590716035
118	0xbfddc219a5213c6e	-0.4649719345661144
119	0x3fc706db96b04592	0.17989678247299118
120	0xbfbded0f00000000	-0.11689847707748413
121	0xbfd8b6bce0000000	-0.3861534297466278
122	0x3fd8779a80000000	0.3823000192642212
123	0x3fc1621480000000	0.1358056664466858
124	0xbfcf462520000000	-0.24432815611362457
125	0xbfd2b43aa88a6405	-0.29225031336824286
126	0x3fafbe8ae4decad6	0.0620005993254346
127	0xbfd6146c231a93fe	-0.3449964850245236
128	0x3fc84f7150c6f096	0.1899243969363666
129	0xbfd51a9490cba50d	-0.329747334863513
130	0x3fd6de8e00000000	0.3573336601257324
131	0xbfbd75e580000000	-0.11508020758628845
132	0x3fb55c7700000000	0.08344215154647827
133	0xbfdbb0c0c0000000	-0.4326631426811218
134	0xbfb32a1280000000	-0.07486072182655334
135	0xbfb02ea600000000	-0.06321179866790771
136	0xbfc009dd40000000	-0.1253010332584381
137	0xbfaf07b000000000	-0.060605525970458984
138	0xbfb2adbd80000000	-0.07296356558799744
139	0x3fd42570c0000000	0.3147851824760437
140	0x3fab1815bf2ada34	0.052918128572333606
141	0xbfcac6b78722081c	-0.20918935869491484
142	0x3fcfb157123d3a2e	0.24759949102959083
143	0x3fc3276f114e4223	0.14964092583660812
144	0xbfd30a1d5e581180	-0.2974923535660068
145	0xbfc1f1d900000000	-0.14019310474395752
146	0xbfbf608880000000	-0.12256672978401184
147	0x3fd6096880000000	0.3443242311477661
148	0xbf8bff2800000000	-0.013670265674591064
149	0x3fc1659000000000	0.1359119415283203
150	0xbfc3e10e80000000	-0.1553056836128235
151	0x3fcb704080000000	0.21436315774917603
152	0xbfb8635e00000000	-0.09526622295379639
153	0x3fc8a01500000000	0.19238531589508057
154	0x3fa1f78d00000000	0.035091787576675415
155	0x3fc8d98180000000	0.19413775205612183
156	0x3f9103a400000000	0.016615450382232666
157	0xbfd4bdf880000000	-0.32409489154815674
158	0xbfd96889c0000000	-0.39700549840927124
159	0xbfd1d09740000000	-0.2783563733100891
160	0x3fabb87d30e3c732	0.0541419145755654
161	0x3fc5978003574a57	0.16868591464170166
162	0xbfcd4ab7c82cd56f	-0.22884270929504733
163	0x3fcc04332cb65b28	0.2188781708070675
164	0x3fd48d00856ddc95	0.3211060812968268
165	0x3fc278590ef04fa0	0.14429772595815127
166	0xbfd4047d440643cb	-0.31277400630011404
167	0x3fa9fc9226b0c6bf	0.05075508806511441
168	0x3fcc020daef987d7	0.2188126663559717
169	0x3fd883e66b35cec6	0.38305054158921015
170	0xbfd191cb00000000	-0.2745234966278076
171	0x3fadf6f400000000	0.0585247278213501
172	0xbfc0a04500000000	-0.129891037940979
173	0x3fcb790000000000	0.214630126953125
174	0x3fac667c00000000	0.055469393730163574
175	0xbfd8793520000000	-0.38239791989326477
176	0xbfb4eae080000000	-0.08170893788337708
177	0x3f9fbf0800000000	0.031002163887023926
178	0xbfd7095e00000000	-0.35994672775268555
179	0xbfd9241620000000	-0.3928275406360626
180	0x3fda82b9a0a221f9	0.4142288273510811
181	0xbfc2643a8acf2293	-0.14368373658932806
182	0xbfd7deabd0c42839	-0.37296576869323733
183	0x3fa52b639a28caaa	0.04134665734126959
184	0x3fcbaa384db5d17f	0.2161322001881096
185	0x3fd519dc23333cd1	0.3297033637763436
186	0x3fb6c12b61543636	0.08888503194995043
187	0x3fce55413b869e45	0.2369767704633309
188	0x3fd0ee2858e6310c	0.26453598672448275
189	0x3fd8696a4c23411e	0.38143403468440507
190	0x3fd08c751fc975f3	0.2585728464526646
191	0xbfc143b8b71ee78f	-0.13487919751588293
192	0xbfd164b625f1ecfe	-0.2717719431454525
193	0xbfc99a1578961d7f	-0.20001476657874304
194	0xbfbc85b5094c2d59	-0.11141520955077534
195	0xbfd3e449c8c11b87	-0.31080860714831043
196	0xbfd18302e6a4557b	-0.27362129710794364
197	0x3fe083b42e0b4e1d	0.5160771273899091
198	0xbfc2de20f82342d0	-0.14740383258915424
199	0x3fd49e1c448d7e22	0.3221502942523974
200	0x3fdc4efed6ef4fe7	0.4423215006802352
201	0xbfc07c8ae013d19b	-0.1288007349136365
202	0xbfd9a2ea317f0768	-0.4005685313569445
203	0x3fd990dd2b85ffec	0.3994667935403402
204	0xbfb4dfb8e2840678	-0.08153872995537792
205	0x3fb0fe1700000000	0.06637710332870483
206	0x3fc4448500000000	0.15834105014801025
207	0xbfc4852280000000	-0.1603129506111145
208	0xbfbd61bf80000000	-0.11477276682853699
209	0xbfd7ff0c60000000	-0.3749419152736664
210	0x3f98d4dc00000000	0.024249494075775146
211	0xbfc0415d40000000	-0.1269947588443756
212	0xbfcd6e9dc0000000	-0.22993823885917664
213	0x3fc5a90800000000	0.1692209243774414
214	0xbfb4ba4600000000	-0.08096730709075928
215	0x3fc1a22a38cad156	0.1377613808923665
216	0xbfa4f7c702208b5e	-0.040952891359004026
217	0xbfdbc873db0077e4	-0.43410965334794427
218	0x3fcb045449da592d	0.21106961828326956
219	0xbfc2dc973e78bb74	-0.14735689688083264
220	0xbfbc51c050e828e5	-0.11062242484345892
221	0x3fdd9d829a56a2d9	0.4627386576853901
222	0x3fdadcc1ed36294c	0.4197239700812545
223	0x3fd31e7856b9d9ad	0.29873474568685304
224	0xbfd576244dcba2a8	-0.3353358039590071
225	0xbfe0f143fe0e3e61	-0.5294513666176038
226	0xbfa45a5c3fe828b4	-0.03975189476121113
227	0xbfd59054bc370681	-0.3369342649494698
228	0x3fd675e10da32857	0.35094477016230513
229	0x3fd0998673892234	0.25937043459683484
230	0x3fcb6b5fa448f104	0.2142142822430132
231	0xbfcf8b93bb45dd28	-0.24644705433068137
232	0x3f568d5b6ce988aa	0.001376475603728037
233	0x3fd1dfd5758d2683	0.27928673247934216
234	0x3fc42a0cc4e7c64b	0.15753326048393243
235	0x3fb8501b6041edd5	0.09497233486211283
236	0x3fd616a2f8824968	0.34513162868929337
237	0x3fba6d040b3d2d22	0.1032259490431682
238	0x3fd841fd3ca49ae5	0.3790276615349469
239	0xbfb20b26a1005634	-0.07048264914222885
240	0x3f8fd5e036ae7b5d	0.015544654530285912
241	0x3fd1c65f785780e3	0.27773272277955935
242	0x3fd87012fa18e857	0.3818404619556807
243	0x3fc6e685d39b4f06	0.17890999634129673
244	0xbf6e600c804ed248	-0.0037079090274921046
245	0x3fb2078500000000	0.07042723894119263
246	0xbfb9034f00000000	-0.09770673513412476
247	0xbf9bdd8c00000000	-0.027212321758270264
248	0x3fcd0ced80000000	0.2269570231437683
249	0xbf89036800000000	-0.012213528156280518
250	0x3fcbf872bb0e1f1a	0.21851953633835636
251	0xbfd3e223ad8470aa	-0.3106774515633882
252	0xbfd31947d6f1cd9e	-0.29841800680807207
253	0x3fb4180c7bd9afb8	0.0784919550293911
254	0xbfcd01ba471eda97	-0.2266152236240557
255	0x3fbeb99ef0be5a8a	0.12001984956291714

fc1.bias f8 [64]
0	0xbfd07beb07f463ff	-0.25756335999318475
1	0x3fc4dbbe80000000	0.16295605897903442
2	0x3fd1b7888c0d91c5	0.2768269889550335
3	0x3fb083fe00000000	0.06451404094696045
4	0xbfd8a4e500000000	-0.38506436347961426
5	0xbfc56b38c2b424c2	-0.16733464724555885
6	0xbfcb0a842313ea16	-0.21125842774183984
7	0xbfd18a4b60000000	-0.2740658223628998
8	0xbfda640413e97920	-0.4123544878438157
9	0xbfac9f6594ee8b7b	-0.055903601102975174
10	0x3fc37ee8b0f73dd0	0.15231045380504193
11	0xbfb97a34eca9925b	-0.09952097680940979
12	0xbfca1b0d40000000	-0.20395055413246155
13	0xbfd04b591226eec4	-0.25459887287773264
14	0xbfb8f4c27f1abdc1	-0.09748473742614917
15	0x3fcb36a380000000	0.21260493993759155
16	0xbfc803de5edae82a	-0.1876180613670056
17	0xbfad019d62d4d82e	-0.05665294486463811
18	0xbfcc602f40000000	-0.22168532013893127
19	0xbfce8a20e31e2aeb	-0.23859034623850248
20	0x3fb049e0cd52c5ed	0.06362729084755588
21	0x3fac574a00000000	0.05535346269607544
22	0x3fa63d9800000000	0.04343867301940918
23	0xbfb79446953b8ef1	-0.0921062578523182
24	0xbfd06eaee0000000	-0.2567555606365204
25	0x3fcad8c3c79057d1	0.20974013561561702
26	0xbfd7cf8cc0000000	-0.37204283475875854
27	0xbfcff34560000000	-0.24961154162883759
28	0xbfd046a336da9899	-0.2543113742525605
29	0xbfd5b36b80000000	-0.3390759229660034
30	0xbfd4fb0ea0000000	-0.32782331109046936
31	0xbfc40220c0000000	-0.1563149392604828
32	0xbfc3976d71bc224b	-0.15305870107137517
33	0xbfdcc8a3381d6fd1	-0.4497459457395481
34	0xbfc13cbd80000000	-0.13466614484786987
35	0xbf73036000000000	-0.004641890525817871
36	0xbfa6ceb88fdba85a	-0.04454590564803658
37	0x3fcfbfdb6df65752	0.24804251546145878
38	0xbfbc98aa7f50e436	-0.1117044983701739
39	0x3fba6110fbe160cc	0.10304361485885066
40	0xbfaa7289af065055	-0.051655104270282116
41	0xbfca783ce0000000	-0.2067943662405014
42	0x3fa0047f00000000	0.03128430247306824
43	0x3fd4a15939b1d201	0.3223479331420834
44	0x3fd1bab2a1b09013	0.2770201281548463
45	0x3f936dff6489c9bc	0.018974295150153017
46	0xbfdf2162f763720e	-0.4864127555754586
47	0xbf9c9a8da4045e24	-0.02793332398968408
48	0xbfc1a1609c4eca36	-0.13773734695640066
49	0xbfdc691be0000000	-0.44391533732414246
50	0x3fe034772a7716fa	0.5064044789694144
51	0x3fd9666c94523864	0.39687647327889963
52	0x3faea9fc45902aad	0.05989063595923958
53	0xbfd0b5b420000000	-0.26109030842781067
54	0xbfd49eebe0000000	-0.3221997916698456
55	0x3fab82d600000000	0.05373257398605347
56	0xbfd161131c4b962e	-0.2715499664612676
57	0xbf9434dd7381e82f	-0.01973291413785477
58	0xbfd27f1a80000000	-0.2890077829360962
59	0xbfda54254a47004c	-0.411385843788598
60	0xbfd0c8c900000000	-0.2622549533843994
61	0xbfca7874738f28ed	-0.2068009914640422
62	0xbfd2d2dc6f2aad95	-0.29411993843197
63	0x3fda59746d7f8a03	0.411709887439571

fc2.weight f8 [128, 64]
0	0x3fc57bde3c3ff189	0.16784265462764505
1	0x3fa8d37b80000000	0.04848848283290863
2	0xbfcbade4fe925f2c	-0.21624433927785824
3	0x3fb540ed80000000	0.08302196860313416
4	0xbfb3f9a7c0000000	-0.07802818715572357
5	0x3f96e7e1001882a1	0.02236892283520098
6	0xbfb968b70635528b	-0.09925407315797423
7	0x3fb5832ec0000000	0.08403293788433075
8	0xbf8560442d37c549	-0.01043751967424335
9	0xbfba71724cb4031d	-0.10329355595241592
10	0x3fcc8c739dcd5d3e	0.2230362434881758
11	0x3f300d3175eaa676	0.00024492700132814434
12	0x3fa762e000000000	0.045676231384277344
13	0x3fc76190ca076fa2	0.18266496529292647
14	0x3fae593f088ef604	0.059274644655925385
15	0xbfbd6edd80000000	-0.11497291922569275
16	0x3fb2b40b7c0de89f	0.07305976656599221
17	0xbfa334e9b799386c	-0.0375130688304218
18	0xbfb9da7e80000000	-0.10099020600318909
19	0x3fb2b77e041da418	0.0731123695419601
20	0xbfdaaaee6b9a1ad3	-0.4166828203964716
21	0x3fbfe46200000000	0.12457859516143799
22	0xbfb16f1700000000	-0.06810134649276733
23	0xbfb13ce8445e9644	-0.06733562153984801
24	0x3fab41db80000000	0.05323682725429535
25	0xbfae5c204aec2880	-0.05929661669331754
26	0xbfbe08a700000000	-0.11731952428817749
27	0x3fbc932d80000000	0.11162075400352478
28	0xbfa49f82053c9f83	-0.04027944864202395
29	0x3fbeee6740000000	0.12082524597644806
30	0xbf9a2eab00000000	-0.025568649172782898
31	0x3fa09e0880000000	0.032455697655677795
32	0x3fb6c3ab44d44f8f	0.08892317228702339
33	0x3fb318daa763b7b3	0.07459799372347113
34	0x3fafd07f00000000	0.06213757395744324
35	0x3fb45ad740000000	0.0795111209154129
36	0xbfa5ee14f9eea40f	-0.042832046040821685
37	0x3fc2612dabc4a983	0.1435906494819613
38	0xbfb1dda909cdb6bd	-0.06978851785035096
39	0x3fb48964685d0307	0.08022143886502074
40	0xbfc7f770842c3d67	-0.18723875478506644
41	0xbfb8bca940000000	-0.09662874042987823
42	0xbfac6f6780000000	-0.055537447333335876
43	0xbfc315d1bfdd347c	-0.14910337322581657
44	0x3fc2bdba30f79872	0.1464150179955968
45	0x3fc3864020669a30	0.15253449995107493
46	0x3fbac95c01144544	0.10463500048014845
47	0x3fc3e12e46c38e51	0.1553094716574486
48	0xbf9cf6287580b2d6	-0.0282827684133505
49	0xbfbe851040000000	-0.1192178875207901
50	0xbfc9ad85d6ece9b8	-0.2006079959335929
51	0x3fb795090edfa011	0.09211784947513048
52	0x3fc12e8e3efea8e6	0.13423326564708943
53	0xbfa35c3900000000	-0.0378129780292511
54	0x3fa6a6c280000000	0.04424102604389191
55	0xbfb2f88300000000	-0.07410448789596558
56	0xbfa315aec8aee3bf	-0.03727480125184667
57	0x3fd219cb7afa5f69	0.2828243924100123
58	0xbfaf5fbb00000000	-0.06127724051475525
59	0x3fcee0bad918fd0d	0.24123321152180957
60	0x3f959b3100000000	0.021099820733070374
61	0xbfa2a3698bf24fa2	-0.03640298684436451
62	0x3fbfea3905271b25	0.12466770530509715
63	0xbfc6fb35e4fd9aa8	-0.17954133683379792
64	0x3fc2d4c79f119be0	0.14711852328329567
65	0x3fa8580e00000000	0.04754680395126343
66	0xbfa698a5717b337d	-0.04413334856290072
67	0xbfbd74b280000000	-0.11506190896034241
68	0x3fb93d1500000000	0.09858828783035278
69	0x3fc77af2b70e3964	0.1834395784212105
70	0x3fb3379c07f635f5	0.07506728357676436
71	0xbfa0285e00000000	-0.03155797719955444
72	0xbfbf94795200a135	-0.12335928203595332
73	0x3fc223c062400468	0.14171604916922154
74	0x3fc07163de5ac742	0.12846039158972117
75	0x3fc372e37d037347	0.151943622628915
76	0xbfb1ff7000000000	-0.07030391693115234
77	0x3fc04441df881052	0.1270830480062864
78	0xbf6d814caa36fd94	-0.0036016938554152642
79	0xbfad186900000000	-0.05682685971260071
80	0x3fbfabc7167f9bd7	0.12371486949233144
81	0x3fc19057a59e2486	0.13721747957996316
82	0x3f91da6200000000	0.017434626817703247
83	0x3fc2fb649c9bb5c9	0.14829690596472592
84	0xbfd9fed4d61f1d5d	-0.4061786738424951
85	0x3fbf7b6200000000	0.12297642230987549
86	0xbfbea010c0000000	-0.11962990462779999
87	0x3fb045f8915aca7d	0.06356767224023403
88	0x3fa8fdea80000000	0.048812225461006165
89	0x3f8897076d368d04	0.012006814976138099
90	0xbfb331e240000000	-0.07497991621494293
91	0x3f8952cc00000000	0.012364953756332397
92	0xbfc0070df069f0c2	-0.1252152847190527
93	0xbfba802540000000	-0.10351784527301788
94	0x3fbb5a2000000000	0.10684394836425781
95	0x3fb5a48ac0000000	0.08454196155071259
96	0x3fb14a820c0b1b93	0.06754315179851593
97	0x3f81de6c892bfdc8	0.008725021301414851
98	0xbfb0e51480000000	-0.0659954845905304
99	0x3fb1cbd7c0000000	0.06951664388179779
100	0xbfc7a3fea28c3589	-0.18469222008608835
101	0xbf6080031d8b069e	-0.0020141659591395708
102	0xbfab752b29cb0a77	-0.05362830052537942
103	0x3fab551c14c3b610	0.05338371041748868
104	0xbfca37c138c80608	-0.20482650063063113
105	0xbf98a68200000000	-0.02407267689704895
106	0x3fab0b7e00000000	0.0528220534324646
107	0xbfbfa6ff429ac7a5	-0.12364192367638667
108	0x3fc398ab92ebea5e	0.15309662507918892
109	0x3fb890b4db5b2860	0.09595804553387799
110	0xbfb285568cc2c2c7	-0.07234707771818726
111	0x3f9b8545fa0bab05	0.026875584971018735
112	0x3fbcace1d4d6d9ff	0.11201297231932726
113	0xbf95a92b00000000	-0.02115313708782196
114	0xbfd590fa1edc18cf	-0.3369736958851605
115	0xbf84a921c5adc9b5	-0.01008821854131701
116	0x3fb90aff4e191658	0.09782405525864968
117	0xbf517af000000000	-0.0010669082403182983
118	0x3fa4d55700000000	0.04069015383720398
119	0xbfa3228880000000	-0.03737284243106842
120	0x3fb2b3b8e956b3f0	0.07305484482522195
121	0x3fd9294d7f86e91a	0.39314591840560953
122	0x3f99621900000000	0.024788275361061096
123	0x3fb1420f0efd0e5d	0.06741422763757883
124	0x3fb362ef40000000	0.07572837173938751
125	0xbfa21e19ab52f24b	-0.035385896838736906
126	0xbf950a3bcb704622	-0.020546850482849995
127	0xbfce40dae6b249e4	-0.2363542200515233
128	0x3faa422180000000	0.05128578841686249
129	0x3fbd5c6bc0000000	0.11469148099422455
130	0x3faccf1900000000	0.05626752972602844
131	0xbf957f9100000000	-0.020994439721107483
132	0xbfa7421f00000000	-0.04542633891105652
133	0x3f990aeb00000000	0.024455711245536804
134	0x3f98444800000000	0.023697972297668457
135	0xbf9f04c200000000	-0.030291587114334106
136	0x3fbdb363c0000000	0.11601851880550385
137	0x3fbda7a980000000	0.11583957076072693
138	0x3f8d86bc00000000	0.014417141675949097
139	0xbfa2c37980000000	-0.036647602915763855
140	0x3fbf4a42c0000000	0.12222687900066376
141	0x3fb7b0cb00000000	0.0925413966178894
142	0x3f8555da00000000	0.010417655110359192
143	0x3fbdbc1740000000	0.11615128815174103
144	0xbfb7e5e940000000	-0.09335191547870636
145	0x3f67e92800000000	0.0029187947511672974
146	0x3fae3b8a80000000	0.059048011898994446
147	0x3f8274f800000000	0.009012162685394287
148	0xbfbb640840000000	-0.1069951206445694
149	0x3faa555d80000000	0.0514325350522995
150	0x3f85d2bc00000000	0.010655850172042847
151	0x3fa4ea7100000000	0.04085114598274231
152	0xbfabe73200000000	-0.054498255252838135
153	0xbfa4c6ed00000000	-0.040580183267593384
154	0xbfb3c8cd40000000	-0.07728274166584015
155	0xbfa1ce2b80000000	-0.034776076674461365
156	0x3f7ba5f800000000	0.00675007700920105
157	0x3fa6613d00000000	0.0437106192111969
158	0xbf9b64d400000000	-0.026751816272735596
159	0xbf792b2400000000	-0.006144657731056213
160	0x3f81be0800000000	0.00866323709487915
161	0xbf9502f900000000	-0.020519152283668518
162	0x3fb4800600000000	0.08007848262786865
163	0xbf8f40ae00000000	-0.015260085463523865
164	0x3fb4a106c0000000	0.08058206737041473
165	0xbfaf20c880000000	-0.06079699099063873
166	0x3fb8585580000000	0.0950978696346283
167	0x3fa926a300000000	0.049122899770736694
168	0x3f9798ee00000000	0.023044317960739136
169	0x3f8bff3600000000	0.013670369982719421
170	0x3f94cc5900000000	0.020310774445533752
171	0x3fbc160380000000	0.10971090197563171
172	0x3fbb755100000000	0.1072588562965393
173	0x3fbd85b480000000	0.11532142758369446
174	0xbfaaae8100000000	-0.05211260914802551
175	0x3fba411c80000000	0.1025560200214386
176	0xbfb9a50b80000000	-0.10017463564872742
177	0xbfbe7b8480000000	-0.11907222867012024
178	0x3fba74a7c0000000	0.10334251821041107
179	0xbfb5fcbf80000000	-0.08588787913322449
180	0xbfa6d1cc80000000	-0.044569388031959534
181	0xbfbc571400000000	-0.11070370674133301
182	0x3fb6f6a680000000	0.0897010862827301
183	0xbf9e245700000000	-0.029435500502586365
184	0xbfa3e07580000000	-0.038821861147880554
185	0x3f8141b400000000	0.008426100015640259
186	0xbfb89c81c0000000	-0.0961381047964096
187	0x3fb2d22ec0000000	0.07351963222026825
188	0x3fb3c338c0000000	0.0771975964307785
189	0xbfb20ac3c0000000	-0.07047675549983978
190	0x3f92dde100000000	0.01842452585697174
191	0xbfaf727a00000000	-0.0614202618598938
192	0xbfbaeeee80000000	-0.10520830750465393
193	0x3f9014a600000000	0.01570376753807068
194	0xbfb4136400000000	-0.07842087745666504
195	0x3f9ba8f800000000	0.027011752128601074
196	0xbfa12c6f80000000	-0.03354214131832123
197	0xbfaeeca600000000	-0.06039923429489136
198	0x3fb1aa3200000000	0.06900322437286377
199	0xbfb65e8300000000	-0.08737963438034058
200	0xbf93a39d00000000	-0.01917882263660431
201	0xbfba8706c0000000	-0.10362283885478973
202	0x3f919cbe00000000	0.01719948649406433
203	0x3fbbd5a300000000	0.10872858762741089
204	0x3f79fdb800000000	0.006345480680465698
205	0xbfbb8dec00000000	-0.10763430595397949
206	0xbfb44831c0000000	-0.07922659814357758
207	0xbfb2776580000000	-0.0721343457698822
208	0x3fb23cd140000000	0.07124049961566925
209	0x3fb3b74080000000	0.07701495289802551
210	0xbfae427800000000	-0.05910086631774902
211	0x3fa28d5700000000	0.03623458743095398
212	0x3f619f5800000000	0.002151176333427429
213	0x3f73bb3400000000	0.004817202687263489
214	0xbfb3cd0480000000	-0.07734706997871399
215	0x3fbc710040000000	0.1110992580652237
216	0x3f97631400000000	0.022838890552520752
217	0x3fb3de43c0000000	0.07761023938655853
218	0xbfa6932300000000	-0.04409131407737732
219	0x3fa7c4fd80000000	0.04642479121685028
220	0xbfb4dab480000000	-0.08146217465400696
221	0x3fb8681b80000000	0.09533855319023132
222	0x3fb275f340000000	0.07211227715015411
223	0xbf82cb1e00000000	-0.009176477789878845
224	0xbfb32057c0000000	-0.07471226155757904
225	0xbfb7b31a40000000	-0.09257663786411285
226	0x3f708bb400000000	0.004039481282234192
227	0xbfaab8b680000000	-0.052190497517585754
228	0x3f9194ab00000000	0.017168685793876648
229	0xbfb9bb9e40000000	-0.1005190759897232
230	0x3fbb961140000000	0.10775859653949738
231	0xbfbb4b4000000000	-0.10661697387695312
232	0x3f6c101000000000	0.0034256279468536377
233	0xbfb0e3ccc0000000	-0.06597594916820526
234	0xbfa9867280000000	-0.04985387623310089
235	0x3fb4f39a80000000	0.0818420946598053
236	0xbfb4fbf580000000	-0.08196958899497986
237	0xbfb6676400000000	-0.08751511573791504
238	0xbfb14e3cc0000000	-0.0676000565290451
239	0xbfb8dcf040000000	-0.09712125360965729
240	0xbf824c2000000000	-0.008934259414672852
241	0xbf9fd30c00000000	-0.0310785174369812
242	0x3f9f394800000000	0.030491948127746582
243	0x3fae50f280000000	0.059211328625679016
244	0x3fafb76000000000	0.06194591522216797
245	0x3fbabe4440000000	0.10446573793888092
246	0x3f5befe000000000	0.0017051398754119873
247	0x3fa71d8700000000	0.04514715075492859
248	0x3fb5343680000000	0.08282795548439026
249	0x3fa011d480000000	0.031386032700538635
250	0xbf9988c200000000	-0.024935752153396606
251	0xbf98b29700000000	-0.02411876618862152
252	0xbf7c8e0c00000000	-0.006971403956413269
253	0x3fa2e5a580000000	0.036908313632011414
254	0xbfb98cf900000000	-0.09980732202529907
255	0xbfba360300000000	-0.10238665342330933

fc2.bias f8 [128]
0	0xbf962634b5d63d13	-0.021630118940774667
1	0x3fabfdf635a1e3ef	0.054671949431344895
2	0xbfb86d1880000000	-0.0954146683216095
3	0x3f8b1b0a00000000	0.013235166668891907
4	0xbf9460132c0b2a76	-0.019897746623238587
5	0x3f962b991d9e0ce3	0.021650688584043187
6	0xbfb0fed840000000	-0.06638862192630768
7	0xbfa6a78280000000	-0.044246748089790344
8	0xbfb29ee640000000	-0.07273711264133453
9	0xbfa96806658328cf	-0.049621772662776224
10	0xbf8efb3200000000	-0.015127554535865784
11	0xbfabef754fa8b597	-0.05456129643821866
12	0x3fa6e4b4269e9f8a	0.044713620867070494
13	0xbfc2b95de1441199	-0.14628194331465919
14	0x3fa21bc7880e6da2	0.03536819015354388
15	0xbfb956c45eba60cf	-0.09898021042534143
16	0x3fbf99a70c976db5	0.12343830163393117
17	0xbfc5877794c30383	-0.16819662822492995
18	0x3fa61270f3578871	0.043109445290398514
19	0xbfbc2679c0000000	-0.1099620908498764
20	0xbfa8246400000000	-0.04715263843536377
21	0x3fb5475194ca1a59	0.0831194866424111
22	0xbf97364b86582da8	-0.022668056559309285
23	0x3fa8990e00000000	0.04804271459579468
24	0x3fc2b5058b8d9c9e	0.14614934267158203
25	0xbfa1125180000000	-0.0333428829908371
26	0xbfb238e1600c74f6	-0.07118042559564572
27	0xbf868bbbf1c49a1a	-0.011008709254906757
28	0x3fb3153c28ab6ce1	0.07454277031813518
29	0xbfc1e044ea758112	-0.13965665291016954
30	0xbfa1a896d9a73fac	-0.0344893589677889
31	0x3f95cc9813c1772a	0.02128827686862348
32	0xbfad99bd00000000	-0.057813555002212524
33	0xbf9ff44ca998672f	-0.03120536599281037
34	0x3faacea4e0c6b902	0.05235781902170979
35	0xbf7499458c9b690e	-0.005028983761542939
36	0xbface4f8ec8b3f8b	-0.056434420466415856
37	0xbfb2fcad80000000	-0.07416805624961853
38	0xbfa18a6280000000	-0.03425891697406769
39	0xbfa2f76400000000	-0.03704369068145752
40	0xbfbf83acf3c7f49d	-0.12310296012579376
41	0xbfc433b62cc53ca7	-0.15782811342294176
42	0x3fc07f9b43f172b8	0.1288942415002532
43	0x3fa0c7f700000000	0.03277561068534851
44	0xbfb83e8ec0000000	-0.09470455348491669
45	0x3f9afccb54dde3a7	0.026354958586555146
46	0xbfc4fdb86540df9d	-0.16399292892469655
47	0xbf94844d4bd64903	-0.02003594184277181
48	0xbfb792974ba9f3f6	-0.09208055112135569
49	0x3fc40f73245afada	0.15672148966947114
50	0xbfbdcfffc0000000	-0.1164550632238388
51	0xbf945fb700000000	-0.01989637315273285
52	0x3f9a5222cca9d5c3	0.025703948728240677
53	0xbfa120603ba821df	-0.03345013359291093
54	0xbfa64145a43483a4	-0.043466736120769484
55	0x3f85a6fc00000000	0.0105724036693573
56	0xbfa4e13e2c2af4af	-0.04078096665532748
57	0xbfa7fe8680000000	-0.046863749623298645
58	0xbf93c9d600000000	-0.01932463049888611
59	0xbfc0cf3a8c2414ed	-0.13132411806888147
60	0xbfb05105c53fb494	-0.06373630586286289
61	0xbfb2110a80000000	-0.07057252526283264
62	0xbfba3d0991bf6ac1	-0.10249385650915156
63	0xbfaeb3a700000000	-0.059964388608932495
64	0xbfa6207d00000000	-0.04321661591529846
65	0x3fc15c078c41cb74	0.135621016964787
66	0xbf98bdf2e4b06f35	-0.024162097175675263
67	0x3fc289b7064d491c	0.14482772643766217
68	0x3fa99cca721fd18b	0.050024343901813394
69	0x3fa67ce05ceb9229	0.04392148145942471
70	0x3fabce30349b6785	0.05430746690917857
71	0xbfb805dfa3cf4fb3	-0.09383962392104088
72	0xbfad3bb500000000	-0.05709615349769592
73	0xbf9c621cde37c8f1	-0.027718020499329424
74	0x3fb76901f512bbf5	0.09144603951675363
75	0x3fafc850870eb6ea	0.062075153814800846
76	0x3fbaada22f9dceb0	0.10421193754683133
77	0xbfa8b8ff80000000	-0.048286423087120056
78	0x3fbce703b319f03d	0.1129000007876479
79	0xbf50129000000000	-0.0009809881448745728
80	0xbf61d52000000000	-0.002176821231842041
81	0x3fa435d200000000	0.039473116397857666
82	0xbfb5e2d4e38f431c	-0.08549242549566965
83	0xbfc1f7f325aa645f	-0.14037932719364485
84	0xbfbbf868c0000000	-0.10925917327404022
85	0x3f92d016a398dbc5	0.018371919379400987
86	0xbfba3d7c757bc639	-0.10250070446252203
87	0x3fa373c46db345ad	0.03799260939707536
88	0x3f9402b4e17db076	0.019541574728848286
89	0x3fc1f821e55d9169	0.14038490008818919
90	0xbfc1dfc19e2281c4	-0.13964100095200938
91	0xbfc61ef281a983d9	-0.1728194363704734
92	0x3f8a8a4e00000000	0.012959107756614685
93	0xbfaae1a0e1914ec5	-0.05250265840063898
94	0x3faa897d750518db	0.051830215963990255
95	0xbfb1959407b3470d	-0.06868863285060574
96	0x3fb973655257c94a	0.09941704998326376
97	0xbfb7a19d00000000	-0.09230977296829224
98	0xbfb92afad391cf71	-0.09831206956169837
99	0xbfb5d6d663dfaf60	-0.08530940950703103
100	0x3f53697c0dffeeb0	0.0011848174544856586
101	0xbfab6ae447cbf287	-0.05354989410804927
102	0x3fa07e4d372b1449	0.03221360491219422
103	0x3f96d5df87075c31	0.022300236336232074
104	0x3f87d3f6828ec36d	0.011634755954078558
105	0x3fbf83b59b4467fd	0.12310347595885669
106	0xbf8ebd087d217470	-0.01500898963802852
107	0xbfc63634a4767290	-0.17352922468571252
108	0x3f89fb4a00000000	0.01268632709980011
109	0x3fb20596ea997ac6	0.07039778926398829
110	0x3f976e269b1d81f3	0.022881129472240812
111	0x3fc058c2df1e41b4	0.12770877737467645
112	0xbfa5b1169c5d10aa	-0.04236670168623509
113	0xbfaf4a3700000000	-0.06111308932304382
114	0xbfb4ef86208d1578	-0.08177984518723302
115	0xbf91327d63628f52	-0.016794165793398826
116	0xbfb18051d720bc12	-0.06836425306458718
117	0x3fa8d04654b0a065	0.048464010084274624
118	0xbf90035d34e79623	-0.015637832979242938
119	0xbfbd73b497a4d11f	-0.11504677488557434
120	0x3fbc0b36dd912b48	0.10954611691810812
121	0xbfc3ad9b43dde752	-0.1537355500584519
122	0x3fb6b27ac85f0fe4	0.08866088287237478
123	0x3fb7956200000000	0.09212315082550049
124	0x3fb74eaddfafb250	0.09104429923144974
125	0x3fbd9fca71d20829	0.11571946410006774
126	0x3fb00a5d7f9c043b	0.06265816083397706
127	0xbf98febd00000000	-0.024409249424934387

fc3.weight f8 [64, 128]
0	0x3f9241d02180c3ef	0.01782918171392461
1	0xbfba2a32ea5abb43	-0.1022064039377542
2	0x3fb0e88020000000	0.06604767590761185
3	0x3f9249e600000000	0.01786002516746521
4	0xbfb0c9757deaafa7	-0.06557401966227748
5	0x3f8d0221c56910c7	0.014164222561824492
6	0x3f63761400000000	0.0023756399750709534
7	0xbfb0fc5980000000	-0.0663505494594574
8	0x3faa0559c0000000	0.050822071731090546
9	0x3f82c64300000000	0.009167216718196869
10	0xbfb3fa9880000000	-0.07804253697395325
11	0x3fadf818c0000000	0.058533452451229095
12	0xbfb7a28daf8ec70a	-0.09232411895825635
13	0xbfadb39520000000	-0.058010730892419815
14	0xbfaf60bfb224f569	-0.061285009857310176
15	0x3f996e9e00000000	0.024836033582687378
16	0xbfb9094217c34f85	-0.09779751854085646
17	0x3f81c54800000000	0.008677065372467041
18	0xbf999e2200000000	-0.02501729130744934
19	0xbfb6614120000000	-0.0874214842915535
20	0xbfb4a3e6c0000000	-0.08062593638896942
21	0xbfc00f5ddb10d85a	-0.12546895214626624
22	0xbf9ec95d80000000	-0.03006502240896225
23	0x3f698b7000000000	0.0031182467937469482
24	0xbfb2cb9b5c0c79d0	-0.0734192943313936
25	0xbfb09a27e0000000	-0.06485223025083542
26	0x3f9dff0500000000	0.029293134808540344
27	0x3faec7ddc0000000	0.06011860817670822
28	0xbfc160f4ef69d304	-0.1357713860521913
29	0x3fa48d1b40000000	0.040139056742191315
30	0x3fb04bfda0000000	0.06365952640771866
31	0x3f8e1fc400000000	0.014709025621414185
32	0xbfa0b415a0000000	-0.032623935490846634
33	0x3f818acd00000000	0.008565522730350494
34	0xbf8da82400000000	-0.01448085904121399
35	0xbfb102bd60000000	-0.06644805520772934
36	0xbf97d65780000000	-0.02327858656644821
37	0xbfa371c5a0000000	-0.03797738626599312
38	0xbf9a6cce80000000	-0.02580568939447403
39	0xbf739fd200000000	-0.004791088402271271
40	0x3f91104c80000000	0.01666373759508133
41	0x3fa4753440000000	0.03995669633150101
42	0x3f91d444f66c9646	0.017411305943048093
43	0x3fa520b240000000	0.04126507788896561
44	0x3f8f851b00000000	0.01539059728384018
45	0xbf85582e00000000	-0.010422095656394958
46	0xbfa41e67c0000000	-0.03929447382688522
47	0xbfb0b1f860000000	-0.06521560996770859
48	0xbf9fd7c3c0000000	-0.03109651431441307
49	0xbf912e86f53348d8	-0.016779049602356405
50	0x3fabc306c0000000	0.05422230809926987
51	0xbf9be6b580000000	-0.027247272431850433
52	0x3f6c0241db46a15a	0.003419045091693257
53	0xbfafe88fff9e8abb	-0.06232118602135502
54	0x3fb54c6220000000	0.08319676667451859
55	0x3fa0ae8000000000	0.032581329345703125
56	0x3faf82bb40000000	0.061544276773929596
57	0xbf96368500000000	-0.021692350506782532
58	0xbfb4a473c0000000	-0.08063434064388275
59	0xbfa6a3fd00000000	-0.04421988129615784
60	0x3f81f9c200000000	0.008777156472206116
61	0x3fa2b43440000000	0.03653109818696976
62	0xbfa6668d40000000	-0.04375115782022476
63	0xbfa24dea40000000	-0.03575069457292557
64	0x3fa482cd40000000	0.040060438215732574
65	0xbfb423c19034a783	-0.07867059488913068
66	0xbf98e44700000000	-0.024308308959007263
67	0xbfbabe4f0be226ea	-0.10446638145563339
68	0xbfb8a55f759a4e79	-0.09627339001809244
69	0xbfbf210ff7e3531a	-0.12159824182465365
70	0x3f91a3d16f52a856	0.017226478976830904
71	0x3fa75a46c0000000	0.04561062902212143
72	0x3fb2d97860000000	0.07363083213567734
73	0xbfb5018470286f13	-0.08205440271597934
74	0xbfa6f6b8b94db235	-0.04485108625417348
75	0xbfaea3daa0000000	-0.05984385684132576
76	0xbf905fee729c8ee5	-0.015990949387869064
77	0xbf2a084000000000	-0.00019861012697219849
78	0xbfae8d446d7757fd	-0.059671533930369926
79	0xbfb1399b80000000	-0.06728526949882507
80	0xbfa6f12780000000	-0.044808611273765564
81	0xbf921cd400000000	-0.017688095569610596
82	0xbfb0785b80000000	-0.06433650851249695
83	0x3fb1a45ca0000000	0.06891421228647232
84	0x3fa3410740000000	0.03760550171136856
85	0xbfa4f5ef60000000	-0.040938835591077805
86	0xbf86afe800000000	-0.011077702045440674
87	0xbfc26c507b74f534	-0.14393049266974745
88	0xbfc2a085c3e9c3db	-0.14552375856467745
89	0xbfa6452080000000	-0.04349614679813385
90	0xbf83ac8200000000	-0.00960637629032135
91	0xbfadfd27a0000000	-0.05857204273343086
92	0xbfa7708700000000	-0.04578039050102234
93	0xbfb6181c20000000	-0.08630538731813431
94	0xbfb4f110d5f12e4b	-0.0818033716506587
95	0xbfac856be0000000	-0.05570542439818382
96	0xbfb3dc426c2ef100	-0.07757964268870765
97	0x3fb5416920000000	0.08302933722734451
98	0xbfab40e3e0000000	-0.053229447454214096
99	0x3fac6d2540000000	0.05552021414041519
100	0xbfa20de1c0000000	-0.03526216000318527
101	0xbfbbdc1e1627e137	-0.10882747689163784
102	0x3f9e832a80000000	0.029797233641147614
103	0xbfb6467820000000	-0.08701277524232864
104	0xbfa8e9ade0000000	-0.04865783080458641
105	0xbf9f5424eab25ff0	-0.030594422173265856
106	0x3faa7c4bc0000000	0.05172955244779587
107	0xbf85bec600000000	-0.010617777705192566
108	0xbf8b4bf900000000	-0.013328500092029572
109	0xbfc37dd7d00c0735	-0.15227792414230526
110	0xbfa6004a60000000	-0.042970966547727585
111	0xbfb01d62177db666	-0.06294835160744014
112	0x3f93effce6f795a0	0.019470168683161426
113	0x3faf1a48c0000000	0.060747407376766205
114	0x3f71123eb948ae63	0.004167790426929582
115	0xbf9556d800000000	-0.02083909511566162
116	0x3fafac4440000000	0.06186116486787796
117	0xbfb5c98e60000000	-0.0851067528128624
118	0xbf91b36f00000000	-0.017286047339439392
119	0xbf9e808940000000	-0.029787201434373856
120	0xbf491fa05cf227f3	-0.0007667096159746908
121	0x3fb622f4a0000000	0.08647087961435318
122	0xbfb6d666b74f0f78	-0.08920900321305492
123	0xbfb52bf0e0000000	-0.08270173519849777
124	0xbfbec802b8da02f6	-0.12023942006090835
125	0xbfb5ba4f9f4a2b94	-0.08487413062009203
126	0xbfb4b5c8e8cfd50a	-0.08089881595499918
127	0xbfaf79e240000000	-0.061476774513721466
128	0x3f78c1ea63ea6569	0.0060443073149597315
129	0xbfb0ecd3e5c5a3a1	-0.06611370429676679
130	0xbfb2c5bda0000000	-0.07332978397607803
131	0xbfa8586180000000	-0.0475492924451828
132	0xbfc288d687d9e44d	-0.14480096467358053
133	0xbfbca653c861dd96	-0.1119129528250283
134	0x3f6f65fc00000000	0.003832809627056122
135	0xbfb1cee0a0000000	-0.06956294924020767
136	0xbfa4305760000000	-0.039431314915418625
137	0x3fa0dc19be0e8ab9	0.03292923398045872
138	0x3fa62a9fc0000000	0.043293945491313934
139	0x3fa3b3ac40000000	0.03848017007112503
140	0xbf4ff35b7cc94f39	-0.0009750553813980607
141	0x3f9a50bdfc004d7d	0.02569863176911501
142	0xbfb44566c05ca290	-0.07918398090681422
143	0x3f96d4038d1eb354	0.022293143738056756
144	0x3f713012d9b34316	0.004196237215368345
145	0x3f973d22c5c079d6	0.022694152183356874
146	0x3fc0d24a5b178643	0.13141755531164465
147	0xbfa10cfec0000000	-0.033302269876003265
148	0x3f9a875f80000000	0.025907032191753387
149	0xbfb2f135d2d6b7be	-0.07399307629995541
150	0x3fba79268dc1c970	0.10341111145843285
151	0x3f760cde00000000	0.0053833648562431335
152	0xbfab3223a8d5d64a	-0.053116907462861976
153	0xbf87d6e800000000	-0.011640369892120361
154	0xbf7db17c00000000	-0.0072493404150009155
155	0x3fa9dd05de1f2dcd	0.05051439606139816
156	0xbfafbdf353af0bc2	-0.061996082272819844
157	0x3fafaf87696b076d	0.06188605462877104
158	0xbf9b68dce3a1cccc	-0.026767207521015732
159	0x3f87710f01316a67	0.011446110938938504
160	0x3fb5af6320000000	0.08470744639635086
161	0xbf66df400f2e393d	-0.0027920008810219652
162	0x3fa4d098676975e4	0.040653956054238966
163	0x3fc16ad97cfeb846	0.1360732899024148
164	0x3fa358c1b2340489	0.03778653431255303
165	0xbfaeae4ea0000000	-0.05992360785603523
166	0x3fb55f70a0000000	0.08348754793405533
167	0xbfb438c520000000	-0.07899124175310135
168	0xbfc22d2de15e7502	-0.14200376037926082
169	0x3f9e80d9251dce12	0.029788391962439383
170	0x3fa0f4a62318c2d6	0.033116523536937656
171	0x3fb4b95b60000000	0.08095332235097885
172	0xbfb1c6e080000000	-0.06944087147712708
173	0x3fb02a270694d712	0.0631431952541244
174	0x3faae7731961f757	0.05254707035872624
175	0x3fa881113b836eab	0.04785970546228432
176	0x3fa19fa80c689e83	0.03442120696518904
177	0xbfba8e770d055e1c	-0.10373634403128346
178	0x3fa6b7dac0000000	0.04437144845724106
179	0x3f6bb92000000000	0.0033841729164123535
180	0x3faafa9b2304c860	0.052693222069493784
181	0x3f7946fd50eb9039	0.006171216503137394
182	0x3fa9fbd3d93d9b01	0.05074941660750732
183	0x3fb01fb320000000	0.06298369914293289
184	0xbf727ebca33af4f0	-0.004515396943756786
185	0x3fa8b6bd40000000	0.04826918989419937
186	0xbf9778e580000000	-0.022922120988368988
187	0x3f726f4c00000000	0.004500672221183777
188	0x3fa4fbc07ccad1bc	0.04098321460097362
189	0x3f6924a800000000	0.0030692368745803833
190	0x3fc271e2e72db01f	0.14410053527842678
191	0xbfac19d340000000	-0.05488453060388565
192	0x3fb5d7b3e0000000	0.08532261103391647
193	0xbfafe8f0a57268ca	-0.06232406634917849
194	0x3f9dff14b06d6175	0.029293368595376863
195	0xbfa1a78972e054fa	-0.03448133017824691
196	0x3fa93ad51087487b	0.04927697970164587
197	0xbf99218dd05ba0f8	-0.0245420607015214
198	0xbf71072c00000000	-0.004157230257987976
199	0x3fbcaae8118f6e43	0.1119828265067833
200	0x3fb16f9a20000000	0.06810916215181351
201	0x3f99c6a19d4fb06e	0.025171780802267944
202	0x3f916a16e2583881	0.01700626141069295
203	0x3fb5c0145bcf855c	0.08496215096922327
204	0xbfa6eac949ca4239	-0.04476002717740752
205	0xbfa8c477c0000000	-0.048373930156230927
206	0x3f6bf50ad73a6c07	0.0034127437337025976
207	0xbfa36b5120000000	-0.03792813792824745
208	0x3faad86f40000000	0.05243251472711563
209	0x3faeda7040000000	0.06026030331850052
210	0x3fb8962a9792910f	0.09604135704518434
211	0x3f9186e02cb79563	0.017116072396580317
212	0x3fa187f500000000	0.034240394830703735
213	0x3fbfd5598e9c0ce9	0.12434921008757595
214	0x3fb2a2c7a4ea45e1	0.07279632354973088
215	0x3fb80ed1349c8b61	0.09397609266720287
216	0x3f9456453f670925	0.019860345835476374
217	0x3fa6ae9cc0000000	0.04430093616247177
218	0x3fb852564d5f8e59	0.09500636471744296
219	0x3fb93112bbd5e1a2	0.0984050472815228
220	0x3f91da7e80000000	0.01743505150079727
221	0xbf5b9fb6b8ee7ded	-0.0016860279463130027
222	0xbfb5167745e4dc1d	-0.08237405258556448
223	0x3f80756e3a1a97c2	0.008036481044950142
224	0xbfb21df3d74586d0	-0.07076953893331539
225	0x3fb54fc4e0000000	0.08324842900037766
226	0x3f9b047adfaeeae4	0.026384277250808177
227	0xbf874898e03a7395	-0.01136893686571642
228	0x3fbdef7ea4743fa9	0.11693564906113231
229	0x3f923e09bd7a3148	0.017814781369950766
230	0x3fa83db5b7507241	0.04734580862734506
231	0x3fad312900d9aff3	0.05701568732624187
232	0xbf8ba60ec7298f85	-0.013500323727562389
233	0xbf9ee4272ec21a39	-0.030167209843535246
234	0x3f90ccd506d0a2f5	0.016406372586206214
235	0x3fc12684ce8c6e38	0.13398799977663756
236	0x3f806e2e00000000	0.008022651076316833
237	0xbfb4bbf8b4c78e97	-0.08099321759760368
238	0x3fb9535a2116b6b9	0.09892810161428657
239	0xbf9b98a5f8f4bcf7	-0.026949494667118903
240	0x3fae2addf23b1ad1	0.05892079908294579
241	0xbf98438d80000000	-0.023695193231105804
242	0xbfbf868ba84f54db	-0.12314675196769846
243	0x3fb56e54e0000000	0.08371477574110031
244	0xbfb268f90de6fccd	-0.07191425885592935
245	0x3fbbe2abd4066cba	0.10892747808832129
246	0x3fa2bc3bc0000000	0.036592356860637665
247	0x3fb5fd43441b305b	0.08589573300122437
248	0xbf96288923385f1b	-0.021639006399794086
249	0xbfaefdf240000000	-0.06053120642900467
250	0xbfb8700d4dcf032a	-0.09545977735161829
251	0xbfb0027120000000	-0.06253726035356522
252	0x3f939f9000000000	0.01916337013244629
253	0xbfa480eee881d3cb	-0.040046182520121563
254	0xbfaa53bfb711de49	-0.05142020330179926
255	0xbf8ad90300000000	-0.013109229505062103

fc3.bias f8 [64]
0	0xbfbe765462752e63	-0.11899306682351489
1	0x3fa25a4d8243f5dc	0.035845205451533
2	0x3f833e69fc40b2b2	0.009396389017717641
3	0x3fb4abadb8811fad	0.08074460749150943
4	0xbfc09ee6623a5312	-0.12984924122124447
5	0x3fb150250cf95664	0.06762916151759552
6	0xbf9fd16419dc00a4	-0.03107220084984931
7	0xbfba09ac7ee05a0e	-0.10171011064117172
8	0xbf99725e00000000	-0.02485033869743347
9	0x3fbca97bebe0a10d	0.11196112164237011
10	0x3f9bf79d00000000	0.02731175720691681
11	0x3fc39a757189aeae	0.15315120738829563
12	0xbfb0323820000000	-0.06326628476381302
13	0x3fc32150ad1fbe14	0.14945419743843102
14	0xbfab42e3f76e5f75	-0.05324470897102077
15	0xbfb065f2df336e22	-0.06405561398735718
16	0x3fbb1843b3bb8870	0.1058389962959454
17	0xbfae05aa0db07582	-0.05863696496110561
18	0x3fc7443b5ccb6f47	0.18176977187146745
19	0x3fb55a2b20000000	0.08340711146593094
20	0xbfaf9e4ba0000000	-0.06175457313656807
21	0xbfb99f21fef1984f	-0.10008442377292791
22	0xbfc18e7ddb1f05db	-0.13716099929119605
23	0x3fa21d5378cbbcd2	0.03537999009665217
24	0x3fce2cf7ae960ead	0.23574729943003572
25	0x3fbbbae160327c50	0.10832031820835764
26	0xbfc19024c78f9517	-0.13721141571219483
27	0xbfb46ef7a0000000	-0.0798182263970375
28	0x3fc0a86fd2c09d56	0.13014028349537438
29	0xbfc245a1c0668312	-0.14274999517967807
30	0xbfb37f617134dc67	-0.0761624242194202
31	0xbf916cb100000000	-0.01701618731021881
32	0xbfa92d9c20000000	-0.04917610064148903
33	0xbfa6c5da80000000	-0.04447825253009796
34	0xbf9cf31f8ecdead8	-0.02827119168385192
35	0xbfb5a3ff40000000	-0.08453364670276642
36	0xbfaeb3389f3b961b	-0.059961099088280366
37	0xbfb3914740000000	-0.07643552124500275
38	0xbfa78dec00000000	-0.046004652976989746
39	0xbf8238c400000000	-0.008897334337234497
40	0xbfa8d86af39f0fc1	-0.04852613662617911
41	0xbfc007a9727d564a	-0.12523382273018263
42	0x3f92cae582c5219a	0.018352113825388018
43	0xbfc19ca0cb582511	-0.1375924103634039
44	0xbf87e99b14400efe	-0.01167603641079706
45	0xbfbb36feaaecc3c8	-0.10630790398569367
46	0xbfb55dafb2dd7cd4	-0.08346078984094457
47	0xbf9e0af405901688	-0.029338658179787674
48	0xbfb11bb3a9d64021	-0.06682894607934077
49	0xbfa749b843645df6	-0.04548431227356879
50	0x3fbedf4488e1889d	0.12059429494687142
51	0x3f79673559c23049	0.006201942826134462
52	0x3fb052be83eb8a05	0.06376257630066824
53	0x3fbae8b2f9b1a2f6	0.1051132068256598
54	0xbfafbd24da9a8840	-0.061989928898825486
55	0xbfae408f98eed0a8	-0.059086310785830876
56	0x3fc30242aefc3cc2	0.14850648445324138
57	0x3f8492044b226528	0.010044129889410572
58	0xbfa7192a57b63a38	-0.04511387177182197
59	0xbfb427496e765242	-0.07872446963148952
60	0x3fbe54f464a7a254	0.11848380525010188
61	0x3fc0762c72bc7ef7	0.12860637285574913
62	0xbfc15256a3c1b428	-0.13532526966028624
63	0x3fb8bdede1b34741	0.09664808998357179

fc4.weight f8 [2, 64]
0	0xbf9564cfb04946b0	-0.02089237702813901
1	0x3fb810361bf06346	0.09399736578087667
2	0x3fa27f2b7064e52f	0.03612647768972931
3	0x3fa64fd9f3b50769	0.04357796764317252
4	0xbfaa4552f9160707	-0.0513101510105241
5	0x3f832fce1e899bf3	0.00936852484410442
6	0x3fb393ae070d99f8	0.07647216484256336
7	0xbf967e7b4bd90118	-0.02196686411321122
8	0x3fa52fda80000000	0.04138071835041046
9	0xbfbe90b4230417e5	-0.11939550261385497
10	0x3f83c02a00000000	0.00964386761188507
11	0x3fb0ba33089cbef4	0.06534117660771327
12	0x3fb938be00000000	0.09852206707000732
13	0x3f73ec7f1e583c8b	0.004864212567112901
14	0x3fa85d1a3bbab320	0.047585315505193515
15	0xbfa358206e1b32e5	-0.03778172821112039
16	0x3fa7f1ef172c79e4	0.046767684534859716
17	0x3fa4db4ba181175c	0.040735591378093544
18	0x3fb0daf3d2a80386	0.06584094899154821
19	0x3fad9c2880000000	0.0578320175409317
20	0x3fa8d1fc80000000	0.04847706854343414
21	0x3f8199f9100ad2a3	0.008594461252280644
22	0x3fa89cbdd50c5c40	0.04807084298789066
23	0xbf521f49ff17b980	-0.0011060927030218382
24	0x3f9372d75f3d6743	0.018992772281627223
25	0x3f994208f57b04ce	0.024665966017668954
26	0xbfa8a7b61d8b32fd	-0.0481545363487381
27	0xbfa4d1d580000000	-0.04066340625286102
28	0x3f9d389c05e144af	0.028536260470279625
29	0xbf97f353913dd1ab	-0.023389154186092814
30	0xbf846bfd09fed15a	-0.009971596591505861
31	0xbfbcbf26c0000000	-0.11229173839092255
32	0xbf805d8400000000	-0.007990866899490356
33	0x3fb8456ec0000000	0.09480945765972137
34	0x3f9465a46a9b0af5	0.019918984419528624
35	0xbf8bb2d200000000	-0.013524666428565979
36	0x3fba97f02f0841ef	0.10388089321373405
37	0x3fbc6ae140000000	0.11100585758686066
38	0x3fbbf985c0000000	0.10927616059780121
39	0x3fa7525c80000000	0.04555024206638336
40	0xbfa2fd69689c0c7e	-0.037089628238413205
41	0xbf9092536ca24a02	-0.016183188920487986
42	0xbf90c6d668b234ec	-0.016383505001205487
43	0x3fa117fa1b95e57b	0.03338605486619436
44	0x3f73e0e7018c464f	0.00485315548645955
45	0x3fa5193ca13d2b22	0.041208166773307534
46	0x3f71b251fff28ea4	0.004320450126360651
47	0x3f9c7bea0b372ec8	0.027816445288222608
48	0x3faa0b380772fd6e	0.05086684313709609
49	0x3faf5359db921575	0.061182792714172964
50	0x3f809d45baa19aae	0.008112473257097488
51	0xbfa42f23e56e5447	-0.03942215133353293
52	0x3fb4bbf77df09412	0.08099314522458226
53	0x3fb80ed4140f1aa9	0.09397626390191739
54	0xbf662f8d0b1a09ea	-0.0027082209351771873
55	0xbf87e21b25b623ad	-0.011661731804240317
56	0xbfb0f8de3960332b	-0.0662974252774801
57	0xbfb008eb5c9180fa	-0.06263609895677638
58	0x3fac24a8a71177d2	0.054967184442588427
59	0xbfaef514b9e2c7f8	-0.06046356934656666
60	0x3fa1e11708053a47	0.034920425156646
61	0x3fb3cd3f3b966d73	0.07735057072425437
62	0x3f88ac74eea33031	0.012047685177456998
63	0x3fb85810d581e60e	0.09509377682288564
64	0x3fa5aa64ec2ad930	0.04231562979605241
65	0xbfa466de81e5dad6	-0.03984732947985996
66	0xbfd49d279ba941e6	-0.3220919628265889
67	0xbfb01c4f555b8c6e	-0.06293197473455489
68	0xbfc4f3da84264250	-0.16369182064637977
69	0xbfd6c5068e556ca6	-0.3557754888513024
70	0xbfca68295578ce59	-0.20630375550682592
71	0xbf87e15dda861f3a	-0.01166032145626127
72	0x3fbb478d80000000	0.10656055808067322
73	0xbfd615bff2439c92	-0.34507750185589103
74	0xbfb8257380000000	-0.09432145953178406
75	0xbfd62a82b910e0c5	-0.34634464333386134
76	0xbf9ac55a00000000	-0.02614346146583557
77	0xbfd00f262533efc6	-0.2509246218976354
78	0xbfb1dc926e3fd211	-0.06977191154130248
79	0xbfbb99ded3726175	-0.10781662618899708
80	0xbfca19636b8c3ae1	-0.20389979125362515
81	0xbfb636763b622715	-0.0867685217837358
82	0xbfd6596373b94c89	-0.34920584012179084
83	0x3fb7a61200000000	0.09237778186798096
84	0xbfad056900000000	-0.05668190121650696
85	0x3fae4ab3746aab6e	0.05916367336370497
86	0xbfb986f9a63f3ba6	-0.099715807998321
87	0xbfc35e97437469e0	-0.15132418435753348
88	0xbfd7c26c902bdceb	-0.37124170378906624
89	0xbfc3203e1148688d	-0.14942146152390415
90	0xbfa30abc1bb18b7a	-0.03719127500587312
91	0xbfb8ce9fc0000000	-0.09690283238887787
92	0xbfd05934fdc80c11	-0.2554447630247419
93	0x3fa2159b164ffd81	0.03532108924263878
94	0x3fbc04143ef29e19	0.10943724190530481
95	0xbfb0425ac0000000	-0.06351248919963837
96	0x3fa49dfa00000000	0.040267765522003174
97	0xbf97871000000000	-0.022976160049438477
98	0xbfaa401964f90cc1	-0.05127028806284662
99	0xbfa68e6700000000	-0.04405519366264343
100	0xbf94bb18f330ed49	-0.020244970172126817
101	0x3fbff86480000000	0.12488391995429993
102	0xbfbd0fd800000000	-0.11352300643920898
103	0x3fbb2ce3c0000000	0.1061537116765976
104	0xbfc40e6eb201a65e	-0.15669044200631083
105	0xbfc0c8c628d934eb	-0.13112713808587925
106	0xbfccab1d0a0613bb	-0.22397196759643898
107	0x3f9b32416f986465	0.02655889743445918
108	0xbf7dc12740f36860	-0.007264283499546748
109	0xbfbab3404e641211	-0.10429765619125698
110	0x3fad69a10d64b1f9	0.05744651115887573
111	0xbf8638d76947223e	-0.010850603962255009
112	0xbfaa95b5b80c18ce	-0.05192344543142867
113	0xbfc17b22e91a1014	-0.13657032377170764
114	0xbfd462e4ebc99bd1	-0.3185360243427882
115	0x3f96b50116a1aaa8	0.022174851423566594
116	0xbfd028864bfe2af6	-0.25247342511344983
117	0xbfd329c81a9ebc6e	-0.29942514991393565
118	0x3f823412b339e7d0	0.008888383955525742
119	0xbfb7329752e9065b	-0.09061570905853371
120	0xbfee3f59d90a559d	-0.9452332724637703
121	0x3faa3e870467fbaa	0.05125829628740715
122	0x3f8644330d19df29	0.010872267567932763
123	0xbfb83db596d9fd91	-0.09469160969637459
124	0xbfd5981a194da8b7	-0.33740856619864296
125	0xbfcd56c5000e1452	-0.22921049597440174
126	0xbfb01de86017514c	-0.06295635553334938
127	0xbfd3489af519db45	-0.3013064759792779

fc4.bias f8 [2]
0	0x3fb3f261ecf0f76a	0.07791721377085783
1	0xbfbbe9fed469616e	-0.10903923688727499
