src/backend/controller/checkpoints/checkpoint_epoch_29.pth (torch, 420207 bytes, 25 tensors)

fc1.weight f8 [64, 5]
000000 0a 6d 53 ce 09 5d c6 3f 27 c5 a5 e4 bf 81 dd bf
       0.17471430372720703 -0.4610442860494736
000010 c2 7c ac 5f 33 25 d0 3f 8a ff f9 01 a1 79 c7 bf
       0.25227054923193404 -0.18339932056914804
000020 20 48 0d b8 7e 12 bc 3f 00 00 00 40 87 28 c4 bf
       0.1096572112412848 -0.15748682618141174
000030 00 00 00 a0 b4 4c d2 bf 00 00 00 60 19 c4 da bf
       -0.2859317362308502 -0.4182189404964447
000040 00 00 00 c0 7e 27 ce bf 00 00 00 00 76 49 ba 3f
       -0.23558029532432556 0.102683424949646
000050 b1 34 b2 01 3b 61 ce bf 4e 1c 8d 22 72 2e bd 3f
       -0.2373422392160243 0.11398995727096059
000060 f2 66 b5 a8 2d 94 d7 bf a6 8c 32 62 f6 98 d9 3f
       -0.3684190890831892 0.39996108617396897
000070 49 fb 41 28 20 35 b0 3f 00 00 00 00 e3 b3 d2 3f
       0.06331063254218096 0.29222941398620605
000080 00 00 00 40 21 7d c0 bf 00 00 00 80 21 03 d1 bf
       -0.12881866097450256 -0.2658160924911499
000090 00 00 00 80 08 52 d7 bf 00 00 00 80 03 e7 b5 bf
       -0.36438190937042236 -0.08555623888969421
0000a0 00 00 00 c0 4b ff c4 bf 00 00 00 00 a4 2d 8a bf
       -0.16404101252555847 -0.012782365083694458
0000b0 00 00 00 40 42 65 d9 3f 00 00 00 00 98 ab 93 3f
       0.3968053460121155 0.01920926570892334
0000c0 00 00 00 40 1c 0d da bf 39 ec d2 50 65 25 c3 bf
       -0.4070501923561096 -0.14957872816543885
0000d0 10 9f 54 2a 4d 14 d5 3f f0 0b 30 be 25 0a d7 3f
       0.3293641007789896 0.35999435017600856
0000e0 9a 8a 37 03 ff 21 ba 3f fd 04 0c 97 57 0c d7 bf
       0.10208123997248678 -0.36012830496481724
0000f0 06 8e dc 1c 14 56 ca bf 02 70 56 6a d6 8f d1 bf
       -0.20575190934424387 -0.27440414795432855
000100 99 94 4c d3 64 5e d2 3f 77 00 ea 48 d8 02 d1 3f
       0.2870113433330715 0.26579863663210496
000110 e6 38 cf 23 1a 51 da 3f 00 00 00 c0 50 ec d7 3f
       0.41120007988946694 0.37379854917526245
000120 00 00 00 80 44 69 da bf 00 00 00 80 10 65 b6 bf
       -0.41267502307891846 -0.0874796211719513
000130 00 00 00 40 58 8f d4 bf 00 00 00 00 00 02 b6 3f
       -0.3212490677833557 0.085968017578125
000140 28 53 e0 1f b6 55 c9 3f 26 c8 67 e9 b3 0b cf bf
       0.19792820507486764 -0.24254464051006258
000150 b8 c7 93 66 3f 2a 60 3f 85 98 9c cd f9 12 c0 3f
       0.001973270253636774 0.1255790952647581
000160 c0 70 3a 93 ff 9d d0 3f 9c 94 e7 a5 78 dd d4 3f
       0.2596434533859444 0.32601753427145197
000170 51 84 21 9a 86 15 95 3f 89 15 c3 e1 24 52 b3 3f
       0.020589926869778733 0.07547216903465971
000180 a7 67 ae 5c dc 07 d8 bf 7a 3e 63 c0 2d 33 c1 3f
       -0.3754797844973105 0.13437435048989582
000190 89 78 ba f2 a6 2b d6 bf 94 cd 2f 80 28 79 bb bf
       -0.3464143152613209 -0.10731747750815251
0001a0 9b b4 f6 31 02 e0 d4 3f 9f 90 52 c6 6c 49 81 bf
       0.3261723983694737 -0.008440828134844756
0001b0 be d0 4f ad 5d 39 bc 3f b6 0f 7e 55 75 19 d2 3f
       0.11025033456081965 0.2828038535010323
0001c0 84 2c b9 dc d6 10 c8 3f d9 63 b5 3c 9f 18 7b 3f
       0.18801389482027642 0.006615278263176949
0001d0 d8 81 49 21 2a 22 d5 3f e6 1d d3 11 2a a7 8e 3f
       0.33021023989388487 0.014967278164831076
0001e0 00 00 00 80 db 48 c4 bf 00 00 00 00 85 70 ba 3f
       -0.1584734320640564 0.10327941179275513
0001f0 00 00 00 80 33 b8 d6 bf 00 00 00 80 8c 16 d3 3f
       -0.35499274730682373 0.29825127124786377
000200 00 00 00 40 05 87 c9 bf 94 f6 43 4e ac 34 d5 bf
       -0.19943299889564514 -0.33133990901101495
000210 f3 f1 24 43 0f 78 c8 3f f5 83 54 db d4 e9 d9 3f
       0.19116392878085228 0.4048969404121288
000220 d0 91 eb 4e 19 c4 8a bf 0c 4e 4c 34 2e 8f d1 3f
       -0.01306934139342611 0.27436404330475805
000230 fc bb 8d 8e 18 16 d6 bf 84 55 13 ab ca 32 d0 3f
       -0.34509862824683046 0.2531000776919756
000240 69 ee 0c 39 ae b8 bc bf 5e 32 b7 37 d0 f3 9f 3f
       -0.11219300167879855 0.031203511620150663
000250 77 e3 a9 5c 39 37 b1 bf 00 00 00 a0 ca 04 d2 bf
       -0.06724890243812164 -0.28154245018959045
000260 00 00 00 c0 99 04 d9 bf 00 00 00 40 7e fa d1 bf
       -0.39090579748153687 -0.2809138894081116
000270 00 00 00 c0 30 56 d9 3f 00 00 00 00 88 4c c0 3f
       0.3958856463432312 0.1273355484008789
000280 1d 79 cf cd ff 89 ca 3f e1 1c dd 2e 4b ed a6 bf
       0.20733640240991572 -0.044779157133740595
000290 68 87 4a 05 a4 b2 cb 3f 51 b0 c0 d4 44 03 74 bf
       0.2163891816936101 -0.004885929938648629
0002a0 37 48 c9 af 3e fb c1 3f 97 c3 9b 92 e7 11 a4 bf
       0.14047988494218241 -0.03919910111097307
0002b0 05 11 00 2c e2 d8 d6 3f f3 c0 9c 5a a9 e2 c1 3f
       0.3569875173273121 0.13972966122083327
0002c0 a8 d6 40 e0 90 31 c2 3f 53 7f 62 99 4a c9 cf 3f
       0.14213763189188922 0.24833042611589437
0002d0 00 00 00 80 20 81 cd 3f 00 00 00 c0 e0 de c6 bf
       0.2305031418800354 -0.17867669463157654
0002e0 00 00 00 80 69 4c db bf 00 00 00 00 2d d4 a7 3f
       -0.4265388250350952 0.046540647745132446
0002f0 00 00 00 80 3d 23 d2 bf 7b ea b4 65 e2 60 b8 3f
       -0.28340089321136475 0.09522833808015634
000300 b8 bd fd 22 72 2d a9 3f 65 97 0b 15 7c 3c bc 3f
       0.04917484929216748 0.11029792321968797
000310 f8 49 19 d5 15 a0 d1 3f 4d 69 ef 44 c3 09 c9 bf
       0.27539583025387016 -0.1956104361150416
000320 89 89 8f c3 e1 fe df 3f 87 58 6d 53 4f 84 d6 bf
       0.49993175599788536 -0.35182555339032046
000330 f5 fe 20 51 56 d5 d0 bf 91 3d 57 1c 88 e8 cc 3f
       -0.26302106783621976 0.22584630378558448
000340 50 e2 80 2b 89 79 9b bf 00 00 00 80 5f b4 c9 3f
       -0.026830809860458438 0.2008170485496521
000350 00 00 00 00 d0 d7 cd bf 00 00 00 00 ed e2 aa bf
       -0.23314857482910156 -0.052512556314468384
000360 00 00 00 00 f1 43 c3 bf 00 00 00 00 f3 27 d0 bf
       -0.15051090717315674 -0.2524383068084717
000370 00 00 00 40 1f 51 db 3f 00 00 00 e0 40 8f c9 bf
       0.4268262982368469 -0.1996842473745346
000380 00 00 00 80 82 d1 d3 bf 00 00 00 40 af 45 da bf
       -0.30966246128082275 -0.41050320863723755
000390 00 00 00 a0 c9 46 da bf eb 6c b6 3b 67 ef c4 3f
       -0.41057053208351135 0.16355600753454466
0003a0 c5 82 0e e1 a4 6f d1 3f 5d 1d 29 6d c6 63 b9 bf
       0.272439212591092 -0.09917869725278679
0003b0 bb c3 ac 14 00 36 e0 bf 82 f7 45 c2 9d 9e c0 3f
       -0.5065918353849307 0.12984058366776813
0003c0 00 00 00 00 0f ed bd bf 00 00 00 e0 bc b6 d8 bf
       -0.11689847707748413 -0.3861534297466278
0003d0 00 00 00 80 9a 77 d8 3f 00 00 00 80 14 62 c1 3f
       0.3823000192642212 0.1358056664466858
0003e0 00 00 00 20 25 46 cf bf 71 c7 9e 0c 11 b8 cd bf
       -0.24432815611362457 -0.23217976680967525
0003f0 9e a8 d5 39 48 13 c1 3f 6e 22 ee 3f 4b 62 d2 bf
       0.13340094398455887 -0.28724938624558305
000400 1b 83 76 b3 23 94 d1 3f 7f 95 a6 43 95 cf d1 bf
       0.27466671491315403 -0.2782948647166776
000410 00 00 00 00 8e de d6 3f 00 00 00 80 e5 75 bd bf
       0.3573336601257324 -0.11508020758628845
000420 00 00 00 00 77 5c b5 3f 00 00 00 c0 c0 b0 db bf
       0.08344215154647827 -0.4326631426811218
000430 00 00 00 80 12 2a b3 bf 00 00 00 00 a6 2e b0 bf
       -0.07486072182655334 -0.06321179866790771
000440 00 00 00 40 dd 09 c0 bf 00 00 00 00 b0 07 af bf
       -0.1253010332584381 -0.060605525970458984
000450 00 00 00 80 bd ad b2 bf 00 00 00 c0 70 25 d4 3f
       -0.07296356558799744 0.3147851824760437
000460 84 fb f7 67 c9 5f ad 3f 11 41 45 ca df 2f ca bf
       0.0573714198508162 -0.20458600403299745
000470 07 08 6c f4 76 23 d0 3f a1 30 d3 37 d4 b8 c3 3f
       0.252164591496808 0.15407803273990786
000480 6d 8a f3 a7 a2 c2 d2 bf 00 00 00 00 d9 f1 c1 bf
       -0.2931296005391804 -0.14019310474395752
000490 00 00 00 80 88 60 bf bf 00 00 00 80 68 09 d6 3f
       -0.12256672978401184 0.3443242311477661
0004a0 00 00 00 00 28 ff 8b bf 00 00 00 00 90 65 c1 3f
       -0.013670265674591064 0.1359119415283203
0004b0 00 00 00 80 0e e1 c3 bf 00 00 00 80 40 70 cb 3f
       -0.1553056836128235 0.21436315774917603
0004c0 00 00 00 00 5e 63 b8 bf 00 00 00 00 15 a0 c8 3f
       -0.09526622295379639 0.19238531589508057
0004d0 00 00 00 00 8d f7 a1 3f 00 00 00 80 81 d9 c8 3f
       0.035091787576675415 0.19413775205612183
0004e0 00 00 00 00 a4 03 91 3f 00 00 00 80 f8 bd d4 bf
       0.016615450382232666 -0.32409489154815674
0004f0 00 00 00 c0 89 68 d9 bf 00 00 00 40 97 d0 d1 bf
       -0.39700549840927124 -0.2783563733100891
000500 8e 45 1d 6b 5d 29 b0 3f 58 89 a4 2e 29 07 c4 3f
       0.06313117852302794 0.15646853234745595
000510 f2 04 91 2c 94 1b ce bf 71 de 94 2c e1 8b cd 3f
       -0.23521663833711376 0.23083128620941154
000520 59 e5 a7 f4 be d8 d4 3f 50 47 60 f3 d0 da c2 3f
       0.3257291211335392 0.14730274089429907
000530 c7 0b c6 6c 39 d3 d3 bf 81 c7 4f 5a 95 86 ab 3f
       -0.309767109131084 0.05376116492688166
000540 79 bd 98 8e 84 64 cc 3f 00 d9 7d 09 20 b5 d8 3f
       0.22181755984045617 0.38605500151551553
000550 00 00 00 00 cb 91 d1 bf 00 00 00 00 f4 f6 ad 3f
       -0.2745234966278076 0.0585247278213501
000560 00 00 00 00 45 a0 c0 bf 00 00 00 00 00 79 cb 3f
       -0.129891037940979 0.214630126953125
000570 00 00 00 00 7c 66 ac 3f 00 00 00 20 35 79 d8 bf
       0.055469393730163574 -0.38239791989326477
000580 00 00 00 80 e0 ea b4 bf 00 00 00 00 08 bf 9f 3f
       -0.08170893788337708 0.031002163887023926
000590 00 00 00 00 5e 09 d7 bf 00 00 00 20 16 24 d9 bf
       -0.35994672775268555 -0.3928275406360626
0005a0 b0 06 b9 3a a7 34 da 3f 10 ef 03 c7 bf e6 bb bf
       0.4094636987175404 -0.10898970230840299
0005b0 a7 7a 5e 38 82 61 d6 bf 2f 30 80 0d ab a2 a2 3f
       -0.3497014570693104 0.03639730968288323
0005c0 bb 0c 4f a1 10 fc cc 3f 7b 8e a7 20 3b 90 d5 3f
       0.2264424121513907 0.3369281596080566
0005d0 04 a2 2f a2 04 44 b2 3f 4e 46 fd 74 48 1b cd 3f
       0.07135037383671522 0.22739511215563585
0005e0 53 64 39 03 bc 7b d1 3f 92 9b e7 a0 0d 84 d8 3f
       0.2731771499143793 0.38305988992072415
0005f0 c2 df 9b d1 cb bd d0 3f fc 74 e5 85 0f e1 c0 bf
       0.2615842387162922 -0.13186830556779927
000600 40 4b f3 c3 64 33 d1 bf bc 12 74 b4 7b 37 c9 bf
       -0.2687618173196604 -0.19700571356965735
000610 26 1d 58 e6 ca c0 bb bf de ad fa e8 97 0f d4 bf
       -0.10841053126943176 -0.31345174552799715
000620 aa 34 65 53 42 3a d5 bf 53 f0 74 3f 6f 0b de 3f
       -0.33168085235667866 0.46944791027977323
000630 26 c0 7c e3 61 3e c2 bf d4 01 17 13 54 ad d3 3f
       -0.14252875907686863 0.30745412697072294
000640 48 5d 1c dc eb 0d da 3f ee f2 a3 68 94 3d bf bf
       0.4070996903914943 -0.1220333819837369
000650 5b 5b 3b 74 1d 22 da bf 1b 72 bc 01 2e 34 d6 3f
       -0.4083322177006516 0.3469347969965228
000660 09 0b 67 88 19 97 bf bf 00 00 00 00 17 fe b0 3f
       -0.12339934902324158 0.06637710332870483
000670 00 00 00 00 85 44 c4 3f 00 00 00 80 22 85 c4 bf
       0.15834105014801025 -0.1603129506111145
000680 00 00 00 80 bf 61 bd bf 00 00 00 60 0c ff d7 bf
       -0.11477276682853699 -0.3749419152736664
000690 00 00 00 00 dc d4 98 3f 00 00 00 40 5d 41 c0 bf
       0.024249494075775146 -0.1269947588443756
0006a0 00 00 00 c0 9d 6e cd bf 00 00 00 00 08 a9 c5 3f
       -0.22993823885917664 0.1692209243774414
0006b0 00 00 00 00 46 ba b4 bf 55 ab 0b 54 bd 47 c1 3f
       -0.08096730709075928 0.1350018177393745
0006c0 54 f7 7a 50 0b 94 92 bf 8d 0f 26 1d 8c e5 da bf
       -0.018142868792657765 -0.42026045652914307
0006d0 ed 8f ac 2e 9e c5 ca 3f 34 92 42 5f 4a f5 c1 bf
       0.20915581969268207 -0.1402981724869662
0006e0 3a 00 c5 ea 15 03 ba bf f1 4e 83 fa 08 a2 dc 3f
       -0.10160958272626966 0.4473898359694735
0006f0 f3 02 0a 3b 26 5d da 3f 5d 67 de c9 c4 cd d3 3f
       0.41193538442170946 0.3094341250776916
000700 79 62 f1 73 f6 35 d5 bf 00 00 00 40 e9 2e d5 bf
       -0.33141862223195734 -0.33098822832107544
000710 00 00 00 00 de 5c 9d bf 00 00 00 40 0b 98 d7 bf
       -0.028674572706222534 -0.3686550259590149
000720 00 00 00 40 d6 89 d9 3f 00 00 00 80 a3 f8 cd 3f
       0.3990378975868225 0.23415035009384155
000730 92 64 0f 6a 15 11 cc 3f de b2 0f b5 0d e8 ce bf
       0.21927135161130146 -0.24145671215901293
000740 a7 5e 9d 0a b5 43 7a 3f 3e 37 93 4d c3 32 d2 3f
       0.0064122268612078264 0.284348321682831
000750 ee 64 a3 c2 14 d1 c4 3f 28 c7 0a 2f 8d e2 b9 3f
       0.16263064864941817 0.10111315153588107
000760 84 61 36 66 1b 9a d4 3f ed 1e 18 aa 7f 8f b6 3f
       0.321905946556875 0.08812711622897114
000770 1f 59 9a 75 a8 b1 d8 3f 92 3e 24 53 1d d7 b2 bf
       0.3858433865037955 -0.07359488754104351
000780 e5 09 e3 28 18 40 9d 3f a6 7a 18 f7 5c b1 d0 3f
       0.0285648131327977 0.2608253872912577
000790 75 2b c9 c5 00 f0 d7 3f 86 e3 5e c3 b0 79 c8 3f
       0.3740236217023985 0.19121369876463862
0007a0 c4 b4 7b a5 08 6d 34 bf 00 00 00 00 85 07 b2 3f
       -0.000311674700681785 0.07042723894119263
0007b0 00 00 00 00 4f 03 b9 bf 00 00 00 00 8c dd 9b bf
       -0.09770673513412476 -0.027212321758270264
0007c0 00 00 00 80 ed 0c cd 3f 00 00 00 00 68 03 89 bf
       0.2269570231437683 -0.012213528156280518
0007d0 08 c3 75 db 71 f1 c1 3f 87 fe 71 e1 31 97 d5 bf
       0.1401808091718737 -0.3373532010664139
0007e0 50 e1 78 e3 60 06 d6 bf 73 80 22 db 68 6a 86 bf
       -0.34413931097107753 -0.01094514769312147
0007f0 c0 75 8b 1a 0b a4 d3 bf 77 f0 16 fc 15 e6 c2 3f
       -0.30688741295110944 0.14764666375220134

fc1.bias f8 [64]
000000 5f 2f ef 95 92 4a d0 bf 00 00 00 80 be db c4 3f
       -0.25455155031226256 0.16295605897903442
000010 58 b5 59 60 17 58 d0 3f 00 00 00 00 fe 83 b0 3f
       0.25537666711064366 0.06451404094696045
000020 00 00 00 00 e5 a4 d8 bf de 9d 54 46 d8 d5 c4 bf
       -0.38506436347961426 -0.1627760260973749
000030 0f e4 d7 a0 3c f2 c8 bf 00 00 00 60 4b 8a d1 bf
       -0.1948924813621322 -0.2740658223628998
000040 7d e4 06 da 86 d7 d9 bf 6e b4 b1 0f 24 29 a2 bf
       -0.40377970973674576 -0.03547012988642782
000050 09 42 65 03 c6 81 c0 3f 32 ae 92 4b fe 7b b4 bf
       0.12896037259862705 -0.08001698823016382
000060 00 00 00 40 0d 1b ca bf cd e5 22 f6 ac db d0 bf
       -0.20395055413246155 -0.26340793644666577
000070 e4 b0 a6 55 77 fc b6 bf 00 00 00 80 a3 36 cb 3f
       -0.08978982773868754 0.21260493993759155
000080 6d ae ac 83 58 b6 c4 bf 1b 1d 77 2e ad ec a5 bf
       -0.16181475095196465 -0.04282132332041951
000090 00 00 00 40 2f 60 cc bf 0b d6 08 58 dc bd cd bf
       -0.22168532013893127 -0.23235658930359224
0000a0 01 76 57 6d 87 8a a7 3f 00 00 00 00 4a 57 ac 3f
       0.045978767487877555 0.05535346269607544
0000b0 00 00 00 00 98 3d a6 3f 3c 56 55 e7 97 58 be bf
       0.04343867301940918 -0.11853932760035318
0000c0 00 00 00 e0 ae 6e d0 bf 14 59 2c d8 01 4d d1 3f
       -0.2567555606365204 0.27032514677684216
0000d0 00 00 00 c0 8c cf d7 bf 00 00 00 60 45 f3 cf bf
       -0.37204283475875854 -0.24961154162883759
0000e0 ef 9d 56 d2 e0 fb cf bf 00 00 00 80 6b b3 d5 bf
       -0.24987421293665998 -0.3390759229660034
0000f0 00 00 00 a0 0e fb d4 bf 00 00 00 c0 20 02 c4 bf
       -0.32782331109046936 -0.1563149392604828
000100 4a fd 37 65 b8 ef c1 bf cc 92 ca ab 67 97 dc bf
       -0.1401281828147865 -0.44674102570051555
000110 00 00 00 80 bd 3c c1 bf 00 00 00 00 60 03 73 bf
       -0.13466614484786987 -0.004641890525817871
000120 d6 a5 5b 95 ad 31 ac bf 8b 3e a4 f6 9a a5 d0 3f
       -0.055066513521363866 0.2601077469453023
000130 c6 42 47 f2 4e d3 bb bf 84 e3 0d 9b 13 b0 bb 3f
       -0.1086930600643071 0.10815546546463223
000140 e7 ed c3 49 5b 0d b8 bf 00 00 00 e0 3c 78 ca bf
       -0.09395380545532071 -0.2067943662405014
000150 00 00 00 00 7f 04 a0 3f 76 c9 58 ed 15 1d d4 3f
       0.03128430247306824 0.3142752473678664
000160 7e e1 10 06 bb 9e d2 3f 00 00 00 00 0d 40 b1 3f
       0.29093814461113954 0.06738358736038208
000170 69 6c d6 09 75 ce de bf 4e d1 e2 e5 7e cb 90 bf
       -0.4813511463232261 -0.016401274472359
000180 85 3c 12 ed 03 86 be bf 00 00 00 e0 1b 69 dc bf
       -0.11923241174575779 -0.44391533732414246
000190 54 4c 6a 4c 53 b7 da 3f 01 93 a3 1b ee 6c db 3f
       0.41743929350304154 0.4285235662376153
0001a0 34 90 5e 62 3a 71 b4 3f 00 00 00 20 b4 b5 d0 bf
       0.07985272313686737 -0.26109030842781067
0001b0 00 00 00 e0 eb 9e d4 bf 00 00 00 00 d6 82 ab 3f
       -0.3221997916698456 0.05373257398605347
0001c0 3d 5f e6 51 24 d6 d0 bf 20 37 31 fc c8 9b be 3f
       -0.26307018278156474 0.11956459195172586
0001d0 00 00 00 80 1a 7f d2 bf 0f e6 e9 14 bd 30 da bf
       -0.2890077829360962 -0.4092247680888201
0001e0 00 00 00 00 c9 c8 d0 bf 7a 4c ee 71 b9 15 ca bf
       -0.2622549533843994 -0.20378797591238024
0001f0 e4 a8 07 18 c4 2d ce bf 69 4a a5 aa fd cf d9 3f
       -0.23577166722618081 0.4033197561704243

fc2.weight f8 [128, 64]
000000 6c 63 05 b0 29 1b c5 3f 00 00 00 80 7b d3 a8 3f
       0.16489144415643453 0.04848848283290863
000010 87 27 2e f9 65 21 c3 bf 00 00 00 80 ed 40 b5 3f
       -0.14945673624998454 0.08302196860313416
000020 00 00 00 c0 a7 f9 b3 bf e6 1f 32 ee 29 b5 93 bf
       -0.07802818715572357 -0.019245772517507385
000030 eb aa 4c 1b d3 35 b8 bf 00 00 00 c0 2e 83 b5 3f
       -0.0945712987565163 0.08403293788433075
000040 ca 17 ae 28 3d 65 5f bf d5 06 36 d3 84 44 ba bf
       -0.001916227078909471 -0.10260801464576315
000050 ef 00 1c 5f 8e 51 c6 3f 50 96 31 0b 48 58 7c bf
       0.17436389583600184 -0.00692012922363501
000060 00 00 00 00 e0 62 a7 3f a6 ff 94 c3 7d 36 bf 3f
       0.045676231384277344 0.1219252207274609
000070 6a 52 bf f1 6c a1 ac 3f 00 00 00 80 dd 6e bd bf
       0.05591907931344482 -0.11497291922569275
000080 df cb db a8 2b 7f b1 3f b7 e6 7f fc 83 b1 ac bf
       0.06834671852611461 -0.056041836331087884
000090 00 00 00 80 7e da b9 bf e7 6f 2b bf e2 86 b2 3f
       -0.10099020600318909 0.072370692894253
0000a0 0f 37 66 67 c0 56 c3 bf 00 00 00 00 62 e4 bf 3f
       -0.15108494805138448 0.12457859516143799
0000b0 00 00 00 00 17 6f b1 bf 87 73 24 6f 1a 62 b6 bf
       -0.06810134649276733 -0.08743443692624285
0000c0 00 00 00 80 db 41 ab 3f d4 e0 3c fa 55 12 ad bf
       0.05323682725429535 -0.05678051643048013
0000d0 00 00 00 00 a7 08 be bf 00 00 00 80 2d 93 bc 3f
       -0.11731952428817749 0.11162075400352478
0000e0 e9 f4 2b 9d 00 b2 a2 bf 00 00 00 40 67 ee be 3f
       -0.03651430052375721 0.12082524597644806
0000f0 00 00 00 00 ab 2e 9a bf 00 00 00 80 08 9e a0 3f
       -0.025568649172782898 0.032455697655677795
000100 03 1d 4a e5 98 c3 b7 3f c8 f1 95 30 4e 55 b2 3f
       0.09282832715881643 0.07161415754484957
000110 00 00 00 00 7f d0 af 3f 00 00 00 40 d7 5a b4 3f
       0.06213757395744324 0.0795111209154129
000120 f8 ae 06 63 5f fb 76 3f 87 da 17 57 3f 74 c1 3f
       0.005610821347015842 0.13636008980366318
000130 aa 21 f7 a5 ed 1a b2 bf ba cc be eb a1 b3 b3 3f
       -0.07072339345825776 0.07695972447872892
000140 46 4f 1d 8a 22 7e c2 bf 00 00 00 40 a9 bc b8 bf
       -0.14447433227416634 -0.09662874042987823
000150 00 00 00 80 67 6f ac bf 15 b7 c0 7b 70 e0 b9 bf
       -0.055537447333335876 -0.10108092328365743
000160 83 5c 94 bc b3 76 c0 3f 00 00 00 00 14 d5 9b 3f
       0.12862250049576937 0.027180016040802002
000170 2d 44 f6 f7 7a 50 ba 3f 4e cb a7 f8 21 23 c2 3f
       0.10279053262480949 0.14169716493014523
000180 ac 15 41 a8 ac a5 a7 bf 00 00 00 40 10 85 be bf
       -0.046185870684478075 -0.1192178875207901
000190 70 7b e4 1f 49 5d 83 bf d2 b8 fb cc 78 ea b6 3f
       -0.009455271993429298 0.08951525692438914
0001a0 4c 53 fa 42 f8 e7 c0 3f 00 00 00 00 39 5c a3 bf
       0.13207915563966777 -0.0378129780292511
0001b0 00 00 00 80 c2 a6 a6 3f 00 00 00 00 83 f8 b2 bf
       0.04424102604389191 -0.07410448789596558
0001c0 8e cf 9e e4 7d 5b a3 bf 33 62 e8 4b 3f 51 aa 3f
       -0.03780740180755436 0.051401117340166634
0001d0 00 00 00 00 bb 5f af bf 87 3b 99 a5 50 30 c5 3f
       -0.06127724051475525 0.16553695760600481
0001e0 00 00 00 00 31 9b 95 3f 19 d7 83 04 47 28 a4 bf
       0.021099820733070374 -0.03936979227175481
0001f0 f3 f5 06 55 9b 2c c0 3f 57 b7 56 46 07 28 9f bf
       0.1263612904712513 -0.030426133793006595
000200 76 ec 0b 91 84 75 c2 3f 00 00 00 00 0e 58 a8 3f
       0.1442113598094214 0.04754680395126343
000210 1b 1a 85 30 12 d2 95 3f 00 00 00 80 b2 74 bd bf
       0.021309169970914348 -0.11506190896034241
000220 00 00 00 00 15 3d b9 3f a6 9e 92 27 98 b9 c1 3f
       0.09858828783035278 0.13847639019262664
000230 79 cb 4d fd 0a ed b2 3f 00 00 00 00 5e 28 a0 bf
       0.07392948803116707 -0.03155797719955444
000240 08 34 d5 9c f7 64 bd bf 0d 4a 5c 67 9b bd c1 3f
       -0.11482188776899716 0.13859884783649115
000250 cd 35 e9 58 01 4e b4 3f c1 88 c1 21 d2 0b c2 3f
       0.07931526585271982 0.1409857430290398
000260 00 00 00 00 70 ff b1 bf ea 40 a0 5c 69 47 af 3f
       -0.07030391693115234 0.06109170203865395
000270 f6 0f dc 3b df 24 7a bf 00 00 00 00 69 18 ad bf
       -0.006382820136199277 -0.05682685971260071
000280 0d 11 3f 57 3c 80 bd 3f 59 52 55 7b d7 73 bd 3f
       0.11523797159231126 0.11504885445658299
000290 00 00 00 00 62 da 91 3f c3 7a 56 55 e3 87 c2 3f
       0.017434626817703247 0.1447719732941178
0002a0 72 a4 4d 8f b8 5a c1 bf 00 00 00 00 62 7b bf 3f
       -0.13558108327132207 0.12297642230987549
0002b0 00 00 00 c0 10 a0 be bf d9 64 bd 5f 9c 18 a4 3f
       -0.11962990462779999 0.039250265776624445
0002c0 00 00 00 80 ea fd a8 3f be 47 fd ab 90 79 88 3f
       0.048812225461006165 0.011950617073725908
0002d0 00 00 00 40 e2 31 b3 bf 00 00 00 00 cc 52 89 3f
       -0.07497991621494293 0.012364953756332397
0002e0 51 52 f8 98 d0 2d bf bf 00 00 00 40 25 80 ba bf
       -0.12179282889003075 -0.10351784527301788
0002f0 00 00 00 00 20 5a bb 3f 00 00 00 c0 8a a4 b5 3f
       0.10684394836425781 0.08454196155071259
000300 60 63 e5 b5 c1 21 b1 3f e5 5e 31 94 9d d1 77 3f
       0.06692133608647799 0.005815139334195617
000310 00 00 00 80 14 e5 b0 bf 00 00 00 c0 d7 cb b1 3f
       -0.0659954845905304 0.06951664388179779
000320 71 c2 39 cc 52 2b c2 bf 31 b4 81 e9 f6 f6 89 bf
       -0.14194712612108476 -0.012678078652436838
000330 80 c0 d6 c4 b7 f0 ab bf da 7d 57 51 4c 96 a7 3f
       -0.05457090642755791 0.04606855862561661
000340 19 e7 f4 5d d6 53 c5 bf 00 00 00 00 82 a6 98 bf
       -0.16662101352431405 -0.02407267689704895
000350 00 00 00 00 7e 0b ab 3f 40 f2 39 84 fc 46 b3 bf
       0.0528220534324646 -0.0753019163912052
000360 d9 ae cb 26 d0 e4 c0 3f 00 00 00 00 08 05 9d bf
       0.1319828214103527 -0.028339505195617676
000370 22 d6 45 e1 6d aa b2 bf 63 11 6b c2 cc 05 84 3f
       -0.07291304349731623 0.009776687319921156
000380 f1 c1 92 22 13 3f b7 3f 00 00 00 00 2b a9 95 bf
       0.09080619424890536 -0.02115313708782196
000390 61 36 21 86 1d 3f c2 bf 8c e2 88 2b 94 e2 90 bf
       -0.1425511269502975 -0.016489329487941393
0003a0 ee ba 8f a1 0d a3 b7 3f 00 00 00 00 f0 7a 51 bf
       0.09233174509402506 -0.0010669082403182983
0003b0 00 00 00 00 57 d5 a4 3f 00 00 00 80 88 22 a3 bf
       0.04069015383720398 -0.03737284243106842
0003c0 12 7e 69 85 36 67 b3 3f 70 0e 16 6d 39 bc c4 3f
       0.07579365498667581 0.16199415041420506
0003d0 00 00 00 00 19 62 99 3f d0 ce 3b 26 c4 5d 89 bf
       0.024788275361061096 -0.012385876099393484
0003e0 00 00 00 40 ef 62 b3 3f 8f 7f 97 80 f4 9e a3 bf
       0.07572837173938751 -0.03832210607265473
0003f0 fb f0 cf 3f 80 8c 98 bf 7f 32 28 d3 fa 39 b3 bf
       -0.023973468680183335 -0.07510345130158134
000400 00 00 00 80 21 42 aa 3f 00 00 00 c0 6b 5c bd 3f
       0.05128578841686249 0.11469148099422455
000410 00 00 00 00 19 cf ac 3f 00 00 00 00 91 7f 95 bf
       0.05626752972602844 -0.020994439721107483
000420 00 00 00 00 1f 42 a7 bf 00 00 00 00 eb 0a 99 3f
       -0.04542633891105652 0.024455711245536804
000430 00 00 00 00 48 44 98 3f 00 00 00 00 c2 04 9f bf
       0.023697972297668457 -0.030291587114334106
000440 00 00 00 c0 63 b3 bd 3f 00 00 00 80 a9 a7 bd 3f
       0.11601851880550385 0.11583957076072693
000450 00 00 00 00 bc 86 8d 3f 00 00 00 80 79 c3 a2 bf
       0.014417141675949097 -0.036647602915763855
000460 00 00 00 c0 42 4a bf 3f 00 00 00 00 cb b0 b7 3f
       0.12222687900066376 0.0925413966178894
000470 00 00 00 00 da 55 85 3f 00 00 00 40 17 bc bd 3f
       0.010417655110359192 0.11615128815174103
000480 00 00 00 40 e9 e5 b7 bf 00 00 00 00 28 e9 67 3f
       -0.09335191547870636 0.0029187947511672974
000490 00 00 00 80 8a 3b ae 3f 00 00 00 00 f8 74 82 3f
       0.059048011898994446 0.009012162685394287
0004a0 00 00 00 40 08 64 bb bf 00 00 00 80 5d 55 aa 3f
       -0.1069951206445694 0.0514325350522995
0004b0 00 00 00 00 bc d2 85 3f 00 00 00 00 71 ea a4 3f
       0.010655850172042847 0.04085114598274231
0004c0 00 00 00 00 32 e7 ab bf 00 00 00 00 ed c6 a4 bf
       -0.054498255252838135 -0.040580183267593384
0004d0 00 00 00 40 cd c8 b3 bf 00 00 00 80 2b ce a1 bf
       -0.07728274166584015 -0.034776076674461365
0004e0 00 00 00 00 f8 a5 7b 3f 00 00 00 00 3d 61 a6 3f
       0.00675007700920105 0.0437106192111969
0004f0 00 00 00 00 d4 64 9b bf 00 00 00 00 24 2b 79 bf
       -0.026751816272735596 -0.006144657731056213
000500 00 00 00 00 08 be 81 3f 00 00 00 00 f9 02 95 bf
       0.00866323709487915 -0.020519152283668518
000510 00 00 00 00 06 80 b4 3f 00 00 00 00 ae 40 8f bf
       0.08007848262786865 -0.015260085463523865
000520 00 00 00 c0 06 a1 b4 3f 00 00 00 80 c8 20 af bf
       0.08058206737041473 -0.06079699099063873
000530 00 00 00 80 55 58 b8 3f 00 00 00 00 a3 26 a9 3f
       0.0950978696346283 0.049122899770736694
000540 00 00 00 00 ee 98 97 3f 00 00 00 00 36 ff 8b 3f
       0.023044317960739136 0.013670369982719421
000550 00 00 00 00 59 cc 94 3f 00 00 00 80 03 16 bc 3f
       0.020310774445533752 0.10971090197563171
000560 00 00 00 00 51 75 bb 3f 00 00 00 80 b4 85 bd 3f
       0.1072588562965393 0.11532142758369446
000570 00 00 00 00 81 ae aa bf 00 00 00 80 1c 41 ba 3f
       -0.05211260914802551 0.1025560200214386
000580 00 00 00 80 0b a5 b9 bf 00 00 00 80 84 7b be bf
       -0.10017463564872742 -0.11907222867012024
000590 00 00 00 c0 a7 74 ba 3f 00 00 00 80 bf fc b5 bf
       0.10334251821041107 -0.08588787913322449
0005a0 00 00 00 80 cc d1 a6 bf 00 00 00 00 14 57 bc bf
       -0.044569388031959534 -0.11070370674133301
0005b0 00 00 00 80 a6 f6 b6 3f 00 00 00 00 57 24 9e bf
       0.0897010862827301 -0.029435500502586365
0005c0 00 00 00 80 75 e0 a3 bf 00 00 00 00 b4 41 81 3f
       -0.038821861147880554 0.008426100015640259
0005d0 00 00 00 c0 81 9c b8 bf 00 00 00 c0 2e d2 b2 3f
       -0.0961381047964096 0.07351963222026825
0005e0 00 00 00 c0 38 c3 b3 3f 00 00 00 c0 c3 0a b2 bf
       0.0771975964307785 -0.07047675549983978
0005f0 00 00 00 00 e1 dd 92 3f 00 00 00 00 7a 72 af bf
       0.01842452585697174 -0.0614202618598938
000600 00 00 00 80 ee ee ba bf 00 00 00 00 a6 14 90 3f
       -0.10520830750465393 0.01570376753807068
000610 00 00 00 00 64 13 b4 bf 00 00 00 00 f8 a8 9b 3f
       -0.07842087745666504 0.027011752128601074
000620 00 00 00 80 6f 2c a1 bf 00 00 00 00 a6 ec ae bf
       -0.03354214131832123 -0.06039923429489136
000630 00 00 00 00 32 aa b1 3f 00 00 00 00 83 5e b6 bf
       0.06900322437286377 -0.08737963438034058
000640 00 00 00 00 9d a3 93 bf 00 00 00 c0 06 87 ba bf
       -0.01917882263660431 -0.10362283885478973
000650 00 00 00 00 be 9c 91 3f 00 00 00 00 a3 d5 bb 3f
       0.01719948649406433 0.10872858762741089
000660 00 00 00 00 b8 fd 79 3f 00 00 00 00 ec 8d bb bf
       0.006345480680465698 -0.10763430595397949
000670 00 00 00 c0 31 48 b4 bf 00 00 00 80 65 77 b2 bf
       -0.07922659814357758 -0.0721343457698822
000680 00 00 00 40 d1 3c b2 3f 00 00 00 80 40 b7 b3 3f
       0.07124049961566925 0.07701495289802551
000690 00 00 00 00 78 42 ae bf 00 00 00 00 57 8d a2 3f
       -0.05910086631774902 0.03623458743095398
0006a0 00 00 00 00 58 9f 61 3f 00 00 00 00 34 bb 73 3f
       0.002151176333427429 0.004817202687263489
0006b0 00 00 00 80 04 cd b3 bf 00 00 00 40 00 71 bc 3f
       -0.07734706997871399 0.1110992580652237
0006c0 00 00 00 00 14 63 97 3f 00 00 00 c0 43 de b3 3f
       0.022838890552520752 0.07761023938655853
0006d0 00 00 00 00 23 93 a6 bf 00 00 00 80 fd c4 a7 3f
       -0.04409131407737732 0.04642479121685028
0006e0 00 00 00 80 b4 da b4 bf 00 00 00 80 1b 68 b8 3f
       -0.08146217465400696 0.09533855319023132
0006f0 00 00 00 40 f3 75 b2 3f 00 00 00 00 1e cb 82 bf
       0.07211227715015411 -0.009176477789878845
000700 00 00 00 c0 57 20 b3 bf 00 00 00 40 1a b3 b7 bf
       -0.07471226155757904 -0.09257663786411285
000710 00 00 00 00 b4 8b 70 3f 00 00 00 80 b6 b8 aa bf
       0.004039481282234192 -0.052190497517585754
000720 00 00 00 00 ab 94 91 3f 00 00 00 40 9e bb b9 bf
       0.017168685793876648 -0.1005190759897232
000730 00 00 00 40 11 96 bb 3f 00 00 00 00 40 4b bb bf
       0.10775859653949738 -0.10661697387695312
000740 00 00 00 00 10 10 6c 3f 00 00 00 c0 cc e3 b0 bf
       0.0034256279468536377 -0.06597594916820526
000750 00 00 00 80 72 86 a9 bf 00 00 00 80 9a f3 b4 3f
       -0.04985387623310089 0.0818420946598053
000760 00 00 00 80 f5 fb b4 bf 00 00 00 00 64 67 b6 bf
       -0.08196958899497986 -0.08751511573791504
000770 00 00 00 c0 3c 4e b1 bf 00 00 00 40 f0 dc b8 bf
       -0.0676000565290451 -0.09712125360965729
000780 00 00 00 00 20 4c 82 bf 00 00 00 00 0c d3 9f bf
       -0.008934259414672852 -0.0310785174369812
000790 00 00 00 00 48 39 9f 3f 00 00 00 80 f2 50 ae 3f
       0.030491948127746582 0.059211328625679016
0007a0 00 00 00 00 60 b7 af 3f 00 00 00 40 44 be ba 3f
       0.06194591522216797 0.10446573793888092
0007b0 00 00 00 00 e0 ef 5b 3f 00 00 00 00 87 1d a7 3f
       0.0017051398754119873 0.04514715075492859
0007c0 00 00 00 80 36 34 b5 3f 00 00 00 80 d4 11 a0 3f
       0.08282795548439026 0.031386032700538635
0007d0 00 00 00 00 c2 88 99 bf 00 00 00 00 97 b2 98 bf
       -0.024935752153396606 -0.02411876618862152
0007e0 00 00 00 00 0c 8e 7c bf 00 00 00 80 a5 e5 a2 3f
       -0.006971403956413269 0.036908313632011414
0007f0 00 00 00 00 f9 8c b9 bf 00 00 00 00 03 36 ba bf
       -0.09980732202529907 -0.10238665342330933

fc2.bias f8 [128]
000000 2b dc c0 9a a2 75 96 bf 59 ce 4d 27 ba 53 aa 3f
       -0.021933117576022603 0.051420037553637506
000010 00 00 00 80 18 6d b8 bf 00 00 00 00 0a 1b 8b 3f
       -0.0954146683216095 0.013235166668891907
000020 17 a6 6e 88 b1 1f 95 bf 82 23 a8 08 6f bc 93 3f
       -0.020628713562166192 0.01927350511872162
000030 00 00 00 40 d8 fe b0 bf 00 00 00 80 82 a7 a6 bf
       -0.06638862192630768 -0.044246748089790344
000040 00 00 00 40 e6 9e b2 bf 33 79 53 4b c4 db a7 bf
       -0.07273711264133453 -0.0465985624266402
000050 00 00 00 00 32 fb 8e bf 00 00 00 00 08 12 6f 3f
       -0.015127554535865784 0.00379277765750885
000060 ac 64 86 8b 68 09 aa 3f 49 80 23 43 e4 56 c2 bf
       0.05085303023515428 -0.14327672270064998
000070 d6 4b 60 96 54 15 9f 3f 66 cd be ff 4b 88 b8 bf
       0.030354806593162774 -0.095829725206206
000080 b9 bd c1 ba e9 fa bf 3f ac 00 1b 50 ba 24 c5 bf
       0.1249223786305639 -0.16518334304237692
000090 2f b1 83 ab e9 5f a7 3f 00 00 00 c0 79 26 bc bf
       0.04565363138849176 -0.1099620908498764
0000a0 00 00 00 00 64 24 a8 bf 08 e4 a2 28 d9 f1 b4 3f
       -0.04715263843536377 0.08181531183335278
0000b0 c7 3b 0c 51 b9 2e 93 bf 00 00 00 00 0e 99 a8 3f
       -0.018732925006641723 0.04804271459579468
0000c0 ab 45 40 9a bb 09 c3 3f 00 00 00 80 51 12 a1 bf
       0.14873452216901958 -0.0333428829908371
0000d0 e3 91 18 fb cc ca 9f bf 66 1c 0b 1f 77 e3 7b bf
       -0.031047060800249226 -0.006808724706110691
0000e0 aa 9a 19 85 fc 3c b2 3f 37 bd 10 07 87 7d c1 bf
       0.07124307870399585 -0.13664329380979165
0000f0 23 f3 d0 da b1 24 a0 bf 14 7c 0c dc 64 e2 98 3f
       -0.03152995868774713 0.024301124506674723
000100 00 00 00 00 bd 99 ad bf 9b 52 57 0a 5d de 9c bf
       -0.057813555002212524 -0.028191999202891265
000110 28 36 f4 a8 36 5b ac 3f e5 46 31 1f c8 d9 52 bf
       0.05538340389658131 -0.0011505560221575725
000120 b8 77 85 cd bf 27 a9 bf 00 00 00 80 ad fc b2 bf
       -0.049131387556129835 -0.07416805624961853
000130 00 00 00 80 62 8a a1 bf 00 00 00 00 64 f7 a2 bf
       -0.03425891697406769 -0.03704369068145752
000140 82 31 37 13 9a b5 be bf a4 cf da e8 4c a0 c3 bf
       -0.11995852440958824 -0.15332948083743958
000150 81 16 06 f0 b4 43 c0 3f 00 00 00 00 f7 c7 a0 3f
       0.12706624717627693 0.03277561068534851
000160 00 00 00 c0 8e 3e b8 bf 0b 8c d3 00 ce b6 9d 3f
       -0.09470455348491669 0.02901765708964991
000170 b8 36 be a7 fb 9a c4 bf 42 1e 72 cb 75 19 91 bf
       -0.160979706674359 -0.016698685209602944
000180 5e d5 3a 09 79 05 b7 bf bd 68 9a d8 ee 85 be 3f
       -0.08992725825631484 0.11923115528262236
000190 00 00 00 c0 ff cf bd bf 00 00 00 00 b7 5f 94 bf
       -0.1164550632238388 -0.01989637315273285
0001a0 1b c3 5f cb 05 a4 9e 3f 59 ea 45 24 e7 f2 a3 bf
       0.029922571695297422 -0.038962577035779496
0001b0 32 74 20 cb 4d b6 a4 bf 00 00 00 00 fc a6 85 3f
       -0.04045336823058 0.0105724036693573
0001c0 1a e8 94 1f 4d 1c a3 bf 00 00 00 80 86 fe a7 bf
       -0.03732529650228873 -0.046863749623298645
0001d0 00 00 00 00 d6 c9 93 bf 00 00 00 00 1b d8 ad bf
       -0.01932463049888611 -0.05828937888145447
0001e0 27 0e cb e7 b3 ee ae bf 00 00 00 80 0a 11 b2 bf
       -0.06041490749842309 -0.07057252526283264
0001f0 dd 6d b8 c3 8d 77 b9 bf 00 00 00 00 a7 b3 ae bf
       -0.09948049572306368 -0.059964388608932495
000200 00 00 00 00 7d 20 a6 bf ea f1 de 82 3a 08 c2 3f
       -0.04321661591529846 0.14087611570529585
000210 0d 46 bb 7a 0d a8 95 bf 83 e6 35 a9 c7 55 c2 3f
       -0.021148882499636246 0.14324279558404748
000220 12 37 af be d0 87 aa 3f 17 80 8a f3 6d 09 a8 3f
       0.05181743934336515 0.04694694135582738
000230 63 43 35 8f 84 08 b8 3f e9 60 85 f0 ad b5 b6 bf
       0.09387997146883502 -0.08870970842452021
000240 00 00 00 00 b5 3b ad bf ff 59 a6 09 a0 8d a4 bf
       -0.05709615349769592 -0.0401430141238741
000250 9b 11 9e d8 02 59 b7 3f d6 13 d3 5f a3 a9 b0 3f
       0.09120195187103379 0.06508847321954589
000260 19 89 9b 04 d6 c9 b8 3f 00 00 00 80 ff b8 a8 bf
       0.09682977306832576 -0.048286423087120056
000270 31 16 e8 6e 7f cd b6 3f 00 00 00 00 90 12 50 bf
       0.08907314737015139 -0.0009809881448745728
000280 00 00 00 00 20 d5 61 bf 00 00 00 00 d2 35 a4 3f
       -0.002176821231842041 0.039473116397857666
000290 74 a9 a5 22 59 1d b5 bf fa 9f 39 3b 35 95 c1 bf
       -0.08247906776310804 -0.13736596481180624
0002a0 00 00 00 c0 68 f8 bb bf a5 0a 9e f7 40 d8 95 3f
       -0.10925917327404022 0.021332755196918147
0002b0 c9 bb 4e a1 d0 2e b9 bf c8 46 7e 2c b9 96 a3 3f
       -0.09837058962032964 0.03825930278902728
0002c0 f5 ae 12 fe fd 64 93 3f 00 00 00 c0 4f 90 bc 3f
       0.018939942009338535 0.11157701909542084
0002d0 fc a2 f4 fc 03 7d c1 bf fa 91 0b 14 4d 8d c5 bf
       -0.13662767268512954 -0.16837466696519227
0002e0 00 00 00 00 4e 8a 8a 3f c8 d2 e0 c7 2c 61 a9 bf
       0.012959107756614685 -0.04956951084060318
0002f0 17 e1 00 11 52 c6 ad 3f 6a 51 a2 2b 18 d0 b0 bf
       0.0581536908870836 -0.06567526879581967
000300 4a ba a5 6c d9 55 b9 3f 00 00 00 00 9d a1 b7 bf
       0.09896620657466673 -0.09230977296829224
000310 7b bc eb 89 69 3e b8 bf f9 c2 c7 8a 7a 11 b5 bf
       -0.09470233552177547 -0.08229795349303605
000320 b1 35 bc b3 d9 31 71 3f c0 a8 96 1e ca 33 ad bf
       0.004197931669989983 -0.05703574775118758
000330 0e b0 3d 6d 01 02 a2 3f 89 e0 d0 52 7a da 9b 3f
       0.03517155130870729 0.027200614266093246
000340 14 7d c6 55 ea 2b 8a 3f 0e 45 3c 2a e4 30 bf 3f
       0.012779074423461746 0.12183977156771084
000350 ec e9 78 77 e5 99 7d bf 44 5c f9 bd 76 d3 c5 bf
       -0.0072268451254395676 -0.17051586414410924
000360 00 00 00 00 4a fb 89 3f 9c 33 95 ca 66 1c b2 3f
       0.01268632709980011 0.07074587293500517
000370 39 3f 00 85 ce 87 9a 3f 37 c8 dd 47 09 9d c0 3f
       0.025908686511740362 0.12979236611460163
000380 42 a2 e5 d3 9e fb a6 bf 00 00 00 00 37 4a af bf
       -0.04488846146233928 -0.06111308932304382
000390 49 b6 43 52 9d 80 b5 bf 9d bf 1a e8 91 63 7f 3f
       -0.08399375208292627 0.007663316676982304
0003a0 f0 95 3c bc cc a5 b0 bf ab 2e 80 a5 3d 5b aa 3f
       -0.06502990337011005 0.05147736211082806
0003b0 ec ee 92 78 11 03 82 3f 80 01 10 b2 38 ae bc bf
       0.008794914714932621 -0.11203340861539424
0003c0 46 43 be 3b 28 59 bb 3f 10 ad e4 9c 93 62 ba bf
       0.10682918032240449 -0.10306665974046703
0003d0 ac cd ec 38 c0 8f b5 3f 00 00 00 00 62 95 b7 3f
       0.08422471418162186 0.09212315082550049
0003e0 95 05 db 24 03 75 b2 3f 84 03 6b f1 fd a4 bd 3f
       0.07209796571534917 0.11579882759089172
0003f0 32 0d 69 2b 0f 44 ad 3f 00 00 00 00 bd fe 98 bf
       0.057159875916591565 -0.024409249424934387

fc3.weight f8 [64, 128]
000000 00 00 00 a0 f3 b9 b5 3f 00 00 00 60 44 e9 a1 bf
       0.0848686471581459 -0.03498281165957451
000010 00 00 00 20 80 e8 b0 3f 00 00 00 00 e6 49 92 3f
       0.06604767590761185 0.01786002516746521
000020 00 00 00 00 00 bf 46 bf 00 00 00 60 d3 7d b4 3f
       -0.0006941556930541992 0.0800449475646019
000030 00 00 00 00 14 76 63 3f 00 00 00 80 59 fc b0 bf
       0.0023756399750709534 -0.0663505494594574
000040 00 00 00 c0 59 05 aa 3f 00 00 00 00 43 c6 82 3f
       0.050822071731090546 0.009167216718196869
000050 00 00 00 80 98 fa b3 bf 00 00 00 c0 18 f8 ad 3f
       -0.07804253697395325 0.058533452451229095
000060 00 00 00 80 5b 6c 9a bf 00 00 00 20 95 b3 ad bf
       -0.025803975760936737 -0.058010730892419815
000070 00 00 00 00 fa 56 72 3f 00 00 00 00 9e 6e 99 3f
       0.004477478563785553 0.024836033582687378
000080 00 00 00 40 20 f5 9f bf 00 00 00 00 48 c5 81 3f
       -0.031208518892526627 0.008677065372467041
000090 00 00 00 00 22 9e 99 bf 00 00 00 20 41 61 b6 bf
       -0.02501729130744934 -0.0874214842915535
0000a0 00 00 00 c0 e6 a3 b4 bf 00 00 00 a0 8b 67 ae bf
       -0.08062593638896942 -0.05938373878598213
0000b0 00 00 00 80 5d c9 9e bf 00 00 00 00 70 8b 69 3f
       -0.03006502240896225 0.0031182467937469482
0000c0 00 00 00 00 ee 72 7d bf 00 00 00 e0 27 9a b0 bf
       -0.0071896836161613464 -0.06485223025083542
0000d0 00 00 00 00 05 ff 9d 3f 00 00 00 c0 dd c7 ae 3f
       0.029293134808540344 0.06011860817670822
0000e0 00 00 00 a0 6b ae b1 bf 00 00 00 40 1b 8d a4 3f
       -0.06906769424676895 0.040139056742191315
0000f0 00 00 00 a0 fd 4b b0 3f 00 00 00 00 c4 1f 8e 3f
       0.06365952640771866 0.014709025621414185
000100 00 00 00 a0 15 b4 a0 bf 00 00 00 00 cd 8a 81 3f
       -0.032623935490846634 0.008565522730350494
000110 00 00 00 00 24 a8 8d bf 00 00 00 60 bd 02 b1 bf
       -0.01448085904121399 -0.06644805520772934
000120 00 00 00 80 57 d6 97 bf 00 00 00 a0 c5 71 a3 bf
       -0.02327858656644821 -0.03797738626599312
000130 00 00 00 80 ce 6c 9a bf 00 00 00 00 d2 9f 73 bf
       -0.02580568939447403 -0.004791088402271271
000140 00 00 00 80 4c 10 91 3f 00 00 00 40 34 75 a4 3f
       0.01666373759508133 0.03995669633150101
000150 00 00 00 a0 b5 8a b5 3f 00 00 00 40 b2 20 a5 3f
       0.08414778858423233 0.04126507788896561
000160 00 00 00 00 1b 85 8f 3f 00 00 00 00 2e 58 85 bf
       0.01539059728384018 -0.010422095656394958
000170 00 00 00 c0 67 1e a4 bf 00 00 00 60 f8 b1 b0 bf
       -0.03929447382688522 -0.06521560996770859
000180 00 00 00 c0 c3 d7 9f bf 00 00 00 c0 29 78 a5 3f
       -0.03109651431441307 0.041932396590709686
000190 00 00 00 c0 06 c3 ab 3f 00 00 00 80 b5 e6 9b bf
       0.05422230809926987 -0.027247272431850433
0001a0 00 00 00 60 a3 f7 b1 3f 00 00 00 00 8e 5a 8b 3f
       0.07018490880727768 0.013356313109397888
0001b0 00 00 00 20 62 4c b5 3f 00 00 00 00 80 ae a0 3f
       0.08319676667451859 0.032581329345703125
0001c0 00 00 00 40 bb 82 af 3f 00 00 00 00 85 36 96 bf
       0.061544276773929596 -0.021692350506782532
0001d0 00 00 00 c0 73 a4 b4 bf 00 00 00 00 fd a3 a6 bf
       -0.08063434064388275 -0.04421988129615784
0001e0 00 00 00 00 c2 f9 81 3f 00 00 00 40 34 b4 a2 3f
       0.008777156472206116 0.03653109818696976
0001f0 00 00 00 40 8d 66 a6 bf 00 00 00 40 ea 4d a2 bf
       -0.04375115782022476 -0.03575069457292557
000200 00 00 00 40 cd 82 a4 3f 00 00 00 00 64 1b 88 bf
       0.040060438215732574 -0.01177099347114563
000210 00 00 00 00 47 e4 98 bf 00 00 00 60 60 78 a3 bf
       -0.024308308959007263 -0.038027774542570114
000220 00 00 00 c0 e1 da 9d bf 00 00 00 20 3a 28 ac bf
       -0.02915528044104576 -0.054994408041238785
000230 00 00 00 a0 0f 06 b3 3f 00 00 00 c0 46 5a a7 3f
       0.07431123405694962 0.04561062902212143
000240 00 00 00 60 78 d9 b2 3f 00 00 00 00 4b bf 90 bf
       0.07363083213567734 -0.016354724764823914
000250 00 00 00 80 37 c8 95 3f 00 00 00 a0 da a3 ae bf
       0.02127157896757126 -0.05984385684132576
000260 00 00 00 c0 50 8f ae 3f 00 00 00 00 40 08 2a bf
       0.059687159955501556 -0.00019861012697219849
000270 00 00 00 00 d4 e9 70 3f 00 00 00 80 9b 39 b1 bf
       0.00412924587726593 -0.06728526949882507
000280 00 00 00 80 27 f1 a6 bf 00 00 00 00 d4 1c 92 bf
       -0.044808611273765564 -0.017688095569610596
000290 00 00 00 80 5b 78 b0 bf 00 00 00 a0 5c a4 b1 3f
       -0.06433650851249695 0.06891421228647232
0002a0 00 00 00 40 07 41 a3 3f 00 00 00 60 ef f5 a4 bf
       0.03760550171136856 -0.040938835591077805
0002b0 00 00 00 00 e8 af 86 bf 00 00 00 80 9e 78 b3 bf
       -0.011077702045440674 -0.0760592520236969
0002c0 00 00 00 80 c7 d3 b3 bf 00 00 00 80 20 45 a6 bf
       -0.07745024561882019 -0.04349614679813385
0002d0 00 00 00 00 82 ac 83 bf 00 00 00 a0 27 fd ad bf
       -0.00960637629032135 -0.05857204273343086
0002e0 00 00 00 00 87 70 a7 bf 00 00 00 20 1c 18 b6 bf
       -0.04578039050102234 -0.08630538731813431
0002f0 00 00 00 00 30 16 8d bf 00 00 00 e0 6b 85 ac bf
       -0.014202475547790527 -0.05570542439818382
000300 00 00 00 00 74 8f 86 bf 00 00 00 20 69 41 b5 3f
       -0.01101580262184143 0.08302933722734451
000310 00 00 00 e0 e3 40 ab bf 00 00 00 40 25 6d ac 3f
       -0.053229447454214096 0.05552021414041519
000320 00 00 00 c0 e1 0d a2 bf 00 00 00 40 88 63 a5 bf
       -0.03526216000318527 -0.041774995625019073
000330 00 00 00 80 2a 83 9e 3f 00 00 00 20 78 46 b6 bf
       0.029797233641147614 -0.08701277524232864
000340 00 00 00 e0 ad e9 a8 bf 00 00 00 00 cd 3a a2 3f
       -0.04865783080458641 0.03560486435890198
000350 00 00 00 c0 4b 7c aa 3f 00 00 00 00 c6 be 85 bf
       0.05172955244779587 -0.010617777705192566
000360 00 00 00 00 f9 4b 8b bf 00 00 00 e0 ca ba b5 bf
       -0.013328500092029572 -0.08488147705793381
000370 00 00 00 60 4a 00 a6 bf 00 00 00 00 38 38 64 3f
       -0.042970966547727585 0.002468213438987732
000380 00 00 00 a0 d4 3e b6 3f 00 00 00 c0 48 1a af 3f
       0.08689621835947037 0.060747407376766205
000390 00 00 00 a0 bf 62 b2 3f 00 00 00 00 d8 56 95 bf
       0.07181928306818008 -0.02083909511566162
0003a0 00 00 00 40 44 ac af 3f 00 00 00 60 8e c9 b5 bf
       0.06186116486787796 -0.0851067528128624
0003b0 00 00 00 00 6f b3 91 bf 00 00 00 40 89 80 9e bf
       -0.017286047339439392 -0.029787201434373856
0003c0 00 00 00 20 ba d5 b0 3f 00 00 00 a0 f4 22 b6 3f
       0.06576121598482132 0.08647087961435318
0003d0 00 00 00 00 b4 2f 97 bf 00 00 00 e0 f0 2b b5 bf
       -0.022642910480499268 -0.08270173519849777
0003e0 00 00 00 60 08 9e ae bf 00 00 00 80 ab d8 91 bf
       -0.0597994439303875 -0.017428092658519745
0003f0 00 00 00 00 4d 05 8e bf 00 00 00 40 e2 79 af bf
       -0.014658547937870026 -0.061476774513721466
000400 ca 22 d2 95 df 2e 86 3f a6 7f e3 7d 75 dc af bf
       0.010831591376942912 -0.06222884332396399
000410 00 00 00 a0 bd c5 b2 bf 00 00 00 80 61 58 a8 bf
       -0.07332978397607803 -0.0475492924451828
000420 52 11 4e 30 68 72 c1 bf 7a 40 cd ff a6 f1 ba bf
       -0.1363039241661093 -0.10524982209358483
000430 00 00 00 00 fc 65 6f 3f 00 00 00 a0 e0 ce b1 bf
       0.003832809627056122 -0.06956294924020767
000440 00 00 00 60 57 30 a4 bf 5f 40 b4 fe 42 a2 9e 3f
       -0.039431314915418625 0.02991585425940035
000450 00 00 00 c0 9f 2a a6 3f 00 00 00 40 ac b3 a3 3f
       0.043293945491313934 0.03848017007112503
000460 9d 8f 08 e8 93 f2 79 3f 5b f0 e1 9a 56 2f 97 3f
       0.006334855803775155 0.022641518786699382
000470 a3 5e da 02 c7 4e b2 bf e2 75 f5 0d e1 af 93 3f
       -0.07151454753545265 0.019225613095263834
000480 a8 b9 c5 c0 94 cb 82 3f a8 d2 8c ea 36 27 94 3f
       0.009177362568803485 0.01968084150867591
000490 10 30 f0 bf 46 6f c0 3f 00 00 00 c0 fe 0c a1 bf
       0.1283958852003484 -0.033302269876003265
0004a0 00 00 00 80 5f 87 9a 3f ff b9 2c 50 74 86 b1 bf
       0.025907032191753387 -0.068457860540299
0004b0 a2 43 3b 91 05 bd b9 3f 00 00 00 00 de 0c 76 3f
       0.10054049297038017 0.0053833648562431335
0004c0 68 a7 3d f0 ea 74 a8 bf 00 00 00 00 e8 d6 87 bf
       -0.04776701147677792 -0.011640369892120361
0004d0 00 00 00 00 7c b1 7d bf f1 09 eb 61 8c be a8 3f
       -0.0072493404150009155 0.04832876868524128
0004e0 26 2e e4 83 5b ba ad bf 98 9d 38 db 99 24 ae 3f
       -0.05806241974832131 0.05887299347915159
0004f0 f0 ed 6e 84 19 7b 9e bf 33 76 68 d8 33 45 81 3f
       -0.029766463001335397 0.008432774583577806
000500 00 00 00 20 63 af b5 3f 70 3d d1 33 4f c7 77 bf
       0.08470744639635086 -0.005805310615940015
000510 71 01 59 31 25 49 a3 3f 6a a8 ec 8d 6e fd c0 3f
       0.03766742923153544 0.13273412637619525
000520 d9 10 a5 5f ed 4a a7 3f 00 00 00 a0 4e ae ae bf
       0.0454935244802372 -0.05992360785603523
000530 00 00 00 a0 70 5f b5 3f 00 00 00 20 c5 38 b4 bf
       0.08348754793405533 -0.07899124175310135
000540 c5 cc 82 64 33 b1 c1 bf 8e f0 67 87 f6 11 9f 3f
       -0.13822023780594442 0.03034196092083668
000550 63 30 76 95 26 60 a3 3f 00 00 00 60 5b b9 b4 3f
       0.037842946762879824 0.08095332235097885
000560 00 00 00 80 e0 c6 b1 bf cb 9f 64 09 e6 fc b0 3f
       -0.06944087147712708 0.0663589260990413
000570 50 8c 78 bb 7b 5c a9 3f 67 3b bc a3 40 de a6 3f
       0.049533716807012795 0.04466440199586579
000580 35 db f7 12 ed e7 9f 3f de 21 fe c5 b9 df b8 bf
       0.031158165247656206 -0.09716378291898972
000590 00 00 00 c0 da b7 a6 3f 00 00 00 00 20 b9 6b 3f
       0.04437144845724106 0.0033841729164123535
0005a0 0a 85 c2 e7 88 87 ad 3f c1 80 18 e3 37 8c 7c 3f
       0.05767467335796013 0.006969660099940878
0005b0 a0 cb ca 9f de 70 a8 3f 00 00 00 20 b3 1f b0 3f
       0.047736126905326914 0.06298369914293289
0005c0 59 46 57 ef 23 4c 7f bf 00 00 00 40 bd b6 a8 3f
       -0.0076409724910760585 0.04826918989419937
0005d0 00 00 00 80 e5 78 97 bf 00 00 00 00 4c 6f 72 3f
       -0.022922120988368988 0.004500672221183777
0005e0 8d 89 f1 41 32 24 a5 3f 00 00 00 00 a8 24 69 3f
       0.041291780996078754 0.0030692368745803833
0005f0 07 7f 50 15 25 0f c2 3f 00 00 00 40 d3 19 ac bf
       0.14108718434089715 -0.05488453060388565
000600 00 00 00 e0 b3 d7 b5 3f a8 0a 49 04 31 25 ad bf
       0.08532261103391647 -0.05692437341033002
000610 80 64 d6 01 32 e9 9a 3f b7 f6 f6 60 33 fa 9e bf
       0.026280194627905207 -0.030251314919715635
000620 96 47 38 16 54 58 ab 3f c0 53 d4 d3 26 28 93 bf
       0.05340826770056066 -0.018707853964844423
000630 00 00 00 00 2c 07 71 bf ec 03 61 8a 64 2c bc 3f
       -0.004157230257987976 0.11005237940209128
000640 00 00 00 20 9a 6f b1 3f 60 72 6b 9f 5f 83 9c 3f
       0.06810916215181351 0.027844900231558944
000650 94 07 ac ec b1 38 97 3f 16 e6 f9 37 99 fa b4 3f
       0.02267721182852929 0.08194882980924265
000660 4b 7d bb b5 0e 47 a5 bf 00 00 00 c0 77 c4 a8 bf
       -0.04155775040066575 -0.048373930156230927
000670 38 f6 a8 34 57 6f 87 3f 00 00 00 20 51 6b a3 bf
       0.011442834181362035 -0.03792813792824745
000680 00 00 00 40 6f d8 aa 3f 00 00 00 40 70 da ae 3f
       0.05243251472711563 0.06026030331850052
000690 2d 76 2c fe ae d0 b7 3f 56 f0 5e 38 e6 e1 8c 3f
       0.09302800851261202 0.014102743716527904
0006a0 00 00 00 00 f5 87 a1 3f d9 1e 4b 21 d8 0f bf 3f
       0.034240394830703735 0.12133551419094192
0006b0 57 f1 cb 8d 89 e4 b1 3f 05 d6 ea dc cd 73 b8 3f
       0.06989345275718982 0.09551703113069017
0006c0 89 11 aa a5 44 e0 97 3f 00 00 00 c0 9c ae a6 3f
       0.02331645260939433 0.04430093616247177
0006d0 f1 91 87 36 f1 8c b7 3f 07 25 a6 66 22 f7 b8 3f
       0.0919943578842959 0.09752097135619318
0006e0 00 00 00 80 7e da 91 3f a1 a8 d5 31 ec 2e 73 bf
       0.01743505150079727 -0.004683420787254062
0006f0 e4 83 40 b2 13 91 b3 bf f9 d6 a8 ea 21 93 74 3f
       -0.07643244840484403 0.005023128973837159
000700 b2 56 86 38 97 97 b0 bf 00 00 00 e0 c4 4f b5 3f
       -0.06481309061049492 0.08324842900037766
000710 7c 82 c3 0b 92 58 9a 3f 4d 26 3e 81 91 2e 7a bf
       0.025728494613647332 -0.006392067316377825
000720 a2 d8 34 e8 1f 2a bd 3f 6c 31 eb 92 b4 5c 97 3f
       0.11392402094938572 0.022814580409247595
000730 79 c3 37 42 5d a3 a6 3f c2 84 a8 c5 3e 8b ac 3f
       0.04421512063334538 0.05574985659428357
000740 fb 73 12 37 67 02 91 bf 7f 98 35 e2 32 8c 98 bf
       -0.016610729919751304 -0.023972315842364807
000750 f0 b2 65 82 7b 55 8d 3f aa d0 a8 12 c7 c3 c0 3f
       0.014323201100262278 0.13097465907197164
000760 00 00 00 00 2e 6e 80 3f 66 27 76 57 b1 c6 b3 bf
       0.008022651076316833 -0.07725056062022659
000770 cf f1 59 1d 9c 8f b8 3f 1c cc 4d 19 b8 a3 93 bf
       0.09594131199441523 -0.019179226440837124
000780 03 46 2d a1 32 58 b0 3f 00 00 00 80 8d 43 98 bf
       0.06384579119664839 -0.023695193231105804
000790 71 97 a0 ce 57 40 be bf 00 00 00 e0 54 6e b5 3f
       -0.11816929621326523 0.08371477574110031
0007a0 ac 00 6e cf 90 9f b1 bf 91 7a 79 46 30 1d bb 3f
       -0.0688410288257752 0.10591413231439108
0007b0 00 00 00 c0 3b bc a2 3f a9 16 13 73 c8 37 b5 3f
       0.036592356860637665 0.0828824311202775
0007c0 7a 71 8f 36 b3 26 91 bf 00 00 00 40 f2 fd ae bf
       -0.01674919147977636 -0.06053120642900467
0007d0 c3 5d 00 b6 49 21 b7 bf 00 00 00 20 71 02 b0 bf
       -0.09035168355364136 -0.06253726035356522
0007e0 00 00 00 00 90 9f 93 3f 34 dc b4 af c7 98 a1 bf
       0.01916337013244629 -0.034368744085832154
0007f0 1e 68 78 bc 26 c2 a6 bf 00 00 00 00 03 d9 8a bf
       -0.04445000696814837 -0.013109229505062103
