src/backend/controller/checkpoints/checkpoint_epoch_12.pth (torch, 420207 bytes, 25 tensors)

fc1.weight f8 [64, 5]
0.1866648191272633 -0.44909467105363526 0.2642208492444547 -0.17145393418006952 0.12160286487703678 -0.15748682618141174 -0.2859317362308502 -0.4182189404964447
-0.23558029532432556 0.102683424949646 -0.3032242953777313 0.055708885192871094 -0.3561890721321106 0.3370480537414551 0.0773652195930481 0.29222941398620605
-0.12881866097450256 -0.2658160924911499 -0.36438190937042236 -0.08555623888969421 -0.16404101252555847 -0.012782365083694458 0.3968053460121155 0.01920926570892334
-0.4070501923561096 -0.13541020518101615 0.3364371102166142 0.36607651478654624 0.11967628895961985 -0.3507442981043448 -0.19833090362596786 -0.26870032767964747
0.29321918100587496 0.273708933453268 0.41817959445068587 0.37379854917526245 -0.41267502307891846 -0.0874796211719513 -0.3212490677833557 0.085968017578125
0.23197575814398466 -0.20850425806936881 0.03601778468517738 0.15956436814798883 0.2936474929770156 0.33550120270379574 0.025515150504403596 0.0798515339139705
-0.3623686986730582 0.14169150712592685 -0.39514994621276855 -0.18186673521995544 0.25157636404037476 -0.08274263143539429 0.03622332215309143 0.2921498968170453
0.19251616048396708 0.010544708265407177 0.34295575494570757 0.021817237369894552 -0.1584734320640564 0.10327941179275513 -0.35499274730682373 0.29825127124786377
-0.19943299889564514 -0.31719335740764365 0.19905188990219136 0.4122333606409696 0.00461651589033382 0.28513878722422265 -0.32473205172201686 0.2729453088556011
-0.09244471987630892 0.05098253139840488 -0.047482775795191445 -0.28154245018959045 -0.39090579748153687 -0.2809138894081116 0.3958856463432312 0.1273355484008789
0.21494025735067696 -0.04609416370743889 0.21368740392646396 0.005905544058870803 0.1410751589722933 -0.022539420085675384 0.36719765365298596 0.1489990690212691
0.1623780372111646 0.260777283489167 0.2305031418800354 -0.17867669463157654 -0.4265388250350952 0.046540647745132446 -0.28340089321136475 0.11181138433175163
0.0607418438804955 0.12120949726188743 0.29416536555319256 -0.18238133562058478 0.44390225410461426 -0.40707674622535706 -0.3159036636352539 0.169264554977417
-0.07987993955612183 0.2008170485496521 -0.23314857482910156 -0.052512556314468384 -0.15051090717315674 -0.2524383068084717 0.4268262982368469 -0.1996842473745346
-0.30966246128082275 -0.41050320863723755 -0.41057053208351135 0.18259515778178884 0.28764190525885924 -0.0841309588106939 -0.4838989567116374 0.14784705992746142
-0.11689847707748413 -0.3861534297466278 0.3823000192642212 0.1358056664466858 -0.24432815611362457 -0.2305326004669201 0.1366026396557936 -0.28191909450032415
0.27604593044805575 -0.27283329637950154 0.3573336601257324 -0.11508020758628845 0.08344215154647827 -0.4326631426811218 -0.07486072182655334 -0.06321179866790771
-0.1253010332584381 -0.060605525970458984 -0.07296356558799744 0.3147851824760437 0.07503885277614813 -0.18632322415596037 0.27027560670335443 0.17168132497727542
-0.2758212908775174 -0.14019310474395752 -0.12256672978401184 0.3443242311477661 -0.013670265674591064 0.1359119415283203 -0.1553056836128235 0.21436315774917603
-0.09526622295379639 0.19238531589508057 0.035091787576675415 0.19413775205612183 0.016615450382232666 -0.32409489154815674 -0.39700549840927124 -0.2783563733100891
0.07806243498790108 0.16594014136844007 -0.22645480563779719 0.24834578453885142 0.33709337176714715 0.15922445183836614 -0.2978379295078408 0.06568708981183313
0.2337388218599445 0.3979745390425706 -0.2745234966278076 0.0585247278213501 -0.129891037940979 0.214630126953125 0.055469393730163574 -0.38239791989326477
-0.08170893788337708 0.031002163887023926 -0.35994672775268555 -0.3928275406360626 0.4087135931324501 -0.10718967978432915 -0.34724208170439685 0.035196237546853644
0.22885602193239205 0.3477072014288499 0.07663410315136672 0.23200490745330632 0.28726066788521715 0.3907399934974242 0.27353371537665305 -0.11992018390629508
-0.2568157708194582 -0.1850625735318936 -0.09647925010230823 -0.3501526713371277 -0.3885819911956787 0.41255056858062744 -0.19941279292106628 0.25096261501312256
0.4101064925415048 -0.11812151223929826 -0.4031259513432157 0.34842704047972656 -0.11865614067935194 0.06637710332870483 0.15834105014801025 -0.1603129506111145
-0.11477276682853699 -0.3749419152736664 0.024249494075775146 -0.1269947588443756 -0.22993823885917664 0.1692209243774414 -0.08096730709075928 0.14770428304201055
-0.0065162243559616214 -0.4085512705425191 0.22482963854345864 -0.12649813974801175 -0.09527871447875635 0.44852114698371326 0.4123780443797273 0.3187526473778877
-0.32819971201576936 -0.33098822832107544 -0.028674572706222534 -0.3686550259590149 0.3990378975868225 0.23415035009384155 0.23933409455739454 -0.22165869281196598
0.026390396442703492 0.3044290208317777 0.18285337165150153 0.11235141884851224 0.3265482039036759 0.09192300823529435 0.40031580151305557 -0.06659281785656647
0.05407447446416313 0.2817200295729129 0.394284846365617 0.21970013326082616 0.022515487564089595 0.07042723894119263 -0.09770673513412476 -0.027212321758270264
0.2269570231437683 -0.012213528156280518 0.10739648342132568 -0.37014228105545044 -0.3770074248313904 -0.043758511543273926 -0.33991312980651855 0.15811680127717673
00000000: a090 bbfe a1e4 c73f 6ded 3e93 f7bd dcbf
00000010: 2948 9b90 fee8 d03f b576 09d8 33f2 c5bf
00000020: fa2c bf87 5d21 bf3f 0000 0040 8728 c4bf
00000030: 0000 00a0 b44c d2bf 0000 0060 19c4 dabf
00000040: 0000 00c0 7e27 cebf 0000 0000 7649 ba3f
00000050: 0000 00e0 0668 d3bf 0000 0000 e085 ac3f
00000060: 0000 0040 cdcb d6bf 0000 0000 3292 d53f
00000070: 0000 0000 35ce b33f 0000 0000 e3b3 d23f
00000080: 0000 0040 217d c0bf 0000 0080 2103 d1bf
00000090: 0000 0080 0852 d7bf 0000 0080 03e7 b5bf
000000a0: 0000 00c0 4bff c4bf 0000 0000 a42d 8abf
000000b0: 0000 0040 4265 d93f 0000 0000 98ab 933f
000000c0: 0000 0040 1c0d dabf d607 6621 1f55 c1bf
000000d0: 79a1 6284 2f88 d53f 4ee1 b530 cc6d d73f
000000e0: bc2e 30f3 1aa3 be3f f676 6736 9872 d6bf
000000f0: 5509 6e34 e862 c9bf 9abf f3db 6232 d1bf
00000100: 92ba 3e62 1ac4 d23f 4782 7379 7284 d13f
00000110: 984b 8158 74c3 da3f 0000 00c0 50ec d73f
00000120: 0000 0080 4469 dabf 0000 0080 1065 b6bf
00000130: 0000 0040 588f d4bf 0000 0000 0002 b63f
00000140: 6dbb 58b3 61b1 cd3f 190a be7c 44b0 cabf
00000150: 732b 984e ec70 a23f d9b8 66ef 9a6c c43f
00000160: ffdf b8da 1ecb d23f ff69 5809 da78 d53f
00000170: 8a2f e0c3 a420 9a3f 0129 b26e 2671 b43f
00000180: 7245 797b 0c31 d7bf 0108 9d82 f222 c23f
00000190: 0000 0000 234a d9bf 0000 00c0 6847 c7bf
000001a0: 0000 00c0 d319 d03f 0000 0000 9f2e b5bf
000001b0: 0000 0000 dd8b a23f 98f9 167b 95b2 d23f
000001c0: c674 9d9a 5ea4 c83f 2d91 2ac9 7698 853f
000001d0: 1fe0 ddb1 fcf2 d53f b197 f803 4257 963f
000001e0: 0000 0080 db48 c4bf 0000 0000 8570 ba3f
000001f0: 0000 0080 33b8 d6bf 0000 0080 8c16 d33f
00000200: 0000 0040 0587 c9bf d2c0 245e e54c d4bf
00000210: b01f ab46 887a c93f 187b 9108 0862 da3f
00000220: 5ec1 538c c4e8 723f b1be 7cc1 b63f d23f
00000230: 8ffa 86f1 68c8 d4bf 4869 c899 ef77 d13f
00000240: 2c7f 8e08 75aa b7bf 9b00 0ce2 611a aa3f
00000250: a0c9 5392 a94f a8bf 0000 00a0 ca04 d2bf
00000260: 0000 00c0 9904 d9bf 0000 0040 7efa d1bf
00000270: 0000 00c0 3056 d93f 0000 0000 884c c03f
00000280: 1a1e f58f 2983 cb3f 0ee1 517b a799 a7bf
00000290: fe34 b7dd 1b5a cb3f 9826 9169 6930 783f
000002a0: 2d31 0835 c00e c23f af1c 8ee0 9214 97bf
000002b0: 70e1 6696 2a80 d73f 9357 4ac8 6612 c33f
000002c0: 4b8f b4b3 cdc8 c43f 5b0b 0834 93b0 d03f
000002d0: 0000 0080 2081 cd3f 0000 00c0 e0de c6bf
000002e0: 0000 0080 694c dbbf 0000 0000 2dd4 a73f
000002f0: 0000 0080 3d23 d2bf ff7d 06bf ab9f bc3f
00000300: 8c51 ee11 8e19 af3f 1654 b4ea 9507 bf3f
00000310: 9fad 2af8 9ad3 d23f 3813 f287 4558 c7bf
00000320: 0000 0000 e568 dc3f 0000 00a0 8b0d dabf
00000330: 0000 0000 c437 d4bf 0000 0000 76aa c53f
00000340: 0000 0000 0373 b4bf 0000 0080 5fb4 c93f
00000350: 0000 0000 d0d7 cdbf 0000 0000 ede2 aabf
00000360: 0000 0000 f143 c3bf 0000 0000 f327 d0bf
00000370: 0000 0040 1f51 db3f 0000 00e0 408f c9bf
00000380: 0000 0080 82d1 d3bf 0000 0040 af45 dabf
00000390: 0000 00a0 c946 dabf c955 8a33 475f c73f
000003a0: 88f0 0298 b968 d23f 3a4d ac44 9b89 b5bf
000003b0: b847 6954 33f8 debf 955e 9907 a7ec c23f
000003c0: 0000 0000 0fed bdbf 0000 00e0 bcb6 d8bf
000003d0: 0000 0080 9a77 d83f 0000 0080 1462 c13f
000003e0: 0000 0020 2546 cfbf a668 d59d 1782 cdbf
000003f0: 5238 effe 317c c13f fecb bf62 f60a d2bf
00000400: 77f8 dd8c bcaa d13f ed6d 4dc9 1976 d1bf
00000410: 0000 0000 8ede d63f 0000 0080 e575 bdbf
00000420: 0000 0000 775c b53f 0000 00c0 c0b0 dbbf
00000430: 0000 0080 122a b3bf 0000 0000 a62e b0bf
00000440: 0000 0040 dd09 c0bf 0000 0000 b007 afbf
00000450: 0000 0080 bdad b2bf 0000 00c0 7025 d43f
00000460: a458 9a0a bf35 b33f a418 1e7d 70d9 c7bf
00000470: 47a3 ec0e 324c d13f 9540 0e56 a7f9 c53f
00000480: 1201 f757 0ea7 d1bf 0000 0000 d9f1 c1bf
00000490: 0000 0080 8860 bfbf 0000 0080 6809 d63f
000004a0: 0000 0000 28ff 8bbf 0000 0000 9065 c13f
000004b0: 0000 0080 0ee1 c3bf 0000 0080 4070 cb3f
000004c0: 0000 0000 5e63 b8bf 0000 0000 15a0 c83f
000004d0: 0000 0000 8df7 a13f 0000 0080 81d9 c83f
000004e0: 0000 0000 a403 913f 0000 0080 f8bd d4bf
000004f0: 0000 00c0 8968 d9bf 0000 0040 97d0 d1bf
00000500: 8eb4 5155 e6fb b33f 51b2 22cc 863d c53f
00000510: 8c41 1e98 78fc ccbf 66cf 586f cbc9 cf3f
00000520: 900c dc13 f092 d53f 8a45 af82 7761 c43f
00000530: 60a6 afd1 c60f d3bf 80e0 827e ded0 b03f
00000540: 06d6 d859 27eb cd3f 6706 7533 6a78 d93f
00000550: 0000 0000 cb91 d1bf 0000 0000 f4f6 ad3f
00000560: 0000 0000 45a0 c0bf 0000 0000 0079 cb3f
00000570: 0000 0000 7c66 ac3f 0000 0020 3579 d8bf
00000580: 0000 0080 e0ea b4bf 0000 0000 08bf 9f3f
00000590: 0000 0000 5e09 d7bf 0000 0020 1624 d9bf
000005a0: 3bcf fb0e 5d28 da3f b974 2469 c870 bbbf
000005b0: 34c8 2dda 3639 d6bf b176 69c2 3d05 a23f
000005c0: b79c d874 274b cd3f 3a1e aeb4 d540 d63f
000005d0: f51c cbe6 4a9e b33f a600 0339 56b2 cd3f
000005e0: bf9f 7f91 7a62 d23f 57e2 5351 e201 d93f
000005f0: a859 798e 9381 d13f fe01 02d4 16b3 bebf
00000600: 0b10 316a ab6f d0bf e83b 8462 21b0 c7bf
00000610: c498 ee37 ddb2 b8bf 0000 00c0 e668 d6bf
00000620: 0000 0000 87de d8bf 0000 0080 3a67 da3f
00000630: 0000 00c0 5b86 c9bf 0000 0080 c50f d03f
00000640: 38f4 554d 2f3f da3f f297 0520 363d bebf
00000650: 2c08 4cca d0cc d9bf 75c2 f9ed a04c d63f
00000660: e9f8 afb3 3f60 bebf 0000 0000 17fe b03f
00000670: 0000 0000 8544 c43f 0000 0080 2285 c4bf
00000680: 0000 0080 bf61 bdbf 0000 0060 0cff d7bf
00000690: 0000 0000 dcd4 983f 0000 0040 5d41 c0bf
000006a0: 0000 00c0 9d6e cdbf 0000 0000 08a9 c53f
000006b0: 0000 0000 46ba b4bf 0881 9254 f9e7 c23f
000006c0: 4f3b 09a8 c1b0 7abf 1f0a 6e3a b425 dabf
000006d0: 9d9a 5bb4 37c7 cc3f 757c 9c4e 1731 c0bf
000006e0: 30f1 b092 2f64 b8bf 5a01 770a 92b4 dc3f
000006f0: 67c2 8ce1 6664 da3f b917 0081 7166 d43f
00000700: ac84 6a5d 3901 d5bf 0000 0040 e92e d5bf
00000710: 0000 0000 de5c 9dbf 0000 0040 0b98 d7bf
00000720: 0000 0040 d689 d93f 0000 0080 a3f8 cd3f
00000730: 498c 78e6 7fa2 ce3f 4a31 40e2 4f5f ccbf
00000740: c77b 9986 1506 9b3f 1c40 1bdc c37b d33f
00000750: a96f 9a41 bd67 c73f 2412 9d05 10c3 bc3f
00000760: 6e5d 1570 2ae6 d43f ebda 1e2a 4488 b73f
00000770: ba84 e42a c69e d93f 01aa d716 3a0c b1bf
00000780: 8f72 be46 a6af ab3f 3f34 6972 b307 d23f
00000790: a8b7 1c82 f63b d93f 881b a44b 221f cc3f
000007a0: bc0c f7ca 4c0e 973f 0000 0000 8507 b23f
000007b0: 0000 0000 4f03 b9bf 0000 0000 8cdd 9bbf
000007c0: 0000 0080 ed0c cd3f 0000 0000 6803 89bf
000007d0: 0000 0000 567e bb3f 0000 0040 69b0 d7bf
000007e0: 0000 00c0 e320 d8bf 0000 0000 8467 a6bf
000007f0: 0000 0000 23c1 d5bf 5f80 37dd 2b3d c43f

fc1.bias f8 [64]
-0.24260094327638027 0.16295605897903442 0.19226914644241333 0.06451404094696045 -0.38506436347961426 -0.1479048827106616 -0.18742113711124211 -0.2740658223628998
-0.3697306723096393 -0.025412075356282766 0.05445784330368042 -0.07016901202563244 -0.20395055413246155 -0.2487259539246322 -0.06999158974416171 0.21260493993759155
-0.1533165289390203 -0.02552026520640867 -0.22168532013893127 -0.2151708417351761 -0.010629445314407349 0.05535346269607544 0.04343867301940918 -0.09903381962637872
-0.2567555606365204 0.27220924085593246 -0.37204283475875854 -0.24961154162883759 -0.23227077340298943 -0.3390759229660034 -0.32782331109046936 -0.1563149392604828
-0.1246534373828839 -0.4348196917973934 -0.13466614484786987 -0.004641890525817871 -0.05614461608563555 0.27145866266641494 -0.09674345871556374 0.05125373601913452
-0.0911517479725676 -0.2067943662405014 0.03128430247306824 0.32713514278209294 0.29777834641951456 0.06738358736038208 -0.46127039290219735 -0.004503392436995254
-0.09330474680699447 -0.44391533732414246 0.38466185331344604 0.4394406967977188 0.09237069935648604 -0.26109030842781067 -0.3221997916698456 0.05373257398605347
-0.24643521196379614 0.1194906234741211 -0.2890077829360962 -0.3977939556308105 -0.2622549533843994 -0.19183410391798608 -0.2170683942843944 0.3732633682896208
00000000: 28e7 ac36 8c0d cfbf 0000 0080 bedb c43f
00000010: 0000 0080 469c c83f 0000 0000 fe83 b03f
00000020: 0000 0000 e5a4 d8bf e49b 1415 8cee c2bf
00000030: c567 3c73 6afd c7bf 0000 0060 4b8a d1bf
00000040: ba78 79d6 aaa9 d7bf 829c 5082 9f05 9abf
00000050: 0000 0000 e6e1 ab3f a2bc d7ab 98f6 b1bf
00000060: 0000 0040 0d1b cabf c6e7 e286 40d6 cfbf
00000070: b53b f204 f8ea b1bf 0000 0080 a336 cb3f
00000080: ae5a dd42 e09f c3bf 957e c901 fc21 9abf
00000090: 0000 0040 2f60 ccbf 7816 27d8 b78a cbbf
000000a0: 0000 0000 e4c4 85bf 0000 0000 4a57 ac3f
000000b0: 0000 0000 983d a63f 4246 7ec8 475a b9bf
000000c0: 0000 00e0 ae6e d0bf 3c4b c94e e06b d13f
000000d0: 0000 00c0 8ccf d7bf 0000 0060 45f3 cfbf
000000e0: 418e ca77 0cbb cdbf 0000 0080 6bb3 d5bf
000000f0: 0000 00a0 0efb d4bf 0000 00c0 2002 c4bf
00000100: 76ba e4a4 49e9 bfbf 7b4d fbf8 15d4 dbbf
00000110: 0000 0080 bd3c c1bf 0000 0000 6003 73bf
00000120: fa59 deb3 fcbe acbf be8f 9727 945f d13f
00000130: 9d07 49e7 2dc4 b8bf 0000 0000 ee3d aa3f
00000140: 0df2 8390 b855 b7bf 0000 00e0 3c78 cabf
00000150: 0000 0000 7f04 a03f afc4 e73c c8ef d43f
00000160: a10a d5e8 cc0e d33f 0000 0000 0d40 b13f
00000170: 4931 0841 7485 ddbf f0a2 ce33 2672 72bf
00000180: 6cfc 18e4 d1e2 b7bf 0000 00e0 1b69 dcbf
00000190: 0000 00c0 4c9e d83f 16c5 51df cb1f dc3f
000001a0: ea41 d82c 9ba5 b73f 0000 0020 b4b5 d0bf
000001b0: 0000 00e0 eb9e d4bf 0000 0000 d682 ab3f
000001c0: 8cd1 fb63 308b cfbf 0000 0000 f096 be3f
000001d0: 0000 0080 1a7f d2bf 87c5 7ec7 7475 d9bf
000001e0: 0000 0000 c9c8 d0bf 59e8 4a19 058e c8bf
000001f0: b42d 39ab e5c8 cbbf 8251 e609 8ce3 d73f

fc2.weight f8 [128, 64]
0.15310600362844132 0.04848848283290863 -0.07610933482646942 0.08302196860313416 -0.07802818715572357 -0.029342341004268722 -0.08690632588988148 0.08403293788433075
0.03198746908116381 -0.10323283123730846 0.09737049043178558 -0.0059325837197892455 0.045676231384277344 0.0993356963735628 0.041484296928926294 -0.11497291922569275
0.06683823083183744 -0.05973428479835605 -0.10099020600318909 0.0702502797179103 -0.08349849283695221 0.12457859516143799 -0.06810134649276733 -0.09801707517960552
0.05323682725429535 -0.03116789578614057 -0.11731952428817749 0.11162075400352478 -0.021576645913147313 0.12082524597644806 -0.025568649172782898 0.032455697655677795
0.09527350228686587 0.05977399636795609 0.06213757395744324 0.0795111209154129 0.04985046593569683 0.13543722397548108 -0.0754717966311816 -0.0011937469244003296
-0.11904840973704196 -0.09662874042987823 -0.055537447333335876 -0.07601959325653167 0.12555591109449227 0.027180016040802002 0.0954729372500708 0.14028229337115883
-0.051664363160442456 -0.1192178875207901 0.06287510693073273 0.09060341787488489 0.13110890896657826 -0.0378129780292511 0.04424102604389191 -0.07410448789596558
-0.046129991604702915 -0.019375905394554138 -0.06127724051475525 0.1460371999521042 0.021099820733070374 -0.05119794307202214 0.12826288535720784 0.021836253173645043
0.1325473283741979 0.04754680395126343 0.09475253522396088 -0.11506190896034241 0.09858828783035278 0.1283548333719443 0.085819354693112 -0.03155797719955444
-0.08087437560323252 0.135670004335815 0.0026737749576568604 0.13966788922708814 -0.07030391693115234 0.0406479582182356 -0.019153498273304464 -0.05682685971260071
0.11294835383416398 0.10959177177600185 0.017434626817703247 0.1419936541115252 -0.0685277134180069 0.12297642230987549 -0.11962990462779999 0.029317258724161365
0.048812225461006165 0.03444473969342523 -0.07497991621494293 0.012364953756332397 -0.10821488240152596 -0.10351784527301788 0.10684394836425781 0.08454196155071259
0.06819772438219085 -0.005733599466394939 -0.0659954845905304 0.06951664388179779 -0.10531828454511355 -0.015632907155432318 -0.05935355964609753 -0.03159865736961365
-0.14511055410343496 -0.02407267689704895 0.0528220534324646 -0.05327422377214602 0.12692737577536098 -0.028339505195617676 -0.07515840473797211 0.006658057492749433
0.08402102946956087 -0.02115313708782196 -0.07013280689716339 -0.017814356804838116 0.08944219826183226 -0.0010669082403182983 0.04069015383720398 -0.03737284243106842
0.07349364109104405 0.09226661920547485 0.024788275361061096 -0.032372933881673185 0.07572837173938751 -0.05006632707272405 -0.02169995038309608 -0.02457241010830956
0.05128578841686249 0.11469148099422455 0.05626752972602844 -0.020994439721107483 -0.04542633891105652 0.024455711245536804 0.023697972297668457 -0.030291587114334106
0.11601851880550385 0.11583957076072693 0.014417141675949097 -0.036647602915763855 0.12222687900066376 0.0925413966178894 0.010417655110359192 0.11615128815174103
-0.09335191547870636 0.0029187947511672974 0.059048011898994446 0.009012162685394287 -0.1069951206445694 0.0514325350522995 0.010655850172042847 0.04085114598274231
-0.054498255252838135 -0.040580183267593384 -0.07728274166584015 -0.034776076674461365 0.00675007700920105 0.0437106192111969 -0.026751816272735596 -0.006144657731056213
0.00866323709487915 -0.020519152283668518 0.08007848262786865 -0.015260085463523865 0.08058206737041473 -0.06079699099063873 0.0950978696346283 0.049122899770736694
0.023044317960739136 0.013670369982719421 0.020310774445533752 0.10971090197563171 0.1072588562965393 0.11532142758369446 -0.05211260914802551 0.1025560200214386
-0.10017463564872742 -0.11907222867012024 0.10334251821041107 -0.08588787913322449 -0.044569388031959534 -0.11070370674133301 0.0897010862827301 -0.029435500502586365
-0.038821861147880554 0.008426100015640259 -0.0961381047964096 0.07351963222026825 0.0771975964307785 -0.07047675549983978 0.01842452585697174 -0.0614202618598938
-0.10520830750465393 0.01570376753807068 -0.07842087745666504 0.027011752128601074 -0.03354214131832123 -0.06039923429489136 0.06900322437286377 -0.08737963438034058
-0.01917882263660431 -0.10362283885478973 0.01719948649406433 0.10872858762741089 0.006345480680465698 -0.10763430595397949 -0.07922659814357758 -0.0721343457698822
0.07124049961566925 0.07701495289802551 -0.05910086631774902 0.03623458743095398 0.002151176333427429 0.004817202687263489 -0.07734706997871399 0.1110992580652237
0.022838890552520752 0.07761023938655853 -0.04409131407737732 0.04642479121685028 -0.08146217465400696 0.09533855319023132 0.07211227715015411 -0.009176477789878845
-0.07471226155757904 -0.09257663786411285 0.004039481282234192 -0.052190497517585754 0.017168685793876648 -0.1005190759897232 0.10775859653949738 -0.10661697387695312
0.0034256279468536377 -0.06597594916820526 -0.04985387623310089 0.0818420946598053 -0.08196958899497986 -0.08751511573791504 -0.0676000565290451 -0.09712125360965729
-0.008934259414672852 -0.0310785174369812 0.030491948127746582 0.059211328625679016 0.06194591522216797 0.10446573793888092 0.0017051398754119873 0.04514715075492859
0.08282795548439026 0.031386032700538635 -0.024935752153396606 -0.02411876618862152 -0.006971403956413269 0.036908313632011414 -0.09980732202529907 -0.10238665342330933
00000000: 91e4 333f fa98 c33f 0000 0080 7bd3 a83f
00000010: 0000 00c0 e67b b3bf 0000 0080 ed40 b53f
00000020: 0000 00c0 a7f9 b3bf a972 012c eb0b 9ebf
00000030: 1237 8333 7e3f b6bf 0000 00c0 2e83 b53f
00000040: d3ba 2b5b a960 a03f 7ba8 0982 776d babf
00000050: 0000 00c0 45ed b83f 1e9b ead0 c34c 78bf
00000060: 0000 0000 e062 a73f 63f5 3f6f 106e b93f
00000070: efee 3605 6e3d a53f 0000 0080 dd6e bdbf
00000080: e594 8b6f 4f1c b13f ec59 51ff 7d95 aebf
00000090: 0000 0080 7eda b9bf df5b ec1d ecfb b13f
000000a0: 0000 0040 2860 b5bf 0000 0000 62e4 bf3f
000000b0: 0000 0000 176f b1bf 1592 58a4 a517 b9bf
000000c0: 0000 0080 db41 ab3f 48b0 5814 7aea 9fbf
000000d0: 0000 0000 a708 bebf 0000 0080 2d93 bc3f
000000e0: d8a4 3732 3018 96bf 0000 0040 67ee be3f
000000f0: 0000 0000 ab2e 9abf 0000 0080 089e a03f
00000100: 345a 7f20 d863 b83f 8e6a 1a7f b29a ae3f
00000110: 0000 0000 7fd0 af3f 0000 0040 d75a b43f
00000120: 3bb3 c411 0086 a93f 385f d1c7 0156 c13f
00000130: 3521 4da2 1e52 b3bf 0000 0000 f08e 53bf
00000140: 851e 76e2 f479 bebf 0000 0040 a9bc b8bf
00000150: 0000 0080 676f acbf cb5b e422 0576 b3bf
00000160: b433 fc51 3712 c03f 0000 0000 14d5 9b3f
00000170: 9a61 2417 ea70 b83f 2c56 1e2b c5f4 c13f
00000180: d418 495c c073 aabf 0000 0040 1085 bebf
00000190: 0000 0040 9518 b03f 0faf ad1c c931 b73f
000001a0: 91e3 1c3e 2dc8 c03f 0000 0000 395c a3bf
000001b0: 0000 0080 c2a6 a63f 0000 0000 83f8 b2bf
000001c0: 0529 9daa 599e a7bf 0000 0000 47d7 93bf
000001d0: 0000 0000 bb5f afbf f997 e5d2 58b1 c23f
000001e0: 0000 0000 319b 953f d9cd 3be6 9d36 aabf
000001f0: cf2c f310 eb6a c03f e8ee fd24 3e5c 963f
00000200: 8309 4594 4ff7 c03f 0000 0000 0e58 a83f
00000210: 0000 00c0 b341 b83f 0000 0080 b274 bdbf
00000220: 0000 0000 153d b93f 14da ce61 ee6d c03f
00000230: 3a4f c5d9 41f8 b53f 0000 0000 5e28 a0bf
00000240: b8e0 4cde 2eb4 b4bf 10d3 d57b a25d c13f
00000250: 0000 0000 50e7 653f 8f0e 442c a3e0 c13f
00000260: 0000 0000 70ff b1bf 2b9b 6426 cfcf a43f
00000270: db57 c082 f99c 93bf 0000 0000 6918 adbf
00000280: 3dd2 daed 2eea bc3f a649 b0d3 340e bc3f
00000290: 0000 0000 62da 913f 4003 531a d92c c23f
000002a0: 0000 0040 088b b1bf 0000 0000 627b bf3f
000002b0: 0000 00c0 10a0 bebf 63ee b6ed 5705 9e3f
000002c0: 0000 0080 eafd a83f f346 01ad bda2 a13f
000002d0: 0000 0040 e231 b3bf 0000 0000 cc52 893f
000002e0: e6e3 da74 f8b3 bbbf 0000 0040 2580 babf
000002f0: 0000 0000 205a bb3f 0000 00c0 8aa4 b53f
00000300: e814 e2f3 6775 b13f ecfb 2463 1d7c 77bf
00000310: 0000 0080 14e5 b0bf 0000 00c0 d7cb b13f
00000320: 14c6 ca9b 23f6 babf a35c e5a3 1202 90bf
00000330: ab8f 29fb 9663 aebf 0000 0000 b32d a0bf
00000340: 5fdf 168e fb92 c2bf 0000 0000 82a6 98bf
00000350: 0000 0000 7e0b ab3f 286e a451 c246 abbf
00000360: 350d f6ff 273f c03f 0000 0000 0805 9dbf
00000370: c27e 5eca 943d b3bf afdd fab2 7a45 7b3f
00000380: fd7d bff5 6682 b53f 0000 0000 2ba9 95bf
00000390: 0000 0040 39f4 b1bf 8014 813f ed3d 92bf
000003a0: 1dbb 6a14 afe5 b63f 0000 0000 f07a 51bf
000003b0: 0000 0000 57d5 a43f 0000 0080 8822 a3bf
000003c0: ef32 f3b0 7ad0 b23f 0000 0000 c99e b73f
000003d0: 0000 0000 1962 993f 223f 9868 2f93 a0bf
000003e0: 0000 0040 ef62 b33f 2dfe d02a 4ba2 a9bf
000003f0: 7081 e104 8338 96bf 7c44 3287 8229 99bf
00000400: 0000 0080 2142 aa3f 0000 00c0 6b5c bd3f
00000410: 0000 0000 19cf ac3f 0000 0000 917f 95bf
00000420: 0000 0000 1f42 a7bf 0000 0000 eb0a 993f
00000430: 0000 0000 4844 983f 0000 0000 c204 9fbf
00000440: 0000 00c0 63b3 bd3f 0000 0080 a9a7 bd3f
00000450: 0000 0000 bc86 8d3f 0000 0080 79c3 a2bf
00000460: 0000 00c0 424a bf3f 0000 0000 cbb0 b73f
00000470: 0000 0000 da55 853f 0000 0040 17bc bd3f
00000480: 0000 0040 e9e5 b7bf 0000 0000 28e9 673f
00000490: 0000 0080 8a3b ae3f 0000 0000 f874 823f
000004a0: 0000 0040 0864 bbbf 0000 0080 5d55 aa3f
000004b0: 0000 0000 bcd2 853f 0000 0000 71ea a43f
000004c0: 0000 0000 32e7 abbf 0000 0000 edc6 a4bf
000004d0: 0000 0040 cdc8 b3bf 0000 0080 2bce a1bf
000004e0: 0000 0000 f8a5 7b3f 0000 0000 3d61 a63f
000004f0: 0000 0000 d464 9bbf 0000 0000 242b 79bf
00000500: 0000 0000 08be 813f 0000 0000 f902 95bf
00000510: 0000 0000 0680 b43f 0000 0000 ae40 8fbf
00000520: 0000 00c0 06a1 b43f 0000 0080 c820 afbf
00000530: 0000 0080 5558 b83f 0000 0000 a326 a93f
00000540: 0000 0000 ee98 973f 0000 0000 36ff 8b3f
00000550: 0000 0000 59cc 943f 0000 0080 0316 bc3f
00000560: 0000 0000 5175 bb3f 0000 0080 b485 bd3f
00000570: 0000 0000 81ae aabf 0000 0080 1c41 ba3f
00000580: 0000 0080 0ba5 b9bf 0000 0080 847b bebf
00000590: 0000 00c0 a774 ba3f 0000 0080 bffc b5bf
000005a0: 0000 0080 ccd1 a6bf 0000 0000 1457 bcbf
000005b0: 0000 0080 a6f6 b63f 0000 0000 5724 9ebf
000005c0: 0000 0080 75e0 a3bf 0000 0000 b441 813f
000005d0: 0000 00c0 819c b8bf 0000 00c0 2ed2 b23f
000005e0: 0000 00c0 38c3 b33f 0000 00c0 c30a b2bf
000005f0: 0000 0000 e1dd 923f 0000 0000 7a72 afbf
00000600: 0000 0080 eeee babf 0000 0000 a614 903f
00000610: 0000 0000 6413 b4bf 0000 0000 f8a8 9b3f
00000620: 0000 0080 6f2c a1bf 0000 0000 a6ec aebf
00000630: 0000 0000 32aa b13f 0000 0000 835e b6bf
00000640: 0000 0000 9da3 93bf 0000 00c0 0687 babf
00000650: 0000 0000 be9c 913f 0000 0000 a3d5 bb3f
00000660: 0000 0000 b8fd 793f 0000 0000 ec8d bbbf
00000670: 0000 00c0 3148 b4bf 0000 0080 6577 b2bf
00000680: 0000 0040 d13c b23f 0000 0080 40b7 b33f
00000690: 0000 0000 7842 aebf 0000 0000 578d a23f
000006a0: 0000 0000 589f 613f 0000 0000 34bb 733f
000006b0: 0000 0080 04cd b3bf 0000 0040 0071 bc3f
000006c0: 0000 0000 1463 973f 0000 00c0 43de b33f
000006d0: 0000 0000 2393 a6bf 0000 0080 fdc4 a73f
000006e0: 0000 0080 b4da b4bf 0000 0080 1b68 b83f
000006f0: 0000 0040 f375 b23f 0000 0000 1ecb 82bf
00000700: 0000 00c0 5720 b3bf 0000 0040 1ab3 b7bf
00000710: 0000 0000 b48b 703f 0000 0080 b6b8 aabf
00000720: 0000 0000 ab94 913f 0000 0040 9ebb b9bf
00000730: 0000 0040 1196 bb3f 0000 0000 404b bbbf
00000740: 0000 0000 1010 6c3f 0000 00c0 cce3 b0bf
00000750: 0000 0080 7286 a9bf 0000 0080 9af3 b43f
00000760: 0000 0080 f5fb b4bf 0000 0000 6467 b6bf
00000770: 0000 00c0 3c4e b1bf 0000 0040 f0dc b8bf
00000780: 0000 0000 204c 82bf 0000 0000 0cd3 9fbf
00000790: 0000 0000 4839 9f3f 0000 0080 f250 ae3f
000007a0: 0000 0000 60b7 af3f 0000 0040 44be ba3f
000007b0: 0000 0000 e0ef 5b3f 0000 0000 871d a73f
000007c0: 0000 0080 3634 b53f 0000 0080 d411 a03f
000007d0: 0000 0000 c288 99bf 0000 0000 97b2 98bf
000007e0: 0000 0000 0c8e 7cbf 0000 0080 a5e5 a23f
000007f0: 0000 0000 f98c b9bf 0000 0000 0336 babf

fc2.bias f8 [128]
-0.020956390759264323 0.04986154309384864 -0.0954146683216095 0.013235166668891907 -0.028315067249789924 0.007811539097847551 -0.06638862192630768 -0.044246748089790344
-0.07273711264133453 -0.03460468653851783 -0.015127554535865784 0.00379277765750885 0.05325346319439939 -0.13135421125185318 0.013140516643553769 -0.08333091592245981
0.12557425728552052 -0.15322874112333834 0.055747093624747945 -0.1099620908498764 -0.04715263843536377 0.08243668027472471 -0.003121213651850132 0.04804271459579468
0.1449032591881674 -0.0333428829908371 -0.030790239572525024 0.009853725074460813 0.07068233692173763 -0.12468849179328052 -0.01978923201541714 0.03625454191659199
-0.057813555002212524 -0.01623717637077377 0.06738670848345221 0.014236202879155477 -0.02015821611444005 -0.07416805624961853 -0.03425891697406769 -0.03704369068145752
-0.10748368017118029 -0.13548215902435032 0.13090514769688308 0.03277561068534851 -0.09470455348491669 0.039672464332771794 -0.14902527511695626 -0.0034589076831365913
-0.08138457263166633 0.12166296179981602 -0.1164550632238388 -0.01989637315273285 0.031371408755407226 -0.03286744821059618 -0.028498542420030852 0.0105724036693573
-0.023615739669169522 -0.046863749623298645 -0.01932463049888611 -0.05828937888145447 -0.047206558385177566 -0.07057252526283264 -0.0875256891433286 -0.059964388608932495
-0.04321661591529846 0.14173206657099985 -0.009194471446511 0.14161067173406072 0.05663046517105489 0.04779537967718155 0.05685187876224518 -0.0683579775923977
-0.05709615349769592 -0.03195384771198086 0.08740004638135572 0.07704316777934078 0.110130395098186 -0.048286423087120056 0.11964267239757087 -0.0009809881448745728
-0.002176821231842041 0.039473116397857666 -0.07052426944928236 -0.12541115391236882 -0.10925917327404022 0.033079180390919845 -0.08198532898234918 0.04457025826975883
0.026049506777670543 0.11157701909542084 -0.12467295413531447 -0.15074108659266944 0.012959107756614685 -0.03793293810695976 0.06083431009138154 -0.05372045336770989
0.10439333469974937 -0.09230977296829224 -0.08038156679116676 -0.0703507094078707 0.016152070764665072 -0.04806497331893311 0.046906505159812685 0.046641711571740324
0.017318890054457668 0.11429686029142141 0.023647004022116457 -0.15856105822619485 0.01268632709980011 0.06685538780038226 0.037919821558066724 0.12768416768495008
-0.03733495964540315 -0.06111308932304382 -0.07978258052081035 0.04020281136035919 -0.05178636885345072 0.06343214497844953 0.041308626532554626 -0.10007858719021051
0.10519324182235955 -0.09254749119281769 0.08873402196773048 0.09212315082550049 0.016545027494430542 0.11820783405656575 0.04603448007926213 -0.024409249424934387
00000000: 541d d093 9775 95bf d514 d5c1 7387 a93f
00000010: 0000 0080 186d b8bf 0000 0000 0a1b 8b3f
00000020: 1c9d 49ff 9ffe 9cbf 4b90 4e0f fefe 7f3f
00000030: 0000 0040 d8fe b0bf 0000 0080 82a7 a6bf
00000040: 0000 0040 e69e b2bf b749 f199 b4b7 a1bf
00000050: 0000 0000 32fb 8ebf 0000 0000 0812 6f3f
00000060: b12a a3b5 0944 ab3f fb60 c2fc 36d0 c0bf
00000070: 4792 e449 6ae9 8a3f 02f8 a1c6 2c55 b5bf
00000080: e861 2138 d112 c03f 664b f7d7 ff9c c3bf
00000090: 6041 ee0f e28a ac3f 0000 00c0 7926 bcbf
000000a0: 0000 0000 6424 a8bf ef4f c5fd 911a b53f
000000b0: eb6f dfd1 a891 69bf 0000 0000 0e99 a83f
000000c0: c903 a6a3 308c c23f 0000 0080 5112 a1bf
000000d0: 0000 0000 7a87 9fbf 8438 8297 302e 843f
000000e0: d7d4 7bd5 3c18 b23f 7590 70c2 95eb bfbf
000000f0: 3bd5 46e1 a043 94bf 77f8 b98f f48f a23f
00000100: 0000 0000 bd99 adbf 71a9 f775 7aa0 90bf
00000110: 7a1b 1f5d 4140 b13f b213 48ce de27 8d3f
00000120: 8931 d4fb 5aa4 94bf 0000 0080 adfc b2bf
00000130: 0000 0080 628a a1bf 0000 0000 64f7 a2bf
00000140: 925e 30eb 0c84 bbbf 33bc 19b9 7a57 c1bf
00000150: 933a 1ef8 7fc1 c03f 0000 0000 f7c7 a03f
00000160: 0000 00c0 8e3e b8bf 8bd2 b801 f34f a43f
00000170: 2fce 739d 4213 c3bf cc65 20ec da55 6cbf
00000180: f918 da8d 9ed5 b4bf a590 10ca 4d25 bf3f
00000190: 0000 00c0 ffcf bdbf 0000 0000 b75f 94bf
000001a0: 7091 44cd e90f a03f 81c0 558e 00d4 a0bf
000001b0: 4ef7 b5ce b82e 9dbf 0000 0000 fca6 853f
000001c0: a021 3376 b92e 98bf 0000 0080 86fe a7bf
000001d0: 0000 0000 d6c9 93bf 0000 0000 1bd8 adbf
000001e0: 2894 d740 752b a8bf 0000 0080 0a11 b2bf
000001f0: 8932 6e64 1568 b6bf 0000 0000 a7b3 aebf
00000200: 0000 0000 7d20 a6bf aac4 5bbf 4624 c23f
00000210: cd8b 5511 8dd4 82bf 8c62 ee69 4c20 c23f
00000220: 95e0 bb17 abfe ac3f 470f 3ad1 a278 a83f
00000230: 0000 0080 b01b ad3f b017 2e8e e87f b1bf
00000240: 0000 0000 b53b adbf 5203 cf35 415c a0bf
00000250: 5b76 e074 d95f b63f 1c15 fedd 19b9 b33f
00000260: 4005 3e6d 8131 bc3f 0000 0080 ffb8 a8bf
00000270: e852 27f5 e6a0 be3f 0000 0000 9012 50bf
00000280: 0000 0000 20d5 61bf 0000 0000 d235 a43f
00000290: c8e4 dbe6 e00d b2bf 41ba 4d02 790d c0bf
000002a0: 0000 00c0 68f8 bbbf 813b ea1b c1ef a03f
000002b0: 3522 bb92 fdfc b4bf 9428 49b3 e9d1 a63f
000002c0: 9183 bfce b8ac 9a3f 0000 00c0 4f90 bc3f
000002d0: 53f6 b414 91ea bfbf 4e1d 8ae2 7b4b c3bf
000002e0: 0000 0000 4e8a 8a3f 829e 3831 f26b a3bf
000002f0: e368 a2b8 ac25 af3f 0c64 ae4c 3f81 abbf
00000300: acaf 7486 85b9 ba3f 0000 0000 9da1 b7bf
00000310: b4bd 91e8 e293 b4bf 893e 280c 8102 b2bf
00000320: e0a3 c91e 2b8a 903f 00d2 f9e0 f89b a8bf
00000330: 1519 4323 2104 a83f 7c01 a923 6ce1 a73f
00000340: 8933 8c09 0bbc 913f f2b4 fc1c 8f42 bd3f
00000350: 1388 b193 eb36 983f 9515 c08f ba4b c4bf
00000360: 0000 0000 4afb 893f 79fe 2948 6f1d b13f
00000370: 2092 ec12 3a6a a33f 6940 366e f457 c03f
00000380: 4456 595d 911d a3bf 0000 0000 374a afbf
00000390: 219b 2096 a16c b4bf 0000 0080 7695 a43f
000003a0: f754 3531 be83 aabf 0994 32cc 163d b03f
000003b0: 0000 0080 6726 a53f dc07 0313 c09e b9bf
000003c0: 0f23 63bd f1ed ba3f 0000 0040 31b1 b7bf
000003d0: c6d9 64da 45b7 b63f 0000 0000 6295 b73f
000003e0: 0000 0000 2ef1 903f ef68 675d de42 be3f
000003f0: ee8a dbd4 d491 a73f 0000 0000 bdfe 98bf

fc3.weight f8 [64, 128]
0.0848686471581459 -0.03498281165957451 0.06604767590761185 0.01786002516746521 -0.0006941556930541992 0.0800449475646019 0.0023756399750709534 -0.0663505494594574
0.050822071731090546 0.009167216718196869 -0.07804253697395325 0.058533452451229095 -0.025803975760936737 -0.058010730892419815 0.004477478563785553 0.024836033582687378
-0.031208518892526627 0.008677065372467041 -0.02501729130744934 -0.0874214842915535 -0.08062593638896942 -0.05938373878598213 -0.03006502240896225 0.0031182467937469482
-0.0071896836161613464 -0.06485223025083542 0.029293134808540344 0.06011860817670822 -0.06906769424676895 0.040139056742191315 0.06365952640771866 0.014709025621414185
-0.032623935490846634 0.008565522730350494 -0.01448085904121399 -0.06644805520772934 -0.02327858656644821 -0.03797738626599312 -0.02580568939447403 -0.004791088402271271
0.01666373759508133 0.03995669633150101 0.08414778858423233 0.04126507788896561 0.01539059728384018 -0.010422095656394958 -0.03929447382688522 -0.06521560996770859
-0.03109651431441307 0.041932396590709686 0.05422230809926987 -0.027247272431850433 0.07018490880727768 0.013356313109397888 0.08319676667451859 0.032581329345703125
0.061544276773929596 -0.021692350506782532 -0.08063434064388275 -0.04421988129615784 0.008777156472206116 0.03653109818696976 -0.04375115782022476 -0.03575069457292557
0.040060438215732574 -0.01177099347114563 -0.024308308959007263 -0.038027774542570114 -0.02915528044104576 -0.054994408041238785 0.07431123405694962 0.04561062902212143
0.07363083213567734 -0.016354724764823914 0.02127157896757126 -0.05984385684132576 0.059687159955501556 -0.00019861012697219849 0.00412924587726593 -0.06728526949882507
-0.044808611273765564 -0.017688095569610596 -0.06433650851249695 0.06891421228647232 0.03760550171136856 -0.040938835591077805 -0.011077702045440674 -0.0760592520236969
-0.07745024561882019 -0.04349614679813385 -0.00960637629032135 -0.05857204273343086 -0.04578039050102234 -0.08630538731813431 -0.014202475547790527 -0.05570542439818382
-0.01101580262184143 0.08302933722734451 -0.053229447454214096 0.05552021414041519 -0.03526216000318527 -0.041774995625019073 0.029797233641147614 -0.08701277524232864
-0.04865783080458641 0.03560486435890198 0.05172955244779587 -0.010617777705192566 -0.013328500092029572 -0.08488147705793381 -0.042970966547727585 0.002468213438987732
0.08689621835947037 0.060747407376766205 0.07181928306818008 -0.02083909511566162 0.06186116486787796 -0.0851067528128624 -0.017286047339439392 -0.029787201434373856
0.06576121598482132 0.08647087961435318 -0.022642910480499268 -0.08270173519849777 -0.0597994439303875 -0.017428092658519745 -0.014658547937870026 -0.061476774513721466
0.0298240111043216 -0.046816575212890954 -0.07332978397607803 -0.0475492924451828 -0.10259389853664522 -0.07881542320291335 0.003832809627056122 -0.06956294924020767
-0.039431314915418625 0.0179609557426921 0.043293945491313934 0.03848017007112503 0.03533521434994913 0.010513128931877077 -0.0410878783327072 0.007055902948990016
0.028938802119295254 0.007726170581427243 0.11640810034461162 -0.033302269876003265 0.025907032191753387 -0.046498198259352974 0.08915198288856813 0.0053833648562431335
-0.026542562275749398 -0.011640369892120361 -0.0072493404150009155 0.039657802872025125 -0.042456543018088294 0.0469189980424094 -0.04166532153772222 -0.0035219658619177925
0.08470744639635086 -0.017759978999219564 0.02581904732524684 0.11948677574237199 0.07607023275135134 -0.05992360785603523 0.08348754793405533 -0.07899124175310135
-0.12320995073172536 0.03253812494810431 0.056593916737913044 0.08095332235097885 -0.06944087147712708 0.07911658498653851 0.03757892981077055 0.03198777850818266
0.018212801447773576 -0.07108867956289408 0.04437144845724106 0.0033841729164123535 0.07743740542033027 0.010137296968729868 0.03578151275144888 0.06298369914293289
-0.020040966844851286 0.04826918989419937 -0.022922120988368988 0.004500672221183777 0.04301321643684993 0.0030692368745803833 0.12913240442127255 -0.05488453060388565
0.08532261103391647 -0.03550236415305287 0.014325893776942258 -0.01346972984668933 0.06979817669297969 0.004437987748459751 -0.004157230257987976 0.10239378293198546
0.06810916215181351 0.03844987277616834 0.04517536874164491 0.0699941304979776 -0.028853472443634856 -0.048373930156230927 0.0433003479886548 -0.03792813792824745
0.05243251472711563 0.06026030331850052 0.08107323510323117 0.002148024048245194 0.034240394830703735 0.10937936692037313 0.05837699036886157 0.1016303417329999
0.037027740896179294 0.04430093616247177 0.08004321699079911 0.0940136034914773 0.01743505150079727 -0.016574886881213436 -0.05286053152503639 -0.0069316540144074125
-0.04118228340803532 0.08324842900037766 0.023126830857778658 0.013352507694241872 0.10197390559455548 0.04265010549453581 0.03179484511017756 0.050727964891634586
-0.028950538795287965 0.0006044644149948404 0.0060586780535680585 0.11901990685283485 0.008022651076316833 -0.062402452874061924 0.084091907487377 0.011647488125901925
0.08338453952521124 -0.023695193231105804 -0.09842240315925566 0.08371477574110031 -0.05632425002420471 0.0939593663726862 0.036592356860637665 0.07092778399797627
0.002649994230318856 -0.06053120642900467 -0.07008652656560892 -0.06253726035356522 0.01916337013244629 -0.011844841721857262 -0.016797395198580475 -0.013109229505062103
00000000: 0000 00a0 f3b9 b53f 0000 0060 44e9 a1bf
00000010: 0000 0020 80e8 b03f 0000 0000 e649 923f
00000020: 0000 0000 00bf 46bf 0000 0060 d37d b43f
00000030: 0000 0000 1476 633f 0000 0080 59fc b0bf
00000040: 0000 00c0 5905 aa3f 0000 0000 43c6 823f
00000050: 0000 0080 98fa b3bf 0000 00c0 18f8 ad3f
00000060: 0000 0080 5b6c 9abf 0000 0020 95b3 adbf
00000070: 0000 0000 fa56 723f 0000 0000 9e6e 993f
00000080: 0000 0040 20f5 9fbf 0000 0000 48c5 813f
00000090: 0000 0000 229e 99bf 0000 0020 4161 b6bf
000000a0: 0000 00c0 e6a3 b4bf 0000 00a0 8b67 aebf
000000b0: 0000 0080 5dc9 9ebf 0000 0000 708b 693f
000000c0: 0000 0000 ee72 7dbf 0000 00e0 279a b0bf
000000d0: 0000 0000 05ff 9d3f 0000 00c0 ddc7 ae3f
000000e0: 0000 00a0 6bae b1bf 0000 0040 1b8d a43f
000000f0: 0000 00a0 fd4b b03f 0000 0000 c41f 8e3f
00000100: 0000 00a0 15b4 a0bf 0000 0000 cd8a 813f
00000110: 0000 0000 24a8 8dbf 0000 0060 bd02 b1bf
00000120: 0000 0080 57d6 97bf 0000 00a0 c571 a3bf
00000130: 0000 0080 ce6c 9abf 0000 0000 d29f 73bf
00000140: 0000 0080 4c10 913f 0000 0040 3475 a43f
00000150: 0000 00a0 b58a b53f 0000 0040 b220 a53f
00000160: 0000 0000 1b85 8f3f 0000 0000 2e58 85bf
00000170: 0000 00c0 671e a4bf 0000 0060 f8b1 b0bf
00000180: 0000 00c0 c3d7 9fbf 0000 00c0 2978 a53f
00000190: 0000 00c0 06c3 ab3f 0000 0080 b5e6 9bbf
000001a0: 0000 0060 a3f7 b13f 0000 0000 8e5a 8b3f
000001b0: 0000 0020 624c b53f 0000 0000 80ae a03f
000001c0: 0000 0040 bb82 af3f 0000 0000 8536 96bf
000001d0: 0000 00c0 73a4 b4bf 0000 0000 fda3 a6bf
000001e0: 0000 0000 c2f9 813f 0000 0040 34b4 a23f
000001f0: 0000 0040 8d66 a6bf 0000 0040 ea4d a2bf
00000200: 0000 0040 cd82 a43f 0000 0000 641b 88bf
00000210: 0000 0000 47e4 98bf 0000 0060 6078 a3bf
00000220: 0000 00c0 e1da 9dbf 0000 0020 3a28 acbf
00000230: 0000 00a0 0f06 b33f 0000 00c0 465a a73f
00000240: 0000 0060 78d9 b23f 0000 0000 4bbf 90bf
00000250: 0000 0080 37c8 953f 0000 00a0 daa3 aebf
00000260: 0000 00c0 508f ae3f 0000 0000 4008 2abf
00000270: 0000 0000 d4e9 703f 0000 0080 9b39 b1bf
00000280: 0000 0080 27f1 a6bf 0000 0000 d41c 92bf
00000290: 0000 0080 5b78 b0bf 0000 00a0 5ca4 b13f
000002a0: 0000 0040 0741 a33f 0000 0060 eff5 a4bf
000002b0: 0000 0000 e8af 86bf 0000 0080 9e78 b3bf
000002c0: 0000 0080 c7d3 b3bf 0000 0080 2045 a6bf
000002d0: 0000 0000 82ac 83bf 0000 00a0 27fd adbf
000002e0: 0000 0000 8770 a7bf 0000 0020 1c18 b6bf
000002f0: 0000 0000 3016 8dbf 0000 00e0 6b85 acbf
00000300: 0000 0000 748f 86bf 0000 0020 6941 b53f
00000310: 0000 00e0 e340 abbf 0000 0040 256d ac3f
00000320: 0000 00c0 e10d a2bf 0000 0040 8863 a5bf
00000330: 0000 0080 2a83 9e3f 0000 0020 7846 b6bf
00000340: 0000 00e0 ade9 a8bf 0000 0000 cd3a a23f
00000350: 0000 00c0 4b7c aa3f 0000 0000 c6be 85bf
00000360: 0000 0000 f94b 8bbf 0000 00e0 caba b5bf
00000370: 0000 0060 4a00 a6bf 0000 0000 3838 643f
00000380: 0000 00a0 d43e b63f 0000 00c0 481a af3f
00000390: 0000 00a0 bf62 b23f 0000 0000 d856 95bf
000003a0: 0000 0040 44ac af3f 0000 0060 8ec9 b5bf
000003b0: 0000 0000 6fb3 91bf 0000 0040 8980 9ebf
000003c0: 0000 0020 bad5 b03f 0000 00a0 f422 b63f
000003d0: 0000 0000 b42f 97bf 0000 00e0 f02b b5bf
000003e0: 0000 0060 089e aebf 0000 0080 abd8 91bf
000003f0: 0000 0000 4d05 8ebf 0000 0040 e279 afbf
00000400: 137d 5081 2f8a 9e3f 5072 e696 57f8 a7bf
00000410: 0000 00a0 bdc5 b2bf 0000 0080 6158 a8bf
00000420: 9ee9 fbfe 9743 babf 88b0 1361 3f2d b4bf
00000430: 0000 0000 fc65 6f3f 0000 00a0 e0ce b1bf
00000440: 0000 0060 5730 a4bf 873d 1456 5b64 923f
00000450: 0000 00c0 9f2a a63f 0000 0040 acb3 a33f
00000460: f073 0f0c 7517 a23f cb41 8747 e887 853f
00000470: 0eea 666b 7809 a5bf d2f9 8d86 a6e6 7c3f
00000480: a84b c022 22a2 9d3f 9f5c 871f 7aa5 7f3f
00000490: 4337 f8d7 ebcc bd3f 0000 00c0 fe0c a1bf
000004a0: 0000 0080 5f87 9a3f b095 b1a1 9cce a7bf
000004b0: 8444 e112 aad2 b63f 0000 0000 de0c 763f
000004c0: cb9e b433 f92d 9bbf 0000 0000 e8d6 87bf
000004d0: 0000 0000 7cb1 7dbf 1eae bb0c 074e a43f
000004e0: bc1e 872f ddbc a5bf 0075 4e54 c405 a83f
000004f0: b680 c332 2855 a5bf 28e1 3906 19da 6cbf
00000500: 0000 0020 63af b53f 44cc ea03 ac2f 92bf
00000510: b8d4 80ef 4e70 9a3f 8833 1e72 af96 be3f
00000520: cdbc ddb9 5679 b33f 0000 00a0 4eae aebf
00000530: 0000 00a0 705f b53f 0000 0020 c538 b4bf
00000540: 783d eff4 af8a bfbf 27f0 0c4d d6a8 a03f
00000550: c271 15bb e0f9 ac3f 0000 0060 5bb9 b43f
00000560: 0000 0080 e0c6 b1bf 90a0 1609 fc40 b43f
00000570: 09a4 1ca5 8b3d a33f acf0 20bd b360 a03f
00000580: 7acf 586a 60a6 923f e6a4 d621 de32 b2bf
00000590: 0000 00c0 dab7 a63f 0000 0000 20b9 6b3f
000005a0: 1775 c413 f0d2 b33f f2b1 9af7 dcc2 843f
000005b0: 3a44 2356 f451 a23f 0000 0020 b31f b03f
000005c0: 2e26 b784 9e85 94bf 0000 0040 bdb6 a83f
000005d0: 0000 0080 e578 97bf 0000 0000 4c6f 723f
000005e0: 7bb9 c80b d405 a63f 0000 0000 a824 693f
000005f0: 5aee eb1e 6987 c03f 0000 0040 d319 acbf
00000600: 0000 00e0 b3d7 b53f 92a3 efa9 5d2d a2bf
00000610: 3b41 10ea e456 8d3f a87d 6b89 0496 8bbf
00000620: b67e 3716 4bde b13f 29be d543 912d 723f
00000630: 0000 0000 2c07 71bf 93b0 019d 7a36 ba3f
00000640: 0000 0020 9a6f b13f 57cf 37a4 b3af a33f
00000650: 9903 a9d6 3921 a73f dd98 66a5 22eb b13f
00000660: b4f6 15c2 c38b 9dbf 0000 00c0 77c4 a8bf
00000670: d28b 0895 762b a63f 0000 0020 516b a3bf
00000680: 0000 0040 6fd8 aa3f 0000 0040 70da ae3f
00000690: 886b 592d 37c1 b43f d737 39a1 bb98 613f
000006a0: 0000 0000 f587 a13f 53ba c743 4900 bc3f
000006b0: 0043 f2c0 96e3 ad3f 2848 0632 7204 ba3f
000006c0: 8b40 63d0 4cf5 a23f 0000 00c0 9cae a63f
000006d0: 2afb 3d57 b67d b43f 6c00 6088 4611 b83f
000006e0: 0000 0080 7eda 913f 3ddd 5bd4 01f9 90bf
000006f0: 0865 4c1c 8910 abbf 6dfa c8b4 5d64 7cbf
00000700: c100 d320 d815 a5bf 0000 00e0 c44f b53f
00000710: 1df2 c658 8fae 973f b04c ee3e 8f58 8b3f
00000720: 23f2 923d f61a ba3f fa3a 8a10 3cd6 a53f
00000730: 49f4 dbf7 6947 a03f a487 670c 04f9 a93f
00000740: 7e32 4fc5 35a5 9dbf e88b 6e72 9dce 433f
00000750: e996 8d01 fcd0 783f 2382 81af 1678 be3f
00000760: 0000 0000 2e6e 803f c78c 91dc 36f3 afbf
00000770: 143c 8418 0c87 b53f 187f a664 a3da 873f
00000780: 9cb7 406e b058 b53f 0000 0080 8d43 98bf
00000790: 4842 c3ea 3532 b9bf 0000 00e0 546e b53f
000007a0: 5fc0 a637 88d6 acbf d83b b995 b80d b83f
000007b0: 0000 00c0 3bbc a23f cf28 a6c0 5228 b23f
000007c0: eecb b8d1 70b5 653f 0000 0040 f2fd aebf
000007d0: 8b51 7dcb 30f1 b1bf 0000 0020 7102 b0bf
000007e0: 0000 0000 909f 933f 6fc9 92be 1b42 88bf
000007f0: 7fc0 241c 5633 91bf 0000 0000 03d9 8abf

fc3.bias f8 [64]
-0.054035577923059464 0.05018618253690509 -0.022297631378144698 0.09130337981721157 -0.11488104234781116 0.014389936772639122 -0.03964332792989642 -0.029674258083105087
-0.02485033869743347 0.07857776702176264 0.02731175720691681 0.12264993484903541 -0.06326628476381302 0.11827872403767857 -0.03827656687965276 -0.04908741565373735
0.09750919375480459 -0.043668802002642976 0.1463620555931339 0.08340711146593094 -0.06175457313656807 -0.08511990203984982 -0.12219288734778512 0.02475318614032749
0.16357839928007842 0.10655796316904365 -0.08977721423371657 -0.0798182263970375 0.10910492083319889 -0.1277817966816952 -0.015187300741672516 -0.01701618731021881
-0.04917610064148903 -0.04447825253009796 -0.013303002749863475 -0.08453364670276642 -0.04734661651310725 -0.07643552124500275 -0.046004652976989746 -0.008897334337234497
-0.03355793884628942 -0.11026562709027748 0.007631062602707961 -0.11446000204674192 0.014682166608943335 -0.09136653685465775 -0.06683779624765054 -0.009969625342580155
-0.05186080911191705 -0.02498261780491389 0.08232123027720711 0.02117014230920263 0.05094395566051424 0.08793161527884412 -0.04370939678150741 -0.014942068507799545
0.0456559881567955 0.0250123306276268 0.013900049030780792 -0.06375626973010061 0.08239294552358893 0.11908130146102003 -0.11686460461882665 0.07732603462115095
00000000: 0000 0020 8daa abbf 2f08 6ad9 00b2 a93f
00000010: 4988 30b6 30d5 96bf ce45 5486 a85f b73f
00000020: 0872 d00f d868 bdbf 46d3 a39e 7878 8d3f
00000030: fd50 ed59 214c a4bf 0000 00c0 ed62 9ebf
00000040: 0000 0000 5e72 99bf fe19 8d2b ac1d b43f
00000050: 0000 0000 9df7 9b3f b87b 0873 fc65 bf3f
00000060: 0000 0020 3832 b0bf afef 8db3 8347 be3f
00000070: 410c e775 fc98 a3bf 0684 c159 fc21 a9bf
00000080: 7778 3cce 5cf6 b83f 5ce8 e9d8 c15b a6bf
00000090: 8dec 12e9 fdbb c23f 0000 0020 2b5a b53f
000000a0: 0000 00a0 4b9e afbf 0cf8 7ffb 6aca b5bf
000000b0: a169 f676 0848 bfbf da2c c733 e658 993f
000000c0: 3bb7 9e11 23f0 c43f 807d f0f6 6147 bb3f
000000d0: f24e 0fb7 a3fb b6bf 0000 00a0 f76e b4bf
000000e0: a0ae cfd2 4cee bb3f f8d0 e266 275b c0bf
000000f0: 0000 0000 851a 8fbf 0000 0000 b16c 91bf
00000100: 0000 0020 9c2d a9bf 0000 0080 dac5 a6bf
00000110: ea7c fecd 9a3e 8bbf 0000 0040 ffa3 b5bf
00000120: 7306 00d3 d03d a8bf 0000 0040 4791 b3bf
00000130: 0000 0000 ec8d a7bf 0000 0000 c438 82bf
00000140: de61 bb93 812e a1bf bcc5 393e 5e3a bcbf
00000150: 806c ffc4 bf41 7f3f 52a8 7d2d 404d bdbf
00000160: 5fd2 5b0b af11 8e3f 1552 bd1f cc63 b7bf
00000170: 0237 0525 481c b1bf b8e5 6576 f46a 84bf
00000180: 42d9 28fe 7f8d aabf 6e25 c319 0b95 99bf
00000190: 6c9d ce0f 0113 b53f 5690 7a33 a0ad 953f
000001a0: e047 fb7e 5315 aa3f 0337 e8b3 af82 b63f
000001b0: 3eaf 68fb 1361 a6bf 3acf 9a7c f299 8ebf
000001c0: 0000 00c0 3860 a73f ed69 2b18 d59c 993f
000001d0: 0000 0000 a177 8c3f 5fde 67b5 5452 b0bf
000001e0: 8be6 713e b417 b53f 3817 57b7 1c7c be3f
000001f0: 41d8 e5b6 d6ea bdbf d8c3 d395 a3cb b33f
