src/backend/controller/checkpoints/checkpoint_epoch_64.pth (torch, 420207 bytes, 25 tensors)

fc1.weight f8 [64, 5]
00000000: 508d d264 a8fd c53f 622b e244 6fb1 ddbf
00000010: a45e c2f8 05eb cf3f 33ed b344 f3d8 c7bf
00000020: 0547 779e d853 bb3f 0000 0040 8728 c4bf
00000030: 0000 00a0 b44c d2bf 0000 0060 19c4 dabf
00000040: 0000 00c0 7e27 cebf 0000 0000 7649 ba3f
00000050: bebf fb15 b075 ccbf d7d2 9a5a 968b b43f
00000060: 3302 aa19 6e01 d9bf d637 638d dc04 db3f
00000070: 5803 841a fd24 b23f 0000 0000 e3b3 d23f
00000080: 0000 0040 217d c0bf 0000 0080 2103 d1bf
00000090: 0000 0080 0852 d7bf 0000 0080 03e7 b5bf
000000a0: 0000 00c0 4bff c4bf 0000 0000 a42d 8abf
000000b0: 0000 0040 4265 d93f 0000 0000 98ab 933f
000000c0: 0000 0040 1c0d dabf 0aa1 a43a 0b9b c2bf
000000d0: 16b8 b22e f3af d63f 7f36 d190 a95e d83f
000000e0: c78d 647d a1c8 b93f 9975 0b4f 6682 d6bf
000000f0: d82c 675b 37a3 cbbf fb83 07d3 f4d6 d1bf
00000100: a301 8026 57fb d13f 5ac2 df2e 8f55 d03f
00000110: 2891 c9ee 82d7 d93f 0000 00c0 50ec d73f
00000120: 0000 0080 4469 dabf 0000 0080 1065 b6bf
00000130: 0000 0040 588f d4bf 0000 0000 0002 b63f
00000140: abf4 49fc 2946 c83f 7a58 c572 950d d0bf
00000150: 1ecd 00e0 45db 79bf 4338 b787 4a08 be3f
00000160: 9445 e9a8 7916 d03f 26ae 52a2 9b23 d53f
00000170: dcea e091 5b44 a23f d8f7 0a9b ff84 b63f
00000180: f5ce 7084 ef0a d8bf f48c 8b66 19c9 c13f
00000190: 9379 8083 d577 d3bf f607 d23f 0180 97bf
000001a0: d6af 4764 1a9f d93f 3f61 d85c 37e5 923f
000001b0: b532 a30b 821c c33f 17d4 5d4e d759 d23f
000001c0: e6c8 ff1b b012 ca3f 4875 fd10 ac4f 943f
000001d0: 3047 97f0 2923 d53f d5f4 73a8 90b5 943f
000001e0: 0000 0080 db48 c4bf 0000 0000 8570 ba3f
000001f0: 0000 0080 33b8 d6bf 0000 0080 8c16 d33f
00000200: 0000 0040 0587 c9bf 1ce6 f235 8344 d4bf
00000210: 60d5 d034 de8f cd3f 24a6 93b4 e608 dc3f
00000220: 93b0 fb6c dd6a 72bf 25ae e1bd 5ea3 d23f
00000230: 1e1d 60f6 9366 d6bf 6f4b 273a c42c d03f
00000240: 8b66 0ea1 dfc6 bcbf 9079 0995 624b a03f
00000250: 3995 7913 51e8 b0bf 0000 00a0 ca04 d2bf
00000260: 0000 00c0 9904 d9bf 0000 0040 7efa d1bf
00000270: 0000 00c0 3056 d93f 0000 0000 884c c03f
00000280: afb8 5ae9 870d ca3f 41e0 0be2 aee2 9abf
00000290: bfa7 f33f 7b91 cd3f 9222 6272 1d14 90bf
000002a0: 4867 7485 2415 c23f bd21 0c6b ba2b a2bf
000002b0: f409 53f3 0469 d83f bc53 3f9d 2a76 c43f
000002c0: 4f40 3a55 d5f2 c13f 5884 1de2 e860 d03f
000002d0: 0000 0080 2081 cd3f 0000 00c0 e0de c6bf
000002e0: 0000 0080 694c dbbf 0000 0000 2dd4 a73f
000002f0: 0000 0080 3d23 d2bf 18d1 a40b e5f4 b73f
00000300: 469a 39a1 f1ab ae3f b87d fcdc 3350 be3f
00000310: 2aed 57cd f73e d13f 27d7 4a71 affa c8bf
00000320: 3986 866a b93c e03f cbc6 2c90 259a d8bf
00000330: 8f84 cd91 7624 d2bf 106c 39d4 d992 cf3f
00000340: 4199 6597 7c48 90bf 0000 0080 5fb4 c93f
00000350: 0000 0000 d0d7 cdbf 0000 0000 ede2 aabf
00000360: 0000 0000 f143 c3bf 0000 0000 f327 d0bf
00000370: 0000 0040 1f51 db3f 0000 00e0 408f c9bf
00000380: 0000 0080 82d1 d3bf 0000 0040 af45 dabf
00000390: 0000 00a0 c946 dabf bb90 6ba1 7605 ca3f
000003a0: d6db 1bd7 c814 d53f e36b bcfe 838d a8bf
000003b0: aadd cebb f8ab ddbf 15e4 4a72 5405 c73f
000003c0: 0000 0000 0fed bdbf 0000 00e0 bcb6 d8bf
000003d0: 0000 0080 9a77 d83f 0000 0080 1462 c13f
000003e0: 0000 0020 2546 cfbf 6914 100e b5be cebf
000003f0: a622 991a 48d5 bd3f d267 aee0 0550 d3bf
00000400: 0aa7 88b5 07e4 d03f c5e2 cbb8 f36c d2bf
00000410: 0000 0000 8ede d63f 0000 0080 e575 bdbf
00000420: 0000 0000 775c b53f 0000 00c0 c0b0 dbbf
00000430: 0000 0080 122a b3bf 0000 0000 a62e b0bf
00000440: 0000 0040 dd09 c0bf 0000 0000 b007 afbf
00000450: 0000 0080 bdad b2bf 0000 00c0 7025 d43f
00000460: 644a 4478 a92b ab3f d224 9160 a8c1 cabf
00000470: f939 8675 5bb6 cf3f e4ca 7070 4f2c c33f
00000480: 3c85 75a4 b707 d3bf 0000 0000 d9f1 c1bf
00000490: 0000 0080 8860 bfbf 0000 0080 6809 d63f
000004a0: 0000 0000 28ff 8bbf 0000 0000 9065 c13f
000004b0: 0000 0080 0ee1 c3bf 0000 0080 4070 cb3f
000004c0: 0000 0000 5e63 b8bf 0000 0000 15a0 c83f
000004d0: 0000 0000 8df7 a13f 0000 0080 81d9 c83f
000004e0: 0000 0000 a403 913f 0000 0080 f8bd d4bf
000004f0: 0000 00c0 8968 d9bf 0000 0040 97d0 d1bf
00000500: 94d2 fcc7 91cf af3f eebc f938 af6c c53f
00000510: 24ff f577 96fa ccbf 7f23 d28e e0f2 cc3f
00000520: 55c6 c2cb 65f0 d43f 7259 b484 a67b c23f
00000530: fd2c 5f45 d602 d4bf 1d55 9c2f c909 aa3f
00000540: 18f8 471b 5b05 cc3f a941 cc11 8d85 d83f
00000550: 0000 0000 cb91 d1bf 0000 0000 f4f6 ad3f
00000560: 0000 0000 45a0 c0bf 0000 0000 0079 cb3f
00000570: 0000 0000 7c66 ac3f 0000 0020 3579 d8bf
00000580: 0000 0080 e0ea b4bf 0000 0000 08bf 9f3f
00000590: 0000 0000 5e09 d7bf 0000 0020 1624 d9bf
000005a0: 16ad 560f b064 da3f 4696 61a8 0187 c1bf
000005b0: 3835 3865 3da4 d7bf 33df b109 97d1 a83f
000005c0: 7742 b4ff 56d0 cc3f 2ec4 7bd7 79d2 d53f
000005d0: 781c 2c6f 25cc b63f 31c6 49d5 7703 cf3f
000005e0: cc94 2dad 3e7e d13f cc45 6952 b7ef d83f
000005f0: 32d0 afa5 1c8e d03f c4ba f7dc 6940 c1bf
00000600: 19bf dfde 0e63 d1bf 8c37 dc54 c796 c9bf
00000610: 150f 2725 1c7f bcbf 240c 289f 5bbe d2bf
00000620: 0be4 df68 cb1a d1bf f6ec cb39 37cb e03f
00000630: d4ce 1a87 d34a c1bf b3e2 b67f a227 d53f
00000640: 035e 3960 2d6f dd3f 2ce9 af9c dd1c b9bf
00000650: 21c5 3d2a 6501 d8bf 2511 a4c0 dff5 da3f
00000660: c283 fa84 2ca8 adbf 0000 0000 17fe b03f
00000670: 0000 0000 8544 c43f 0000 0080 2285 c4bf
00000680: 0000 0080 bf61 bdbf 0000 0060 0cff d7bf
00000690: 0000 0000 dcd4 983f 0000 0040 5d41 c0bf
000006a0: 0000 00c0 9d6e cdbf 0000 0000 08a9 c53f
000006b0: 0000 0000 46ba b4bf 251e df90 5457 c13f
000006c0: d325 7c9c f8e8 a0bf c26f 3ab6 5391 dbbf
000006d0: 3220 6c11 d68c cb3f 9b10 11e8 be18 c2bf
000006e0: 2300 25ba 0e33 b9bf 6304 2310 55a4 dd3f
000006f0: 7bf3 915e 6a36 db3f a7bb a77b dcc6 d33f
00000700: ae83 351f 50dc d4bf 9a18 9b34 1106 debf
00000710: b162 1ce6 7907 963f cbbe ab4b 70a6 d1bf
00000720: e9e4 60ef e75e da3f 928f fb6c fc7f d43f
00000730: 65ed e472 ee70 cb3f 2dda c0b2 1786 cfbf
00000740: 2a38 c0fd c251 593f e914 5c7f 9de2 d13f
00000750: b7f9 f7ea a62f c43f b33a 5dfb 1a59 ba3f
00000760: db75 33fb bed2 d53f 8a36 72db 5d97 ba3f
00000770: 1da8 f707 4b81 d83f e8e8 d0bb 286d b1bf
00000780: b6a5 fb28 22cd 9d3f 8496 90ae eedc d13f
00000790: 3750 0b22 2ddc d83f 5942 a6c3 e7fe c73f
000007a0: 6747 74f8 5f38 6f3f 0000 0000 8507 b23f
000007b0: 0000 0000 4f03 b9bf 0000 0000 8cdd 9bbf
000007c0: 0000 0080 ed0c cd3f 0000 0000 6803 89bf
000007d0: 2f8c 00d3 b496 cd3f 27be 2cbc 3b26 d2bf
000007e0: 03ad 776c 30be d1bf 2c34 0f2e 5037 b83f
000007f0: b543 5ec8 3cbe cabf 1365 7a2d 63a0 c33f
0.17180352137539012 -0.46395475127126506 0.2493598427433784 -0.18630829672461288 0.10674814099118286 -0.15748682618141174 -0.2859317362308502 -0.4182189404964447
-0.23558029532432556 0.102683424949646 -0.22234154771240172 0.08025493347197298 -0.3907122851015032 0.42217172438983874 0.07087690255504009 0.29222941398620605
-0.12881866097450256 -0.2658160924911499 -0.36438190937042236 -0.08555623888969421 -0.16404101252555847 -0.012782365083694458 0.3968053460121155 0.01920926570892334
-0.4070501923561096 -0.14535656321937324 0.35448913154948636 0.3807777322989309 0.10071763335559246 -0.3517089626237407 -0.21591846430815198 -0.27874489410720543
0.2809656024910742 0.25522212579293113 0.4037787753971025 0.37379854917526245 -0.41267502307891846 -0.0874796211719513 -0.3212490677833557 0.085968017578125
0.18964123553079068 -0.2508290882882488 -0.006312630604998119 0.11731401265498768 0.25137177939640165 0.3302983365235569 0.035677777821964546 0.08796689543939296
-0.3756674569478798 0.13894956118665613 -0.30418908922174487 -0.022949237365999374 0.4003358821198594 0.018452515641997676 0.14930749481427133 0.28673346188526366
0.20369531027933546 0.019835175072661998 0.3302712296982575 0.0202238657775425 -0.1584734320640564 0.10327941179275513 -0.35499274730682373 0.29825127124786377
-0.19943299889564514 -0.3166816737026197 0.23095300272840813 0.4380432856984007 -0.004496445602608773 0.2912213186561721 -0.35001086292364103 0.2527323310761664
-0.11240956956899077 0.03182514256762936 -0.06604487157308804 -0.28154245018959045 -0.39090579748153687 -0.2809138894081116 0.3958856463432312 0.1273355484008789
0.2035379304338156 -0.026255352541710634 0.23100224135060718 -0.01570173273697379 0.14127022281973667 -0.035489869658764196 0.3814098716940457 0.15985615423292454
0.14022318517209206 0.25591489869663553 0.2305031418800354 -0.17867669463157654 -0.4265388250350952 0.046540647745132446 -0.28340089321136475 0.09358054670594063
0.05990557759360064 0.11841129441426446 0.26946826031754034 -0.19515030891278082 0.5074126320434466 -0.3844083698232736 -0.28347553480677673 0.24666903364672566
-0.015901514759570693 0.2008170485496521 -0.23314857482910156 -0.052512556314468384 -0.15051090717315674 -0.2524383068084717 0.4268262982368469 -0.1996842473745346
-0.30966246128082275 -0.41050320863723755 -0.41057053208351135 0.2032917297539195 0.32939358717652334 -0.04795467838831493 -0.4636213144362623 0.17985015469255985
-0.11689847707748413 -0.3861534297466278 0.3823000192642212 0.1358056664466858 -0.24432815611362457 -0.24019492327366557 0.11653566979760885 -0.3017592138436359
0.2639178536215786 -0.2878999046948077 0.3573336601257324 -0.11508020758628845 0.08344215154647827 -0.4326631426811218 -0.07486072182655334 -0.06321179866790771
-0.1253010332584381 -0.060605525970458984 -0.07296356558799744 0.3147851824760437 0.053067489558220854 -0.2090349647062682 0.24775260199062624 0.14978974333060713
-0.2973460298581647 -0.14019310474395752 -0.12256672978401184 0.3443242311477661 -0.013670265674591064 0.1359119415283203 -0.1553056836128235 0.21436315774917603
-0.09526622295379639 0.19238531589508057 0.035091787576675415 0.19413775205612183 0.016615450382232666 -0.32409489154815674 -0.39700549840927124 -0.2783563733100891
0.062130504286334404 0.16737928659447426 -0.2263973317858411 0.22616202329325216 0.32717270754355826 0.144398512646784 -0.3126731564959327 0.05085591036019308
0.21891344863973994 0.38315130937646785 -0.2745234966278076 0.0585247278213501 -0.129891037940979 0.214630126953125 0.055469393730163574 -0.38239791989326477
-0.08170893788337708 0.031002163887023926 -0.35994672775268555 -0.3928275406360626 0.41239549158008637 -0.13693257066477055 -0.36939940342638833 0.04847404473633645
0.22510802732041998 0.3409714321451841 0.08905252422492704 0.2422933379598802 0.2733303729240333 0.38963110969515635 0.2586738222155446 -0.13477824487150347
-0.2716710258964539 -0.1999138988834911 -0.1113145437912489 -0.2928685240041793 -0.26726041070611534 0.5248066071357289 -0.13509601685438233 0.33054411384686516
0.4599107207954775 -0.09809670520181574 -0.37508515477300547 0.42125696003519614 -0.057923690064178426 0.06637710332870483 0.15834105014801025 -0.1603129506111145
-0.11477276682853699 -0.3749419152736664 0.024249494075775146 -0.1269947588443756 -0.22993823885917664 0.1692209243774414 -0.08096730709075928 0.13547761033827146
-0.033027428724448214 -0.43074505611161495 0.21523547983838537 -0.1413801797044741 -0.09843532604736586 0.4631550462327764 0.42519625888217377 0.3090125281877882
-0.3259468369270121 -0.46912031304635493 0.02151289431557996 -0.2757836092923582 0.41204260231786677 0.3203116478236946 0.2143838940627162 -0.246279680520915
0.001545372410876942 0.2794564956423771 0.15770422432974637 0.10292214047260977 0.34098791629170727 0.10387217147418873 0.38289142396991044 -0.06807188592293623
0.029102834464458126 0.27910964057296206 0.3884384949171848 0.18746659329601092 0.003811061327390886 0.07042723894119263 -0.09770673513412476 -0.027212321758270264
0.2269570231437683 -0.012213528156280518 0.23116169264639683 -0.2835835778850843 -0.27723322479751306 0.09459401249405691 -0.2089305857048466 0.15333213539705834

fc1.bias f8 [64]
00000000: b39c 576d 437a d0bf 0000 0080 bedb c43f
00000010: 3c28 53c0 c69c d13f 0000 0000 fe83 b03f
00000020: 0000 0000 e5a4 d8bf cb27 10fb fb97 c4bf
00000030: 54ed 93f9 6c40 cabf 0000 0060 4b8a d1bf
00000040: 85c1 651c 4f5f dabf 0399 7117 2ee9 a0bf
00000050: 4c85 70be 6954 c53f 7aec 0450 1acb b3bf
00000060: 0000 0040 0d1b cabf 6581 9ae9 dd17 d0bf
00000070: 2ee1 4234 2b21 b7bf 0000 0080 a336 cb3f
00000080: 3d1e ef81 ab85 c5bf 2eeb 372d d334 a5bf
00000090: 0000 0040 2f60 ccbf 57f3 2d28 a436 cebf
000000a0: da0f 1ce1 763c ae3f 0000 0000 4a57 ac3f
000000b0: 0000 0000 983d a63f 1dfb 5004 90c3 b4bf
000000c0: 0000 00e0 ae6e d0bf 24d0 f1d5 1bbb d03f
000000d0: 0000 00c0 8ccf d7bf 0000 0060 45f3 cfbf
000000e0: 9ad6 9504 3344 d0bf 0000 0080 6bb3 d5bf
000000f0: 0000 00a0 0efb d4bf 0000 00c0 2002 c4bf
00000100: 691c 4aa6 2c38 c2bf f5c0 a480 fcc6 dcbf
00000110: 0000 0080 bd3c c1bf 0000 0000 6003 73bf
00000120: d874 60c3 7b98 a8bf 588c 12ee 80cf d03f
00000130: be19 945e 0c92 bcbf b3c4 1670 1fd4 bf3f
00000140: 4339 0a64 acee a2bf 0000 00e0 3c78 cabf
00000150: 0000 0000 7f04 a03f 8107 e3f0 584d d43f
00000160: 671a cfe9 afbd d23f 5cdd 98ec ec95 b43f
00000170: 26ba 95ec 9a1e dfbf 5048 a70b 58db 90bf
00000180: 15e0 d09d 01de bebf 0000 00e0 1b69 dcbf
00000190: beb8 70f6 4280 e03f 15c8 f9a8 f3b9 db3f
000001a0: 2084 c2f7 9099 b33f 0000 0020 b4b5 d0bf
000001b0: 0000 00e0 eb9e d4bf 0000 0000 d682 ab3f
000001c0: 5400 ce37 6a5c d1bf bf89 75b0 0bff b13f
000001d0: 0000 0080 1a7f d2bf bd5a 1080 9e09 dabf
000001e0: 0000 0000 c9c8 d0bf 4953 a3c6 2475 cabf
000001f0: 5271 8fe3 9bd2 cebf 633d 1314 f984 d93f
-0.2574623649401914 0.16295605897903442 0.27519387037012044 0.06451404094696045 -0.38506436347961426 -0.16088819273892194 -0.20509111582200978 -0.2740658223628998
-0.41206720135871705 -0.03302902256182174 0.16663858221822136 -0.07731785253138126 -0.20395055413246155 -0.2514567166599789 -0.09034986520680796 0.21260493993759155
-0.16814178318439757 -0.04141864706976715 -0.22168532013893127 -0.23604251825227138 0.05905505655212524 0.05535346269607544 0.04343867301940918 -0.08110904794100944
-0.2567555606365204 0.2614202107718049 -0.37204283475875854 -0.24961154162883759 -0.254162554242933 -0.3390759229660034 -0.32782331109046936 -0.1563149392604828
-0.142339307018321 -0.44964516222809375 -0.13466614484786987 -0.004641890525817871 -0.048038356399254745 0.2626650166441258 -0.11160352047963948 0.12433048712297783
-0.03697718354406956 -0.2067943662405014 0.03128430247306824 0.31722091220955667 0.29282758553418947 0.08041268135354102 -0.4862429914855134 -0.016461730681676834
-0.12057504752090183 -0.44391533732414246 0.5156569302833061 0.4332245969918643 0.07656198548149051 -0.26109030842781067 -0.3221997916698456 0.05373257398605347
-0.27126555871655467 0.07029793794712356 -0.2890077829360962 -0.4068371058105347 -0.2622549533843994 -0.20669994067307076 -0.24080227481216326 0.39874102554764174

fc2.weight f8 [128, 64]
00000000: ba4c 1659 a678 c53f 0000 0080 7bd3 a83f
00000010: af16 93d7 026a cfbf 0000 0080 ed40 b53f
00000020: 0000 00c0 a7f9 b3bf 9820 1dbc 1e05 843f
00000030: 693d 4fc2 de13 b7bf 0000 00c0 2e83 b53f
00000040: 65b4 ddae efca 84bf 3977 843d 9d8a b7bf
00000050: 42c9 e70b a6a1 cd3f 98ef 38ec 8d28 443f
00000060: 0000 0000 e062 a73f 0d68 3e83 9c48 c53f
00000070: 3a6d 24b2 b6ba ae3f 0000 0080 dd6e bdbf
00000080: d1dd 3724 1bf5 b33f 7e1c 7ddc 5f90 a5bf
00000090: 0000 0080 7eda b9bf 5fb2 1730 9916 b43f
000000a0: 157c 9553 75d9 d7bf 0000 0000 62e4 bf3f
000000b0: 0000 0000 176f b1bf 5d5b 8172 076c b1bf
000000c0: 0000 0080 db41 ab3f 58e2 0eca 2e74 b1bf
000000d0: 0000 0000 a708 bebf 0000 0080 2d93 bc3f
000000e0: 2e76 33d3 f48e a4bf 0000 0040 67ee be3f
000000f0: 0000 0000 ab2e 9abf 0000 0080 089e a03f
00000100: dce0 f748 0d86 b73f 5b2e 9311 4c12 b33f
00000110: 0000 0000 7fd0 af3f 0000 0040 d75a b43f
00000120: f6b6 e391 189a abbf ea2b 6e5e 355a c23f
00000130: 06ed 6002 48df b1bf 0ae2 daa0 94e4 b93f
00000140: 48b9 f18e 65b3 c7bf 0000 0040 a9bc b8bf
00000150: 0000 0080 676f acbf 7e82 811c e540 c1bf
00000160: 3340 eb61 8842 c23f 89a1 142c afba cb3f
00000170: 891b 7623 4ec5 ba3f 5cfe e24f 3e7c c33f
00000180: 32d1 6dc8 50e0 a0bf 0000 0040 1085 bebf
00000190: bf85 74cf 4a8c c5bf e2b9 977b 2e3f b83f
000001a0: f163 2a07 43fe c13f 0000 0000 395c a3bf
000001b0: 0000 0080 c2a6 a63f 0000 0000 83f8 b2bf
000001c0: 3314 b71f 0618 a3bf 89f1 1ec2 f698 d23f
000001d0: 0000 0000 bb5f afbf 8587 1ceb 2e14 cc3f
000001e0: 0000 0000 319b 953f d16d 73f8 60b0 a2bf
000001f0: 5ba5 dad3 ac72 c03f 27e9 933c fbff bdbf
00000200: 0017 7178 a0d1 c23f 0000 0000 0e58 a83f
00000210: 2dd0 35bb 3c05 b4bf 0000 0080 b274 bdbf
00000220: 0000 0000 153d b93f bd15 70c3 417a c53f
00000230: 49b5 174b 3e61 b43f 0000 0000 5e28 a0bf
00000240: 4e1d f057 c281 bfbf abc4 ca0c c826 c33f
00000250: 92bf a072 ace7 c03f 4c62 7a38 590d c33f
00000260: 0000 0000 70ff b1bf e133 dce4 d733 bb3f
00000270: 30a4 9a99 5673 64bf 0000 0000 6918 adbf
00000280: a4a9 67e2 7602 c03f 2d0f a989 6589 c03f
00000290: 0000 0000 62da 913f e500 e98a a05c c33f
000002a0: 0a39 baf0 1950 d7bf 0000 0000 627b bf3f
000002b0: 0000 00c0 10a0 bebf c903 fde5 768d ae3f
000002c0: 0000 0080 eafd a83f 9067 78d9 5dd6 643f
000002d0: 0000 0040 e231 b3bf 0000 0000 cc52 893f
000002e0: 3971 260b 4b03 c0bf 0000 0040 2580 babf
000002f0: 0000 0000 205a bb3f 0000 00c0 8aa4 b53f
00000300: 3092 515c 950a b13f 776e 6d6e 47ab 813f
00000310: 0000 0080 14e5 b0bf 0000 00c0 d7cb b13f
00000320: 2ab5 e413 db75 c9bf eaaf 14df a351 76bf
00000330: 03a5 32a4 7078 abbf fd4a dc4b 097d b13f
00000340: 5d0f 256a d97c cabf 0000 0000 82a6 98bf
00000350: 0000 0000 7e0b ab3f 1f7b ea5b 00dc bbbf
00000360: bded b6c0 f6b5 c23f 6217 701f 0d78 c43f
00000370: 51fc cd03 9586 b2bf 7538 7b93 4311 953f
00000380: 5a97 e7a7 e5ae ba3f 0000 0000 2ba9 95bf
00000390: ae75 c0dd 16ae d3bf bf27 081f 167c 86bf
000003a0: 6056 4b52 b0da b93f 0000 0000 f07a 51bf
000003b0: 0000 0000 57d5 a43f 0000 0080 8822 a3bf
000003c0: 4c17 05d9 bdb9 b23f 99d8 ed51 dfa4 d93f
000003d0: 0000 0000 1962 993f 5aca bc68 f776 a53f
000003e0: 0000 0040 ef62 b33f 8f24 9d56 e22a a2bf
000003f0: 3673 4bc5 1204 96bf 6f9c 2a97 b68f c5bf
00000400: 0000 0080 2142 aa3f 0000 00c0 6b5c bd3f
00000410: 0000 0000 19cf ac3f 0000 0000 917f 95bf
00000420: 0000 0000 1f42 a7bf 0000 0000 eb0a 993f
00000430: 0000 0000 4844 983f 0000 0000 c204 9fbf
00000440: 0000 00c0 63b3 bd3f 0000 0080 a9a7 bd3f
00000450: 0000 0000 bc86 8d3f 0000 0080 79c3 a2bf
00000460: 0000 00c0 424a bf3f 0000 0000 cbb0 b73f
00000470: 0000 0000 da55 853f 0000 0040 17bc bd3f
00000480: 0000 0040 e9e5 b7bf 0000 0000 28e9 673f
00000490: 0000 0080 8a3b ae3f 0000 0000 f874 823f
000004a0: 0000 0040 0864 bbbf 0000 0080 5d55 aa3f
000004b0: 0000 0000 bcd2 853f 0000 0000 71ea a43f
000004c0: 0000 0000 32e7 abbf 0000 0000 edc6 a4bf
000004d0: 0000 0040 cdc8 b3bf 0000 0080 2bce a1bf
000004e0: 0000 0000 f8a5 7b3f 0000 0000 3d61 a63f
000004f0: 0000 0000 d464 9bbf 0000 0000 242b 79bf
00000500: 0000 0000 08be 813f 0000 0000 f902 95bf
00000510: 0000 0000 0680 b43f 0000 0000 ae40 8fbf
00000520: 0000 00c0 06a1 b43f 0000 0080 c820 afbf
00000530: 0000 0080 5558 b83f 0000 0000 a326 a93f
00000540: 0000 0000 ee98 973f 0000 0000 36ff 8b3f
00000550: 0000 0000 59cc 943f 0000 0080 0316 bc3f
00000560: 0000 0000 5175 bb3f 0000 0080 b485 bd3f
00000570: 0000 0000 81ae aabf 0000 0080 1c41 ba3f
00000580: 0000 0080 0ba5 b9bf 0000 0080 847b bebf
00000590: 0000 00c0 a774 ba3f 0000 0080 bffc b5bf
000005a0: 0000 0080 ccd1 a6bf 0000 0000 1457 bcbf
000005b0: 0000 0080 a6f6 b63f 0000 0000 5724 9ebf
000005c0: 0000 0080 75e0 a3bf 0000 0000 b441 813f
000005d0: 0000 00c0 819c b8bf 0000 00c0 2ed2 b23f
000005e0: 0000 00c0 38c3 b33f 0000 00c0 c30a b2bf
000005f0: 0000 0000 e1dd 923f 0000 0000 7a72 afbf
00000600: 0000 0080 eeee babf 0000 0000 a614 903f
00000610: 0000 0000 6413 b4bf 0000 0000 f8a8 9b3f
00000620: 0000 0080 6f2c a1bf 0000 0000 a6ec aebf
00000630: 0000 0000 32aa b13f 0000 0000 835e b6bf
00000640: 0000 0000 9da3 93bf 0000 00c0 0687 babf
00000650: 0000 0000 be9c 913f 0000 0000 a3d5 bb3f
00000660: 0000 0000 b8fd 793f 0000 0000 ec8d bbbf
00000670: 0000 00c0 3148 b4bf 0000 0080 6577 b2bf
00000680: 0000 0040 d13c b23f 0000 0080 40b7 b33f
00000690: 0000 0000 7842 aebf 0000 0000 578d a23f
000006a0: 0000 0000 589f 613f 0000 0000 34bb 733f
000006b0: 0000 0080 04cd b3bf 0000 0040 0071 bc3f
000006c0: 0000 0000 1463 973f 0000 00c0 43de b33f
000006d0: 0000 0000 2393 a6bf 0000 0080 fdc4 a73f
000006e0: 0000 0080 b4da b4bf 0000 0080 1b68 b83f
000006f0: 0000 0040 f375 b23f 0000 0000 1ecb 82bf
00000700: 0000 00c0 5720 b3bf 0000 0040 1ab3 b7bf
00000710: 0000 0000 b48b 703f 0000 0080 b6b8 aabf
00000720: 0000 0000 ab94 913f 0000 0040 9ebb b9bf
00000730: 0000 0040 1196 bb3f 0000 0000 404b bbbf
00000740: 0000 0000 1010 6c3f 0000 00c0 cce3 b0bf
00000750: 0000 0080 7286 a9bf 0000 0080 9af3 b43f
00000760: 0000 0080 f5fb b4bf 0000 0000 6467 b6bf
00000770: 0000 00c0 3c4e b1bf 0000 0040 f0dc b8bf
00000780: 0000 0000 204c 82bf 0000 0000 0cd3 9fbf
00000790: 0000 0000 4839 9f3f 0000 0080 f250 ae3f
000007a0: 0000 0000 60b7 af3f 0000 0040 44be ba3f
000007b0: 0000 0000 e0ef 5b3f 0000 0000 871d a73f
000007c0: 0000 0080 3634 b53f 0000 0080 d411 a03f
000007d0: 0000 0000 c288 99bf 0000 0000 97b2 98bf
000007e0: 0000 0000 0c8e 7cbf 0000 0080 a5e5 a23f
000007f0: 0000 0000 f98c b9bf 0000 0000 0336 babf
0.16774443960148294 0.04848848283290863 -0.2454227020845585 0.08302196860313416 -0.07802818715572357 0.009775390735413489 -0.09014694446454076 0.08403293788433075
-0.010152695201862192 -0.09195883514300086 0.23149562436408117 0.0006151860220095949 0.045676231384277344 0.16627842338931523 0.060018262143979276 -0.11497291922569275
0.07795877107843487 -0.042117114701391664 -0.10099020600318909 0.07846982406744861 -0.37264760172360073 0.12457859516143799 -0.06810134649276733 -0.06805464311160621
0.05323682725429535 -0.06817905839023675 -0.11731952428817749 0.11162075400352478 -0.04015317037713505 0.12082524597644806 -0.025568649172782898 0.032455697655677795
0.09188921958400748 0.07449794224810928 0.06213757395744324 0.0795111209154129 -0.05391003399732412 0.14337794409615806 -0.06981325204917618 0.10114411284565264
-0.18516225318621538 -0.09662874042987823 -0.055537447333335876 -0.1347929372014 0.14265541821669245 0.2166346516835456 0.10457313886409571 0.15222910786359278
-0.03296139189379445 -0.1192178875207901 -0.16834387902876632 0.09471407430076043 0.1405719552028866 -0.0378129780292511 0.04424102604389191 -0.07410448789596558
-0.03729266297481395 0.29058617550961025 -0.06127724051475525 0.21936594467211648 0.021099820733070374 -0.03650191338394005 0.12849960655629897 -0.11718721608113879
0.14702230339951683 0.04754680395126343 -0.0782049138122722 -0.11506190896034241 0.09858828783035278 0.1677934841429031 0.07960881551089928 -0.03155797719955444
-0.12307371756479776 0.14962101578342887 0.13207011792246398 0.14884486444204226 -0.07030391693115234 0.10625981652647411 -0.00249640382829288 -0.05682685971260071
0.1250752072804292 0.12919301244448303 0.017434626817703247 0.15126425535891666 -0.3642639971593701 0.12297642230987549 -0.11962990462779999 0.0596730380771145
0.048812225461006165 0.0025436242101592524 -0.07497991621494293 0.012364953756332397 -0.12510049862329156 -0.10351784527301788 0.10684394836425781 0.08454196155071259
0.06656774047730418 0.008627470071295591 -0.0659954845905304 0.06951664388179779 -0.1989091727386179 -0.005448951838200581 -0.05365325931900069 0.068314152737269
-0.20693509753084074 -0.02407267689704895 0.0528220534324646 -0.10882570499459775 0.14617809686556696 0.15991367373515702 -0.07236605971228129 0.020573669315858873
0.10423121785387704 -0.02115313708782196 -0.3075005689186935 -0.010978863546387772 0.10099317559373722 -0.0010669082403182983 0.04069015383720398 -0.03737284243106842
0.07314669178330496 0.4006880092705472 0.024788275361061096 0.04192326692136268 0.07572837173938751 -0.03548342997835007 -0.021499913494028543 -0.1684482801549367
0.05128578841686249 0.11469148099422455 0.05626752972602844 -0.020994439721107483 -0.04542633891105652 0.024455711245536804 0.023697972297668457 -0.030291587114334106
0.11601851880550385 0.11583957076072693 0.014417141675949097 -0.036647602915763855 0.12222687900066376 0.0925413966178894 0.010417655110359192 0.11615128815174103
-0.09335191547870636 0.0029187947511672974 0.059048011898994446 0.009012162685394287 -0.1069951206445694 0.0514325350522995 0.010655850172042847 0.04085114598274231
-0.054498255252838135 -0.040580183267593384 -0.07728274166584015 -0.034776076674461365 0.00675007700920105 0.0437106192111969 -0.026751816272735596 -0.006144657731056213
0.00866323709487915 -0.020519152283668518 0.08007848262786865 -0.015260085463523865 0.08058206737041473 -0.06079699099063873 0.0950978696346283 0.049122899770736694
0.023044317960739136 0.013670369982719421 0.020310774445533752 0.10971090197563171 0.1072588562965393 0.11532142758369446 -0.05211260914802551 0.1025560200214386
-0.10017463564872742 -0.11907222867012024 0.10334251821041107 -0.08588787913322449 -0.044569388031959534 -0.11070370674133301 0.0897010862827301 -0.029435500502586365
-0.038821861147880554 0.008426100015640259 -0.0961381047964096 0.07351963222026825 0.0771975964307785 -0.07047675549983978 0.01842452585697174 -0.0614202618598938
-0.10520830750465393 0.01570376753807068 -0.07842087745666504 0.027011752128601074 -0.03354214131832123 -0.06039923429489136 0.06900322437286377 -0.08737963438034058
-0.01917882263660431 -0.10362283885478973 0.01719948649406433 0.10872858762741089 0.006345480680465698 -0.10763430595397949 -0.07922659814357758 -0.0721343457698822
0.07124049961566925 0.07701495289802551 -0.05910086631774902 0.03623458743095398 0.002151176333427429 0.004817202687263489 -0.07734706997871399 0.1110992580652237
0.022838890552520752 0.07761023938655853 -0.04409131407737732 0.04642479121685028 -0.08146217465400696 0.09533855319023132 0.07211227715015411 -0.009176477789878845
-0.07471226155757904 -0.09257663786411285 0.004039481282234192 -0.052190497517585754 0.017168685793876648 -0.1005190759897232 0.10775859653949738 -0.10661697387695312
0.0034256279468536377 -0.06597594916820526 -0.04985387623310089 0.0818420946598053 -0.08196958899497986 -0.08751511573791504 -0.0676000565290451 -0.09712125360965729
-0.008934259414672852 -0.0310785174369812 0.030491948127746582 0.059211328625679016 0.06194591522216797 0.10446573793888092 0.0017051398754119873 0.04514715075492859
0.08282795548439026 0.031386032700538635 -0.024935752153396606 -0.02411876618862152 -0.006971403956413269 0.036908313632011414 -0.09980732202529907 -0.10238665342330933

fc2.bias f8 [128]
00000000: 7fab fd59 64f4 92bf 136e c58a 8e2d ac3f
00000010: 0000 0080 186d b8bf 0000 0000 0a1b 8b3f
00000020: 1d3e 0742 0f6a 72bf 2fd6 ba95 47cd a13f
00000030: 0000 0040 d8fe b0bf 0000 0080 82a7 a6bf
00000040: 0000 0040 e69e b2bf d3b5 8c12 bc5a a9bf
00000050: 0000 0000 32fb 8ebf c4a1 ac13 4479 aabf
00000060: 2108 1109 464b ab3f b0f1 595c 10b6 c2bf
00000070: c320 cc87 d2e4 a63f 4278 1b97 d74f b9bf
00000080: f713 762a ee35 c03f 7b60 12cd 2784 c5bf
00000090: 12a9 fe2d a01d a63f 0000 00c0 7926 bcbf
000000a0: 0000 0000 6424 a8bf 5a65 5a56 bfdd b73f
000000b0: 6706 d352 b213 97bf 0000 0000 0e99 a83f
000000c0: a33d 7f9f 6a45 c33f 0000 0080 5112 a1bf
000000d0: 6988 fb40 e3fd b1bf 41fe 0f46 e141 86bf
000000e0: 7953 b3b1 7641 b33f 6621 6e1b f5dc c1bf
000000f0: cd05 aa56 949b a1bf 8d1b c5f5 14e7 953f
00000100: 0000 0000 bd99 adbf 3fdd 412b ced9 9fbf
00000110: 0279 32df f1db aa3f de34 4147 df10 74bf
00000120: 66c4 501e dec4 acbf 0000 0080 adfc b2bf
00000130: 0000 0080 628a a1bf 0000 0000 64f7 a2bf
00000140: c34f 1c95 c37c bfbf 63c2 ed7c c42e c4bf
00000150: 28e8 1a7b 57df c03f 0000 0000 f7c7 a03f
00000160: 0000 00c0 8e3e b8bf ef84 d689 3414 9b3f
00000170: f9ba cfa3 68fa c4bf 5a2d 12ca f566 94bf
00000180: b34c 0ca3 db8d b7bf ad7f 84fa 9a96 c33f
00000190: 0000 00c0 ffcf bdbf 0000 0000 b75f 94bf
000001a0: d3eb eb6d 1c99 9d3f 2acf 7b36 c999 a2bf
000001b0: 1862 9964 0634 a6bf 0000 0000 fca6 853f
000001c0: 6eaf 2928 0dd2 a4bf 0000 0080 86fe a7bf
000001d0: 0000 0000 d6c9 93bf 6ec8 c5df b354 b2bf
000001e0: 025c a11c be49 b0bf 0000 0080 0a11 b2bf
000001f0: 97fa 5af3 6936 babf 0000 0000 a7b3 aebf
00000200: 0000 0000 7d20 a6bf 2316 5e2c dc0f c23f
00000210: f859 2bdf 74a3 98bf 5c21 f5eb f8cf c23f
00000220: cf6a a3a2 dab7 aa3f 3b75 fd88 f4f9 a83f
00000230: 7af1 84cf 67ab b93f 755b 7d08 99fa b7bf
00000240: 0000 0000 b53b adbf bee3 8a50 75f1 93bf
00000250: fcd8 73f1 1e78 b93f 977c 68b3 8fd5 af3f
00000260: 6a10 5796 c70d b83f 0000 0080 ffb8 a8bf
00000270: d237 9349 c4ea c03f 0000 0000 9012 50bf
00000280: 0000 0000 20d5 61bf 0000 0000 d235 a43f
00000290: b00b c645 35dc b5bf 3a9d 4f56 a3f4 c1bf
000002a0: 0000 00c0 68f8 bbbf ee5d 28e4 1eea 923f
000002b0: 68f1 f370 6834 babf 473b f5a2 3205 a73f
000002c0: 097e 39a3 0f9f 953f 0000 00c0 4f90 bc3f
000002d0: 99d1 2ad2 71dc c1bf 218e 3af8 0f1a c6bf
000002e0: 0000 0000 4e8a 8a3f d38e d8e9 bbd4 aabf
000002f0: f05d bf82 a11e ae3f fdad a868 f48e b1bf
00000300: 97a8 80a7 3452 bb3f 0000 0000 9da1 b7bf
00000310: 3d4e 71a0 0b23 b9bf 8705 9ed7 37d0 b5bf
00000320: d79b af69 5711 553f 1c82 a261 1ae4 a8bf
00000330: 9440 b617 4e8b a03f 3b6e 0c4f f500 973f
00000340: 5036 07c7 15e8 873f d8eb c9d7 299d c03f
00000350: 83db 7a61 3034 8ebf 4571 4ad5 e432 c6bf
00000360: 0000 0000 4afb 893f b741 127f 849e b23f
00000370: b977 3a07 c588 973f 0696 7f63 41f4 c13f
00000380: f752 14e4 c8f3 a3bf 0000 0000 374a afbf
00000390: e7ee f4c1 9b55 b4bf 6a94 5c8c b95b 90bf
000003a0: c4fe 492d 0079 b1bf 46f2 fe8d 85dd a83f
000003b0: 8089 cdc9 cb59 8ebf 339a 29f8 146d bdbf
000003c0: 80e2 32f4 4017 bc3f 1b5a 0b9b 1b76 c3bf
000003d0: d59f 2a84 5d89 b83f 0000 0000 6295 b73f
000003e0: 4527 7142 55d3 b63f 02d0 cafd 3562 be3f
000003f0: 8d5f 2557 0284 b03f 0000 0000 bdfe 98bf
-0.018510406487091565 0.055035070838780474 -0.0954146683216095 0.013235166668891907 -0.00449567756773164 0.0347692842746422 -0.06638862192630768 -0.044246748089790344
-0.07273711264133453 -0.04952037550388479 -0.015127554535865784 -0.051706435586598626 0.05330866680789393 -0.1461811495718286 0.04471452624972152 -0.098874544516975
0.12664582322409476 -0.16809556496878372 0.04319477616748392 -0.1099620908498764 -0.04715263843536377 0.09322734697561455 -0.022536073975749107 0.04804271459579468
0.15055592334691167 -0.0333428829908371 -0.0702802690171055 -0.010867843580853466 0.07521764601126603 -0.13955558623662084 -0.03439010198509216 0.02138931989727726
-0.057813555002212524 -0.031104298963751772 0.05245929574560827 -0.004898903065691599 -0.056189480972883385 -0.07416805624961853 -0.03425891697406769 -0.03704369068145752
-0.12299749746699633 -0.15767723178898327 0.13181584845534755 0.03277561068534851 -0.09470455348491669 0.02644426432892016 -0.16389186857801244 -0.019924011667666754
-0.09200833063759965 0.15303361160567644 -0.1164550632238388 -0.01989637315273285 0.02890438481243136 -0.03632954397281048 -0.0433656690408421 0.0105724036693573
-0.04066506495732268 -0.046863749623298645 -0.01932463049888611 -0.07160495961378086 -0.06362522315008337 -0.07057252526283264 -0.10239278975766762 -0.059964388608932495
-0.04321661591529846 0.1411090103758151 -0.02406103717916072 0.14697181245197555 0.05218394503909495 0.04878200695268694 0.1002716905249538 -0.09366756875293254
-0.05709615349769592 -0.01947577766506802 0.09948914904439116 0.06217621865311534 0.0939602605859037 -0.048286423087120056 0.132164512563064 -0.0009809881448745728
-0.002176821231842041 0.039473116397857666 -0.08539135888535898 -0.1402782603683848 -0.10925917327404022 0.018471224475517127 -0.10236218221320359 0.04496153105957617
0.021114582383573253 0.11157701909542084 -0.1395399357039764 -0.17267036076110379 0.012959107756614685 -0.05240428189816062 0.05882744523085737 -0.06858756594800038
0.10672310914438508 -0.09230977296829224 -0.09819100062423387 -0.08520840658277083 0.0012858728066420433 -0.04861528817969349 0.032312813181421124 0.022464592885724093
0.011673135887487224 0.129796247830966 -0.014747980093813734 -0.17342815794553182 0.01268632709980011 0.07273128607108147 0.022982672277627823 0.14026658399886588
-0.03896930488750699 -0.06111308932304382 -0.07943128094933237 -0.01597490233611546 -0.06825257402123969 0.04856507643078038 -0.014819709869418274 -0.11494570788054474
0.1097298237026596 -0.15204186506771653 0.09584602810593819 0.09212315082550049 0.0891621863567283 0.11868607946490786 0.06451429965579632 -0.024409249424934387

fc3.weight f8 [64, 128]
00000000: 467c 7a13 ecbd a13f 642a 87ad dcd8 b5bf
00000010: 0000 0020 80e8 b03f 0000 0000 e649 923f
00000020: 56a1 7d7b 6738 a9bf ec1b e79e 0d74 9f3f
00000030: 0000 0000 1476 633f 0000 0080 59fc b0bf
00000040: 0000 00c0 5905 aa3f 0000 0000 43c6 823f
00000050: 0000 0080 98fa b3bf 0000 00c0 18f8 ad3f
00000060: 887d 6893 195c b3bf 0000 0020 95b3 adbf
00000070: 52ff 60a8 ebea a6bf 0000 0000 9e6e 993f
00000080: c908 df61 a5c1 b4bf 0000 0000 48c5 813f
00000090: 0000 0000 229e 99bf 0000 0020 4161 b6bf
000000a0: 0000 00c0 e6a3 b4bf 3b9d f24f e1de bbbf
000000b0: 0000 0080 5dc9 9ebf 0000 0000 708b 693f
000000c0: 9086 9267 ef12 adbf 0000 00e0 279a b0bf
000000d0: 0000 0000 05ff 9d3f 0000 00c0 ddc7 ae3f
000000e0: 302f cebc 8978 bebf 0000 0040 1b8d a43f
000000f0: 0000 00a0 fd4b b03f 0000 0000 c41f 8e3f
00000100: 0000 00a0 15b4 a0bf 0000 0000 cd8a 813f
00000110: 0000 0000 24a8 8dbf 0000 0060 bd02 b1bf
00000120: 0000 0080 57d6 97bf 0000 00a0 c571 a3bf
00000130: 0000 0080 ce6c 9abf 0000 0000 d29f 73bf
00000140: 0000 0080 4c10 913f 0000 0040 3475 a43f
00000150: 6a3b 2685 c67d a13f 0000 0040 b220 a53f
00000160: 0000 0000 1b85 8f3f 0000 0000 2e58 85bf
00000170: 0000 00c0 671e a4bf 0000 0060 f8b1 b0bf
00000180: 0000 00c0 c3d7 9fbf f2b7 542a f858 5fbf
00000190: 0000 00c0 06c3 ab3f 0000 0080 b5e6 9bbf
000001a0: 0b07 68a4 aba9 943f 7691 8a8a 8717 a7bf
000001b0: 0000 0020 624c b53f 0000 0000 80ae a03f
000001c0: 0000 0040 bb82 af3f 0000 0000 8536 96bf
000001d0: 0000 00c0 73a4 b4bf 0000 0000 fda3 a6bf
000001e0: 0000 0000 c2f9 813f 0000 0040 34b4 a23f
000001f0: 0000 0040 8d66 a6bf 0000 0040 ea4d a2bf
00000200: 0000 0040 cd82 a43f 10c2 f388 c7ae afbf
00000210: 0000 0000 47e4 98bf 0ae6 0d2a f978 b6bf
00000220: 8ac7 10cd ab55 b4bf 069c 77bf 40d9 babf
00000230: 2742 11d9 803c a03f 0000 00c0 465a a73f
00000240: 0000 0060 78d9 b23f a0ce 6191 a9c7 b0bf
00000250: 3f81 e445 9feb 9cbf 0000 00a0 daa3 aebf
00000260: 9a0f 125a ce22 543f 0000 0000 4008 2abf
00000270: 1d5b d862 0d54 a6bf 0000 0080 9b39 b1bf
00000280: 0000 0080 27f1 a6bf 0000 0000 d41c 92bf
00000290: 0000 0080 5b78 b0bf 0000 00a0 5ca4 b13f
000002a0: 0000 0040 0741 a33f 0000 0060 eff5 a4bf
000002b0: 0000 0000 e8af 86bf 6592 8f56 e13e c0bf
000002c0: 1315 9a5d 9771 c0bf 0000 0080 2045 a6bf
000002d0: 0000 0000 82ac 83bf 0000 00a0 27fd adbf
000002e0: 0000 0000 8770 a7bf 0000 0020 1c18 b6bf
000002f0: af83 64b4 2b9a b0bf 0000 00e0 6b85 acbf
00000300: 8e8b 91cd 4a2a afbf 0000 0020 6941 b53f
00000310: 0000 00e0 e340 abbf 0000 0040 256d ac3f
00000320: 0000 00c0 e10d a2bf 5c0b ca3f 868d b7bf
00000330: 0000 0080 2a83 9e3f 0000 0020 7846 b6bf
00000340: 0000 00e0 ade9 a8bf 8f38 7fd4 079b 8cbf
00000350: 0000 00c0 4b7c aa3f 0000 0000 c6be 85bf
00000360: 0000 0000 f94b 8bbf 68f5 8eb4 da53 c1bf
00000370: 0000 0060 4a00 a6bf 9a2e c315 a0cf a7bf
00000380: de3f d8ef 91a0 a23f 0000 00c0 481a af3f
00000390: 46d8 a690 a29d 953f 0000 0000 d856 95bf
000003a0: 0000 0040 44ac af3f 0000 0060 8ec9 b5bf
000003b0: 0000 0000 6fb3 91bf 0000 0040 8980 9ebf
000003c0: 80af f16c c851 903f 0000 00a0 f422 b63f
000003d0: 1df0 ae50 318f b2bf 0000 00e0 f02b b5bf
000003e0: f5ff dea7 1edf babf 3a21 b438 c665 b1bf
000003f0: a3ec a749 8873 b0bf 0000 0040 e279 afbf
00000400: 2a8b c351 476a 793f 4850 27e2 49e4 b0bf
00000410: 0000 00a0 bdc5 b2bf 0000 0080 6158 a8bf
00000420: 8941 25e3 7f7f c2bf f755 3a6f ae97 bcbf
00000430: 0000 0000 fc65 6f3f 0000 00a0 e0ce b1bf
00000440: 0000 0060 5730 a4bf 7099 457d dace a03f
00000450: 0000 00c0 9f2a a63f 0000 0040 acb3 a33f
00000460: 0e89 4656 b6ea 47bf 575c 5809 dd35 9a3f
00000470: 03e9 0328 8b34 b4bf 3d68 2326 0bb9 963f
00000480: 4287 0ff9 40df 713f bb08 fc73 a422 973f
00000490: cd19 b135 f8ce c03f 0000 00c0 fe0c a1bf
000004a0: 0000 0080 5f87 9a3f dc47 6227 0be5 b2bf
000004b0: 9f93 9541 d772 ba3f 0000 0000 de0c 763f
000004c0: 2092 02e1 9e1a abbf 0000 0000 e8d6 87bf
000004d0: 0000 0000 7cb1 7dbf 5fc8 4829 6ad3 a93f
000004e0: aa65 9560 a8ac afbf 3c3d a0a3 48a2 af3f
000004f0: cc3e ab9b 3b83 9bbf 7f18 dd34 123c 873f
00000500: 0000 0020 63af b53f 7616 5997 32b3 67bf
00000510: 2622 6660 77c3 a43f 66e2 9903 2e67 c13f
00000520: 7940 06cd a27a a33f 0000 00a0 4eae aebf
00000530: 0000 00a0 705f b53f 0000 0020 c538 b4bf
00000540: 4b78 b863 0529 c2bf 77ad e61c b785 9e3f
00000550: 4f7d 8b42 6d09 a13f 0000 0060 5bb9 b43f
00000560: 0000 0080 e0c6 b1bf ffa3 cb84 3831 b03f
00000570: 7f96 78df 33da aa3f 50a0 bc3c 0573 a83f
00000580: 012c 78d2 4f91 a13f 0777 53ab 0480 babf
00000590: 0000 00c0 dab7 a63f 0000 0000 20b9 6b3f
000005a0: e4cb e344 8110 ab3f 97cb 18df 1163 793f
000005b0: 8691 afb8 94ee a93f 0000 0020 b31f b03f
000005c0: cdee 0bd3 a8ec 72bf 0000 0040 bdb6 a83f
000005d0: 0000 0080 e578 97bf 0000 0000 4c6f 723f
000005e0: bbcd 4dc6 c0fc a43f 0000 0000 a824 693f
000005f0: 97c9 f518 936e c23f 0000 0040 d319 acbf
00000600: 0000 00e0 b3d7 b53f 8497 30d3 33d1 afbf
00000610: d469 3dcb 96e4 9d3f de3a a2fb f094 a1bf
00000620: d645 166c fe4c a93f 7401 dc2a 42ee 98bf
00000630: 0000 0000 2c07 71bf 96b9 21ce a9a6 bc3f
00000640: 0000 0020 9a6f b13f 506f 1a47 22de 993f
00000650: 460a 5313 f39b 913f 2869 49c5 74b9 b53f
00000660: 8a5f 1371 b5dc a6bf 0000 00c0 77c4 a8bf
00000670: 46d4 8fe7 db29 6e3f 0000 0020 516b a3bf
00000680: 0000 0040 6fd8 aa3f 0000 0040 70da ae3f
00000690: 9904 9dfb 8a8f b83f 2711 a6cc 616c 913f
000006a0: 0000 0000 f587 a13f f0ed 6dc0 b9ce bf3f
000006b0: b1b8 b432 669c b23f c796 e14a 3412 b83f
000006c0: 038c 1f43 a874 943f 0000 00c0 9cae a63f
000006d0: 3b0a cabb b74b b83f ce51 b543 212f b93f
000006e0: 0000 0080 7eda 913f 3f46 3b2d 5f45 5dbf
000006f0: cdc5 d1ed 6709 b5bf 4531 cf54 7140 803f
00000700: 6955 dd24 dc10 b2bf 0000 00e0 c44f b53f
00000710: de27 45d6 b6fe 9a3f 25df aeff 14f1 86bf
00000720: 8b3f 0b5e e0e8 bd3f 1801 d64c ff69 923f
00000730: 938b 5170 f22f a83f 5a62 2270 982b ad3f
00000740: 1c44 5897 c0dc 8bbf b8b5 bdb2 afad 9ebf
00000750: a6fb 6c3d 84ba 903f a19d 5801 3523 c13f
00000760: 0000 0000 2e6e 803f d66b dcb5 beb3 b4bf
00000770: 8985 dc76 c94c b93f 63f2 28a3 5454 9bbf
00000780: 0b67 a689 8440 ae3f 0000 0080 8d43 98bf
00000790: 004a 78d7 9a7b bfbf 0000 00e0 546e b53f
000007a0: d6ac 58be 6b62 b2bf 741b 9d38 0cdc bb3f
000007b0: 0000 00c0 3bbc a23f f416 69b1 a3f6 b53f
000007c0: 575c bd20 8bfd 95bf 0000 0040 f2fd aebf
000007d0: f89b dff9 d264 b8bf 0000 0020 7102 b0bf
000007e0: 0000 0000 909f 933f 7937 4d83 f967 a4bf
000007f0: 8b7a 8972 1b35 aabf 0000 0000 03d9 8abf
0.03465211618208079 -0.08534030186198432 0.06604767590761185 0.01786002516746521 -0.049258455109170526 0.030716145347266563 0.0023756399750709534 -0.0663505494594574
0.050822071731090546 0.009167216718196869 -0.07804253697395325 0.058533452451229095 -0.07562408303100743 -0.058010730892419815 -0.04476105146795696 0.024836033582687378
-0.0810798038428714 0.008677065372467041 -0.02501729130744934 -0.0874214842915535 -0.08062593638896942 -0.10886963083122662 -0.03006502240896225 0.0031182467937469482
-0.05678508891402345 -0.06485223025083542 0.029293134808540344 0.06011860817670822 -0.11902676448351879 0.040139056742191315 0.06365952640771866 0.014709025621414185
-0.032623935490846634 0.008565522730350494 -0.01448085904121399 -0.06644805520772934 -0.02327858656644821 -0.03797738626599312 -0.02580568939447403 -0.004791088402271271
0.01666373759508133 0.03995669633150101 0.03416271567686276 0.04126507788896561 0.01539059728384018 -0.010422095656394958 -0.03929447382688522 -0.06521560996770859
-0.03109651431441307 -0.0019133018007084748 0.05422230809926987 -0.027247272431850433 0.02017849150616428 -0.045101390516069026 0.08319676667451859 0.032581329345703125
0.061544276773929596 -0.021692350506782532 -0.08063434064388275 -0.04421988129615784 0.008777156472206116 0.03653109818696976 -0.04375115782022476 -0.03575069457292557
0.040060438215732574 -0.06188033625392475 -0.024308308959007263 -0.0877834060355768 -0.07943223721011186 -0.10487751650326524 0.03171160363911368 0.04561062902212143
0.07363083213567734 -0.06554660605780294 -0.02824257721033629 -0.05984385684132576 0.001229001536814578 -0.00019861012697219849 -0.04361001807790486 -0.06728526949882507
-0.044808611273765564 -0.017688095569610596 -0.06433650851249695 0.06891421228647232 0.03760550171136856 -0.040938835591077805 -0.011077702045440674 -0.12691895224192531
-0.128466530517621 -0.04349614679813385 -0.00960637629032135 -0.05857204273343086 -0.04578039050102234 -0.08630538731813431 -0.0648524585162835 -0.05570542439818382
-0.06086953887349643 0.08302933722734451 -0.053229447454214096 0.05552021414041519 -0.03526216000318527 -0.09200324113230124 0.029797233641147614 -0.08701277524232864
-0.04865783080458641 -0.013967572376625518 0.05172955244779587 -0.010617777705192566 -0.013328500092029572 -0.135371530688569 -0.042970966547727585 -0.046505930573031054
0.03638130238334701 0.060747407376766205 0.02110914237865582 -0.02083909511566162 0.06186116486787796 -0.0851067528128624 -0.017286047339439392 -0.029787201434373856
0.015936977052134704 0.08647087961435318 -0.07249744624908812 -0.08270173519849777 -0.10496703718581542 -0.06795920261732116 -0.06426288412324026 -0.061476774513721466
0.006204870787970754 -0.06598340770079958 -0.07332978397607803 -0.0475492924451828 -0.14451597777452843 -0.11168947425388596 0.003832809627056122 -0.06956294924020767
-0.039431314915418625 0.03282816676328337 0.043293945491313934 0.03848017007112503 -0.0007298841779184455 0.02559609765566181 -0.07892675139365583 0.022190260126855533
0.004363302040447272 0.022593087748653966 0.13131620999975127 -0.033302269876003265 0.025907032191753387 -0.07380742751618591 0.10331483222178271 0.0053833648562431335
-0.05293747421936623 -0.011640369892120361 -0.0072493404150009155 0.05044109109839278 -0.061864148893344975 0.06178500172984022 -0.026867801071431427 0.011345045316954348
0.08470744639635086 -0.0028930652722774465 0.04055378963227367 0.13596129585109223 0.03804501297702329 -0.05992360785603523 0.08348754793405533 -0.07899124175310135
-0.14187686318558898 0.029806958331091118 0.033275045750765224 0.08095332235097885 -0.06944087147712708 0.06325104944302494 0.05244600394170806 0.04775253645340227
0.03431176609236531 -0.1035159033085301 0.04437144845724106 0.0033841729164123535 0.05286029783191973 0.006197995958745837 0.05064835314240938 0.06298369914293289
-0.004620227308574432 0.04826918989419937 -0.022922120988368988 0.004500672221183777 0.040990852553388156 0.0030692368745803833 0.14399946898226965 -0.05488453060388565
0.08532261103391647 -0.06214296296120295 0.02919231048086053 -0.034339457242017465 0.04941554135724473 -0.0243463839206028 -0.004157230257987976 0.11191808016312729
0.06810916215181351 0.025261436071203847 0.017196462683168677 0.08486108604975995 -0.04465262418096845 -0.048373930156230927 0.00368206930260809 -0.03792813792824745
0.05243251472711563 0.06026030331850052 0.09594029086021506 0.017015007129445394 0.034240394830703735 0.12424813220962228 0.07269896257341447 0.09402777507929293
0.019976262184979287 0.04430093616247177 0.09490536055276604 0.09837539580377738 0.01743505150079727 -0.0017865590534039825 -0.08217477375162403 0.007935414696384266
-0.07056976223005552 0.08324842900037766 0.02636228258896966 -0.011202014973477123 0.11683466239924038 0.017982472481436224 0.047240806780585086 0.05697323197199884
-0.013604645365406447 -0.029959435734260714 0.01633650422013102 0.13388693395357357 0.008022651076316833 -0.08086769046751327 0.09882792617692905 -0.026688883265011742
0.05908598118112537 -0.023695193231105804 -0.12297981033797356 0.08371477574110031 -0.07181428334358783 0.10882641203089155 0.036592356860637665 0.0857946689730758
-0.021475004075309858 -0.06053120642900467 -0.09528845405985453 -0.06253726035356522 0.01916337013244629 -0.03985576370051453 -0.05118642590672547 -0.013109229505062103

fc3.bias f8 [64]
00000000: d077 ba61 b247 babf 6884 7ba7 fe66 a23f
00000010: 9331 c662 1ad2 6d3f 155b 81d6 59b0 b43f
00000020: 5013 3092 969b c0bf fc5f 22b6 fbd5 ac3f
00000030: d6b0 9202 8b2e a1bf 4db4 00bd cab0 b7bf
00000040: 0000 0000 5e72 99bf 6fee 4d79 1568 bd3f
00000050: 0000 0000 9df7 9b3f 77fa 3699 a6ce c23f
00000060: 0000 0020 3832 b0bf 8241 5307 67b0 c23f
00000070: 62aa 5abd a435 abbf a455 263f 535f b0bf
00000080: 74fe 874f d792 ba3f 2f75 60d1 6af8 adbf
00000090: 1bb5 640d 2b63 c63f 0000 0020 2b5a b53f
000000a0: 0000 00a0 4b9e afbf 5858 cb23 8398 b9bf
000000b0: 6acd 680d 2e8b c1bf 8cd6 01c5 61a9 a03f
000000c0: 0d77 88fd a59c cc3f b901 17bb 2b91 bb3f
000000d0: d8b5 842b a685 c1bf 0000 00a0 f76e b4bf
000000e0: 8ac3 bd0a 8b3a c03f 51d6 5ef0 5142 c2bf
000000f0: 8b93 a89b 651a b3bf 0000 0000 b16c 91bf
00000100: 0000 0020 9c2d a9bf 0000 0080 dac5 a6bf
00000110: 7a1e 9d10 a1d8 9cbf 0000 0040 ffa3 b5bf
00000120: 0b3f 3aa3 0ea8 aebf 0000 0040 4791 b3bf
00000130: 0000 0000 ec8d a7bf 0000 0000 c438 82bf
00000140: 7b0e 94b3 2bcb a8bf 2d42 89a2 5904 c0bf
00000150: a3c3 64cb f715 9a3f 771a ae8d 8297 c1bf
00000160: 35cc c3d7 4b8c 87bf 3db9 08a6 6430 bbbf
00000170: c8fa fd9d 5456 b5bf 6e58 8f62 abe8 9dbf
00000180: 18a9 120d 1415 b1bf 71f9 ea53 9337 a7bf
00000190: fab1 80e9 addc bc3f aaea 8f5b 2fd1 793f
000001a0: 69bc 1aa6 61cc ae3f 0b29 92eb 89c6 b93f
000001b0: 05c4 da26 f7ac afbf f83d e924 7e19 aebf
000001c0: cabe e529 21c3 c13f f2f3 924c 01c7 843f
000001d0: 5a27 cacc af85 a6bf 18ba 53ce a920 b4bf
000001e0: 2a13 dadb cdbc bc3f 6c9b 71ea 3513 c03f
000001f0: dc12 1504 414e c1bf c58f 08a7 9b7a b73f
-0.10265650640437163 0.035942037529601845 0.0036402240131733848 0.08081590163179116 -0.12974817407680428 0.056320062621296046 -0.03355821997078727 -0.09254138101887684
-0.02485033869743347 0.11486944400342634 0.02731175720691681 0.14693148118199748 -0.06326628476381302 0.14600837571789432 -0.05314364253475358 -0.06395454684964946
0.10380311671905834 -0.05853589826458926 0.1749013724706082 0.08340711146593094 -0.06175457313656807 -0.09998340247997939 -0.13705993323092552 0.032542281435707116
0.22353052978081003 0.1076838809740427 -0.13689114689752446 -0.0798182263970375 0.12678659462428882 -0.14264892803992038 -0.07462153482681637 -0.01701618731021881
-0.04917610064148903 -0.04447825253009796 -0.02817012466337452 -0.08453364670276642 -0.05987592451594822 -0.07643552124500275 -0.046004652976989746 -0.008897334337234497
-0.04842506949537736 -0.12513275562607032 0.0254744260684593 -0.1374362174794503 -0.011498062631721687 -0.10620717099729844 -0.0833485494349403 -0.029207876101132894
-0.06672787970697802 -0.04534588240993543 0.11274229956388374 0.0063030099781779345 0.060153056646748145 0.10068571091884253 -0.06186649655627011 -0.0587882442529199
0.13876738115094717 0.010145197057108011 -0.04398869871972862 -0.07862340247422883 0.11225592248417784 0.12558626124811256 -0.13520062159854873 0.0917145998760694
