src/backend/controller/checkpoints/checkpoint_epoch_72.pth (torch, 420207 bytes, 25 tensors)

fc1.weight f8 [64, 5]
00000000: 9f54 cf2e d0fb c53f c45e 1057 5bb2 ddbf
00000010: 6429 f8c6 2de9 cf3f 90cf 3216 cbda c7bf
00000020: 30f4 00f1 2850 bb3f 0000 0040 8728 c4bf
00000030: 0000 00a0 b44c d2bf 0000 0060 19c4 dabf
00000040: 0000 00c0 7e27 cebf 0000 0000 7649 ba3f
00000050: 3ecb c3cf 721b cdbf 9526 812c 8dc8 b23f
00000060: 466b 4b24 e764 d9bf 84e7 6cc5 cea0 da3f
00000070: e319 6feb d267 b03f 0000 0000 e3b3 d23f
00000080: 0000 0040 217d c0bf 0000 0080 2103 d1bf
00000090: 0000 0080 0852 d7bf 0000 0080 03e7 b5bf
000000a0: 0000 00c0 4bff c4bf 0000 0000 a42d 8abf
000000b0: 0000 0040 4265 d93f 0000 0000 98ab 933f
000000c0: 0000 0040 1c0d dabf e59a ab1f 88ef c2bf
000000d0: 5e47 e4b7 e5a4 d63f fc24 ddbc b745 d83f
000000e0: 39b9 4bf1 2a8f b93f b7b3 f2d1 5c87 d6bf
000000f0: 4993 af3f 5c8a ccbf da5c c069 aa3e d2bf
00000100: 020c c021 5390 d13f 37ab 54b5 e9a6 cf3f
00000110: 25d4 1b87 c26d d93f 0000 00c0 50ec d73f
00000120: 0000 0080 4469 dabf 0000 0080 1065 b6bf
00000130: 0000 0040 588f d4bf 0000 0000 0002 b63f
00000140: 343f 85ac ea40 c83f 651f 96d4 3410 d0bf
00000150: b79a 106c 2883 7abf dc9f de66 d5fd bd3f
00000160: 9e85 cea9 db13 d03f d559 4120 8e68 d43f
00000170: 8bad 55f7 cef5 993f 4048 3644 1db3 b33f
00000180: 0b79 3881 7dd0 d8bf 3ab0 deee 0b3f c03f
00000190: 99d9 fb9f 0c02 d4bf 5553 b65a c535 9ebf
000001a0: 06d1 aad3 5326 d93f 185c 07be 0827 883f
000001b0: a47b 1856 0853 c23f 9562 7153 2285 d13f
000001c0: 88f5 61f5 688b c83f 5953 1f7d 6e00 7e3f
000001d0: d2d9 2b95 e33f d43f ea3d 8157 fba2 7a3f
000001e0: 0000 0080 db48 c4bf 0000 0000 8570 ba3f
000001f0: 0000 0080 33b8 d6bf 0000 0080 8c16 d33f
00000200: 0000 0040 0587 c9bf 8193 0e9f 9b46 d4bf
00000210: c16d e5d5 48cb cd3f 10d2 ac98 a417 dc3f
00000220: f3e1 849d 54cb 67bf dbca c8d8 54c6 d23f
00000230: 94fe ba66 2068 d6bf 4582 13ed 6a2d d03f
00000240: 0c9e 779e 05c4 bcbf 847e 8218 cb54 a03f
00000250: 4f86 7b1b 5be2 b0bf 0000 00a0 ca04 d2bf
00000260: 0000 00c0 9904 d9bf 0000 0040 7efa d1bf
00000270: 0000 00c0 3056 d93f 0000 0000 884c c03f
00000280: 9beb 3644 4f3a c93f de21 135f 799e 9fbf
00000290: 7437 966c 1de0 cc3f 707e 248e 9925 95bf
000002a0: 61ea 489c b682 c13f 4688 642e 4b42 a5bf
000002b0: 8fd7 da2c ea23 d83f 79e2 d0a1 1ed1 c33f
000002c0: 7cd5 c4af 905c c13f 4caa 3b74 071e d03f
000002d0: 0000 0080 2081 cd3f 0000 00c0 e0de c6bf
000002e0: 0000 0080 694c dbbf 0000 0000 2dd4 a73f
000002f0: 0000 0080 3d23 d2bf ebf2 3998 ff78 b63f
00000300: 5e37 13e1 5b7a ac3f a002 e2be 790c bd3f
00000310: 59b1 e81a 0df1 d03f 7fd5 4493 5085 c9bf
00000320: 6166 5db5 5938 e03f 169b 4795 1ac2 d8bf
00000330: 439d c26e 253e d2bf 4bba ab3d 3843 cf3f
00000340: 8959 47be 625a 93bf 0000 0080 5fb4 c93f
00000350: 0000 0000 d0d7 cdbf 0000 0000 ede2 aabf
00000360: 0000 0000 f143 c3bf 0000 0000 f327 d0bf
00000370: 0000 0040 1f51 db3f 0000 00e0 408f c9bf
00000380: 0000 0080 82d1 d3bf 0000 0040 af45 dabf
00000390: 0000 00a0 c946 dabf 8195 514f d7f7 c93f
000003a0: 9a1f 2dd2 0e2c d53f b5d9 16f5 0149 a8bf
000003b0: c6f2 82fa f398 ddbf d81c bc0f d43d c73f
000003c0: 0000 0000 0fed bdbf 0000 00e0 bcb6 d8bf
000003d0: 0000 0080 9a77 d83f 0000 0080 1462 c13f
000003e0: 0000 0020 2546 cfbf 0b16 b19b 6737 d1bf
000003f0: fe2a d188 fc1a b63f 38a8 ff84 42d8 d4bf
00000400: 602b 4db0 0c8a cc3f 1c32 0770 dee8 d3bf
00000410: 0000 0000 8ede d63f 0000 0080 e575 bdbf
00000420: 0000 0000 775c b53f 0000 00c0 c0b0 dbbf
00000430: 0000 0080 122a b3bf 0000 0000 a62e b0bf
00000440: 0000 0040 dd09 c0bf 0000 0000 b007 afbf
00000450: 0000 0080 bdad b2bf 0000 00c0 7025 d43f
00000460: cb81 621b c020 ab3f 525c f73f 7ac4 cabf
00000470: 9ae2 d295 8fb3 cf3f 1d03 a0a3 9729 c33f
00000480: 0406 6bb6 0d09 d3bf 0000 0000 d9f1 c1bf
00000490: 0000 0080 8860 bfbf 0000 0080 6809 d63f
000004a0: 0000 0000 28ff 8bbf 0000 0000 9065 c13f
000004b0: 0000 0080 0ee1 c3bf 0000 0080 4070 cb3f
000004c0: 0000 0000 5e63 b8bf 0000 0000 15a0 c83f
000004d0: 0000 0000 8df7 a13f 0000 0080 81d9 c83f
000004e0: 0000 0000 a403 913f 0000 0080 f8bd d4bf
000004f0: 0000 00c0 8968 d9bf 0000 0040 97d0 d1bf
00000500: 0cf6 88b2 2b95 ac3f 1d2b 2b5f 90c8 c43f
00000510: 27fd 14a2 09b2 cdbf c617 6c43 ad23 cc3f
00000520: feb3 2e99 de91 d43f 0e5d b949 cf79 c23f
00000530: 1ac0 a208 c203 d4bf 9730 3599 6b02 aa3f
00000540: a0ca 83e5 8303 cc3f 5926 987f a184 d83f
00000550: 0000 0000 cb91 d1bf 0000 0000 f4f6 ad3f
00000560: 0000 0000 45a0 c0bf 0000 0000 0079 cb3f
00000570: 0000 0000 7c66 ac3f 0000 0020 3579 d8bf
00000580: 0000 0080 e0ea b4bf 0000 0000 08bf 9f3f
00000590: 0000 0000 5e09 d7bf 0000 0020 1624 d9bf
000005a0: ec01 232c e0ed d93f 27d0 22bf 57b3 c2bf
000005b0: 573b 3f10 b42c d8bf 401b a6d2 ff8d a43f
000005c0: b4db 0998 7ba5 cb3f d5fb f9ef a35e d53f
000005d0: 4d13 922b 295b b53f 42d5 1129 5132 ce3f
000005e0: 6f17 a44b 2513 d13f e72e b016 2688 d83f
000005f0: c0b6 dc94 308d d03f fffb 0ee4 4142 c1bf
00000600: e382 16ce fa63 d1bf 048a 5bfa 9e98 c9bf
00000610: cca8 1aa0 c982 bcbf 90d1 6ee1 f742 d3bf
00000620: 45b9 4001 9c7e d1bf 7205 7c6f e395 e03f
00000630: 42c4 c76a 7d1e c2bf d234 7e7f 3ad7 d43f
00000640: 8136 1220 e90e dd3f 14ac 7213 cb22 bbbf
00000650: 4032 44ec 5574 d8bf cc03 ee93 d177 da3f
00000660: 3d00 eb26 07fe b0bf 0000 0000 17fe b03f
00000670: 0000 0000 8544 c43f 0000 0080 2285 c4bf
00000680: 0000 0080 bf61 bdbf 0000 0060 0cff d7bf
00000690: 0000 0000 dcd4 983f 0000 0040 5d41 c0bf
000006a0: 0000 00c0 9d6e cdbf 0000 0000 08a9 c53f
000006b0: 0000 0000 46ba b4bf dd87 58ac e350 c03f
000006c0: 612f 33f3 88f7 a5bf fe85 11e9 ba24 dcbf
000006d0: b9d8 8c41 4458 ca3f 3875 3d7c 9d67 c3bf
000006e0: d685 cc4c 1c6f bbbf 30ac 0fb0 a02b dd3f
000006f0: 7890 91d3 ebb2 da3f 992e daff c13c d33f
00000700: 8aac cbee fa60 d5bf 5e8c 9a9d 7116 e0bf
00000710: e056 fc8b cfc5 88bf 5297 3b89 05cd d3bf
00000720: 8d98 3077 3138 d83f 8ef3 4776 a059 d23f
00000730: 87cb d76c d56d cb3f f4ba 0e42 2689 cfbf
00000740: d760 2ae0 ebc6 573f 2cf7 bca1 10e1 d13f
00000750: a6ab 9692 872c c43f a4bb e433 aa12 b93f
00000760: a0bf cc07 d49d d53f 77b1 90a4 7492 b93f
00000770: 4f2b b82a 4c45 d83f d963 f005 b338 b2bf
00000780: 04e5 1d41 5f67 973f 093b e352 c692 d13f
00000790: 2ce8 d840 8284 d83f e4f6 87ea 705f c73f
000007a0: 483c f739 5ea2 46bf 0000 0000 8507 b23f
000007b0: 0000 0000 4f03 b9bf 0000 0000 8cdd 9bbf
000007c0: 0000 0080 ed0c cd3f 0000 0000 6803 89bf
000007d0: ab9e da86 5978 cd3f c369 17e4 b455 d2bf
000007e0: ba35 fbfc 15df d1bf da84 7ab4 5e81 b73f
000007f0: 8e6e 1ebf 3a2d cbbf 768d 68ba daee c03f
0.17174722943915285 -0.4640110349878166 0.24930355277349314 -0.18636454185400142 0.10669189342384366 -0.15748682618141174 -0.2859317362308502 -0.4182189404964447
-0.23558029532432556 0.102683424949646 -0.22740016121641732 0.07337267242942354 -0.396783624118758 0.41606492309403387 0.06408422706508747 0.29222941398620605
-0.12881866097450256 -0.2658160924911499 -0.36438190937042236 -0.08555623888969421 -0.16404101252555847 -0.012782365083694458 0.3968053460121155 0.01920926570892334
-0.4070501923561096 -0.1479349283829016 0.35381453474211877 0.3792552322743885 0.09984081641207333 -0.3520118761323902 -0.22297242269191944 -0.28507480933462903
0.27443388267437296 0.24728127817192 0.39732421106538346 0.37379854917526245 -0.41267502307891846 -0.0874796211719513 -0.3212490677833557 0.085968017578125
0.18948110030987098 -0.25098915825264206 -0.00647273816961185 0.11715444337335107 0.2512120397824108 0.3188815417283 0.025351747366057203 0.07695181765873915
-0.38772523516844676 0.12692402995651425 -0.3126250803319635 -0.029501994763978818 0.3929643218100555 0.011793201731888955 0.14315895275009638 0.2737508597252057
0.19175445539069025 0.007324630352702887 0.3163994747877982 0.0065030878104859 -0.1584734320640564 0.10327941179275513 -0.35499274730682373 0.29825127124786377
-0.19943299889564514 -0.31680956395057797 0.23276625103140527 0.4389430514304715 -0.0029045727389098662 0.29335518999429916 -0.3501053813197157 0.2527720751950578
-0.11236605757550694 0.03189692186537932 -0.06595391674957195 -0.28154245018959045 -0.39090579748153687 -0.2809138894081116 0.3958856463432312 0.1273355484008789
0.19709196882999155 -0.030877968242551172 0.22558944513405843 -0.020651244450276385 0.13680155402274166 -0.041521405614063187 0.3771920621905957 0.15481932545823776
0.1356373651739594 0.2518328318680332 0.2305031418800354 -0.17867669463157654 -0.4265388250350952 0.046540647745132446 -0.28340089321136475 0.08778378931487978
0.05562102434633574 0.11347161207414524 0.2647125971586966 -0.19938094321120656 0.5068787138254259 -0.38684715822312066 -0.2850431043284127 0.24423888217229925
-0.018899481643381875 0.2008170485496521 -0.23314857482910156 -0.052512556314468384 -0.15051090717315674 -0.2524383068084717 0.4268262982368469 -0.1996842473745346
-0.30966246128082275 -0.41050320863723755 -0.41057053208351135 0.20287600872977055 0.3308140804770062 -0.04743200413524865 -0.4624605127717526 0.18157435196210403
-0.11689847707748413 -0.3861534297466278 0.3823000192642212 0.1358056664466858 -0.24432815611362457 -0.269006635706632 0.08634928074131307 -0.3256994532408757
0.22296293838948156 -0.31108818950886685 0.3573336601257324 -0.11508020758628845 0.08344215154647827 -0.4326631426811218 -0.07486072182655334 -0.06321179866790771
-0.1253010332584381 -0.060605525970458984 -0.07296356558799744 0.3147851824760437 0.052984240858907926 -0.20912101863243265 0.24766726317991045 0.14970679749969742
-0.2974275857378361 -0.14019310474395752 -0.12256672978401184 0.3443242311477661 -0.013670265674591064 0.1359119415283203 -0.1553056836128235 0.21436315774917603
-0.09526622295379639 0.19238531589508057 0.035091787576675415 0.19413775205612183 0.016615450382232666 -0.32409489154815674 -0.39700549840927124 -0.2783563733100891
0.05582558206922891 0.1623707260790405 -0.23199577726516304 0.2198387698373933 0.32140316924306933 0.14434233760651022 -0.3127293667157588 0.050799715473290145
0.2188572760274683 0.38309514484772006 -0.2745234966278076 0.0585247278213501 -0.129891037940979 0.214630126953125 0.055469393730163574 -0.38239791989326477
-0.08170893788337708 0.031002163887023926 -0.35994672775268555 -0.3928275406360626 0.4051437788985186 -0.14609810669719644 -0.3777284773504354 0.04014586874386916
0.2159876339316874 0.33390139041142436 0.08342225373969576 0.2359105539832545 0.2667935599023314 0.3833098622860533 0.2586175397617403 -0.1348345149581007
-0.2717272770478713 -0.19997012352457955 -0.11137066038887439 -0.3009624196522731 -0.2733526241526259 0.5182969262533972 -0.1415554782284137 0.3256365056084408
0.4540350735850112 -0.10599965309909037 -0.3821005637444479 0.4135631508470936 -0.06637615871568499 0.06637710332870483 0.15834105014801025 -0.1603129506111145
-0.11477276682853699 -0.3749419152736664 0.024249494075775146 -0.1269947588443756 -0.22993823885917664 0.1692209243774414 -0.08096730709075928 0.12746854701350588
-0.04290416687726296 -0.43974182854262256 0.20581868363087155 -0.15159958425912534 -0.10716416239713253 0.455787822661196 0.41717048321721206 0.3005833624417647
-0.3340442020405098 -0.5027397230336523 -0.012096044024967723 -0.30938852693212937 0.3784297622645532 0.28672038603672767 0.21428935827824722 -0.24637296891656713
0.0014512351487266284 0.2793618754839027 0.15760893495220535 0.09794105307513107 0.3377580715341484 0.09989098565774222 0.3792295853788134 -0.07117766280170147
0.022855270718967993 0.27458341688627336 0.38308769543403076 0.18260013057436375 -0.0006907425012573432 0.07042723894119263 -0.09770673513412476 -0.027212321758270264
0.2269570231437683 -0.012213528156280518 0.2302352817980496 -0.28648111605221177 -0.2792410822410961 0.09181777864661758 -0.21231779415108004 0.13228925802205155

fc1.bias f8 [64]
00000000: 522f 3f89 2f7b d0bf 0000 0080 bedb c43f
00000010: aa04 90cb 724f d13f 0000 0000 fe83 b03f
00000020: 0000 0000 e5a4 d8bf 669b 9b27 eef7 c4bf
00000030: 2af2 bc4c 9029 cbbf 0000 0060 4b8a d1bf
00000040: 2b27 cad2 ee61 dabf 2a5b 220f 8be0 a6bf
00000050: 04f1 7559 5034 c43f ce8c 54d2 092c b7bf
00000060: 0000 0040 0d1b cabf 4055 faac c71f d0bf
00000070: 3ee4 fa0f fb1e b7bf 0000 0080 a336 cb3f
00000080: dd59 cc7b 0764 c6bf 3f53 4041 4277 a8bf
00000090: 0000 0040 2f60 ccbf b91c a612 59fe cebf
000000a0: 732c 3e61 8623 ae3f 0000 0000 4a57 ac3f
000000b0: 0000 0000 983d a63f fcc8 cd4a 16f5 b4bf
000000c0: 0000 00e0 ae6e d0bf 69e6 b0f0 eecc cd3f
000000d0: 0000 00c0 8ccf d7bf 0000 0060 45f3 cfbf
000000e0: c51b 70ec 8e45 d0bf 0000 0080 6bb3 d5bf
000000f0: 0000 00a0 0efb d4bf 0000 00c0 2002 c4bf
00000100: df93 97a5 470e c3bf 465a 3b1c e8c7 dcbf
00000110: 0000 0080 bd3c c1bf 0000 0000 6003 73bf
00000120: 04da 9773 ff24 acbf 3b6d da1e 4057 d03f
00000130: cfee c3a6 bc95 bcbf 7bb4 e586 fba9 bd3f
00000140: 3644 d7b6 8cbf a5bf 0000 00e0 3c78 cabf
00000150: 0000 0000 7f04 a03f 8835 6b30 8acf d33f
00000160: a0c7 1fc4 6f2a d23f 67c7 a0c5 edf5 a73f
00000170: 1f21 bdca 2720 dfbf 710b 5b68 1149 96bf
00000180: 6649 bb0e 4546 c0bf 0000 00e0 1b69 dcbf
00000190: 521b 80c8 c57b e03f ee47 e099 675f da3f
000001a0: 110c a69f bd33 b23f 0000 0020 b4b5 d0bf
000001b0: 0000 00e0 eb9e d4bf 0000 0000 d682 ab3f
000001c0: e38c 6618 035f d1bf 7a56 9efb e360 b13f
000001d0: 0000 0080 1a7f d2bf 7970 a080 af12 dabf
000001e0: 0000 0000 c9c8 d0bf ffaf 793e fd76 cabf
000001f0: d7b6 5ab0 5cbf d0bf c958 26c7 fa0e d93f
-0.2575186577130256 0.16295605897903442 0.27047414664418545 0.06451404094696045 -0.38506436347961426 -0.16381623205162582 -0.21220592257476883 -0.2740658223628998
-0.41222735009124517 -0.04468187865966507 0.1578464924640529 -0.09051572213188594 -0.20395055413246155 -0.2519396962391802 -0.09031647815835783 0.21260493993759155
-0.17492764992557755 -0.04778487249874396 -0.22168532013893127 -0.24213708315457952 0.05886478364035321 0.05535346269607544 0.04343867301940918 -0.08186473203912564
-0.2567555606365204 0.23281656982890134 -0.37204283475875854 -0.24961154162883759 -0.2542455014194583 -0.3390759229660034 -0.32782331109046936 -0.1563149392604828
-0.1488732870631386 -0.44970133549705726 -0.13466614484786987 -0.004641890525817871 -0.054969771252149996 0.2553253461171214 -0.111659804071617 0.11587497752562285
-0.04247703296608345 -0.2067943662405014 0.03128430247306824 0.30954222420117405 0.2838401236796191 0.04679816281749432 -0.4863376121397937 -0.021763107294428822
-0.12714446276965957 -0.44391533732414246 0.5151089588187949 0.4120730402656808 0.07110200069114138 -0.26109030842781067 -0.3221997916698456 0.05373257398605347
-0.27142407782430505 0.06788468258886296 -0.2890077829360962 -0.40739047585680727 -0.2622549533843994 -0.2067562632613544 -0.2616798135958169 0.39153928230497265

fc2.weight f8 [128, 64]
00000000: b36f 8213 727a c53f 0000 0080 7bd3 a83f
00000010: d9ef 9b23 03f9 cdbf 0000 0080 ed40 b53f
00000020: 0000 00c0 a7f9 b3bf 1ab7 cb74 aa4f 733f
00000030: e2f5 edd3 fbf2 b8bf 0000 00c0 2e83 b53f
00000040: 39f3 f399 351e 85bf cd0c db74 d931 b9bf
00000050: bea3 a51d 58a4 cc3f 8963 93ff 9804 6fbf
00000060: 0000 0000 e062 a73f 494d fbfe bdbe c43f
00000070: 2dbb 1e95 afc5 ae3f 0000 0080 dd6e bdbf
00000080: 31b1 6f67 826f b23f b447 73d3 9cb0 a7bf
00000090: 0000 0080 7eda b9bf 603b 9108 02cd b23f
000000a0: 5f76 3c27 f7ac d7bf 0000 0000 62e4 bf3f
000000b0: 0000 0000 176f b1bf 85c6 c915 9f9c b3bf
000000c0: 0000 0080 db41 ab3f 1c7a 9b9f e730 b0bf
000000d0: 0000 0000 a708 bebf 0000 0080 2d93 bc3f
000000e0: 2fcc 1180 2e98 a4bf 0000 0040 67ee be3f
000000f0: 0000 0000 ab2e 9abf 0000 0080 089e a03f
00000100: de75 d61a 62a3 b63f 88bd 46b0 f315 b33f
00000110: 0000 0000 7fd0 af3f 0000 0040 d75a b43f
00000120: 52ed 9b09 7735 a7bf 4537 cee2 bec9 c13f
00000130: 9f20 66d5 59de b1bf 33a9 0339 8796 b73f
00000140: 8c03 c8b6 e3ac c7bf 0000 0040 a9bc b8bf
00000150: 0000 0080 676f acbf 4df7 de9a d107 c1bf
00000160: d61a d6e2 fbb4 c13f befd efd5 1e71 c73f
00000170: f11c 489c 90c7 ba3f 9e95 f7d6 c9eb c23f
00000180: 72b1 eae3 24eb a2bf 0000 0040 1085 bebf
00000190: a5d5 a49e b411 c6bf fdec 9ab2 5928 b73f
000001a0: 164d 4b78 8c37 c13f 0000 0000 395c a3bf
000001b0: 0000 0080 c2a6 a63f 0000 0000 83f8 b2bf
000001c0: a8e0 8411 b816 a3bf 5437 c461 5002 d33f
000001d0: 0000 0000 bb5f afbf 95fc 14eb 7952 cb3f
000001e0: 0000 0000 319b 953f f0c3 8b42 25a9 a2bf
000001f0: 47d6 511c 8c13 c03f 8616 1bd4 c5a5 bebf
00000200: cde3 8537 63d3 c23f 0000 0000 0e58 a83f
00000210: 6490 df6f 1d61 b0bf 0000 0080 b274 bdbf
00000220: 0000 0000 153d b93f de84 e3ca e215 c53f
00000230: 4142 25ca 3a20 b33f 0000 0000 5e28 a0bf
00000240: 7538 06bb 318c bfbf 6b8a 3b00 8c98 c23f
00000250: 8d4f 45c9 e14d c03f 837e 497b d9cc c23f
00000260: 0000 0000 70ff b1bf aad8 c3e8 9bd2 ba3f
00000270: 86da be8d 0cc8 63bf 0000 0000 6918 adbf
00000280: 8d87 30f0 3d15 bf3f 85ba 98e7 f050 c03f
00000290: 0000 0000 62da 913f 94fc 6788 22e0 c23f
000002a0: a359 ccec c6f6 d6bf 0000 0000 627b bf3f
000002b0: 0000 00c0 10a0 bebf faba 33ac 3b65 ab3f
000002c0: 0000 0080 eafd a83f bc80 25b8 04f4 7f3f
000002d0: 0000 0040 e231 b3bf 0000 0000 cc52 893f
000002e0: 28c0 baba 6305 c0bf 0000 0040 2580 babf
000002f0: 0000 0000 205a bb3f 0000 00c0 8aa4 b53f
00000300: a027 e563 5dc5 b03f 7e9f c691 c9c7 813f
00000310: 0000 0080 14e5 b0bf 0000 00c0 d7cb b13f
00000320: 21f1 c221 4619 c8bf 9687 bec4 298e 7ebf
00000330: c5c0 2901 9076 abbf fdd1 1fe9 22e2 af3f
00000340: 832c a34f 5213 cabf 0000 0000 82a6 98bf
00000350: 0000 0000 7e0b ab3f 4d20 055d c91f bbbf
00000360: 0c6a 9203 4175 c23f 79f4 1fbd 8d2e c03f
00000370: 9aae 5a83 e385 b2bf 4b0c d39f c4fc 923f
00000380: ec60 478f c837 ba3f 0000 0000 2ba9 95bf
00000390: e98e eab4 e1c1 d3bf d6f0 9647 c038 8abf
000003a0: eaae 910b f1dc b83f 0000 0000 f07a 51bf
000003b0: 0000 0000 57d5 a43f 0000 0080 8822 a3bf
000003c0: f902 99f7 62b6 b23f 384b d3d4 180f da3f
000003d0: 0000 0000 1962 993f b72c 6ee6 28cd a33f
000003e0: 0000 0040 ef62 b33f 6473 95b2 bf23 a2bf
000003f0: aff1 b518 9177 96bf 0522 21cc 6bc6 c5bf
00000400: 0000 0080 2142 aa3f 0000 00c0 6b5c bd3f
00000410: 0000 0000 19cf ac3f 0000 0000 917f 95bf
00000420: 0000 0000 1f42 a7bf 0000 0000 eb0a 993f
00000430: 0000 0000 4844 983f 0000 0000 c204 9fbf
00000440: 0000 00c0 63b3 bd3f 0000 0080 a9a7 bd3f
00000450: 0000 0000 bc86 8d3f 0000 0080 79c3 a2bf
00000460: 0000 00c0 424a bf3f 0000 0000 cbb0 b73f
00000470: 0000 0000 da55 853f 0000 0040 17bc bd3f
00000480: 0000 0040 e9e5 b7bf 0000 0000 28e9 673f
00000490: 0000 0080 8a3b ae3f 0000 0000 f874 823f
000004a0: 0000 0040 0864 bbbf 0000 0080 5d55 aa3f
000004b0: 0000 0000 bcd2 853f 0000 0000 71ea a43f
000004c0: 0000 0000 32e7 abbf 0000 0000 edc6 a4bf
000004d0: 0000 0040 cdc8 b3bf 0000 0080 2bce a1bf
000004e0: 0000 0000 f8a5 7b3f 0000 0000 3d61 a63f
000004f0: 0000 0000 d464 9bbf 0000 0000 242b 79bf
00000500: 0000 0000 08be 813f 0000 0000 f902 95bf
00000510: 0000 0000 0680 b43f 0000 0000 ae40 8fbf
00000520: 0000 00c0 06a1 b43f 0000 0080 c820 afbf
00000530: 0000 0080 5558 b83f 0000 0000 a326 a93f
00000540: 0000 0000 ee98 973f 0000 0000 36ff 8b3f
00000550: 0000 0000 59cc 943f 0000 0080 0316 bc3f
00000560: 0000 0000 5175 bb3f 0000 0080 b485 bd3f
00000570: 0000 0000 81ae aabf 0000 0080 1c41 ba3f
00000580: 0000 0080 0ba5 b9bf 0000 0080 847b bebf
00000590: 0000 00c0 a774 ba3f 0000 0080 bffc b5bf
000005a0: 0000 0080 ccd1 a6bf 0000 0000 1457 bcbf
000005b0: 0000 0080 a6f6 b63f 0000 0000 5724 9ebf
000005c0: 0000 0080 75e0 a3bf 0000 0000 b441 813f
000005d0: 0000 00c0 819c b8bf 0000 00c0 2ed2 b23f
000005e0: 0000 00c0 38c3 b33f 0000 00c0 c30a b2bf
000005f0: 0000 0000 e1dd 923f 0000 0000 7a72 afbf
00000600: 0000 0080 eeee babf 0000 0000 a614 903f
00000610: 0000 0000 6413 b4bf 0000 0000 f8a8 9b3f
00000620: 0000 0080 6f2c a1bf 0000 0000 a6ec aebf
00000630: 0000 0000 32aa b13f 0000 0000 835e b6bf
00000640: 0000 0000 9da3 93bf 0000 00c0 0687 babf
00000650: 0000 0000 be9c 913f 0000 0000 a3d5 bb3f
00000660: 0000 0000 b8fd 793f 0000 0000 ec8d bbbf
00000670: 0000 00c0 3148 b4bf 0000 0080 6577 b2bf
00000680: 0000 0040 d13c b23f 0000 0080 40b7 b33f
00000690: 0000 0000 7842 aebf 0000 0000 578d a23f
000006a0: 0000 0000 589f 613f 0000 0000 34bb 733f
000006b0: 0000 0080 04cd b3bf 0000 0040 0071 bc3f
000006c0: 0000 0000 1463 973f 0000 00c0 43de b33f
000006d0: 0000 0000 2393 a6bf 0000 0080 fdc4 a73f
000006e0: 0000 0080 b4da b4bf 0000 0080 1b68 b83f
000006f0: 0000 0040 f375 b23f 0000 0000 1ecb 82bf
00000700: 0000 00c0 5720 b3bf 0000 0040 1ab3 b7bf
00000710: 0000 0000 b48b 703f 0000 0080 b6b8 aabf
00000720: 0000 0000 ab94 913f 0000 0040 9ebb b9bf
00000730: 0000 0040 1196 bb3f 0000 0000 404b bbbf
00000740: 0000 0000 1010 6c3f 0000 00c0 cce3 b0bf
00000750: 0000 0080 7286 a9bf 0000 0080 9af3 b43f
00000760: 0000 0080 f5fb b4bf 0000 0000 6467 b6bf
00000770: 0000 00c0 3c4e b1bf 0000 0040 f0dc b8bf
00000780: 0000 0000 204c 82bf 0000 0000 0cd3 9fbf
00000790: 0000 0000 4839 9f3f 0000 0080 f250 ae3f
000007a0: 0000 0000 60b7 af3f 0000 0040 44be ba3f
000007b0: 0000 0000 e0ef 5b3f 0000 0000 871d a73f
000007c0: 0000 0080 3634 b53f 0000 0080 d411 a03f
000007d0: 0000 0000 c288 99bf 0000 0000 97b2 98bf
000007e0: 0000 0000 0c8e 7cbf 0000 0080 a5e5 a23f
000007f0: 0000 0000 f98c b9bf 0000 0000 0336 babf
0.16779924347508554 0.04848848283290863 -0.23416175116278629 0.08302196860313416 -0.07802818715572357 0.0047146471449488695 -0.09745763706265323 0.08403293788433075
-0.010311526070375986 -0.09841689207955824 0.2237653870354545 -0.003786372017753729 0.045676231384277344 0.16207098913455756 0.06010197348893196 -0.11497291922569275
0.07201399827289802 -0.0462693222158487 -0.10099020600318909 0.07344067296183487 -0.3699319728055794 0.12457859516143799 -0.06810134649276733 -0.07660860330522652
0.05323682725429535 -0.06324622770942095 -0.11731952428817749 0.11162075400352478 -0.040223553784834436 0.12082524597644806 -0.025568649172782898 0.032455697655677795
0.08843053012102284 0.07455370954152418 0.06213757395744324 0.0795111209154129 -0.04532978050516569 0.1389692885826951 -0.06979905567107146 0.09214062826109597
-0.1849636690604054 -0.09662874042987823 -0.055537447333335876 -0.13305110990580218 0.1383356912230826 0.18313966222920713 0.104607618479452 0.14782069202844367
-0.03695025713145385 -0.1192178875207901 -0.17241533037455983 0.09045944796064372 0.13450771211373852 -0.0378129780292511 0.04424102604389191 -0.07410448789596558
-0.03728270734649303 0.29701623485094797 -0.06127724051475525 0.21345447519886265 0.021099820733070374 -0.03644672810867877 0.12559653647228883 -0.11971699169506608
0.14707603655895554 0.04754680395126343 -0.06398185712129273 -0.11506190896034241 0.09858828783035278 0.16473040491749819 0.07471053538507368 -0.03155797719955444
-0.1232329446413319 0.145280361283841 0.12737676932976819 0.146876511763356 -0.07030391693115234 0.10477613861789573 -0.002414726752216825 -0.05682685971260071
0.1214178763771356 0.12747012432506125 0.017434626817703247 0.14746505413493038 -0.3588120758517112 0.12297642230987549 -0.11962990462779999 0.05350672223163673
0.048812225461006165 0.007801073489048512 -0.07497991621494293 0.012364953756332397 -0.12516447656298735 -0.10351784527301788 0.10684394836425781 0.08454196155071259
0.0655115479359254 0.008681845437265908 -0.0659954845905304 0.06951664388179779 -0.1882712998248133 -0.007459796102837665 -0.05363893522451372 0.06227215858226385
-0.2037146462301714 -0.02407267689704895 0.0528220534324646 -0.10595377465244944 0.14420330690775562 0.12642070517168572 -0.07235547978296566 0.018542358641536343
0.10241368768709308 -0.02115313708782196 -0.3087085978279292 -0.01280355661844405 0.0971213010067761 -0.0010669082403182983 0.04069015383720398 -0.03737284243106842
0.07309549851289522 0.4071714475987167 0.024788275361061096 0.038674619797427416 0.07572837173938751 -0.035428991842059415 -0.021940486081335638 -0.17011783091790292
0.05128578841686249 0.11469148099422455 0.05626752972602844 -0.020994439721107483 -0.04542633891105652 0.024455711245536804 0.023697972297668457 -0.030291587114334106
0.11601851880550385 0.11583957076072693 0.014417141675949097 -0.036647602915763855 0.12222687900066376 0.0925413966178894 0.010417655110359192 0.11615128815174103
-0.09335191547870636 0.0029187947511672974 0.059048011898994446 0.009012162685394287 -0.1069951206445694 0.0514325350522995 0.010655850172042847 0.04085114598274231
-0.054498255252838135 -0.040580183267593384 -0.07728274166584015 -0.034776076674461365 0.00675007700920105 0.0437106192111969 -0.026751816272735596 -0.006144657731056213
0.00866323709487915 -0.020519152283668518 0.08007848262786865 -0.015260085463523865 0.08058206737041473 -0.06079699099063873 0.0950978696346283 0.049122899770736694
0.023044317960739136 0.013670369982719421 0.020310774445533752 0.10971090197563171 0.1072588562965393 0.11532142758369446 -0.05211260914802551 0.1025560200214386
-0.10017463564872742 -0.11907222867012024 0.10334251821041107 -0.08588787913322449 -0.044569388031959534 -0.11070370674133301 0.0897010862827301 -0.029435500502586365
-0.038821861147880554 0.008426100015640259 -0.0961381047964096 0.07351963222026825 0.0771975964307785 -0.07047675549983978 0.01842452585697174 -0.0614202618598938
-0.10520830750465393 0.01570376753807068 -0.07842087745666504 0.027011752128601074 -0.03354214131832123 -0.06039923429489136 0.06900322437286377 -0.08737963438034058
-0.01917882263660431 -0.10362283885478973 0.01719948649406433 0.10872858762741089 0.006345480680465698 -0.10763430595397949 -0.07922659814357758 -0.0721343457698822
0.07124049961566925 0.07701495289802551 -0.05910086631774902 0.03623458743095398 0.002151176333427429 0.004817202687263489 -0.07734706997871399 0.1110992580652237
0.022838890552520752 0.07761023938655853 -0.04409131407737732 0.04642479121685028 -0.08146217465400696 0.09533855319023132 0.07211227715015411 -0.009176477789878845
-0.07471226155757904 -0.09257663786411285 0.004039481282234192 -0.052190497517585754 0.017168685793876648 -0.1005190759897232 0.10775859653949738 -0.10661697387695312
0.0034256279468536377 -0.06597594916820526 -0.04985387623310089 0.0818420946598053 -0.08196958899497986 -0.08751511573791504 -0.0676000565290451 -0.09712125360965729
-0.008934259414672852 -0.0310785174369812 0.030491948127746582 0.059211328625679016 0.06194591522216797 0.10446573793888092 0.0017051398754119873 0.04514715075492859
0.08282795548439026 0.031386032700538635 -0.024935752153396606 -0.02411876618862152 -0.006971403956413269 0.036908313632011414 -0.09980732202529907 -0.10238665342330933

fc2.bias f8 [128]
00000000: 05fd d96a adf4 97bf c5e8 0717 f7d4 aa3f
00000010: 0000 0080 186d b8bf 0000 0000 0a1b 8b3f
00000020: d48f 3ea0 96c0 94bf e5b2 8492 aaf1 973f
00000030: 0000 0040 d8fe b0bf 0000 0080 82a7 a6bf
00000040: 0000 0040 e69e b2bf 6f0f 1869 2462 a9bf
00000050: 0000 0000 32fb 8ebf 1b9f 94f8 d349 abbf
00000060: 94e8 4156 cdbc a83f 5d6e bf9f e7b7 c2bf
00000070: 4c92 0fd8 152a a23f 6615 32ad b353 b9bf
00000080: 2dac 8d99 5c93 bf3f 1c58 3a53 0086 c5bf
00000090: 04d2 8150 6417 a63f 0000 00c0 7926 bcbf
000000a0: 0000 0000 6424 a8bf e1a1 52cf 45ea b53f
000000b0: e1ea a505 fb26 97bf 0000 0000 0e99 a83f
000000c0: 04f3 a36c 11d9 c23f 0000 0080 5112 a1bf
000000d0: 8de8 8723 2a2f b2bf d5ff 1333 0b6b 86bf
000000e0: 28a8 5b38 cb46 b23f df09 83a5 cdde c1bf
000000f0: 92e4 a0a6 d4a2 a1bf f88a 677e 51d8 953f
00000100: 0000 0000 bd99 adbf 5379 2d7f 92e8 9fbf
00000110: 4b39 a90b 88d4 aa3f 5171 1385 e55c 74bf
00000120: e8a2 0100 c3d6 acbf 0000 0080 adfc b2bf
00000130: 0000 0080 628a a1bf 0000 0000 64f7 a2bf
00000140: 5e2d c5c4 9d80 bfbf da0d 47f0 8531 c4bf
00000150: 7111 ebb9 bd35 c03f 0000 0000 f7c7 a03f
00000160: 0000 00c0 8e3e b8bf e24d b021 2807 9b3f
00000170: 531f a026 41fc c4bf 80c4 a671 5077 94bf
00000180: 5cb3 42f9 7e90 b7bf 93cc b300 b3ec c23f
00000190: 0000 00c0 ffcf bdbf 0000 0000 b75f 94bf
000001a0: c065 a987 a59a 9a3f 3a19 1b12 8e4f a4bf
000001b0: e005 cb8e 683b a6bf 0000 0000 fca6 853f
000001c0: c545 8ec2 84da a4bf 0000 0080 86fe a7bf
000001d0: 0000 0000 d6c9 93bf bae8 9443 18da babf
000001e0: 8211 5848 cd4d b0bf 0000 0080 0a11 b2bf
000001f0: 96a1 b207 1b3a babf 0000 0000 a7b3 aebf
00000200: 0000 0000 7d20 a6bf 9627 f5b7 9d8d c13f
00000210: 82b3 76f2 38b2 98bf 6b30 b2f8 5c5f c23f
00000220: 6a08 a20c c246 a93f 3d68 c963 8617 a73f
00000230: 4c29 573c d5e0 b23f 4895 99ed e100 b8bf
00000240: 0000 0000 b53b adbf 25b2 37f6 8731 a2bf
00000250: bae0 7760 56c4 b73f 0692 8393 2dce af3f
00000260: 1b71 15a0 6ee1 b63f 0000 0080 ffb8 a8bf
00000270: 7755 1cdf 6e75 bd3f 0000 0000 9012 50bf
00000280: 0000 0000 20d5 61bf 0000 0000 d235 a43f
00000290: 6fab ca59 e6df b5bf a322 91e0 7bf6 c1bf
000002a0: 0000 00c0 68f8 bbbf 2e13 7977 9cdb 923f
000002b0: dd12 bec4 7739 babf f6e1 8835 18aa a43f
000002c0: d279 15ce 088d 923f 0000 00c0 4f90 bc3f
000002d0: 2d88 9c5a 4ade c1bf 886e cbf9 c81c c6bf
000002e0: 0000 0000 4e8a 8a3f 0de1 49c2 ebdb aabf
000002f0: fb55 b276 daf3 ab3f 0936 597d a592 b1bf
00000300: 10ea 643c a353 b93f 0000 0000 9da1 b7bf
00000310: 54dc 51bf 7727 b9bf 483a 2553 e8d3 b5bf
00000320: 03a4 dadf 1825 543f c0f8 a6f4 8e36 acbf
00000330: da5c 02b1 0e84 a03f f684 6eb0 f1e8 963f
00000340: 656a 78a3 dedc 873f 2d21 8825 72ca bf3f
00000350: fa9a 4c12 7680 8ebf dcf1 725f bd34 c6bf
00000360: 0000 0000 4afb 893f 27eb 9024 35ef b13f
00000370: 9015 4ee7 ee79 973f 97b3 bd7e c8ad c03f
00000380: 8811 4bd1 e5ed a6bf 0000 0000 374a afbf
00000390: 12ec 34fd 4704 b5bf 596f 9b0f 73d3 90bf
000003a0: 970c e9b3 147d b1bf 7800 2c67 23d6 a83f
000003b0: b5b3 38e8 ec48 8fbf 605f 160d c670 bdbf
000003c0: 1f8e da87 b931 bb3f f1d6 6461 0e95 c3bf
000003d0: e522 85cc eb82 b63f 0000 0000 6295 b73f
000003e0: 593a 3e6c 3984 b53f 0c90 b7ae 2e39 bd3f
000003f0: cf62 adaa 64b9 ae3f 0000 0000 bdfe 98bf
-0.023394307753275907 0.052406045495403876 -0.0954146683216095 0.013235166668891907 -0.020265916376629736 0.023382821266909288 -0.06638862192630768 -0.044246748089790344
-0.07273711264133453 -0.0495768907822186 -0.015127554535865784 -0.0532976380293901 0.048315445689653874 -0.14623732853111707 0.03547733557187324 -0.0989334390488544
0.12334231137144576 -0.1681518942247643 0.04314721567871874 -0.1099620908498764 -0.04715263843536377 0.08560596763221141 -0.02260963651631698 0.04804271459579468
0.1472493916006884 -0.0333428829908371 -0.07103217475369857 -0.010946357246666519 0.07139272809914188 -0.13961191732057807 -0.03444542440451771 0.021333001461139894
-0.057813555002212524 -0.03116063023787181 0.05240273611399234 -0.004971405565097634 -0.05632600188329723 -0.07416805624961853 -0.03425891697406769 -0.03704369068145752
-0.12305627874336753 -0.15776132805159088 0.1266400487712747 0.03277561068534851 -0.09470455348491669 0.02639448838824688 -0.1639481962777106 -0.019986397682889123
-0.09204858384573583 0.14784848722738228 -0.1164550632238388 -0.01989637315273285 0.02598055496705398 -0.039669456205546585 -0.04342200034217192 0.0105724036693573
-0.04072966456363817 -0.046863749623298645 -0.01932463049888611 -0.10489036226218476 -0.06368716255389553 -0.07057252526283264 -0.10244912088331257 -0.059964388608932495
-0.04321661591529846 0.13713428003603373 -0.024117364691551575 0.14353525298463707 0.04936796573839859 0.045101356202124944 0.07374317858844853 -0.09376346636562005
-0.05709615349769592 -0.03553414230905031 0.09283962111647073 0.06211988855082855 0.089377321322392 -0.048286423087120056 0.11507313677824081 -0.0009809881448745728
-0.002176821231842041 0.039473116397857666 -0.08544768993549011 -0.14033459153349268 -0.10925917327404022 0.018415875236559014 -0.10243938973696794 0.04036021855830889
0.01811612851940387 0.11157701909542084 -0.13959626602542255 -0.17275345036511092 0.012959107756614685 -0.05245911356627362 0.054594828595480004 -0.0686438971544804
0.09893245911090554 -0.09230977296829224 -0.09825848027127054 -0.08526470212857717 0.0012295477785448934 -0.05510374771573501 0.03225751791722482 0.022372986215150235
0.0116517442357253 0.12418282905867235 -0.014893457826088408 -0.1734844890651307 0.01268632709980011 0.07005626814581643 0.02292607580922873 0.13030344189192242
-0.04478376560067249 -0.06111308932304382 -0.08209657604031431 -0.016431615665040897 -0.06831483261435022 0.048508745521758934 -0.015275812947118309 -0.11500203914181162
0.1062274891542576 -0.15298633342324977 0.08793519728818529 0.09212315082550049 0.08404883282330768 0.11415378346970345 0.06000818808997154 -0.024409249424934387

fc3.weight f8 [64, 128]
00000000: 2cd7 bfcc d7e1 993f fd98 a96d f040 b8bf
00000010: 0000 0020 80e8 b03f 0000 0000 e649 923f
00000020: b954 1bbc 56e0 adbf 38bc 4f88 a601 963f
00000030: 0000 0000 1476 633f 0000 0080 59fc b0bf
00000040: 0000 00c0 5905 aa3f 0000 0000 43c6 823f
00000050: 0000 0080 98fa b3bf 0000 00c0 18f8 ad3f
00000060: 859c e087 1cbe b5bf 0000 0020 95b3 adbf
00000070: 9671 1436 14a2 abbf 0000 0000 9e6e 993f
00000080: 1bbd dd90 4d24 b7bf 0000 0000 48c5 813f
00000090: 0000 0000 229e 99bf 0000 0020 4161 b6bf
000000a0: 0000 00c0 e6a3 b4bf 0d34 5e5b 363d bebf
000000b0: 0000 0080 5dc9 9ebf 0000 0000 708b 693f
000000c0: ddf7 15f6 12e9 b0bf 0000 00e0 279a b0bf
000000d0: 0000 0000 05ff 9d3f 0000 00c0 ddc7 ae3f
000000e0: 4d1a 00c2 166e c0bf 0000 0040 1b8d a43f
000000f0: 0000 00a0 fd4b b03f 0000 0000 c41f 8e3f
00000100: 0000 00a0 15b4 a0bf 0000 0000 cd8a 813f
00000110: 0000 0000 24a8 8dbf 0000 0060 bd02 b1bf
00000120: 0000 0080 57d6 97bf 0000 00a0 c571 a3bf
00000130: 0000 0080 ce6c 9abf 0000 0000 d29f 73bf
00000140: 0000 0080 4c10 913f 0000 0040 3475 a43f
00000150: 76bd d9bf ff6b 993f 0000 0040 b220 a53f
00000160: 0000 0000 1b85 8f3f 0000 0000 2e58 85bf
00000170: 0000 00c0 671e a4bf 0000 0060 f8b1 b0bf
00000180: 0000 00c0 c3d7 9fbf a4d4 72b3 33e3 84bf
00000190: 0000 00c0 06c3 ab3f 0000 0080 b5e6 9bbf
000001a0: ebc4 4d02 e431 863f 29f0 f928 8701 acbf
000001b0: 0000 0020 624c b53f 0000 0000 80ae a03f
000001c0: 0000 0040 bb82 af3f 0000 0000 8536 96bf
000001d0: 0000 00c0 73a4 b4bf 0000 0000 fda3 a6bf
000001e0: 0000 0000 c2f9 813f 0000 0040 34b4 a23f
000001f0: 0000 0040 8d66 a6bf 0000 0040 ea4d a2bf
00000200: 0000 0040 cd82 a43f 6e32 2956 b23c b2bf
00000210: 0000 0000 47e4 98bf fe05 de71 5cda b8bf
00000220: 3647 4d46 d6bc b6bf bb50 ab1b 053c bdbf
00000230: ad47 b909 9434 983f 0000 00c0 465a a73f
00000240: 0000 0060 78d9 b23f d5ff ebd3 a622 b3bf
00000250: 821f 2688 2533 a3bf 0000 00a0 daa3 aebf
00000260: 0590 f9d6 af23 81bf 0000 0000 4008 2abf
00000270: a31a 5282 6de9 aabf 0000 0080 9b39 b1bf
00000280: 0000 0080 27f1 a6bf 0000 0000 d41c 92bf
00000290: 0000 0080 5b78 b0bf 0000 00a0 5ca4 b13f
000002a0: 0000 0040 0741 a33f 0000 0060 eff5 a4bf
000002b0: 0000 0000 e8af 86bf 771f 2556 9375 c1bf
000002c0: 65a7 e2f7 1ea9 c1bf 0000 0080 2045 a6bf
000002d0: 0000 0000 82ac 83bf 0000 00a0 27fd adbf
000002e0: 0000 0000 8770 a7bf 0000 0020 1c18 b6bf
000002f0: 4767 77a9 5805 b3bf 0000 00e0 6b85 acbf
00000300: 58e7 4878 86f7 b1bf 0000 0020 6941 b53f
00000310: 0000 00e0 e340 abbf 0000 0040 256d ac3f
00000320: 0000 00c0 e10d a2bf 8026 db96 12f4 b9bf
00000330: 0000 0080 2a83 9e3f 0000 0020 7846 b6bf
00000340: 0000 00e0 ade9 a8bf 1d82 e3b1 ddca 97bf
00000350: 0000 00c0 4b7c aa3f 0000 0000 c6be 85bf
00000360: 0000 0000 f94b 8bbf fca5 a7f7 a088 c2bf
00000370: 0000 0060 4a00 a6bf 38c1 56de d380 acbf
00000380: f8d1 07f9 3f9a 9b3f 0000 00c0 481a af3f
00000390: 301f 2a40 a4e4 873f 0000 0000 d856 95bf
000003a0: 0000 0040 44ac af3f 0000 0060 8ec9 b5bf
000003b0: 0000 0000 6fb3 91bf 0000 0040 8980 9ebf
000003c0: 18fe b6f2 d124 7b3f 0000 00a0 f422 b63f
000003d0: 274f 5ef0 9ff1 b4bf 0000 00e0 f02b b5bf
000003e0: 604e caa5 fb0c bdbf 7f46 f1b3 a2cf b3bf
000003f0: 6ccc 99a9 33d3 b2bf 0000 0040 e279 afbf
00000400: 5c4a 7159 700c 793f 2d97 ce4a 0ce9 b0bf
00000410: 0000 00a0 bdc5 b2bf 0000 0080 6158 a8bf
00000420: 9e57 7b59 b484 c2bf 3c43 1831 d89f bcbf
00000430: 0000 0000 fc65 6f3f 0000 00a0 e0ce b1bf
00000440: 0000 0060 5730 a4bf a228 4ea8 3cd6 a03f
00000450: 0000 00c0 9f2a a63f 0000 0040 acb3 a33f
00000460: 6d48 32ec 0365 4cbf d631 7c3d d844 9a3f
00000470: e29e 2385 f03d b4bf dc0b c06c 13c8 963f
00000480: 0b78 d24a 9d7d 713f 1d5c 10b0 6831 973f
00000490: 11e0 4d0d d2d0 c03f 0000 00c0 fe0c a1bf
000004a0: 0000 0080 5f87 9a3f 6515 ca29 d3eb b2bf
000004b0: 1e3e 4191 5b76 ba3f 0000 0000 de0c 763f
000004c0: 9124 78a7 ba27 abbf 0000 0000 e8d6 87bf
000004d0: 0000 0000 7cb1 7dbf f536 e91d c5d8 a93f
000004e0: ce6a 5fce 4bb6 afbf d43a a98c aaa9 af3f
000004f0: 8720 42fd 8874 9bbf 37f7 d7c2 9a59 873f
00000500: 0000 0020 63af b53f fc2b e8b9 103d 67bf
00000510: 3736 c7b2 c8ca a43f 91b0 04a5 3969 c13f
00000520: f58f cdae c067 a33f 0000 00a0 4eae aebf
00000530: 0000 00a0 705f b53f 0000 0020 c538 b4bf
00000540: fd88 49b3 562b c2bf 4e39 21a7 0083 9e3f
00000550: 38f5 7f90 d8fd a03f 0000 0060 5bb9 b43f
00000560: 0000 0080 e0c6 b1bf 68bf 3ef8 472d b03f
00000570: 3479 9e06 96e1 aa3f bfb3 6a85 d97a a83f
00000580: 72e3 4298 4e99 a13f 55a7 0d05 1288 babf
00000590: 0000 00c0 dab7 a63f 0000 0000 20b9 6b3f
000005a0: 0bb6 bf9a 4c04 ab3f e850 0238 6b53 793f
000005b0: 5838 45d2 f6f5 a93f 0000 0020 b31f b03f
000005c0: 55b0 0974 64af 72bf 0000 0040 bdb6 a83f
000005d0: 0000 0080 e578 97bf 0000 0000 4c6f 723f
000005e0: 8c53 88b5 2cfc a43f 0000 0000 a824 693f
000005f0: c3b7 9ba2 6b70 c23f 0000 0040 d319 acbf
00000600: 0000 00e0 b3d7 b53f bc35 dfd5 6ede afbf
00000610: bc4a 3dcd 5af3 9d3f 05c1 5b4d 4e9f a1bf
00000620: 21f5 e107 df42 a93f bb1e 464b d90a 99bf
00000630: 0000 0000 2c07 71bf cb12 3f40 07a9 bc3f
00000640: 0000 0020 9a6f b13f 74b7 17cc 08d1 993f
00000650: b188 82c1 2880 913f 5598 6bd5 25bd b53f
00000660: 358a f319 8ee4 a6bf 0000 00c0 77c4 a8bf
00000670: 0a7b 0db6 0cef 6c3f 0000 0020 516b a3bf
00000680: 0000 0040 6fd8 aa3f 0000 0040 70da ae3f
00000690: 557c a70e 3c93 b83f e0b5 6010 267b 913f
000006a0: 0000 0000 f587 a13f 2d61 72ef 6ad2 bf3f
000006b0: b9b8 e99f f49f b23f df2f 1502 5110 b83f
000006c0: cb8a 0d82 b863 943f 0000 00c0 9cae a63f
000006d0: 677f 5740 684f b83f e606 6889 3630 b93f
000006e0: 0000 0080 7eda 913f 22af 17a6 5a5a 5cbf
000006f0: d9de c264 af10 b5bf dfa9 24f0 f95d 803f
00000700: 1252 a343 2818 b2bf 0000 00e0 c44f b53f
00000710: e18a 6b87 ed01 9b3f 9fab 0d26 dc21 87bf
00000720: fa27 62ba 90ec bd3f 4532 43f4 7e51 923f
00000730: f10b 3231 9e37 a83f 4fbe 1571 b22e ad3f
00000740: 4b4a 9176 44be 8bbf 033f ab50 0bcc 9ebf
00000750: 4396 0a9c b9c4 903f fd6c 738a 0d25 c13f
00000760: 0000 0000 2e6e 803f f524 0d85 54b8 b4bf
00000770: 97da 8f35 7250 b93f f85b ea96 687a 9bbf
00000780: 6ca0 d549 7334 ae3f 0000 0080 8d43 98bf
00000790: f6fb 7ceb b381 bfbf 0000 00e0 546e b53f
000007a0: ece1 03b9 1666 b2bf a590 5c4b bddf bb3f
000007b0: 0000 00c0 3bbc a23f 4510 7fbf 54fa b53f
000007c0: 3e4b 697f 8115 96bf 0000 0040 f2fd aebf
000007d0: d6e8 f606 156b b8bf 0000 0020 7102 b0bf
000007e0: 0000 0000 909f 933f f0ad cebd e275 a4bf
000007f0: bdee 4e92 2f46 aabf 0000 0000 03d9 8abf
0.02527558505240461 -0.09474089314753438 0.06604767590761185 0.01786002516746521 -0.05835219427323452 0.02149067122439538 0.0023756399750709534 -0.0663505494594574
0.050822071731090546 0.009167216718196869 -0.07804253697395325 0.058533452451229095 -0.08493212048834849 -0.058010730892419815 -0.05397093925623435 0.024836033582687378
-0.09039768969318056 0.008677065372467041 -0.02501729130744934 -0.0874214842915535 -0.08062593638896942 -0.11812152605689637 -0.03006502240896225 0.0031182467937469482
-0.06605642803148677 -0.06485223025083542 0.029293134808540344 0.06011860817670822 -0.12835964653659673 0.040139056742191315 0.06365952640771866 0.014709025621414185
-0.032623935490846634 0.008565522730350494 -0.01448085904121399 -0.06644805520772934 -0.02327858656644821 -0.03797738626599312 -0.02580568939447403 -0.004791088402271271
0.01666373759508133 0.03995669633150101 0.024826046070697903 0.04126507788896561 0.01539059728384018 -0.010422095656394958 -0.03929447382688522 -0.06521560996770859
-0.03109651431441307 -0.010198978341899263 0.05422230809926987 -0.027247272431850433 0.010837346382432908 -0.05469915747832516 0.08319676667451859 0.032581329345703125
0.061544276773929596 -0.021692350506782532 -0.08063434064388275 -0.04421988129615784 0.008777156472206116 0.03653109818696976 -0.04375115782022476 -0.03575069457292557
0.040060438215732574 -0.07123865703142382 -0.024308308959007263 -0.09708192615473618 -0.08881892410616107 -0.11419708180921166 0.02363807019566593 0.04561062902212143
0.07363083213567734 -0.07474749254106368 -0.03749959265684223 -0.05984385684132576 -0.008368848560344597 -0.00019861012697219849 -0.052562162550249945 -0.06728526949882507
-0.044808611273765564 -0.017688095569610596 -0.06433650851249695 0.06891421228647232 0.03760550171136856 -0.040938835591077805 -0.011077702045440674 -0.13640062052058585
-0.1379736624124305 -0.04349614679813385 -0.00960637629032135 -0.05857204273343086 -0.04578039050102234 -0.08630538731813431 -0.0743003286110283 -0.05570542439818382
-0.07018318592682016 0.08302933722734451 -0.053229447454214096 0.05552021414041519 -0.03526216000318527 -0.10138050253876862 0.029797233641147614 -0.08701277524232864
-0.04865783080458641 -0.02323480985876546 0.05172955244779587 -0.010617777705192566 -0.013328500092029572 -0.1447945794346167 -0.042970966547727585 -0.05567037667367675
0.026955604147547135 0.060747407376766205 0.011666568000932992 -0.02083909511566162 0.06186116486787796 -0.0851067528128624 -0.017286047339439392 -0.029787201434373856
0.006626911268028411 0.08647087961435318 -0.08181190126770997 -0.08270173519849777 -0.1134793548356412 -0.077387017184515 -0.07353518381732876 -0.061476774513721466
0.0061153782508705755 -0.06605603052466043 -0.07332978397607803 -0.0475492924451828 -0.14467481965283197 -0.11181403349497726 0.003832809627056122 -0.06956294924020767
-0.039431314915418625 0.0328844981623473 0.043293945491313934 0.03848017007112503 -0.0008665341523672717 0.025653246643786286 -0.07907012224643098 0.02224760390528134
0.0042701858739331395 0.022649417635047898 0.13137269639605667 -0.033302269876003265 0.025907032191753387 -0.07391090173958544 0.10336849495183073 0.0053833648562431335
-0.053037484114676244 -0.011640369892120361 -0.0072493404150009155 0.050481948758358465 -0.061937684003813595 0.061841325445689016 -0.026811733682308627 0.011401375838427803
0.08470744639635086 -0.0028367354091236568 0.04060961897230835 0.13602371747527234 0.03790094503236211 -0.05992360785603523 0.08348754793405533 -0.07899124175310135
-0.14194759134540638 0.029796610070030476 0.033186690940036845 0.08095332235097885 -0.06944087147712708 0.06319093523665986 0.05250233488844672 0.047812268768530945
0.03437276466997376 -0.10363876937267709 0.04437144845724106 0.0033841729164123535 0.052767175569766143 0.006183070014362559 0.05070468251015886 0.06298369914293289
-0.004561798472973851 0.04826918989419937 -0.022922120988368988 0.004500672221183777 0.04098643985722736 0.0030692368745803833 0.14405579986435954 -0.05488453060388565
0.08532261103391647 -0.062243903739367806 0.02924863698656098 -0.03441853231731965 0.0493383118746158 -0.024455447406153335 -0.004157230257987976 0.11195416754260205
0.06810916215181351 0.025211465317560536 0.017090451060206294 0.08491741619545341 -0.04471248690403621 -0.048373930156230927 0.0035319565071597657 -0.03792813792824745
0.05243251472711563 0.06026030331850052 0.09599662168283037 0.017071337461109226 0.034240394830703735 0.12430446954602266 0.07275322822690357 0.09399896908615755
0.019911654413031592 0.04430093616247177 0.094961658199734 0.09839192251822801 0.01743505150079727 -0.0017305264703919095 -0.08228584489813374 0.00799174560650767
-0.07068111087148335 0.08324842900037766 0.026374541654955123 -0.011295051490113837 0.11689095068336988 0.017889007242773997 0.047299331193265355 0.05699689512664163
-0.013546500080484544 -0.03007524185051037 0.01637544646168566 0.133943264582605 0.008022651076316833 -0.08093765495609147 0.09888376052536284 -0.026834139071606672
0.05899391437816423 -0.023695193231105804 -0.12307285784935104 0.08371477574110031 -0.07187025086376025 0.10888274278528572 0.036592356860637665 0.0858509986420027
-0.021566413308686132 -0.06053120642900467 -0.09538394374877454 -0.06253726035356522 0.01916337013244629 -0.039961896581498624 -0.051316725358871086 -0.013109229505062103

fc3.bias f8 [64]
00000000: bc92 9d4c 6e9c bcbf 0341 5db1 eb5f a23f
00000010: 5828 cbda d83b 633f 40ad da29 bfad b43f
00000020: d474 cf1c 6f9d c0bf bd07 7e8f 2f99 aa3f
00000030: 3337 13ed a963 a1bf ec01 e01f b8ff b8bf
00000040: 0000 0000 5e72 99bf c616 3f63 b80b bd3f
00000050: 0000 0000 9df7 9b3f 400a 1f97 4dbd c23f
00000060: 0000 0020 3832 b0bf 6c5f 62e4 50f6 c13f
00000070: 6831 97e4 063d abbf 0623 6154 0463 b0bf
00000080: b2ca ef36 ef72 ba3f 2f1b cff9 ccff adbf
00000090: d07c 5e1a c752 c63f 0000 0020 2b5a b53f
000000a0: 0000 00a0 4b9e afbf 58ed b2cf 339c b9bf
000000b0: dd5d c996 068d c1bf 3b24 d140 8951 9f3f
000000c0: f2f2 5cfb 563d cc3f f41a 3002 ef60 bb3f
000000d0: c63e 4099 7f8b c1bf 0000 00a0 f76e b4bf
000000e0: 99f7 a0ec 4cff bf3f 55d7 fc7a 2a44 c2bf
000000f0: f08b 90b5 af52 b3bf 0000 0000 b16c 91bf
00000100: 0000 0020 9c2d a9bf 0000 0080 dac5 a6bf
00000110: 938a 7464 65e7 9cbf 0000 0040 ffa3 b5bf
00000120: 3474 5294 47ae aebf 0000 0040 4791 b3bf
00000130: 0000 0000 ec8d a7bf 0000 0000 c438 82bf
00000140: b289 01de 8dd2 a8bf c8c7 1c2d 3206 c0bf
00000150: 2268 f6e2 6129 963f 9538 22d6 5c9a c1bf
00000160: 494f 93c3 4dc0 87bf 7e19 7cbb 1234 bbbf
00000170: dcdf 8e2e 6e5a b5bf bae6 e92d c7fb 9dbf
00000180: 1057 8b20 c518 b1bf 0de3 2e41 b041 a7bf
00000190: 9bf2 8ca3 d4bd bb3f 082e 5c07 1e96 793f
000001a0: e287 f210 75a5 ae3f a5a1 c27d 27b9 b93f
000001b0: 6301 fa97 fbb5 afbf 63f2 399c 442f aebf
000001c0: e8c8 d2e8 e847 c13f 906e 2fa2 78a9 843f
000001d0: 1494 6178 e4d7 a6bf 6607 9ae3 5a24 b4bf
000001e0: 7566 a499 5a6e bc3f 4e09 27bd 0f07 c03f
000001f0: 0e76 8ecf 8750 c1bf 2c3b 457c af6b b73f
-0.11176194544311618 0.03588806667414881 0.0023478732531190642 0.08077616473990634 -0.1298045054126421 0.051949964777136405 -0.0339634992502468 -0.09765196588705977
-0.02485033869743347 0.11346008704193897 0.02731175720691681 0.1464020717522363 -0.06326628476381302 0.14032946731162654 -0.053199973491788566 -0.06401087818188608
0.10331626025417043 -0.058592229360831964 0.17440117633393593 0.08340711146593094 -0.06175457313656807 -0.10003970928931005 -0.1371162639868392 0.030584473210442758
0.22062194131458274 0.10694783976951411 -0.13706965430218626 -0.0798182263970375 0.12498932625837113 -0.14270525937325354 -0.07548044378977159 -0.01701618731021881
-0.04917610064148903 -0.04447825253009796 -0.02822645593290447 -0.08453364670276642 -0.05992339788029036 -0.07643552124500275 -0.046004652976989746 -0.008897334337234497
-0.048481400823919954 -0.1251890869403367 0.021642236211484207 -0.13752327399965183 -0.011597259074200077 -0.10626332356705423 -0.08341110836670346 -0.029280769517277185
-0.06678421062983042 -0.045423038441589104 0.10836533539709096 0.0062466786382731135 0.059856088942310995 0.10048147983855545 -0.06193529348547846 -0.05895437628803248
0.13500701301888474 0.010088865708829858 -0.044615878767935296 -0.07867973381692436 0.1110588669875144 0.12521549926720826 -0.13527009615511115 0.09148690017648836
