src/backend/controller/checkpoints/checkpoint_epoch_117.pth (torch, 420244 bytes, 25 tensors)

fc1.weight f8 [64, 5]
0	0x3fc5fa4bc84fd9ad	0.1717009285054706
1	0xbfddb31d8251c2da	-0.46405732847692394
2	0x3fcfe7a9644bc471	0.24925725362075782
3	0xbfc7dc4f21aa28af	-0.18641080039771427
4	0x3fbb4d20d096d97b	0.10664563267241604
5	0xbfc4288740000000	-0.15748682618141174
6	0xbfd24cb4a0000000	-0.2859317362308502
7	0xbfdac41960000000	-0.4182189404964447
8	0xbfce277ec0000000	-0.23558029532432556
9	0x3fba497600000000	0.102683424949646
10	0xbfcae6cb1f9fc917	-0.21016825718067686
11	0x3fb4e9dc95c766ed	0.0816934457465341
12	0xbfd8a642334c1814	-0.38514761933800057
13	0x3fdb3779a249a338	0.4252609333839703
14	0x3fb230a8175ff5e2	0.07105494089770262
15	0x3fd2b3e300000000	0.29222941398620605
16	0xbfc07d2140000000	-0.12881866097450256
17	0xbfd1032180000000	-0.2658160924911499
18	0xbfd7520880000000	-0.36438190937042236
19	0xbfb5e70380000000	-0.08555623888969421
20	0xbfc4ff4bc0000000	-0.16404101252555847
21	0xbf8a2da400000000	-0.012782365083694458
22	0x3fd9654240000000	0.3968053460121155
23	0x3f93ab9800000000	0.01920926570892334
24	0xbfda0d1c40000000	-0.4070501923561096
25	0xbfc40bacb3608b74	-0.15660628088616202
26	0x3fd71d7ab236d962	0.3611742725728587
27	0x3fd858d9da590886	0.38042303393388754
28	0x3fb7dd642e94d1d3	0.09322191369285031
29	0xbfd6d02cb6b84692	-0.35645597308858
30	0xbfcc12b461ee927a	-0.21932081968147427
31	0xbfd1e7e626e6508e	-0.27977899359508107
32	0x3fd1e012729d16b8	0.27930127327668286
33	0x3fd0017a71a58b32	0.2500902280645959
34	0x3fd9cf5074e2a0fe	0.4032784596879678
35	0x3fd7ec50c0000000	0.37379854917526245
36	0xbfda694480000000	-0.41267502307891846
37	0xbfb6651080000000	-0.0874796211719513
38	0xbfd48f5840000000	-0.3212490677833557
39	0x3fb6020000000000	0.085968017578125
40	0x3fc83c9a215fea5c	0.18934942845938252
41	0xbfd0125cdabdbbe0	-0.25112077104034647
42	0xbf7b0d33188c7696	-0.006604384988148878
43	0x3fbdf53ce7d98375	0.11702328358070509
44	0x3fd011b4e49d2567	0.2510807259137295
45	0x3fd3641376b0455f	0.3029831561153368
46	0x3f962c8308ec2721	0.021654174251160122
47	0x3fb15c68623638cb	0.0678162803435242
48	0xbfd9c5fc860fb3c3	-0.40270913211753284
49	0x3fbcb890e03a5e59	0.11219125246349772
50	0xbfd4a3c50c98b4db	-0.3224957106602468
51	0xbf98c5a0c8e7a30c	-0.024191391241319457
52	0x3fd919d1b480b876	0.3922008764956283
53	0x3f6dcedaf31d1ce9	0.0036386753426175156
54	0x3fc18246de29e891	0.1367882332595554
55	0x3fd0a832846f646a	0.26026595051877754
56	0x3fc88dcd39b09d16	0.19182744328393458
57	0x3f5c281509272a57	0.0017185407092365124
58	0x3fd3538e865fd588	0.30197489855284987
59	0xbf7ad319eff502d5	-0.006548978154854186
60	0xbfc448db80000000	-0.1584734320640564
61	0x3fba708500000000	0.10327941179275513
62	0xbfd6b83380000000	-0.35499274730682373
63	0x3fd3168c80000000	0.29825127124786377
64	0xbfc9870540000000	-0.19943299889564514
65	0xbfd4cc622e0e35b0	-0.32497457978828503
66	0x3fcecd2b5488246f	0.24063626887826525
67	0x3fdc335788407eed	0.44063366227963635
68	0xbf81782319f04979	-0.008529924611171623
69	0x3fd28e9d946abc04	0.2899545621284576
70	0xbfd66b8dafebb928	-0.3503145425774101
71	0x3fcf074e2db978fa	0.24241044266359052
72	0xbfbf223c2c5974cc	-0.12161613543271982
73	0x3f93596122cc2706	0.01889564299475579
74	0xbfb3cf000d0536bb	-0.07737732236747778
75	0xbfd204caa0000000	-0.28154245018959045
76	0xbfd90499c0000000	-0.39090579748153687
77	0xbfd1fa7e40000000	-0.2809138894081116
78	0x3fd95630c0000000	0.3958856463432312
79	0x3fc04c8800000000	0.1273355484008789
80	0x3fc6e33431d2ef3c	0.17880871231852236
81	0xbfa135fe427d6ee6	-0.03361506044049438
82	0x3fcbe0ae0bffee91	0.2177941855041934
83	0xbfa17016337deb7b	-0.03405827883303566
84	0x3fc013d9fc9b24cf	0.12560582002905682
85	0xbfaca2c96e85e186	-0.055929465047429835
86	0x3fd82f0f729d1e9b	0.37787233536480763
87	0x3fc32ab4e8d011be	0.14974080436526366
88	0x3fbfaba67ae453d7	0.12371292591372139
89	0x3fcef5543a4c3705	0.24186184736793606
90	0x3fcd812080000000	0.2305031418800354
91	0xbfc6dee0c0000000	-0.17867669463157654
92	0xbfdb4c6980000000	-0.4265388250350952
93	0x3fa7d42d00000000	0.046540647745132446
94	0xbfd2233d80000000	-0.28340089321136475
95	0x3fb76633e91d465e	0.09140324059742386
96	0x3fb1f2da5a4718c1	0.07011189178510603
97	0x3fbfe673817be7cf	0.1246101561663686
98	0x3fd141a1dfc7333e	0.26963087895710547
99	0xbfc8c041ececcb51	-0.19336723393061075
100	0x3fe0998e3ea9e328	0.5187445854090571
101	0xbfd91f4ad92e078e	-0.3925349350830566
102	0xbfd2292896cc50e6	-0.28376211859109757
103	0x3fd0075d54317522	0.25044949743262823
104	0xbf8ee8ddfa14a966	-0.015092596239430999
105	0x3fc9b45f80000000	0.2008170485496521
106	0xbfcdd7d000000000	-0.23314857482910156
107	0xbfaae2ed00000000	-0.052512556314468384
108	0xbfc343f100000000	-0.15051090717315674
109	0xbfd027f300000000	-0.2524383068084717
110	0x3fdb511f40000000	0.4268262982368469
111	0xbfc98f40e0000000	-0.1996842473745346
112	0xbfd3d18280000000	-0.30966246128082275
113	0xbfda45af40000000	-0.41050320863723755
114	0xbfda46c9a0000000	-0.41057053208351135
115	0x3fc7d2c67cff3b3d	0.1861198530518439
116	0x3fd503f412dcff6a	0.3283662971698421
117	0xbfac28d22ae2d4c3	-0.054998939261545775
118	0xbfde50d42a87fda0	-0.47368339684904903
119	0x3fc6088c3e3a72dc	0.17213585890285443
120	0xbfbded0f00000000	-0.11689847707748413
121	0xbfd8b6bce0000000	-0.3861534297466278
122	0x3fd8779a80000000	0.3823000192642212
123	0x3fc1621480000000	0.1358056664466858
124	0xbfcf462520000000	-0.24432815611362457
125	0xbfd2c1db3e693c7f	-0.29308205694992034
126	0x3faf4c576f9b94dd	0.061129314779273726
127	0xbfd61fbc61386fef	-0.3456870030802283
128	0x3fc828b3fc388d81	0.18874215903734284
129	0xbfd52585109f4b20	-0.3304150259329379
130	0x3fd6de8e00000000	0.3573336601257324
131	0xbfbd75e580000000	-0.11508020758628845
132	0x3fb55c7700000000	0.08344215154647827
133	0xbfdbb0c0c0000000	-0.4326631426811218
134	0xbfb32a1280000000	-0.07486072182655334
135	0xbfb02ea600000000	-0.06321179866790771
136	0xbfc009dd40000000	-0.1253010332584381
137	0xbfaf07b000000000	-0.060605525970458984
138	0xbfb2adbd80000000	-0.07296356558799744
139	0x3fd42570c0000000	0.3147851824760437
140	0x3fab17c65da5b0c9	0.05291576283602379
141	0xbfcac6cc0ab47235	-0.20919180414866081
142	0x3fcfb142ba4eefa1	0.24759706589781863
143	0x3fc3275b4b6e5cc8	0.14963856871756875
144	0xbfd30a2716de911f	-0.2974946711858752
145	0xbfc1f1d900000000	-0.14019310474395752
146	0xbfbf608880000000	-0.12256672978401184
147	0x3fd6096880000000	0.3443242311477661
148	0xbf8bff2800000000	-0.013670265674591064
149	0x3fc1659000000000	0.1359119415283203
150	0xbfc3e10e80000000	-0.1553056836128235
151	0x3fcb704080000000	0.21436315774917603
152	0xbfb8635e00000000	-0.09526622295379639
153	0x3fc8a01500000000	0.19238531589508057
154	0x3fa1f78d00000000	0.035091787576675415
155	0x3fc8d98180000000	0.19413775205612183
156	0x3f9103a400000000	0.016615450382232666
157	0xbfd4bdf880000000	-0.32409489154815674
158	0xbfd96889c0000000	-0.39700549840927124
159	0xbfd1d09740000000	-0.2783563733100891
160	0x3fa856563f4d1256	0.047533698298626234
161	0x3fc52306ba4f6bd7	0.16513141724757815
162	0xbfcde532e8bf3561	-0.23355709423632745
163	0x3fcaec1eda6efc90	0.21033082643223056
164	0x3fd40cab65579aaf	0.31327328583430875
165	0x3fc2784baac44ab1	0.1442961295911878
166	0xbfd40483f72f04bc	-0.3127756036665905
167	0x3fa9fc5c9128cc67	0.05075349113430932
168	0x3fcc02004af641c4	0.21881107006312395
169	0x3fd883dfb9731fd5	0.3830489455253859
170	0xbfd191cb00000000	-0.2745234966278076
171	0x3fadf6f400000000	0.0585247278213501
172	0xbfc0a04500000000	-0.129891037940979
173	0x3fcb790000000000	0.214630126953125
174	0x3fac667c00000000	0.055469393730163574
175	0xbfd8793520000000	-0.38239791989326477
176	0xbfb4eae080000000	-0.08170893788337708
177	0x3f9fbf0800000000	0.031002163887023926
178	0xbfd7095e00000000	-0.35994672775268555
179	0xbfd9241620000000	-0.3928275406360626
180	0x3fdb7bef1b0d7514	0.4294393314538223
181	0xbfc0f3ffd70521a8	-0.1324462699797213
182	0xbfd7151689c705be	-0.36066211180522234
183	0x3fab6a6c30f385f1	0.05354631516980735
184	0x3fcd1837642edba4	0.22730152503728818
185	0x3fd494f44fd83467	0.3215914516193323
186	0x3fb5ae2f2127a170	0.08468908843463452
187	0x3fcd99794b1a6086	0.23124614874973676
188	0x3fd05191e9275b6a	0.25497863549155986
189	0x3fd7da58fae7aa8a	0.3727018785709012
190	0x3fd08c6e6ad5aff0	0.2585712474162838
191	0xbfc143c6200f7e19	-0.13488079610304807
192	0xbfd164bcd9ad3136	-0.27177354104493945
193	0xbfc99a22ddfb77f4	-0.20001636351565788
194	0xbfbc85cfc340635c	-0.11141680256731717
195	0xbfd48b1a303c8c04	-0.3209901305255587
196	0xbfd1e8dd41b93b47	-0.27983790796581726
197	0x3fe04c550fd66652	0.5093179044080876
198	0xbfc44005692740e4	-0.15820377001228458
199	0x3fd40e4f88dc5ddf	0.3133734547168085
200	0x3fdca28502f499ae	0.4474194077360164
201	0xbfc079675edb1d93	-0.12870494968067855
202	0xbfd988df94a27f18	-0.39897908702003937
203	0x3fd9e2f006d1facd	0.4044761721233215
204	0xbfb3e588e800d588	-0.0777211729444699
205	0x3fb0fe1700000000	0.06637710332870483
206	0x3fc4448500000000	0.15834105014801025
207	0xbfc4852280000000	-0.1603129506111145
208	0xbfbd61bf80000000	-0.11477276682853699
209	0xbfd7ff0c60000000	-0.3749419152736664
210	0x3f98d4dc00000000	0.024249494075775146
211	0xbfc0415d40000000	-0.1269947588443756
212	0xbfcd6e9dc0000000	-0.22993823885917664
213	0x3fc5a90800000000	0.1692209243774414
214	0xbfb4ba4600000000	-0.08096730709075928
215	0x3fc28e8671f7f43c	0.14497452320930104
216	0xbfa3a9e68deb0a10	-0.0384056137313743
217	0xbfdb872b81c42369	-0.43012511894681055
218	0x3fcbdd2e07814400	0.21768737188770615
219	0xbfc22bf7726513ae	-0.14196675382313856
220	0xbfbe94c2dd8b7567	-0.11945741566474553
221	0x3fdd546380bbb601	0.4582756764565091
222	0x3fda783266d8ec00	0.4135862354630149
223	0x3fd26e7eb08104a5	0.2879940723106052
224	0xbfd615833eb298e9	-0.34506302950684514
225	0xbfe0f927e2cc423d	-0.5304145269056516
226	0xbfa5256d156dece5	-0.04130116354550654
227	0xbfd5a8a2470b4013	-0.33841759622464557
228	0x3fd65e3faac3ad35	0.34950248409468837
229	0x3fd083181590977a	0.25800134759844406
230	0x3fcb6b491b141636	0.21421159574690457
231	0xbfcf8ba9f85ae2d0	-0.24644970537862898
232	0x3f568222fb90222b	0.0013738004329316804
233	0x3fd1dfca2e60b400	0.27928404358937087
234	0x3fc429f60db7c43f	0.1575305525762207
235	0x3fb62667f674aecb	0.08652353064524758
236	0x3fd5d31f528add5a	0.34101088581833994
237	0x3fb8fe93c70c38c7	0.09763454064907072
238	0x3fd7a61a235e28b9	0.36951306775939546
239	0xbfb42eb485dc76ad	-0.07883766429992063
240	0x3f77e57560540d3e	0.005834063054183601
241	0x3fd1718a59517a71	0.27255495760429144
242	0x3fd800d38c460ea8	0.37505043696021767
243	0x3fc59363ee1221d2	0.16856049656440902
244	0xbf8a84f388010071	-0.012948896968851127
245	0x3fb2078500000000	0.07042723894119263
246	0xbfb9034f00000000	-0.09770673513412476
247	0xbf9bdd8c00000000	-0.027212321758270264
248	0x3fcd0ced80000000	0.2269570231437683
249	0xbf89036800000000	-0.012213528156280518
250	0x3fccd6ef2f11a594	0.22530927465713246
251	0xbfd3d206a286bc0f	-0.30969396468839333
252	0xbfd2eb61d22f8d98	-0.2956165840716607
253	0x3fb5e4dbae5fe129	0.08552334792318973
254	0xbfcc44bc9b782b28	-0.22084767905502045
255	0x3fbc76c4fcf87c9d	0.11118727851907058

fc1.bias f8 [64]
0	0xbfd07bf1bd4f348b	-0.2575649594044271
1	0x3fc4dbbe80000000	0.16295605897903442
2	0x3fd2abc0f553299c	0.2917330165625118
3	0x3fb083fe00000000	0.06451404094696045
4	0xbfd8a4e500000000	-0.38506436347961426
5	0xbfc6c308b2ea37ac	-0.17782696472243964
6	0xbfcad061befb5dac	-0.20948430848396293
7	0xbfd18a4b60000000	-0.2740658223628998
8	0xbfda6417257e84e8	-0.41235903417152864
9	0xbfb03d35c48167d8	-0.0634339909314855
10	0x3fc24b751d6bdf23	0.14292777954664712
11	0xbfbbd82bcfda07be	-0.10876725983146593
12	0xbfca1b0d40000000	-0.20395055413246155
13	0xbfd0fa8e3a4b7a94	-0.2652926987920321
14	0xbfba1b6e122703c5	-0.10198104804204806
15	0x3fcb36a380000000	0.21260493993759155
16	0xbfc935d684f18396	-0.1969555043351902
17	0xbfb13628198b0048	-0.06723261474235287
18	0xbfcc602f40000000	-0.22168532013893127
19	0xbfced2d7af57b60d	-0.24080940305377432
20	0x3fb30ba2ea575155	0.07439630719392672
21	0x3fac574a00000000	0.05535346269607544
22	0x3fa63d9800000000	0.04343867301940918
23	0xbfba26f4d7441437	-0.10215692763820604
24	0xbfd06eaee0000000	-0.2567555606365204
25	0x3fcabdb4cf8ba611	0.2089143765836501
26	0xbfd7cf8cc0000000	-0.37204283475875854
27	0xbfcff34560000000	-0.24961154162883759
28	0xbfd046ad19d7fc85	-0.2543137314205029
29	0xbfd5b36b80000000	-0.3390759229660034
30	0xbfd4fb0ea0000000	-0.32782331109046936
31	0xbfc40220c0000000	-0.1563149392604828
32	0xbfc4980749e52ea4	-0.1608895407501808
33	0xbfdcc8a9ea25a246	-0.4497475420562619
34	0xbfc13cbd80000000	-0.13466614484786987
35	0xbf73036000000000	-0.004641890525817871
36	0xbf9d34102fc79722	-0.02851891795753326
37	0x3fce83ea0fb3bfc1	0.2384007050200108
38	0xbfbc98c5534d71bf	-0.11170609744789937
39	0x3fb76da92382fd66	0.09151703946098663
40	0xbfa752cf2d6dcd95	-0.04555365972091888
41	0xbfca783ce0000000	-0.2067943662405014
42	0x3fa0047f00000000	0.03128430247306824
43	0x3fd52c2aecc6531e	0.33082078096895084
44	0x3fd10e419e5db672	0.2664951368850331
45	0x3f91bd6ca94e5b19	0.017324159463522813
46	0xbfdf216e3e94d888	-0.48641544448344876
47	0xbfa36fc0818b3744	-0.037961974919751756
48	0xbfc315d07f1b699d	-0.1491032238616982
49	0xbfdc691be0000000	-0.44391533732414246
50	0x3fe07561a69ec9fe	0.5143287901212827
51	0x3fd8bd651aa1ed67	0.3865597496112145
52	0x3fa9770888e89c03	0.04973627730606014
53	0xbfd0b5b420000000	-0.26109030842781067
54	0xbfd49eebe0000000	-0.3221997916698456
55	0x3fab82d600000000	0.05373257398605347
56	0xbfd16126013ce101	-0.27155447121505466
57	0xbfa725d61b93b6d6	-0.04521054350503355
58	0xbfd27f1a80000000	-0.2890077829360962
59	0xbfdb01be3a309322	-0.4219813888797025
60	0xbfd0c8c900000000	-0.2622549533843994
61	0xbfca7881e0985ac1	-0.20680259195861164
62	0xbfd2e5c18105a85c	-0.29527318572821115
63	0x3fdb276f4c608b04	0.42428190668776744

fc2.weight f8 [128, 64]
0	0x3fc57beb33a6c38a	0.16784420034448672
1	0x3fa8d37b80000000	0.04848848283290863
2	0xbfcd6fc64d23ec24	-0.2299735905324677
3	0x3fb540ed80000000	0.08302196860313416
4	0xbfb3f9a7c0000000	-0.07802818715572357
5	0x3f98ad4652530513	0.02409849050014141
6	0xbfb8f98db7f8dcf3	-0.09755788556582327
7	0x3fb5832ec0000000	0.08403293788433075
8	0xbf85629ff95d251d	-0.010442018315773677
9	0xbfbba29b33759c94	-0.10794992452939517
10	0x3fcb949d684cff19	0.21547286598978913
11	0xbf781b69c4b59777	-0.005885518224521983
12	0x3fa762e000000000	0.045676231384277344
13	0x3fc778dbe0c8fc85	0.18337582088313212
14	0x3fae1b7f1008ca97	0.05880353041392999
15	0xbfbd6edd80000000	-0.11497291922569275
16	0x3fb16f58323ec270	0.06810523249328937
17	0xbfa58328972bcc4d	-0.0420162853751199
18	0xbfb9da7e80000000	-0.10099020600318909
19	0x3fb159206a3e06fb	0.06776621431165701
20	0xbfdd7a7687698be1	-0.46059954856735713
21	0x3fbfe46200000000	0.12457859516143799
22	0xbfb16f1700000000	-0.06810134649276733
23	0xbfb16944314127de	-0.06801248743536756
24	0x3fab41db80000000	0.05323682725429535
25	0xbfae499a165100bd	-0.05915528795640188
26	0xbfbe08a700000000	-0.11731952428817749
27	0x3fbc932d80000000	0.11162075400352478
28	0xbfa49fc521e48062	-0.040281448733595196
29	0x3fbeee6740000000	0.12082524597644806
30	0xbf9a2eab00000000	-0.025568649172782898
31	0x3fa09e0880000000	0.032455697655677795
32	0x3fb4e9f519304135	0.08169490685418597
33	0x3fb318f53c511d41	0.07459957811908159
34	0x3fafd07f00000000	0.06213757395744324
35	0x3fb45ad740000000	0.0795111209154129
36	0xbfb022c930a412f6	-0.06303079068682024
37	0x3fc17f56f2533b52	0.1366985972622055
38	0xbfb1dda37015c97e	-0.06978818403675821
39	0x3fb2d38b0062d1ae	0.07354038962768669
40	0xbfc99557f4a9a484	-0.19987010427874818
41	0xbfb8bca940000000	-0.09662874042987823
42	0xbfac6f6780000000	-0.055537447333335876
43	0xbfc566a537ab9dab	-0.16719498842506417
44	0x3fc21cc8f8c01a3c	0.14150344987884178
45	0x3fc31a1e2a363cd0	0.14923455296636812
46	0x3fbac96c715ddeb3	0.10463598029843517
47	0x3fc32f55fe1fcedb	0.14988207729731226
48	0xbfa053058bf87315	-0.03188340505241719
49	0xbfbe851040000000	-0.1192178875207901
50	0xbfcca0175b2d9885	-0.22363559677177505
51	0x3fb5c050bce99aed	0.08496574985620571
52	0x3fc06544ca65abe2	0.12809047587083372
53	0xbfa35c3900000000	-0.0378129780292511
54	0x3fa6a6c280000000	0.04424102604389191
55	0xbfb2f88300000000	-0.07410448789596558
56	0xbfa315a54aa3e7ca	-0.03727451835761959
57	0x3fd1c08f566194fc	0.2773779243055541
58	0xbfaf5fbb00000000	-0.06127724051475525
59	0x3fcf87ed88f98019	0.24633568943227216
60	0x3f959b3100000000	0.021099820733070374
61	0xbfa2a33538d571b5	-0.03640142744800149
62	0x3fbfe8140bf94ad0	0.12463498394326256
63	0xbfcce99aa612e339	-0.22587903126784584
64	0x3fc2d4d444963a53	0.14712003087011513
65	0x3fa8580e00000000	0.04754680395126343
66	0xbfacb05059f41432	-0.056032668095248886
67	0xbfbd74b280000000	-0.11506190896034241
68	0x3fb93d1500000000	0.09858828783035278
69	0x3fc7c20ca6ec00d2	0.18560941839678563
70	0x3fb3ab04c69dbb57	0.07682828759219028
71	0xbfa0285e00000000	-0.03155797719955444
72	0xbfbf94c508ff5ffc	-0.12336379499117806
73	0x3fc19b9c91516982	0.1375613889275194
74	0x3fbf396f7f0f351d	0.12197014667545543
75	0x3fc2c149d0959298	0.146523691985881
76	0xbfb1ff7000000000	-0.07030391693115234
77	0x3fc078792b36b5ea	0.128676553821989
78	0xbf7173f7ebe16765	-0.004260986750603245
79	0xbfad186900000000	-0.05682685971260071
80	0x3fbe91d0d5d20b4d	0.11941247196413692
81	0x3fc1138012a712f4	0.13340760145924657
82	0x3f91da6200000000	0.017434626817703247
83	0x3fc26a9a18ae8ace	0.14387823300520214
84	0xbfdcb13e11a60665	-0.4483180210446334
85	0x3fbf7b6200000000	0.12297642230987549
86	0xbfbea010c0000000	-0.11962990462779999
87	0x3fb02f9c56c0bf55	0.06322648160926055
88	0x3fa8fdea80000000	0.048812225461006165
89	0x3f88e5ee8c98f09f	0.012157310167019651
90	0xbfb331e240000000	-0.07497991621494293
91	0x3f8952cc00000000	0.012364953756332397
92	0xbfc0071d30b9b7e3	-0.1252171028058334
93	0xbfba802540000000	-0.10351784527301788
94	0x3fbb5a2000000000	0.10684394836425781
95	0x3fb5a48ac0000000	0.08454196155071259
96	0x3faf5d11a8d33919	0.061256934984714025
97	0x3f81df3bd6f4739d	0.008726565835383055
98	0xbfb0e51480000000	-0.0659954845905304
99	0x3fb1cbd7c0000000	0.06951664388179779
100	0xbfc9f7c19f63d32a	-0.20287342341148334
101	0xbf80c049ce6ab84f	-0.008179260837405304
102	0xbfab751fdb0ba58d	-0.05362796353240205
103	0x3fa87a5a0d08bae3	0.04780846985919653
104	0xbfcbbe48542e5967	-0.21674446211245454
105	0xbf98a68200000000	-0.02407267689704895
106	0x3fab0b7e00000000	0.0528220534324646
107	0xbfc222bf7a01812f	-0.14168542344396814
108	0x3fc30c0e4e91cc09	0.14880541645433734
109	0x3fb7be5935bc6757	0.09274823724663626
110	0xbfb285518175eaa0	-0.07234677706393677
111	0x3f96a5c61f83a67e	0.02211675231311582
112	0x3fbbe7c2c8367406	0.10900514019017757
113	0xbf95a92b00000000	-0.02115313708782196
114	0xbfd702bb61519216	-0.359541745221834
115	0xbf90e925fefcf3b1	-0.016514390648115277
116	0x3fb7a48adcc840a4	0.0923544682520992
117	0xbf517af000000000	-0.0010669082403182983
118	0x3fa4d55700000000	0.04069015383720398
119	0xbfa3228880000000	-0.03737284243106842
120	0x3fb2b3a081c9e924	0.07305339020414131
121	0x3fd8d0a85a1ded04	0.38773545074919036
122	0x3f99621900000000	0.024788275361061096
123	0x3fb2ad1126702004	0.07295329273631529
124	0x3fb362ef40000000	0.07572837173938751
125	0xbfa21de63dfc083b	-0.035384364191501004
126	0xbf94fd04c80524ea	-0.020496439655549738
127	0xbfd224bd1ababce5	-0.28349235163018555
128	0x3faa422180000000	0.05128578841686249
129	0x3fbd5c6bc0000000	0.11469148099422455
130	0x3faccf1900000000	0.05626752972602844
131	0xbf957f9100000000	-0.020994439721107483
132	0xbfa7421f00000000	-0.04542633891105652
133	0x3f990aeb00000000	0.024455711245536804
134	0x3f98444800000000	0.023697972297668457
135	0xbf9f04c200000000	-0.030291587114334106
136	0x3fbdb363c0000000	0.11601851880550385
137	0x3fbda7a980000000	0.11583957076072693
138	0x3f8d86bc00000000	0.014417141675949097
139	0xbfa2c37980000000	-0.036647602915763855
140	0x3fbf4a42c0000000	0.12222687900066376
141	0x3fb7b0cb00000000	0.0925413966178894
142	0x3f8555da00000000	0.010417655110359192
143	0x3fbdbc1740000000	0.11615128815174103
144	0xbfb7e5e940000000	-0.09335191547870636
145	0x3f67e92800000000	0.0029187947511672974
146	0x3fae3b8a80000000	0.059048011898994446
147	0x3f8274f800000000	0.009012162685394287
148	0xbfbb640840000000	-0.1069951206445694
149	0x3faa555d80000000	0.0514325350522995
150	0x3f85d2bc00000000	0.010655850172042847
151	0x3fa4ea7100000000	0.04085114598274231
152	0xbfabe73200000000	-0.054498255252838135
153	0xbfa4c6ed00000000	-0.040580183267593384
154	0xbfb3c8cd40000000	-0.07728274166584015
155	0xbfa1ce2b80000000	-0.034776076674461365
156	0x3f7ba5f800000000	0.00675007700920105
157	0x3fa6613d00000000	0.0437106192111969
158	0xbf9b64d400000000	-0.026751816272735596
159	0xbf792b2400000000	-0.006144657731056213
160	0x3f81be0800000000	0.00866323709487915
161	0xbf9502f900000000	-0.020519152283668518
162	0x3fb4800600000000	0.08007848262786865
163	0xbf8f40ae00000000	-0.015260085463523865
164	0x3fb4a106c0000000	0.08058206737041473
165	0xbfaf20c880000000	-0.06079699099063873
166	0x3fb8585580000000	0.0950978696346283
167	0x3fa926a300000000	0.049122899770736694
168	0x3f9798ee00000000	0.023044317960739136
169	0x3f8bff3600000000	0.013670369982719421
170	0x3f94cc5900000000	0.020310774445533752
171	0x3fbc160380000000	0.10971090197563171
172	0x3fbb755100000000	0.1072588562965393
173	0x3fbd85b480000000	0.11532142758369446
174	0xbfaaae8100000000	-0.05211260914802551
175	0x3fba411c80000000	0.1025560200214386
176	0xbfb9a50b80000000	-0.10017463564872742
177	0xbfbe7b8480000000	-0.11907222867012024
178	0x3fba74a7c0000000	0.10334251821041107
179	0xbfb5fcbf80000000	-0.08588787913322449
180	0xbfa6d1cc80000000	-0.044569388031959534
181	0xbfbc571400000000	-0.11070370674133301
182	0x3fb6f6a680000000	0.0897010862827301
183	0xbf9e245700000000	-0.029435500502586365
184	0xbfa3e07580000000	-0.038821861147880554
185	0x3f8141b400000000	0.008426100015640259
186	0xbfb89c81c0000000	-0.0961381047964096
187	0x3fb2d22ec0000000	0.07351963222026825
188	0x3fb3c338c0000000	0.0771975964307785
189	0xbfb20ac3c0000000	-0.07047675549983978
190	0x3f92dde100000000	0.01842452585697174
191	0xbfaf727a00000000	-0.0614202618598938
192	0xbfbaeeee80000000	-0.10520830750465393
193	0x3f9014a600000000	0.01570376753807068
194	0xbfb4136400000000	-0.07842087745666504
195	0x3f9ba8f800000000	0.027011752128601074
196	0xbfa12c6f80000000	-0.03354214131832123
197	0xbfaeeca600000000	-0.06039923429489136
198	0x3fb1aa3200000000	0.06900322437286377
199	0xbfb65e8300000000	-0.08737963438034058
200	0xbf93a39d00000000	-0.01917882263660431
201	0xbfba8706c0000000	-0.10362283885478973
202	0x3f919cbe00000000	0.01719948649406433
203	0x3fbbd5a300000000	0.10872858762741089
204	0x3f79fdb800000000	0.006345480680465698
205	0xbfbb8dec00000000	-0.10763430595397949
206	0xbfb44831c0000000	-0.07922659814357758
207	0xbfb2776580000000	-0.0721343457698822
208	0x3fb23cd140000000	0.07124049961566925
209	0x3fb3b74080000000	0.07701495289802551
210	0xbfae427800000000	-0.05910086631774902
211	0x3fa28d5700000000	0.03623458743095398
212	0x3f619f5800000000	0.002151176333427429
213	0x3f73bb3400000000	0.004817202687263489
214	0xbfb3cd0480000000	-0.07734706997871399
215	0x3fbc710040000000	0.1110992580652237
216	0x3f97631400000000	0.022838890552520752
217	0x3fb3de43c0000000	0.07761023938655853
218	0xbfa6932300000000	-0.04409131407737732
219	0x3fa7c4fd80000000	0.04642479121685028
220	0xbfb4dab480000000	-0.08146217465400696
221	0x3fb8681b80000000	0.09533855319023132
222	0x3fb275f340000000	0.07211227715015411
223	0xbf82cb1e00000000	-0.009176477789878845
224	0xbfb32057c0000000	-0.07471226155757904
225	0xbfb7b31a40000000	-0.09257663786411285
226	0x3f708bb400000000	0.004039481282234192
227	0xbfaab8b680000000	-0.052190497517585754
228	0x3f9194ab00000000	0.017168685793876648
229	0xbfb9bb9e40000000	-0.1005190759897232
230	0x3fbb961140000000	0.10775859653949738
231	0xbfbb4b4000000000	-0.10661697387695312
232	0x3f6c101000000000	0.0034256279468536377
233	0xbfb0e3ccc0000000	-0.06597594916820526
234	0xbfa9867280000000	-0.04985387623310089
235	0x3fb4f39a80000000	0.0818420946598053
236	0xbfb4fbf580000000	-0.08196958899497986
237	0xbfb6676400000000	-0.08751511573791504
238	0xbfb14e3cc0000000	-0.0676000565290451
239	0xbfb8dcf040000000	-0.09712125360965729
240	0xbf824c2000000000	-0.008934259414672852
241	0xbf9fd30c00000000	-0.0310785174369812
242	0x3f9f394800000000	0.030491948127746582
243	0x3fae50f280000000	0.059211328625679016
244	0x3fafb76000000000	0.06194591522216797
245	0x3fbabe4440000000	0.10446573793888092
246	0x3f5befe000000000	0.0017051398754119873
247	0x3fa71d8700000000	0.04514715075492859
248	0x3fb5343680000000	0.08282795548439026
249	0x3fa011d480000000	0.031386032700538635
250	0xbf9988c200000000	-0.024935752153396606
251	0xbf98b29700000000	-0.02411876618862152
252	0xbf7c8e0c00000000	-0.006971403956413269
253	0x3fa2e5a580000000	0.036908313632011414
254	0xbfb98cf900000000	-0.09980732202529907
255	0xbfba360300000000	-0.10238665342330933

fc2.bias f8 [128]
0	0xbf9ece6a1467fc5e	-0.030084283347602152
1	0x3fa801d54f34c40b	0.04688898651000536
2	0xbfb86d1880000000	-0.0954146683216095
3	0x3f8b1b0a00000000	0.013235166668891907
4	0xbf90bd2861cae8f7	-0.016346579521930384
5	0x3f8732b257a871c7	0.011327164936170043
6	0xbfb0fed840000000	-0.06638862192630768
7	0xbfa6a78280000000	-0.044246748089790344
8	0xbfb29ee640000000	-0.07273711264133453
9	0xbfa9683c49483bd8	-0.04962337870175987
10	0xbf8efb3200000000	-0.015127554535865784
11	0xbfabf56294bf7e5d	-0.054606514604299085
12	0x3fa2f90f1095368e	0.03705641820361648
13	0xbfc2b96b45aea315	-0.14628353979539868
14	0x3f9d5e191f1fbe06	0.028679268383653443
15	0xbfb956e0730259c5	-0.09898188407746662
16	0x3fbdc8ef87cf26a8	0.11634728494314095
17	0xbfc5878502516b89	-0.16819822896181005
18	0x3fa6124399803255	0.043108093727003784
19	0xbfbc2679c0000000	-0.1099620908498764
20	0xbfa8246400000000	-0.04715263843536377
21	0x3fb38ffd106572a8	0.07641584062862228
22	0xbf9736d7d0966d81	-0.022670147043397208
23	0x3fa8990e00000000	0.04804271459579468
24	0x3fc1d69fd451c97d	0.13936231486475129
25	0xbfa1125180000000	-0.0333428829908371
26	0xbfb1cf783bb0a6ee	-0.06957198579098264
27	0xbf868ce768b05a47	-0.011010940439558982
28	0x3fb15e755b76bfb9	0.0678475712109038
29	0xbfc1e05258286ec1	-0.13965825371348298
30	0xbfa1a8cb9a3c53dd	-0.034490931108088076
31	0x3f95cc2cae0f8202	0.021286676524939104
32	0xbfad99bd00000000	-0.057813555002212524
33	0xbf9ff4b8174e39c4	-0.031206966803034822
34	0x3faace6ef230a524	0.05235621172352925
35	0xbf749b6e9f66fba3	-0.005031044120584224
36	0xbface57b1a19c203	-0.05643830007182162
37	0xbfb2fcad80000000	-0.07416805624961853
38	0xbfa18a6280000000	-0.03425891697406769
39	0xbfa2f76400000000	-0.03704369068145752
40	0xbfbf83c8fa37356e	-0.12310463055401552
41	0xbfc433ca38df32d2	-0.15783050324389208
42	0x3fbf4f623fb16e26	0.12230505042082793
43	0x3fa0c7f700000000	0.03277561068534851
44	0xbfb83e8ec0000000	-0.09470455348491669
45	0x3f9afc6c67914000	0.026353544064761536
46	0xbfc4fdc5d2b02fc6	-0.16399452960501842
47	0xbf9484c4458faae4	-0.020037714715651314
48	0xbfb792aa7cb49224	-0.09208169502796487
49	0x3fc551cc204e2780	0.1665587575665164
50	0xbfbdcfffc0000000	-0.1164550632238388
51	0xbf945fb700000000	-0.01989637315273285
52	0x3f9272f0778ba66f	0.018016583725432186
53	0xbfa1600ab08cf524	-0.033935865451420605
54	0xbfa6417b5b1199a0	-0.04346833693198282
55	0x3f85a6fc00000000	0.0105724036693573
56	0xbfa4e17bc5617806	-0.040782802433327034
57	0xbfa7fe8680000000	-0.046863749623298645
58	0xbf93c9d600000000	-0.01932463049888611
59	0xbfc0ee394db8e0e1	-0.13227001471546543
60	0xbfb0512338583c16	-0.06373806119539469
61	0xbfb2110a80000000	-0.07057252526283264
62	0xbfba3d246d26f090	-0.10249545731398002
63	0xbfaeb3a700000000	-0.059964388608932495
64	0xbfa6207d00000000	-0.04321661591529846
65	0x3fc037f2b3194f2f	0.12670739884435409
66	0xbf98be5e500d0061	-0.02416369784919004
67	0x3fc190751740f8d4	0.1372209895652704
68	0x3fa5b22d198cc9b0	0.04237500130547589
69	0x3fa330b676f57ee7	0.03748102380882106
70	0x3fab1eb89dd99e23	0.052968758839423445
71	0xbfb8060d5c7253d1	-0.09384234911915647
72	0xbfad3bb500000000	-0.05709615349769592
73	0xbfa04012b91a6299	-0.03173883924063609
74	0x3fb5c356056238b6	0.08501184112012336
75	0x3fafc81ad091744e	0.062073553047163985
76	0x3fbafe74d63a8785	0.10544519643965884
77	0xbfa8b8ff80000000	-0.048286423087120056
78	0x3fbdecb4976f2d1c	0.11689308831335093
79	0xbf50129000000000	-0.0009809881448745728
80	0xbf61d52000000000	-0.002176821231842041
81	0x3fa435d200000000	0.039473116397857666
82	0xbfb5e2efbef3c470	-0.08549402629775371
83	0xbfc1f800935ef11d	-0.14038092799990745
84	0xbfbbf868c0000000	-0.10925917327404022
85	0x3f92cfad155905ea	0.0183703464774733
86	0xbfba3da144ed83d6	-0.10250289852912373
87	0x3fa03657e9262292	0.031664607248847024
88	0x3f8913be3cf6dcea	0.012244688258631748
89	0x3fb65bc380b70213	0.08733770267918599
90	0xbfc1dfcf0bc6335d	-0.13964260172761103
91	0xbfc61f0650590c66	-0.17282179759249344
92	0x3f8a8a4e00000000	0.012959107756614685
93	0xbfaae1d52a5b8053	-0.052504216595253304
94	0x3fa69cbdbe289e16	0.04416459032318813
95	0xbfb195aee31e07c4	-0.06869023365837196
96	0x3fb8288d5a6667bb	0.09436877686530824
97	0xbfb7a19d00000000	-0.09230977296829224
98	0xbfb92b1affb1f866	-0.09831398718412884
99	0xbfb5d6f13af079df	-0.0853110093016549
100	0x3f5362c57107e3ce	0.0011832168712528793
101	0xbfaea3ae3b2d63c5	-0.059842533801834054
102	0x3fa07e187d354c84	0.03221203354282756
103	0x3f96d530d362e772	0.022297633077620067
104	0x3f87d3a4eb29f055	0.01163414805090938
105	0x3fbd4f519dc1b1b9	0.11449155904273924
106	0xbf8ebf335d7fe6b1	-0.015013123789674539
107	0xbfc63642122a168a	-0.17353082549032123
108	0x3f89fb4a00000000	0.01268632709980011
109	0x3faf9ec0faba545c	0.061758070570399254
110	0x3f976dbaabf9bd85	0.02287952112822957
111	0x3fbfdd2f72ea64e2	0.12446877055699049
112	0xbfa8d6f99c0aef2b	-0.04851512937372456
113	0xbfaf4a3700000000	-0.06111308932304382
114	0xbfb5d2f1df801160	-0.08525001246022645
115	0xbf9135e3508ceaa1	-0.01680712870732271
116	0xbfb1806f7bd7b9de	-0.06836601994994093
117	0x3fa8d0109df2e4bc	0.0484624092873189
118	0xbf9006c1a61f43fd	-0.015650773777284844
119	0xbfbd73cf7311c247	-0.11504837569533165
120	0x3fbaa9794551846c	0.10414846365303426
121	0xbfc3ae7bace13b58	-0.15376230183980044
122	0x3fb4c23694e3db8d	0.08108845839511343
123	0x3fb7956200000000	0.09212315082550049
124	0x3fb97c9ff67f88c1	0.0995578743745993
125	0x3fbc070d826fb7cd	0.10948261675341016
126	0x3face3a1ec014583	0.056424198207092345
127	0xbf98febd00000000	-0.024409249424934387

fc3.weight f8 [64, 128]
0	0x3f91fbf662d23f55	0.017562722951481053
1	0xbfba3bb4d2a21e38	-0.10247354643262774
2	0x3fb0e88020000000	0.06604767590761185
3	0x3f9249e600000000	0.01786002516746521
4	0xbfb0da651b0c9dfb	-0.06583244238264989
5	0x3f8c78ae53772951	0.013902055666126375
6	0x3f63761400000000	0.0023756399750709534
7	0xbfb0fc5980000000	-0.0663505494594574
8	0x3faa0559c0000000	0.050822071731090546
9	0x3f82c64300000000	0.009167216718196869
10	0xbfb3fa9880000000	-0.07804253697395325
11	0x3fadf818c0000000	0.058533452451229095
12	0xbfb7b3e372b0e9da	-0.09258863020014677
13	0xbfadb39520000000	-0.058010730892419815
14	0xbfaf830db1cf35b4	-0.06154673381352485
15	0x3f996e9e00000000	0.024836033582687378
16	0xbfb91a9c9118849c	-0.09806231062295229
17	0x3f81c54800000000	0.008677065372467041
18	0xbf999e2200000000	-0.02501729130744934
19	0xbfb6614120000000	-0.0874214842915535
20	0xbfb4a3e6c0000000	-0.08062593638896942
21	0xbfc017fb5d7273a1	-0.12573186934323835
22	0xbf9ec95d80000000	-0.03006502240896225
23	0x3f698b7000000000	0.0031182467937469482
24	0xbfb2dcdfa570db3d	-0.07368276394923341
25	0xbfb09a27e0000000	-0.06485223025083542
26	0x3f9dff0500000000	0.029293134808540344
27	0x3faec7ddc0000000	0.06011860817670822
28	0xbfc169a5bf8e724d	-0.1360366044363154
29	0x3fa48d1b40000000	0.040139056742191315
30	0x3fb04bfda0000000	0.06365952640771866
31	0x3f8e1fc400000000	0.014709025621414185
32	0xbfa0b415a0000000	-0.032623935490846634
33	0x3f818acd00000000	0.008565522730350494
34	0xbf8da82400000000	-0.01448085904121399
35	0xbfb102bd60000000	-0.06644805520772934
36	0xbf97d65780000000	-0.02327858656644821
37	0xbfa371c5a0000000	-0.03797738626599312
38	0xbf9a6cce80000000	-0.02580568939447403
39	0xbf739fd200000000	-0.004791088402271271
40	0x3f91104c80000000	0.01666373759508133
41	0x3fa4753440000000	0.03995669633150101
42	0x3f918eb74951c2a5	0.017145980691966618
43	0x3fa520b240000000	0.04126507788896561
44	0x3f8f851b00000000	0.01539059728384018
45	0xbf85582e00000000	-0.010422095656394958
46	0xbfa41e67c0000000	-0.03929447382688522
47	0xbfb0b1f860000000	-0.06521560996770859
48	0xbf9fd7c3c0000000	-0.03109651431441307
49	0xbf916c402d0ee5fd	-0.01701450610173615
50	0x3fabc306c0000000	0.05422230809926987
51	0xbf9be6b580000000	-0.027247272431850433
52	0x3f69d58fc67bd0b8	0.003153591929612256
53	0xbfb00627ca525bf8	-0.06259392442221656
54	0x3fb54c6220000000	0.08319676667451859
55	0x3fa0ae8000000000	0.032581329345703125
56	0x3faf82bb40000000	0.061544276773929596
57	0xbf96368500000000	-0.021692350506782532
58	0xbfb4a473c0000000	-0.08063434064388275
59	0xbfa6a3fd00000000	-0.04421988129615784
60	0x3f81f9c200000000	0.008777156472206116
61	0x3fa2b43440000000	0.03653109818696976
62	0xbfa6668d40000000	-0.04375115782022476
63	0xbfa24dea40000000	-0.03575069457292557
64	0x3fa482cd40000000	0.040060438215732574
65	0xbfb4352f4f9834e4	-0.07893653577066889
66	0xbf98e44700000000	-0.024308308959007263
67	0xbfbacfa04c336e86	-0.10473062382100737
68	0xbfb8b6dabb9c2eac	-0.09654013710331338
69	0xbfbf326b3d09e7b0	-0.1218630813617938
70	0x3f9167acd4bc714b	0.016997051700955706
71	0x3fa75a46c0000000	0.04561062902212143
72	0x3fb2d97860000000	0.07363083213567734
73	0xbfb512a71fee4af5	-0.08231586961327848
74	0xbfa71933a5d922f4	-0.04511414908899339
75	0xbfaea3daa0000000	-0.05984385684132576
76	0xbf90a76dd0902da0	-0.016263690809905307
77	0xbf2a084000000000	-0.00019861012697219849
78	0xbfaeae9c9e280373	-0.05992593222254685
79	0xbfb1399b80000000	-0.06728526949882507
80	0xbfa6f12780000000	-0.044808611273765564
81	0xbf921cd400000000	-0.017688095569610596
82	0xbfb0785b80000000	-0.06433650851249695
83	0x3fb1a45ca0000000	0.06891421228647232
84	0x3fa3410740000000	0.03760550171136856
85	0xbfa4f5ef60000000	-0.040938835591077805
86	0xbf86afe800000000	-0.011077702045440674
87	0xbfc27524bd837e36	-0.14419993642421652
88	0xbfc2a960185f1639	-0.14579392614375467
89	0xbfa6452080000000	-0.04349614679813385
90	0xbf83ac8200000000	-0.00960637629032135
91	0xbfadfd27a0000000	-0.05857204273343086
92	0xbfa7708700000000	-0.04578039050102234
93	0xbfb6181c20000000	-0.08630538731813431
94	0xbfb502a9423cd976	-0.08207185618525678
95	0xbfac856be0000000	-0.05570542439818382
96	0xbfb3ed9add866ecd	-0.07784431370094609
97	0x3fb5416920000000	0.08302933722734451
98	0xbfab40e3e0000000	-0.053229447454214096
99	0x3fac6d2540000000	0.05552021414041519
100	0xbfa20de1c0000000	-0.03526216000318527
101	0xbfbbed94daebd17c	-0.10909395546679507
102	0x3f9e832a80000000	0.029797233641147614
103	0xbfb6467820000000	-0.08701277524232864
104	0xbfa8e9ade0000000	-0.04865783080458641
105	0xbf9f992e43d709ba	-0.030857775583862802
106	0x3faa7c4bc0000000	0.05172955244779587
107	0xbf85bec600000000	-0.010617777705192566
108	0xbf8b4bf900000000	-0.013328500092029572
109	0xbfc3869e1e83ce74	-0.1525457047460922
110	0xbfa6004a60000000	-0.042970966547727585
111	0xbfb02e73696ce5ee	-0.06320878337728406
112	0x3f93a9c57dd39141	0.019202314190708284
113	0x3faf1a48c0000000	0.060747407376766205
114	0x3f6ff1c415c051b5	0.003899462679337352
115	0xbf9556d800000000	-0.02083909511566162
116	0x3fafac4440000000	0.06186116486787796
117	0xbfb5c98e60000000	-0.0851067528128624
118	0xbf91b36f00000000	-0.017286047339439392
119	0xbf9e808940000000	-0.029787201434373856
120	0xbf50e5802abdf1f9	-0.0010312797193982022
121	0x3fb622f4a0000000	0.08647087961435318
122	0xbfb6e7bf8cdca971	-0.08947369755757052
123	0xbfb52bf0e0000000	-0.08270173519849777
124	0xbfbed7dd17c85f36	-0.12048131781227486
125	0xbfb5cbde7aa66dd8	-0.08514204496753253
126	0xbfb4c70da8cc01ce	-0.08116231318491104
127	0xbfaf79e240000000	-0.061476774513721466
128	0x3f78bf3fb5e5b54b	0.006041764134676451
129	0xbfb0ecf685a43a4a	-0.06611576807720457
130	0xbfb2c5bda0000000	-0.07332978397607803
131	0xbfa8586180000000	-0.0475492924451828
132	0xbfc288fc65723122	-0.14480547860547072
133	0xbfbca68f2b4592e0	-0.1119164925235725
134	0x3f6f65fc00000000	0.003832809627056122
135	0xbfb1cee0a0000000	-0.06956294924020767
136	0xbfa4305760000000	-0.039431314915418625
137	0x3fa0dc4f74e8ec2e	0.032930834790441885
138	0x3fa62a9fc0000000	0.043293945491313934
139	0x3fa3b3ac40000000	0.03848017007112503
140	0xbf5009f764b0d416	-0.0009789386701986084
141	0x3f9a512af8e47ca0	0.02570025581473756
142	0xbfb445ab1b45d27e	-0.07918805518949942
143	0x3f96d470e922b057	0.02229477332063853
144	0x3f712d4c874247cd	0.004193591059577129
145	0x3f973d8e32987d28	0.022695752943147657
146	0x3fc0d257d243f1ea	0.13141916052690245
147	0xbfa10cfec0000000	-0.033302269876003265
148	0x3f9a875f80000000	0.025907032191753387
149	0xbfb2f167283a78d5	-0.07399601680888009
150	0x3fba79402379761e	0.10341263643336915
151	0x3f760cde00000000	0.0053833648562431335
152	0xbfab328305f2e526	-0.053119749523327806
153	0xbf87d6e800000000	-0.011640369892120361
154	0xbf7db17c00000000	-0.0072493404150009155
155	0x3fa9dd2cd3c139bc	0.05051555714509301
156	0xbfafbe39721e4891	-0.06199817197843161
157	0x3fafafbd1de9e9fe	0.061887655164316144
158	0xbf9b6871f6ce0c02	-0.02676561421277413
159	0x3f8771e5dbac7578	0.01144771172180968
160	0x3fb5af6320000000	0.08470744639635086
161	0xbf66dbe4a88bd632	-0.0027904001220757863
162	0x3fa4d0cda3b007da	0.040655542594336416
163	0x3fc16ae85e618681	0.13607506378598447
164	0x3fa35838539b7938	0.03778244038197659
165	0xbfaeae4ea0000000	-0.05992360785603523
166	0x3fb55f70a0000000	0.08348754793405533
167	0xbfb438c520000000	-0.07899124175310135
168	0xbfc22d3ebda8fdd7	-0.1420057703089543
169	0x3f9e80c568fa31c1	0.029788097889239532
170	0x3fa0f451e312b324	0.03311401268852013
171	0x3fb4b95b60000000	0.08095332235097885
172	0xbfb1c6e080000000	-0.06944087147712708
173	0x3fb02a0a5d6fcdb0	0.06314148694200727
174	0x3faae7a8d022b6aa	0.05254867115705271
175	0x3fa8814a3092bed5	0.047861402921055486
176	0x3fa19fe23690ca97	0.03442294040759924
177	0xbfba8eb1a13d80a0	-0.10373983561067002
178	0x3fa6b7dac0000000	0.04437144845724106
179	0x3f6bb92000000000	0.0033841729164123535
180	0x3faafa4257398b4c	0.05269057574039113
181	0x3f79468b74b4f99f	0.006170792340809333
182	0x3fa9fc098f8029c1	0.05075101734844934
183	0x3fb01fb320000000	0.06298369914293289
184	0xbf727cfeec422fb5	-0.004513736526984437
185	0x3fa8b6bd40000000	0.04826918989419937
186	0xbf9778e580000000	-0.022922120988368988
187	0x3f726f4c00000000	0.004500672221183777
188	0x3fa4fbbd2551302c	0.04098311501056204
189	0x3f6924a800000000	0.0030692368745803833
190	0x3fc271f054dc954a	0.14410213607440375
191	0xbfac19d340000000	-0.05488453060388565
192	0x3fb5d7b3e0000000	0.08532261103391647
193	0xbfafe950e5cace5e	-0.06232693486290651
194	0x3f9dff801b290c22	0.02929496923230713
195	0xbfa1a7d4d9a80d40	-0.03448357731761087
196	0x3fa93a8b6c458e23	0.0492747850101092
197	0xbf99225dcea9dc03	-0.024545160044421987
198	0xbf71072c00000000	-0.004157230257987976
199	0x3fbcaaf946260d12	0.11198385202992636
200	0x3fb16f9a20000000	0.06810916215181351
201	0x3f99c64250e5e4b2	0.02517036074411711
202	0x3f91694cb5fd92db	0.017003248794383957
203	0x3fb5c02f370fe2b3	0.08496375173843766
204	0xbfa6eb025eb2887d	-0.04476172834371626
205	0xbfa8c477c0000000	-0.048373930156230927
206	0x3f6bec189e7ba753	0.003408477863435269
207	0xbfa36b5120000000	-0.03792813792824745
208	0x3faad86f40000000	0.05243251472711563
209	0x3faeda7040000000	0.06026030331850052
210	0x3fb8964572edfafe	0.09604295783899983
211	0x3f91874b99d6c442	0.017117673172553312
212	0x3fa187f500000000	0.034240394830703735
213	0x3fbfd5746ac3b6d4	0.12435081106715568
214	0x3fb2a2e18438e562	0.07279786565859106
215	0x3fb80ec378bd7f1d	0.09397527406462954
216	0x3f9455ca08fcf143	0.01985850982531302
217	0x3fa6ae9cc0000000	0.04430093616247177
218	0x3fb85271238d833b	0.09500796430576212
219	0x3fb9311a9cf99e12	0.09840551693343283
220	0x3f91da7e80000000	0.01743505150079727
221	0xbf5b9908fb75c4b0	-0.001684435626739405
222	0xbfb516ac3a82fa30	-0.08237720898157685
223	0x3f8076451511e097	0.008038081841945917
224	0xbfb21e28edc237b4	-0.07077270321516843
225	0x3fb54fc4e0000000	0.08324842900037766
226	0x3f9b049240ba522a	0.02638462562625158
227	0xbf8749fbbb92bca6	-0.01137158075502349
228	0x3fbdef99792c3697	0.11693724830930773
229	0x3f923d577e735ff1	0.01781212529462545
230	0x3fa83ded8584b761	0.04734747176040233
231	0x3fad313f912e98d7	0.057016359779753216
232	0xbf8ba5310084b973	-0.01349867136795233
233	0xbf9ee50408eb15b1	-0.030170500797586267
234	0x3f90cd1f4ae01a3a	0.01640747923377204
235	0x3fc126923c36450d	0.13398960056341772
236	0x3f806e2e00000000	0.008022651076316833
237	0xbfb4bc1a10308bb7	-0.08099520583395657
238	0x3fb95374bfd9e82a	0.09892968829981955
239	0xbf9b99bafcd78905	-0.02695362251496027
240	0x3fae2a8628169612	0.058918182748396344
241	0xbf98438d80000000	-0.023695193231105804
242	0xbfbf86b8051333e5	-0.12314939617063166
243	0x3fb56e54e0000000	0.08371477574110031
244	0xbfb26912f9f3ba0e	-0.07191580393166694
245	0x3fbbe2c6af5f1cc9	0.10892907887965743
246	0x3fa2bc3bc0000000	0.036592356860637665
247	0x3fb5fd5e1f48809e	0.0858973337531119
248	0xbf962937767c3c9c	-0.021641604048508442
249	0xbfaefdf240000000	-0.06053120642900467
250	0xbfb8703ad4a86878	-0.09546249095765968
251	0xbfb0027120000000	-0.06253726035356522
252	0x3f939f9000000000	0.01916337013244629
253	0xbfa481541c46c1ce	-0.04004919858141741
254	0xbfaa543bf612250f	-0.051423906124066325
255	0xbf8ad90300000000	-0.013109229505062103

fc3.bias f8 [64]
0	0xbfbe8749959fbcea	-0.11925182249955282
1	0x3fa25a1a0b998fc6	0.03584367171859486
2	0x3f7994dce0651cca	0.0062454822530703755
3	0x3fb4ab9ac67a41ae	0.08074347825664205
4	0xbfc09ef3cff24912	-0.12985084203371194
5	0x3fb17fef4cb7b21f	0.06835837958323808
6	0xbfa219a85f10a605	-0.035352002720468824
7	0xbfba133047c8f1dd	-0.10185529472887063
8	0xbf99725e00000000	-0.02485033869743347
9	0x3fbe3fcc35822931	0.11816097551687645
10	0x3f9bf79d00000000	0.02731175720691681
11	0x3fc315266de3ef3f	0.1490829502653188
12	0xbfb0323820000000	-0.06326628476381302
13	0x3fc32911c950d7c6	0.14969084100601843
14	0xbfab4319ae2ff171	-0.05324630976972145
15	0xbfb0660dbaa3354c	-0.06405721479969378
16	0x3fba278e14951191	0.1021660614251856
17	0xbfae05dfc47d2791	-0.05863856576486549
18	0x3fc6b65d21bee98d	0.17744030139676817
19	0x3fbec71b083a7367	0.12022561026465227
20	0xbfaf9e4ba0000000	-0.06175457313656807
21	0xbfb99f3cd68d91bc	-0.10008602369413827
22	0xbfc18e8b48cb65a9	-0.13716260008258743
23	0x3fa28a4b5ace491b	0.03621135219067836
24	0x3fce01d45884bfaa	0.2344308311671715
25	0x3fbb0f339bb2f221	0.10570070792432108
26	0xbfc1904f5508a8ec	-0.1372164883808361
27	0xbfb46ef7a0000000	-0.0798182263970375
28	0x3fc02e462e880970	0.1264121749118874
29	0xbfc245af2e1e6c42	-0.1427515959920545
30	0xbfb380fab8fe01d9	-0.0761868192330505
31	0xbf916cb100000000	-0.01701618731021881
32	0xbfa92d9c20000000	-0.04917610064148903
33	0xbfa6c5da80000000	-0.04447825253009796
34	0xbf9cf38afc830198	-0.028272792493909543
35	0xbfb5a3ff40000000	-0.08453364670276642
36	0xbfaeb365e3d0b31d	-0.05996244817683858
37	0xbfb3914740000000	-0.07643552124500275
38	0xbf64017a478aa4f7	-0.0024421108503999106
39	0xbf8238c400000000	-0.008897334337234497
40	0xbfa8d8a0aa7e527d	-0.04852773743838144
41	0xbfc007b6e034ddf3	-0.1252354235418661
42	0x3f9617ee5391e2ff	0.021575664377880163
43	0xbfc19cb58c1eec2f	-0.13759488431773678
44	0xbf87eb156e695f49	-0.011678855354304256
45	0xbfbb37196a7b9b1e	-0.10630949830702405
46	0xbfb55dcd8665c970	-0.08346256762687232
47	0xbf9e0b7f0924fdd0	-0.029340729649673325
48	0xbfb11bce8535ab71	-0.06683054687679914
49	0xbfa74a01d5b5d5e3	-0.045486504876787646
50	0x3fbef827512a02fd	0.12097402316613777
51	0x3f796587a2c0d6b7	0.006200342013519203
52	0x3fae5cab62b5a69e	0.05930076198531008
53	0x3fb9c70e90493dc8	0.10069361708268965
54	0xbfafbd667468e8b2	-0.0619918839551742
55	0xbfae412e02db8a3b	-0.059091031884026944
56	0x3fc468d28d3a00cc	0.15944892783955422
57	0x3f84912d6f9f0b1e	0.010042529076490999
58	0xbfa71b8015df3d3a	-0.04513168589584855
59	0xbfb4276449e68467	-0.0787260704442062
60	0x3fbd9ef1837ce308	0.11570653400566411
61	0x3fbfbc791a9e5a4f	0.12396962070338556
62	0xbfc15267338ceb0d	-0.13532724396812804
63	0x3fb783913dd2a272	0.0918513084349202

fc4.weight f8 [2, 64]
0	0xbf951d75201c620a	-0.020620184025661493
1	0x3fb8101b96066380	0.09399578488081595
2	0x3fa0e8ad8eec6a70	0.033025191971508217
3	0x3fa64fb046ad8ead	0.04357672560470625
4	0xbfaa451d42363d09	-0.05130855019808151
5	0x3f7468aa7de15d76	0.004982629760056914
6	0x3fb34ff9d9d2fa52	0.07543908660861945
7	0xbf96a13fab48a282	-0.022099490002946094
8	0x3fa52fda80000000	0.04138071835041046
9	0xbfbf2eacacef266a	-0.12180594656015278
10	0x3f83c02a00000000	0.00964386761188507
11	0x3fafcd44a86727db	0.062112947041512455
12	0x3fb938be00000000	0.09852206707000732
13	0x3f1ea3be82cbfb28	0.00011688089643867013
14	0x3fa85d4ff2444de4	0.04758691627844394
15	0xbfa357eab73b1bef	-0.03778012739854108
16	0x3fa63138b736a47d	0.0433442805909374
17	0x3fa4db81585717b3	0.0407371921860852
18	0x3fb032a57bf2a8fb	0.06327280307838017
19	0x3fb293da561389a2	0.07256855584595326
20	0x3fa8d1fc80000000	0.04847706854343414
21	0x3f819acef7ce2b20	0.008596054971140854
22	0x3fa89cf38bc7bb2d	0.04807244378377216
23	0xbf726ab9f16aa06d	-0.004496313419316872
24	0x3f8fc22c85b0b200	0.015507076101209272
25	0x3f96d6256ea27c5f	0.022301277997595622
26	0xbfa8a719f242b98a	-0.04814988214762923
27	0xbfa4d1d580000000	-0.04066340625286102
28	0x3f99b25bdc6dd1d2	0.02509444744960538
29	0xbf97f2e8238298dc	-0.0233875533746407
30	0xbf845f9959827a95	-0.009947965664023154
31	0xbfbcbf26c0000000	-0.11229173839092255
32	0xbf805d8400000000	-0.007990866899490356
33	0x3fb8456ec0000000	0.09480945765972137
34	0x3f94660fd85626a5	0.019920585230954874
35	0xbf8bb2d200000000	-0.013524666428565979
36	0x3fba97d5f2b18962	0.10387932944425907
37	0x3fbc6ae140000000	0.11100585758686066
38	0x3fbfdc1e93fc5fd4	0.124452506188731
39	0x3fa7525c80000000	0.04555024206638336
40	0xbfa2fd33b1bf5058	-0.03708802742735945
41	0xbf9091e7fee6108f	-0.016181588108807928
42	0xbf92e6e42624d9b3	-0.01845890505611587
43	0x3fa117ae80481f5d	0.033383801612272924
44	0x3f73df54dde544e0	0.004851657400949366
45	0x3fa519714e571615	0.04120973664570841
46	0x3f71b42f37437892	0.004322227894787771
47	0x3f9c7bacce34e10c	0.027815532766198678
48	0x3faa0b6dbe52cb29	0.050868443949545324
49	0x3faf53104a78ac0f	0.06118060025286109
50	0x3f6d75d6624c7557	0.0035962283312886245
51	0xbfa42eee2e8e0081	-0.039420550520845594
52	0x3fb3fb2cfc09f206	0.07805138734142511
53	0x3fb74563765e1a45	0.09090253486474704
54	0xbf6633b0db60d751	-0.0027101949918017306
55	0xbf87e4d8a863b9cd	-0.011666958464471211
56	0xbfb2b11ef9e62466	-0.07301515198754913
57	0xbfb008d08120bbd2	-0.06263449814353741
58	0x3fac26ff457139a1	0.05498502466854239
59	0xbfaef4df0304c443	-0.06046196853493104
60	0x3fa0372480ce63f6	0.03167070457784142
61	0x3fb2ed6ff34c0629	0.07393550577037246
62	0x3f88ab6c15ddb2b0	0.01204571191529999
63	0x3fb787921f2f358a	0.09191239606226112
64	0x3fa5868071437837	0.04204179175006611
65	0xbfa467a609b3fbe9	-0.03985327595182026
66	0xbfd54b7310caa5de	-0.3327300704937367
67	0xbfb01caa7a621316	-0.06293740737789863
68	0xbfc4f3e7f1d662bf	-0.16369342144459684
69	0xbfd7fecbd65c9d68	-0.3749265282990195
70	0xbfcadfd95be1bc6c	-0.2099563311234961
71	0xbf87f535d00a2a64	-0.011698170100563128
72	0x3fbb478d80000000	0.10656055808067322
73	0xbfd6dc0c48124db6	-0.35718066251976255
74	0xbfb8257380000000	-0.09432145953178406
75	0xbfd6b17236ea2d2c	-0.3545804535176156
76	0xbf9ac55a00000000	-0.02614346146583557
77	0xbfd0aebb5798e293	-0.2606647830430486
78	0xbfb1dcad4801cebf	-0.06977351196274649
79	0xbfbb99f9aed4b127	-0.10781822698908582
80	0xbfcaa0375f53513c	-0.2080144134003009
81	0xbfb6369116963cd1	-0.08677012254178186
82	0xbfd6d3a306cc654d	-0.35666728652866625
83	0x3f806b5a17c36244	0.008017257547565333
84	0xbfad056900000000	-0.05668190121650696
85	0x3fae4a7ee5518265	0.05916210698410821
86	0xbfb9871481109969	-0.09971740866658298
87	0xbfc3a26ed914a386	-0.15339456176414162
88	0xbfd89e0ace553f78	-0.38464613103587153
89	0xbfc35e564074a246	-0.15131643435712955
90	0xbfa30a3fb33adf1d	-0.03718756735673721
91	0xbfb8ce9fc0000000	-0.09690283238887787
92	0xbfd0d64711b7b68a	-0.26307846765744414
93	0x3fa215655fa2133d	0.035319488452876226
94	0x3fbc05268a9c2911	0.10945359119446986
95	0xbfb0425ac0000000	-0.06351248919963837
96	0x3fa49dfa00000000	0.040267765522003174
97	0xbf97871000000000	-0.022976160049438477
98	0xbfaa404f1ba6d5f8	-0.05127188885255046
99	0xbfa68e6700000000	-0.04405519366264343
100	0xbf94bc63e8994a20	-0.02024990183992703
101	0x3fbff86480000000	0.12488391995429993
102	0xbfc927506ef6c203	-0.1965122739616306
103	0x3fbb2ce3c0000000	0.1061537116765976
104	0xbfc40e7c1fac059b	-0.1566920427940602
105	0xbfc0c8d39685f4f3	-0.13112873887795437
106	0xbfcf506c359cb6da	-0.2446418058183813
107	0x3f9b318d8bef6c00	0.026556216875047056
108	0xbf7dc537c58870f2	-0.0072681597307815305
109	0xbfbab35a44d1022f	-0.1042992036827932
110	0x3fad69656703699e	0.05744473345267241
111	0xbf863b3f4d41898a	-0.010855192704359213
112	0xbfaa95eb6ecdaf19	-0.051925046230137
113	0xbfc17b354ca93bcf	-0.1365725158998132
114	0xbfd567a9a6b658b7	-0.3344520690965384
115	0x3f96b495a914292d	0.022173250622509123
116	0xbfd0827de75ceaff	-0.257964588108436
117	0xbfd39484eaa0c3cb	-0.30593989289178286
118	0x3f823309aaa00343	0.00888640930134133
119	0xbfb732dccae08ae6	-0.09061984971098588
120	0xbff07d426b0f4191	-1.0305809194579505
121	0x3faa3e514d968673	0.051256695481481616
122	0x3f864cbb97663dd3	0.010888543660967287
123	0xbfb83dd07233a1c7	-0.09469321048857814
124	0xbfd63ffe72b32aaf	-0.3476558799854201
125	0xbfcdf67dfbf52a99	-0.23408484270688204
126	0xbfb01e0961d03390	-0.0629583228876085
127	0xbfd3ac8542bce674	-0.3074048187005254

fc4.bias f8 [2]
0	0x3fb28ae66e896422	0.07243194769525066
1	0xbfbce069efbfc7be	-0.11279928305864836
