src/backend/controller/checkpoints/checkpoint_epoch_113.pth (torch, 420244 bytes, 25 tensors)

fc1.weight f8 [64, 5]
00000000: 8892 0eef 4dfa c53f 29f8 ff6e 1cb3 ddbf
00000010: 3cff 038b abe7 cf3f 74f1 85fb 4cdc c7bf
00000020: 3c5f ef1c 254d bb3f 0000 0040 8728 c4bf
00000030: 0000 00a0 b44c d2bf 0000 0060 19c4 dabf
00000040: 0000 00c0 7e27 cebf 0000 0000 7649 ba3f
00000050: ec2c 5f7d 3418 cbbf 516d 6cdc f4b2 b43f
00000060: ab99 04fb 74b9 d8bf 78ca 35fd 1b21 db3f
00000070: 65c1 9954 7de0 b13f 0000 0000 e3b3 d23f
00000080: 0000 0040 217d c0bf 0000 0080 2103 d1bf
00000090: 0000 0080 0852 d7bf 0000 0080 03e7 b5bf
000000a0: 0000 00c0 4bff c4bf 0000 0000 a42d 8abf
000000b0: 0000 0040 4265 d93f 0000 0000 98ab 933f
000000c0: 0000 0040 1c0d dabf dcc0 821b 3dde c3bf
000000d0: 9f32 3226 aa25 d73f 3040 5208 5d68 d83f
000000e0: fdb0 e53a 214c b83f 641f b106 d7b6 d6bf
000000f0: 9d1d 7463 5427 ccbf e5fa a964 0cf7 d1bf
00000100: fd0e dc16 06d2 d13f cc61 b2d8 1af2 cf3f
00000110: 45a6 82ca 24c1 d93f 0000 00c0 50ec d73f
00000120: 0000 0080 4469 dabf 0000 0080 1065 b6bf
00000130: 0000 0040 588f d4bf 0000 0000 0002 b63f
00000140: a7e1 883e a03c c83f 4dc1 94cc 5912 d0bf
00000150: 50b0 d17e 6f0c 7bbf decc 9d13 49f5 bd3f
00000160: 0154 a6f0 b711 d03f 0a84 166d 7583 d33f
00000170: 5a47 60e0 8b7f 973f 9bb8 e6ab 22c7 b13f
00000180: 8d05 12d6 bba1 d9bf ff9b 202a 584c bd3f
00000190: 854d 1608 c88c d4bf 805f ded6 3b2f 98bf
000001a0: a6be 735e d429 d93f 35ab b8bb 9bc9 753f
000001b0: f105 1566 70b4 c13f cc02 409f 6bc4 d03f
000001c0: af88 cefe 4bae c83f b2e2 9bca d85f 693f
000001d0: b80e f70a b877 d33f 4ba8 fd1c e631 72bf
000001e0: 0000 0080 db48 c4bf 0000 0000 8570 ba3f
000001f0: 0000 0080 33b8 d6bf 0000 0080 8c16 d33f
00000200: 0000 0040 0587 c9bf 3960 166d 3eb7 d4bf
00000210: 7dd4 fd45 e1d9 ce3f e9aa 0703 c440 dc3f
00000220: c42f 8844 819e 7cbf a997 665a 0ca5 d23f
00000230: 6c90 1ce1 696b d6bf 6942 a9dc 4e1c cf3f
00000240: de2b 94f4 b5fc bebf ece7 dfe6 742c 943f
00000250: 19b5 df89 8ca0 b3bf 0000 00a0 ca04 d2bf
00000260: 0000 00c0 9904 d9bf 0000 0040 7efa d1bf
00000270: 0000 00c0 3056 d93f 0000 0000 884c c03f
00000280: f84a 84c7 0008 c73f 920f c3ff 2612 a1bf
00000290: b7e1 569a fdf4 cb3f 4276 32c3 67c9 a0bf
000002a0: 9c22 d163 1a37 c03f ca26 7c1e add6 abbf
000002b0: 3e76 de29 003b d83f 11df 7c4b f64f c33f
000002c0: 1d76 37ad 0b12 c03f 488a baf2 c42c cf3f
000002d0: 0000 0080 2081 cd3f 0000 00c0 e0de c6bf
000002e0: 0000 0080 694c dbbf 0000 0000 2dd4 a73f
000002f0: 0000 0080 3d23 d2bf c953 6596 9671 b73f
00000300: e820 66b9 3cd2 b13f 9252 ce4b 4ddb bf3f
00000310: bbec b700 204a d13f 724a 7cdf 08b4 c8bf
00000320: 6e17 1472 c990 e03f bf64 49e9 a41f d9bf
00000330: d9bd c11b 6031 d2bf 88e6 efb5 a9e7 cf3f
00000340: 109f 538d b17c 90bf 0000 0080 5fb4 c93f
00000350: 0000 0000 d0d7 cdbf 0000 0000 ede2 aabf
00000360: 0000 0000 f143 c3bf 0000 0000 f327 d0bf
00000370: 0000 0040 1f51 db3f 0000 00e0 408f c9bf
00000380: 0000 0080 82d1 d3bf 0000 0040 af45 dabf
00000390: 0000 00a0 c946 dabf d217 b1eb 07f8 c73f
000003a0: a189 7359 4b09 d53f ffbf 96e4 2dc9 abbf
000003b0: 8403 33b3 bb3b debf 27f1 08ee 3e2f c63f
000003c0: 0000 0000 0fed bdbf 0000 00e0 bcb6 d8bf
000003d0: 0000 0080 9a77 d83f 0000 0080 1462 c13f
000003e0: 0000 0020 2546 cfbf 502d 7dd5 abbf d2bf
000003f0: 99c6 ff77 a75e af3f 36d5 65f4 eb1d d6bf
00000400: 8c2d 9645 ea2e c83f 40e1 2bfe c323 d5bf
00000410: 0000 0000 8ede d63f 0000 0080 e575 bdbf
00000420: 0000 0000 775c b53f 0000 00c0 c0b0 dbbf
00000430: 0000 0080 122a b3bf 0000 0000 a62e b0bf
00000440: 0000 0040 dd09 c0bf 0000 0000 b007 afbf
00000450: 0000 0080 bdad b2bf 0000 00c0 7025 d43f
00000460: d568 4a18 d317 ab3f 12ba 97c0 c8c6 cabf
00000470: 1b28 6cfd 45b1 cf3f dabf 1f77 5e27 c33f
00000480: 77e9 d287 250a d3bf 0000 0000 d9f1 c1bf
00000490: 0000 0080 8860 bfbf 0000 0080 6809 d63f
000004a0: 0000 0000 28ff 8bbf 0000 0000 9065 c13f
000004b0: 0000 0080 0ee1 c3bf 0000 0080 4070 cb3f
000004c0: 0000 0000 5e63 b8bf 0000 0000 15a0 c83f
000004d0: 0000 0000 8df7 a13f 0000 0080 81d9 c83f
000004e0: 0000 0000 a403 913f 0000 0080 f8bd d4bf
000004f0: 0000 00c0 8968 d9bf 0000 0040 97d0 d1bf
00000500: 7dec b0f3 6210 a93f baac 1326 563f c53f
00000510: d672 b111 ecbe cdbf 2f7f 54b0 7829 cb3f
00000520: 7613 e043 8d2a d43f c82f 7dd0 4d78 c23f
00000530: 1684 26e4 8204 d4bf 9831 d328 65fc a93f
00000540: c98d a870 0202 cc3f ab2e 42cc e083 d83f
00000550: 0000 0000 cb91 d1bf 0000 0000 f4f6 ad3f
00000560: 0000 0000 45a0 c0bf 0000 0000 0079 cb3f
00000570: 0000 0000 7c66 ac3f 0000 0020 3579 d8bf
00000580: 0000 0080 e0ea b4bf 0000 0000 08bf 9f3f
00000590: 0000 0000 5e09 d7bf 0000 0020 1624 d9bf
000005a0: 2db5 2e05 cc5f db3f 333f 49f9 f212 c1bf
000005b0: 9062 345f 232a d7bf 581d 5c78 14ab aa3f
000005c0: d9c9 dc43 69ed cc3f 2bd0 467d 0bb1 d43f
000005d0: 87bd 41ba 1bf0 b53f 1981 e211 1fc7 cd3f
000005e0: b84f a7d4 d273 d03f ec67 10be acfb d73f
000005f0: 0365 257e 6f8c d03f a6e7 98f9 c343 c1bf
00000600: c225 91c6 bb64 d1bf 90db 1ab8 209a c9bf
00000610: baaa 477a cb85 bcbf e4f2 e561 e867 d4bf
00000620: 9cb7 48a1 ded1 d1bf b5aa 3435 e458 e03f
00000630: 9fa4 330d 0bf3 c3bf c6a3 2a40 872e d43f
00000640: d6eb 9c9a 389f dc3f 4c62 e21a 1861 c0bf
00000650: c937 877b 5083 d9bf 92eb 788a e8dc d93f
00000660: e68d 9b6b 7ef1 b3bf 0000 0000 17fe b03f
00000670: 0000 0000 8544 c43f 0000 0080 2285 c4bf
00000680: 0000 0080 bf61 bdbf 0000 0060 0cff d7bf
00000690: 0000 0000 dcd4 983f 0000 0040 5d41 c0bf
000006a0: 0000 00c0 9d6e cdbf 0000 0000 08a9 c53f
000006b0: 0000 0000 46ba b4bf 1c70 b2e0 218b c23f
000006c0: 8e88 ed10 523f a3bf ad44 c175 c380 dbbf
000006d0: a929 d937 b6d4 cb3f 6a7a db2d 8b2d c2bf
000006e0: e1fc 6daa ac22 bebf 761f d753 0864 dd3f
000006f0: 5f56 8618 f98e da3f 7def 6061 ac92 d23f
00000700: 8c6a 7a92 70f2 d5bf bff4 b3fc e3f7 e0bf
00000710: b27e 4416 dd04 a5bf a8c4 37a0 bca4 d5bf
00000720: 05f6 74b6 0962 d63f 9718 e6e5 b086 d03f
00000730: 8429 32b8 4c6b cb3f 8ec5 7167 a68b cfbf
00000740: 1b5f 6797 ef83 563f a63b 59fd cbdf d13f
00000750: 8d59 35b2 f929 c43f b879 2ebf cc81 b63f
00000760: 9ffb 4b69 ccdc d53f aad9 059f b53e b93f
00000770: a27e 08f6 35c2 d73f 021b 20a6 21c8 b3bf
00000780: ec41 873e 46f5 7e3f 4e8b ded3 e87f d13f
00000790: e141 4608 0416 d83f 06fb 5c3b 52d4 c53f
000007a0: 78e2 e53e 0fc2 86bf 0000 0000 8507 b23f
000007b0: 0000 0000 4f03 b9bf 0000 0000 8cdd 9bbf
000007c0: 0000 0080 ed0c cd3f 0000 0000 6803 89bf
000007d0: 15d2 9a85 c1bf cc3f 2cbe c799 facb d3bf
000007e0: b5b2 18ef 26ed d2bf 3e26 f1c0 2da8 b53f
000007f0: cfbe 54ef a35d ccbf 45b6 0d8d 221c bd3f
0.1717011849661001 -0.4640570720656592 0.24925751006957764 -0.1864105442181302 0.10664588886663479 -0.15748682618141174 -0.2859317362308502 -0.4182189404964447
-0.23558029532432556 0.102683424949646 -0.21167617913884074 0.0808556593078056 -0.3863193942401277 0.42389583327818725 0.06983168902821076 0.29222941398620605
-0.12881866097450256 -0.2658160924911499 -0.36438190937042236 -0.08555623888969421 -0.16404101252555847 -0.012782365083694458 0.3968053460121155 0.01920926570892334
-0.4070501923561096 -0.15521968692110633 0.3616738675125734 0.38136983692766346 0.094911648635108 -0.3549096646643106 -0.2199502454388779 -0.2807036383673405
0.2784438346136396 0.24957595425509138 0.4024135568275578 0.37379854917526245 -0.41267502307891846 -0.0874796211719513 -0.3212490677833557 0.085968017578125
0.18935015729381385 -0.2511200425970131 -0.006603656319480747 0.11702400902668184 0.25108145237874174 0.30489860203857744 0.02294748837454761 0.06944481560523956
-0.40049644379913546 0.11444617298603531 -0.32109261312253806 -0.023617682446996024 0.3931780741104184 0.00531922181429927 0.138319063038622 0.2619885497261236
0.1928191179441163 0.003097461148055502 0.30418206282432037 -0.004442118530144932 -0.1584734320640564 0.10327941179275513 -0.35499274730682373 0.29825127124786377
-0.19943299889564514 -0.32368431714121787 0.2410241691356169 0.44145298286336626 -0.006987099601712236 0.29132374599646 -0.3503060053210507 0.24305139326544925
-0.12104356022989246 0.019700838653058314 -0.07666853300152744 -0.28154245018959045 -0.39090579748153687 -0.2809138894081116 0.3958856463432312 0.1273355484008789
0.17993173353223546 -0.03334161636442369 0.21841402088263148 -0.032786600663922374 0.12668161271928546 -0.0543722247803778 0.3786011132122872 0.1508777493088407
0.12555070836872143 0.24355375148759806 0.2305031418800354 -0.17867669463157654 -0.4265388250350952 0.046540647745132446 -0.28340089321136475 0.09157696887753199
0.06961421514836597 0.12444003201228274 0.2701492316261455 -0.19299422180536713 0.5176741817565309 -0.3925564077558867 -0.28426363669038107 0.24925729163787858
-0.01610066819276229 0.2008170485496521 -0.23314857482910156 -0.052512556314468384 -0.15051090717315674 -0.2524383068084717 0.4268262982368469 -0.1996842473745346
-0.30966246128082275 -0.41050320863723755 -0.41057053208351135 0.18725680359255975 0.32869228110771515 -0.05426925101653523 -0.4723958253853697 0.17331682799147893
-0.11689847707748413 -0.3861534297466278 0.3823000192642212 0.1358056664466858 -0.24432815611362457 -0.29294868324787604 0.0612690290435129 -0.34557627551051284
0.18893173597130575 -0.33030795880724284 0.3573336601257324 -0.11508020758628845 0.08344215154647827 -0.4326631426811218 -0.07486072182655334 -0.06321179866790771
-0.1253010332584381 -0.060605525970458984 -0.07296356558799744 0.3147851824760437 0.0529161421920478 -0.20919141200961683 0.24759745477814551 0.14963894669153782
-0.2974942995457676 -0.14019310474395752 -0.12256672978401184 0.3443242311477661 -0.013670265674591064 0.1359119415283203 -0.1553056836128235 0.21436315774917603
-0.09526622295379639 0.19238531589508057 0.035091787576675415 0.19413775205612183 0.016615450382232666 -0.32409489154815674 -0.39700549840927124 -0.2783563733100891
0.04895314430947282 0.16599537715169338 -0.23238898147510295 0.21220310792795646 0.31509715679594963 0.14429638557555635 -0.31277534752195046 0.05075374720908882
0.21881132603549094 0.38304920146104376 -0.2745234966278076 0.0585247278213501 -0.129891037940979 0.214630126953125 0.055469393730163574 -0.38239791989326477
-0.08170893788337708 0.031002163887023926 -0.35994672775268555 -0.3928275406360626 0.4277219820604213 -0.1333907811372171 -0.3619469098789887 0.052086486523019004
0.22599521459194596 0.3233059619335587 0.08569501206669915 0.23263920186310186 0.2570693089194225 0.3747360092253291 0.25857150381996535 -0.1348805397736303
-0.27177328482920526 -0.2000161074590463 -0.1114165471587211 -0.31884202537894013 -0.2784344267882888 0.5108510054754648 -0.15585458893409496 0.31533986345544596
0.4472180852787323 -0.12796307862005774 -0.3986397939996747 0.40410817644777197 -0.07790365340365887 0.06637710332870483 0.15834105014801025 -0.1603129506111145
-0.11477276682853699 -0.3749419152736664 0.024249494075775146 -0.1269947588443756 -0.22993823885917664 0.1692209243774414 -0.08096730709075928 0.14487098189863523
-0.03759247261656738 -0.4297341012907719 0.21742894865958576 -0.14201488246085897 -0.11771659050826912 0.45923050105601904 0.41497638125415465 0.2902022314990445
-0.3429223471118028 -0.5302600799183422 -0.04105273148365764 -0.3381797375323665 0.3497337610059222 0.25822088671737603 0.21421202653830218 -0.24644928027150254
0.001374229408261435 0.27928447476454676 0.15753098680097502 0.0879180876495188 0.3416014698304312 0.09861312038797246 0.37122868563344913 -0.07727251344486422
0.007558130637747667 0.27343197527277574 0.3763437348179917 0.17054202936738977 -0.011112326724046925 0.07042723894119263 -0.09770673513412476 -0.027212321758270264
0.2269570231437683 -0.012213528156280518 0.2246019270293266 -0.3093248845825396 -0.29572461461320226 0.08459745369432256 -0.22160767732702033 0.1137105554932641

fc1.bias f8 [64]
00000000: 8a76 eea9 f07b d0bf 0000 0080 bedb c43f
00000010: 075e 216b 7f8d d23f 0000 0000 fe83 b03f
00000020: 0000 0000 e5a4 d8bf 3557 2783 d288 c6bf
00000030: 7914 94be 41e2 cabf 0000 0060 4b8a d1bf
00000040: 09c6 d316 1464 dabf 8677 0fce 1c6a afbf
00000050: 9916 7f68 ea84 c23f f292 6d0e 4851 bbbf
00000060: 0000 0040 0d1b cabf 9c21 6537 30df d0bf
00000070: 1351 b2a5 2dec b9bf 0000 0080 a336 cb3f
00000080: 6efb 7623 2408 c9bf 371c dd71 14b8 b0bf
00000090: 0000 0040 2f60 ccbf 11c8 7cac d8c5 cebf
000000a0: e35b 2ecf 62b3 b23f 0000 0000 4a57 ac3f
000000b0: 0000 0000 983d a63f 09a1 aa9a e2c9 b9bf
000000c0: 0000 00e0 ae6e d0bf f5f7 8f94 0bc2 ca3f
000000d0: 0000 00c0 8ccf d7bf 0000 0060 45f3 cfbf
000000e0: 0a12 fd83 ab46 d0bf 0000 0080 6bb3 d5bf
000000f0: 0000 00a0 0efb d4bf 0000 00c0 2002 c4bf
00000100: 2a41 0fa8 d560 c4bf 9b66 4bd7 a8c8 dcbf
00000110: 0000 0080 bd3c c1bf 0000 0000 6003 73bf
00000120: b31d 9db2 e42d 9fbf f457 cf19 abc6 ce3f
00000130: 8e19 0706 c198 bcbf 85de bf3e f50c b83f
00000140: b8ff 075e 3d8d a7bf 0000 00e0 3c78 cabf
00000150: 0000 0000 7f04 a03f f8ba 3627 a725 d53f
00000160: bcb5 90e9 ae30 d13f 59d3 961a ca02 923f
00000170: 407f 9b6f 6c21 dfbf 48c3 7e96 f48b a2bf
00000180: e2b6 0059 9ad1 c2bf 0000 00e0 1b69 dcbf
00000190: 6d6f 8bd1 5e6d e03f b5e5 b316 b2eb d83f
000001a0: 1020 e38f 3850 aa3f 0000 0020 b4b5 d0bf
000001b0: 0000 00e0 eb9e d4bf 0000 0000 d682 ab3f
000001c0: 7af1 9cf9 2261 d1bf 31c1 cf6a 590e a5bf
000001d0: 0000 0080 1a7f d2bf 555d a0eb 12e9 dabf
000001e0: 0000 0000 c9c8 d0bf 5f68 74b9 7f78 cabf
000001f0: a9e1 d0db b9e2 d2bf c091 82fb e915 db3f
-0.257564702938773 0.16295605897903442 0.2898863359637009 0.06451404094696045 -0.38506436347961426 -0.17605048564899453 -0.2100298100050713 -0.2740658223628998
-0.41235830525610645 -0.06135644927392918 0.14468126394620098 -0.10670900680777232 -0.20395055413246155 -0.26362233552620196 -0.10126004500699919 0.21260493993759155
-0.19556094867399615 -0.06530883579135681 -0.22168532013893127 -0.24041279241788563 0.07304971273548193 0.05535346269607544 0.04343867301940918 -0.10073677326238707
-0.2567555606365204 0.2090467906381829 -0.37204283475875854 -0.24961154162883759 -0.25431335343844863 -0.3390759229660034 -0.32782331109046936 -0.1563149392604828
-0.15920515733751844 -0.4497472860799491 -0.13466614484786987 -0.004641890525817871 -0.03044850673839301 0.24043787727595112 -0.11170584103738276 0.09394772321672391
-0.04599944851724963 -0.2067943662405014 0.03128430247306824 0.3304231532046482 0.2685963898573751 0.017588765976785357 -0.4864150133052938 -0.03622402512644968
-0.14702157350386985 -0.44391533732414246 0.5133508770627323 0.38938572136938926 0.051393287243229335 -0.26109030842781067 -0.3221997916698456 0.05373257398605347
-0.2715537488582168 -0.04112510136463 -0.2890077829360962 -0.4204757023848818 -0.2622549533843994 -0.20680233531385547 -0.29508825746918405 0.42321252404715537

fc2.weight f8 [128, 64]
00000000: 8260 f01f e97b c53f 0000 0080 7bd3 a83f
00000010: ce24 71a5 c234 cdbf 0000 0080 ed40 b53f
00000020: 0000 00c0 a7f9 b3bf 232b 9048 64aa 983f
00000030: 183f b109 2a04 b9bf 0000 00c0 2e83 b53f
00000040: 0d46 bf32 3f62 85bf 5ae9 7f0b 8e62 bbbf
00000050: 465d dd36 11d2 cb3f 1a2b cdb3 9aec 72bf
00000060: 0000 0000 e062 a73f 20bf 0bd6 e887 c73f
00000070: 5761 daee 6525 ae3f 0000 0080 dd6e bdbf
00000080: fbe9 bc5c 40c0 b13f 5811 96ba a3fe a4bf
00000090: 0000 0080 7eda b9bf 809b f0f9 1fbe b13f
000000a0: eeaa 1222 2113 ddbf 0000 0000 62e4 bf3f
000000b0: 0000 0000 176f b1bf bcee 1170 3150 b1bf
000000c0: 0000 0080 db41 ab3f 1c2a 6b84 924c aebf
000000d0: 0000 0000 a708 bebf 0000 0080 2d93 bc3f
000000e0: 1ca0 e85e ba9f a4bf 0000 0040 67ee be3f
000000f0: 0000 0000 ab2e 9abf 0000 0080 089e a03f
00000100: 429d 63dd ad55 b53f d5a5 27f9 f018 b33f
00000110: 0000 0000 7fd0 af3f 0000 0040 d75a b43f
00000120: 7116 a83a 0009 afbf f8ff 8ff3 abac c13f
00000130: da6a 6e50 a4dd b1bf fd6a 9bfd 7c52 b33f
00000140: dca6 f5a8 2d5e c9bf 0000 0040 a9bc b8bf
00000150: 0000 0080 676f acbf f7c5 bd3f ab20 c5bf
00000160: 52e1 6635 ca3d c23f 487a 2c0f 752b c33f
00000170: 6f07 8dce 69c9 ba3f 5d4e d92d 9d54 c33f
00000180: 0b30 88c6 25cb 9fbf 0000 0040 1085 bebf
00000190: 8ed2 6832 b232 ccbf f481 c52d 941d b63f
000001a0: feb7 9bb3 ed92 c03f 0000 0000 395c a3bf
000001b0: 0000 0080 c2a6 a63f 0000 0000 83f8 b2bf
000001c0: dbc8 4dd0 a615 a3bf 9fa1 b605 dece d13f
000001d0: 0000 0000 bb5f afbf 3e51 476c 2077 cf3f
000001e0: 0000 0000 319b 953f f337 139b 3da3 a2bf
000001f0: 853e b913 6ce8 bf3f 8e3e 181a f80e ccbf
00000200: 3bb3 5f3e d2d4 c23f 0000 0000 0e58 a83f
00000210: 1ea7 559d 2312 acbf 0000 0080 b274 bdbf
00000220: 0000 0000 153d b93f 6154 9372 e0b7 c73f
00000230: 3672 4899 869e b33f 0000 0000 5e28 a0bf
00000240: 68d3 03e6 b894 bfbf a86d a255 2bb3 c13f
00000250: 57c6 fbec e096 bf3f fdd5 a78f 48df c23f
00000260: 0000 0000 70ff b1bf 3e7d 87e0 dc79 c03f
00000270: c595 abdb 1c05 71bf 0000 0000 6918 adbf
00000280: 03d0 f5d9 20ce be3f e2bf a0d5 ec28 c13f
00000290: 0000 0000 62da 913f 63aa db23 a691 c23f
000002a0: 87a8 709c 2853 dcbf 0000 0000 627b bf3f
000002b0: 0000 00c0 10a0 bebf 0788 b25d bc35 b03f
000002c0: 0000 0080 eafd a83f bfe0 138a 47d9 883f
000002d0: 0000 0040 e231 b3bf 0000 0000 cc52 893f
000002e0: 7336 a7be 1a07 c0bf 0000 0040 2580 babf
000002f0: 0000 0000 205a bb3f 0000 00c0 8aa4 b53f
00000300: e51a 06f4 1e02 b03f 07aa 8699 1adf 813f
00000310: 0000 0080 14e5 b0bf 0000 00c0 d7cb b13f
00000320: c9bd 54fd 67be c9bf ebec b49a e35a 7dbf
00000330: 5306 0aa0 2175 abbf 7cf6 68d9 8f48 a93f
00000340: 8424 a68f 978f cbbf 0000 0000 82a6 98bf
00000350: 0000 0000 7e0b ab3f 0cda c31f 13e3 c1bf
00000360: e893 66c8 b521 c33f 669e e785 14e0 b73f
00000370: a99f 8650 5285 b2bf b786 e0db 8272 973f
00000380: 1dd6 6491 8509 bc3f 0000 0000 2ba9 95bf
00000390: 5330 2c83 8acf d6bf 6e33 46ab 9a9e 8fbf
000003a0: ca4b 7f0e 2eea b73f 0000 0000 f07a 51bf
000003b0: 0000 0000 57d5 a43f 0000 0080 8822 a3bf
000003c0: d9e0 976b a4b3 b23f b32e 8a00 dfde d83f
000003d0: 0000 0000 1962 993f de40 063f d174 b23f
000003e0: 0000 0040 ef62 b33f 291f 517a ee1d a2bf
000003f0: 2e0b 2843 23ff 94bf 3249 8239 06bb d1bf
00000400: 0000 0080 2142 aa3f 0000 00c0 6b5c bd3f
00000410: 0000 0000 19cf ac3f 0000 0000 917f 95bf
00000420: 0000 0000 1f42 a7bf 0000 0000 eb0a 993f
00000430: 0000 0000 4844 983f 0000 0000 c204 9fbf
00000440: 0000 00c0 63b3 bd3f 0000 0080 a9a7 bd3f
00000450: 0000 0000 bc86 8d3f 0000 0080 79c3 a2bf
00000460: 0000 00c0 424a bf3f 0000 0000 cbb0 b73f
00000470: 0000 0000 da55 853f 0000 0040 17bc bd3f
00000480: 0000 0040 e9e5 b7bf 0000 0000 28e9 673f
00000490: 0000 0080 8a3b ae3f 0000 0000 f874 823f
000004a0: 0000 0040 0864 bbbf 0000 0080 5d55 aa3f
000004b0: 0000 0000 bcd2 853f 0000 0000 71ea a43f
000004c0: 0000 0000 32e7 abbf 0000 0000 edc6 a4bf
000004d0: 0000 0040 cdc8 b3bf 0000 0080 2bce a1bf
000004e0: 0000 0000 f8a5 7b3f 0000 0000 3d61 a63f
000004f0: 0000 0000 d464 9bbf 0000 0000 242b 79bf
00000500: 0000 0000 08be 813f 0000 0000 f902 95bf
00000510: 0000 0000 0680 b43f 0000 0000 ae40 8fbf
00000520: 0000 00c0 06a1 b43f 0000 0080 c820 afbf
00000530: 0000 0080 5558 b83f 0000 0000 a326 a93f
00000540: 0000 0000 ee98 973f 0000 0000 36ff 8b3f
00000550: 0000 0000 59cc 943f 0000 0080 0316 bc3f
00000560: 0000 0000 5175 bb3f 0000 0080 b485 bd3f
00000570: 0000 0000 81ae aabf 0000 0080 1c41 ba3f
00000580: 0000 0080 0ba5 b9bf 0000 0080 847b bebf
00000590: 0000 00c0 a774 ba3f 0000 0080 bffc b5bf
000005a0: 0000 0080 ccd1 a6bf 0000 0000 1457 bcbf
000005b0: 0000 0080 a6f6 b63f 0000 0000 5724 9ebf
000005c0: 0000 0080 75e0 a3bf 0000 0000 b441 813f
000005d0: 0000 00c0 819c b8bf 0000 00c0 2ed2 b23f
000005e0: 0000 00c0 38c3 b33f 0000 00c0 c30a b2bf
000005f0: 0000 0000 e1dd 923f 0000 0000 7a72 afbf
00000600: 0000 0080 eeee babf 0000 0000 a614 903f
00000610: 0000 0000 6413 b4bf 0000 0000 f8a8 9b3f
00000620: 0000 0080 6f2c a1bf 0000 0000 a6ec aebf
00000630: 0000 0000 32aa b13f 0000 0000 835e b6bf
00000640: 0000 0000 9da3 93bf 0000 00c0 0687 babf
00000650: 0000 0000 be9c 913f 0000 0000 a3d5 bb3f
00000660: 0000 0000 b8fd 793f 0000 0000 ec8d bbbf
00000670: 0000 00c0 3148 b4bf 0000 0080 6577 b2bf
00000680: 0000 0040 d13c b23f 0000 0080 40b7 b33f
00000690: 0000 0000 7842 aebf 0000 0000 578d a23f
000006a0: 0000 0000 589f 613f 0000 0000 34bb 733f
000006b0: 0000 0080 04cd b3bf 0000 0040 0071 bc3f
000006c0: 0000 0000 1463 973f 0000 00c0 43de b33f
000006d0: 0000 0000 2393 a6bf 0000 0080 fdc4 a73f
000006e0: 0000 0080 b4da b4bf 0000 0080 1b68 b83f
000006f0: 0000 0040 f375 b23f 0000 0000 1ecb 82bf
00000700: 0000 00c0 5720 b3bf 0000 0040 1ab3 b7bf
00000710: 0000 0000 b48b 703f 0000 0080 b6b8 aabf
00000720: 0000 0000 ab94 913f 0000 0040 9ebb b9bf
00000730: 0000 0040 1196 bb3f 0000 0000 404b bbbf
00000740: 0000 0000 1010 6c3f 0000 00c0 cce3 b0bf
00000750: 0000 0080 7286 a9bf 0000 0080 9af3 b43f
00000760: 0000 0080 f5fb b4bf 0000 0000 6467 b6bf
00000770: 0000 00c0 3c4e b1bf 0000 0040 f0dc b8bf
00000780: 0000 0000 204c 82bf 0000 0000 0cd3 9fbf
00000790: 0000 0000 4839 9f3f 0000 0080 f250 ae3f
000007a0: 0000 0000 60b7 af3f 0000 0040 44be ba3f
000007b0: 0000 0000 e0ef 5b3f 0000 0000 871d a73f
000007c0: 0000 0080 3634 b53f 0000 0080 d411 a03f
000007d0: 0000 0000 c288 99bf 0000 0000 97b2 98bf
000007e0: 0000 0000 0c8e 7cbf 0000 0080 a5e5 a23f
000007f0: 0000 0000 f98c b9bf 0000 0000 0336 babf
0.16784395274658342 0.04848848283290863 -0.22817261770459257 0.08302196860313416 -0.07802818715572357 0.024087492875007343 -0.09771979080801108 0.08403293788433075
-0.010441297279530049 -0.10697257786515504 0.21734824351254128 -0.004620174699833135 0.045676231384277344 0.18383512927493317 0.058879075438371835 -0.11497291922569275
0.06933977378950111 -0.041005245710979465 -0.10099020600318909 0.06930732585952448 -0.45429256751474056 0.12457859516143799 -0.06810134649276733 -0.06762989984593565
0.05323682725429535 -0.05917795053899885 -0.11731952428817749 0.11162075400352478 -0.04028112801125891 0.12082524597644806 -0.025568649172782898 0.032455697655677795
0.08333861022002956 0.07459932406313581 0.06213757395744324 0.0795111209154129 -0.060615546379307335 0.13808202164364025 -0.06978823627143119 0.07547742072658177
-0.19818659543971406 -0.09662874042987823 -0.055537447333335876 -0.1650594769703699 0.1425106774093004 0.14976371041207615 0.10463582318064167 0.1510197137709949
-0.0310483839439684 -0.1192178875207901 -0.22029712163352538 0.08638883702725036 0.12948390264449466 -0.0378129780292511 0.04424102604389191 -0.07410448789596558
-0.037274563720431884 0.27825117643308234 -0.06127724051475525 0.24582295691528516 0.021099820733070374 -0.03640167730337387 0.1246402309563966 -0.2192068221488523
0.14711978955838298 0.04754680395126343 -0.05482589049900198 -0.11506190896034241 0.09858828783035278 0.18529897303111212 0.07663766138325276 -0.03155797719955444
-0.12336307159041626 0.13828031236049054 0.1233959749768244 0.14743906988557845 -0.07030391693115234 0.128718957551408 -0.004155266501333303 -0.05682685971260071
0.1203327686433227 0.1340614359955899 0.017434626817703247 0.14506985426790484 -0.44257560040808425 0.12297642230987549 -0.11962990462779999 0.06331994330915346
0.048812225461006165 0.012133177663131154 -0.07497991621494293 0.012364953756332397 -0.12521681126820602 -0.10351784527301788 0.10684394836425781 0.08454196155071259
0.06253236253369783 0.008726318178408311 -0.0659954845905304 0.06951664388179779 -0.20112323636702303 -0.00716675670565368 -0.053628016267805244 0.049381728448207846
-0.21531958116637295 -0.02407267689704895 0.0528220534324646 -0.13974227000262862 0.149466250278379 0.09326294202002713 -0.07234682527507509 0.022897762937765544
0.10952029037147111 -0.02115313708782196 -0.3564173012716811 -0.015439232208132227 0.09341705182968876 -0.0010669082403182983 0.04069015383720398 -0.03737284243106842
0.07305362345494205 0.38860297253334436 0.024788275361061096 0.07209499157602603 0.07572837173938751 -0.03538460963369367 -0.020504523252394317 -0.2770400582895888
0.05128578841686249 0.11469148099422455 0.05626752972602844 -0.020994439721107483 -0.04542633891105652 0.024455711245536804 0.023697972297668457 -0.030291587114334106
0.11601851880550385 0.11583957076072693 0.014417141675949097 -0.036647602915763855 0.12222687900066376 0.0925413966178894 0.010417655110359192 0.11615128815174103
-0.09335191547870636 0.0029187947511672974 0.059048011898994446 0.009012162685394287 -0.1069951206445694 0.0514325350522995 0.010655850172042847 0.04085114598274231
-0.054498255252838135 -0.040580183267593384 -0.07728274166584015 -0.034776076674461365 0.00675007700920105 0.0437106192111969 -0.026751816272735596 -0.006144657731056213
0.00866323709487915 -0.020519152283668518 0.08007848262786865 -0.015260085463523865 0.08058206737041473 -0.06079699099063873 0.0950978696346283 0.049122899770736694
0.023044317960739136 0.013670369982719421 0.020310774445533752 0.10971090197563171 0.1072588562965393 0.11532142758369446 -0.05211260914802551 0.1025560200214386
-0.10017463564872742 -0.11907222867012024 0.10334251821041107 -0.08588787913322449 -0.044569388031959534 -0.11070370674133301 0.0897010862827301 -0.029435500502586365
-0.038821861147880554 0.008426100015640259 -0.0961381047964096 0.07351963222026825 0.0771975964307785 -0.07047675549983978 0.01842452585697174 -0.0614202618598938
-0.10520830750465393 0.01570376753807068 -0.07842087745666504 0.027011752128601074 -0.03354214131832123 -0.06039923429489136 0.06900322437286377 -0.08737963438034058
-0.01917882263660431 -0.10362283885478973 0.01719948649406433 0.10872858762741089 0.006345480680465698 -0.10763430595397949 -0.07922659814357758 -0.0721343457698822
0.07124049961566925 0.07701495289802551 -0.05910086631774902 0.03623458743095398 0.002151176333427429 0.004817202687263489 -0.07734706997871399 0.1110992580652237
0.022838890552520752 0.07761023938655853 -0.04409131407737732 0.04642479121685028 -0.08146217465400696 0.09533855319023132 0.07211227715015411 -0.009176477789878845
-0.07471226155757904 -0.09257663786411285 0.004039481282234192 -0.052190497517585754 0.017168685793876648 -0.1005190759897232 0.10775859653949738 -0.10661697387695312
0.0034256279468536377 -0.06597594916820526 -0.04985387623310089 0.0818420946598053 -0.08196958899497986 -0.08751511573791504 -0.0676000565290451 -0.09712125360965729
-0.008934259414672852 -0.0310785174369812 0.030491948127746582 0.059211328625679016 0.06194591522216797 0.10446573793888092 0.0017051398754119873 0.04514715075492859
0.08282795548439026 0.031386032700538635 -0.024935752153396606 -0.02411876618862152 -0.006971403956413269 0.036908313632011414 -0.09980732202529907 -0.10238665342330933

fc2.bias f8 [128]
00000000: 825b d372 ec2a 9dbf f645 4b3d bda3 a83f
00000010: 0000 0080 186d b8bf 0000 0000 0a1b 8b3f
00000020: 483d 02e5 f537 90bf 75f3 e992 36c1 8c3f
00000030: 0000 0040 d8fe b0bf 0000 0080 82a7 a6bf
00000040: 0000 0040 e69e b2bf 8dea 11a5 3368 a9bf
00000050: 0000 0000 32fb 8ebf 3251 c747 6ff4 abbf
00000060: 6d2e dcb3 4d17 a43f 94ae eb1f 69b9 c2bf
00000070: a37c e74b 3432 9e3f 5237 56f2 db56 b9bf
00000080: 698e 12ee ef1f be3f 0973 17db 8287 c5bf
00000090: 368c 30df 4a12 a63f 0000 00c0 7926 bcbf
000000a0: 0000 0000 6424 a8bf dd3b 7c93 a5b1 b33f
000000b0: 15d5 9451 c136 97bf 0000 0000 0e99 a83f
000000c0: 0c7d 99a3 1bf9 c13f 0000 0080 5112 a1bf
000000d0: f5fe c814 16e8 b1bf b704 7463 b78c 86bf
000000e0: 56f4 7d45 f994 b13f 766c e830 50e0 c1bf
000000f0: 007b b724 c3a8 a1bf b95e c1e6 3dcc 953f
00000100: 0000 0000 bd99 adbf 0021 49dd a6f4 9fbf
00000110: 46ec 2298 77ce aa3f ef4a 57ef 159b 74bf
00000120: 0767 343a 66e5 acbf 0000 0080 adfc b2bf
00000130: 0000 0080 628a a1bf 0000 0000 64f7 a2bf
00000140: 2b9f c37b c483 bfbf a6d5 ea01 c733 c4bf
00000150: a9d4 d157 2eaa bf3f 0000 0000 f7c7 a03f
00000160: 0000 00c0 8e3e b8bf 5a21 63a0 7bfc 9a3f
00000170: 485b 7bab c3fd c4bf 0e08 8831 b184 94bf
00000180: a7ad e068 a792 b7bf 3358 2f5f 5347 c53f
00000190: 0000 00c0 ffcf bdbf 0000 0000 b75f 94bf
000001a0: 8861 7f1c 21a2 933f 9037 118d 6b35 a1bf
000001b0: 34b1 0ebe 7241 a6bf 0000 0000 fca6 853f
000001c0: 7ede b7e4 71e1 a4bf 0000 0080 86fe a7bf
000001d0: 0000 0000 d6c9 93bf 3009 49ee 40e9 c0bf
000001e0: f932 e47f 1e51 b0bf 0000 0080 0a11 b2bf
000001f0: 7ba5 a61e 203d babf 0000 0000 a7b3 aebf
00000200: 0000 0000 7d20 a6bf 996b ff2b 9c70 c03f
00000210: 964f 6b16 4dbe 98bf 644d bd71 a8b7 c13f
00000220: eaac 7435 6b45 a63f df53 26f9 0798 a33f
00000230: 098b 10bc ab54 ab3f 3e85 8e07 0606 b8bf
00000240: 0000 0000 b53b adbf 5afa 0d64 142b 9dbf
00000250: 8e34 900a 4a00 b63f ec84 846d 23c8 af3f
00000260: bfec 0da7 5b0e bb3f 0000 0080 ffb8 a8bf
00000270: 4dbe d4ba 5ad1 be3f 0000 0000 9012 50bf
00000280: 0000 0000 20d5 61bf 0000 0000 d235 a43f
00000290: 12f9 7370 ebe2 b5bf 34aa 1e6c fef7 c1bf
000002a0: 0000 00c0 68f8 bbbf e0cc 7b02 becf 923f
000002b0: 8f52 d65d 9b3d babf 755b 99ef 68b5 a03f
000002c0: 69ad 0d05 b434 8b3f 6283 025c 3c89 b83f
000002d0: e1b5 88e4 ccdf c1bf 51be 3d23 031f c6bf
000002e0: 0000 0000 4e8a 8a3f 6134 0cc8 cce1 aabf
000002f0: 09ba aeb4 e832 a73f f933 9d94 aa95 b1bf
00000300: 5685 a24e cd76 b83f 0000 0000 9da1 b7bf
00000310: c80d ffd6 152b b9bf 6045 22ed ecd6 b5bf
00000320: 8297 0807 d963 533f ed2c 1b25 0102 aebf
00000330: e655 aaf1 207e a03f 62bc 04d7 4cd5 963f
00000340: bd82 8c00 b2d3 873f 799b 7fca 1edc bd3f
00000350: 065f 6c63 dabe 8ebf 1df6 e9ea 3f36 c6bf
00000360: 0000 0000 4afb 893f 1f45 8df7 a621 b03f
00000370: c6c3 bffa cb6d 973f df78 4cdc 941a c03f
00000380: aef6 c66a 2c09 a8bf 0000 0000 374a afbf
00000390: 0492 ee36 b6c5 b5bf 0dc0 a7d7 5735 91bf
000003a0: 11c9 30bb 6a80 b1bf 279e f03a 19d0 a83f
000003b0: 4ff4 046c 3606 90bf d491 9024 cb73 bdbf
000003c0: a59f 674e 1cc9 ba3f 1ee9 f8b4 57ae c3bf
000003d0: 3c7e d624 bb62 b53f 0000 0000 6295 b73f
000003e0: e66b 125e df79 b93f 089f 8a1f 2962 bc3f
000003f0: ff1f cd10 7c4f ad3f 0000 0000 bdfe 98bf
-0.028484053142928463 0.04812423108308998 -0.0954146683216095 0.013235166668891907 -0.015838472464165393 0.014040399893241443 -0.06638862192630768 -0.044246748089790344
-0.07273711264133453 -0.049623121166367225 -0.015127554535865784 -0.05459926367953684 0.039240291791512096 -0.1462832837927307 0.029488389141871917 -0.09898161570000966
0.11767482340160886 -0.16819797227699265 0.043108310456112894 -0.1099620908498764 -0.04715263843536377 0.07692942476954508 -0.022669811825115255 0.04804271459579468
0.1404146717859266 -0.0333428829908371 -0.06994760520410266 -0.01101058265931197 0.06867940851766838 -0.13965799701768206 -0.03449067900850444 0.021286933144749585
-0.057813555002212524 -0.03120671010609133 0.05235646946081167 -0.005030713733008992 -0.056437677960458336 -0.07416805624961853 -0.03425891697406769 -0.03704369068145752
-0.12310436269364959 -0.15783012002581848 0.12369050640139058 0.03277561068534851 -0.09470455348491669 0.026353770889529705 -0.16399427292955182 -0.02003743042769917
-0.09208151159753318 0.1662391867418492 -0.1164550632238388 -0.01989637315273285 0.019173161854128234 -0.033610688181041515 -0.04346808023487583 0.0105724036693573
-0.04078250805826843 -0.046863749623298645 -0.01932463049888611 -0.13211833605789414 -0.06373777983044339 -0.07057252526283264 -0.10249520061792865 -0.059964388608932495
-0.04321661591529846 0.1284365858872121 -0.024163441174848886 0.1384172969215839 0.04349837329422164 0.03826928058985123 0.05338036223135673 -0.09384191212167978
-0.05709615349769592 -0.028484648329590058 0.08594191320317376 0.062073809737066415 0.10568783596493157 -0.048286423087120056 0.12038199483208097 -0.0009809881448745728
-0.002176821231842041 0.039473116397857666 -0.08549376960215607 -0.14038067130361898 -0.10925917327404022 0.018370598699175456 -0.10250254670092772 0.03263404774468529
0.013284117130487787 0.095844051802954 -0.13964234503639175 -0.17282141896019934 0.012959107756614685 -0.05250396673191272 0.04531027989957088 -0.06868997696183489
0.095562774370156 -0.09230977296829224 -0.09831367968495563 -0.08531075276757383 0.001183473530667695 -0.05860904291110978 0.0322122855188061 0.022298050521552766
0.011634245530843907 0.11664001888094146 -0.015012460860404097 -0.1735305687943062 0.01268632709980011 0.06301349204774852 0.022879779033192958 0.12581120259068876
-0.04694498828346859 -0.06111308932304382 -0.08504809228049487 -0.016805050408891065 -0.06836573667604663 0.04846266598206866 -0.01564869913385208 -0.1150481189984654
0.10463120378665154 -0.1537580140737384 0.08353776597368151 0.09212315082550049 0.09951587721518215 0.110872812462386 0.05724704461187002 -0.024409249424934387

fc3.weight f8 [64, 128]
00000000: 5c73 c9cc 2907 923f 7684 3e21 e638 babf
00000010: 0000 0020 80e8 b03f 0000 0000 e649 923f
00000020: 9c87 16df add7 b0bf 7ddf 01c9 b88e 8c3f
00000030: 0000 0000 1476 633f 0000 0080 59fc b0bf
00000040: 0000 00c0 5905 aa3f 0000 0000 43c6 823f
00000050: 0000 0080 98fa b3bf 0000 00c0 18f8 ad3f
00000060: ef8e 98d5 1bb1 b7bf 0000 0020 95b3 adbf
00000070: 41b6 8b76 8d7d afbf 0000 0000 9e6e 993f
00000080: 7d71 7c32 d417 b9bf 0000 0000 48c5 813f
00000090: 0000 0000 229e 99bf 0000 0020 4161 b6bf
000000a0: 0000 00c0 e6a3 b4bf df07 c1b3 9916 c0bf
000000b0: 0000 0080 5dc9 9ebf 0000 0000 708b 693f
000000c0: e027 9bd5 1ada b2bf 0000 00e0 279a b0bf
000000d0: 0000 0000 05ff 9d3f 0000 00c0 ddc7 ae3f
000000e0: b0a2 71fd 4068 c1bf 0000 0040 1b8d a43f
000000f0: 0000 00a0 fd4b b03f 0000 0000 c41f 8e3f
00000100: 0000 00a0 15b4 a0bf 0000 0000 cd8a 813f
00000110: 0000 0000 24a8 8dbf 0000 0060 bd02 b1bf
00000120: 0000 0080 57d6 97bf 0000 00a0 c571 a3bf
00000130: 0000 0080 ce6c 9abf 0000 0000 d29f 73bf
00000140: 0000 0080 4c10 913f 0000 0040 3475 a43f
00000150: 6cc4 5280 de99 913f 0000 0040 b220 a53f
00000160: 0000 0000 1b85 8f3f 0000 0000 2e58 85bf
00000170: 0000 00c0 671e a4bf 0000 0060 f8b1 b0bf
00000180: 0000 00c0 c3d7 9fbf b33c 3b63 5a62 91bf
00000190: 0000 00c0 06c3 ab3f 0000 0080 b5e6 9bbf
000001a0: a53b d183 d42e 6a3f 1f8f a90b 4a03 b0bf
000001b0: 0000 0020 624c b53f 0000 0000 80ae a03f
000001c0: 0000 0040 bb82 af3f 0000 0000 8536 96bf
000001d0: 0000 00c0 73a4 b4bf 0000 0000 fda3 a6bf
000001e0: 0000 0000 c2f9 813f 0000 0040 34b4 a23f
000001f0: 0000 0040 8d66 a6bf 0000 0040 ea4d a2bf
00000200: 0000 0040 cd82 a43f f161 d0d9 6332 b4bf
00000210: 0000 0000 47e4 98bf cc52 2168 d9cc babf
00000220: ddd2 921a 0db4 b8bf f9c4 c5bd a22f bfbf
00000230: 2f34 9fbc 5171 913f 0000 00c0 465a a73f
00000240: 0000 0060 78d9 b23f 16a7 76b3 e70f b5bf
00000250: 508b 7136 ac13 a7bf 0000 00a0 daa3 aebf
00000260: ef31 58cd f69b 90bf 0000 0000 4008 2abf
00000270: a305 bdcd 43a9 aebf 0000 0080 9b39 b1bf
00000280: 0000 0080 27f1 a6bf 0000 0000 d41c 92bf
00000290: 0000 0080 5b78 b0bf 0000 00a0 5ca4 b13f
000002a0: 0000 0040 0741 a33f 0000 0060 eff5 a4bf
000002b0: 0000 0000 e8af 86bf 1128 7f4c ba73 c2bf
000002c0: 5fdf 16ae f4a7 c2bf 0000 0080 2045 a6bf
000002d0: 0000 0000 82ac 83bf 0000 00a0 27fd adbf
000002e0: 0000 0000 8770 a7bf 0000 0020 1c18 b6bf
000002f0: a352 b6f4 d6ff b4bf 0000 00e0 6b85 acbf
00000300: bcbd 5bd2 d2ea b3bf 0000 0020 6941 b53f
00000310: 0000 00e0 e340 abbf 0000 0040 256d ac3f
00000320: 0000 00c0 e10d a2bf 5b66 e0f2 c7ea bbbf
00000330: 0000 0080 2a83 9e3f 0000 0020 7846 b6bf
00000340: 0000 00e0 ade9 a8bf 1196 7f44 1c8e 9fbf
00000350: 0000 00c0 4b7c aa3f 0000 0000 c6be 85bf
00000360: 0000 0000 f94b 8bbf fb10 16ea 3585 c3bf
00000370: 0000 0060 4a00 a6bf 7a6a d3c5 b62b b0bf
00000380: f340 42ec 07b5 933f 0000 00c0 481a af3f
00000390: 79c0 b319 0026 703f 0000 0000 d856 95bf
000003a0: 0000 0040 44ac af3f 0000 0060 8ec9 b5bf
000003b0: 0000 0000 6fb3 91bf 0000 0040 8980 9ebf
000003c0: d07b 80ba 8e33 50bf 0000 00a0 f422 b63f
000003d0: d6e4 9671 f7e4 b6bf 0000 00e0 f02b b5bf
000003e0: c02f 1151 52d5 bebf 9cd2 d8b5 0dc9 b5bf
000003f0: d715 eac5 48c4 b4bf 0000 0040 e279 afbf
00000400: 4b49 652e adbf 783f d8f6 47f8 f0ec b0bf
00000410: 0000 00a0 bdc5 b2bf 0000 0080 6158 a8bf
00000420: 9025 0953 f688 c2bf 62f4 6ba5 85a6 bcbf
00000430: 0000 0000 fc65 6f3f 0000 00a0 e0ce b1bf
00000440: 0000 0060 5730 a4bf 4ca6 e6d7 46dc a03f
00000450: 0000 00c0 9f2a a63f 0000 0040 acb3 a33f
00000460: eb13 91c5 5a07 50bf caf0 dc7e 1951 9a3f
00000470: d1de 3e25 a045 b4bf 1314 da5f 5fd4 963f
00000480: aa21 7e6e be2d 713f 6f10 b8f8 7c3d 973f
00000490: d904 7fa9 55d2 c03f 0000 00c0 fe0c a1bf
000004a0: 0000 0080 5f87 9a3f 12e2 0c3f 5ff1 b2bf
000004b0: d8d9 3209 3c79 ba3f 0000 0000 de0c 763f
000004c0: 20e8 32bb 7332 abbf 0000 0000 e8d6 87bf
000004d0: 0000 0000 7cb1 7dbf d268 7094 26dd a93f
000004e0: 5ff1 af33 2ebe afbf c93a 4b81 b4af af3f
000004f0: 6e1a 281c 8368 9bbf 5e0b ca67 c371 873f
00000500: 0000 0020 63af b53f 3552 8a77 6edc 66bf
00000510: bbc5 551a c5d0 a43f ff7c 87fb e56a c13f
00000520: cb8c b15a 4e58 a33f 0000 00a0 4eae aebf
00000530: 0000 00a0 705f b53f 0000 0020 c538 b4bf
00000540: 7c38 8609 3c2d c2bf 4202 1c93 c880 9e3f
00000550: 3bad 9965 5ff4 a03f 0000 0060 5bb9 b43f
00000560: 0000 0080 e0c6 b1bf d5e1 faf5 0e2a b03f
00000570: aa7d 2433 a0e7 aa3f 20c5 6f0e 4181 a83f
00000580: 7e31 dde2 d89f a13f 5cea 873c a88e babf
00000590: 0000 00c0 dab7 a63f 0000 0000 20b9 6b3f
000005a0: ba24 5e94 50fa aa3f e035 c0b6 9d46 793f
000005b0: b5cd 96f2 00fc a93f 0000 0020 b31f b03f
000005c0: 2019 2b65 467d 72bf 0000 0040 bdb6 a83f
000005d0: 0000 0080 e578 97bf 0000 0000 4c6f 723f
000005e0: b4d7 8daa bdfb a43f 0000 0000 a824 693f
000005f0: b53d 9d2d ee71 c23f 0000 0040 d319 acbf
00000600: 0000 00e0 b3d7 b53f 91ce 9a76 41e9 afbf
00000610: 60f5 a1e1 6eff 9d3f 3def 5ec2 c8a7 a1bf
00000620: 3d5a 503b 973a a93f a884 6274 3c22 99bf
00000630: 0000 0000 2c07 71bf ba85 da83 f6aa bc3f
00000640: 0000 0020 9a6f b13f c449 f898 51c6 993f
00000650: 4863 5921 6d69 913f fa10 96e8 2ac0 b53f
00000660: d91c 7437 f9ea a6bf 0000 00c0 77c4 a8bf
00000670: a361 badd 87ed 6b3f 0000 0020 516b a3bf
00000680: 0000 0040 6fd8 aa3f 0000 0040 70da ae3f
00000690: 6ab0 6f24 4196 b83f 4793 ea5f 3a87 913f
000006a0: 0000 0000 f587 a13f 6da7 241c 70d5 bf3f
000006b0: 8a5f 255e dda2 b23f f38d 86ac c50e b83f
000006c0: d1e2 f3ca dd55 943f 0000 00c0 9cae a63f
000006d0: 125b ead5 6c52 b83f eb98 8459 1931 b93f
000006e0: 0000 0080 7eda 913f fc50 8325 1b9a 5bbf
000006f0: 9a06 a6bc a316 b5bf 00ec 1aa1 2276 803f
00000700: 7ee6 766a 201e b2bf 0000 00e0 c44f b53f
00000710: 6bec ff80 8e04 9b3f 1a46 72d4 c249 87bf
00000720: bce2 c62b 95ef bd3f 6c04 9613 743d 923f
00000730: 96c4 a992 e43d a83f ec0d ecf2 3b31 ad3f
00000740: dcc2 9490 54a5 8bbf 76af c69e e0e4 9ebf
00000750: 2dc1 3562 13cd 903f 77c3 f714 9026 c13f
00000760: 0000 0000 2e6e 803f 8093 dbb6 14bc b4bf
00000770: cd0e 137b 7053 b93f 2538 2b91 8e99 9bbf
00000780: dd60 ea3b 942a ae3f 0000 0080 8d43 98bf
00000790: c0d1 f7e7 b086 bfbf 0000 00e0 546e b53f
000007a0: b4e1 24d6 0e69 b2bf 9745 e160 c2e2 bb3f
000007b0: 0000 00c0 3bbc a23f 3ad5 d1d0 59fd b53f
000007c0: 07ae 4e82 1b29 96bf 0000 0040 f2fd aebf
000007d0: 6f69 c087 3370 b8bf 0000 0020 7102 b0bf
000007e0: 0000 0000 909f 933f 041d dae1 4381 a4bf
000007f0: 99be ad09 2854 aabf 0000 0000 03d9 8abf
0.017605450748635718 -0.10243070899606885 0.06604767590761185 0.01786002516746521 -0.06579100319370784 0.013944095262772066 0.0023756399750709534 -0.0663505494594574
0.050822071731090546 0.009167216718196869 -0.07804253697395325 0.058533452451229095 -0.09254621472114953 -0.058010730892419815 -0.06150476524440452 0.024836033582687378
-0.0980198500878426 0.008677065372467041 -0.02501729130744934 -0.0874214842915535 -0.08062593638896942 -0.12568970944454258 -0.03006502240896225 0.0031182467937469482
-0.0736405154704296 -0.06485223025083542 0.029293134808540344 0.06011860817670822 -0.1359940755385387 0.040139056742191315 0.06365952640771866 0.014709025621414185
-0.032623935490846634 0.008565522730350494 -0.01448085904121399 -0.06644805520772934 -0.02327858656644821 -0.03797738626599312 -0.02580568939447403 -0.004791088402271271
0.01666373759508133 0.03995669633150101 0.017188526708825355 0.04126507788896561 0.01539059728384018 -0.010422095656394958 -0.03929447382688522 -0.06521560996770859
-0.03109651431441307 -0.016976749712566085 0.05422230809926987 -0.027247272431850433 0.0031961584741461873 -0.06255018982625103 0.08319676667451859 0.032581329345703125
0.061544276773929596 -0.021692350506782532 -0.08063434064388275 -0.04421988129615784 0.008777156472206116 0.03653109818696976 -0.04375115782022476 -0.03575069457292557
0.040060438215732574 -0.07889389102673029 -0.024308308959007263 -0.10468825142136068 -0.09649736307876418 -0.12182061322325301 0.01703384126431134 0.04561062902212143
0.07363083213567734 -0.08227394229347981 -0.04507196583360573 -0.05984385684132576 -0.016219955714449282 -0.00019861012697219849 -0.05988513838247946 -0.06728526949882507
-0.044808611273765564 -0.017688095569610596 -0.06433650851249695 0.06891421228647232 0.03760550171136856 -0.040938835591077805 -0.011077702045440674 -0.14415673003378562
-0.1457506036801943 -0.04349614679813385 -0.00960637629032135 -0.05857204273343086 -0.04578039050102234 -0.08630538731813431 -0.0820288035814181 -0.05570542439818382
-0.07780187259390109 0.08302933722734451 -0.053229447454214096 0.05552021414041519 -0.03526216000318527 -0.10905122451404152 0.029797233641147614 -0.08701277524232864
-0.04865783080458641 -0.030815545731362862 0.05172955244779587 -0.010617777705192566 -0.013328500092029572 -0.15250276498785084 -0.042970966547727585 -0.06316702203495508
0.019245265765278807 0.060747407376766205 0.003942489998039028 -0.02083909511566162 0.06186116486787796 -0.0851067528128624 -0.017286047339439392 -0.029787201434373856
-0.0009888547738296956 0.08647087961435318 -0.08943125270060945 -0.08270173519849777 -0.12044252852609727 -0.08509908380149017 -0.08112006027120998 -0.061476774513721466
0.006042171944800788 -0.06611543714094681 -0.07332978397607803 -0.0475492924451828 -0.14480475477675414 -0.11191592491737049 0.003832809627056122 -0.06956294924020767
-0.039431314915418625 0.032930578093623625 0.043293945491313934 0.03848017007112503 -0.000978315967828931 0.02569999539194682 -0.07918740186039065 0.022294512009938993
0.00419401538227541 0.02269549625454242 0.13141890312366547 -0.033302269876003265 0.025907032191753387 -0.07399554528536381 0.10341239189697349 0.0053833648562431335
-0.05311929378645197 -0.011640369892120361 -0.0072493404150009155 0.050515370960242514 -0.061997836884958295 0.061887398512785526 -0.02676586970667432 0.011447455029388539
0.08470744639635086 -0.0027906568105413817 0.04065528818581351 0.13607477933599196 0.037783096858015584 -0.05992360785603523 0.08348754793405533 -0.07899124175310135
-0.14200544800809556 0.029788145045133392 0.0331144153140834 0.08095332235097885 -0.06944087147712708 0.06314176087733554 0.05254841446207632 0.047861130726128076
0.034422662442554305 -0.10373927572065028 0.04437144845724106 0.0033841729164123535 0.052691000090882636 0.006170860357099767 0.050750760662960394 0.06298369914293289
-0.0045140027820649575 0.04826918989419937 -0.022922120988368988 0.004500672221183777 0.04098313052138228 0.0030692368745803833 0.1441018793798158 -0.05488453060388565
0.08532261103391647 -0.06232647488414245 0.029294712564014502 -0.03448321697893995 0.04927513693853711 -0.02454466305119199 -0.004157230257987976 0.111983687582799
0.06810916215181351 0.0251705884566691 0.017003731880638 0.08496349504827441 -0.04476145555423167 -0.048373930156230927 0.0034091619143731973 -0.03792813792824745
0.05243251472711563 0.06026030331850052 0.09604270114476923 0.017117416481272654 0.034240394830703735 0.12435055434312199 0.07279761837469159 0.09397540533114306
0.019858804237602726 0.04430093616247177 0.09500770781083315 0.09840544162270574 0.01743505150079727 -0.0016846909621124886 -0.08237670283963397 0.008037825147189537
-0.07077219580869529 0.08324842900037766 0.026384569762722892 -0.011371156795834603 0.11693699187061218 0.017812551207957147 0.04734720506974914 0.05701625194890511
-0.013498936331047977 -0.030169973078656175 0.016407301778088957 0.1339893438703503 0.008022651076316833 -0.08099488701152602 0.0989294338679045 -0.026952960596467918
0.05891860228911281 -0.023695193231105804 -0.12314897216112453 0.08371477574110031 -0.07191555717589077 0.10892882218583676 0.036592356860637665 0.08589707706581332
-0.02164118750412849 -0.06053120642900467 -0.095462055819018 -0.06253726035356522 0.01916337013244629 -0.0400487149427651 -0.051423312360268265 -0.013109229505062103

fc3.bias f8 [64]
00000000: 3ee9 4d74 9184 bebf d624 374c 225a a23f
00000010: 4c7f ab6c 0c60 7a3f 6d5f 33d0 9dab b43f
00000020: c871 b1a8 f19e c0bf d070 bb68 178b b13f
00000030: 9f39 dbaa 3ff1 a1bf 0f7c b4b5 a911 babf
00000040: 0000 0000 5e72 99bf 99b3 c3e7 7533 be3f
00000050: 0000 0000 9df7 9b3f 2a63 294d b01a c33f
00000060: 0000 0020 3832 b0bf 6b91 159d 383b c33f
00000070: 9d95 3111 1143 abbf cf8c 216c 0966 b0bf
00000080: 87bf b071 2d3b ba3f ddf4 7c27 d705 aebf
00000090: 6cb6 c4e6 f4bb c63f 462b ad84 23a3 ba3f
000000a0: 0000 00a0 4b9e afbf 90e6 ad88 389f b9bf
000000b0: c778 8c21 898e c1bf 4db6 b7a6 b7af a23f
000000c0: 19c2 9afa 9305 ce3f 6521 21ed b421 bb3f
000000d0: 182f 3982 4890 c1bf 0000 00a0 f76e b4bf
000000e0: 203f bfd4 ba39 c03f 1697 dd06 ad45 c2bf
000000f0: eb43 0919 b980 b3bf 0000 0000 b16c 91bf
00000100: 0000 0020 9c2d a9bf 0000 0080 dac5 a6bf
00000110: e207 7ec2 79f3 9cbf 0000 0040 ffa3 b5bf
00000120: f9fa 88a1 5eb3 aebf 0000 0040 4791 b3bf
00000130: cbac 2efa 72f7 99bf 0000 0000 c438 82bf
00000140: 040e 7b0d 98d8 a8bf e718 f4b8 b407 c0bf
00000150: b0cc 25fa c525 963f 3a99 3138 b29c c1bf
00000160: ddca c7c2 d8ea 87bf a7c2 9520 1537 bbbf
00000170: 22ac 01be c85d b5bf e600 85be 680b 9ebf
00000180: 57b7 b636 ca1b b1bf 407a 8b09 f649 a7bf
00000190: e2e3 18c7 e709 bf3f f12d dc8a cc65 793f
000001a0: 0d8f 6384 487b ae3f e386 b146 18d4 b93f
000001b0: e607 73ef 5bbd afbf f3f0 db9b 1441 aebf
000001c0: 9c22 5657 1e4e c43f 0628 ade3 4f91 843f
000001d0: 429f d93d 201b a7bf 3bca 64fb 5f27 b4bf
000001e0: 5c40 44d0 d5a9 bd3f 1320 ab52 79cd bf3f
000001f0: 3862 ae8b 6452 c1bf f203 344c 0591 b73f
-0.11921032990895683 0.03584391765941468 0.006439255269213916 0.08074365933441437 -0.1298505853363976 0.06852861697138057 -0.03504370651863841 -0.10183201490552583
-0.02485033869743347 0.11797272594749443 0.02731175720691681 0.14925197379741323 -0.06326628476381302 0.15024478597764399 -0.0532460530746832 -0.06405695810240107
0.10246547723431663 -0.05863830906899079 0.17761098163593958 0.10405179967089592 -0.06175457313656807 -0.10008576714417416 -0.13716234338875763 0.03649686727645172
0.2345452283530143 0.10598307408611658 -0.13721567495883202 -0.0798182263970375 0.12676177394904986 -0.1427513392947552 -0.07618290768847628 -0.01701618731021881
-0.04917610064148903 -0.04447825253009796 -0.028272535796993632 -0.08453364670276642 -0.059962231844556464 -0.07643552124500275 -0.025358006019513362 -0.008897334337234497
-0.048527480741110934 -0.12523516684468136 0.021628468888093166 -0.13759448760829135 -0.01167840332434394 -0.10630924268276463 -0.0834622825511109 -0.029340397480383106
-0.06683029018196628 -0.04548615328325356 0.12124489413044118 0.006200598710857972 0.05953432670665224 0.10089256025232944 -0.06199157045331542 -0.05909027483537157
0.15863398804164752 0.01004278577388008 -0.04512882952695786 -0.07872581374685066 0.11587272963174783 0.12422903316758065 -0.13532692737932606 0.09205659017972304
