src/backend/controller/checkpoints/checkpoint_epoch_35.pth (torch, 420207 bytes, 25 tensors)

fc1.weight f8 [64, 5]
0	0x3fc6324265b9ad2e	0.17340879408889392
1	0xbfdd97230d478a9b	-0.4623496656114782
2	0x3fd00fcfccc8d0b7	0.250965070709991
3	0xbfc7a462338d8d59	-0.18470408932908347
4	0x3fbbbcfbaf1e9b86	0.10835240388278863
5	0xbfc4288740000000	-0.15748682618141174
6	0xbfd24cb4a0000000	-0.2859317362308502
7	0xbfdac41960000000	-0.4182189404964447
8	0xbfce277ec0000000	-0.23558029532432556
9	0x3fba497600000000	0.102683424949646
10	0xbfcd810abfb6c705	-0.23050054894479657
11	0x3fbcbd7b6456c55a	0.11226626586610192
12	0xbfd7b3f4d2364c3a	-0.37035866287732555
13	0x3fda0c4bef439ac4	0.4070005261004719
14	0x3fb155b8a1bb80ed	0.06771425198121835
15	0x3fd2b3e300000000	0.29222941398620605
16	0xbfc07d2140000000	-0.12881866097450256
17	0xbfd1032180000000	-0.2658160924911499
18	0xbfd7520880000000	-0.36438190937042236
19	0xbfb5e70380000000	-0.08555623888969421
20	0xbfc4ff4bc0000000	-0.16404101252555847
21	0xbf8a2da400000000	-0.012782365083694458
22	0x3fd9654240000000	0.3968053460121155
23	0x3f93ab9800000000	0.01920926570892334
24	0xbfda0d1c40000000	-0.4070501923561096
25	0xbfc3521e9f910dbc	-0.15094359198893226
26	0x3fd534f5f31b964a	0.3313574670886267
27	0x3fd72d1c554d6f3c	0.3621283371955888
28	0x3fb966420f0a794e	0.09921658389291574
29	0xbfd70d7434360756	-0.36019616221175477
30	0xbfca983b38f278c0	-0.207770731741169
31	0xbfd1a33e08d31738	-0.2755885206391784
32	0x3fd2485644086c05	0.2856650986083767
33	0x3fd0db80e751ce86	0.2633974322300009
34	0x3fda303a0cce76ed	0.40919352770457246
35	0x3fd7ec50c0000000	0.37379854917526245
36	0xbfda694480000000	-0.41267502307891846
37	0xbfb6651080000000	-0.0874796211719513
38	0xbfd48f5840000000	-0.3212490677833557
39	0x3fb6020000000000	0.085968017578125
40	0x3fc8dbe5569d2f97	0.19421068886947232
41	0xbfcf857c04664c59	-0.24626112189125385
42	0xbf5c920ef4c4def6	-0.001743807416529406
43	0x3fbf32e8c04d5516	0.12187056250452985
44	0x3fd061318311df1b	0.2559322147348994
45	0x3fd4cfdea8f38130	0.3251873636163678
46	0x3f963ae95a7fb597	0.02170910467969164
47	0x3fb39e2391a7928e	0.07663175874729175
48	0xbfd82a920b907461	-0.37759829644511994
49	0x3fc127cc9d651275	0.13402707753461454
50	0xbfd52769983cc54f	-0.33053054682666966
51	0xbfb600344202a237	-0.0859406148107461
52	0x3fd63ba78b4df881	0.34739101985895365
53	0x3f717948e0a13a56	0.0042660567069804
54	0x3fc01bc80cb8d0a3	0.1258478223913971
55	0x3fd210bb5d81cad1	0.2822712338594729
56	0x3fc8484f653ba8b4	0.1897067302991836
57	0x3f8119fc73f8e5ea	0.008350345887367678
58	0x3fd50707d84f2738	0.3285541164774375
59	0x3f8f1e3ff467433f	0.01519441570863622
60	0xbfc448db80000000	-0.1584734320640564
61	0x3fba708500000000	0.10327941179275513
62	0xbfd6b83380000000	-0.35499274730682373
63	0x3fd3168c80000000	0.29825127124786377
64	0xbfc9870540000000	-0.19943299889564514
65	0xbfd52e1892d80183	-0.33093847599231924
66	0x3fc8f971b0ac39c9	0.19511242987250757
67	0x3fda28baa3f5d252	0.4087359048055862
68	0xbf8cdbf896664b9a	-0.014091436471778174
69	0x3fd1a6ca2ec3b9c3	0.27580504004336265
70	0xbfd63a60874fa449	-0.3473130532643763
71	0x3fd01e8ce593827f	0.25186464709808115
72	0xbfbd06772ad3024b	-0.11337990565790183
73	0x3f9ed705f1d13666	0.030117123493531038
74	0xbfb17925e405ee03	-0.068254821939199
75	0xbfd204caa0000000	-0.28154245018959045
76	0xbfd90499c0000000	-0.39090579748153687
77	0xbfd1fa7e40000000	-0.2809138894081116
78	0x3fd95630c0000000	0.3958856463432312
79	0x3fc04c8800000000	0.1273355484008789
80	0x3fca5eb6142f372d	0.20601535783355854
81	0xbfa59b27be1eef29	-0.04219936557589527
82	0x3fcc0eebc32113e9	0.21920535114091358
83	0xbf802ed3a7e95d7d	-0.007901814996485563
84	0x3fc2063234fdb0cf	0.1408140906090751
85	0xbfa4c4bcb3542150	-0.040563485041334446
86	0x3fd6f9459d44ef47	0.3589643512566351
87	0x3fc2274964c11b2a	0.1418239347423989
88	0x3fc1d15dbd534dad	0.13920184845356456
89	0x3fcfc39ccb3ba2b4	0.2481571190212627
90	0x3fcd812080000000	0.2305031418800354
91	0xbfc6dee0c0000000	-0.17867669463157654
92	0xbfdb4c6980000000	-0.4265388250350952
93	0x3fa7d42d00000000	0.046540647745132446
94	0xbfd2233d80000000	-0.28340089321136475
95	0x3fb7fcdbdfa01cfd	0.09370207032781148
96	0x3fa967a3e294c44d	0.049618836792781985
97	0x3fbc5f3c58105366	0.11082818174356887
98	0x3fd175798c210eaa	0.2727950924347434
99	0xbfc92449a9df4507	-0.19641991419351987
100	0x3fdfd47df02be278	0.497344479124457
101	0xbfd700e310256809	-0.3594291360547009
102	0xbfd151ab47bb1908	-0.2706096840378369
103	0x3fccf3b0887a960d	0.2261868158722539
104	0xbf9e0e145249c092	-0.029350583574740137
105	0x3fc9b45f80000000	0.2008170485496521
106	0xbfcdd7d000000000	-0.23314857482910156
107	0xbfaae2ed00000000	-0.052512556314468384
108	0xbfc343f100000000	-0.15051090717315674
109	0xbfd027f300000000	-0.2524383068084717
110	0x3fdb511f40000000	0.4268262982368469
111	0xbfc98f40e0000000	-0.1996842473745346
112	0xbfd3d18280000000	-0.30966246128082275
113	0xbfda45af40000000	-0.41050320863723755
114	0xbfda46c9a0000000	-0.41057053208351135
115	0x3fc5ae4fdaece44a	0.16938207807268874
116	0x3fd1ec61545d6296	0.28005250204800214
117	0xbfb77dbe980bf8bc	-0.09176245891646578
118	0xbfe00110a588d629	-0.5001300080390979
119	0x3fc1afb442576720	0.13817456473662393
120	0xbfbded0f00000000	-0.11689847707748413
121	0xbfd8b6bce0000000	-0.3861534297466278
122	0x3fd8779a80000000	0.3823000192642212
123	0x3fc1621480000000	0.1358056664466858
124	0xbfcf462520000000	-0.24432815611362457
125	0xbfcd986fb931e9b1	-0.23121449034426925
126	0x3fc0ff053c563d4f	0.1327826065648687
127	0xbfd27c04b205cf15	-0.2888194788458674
128	0x3fd1a2dbbcfc2564	0.2755650849872693
129	0xbfd1df3e31a07e18	-0.27925066801432896
130	0x3fd6de8e00000000	0.3573336601257324
131	0xbfbd75e580000000	-0.11508020758628845
132	0x3fb55c7700000000	0.08344215154647827
133	0xbfdbb0c0c0000000	-0.4326631426811218
134	0xbfb32a1280000000	-0.07486072182655334
135	0xbfb02ea600000000	-0.06321179866790771
136	0xbfc009dd40000000	-0.1253010332584381
137	0xbfaf07b000000000	-0.060605525970458984
138	0xbfb2adbd80000000	-0.07296356558799744
139	0x3fd42570c0000000	0.3147851824760437
140	0x3fac62c884f535a2	0.05544115660687089
141	0xbfca7141a531a5d1	-0.20658131185636688
142	0x3fd0030b92d1c376	0.25018586480933125
143	0x3fc379ced2f52047	0.15215478230152454
144	0xbfd2e19e2d5ea1d7	-0.2950206225455338
145	0xbfc1f1d900000000	-0.14019310474395752
146	0xbfbf608880000000	-0.12256672978401184
147	0x3fd6096880000000	0.3443242311477661
148	0xbf8bff2800000000	-0.013670265674591064
149	0x3fc1659000000000	0.1359119415283203
150	0xbfc3e10e80000000	-0.1553056836128235
151	0x3fcb704080000000	0.21436315774917603
152	0xbfb8635e00000000	-0.09526622295379639
153	0x3fc8a01500000000	0.19238531589508057
154	0x3fa1f78d00000000	0.035091787576675415
155	0x3fc8d98180000000	0.19413775205612183
156	0x3f9103a400000000	0.016615450382232666
157	0xbfd4bdf880000000	-0.32409489154815674
158	0xbfd96889c0000000	-0.39700549840927124
159	0xbfd1d09740000000	-0.2783563733100891
160	0x3faf75640310ac53	0.06144249474922305
161	0x3fc41a343c65bde9	0.1570496840390512
162	0xbfce04dc9535b09f	-0.2345233658373944
163	0x3fcd340f841a2b24	0.22815126371673344
164	0x3fd4ccbb570fbafe	0.324995837231583
165	0x3fc2b022aebebbf2	0.14600022823785214
166	0xbfd3e893fb258ee2	-0.31107043767972986
167	0x3faadbccd5a8d8ca	0.05245819194935704
168	0x3fcc39d6b8a4e07e	0.2205150987226751
169	0x3fd89fc9e8752919	0.3847527284712143
170	0xbfd191cb00000000	-0.2745234966278076
171	0x3fadf6f400000000	0.0585247278213501
172	0xbfc0a04500000000	-0.129891037940979
173	0x3fcb790000000000	0.214630126953125
174	0x3fac667c00000000	0.055469393730163574
175	0xbfd8793520000000	-0.38239791989326477
176	0xbfb4eae080000000	-0.08170893788337708
177	0x3f9fbf0800000000	0.031002163887023926
178	0xbfd7095e00000000	-0.35994672775268555
179	0xbfd9241620000000	-0.3928275406360626
180	0x3fda34cd46db6194	0.40947276992440007
181	0xbfbcd299ddff40a7	-0.11258851690149872
182	0xbfd69c79236e495d	-0.3533003660205816
183	0x3fa385ce29979307	0.03813022859302433
184	0x3fcccf86281f37f6	0.2250831313999126
185	0x3fd58617bf56c5fe	0.3363093727631109
186	0x3fb2bc6689078ee7	0.07318726392218942
187	0x3fcd5a40f7f3581d	0.22931682688675972
188	0x3fd15ea98a51e99d	0.2714027262478796
189	0x3fd8893c28289986	0.38337615892159993
190	0x3fd0a868be6f43ec	0.2602788791382966
191	0xbfc10bd407e78a69	-0.1331734694095588
192	0xbfd148c5c31c3d28	-0.27006668142071755
193	0xbfc9623a2d578fe7	-0.19831015790907644
194	0xbfbc162b1eee8b7b	-0.10971326356097492
195	0xbfd35608c6cecf39	-0.30212611594037103
196	0xbfd422221b477b8f	-0.31458332694995134
197	0x3fdf1e565f7a2d16	0.48622664760542145
198	0xbfc11e8e5e30734d	-0.13374499892315797
199	0x3fd4743153f5ad9c	0.3195918388289216
200	0x3fdab6a6f39b5070	0.4173982027980463
201	0xbfbcebd4f57870bb	-0.11297350876742744
202	0xbfd998ba4288766a	-0.3999467515694507
203	0x3fd714dba5391ee9	0.3606480706698521
204	0xbfbca67c3fcc1d97	-0.11191536481429974
205	0x3fb0fe1700000000	0.06637710332870483
206	0x3fc4448500000000	0.15834105014801025
207	0xbfc4852280000000	-0.1603129506111145
208	0xbfbd61bf80000000	-0.11477276682853699
209	0xbfd7ff0c60000000	-0.3749419152736664
210	0x3f98d4dc00000000	0.024249494075775146
211	0xbfc0415d40000000	-0.1269947588443756
212	0xbfcd6e9dc0000000	-0.22993823885917664
213	0x3fc5a90800000000	0.1692209243774414
214	0xbfb4ba4600000000	-0.08096730709075928
215	0x3fc11d6d1009ea74	0.13371051104680343
216	0xbf9499a86d2f2b8a	-0.020117408432081464
217	0xbfdb06e7451393d9	-0.42229634996175275
218	0x3fcaa056e4d03652	0.20801817104841064
219	0xbfc22a0581c1ddfd	-0.1419073947506461
220	0xbfba2ef4db244b1b	-0.10227899885311979
221	0x3fdcbccbb570a26b	0.44902317732570535
222	0x3fda797adea9786a	0.41366454834304156
223	0x3fd3b192007d0e87	0.3077130322237526
224	0xbfd5322ed03c98c2	-0.33118791900268374
225	0xbfd51d40b0c9a2f6	-0.3299104429666352
226	0xbf78e13d6e9975db	-0.0060741805733335
227	0xbfd5bc3bf0303993	-0.33961389976402606
228	0x3fdaaee89867d866	0.41692557223666993
229	0x3fd0c84af99098df	0.26222490665021597
230	0x3fcbc941dc45993b	0.21707938437902805
231	0xbfcf2eeea402c0d9	-0.24361975677812245
232	0x3f7152f3b7d1f3d8	0.004229499839422744
233	0x3fd20ed14e36c42f	0.28215439451293184
234	0x3fc488ae9997997d	0.1604212045633168
235	0x3fb998a635e83435	0.09998549285974508
236	0x3fd4b8d9f1e730b5	0.3237824308714708
237	0x3fb71263ee0d939f	0.09012436448899884
238	0x3fd88958ee3ba82a	0.3833830191130142
239	0xbfb2d38656722e80	-0.07354011164187035
240	0x3f9a73772abe0a5e	0.025831090911660907
241	0x3fd0b2ea09554298	0.2609200564520875
242	0x3fd7f2ebf8749755	0.37420176757074347
243	0x3fc7f76b0facd650	0.1872381044901652
244	0xbf6072bb95ddd8cb	-0.0020078338411010136
245	0x3fb2078500000000	0.07042723894119263
246	0xbfb9034f00000000	-0.09770673513412476
247	0xbf9bdd8c00000000	-0.027212321758270264
248	0x3fcd0ced80000000	0.2269570231437683
249	0xbf89036800000000	-0.012213528156280518
250	0x3fc92b3dfcaf137a	0.19663214529114353
251	0xbfd1f97d65ad5906	-0.28085265092285316
252	0xbfd2a0246410f5f2	-0.29102430126280787
253	0x3fa7663cc6c96732	0.04570188452335201
254	0xbfd046b87730a422	-0.2543164409603965
255	0x3fc2d9341a936e61	0.14725352571155084

fc1.bias f8 [64]
0	0xbfd05ff658730452	-0.2558570731890245
1	0x3fc4dbbe80000000	0.16295605897903442
2	0x3fd0c9977b661d29	0.26230418253585924
3	0x3fb083fe00000000	0.06451404094696045
4	0xbfd8a4e500000000	-0.38506436347961426
5	0xbfc50b52832b7322	-0.1644080296017814
6	0xbfc932ce4fc263e4	-0.19686297316073287
7	0xbfd18a4b60000000	-0.2740658223628998
8	0xbfda147024afc9ae	-0.4074974401729844
9	0xbfa2bf5224fa055d	-0.03661591245055249
10	0x3fc281a2fcc8a24e	0.14458119719462775
11	0xbfb4ab52cf2c50bd	-0.08073918874680693
12	0xbfca1b0d40000000	-0.20395055413246155
13	0xbfd0d8a30dd923b2	-0.2632224688755357
14	0xbfb74f2243f53186	-0.09105123671651513
15	0x3fcb36a380000000	0.21260493993759155
16	0xbfc4ec8f2c4c46b6	-0.16346921599374803
17	0xbfa6c3bb4f4c9a97	-0.04446206419952608
18	0xbfcc602f40000000	-0.22168532013893127
19	0xbfcdf9e7c5c5242f	-0.23418900639288284
20	0x3fa69a2f2529395d	0.04414508179307817
21	0x3fac574a00000000	0.05535346269607544
22	0x3fa63d9800000000	0.04343867301940918
23	0xbfbce8119b7466b2	-0.11291608853607718
24	0xbfd06eaee0000000	-0.2567555606365204
25	0x3fd1538b180370ad	0.27072408051550206
26	0xbfd7cf8cc0000000	-0.37204283475875854
27	0xbfcff34560000000	-0.24961154162883759
28	0xbfd01d733274e2bc	-0.25179748465920304
29	0xbfd5b36b80000000	-0.3390759229660034
30	0xbfd4fb0ea0000000	-0.32782331109046936
31	0xbfc40220c0000000	-0.1563149392604828
32	0xbfc22cba87dada8f	-0.14199000962772287
33	0xbfdcacbea1ebb27b	-0.4480434972054252
34	0xbfc13cbd80000000	-0.13466614484786987
35	0xbf73036000000000	-0.004641890525817871
36	0xbfabf0b007fbd9c4	-0.0545706758256759
37	0x3fd0980d31cfe71a	0.25928048958268024
38	0xbfbc28db8c56b07a	-0.10999843765483944
39	0x3fbe8b8c88f46b66	0.11931684821722185
40	0xbfb55a752066b1dc	-0.08341152230304466
41	0xbfca783ce0000000	-0.2067943662405014
42	0x3fa0047f00000000	0.03128430247306824
43	0x3fd409e482165713	0.3131037969954928
44	0x3fd290ece0223f84	0.2900955380255186
45	0x3fb5d9300b694a29	0.08534527090640921
46	0xbfdef267119e8bde	-0.4835450813354195
47	0xbf92315376580961	-0.017766288850915916
48	0xbfbf46388c17d6e7	-0.1221652357124544
49	0xbfdc691be0000000	-0.44391533732414246
50	0x3fde5e4f39943d1a	0.47450619337992495
51	0x3fdb63846ec361bd	0.4279490548774694
52	0x3fb4044a8f786d57	0.07819047930427324
53	0xbfd0b5b420000000	-0.26109030842781067
54	0xbfd49eebe0000000	-0.3221997916698456
55	0x3fab82d600000000	0.05373257398605347
56	0xbfd1125c9d05ce4b	-0.26674571356054305
57	0x3fbb8af9a30014ed	0.10758934239864333
58	0xbfd27f1a80000000	-0.2890077829360962
59	0xbfda473b25fd6102	-0.41059759817063946
60	0xbfd0c8c900000000	-0.2622549533843994
61	0xbfca4084ebfa726a	-0.20509397051218353
62	0xbfce8b2ecd6a5d56	-0.2386225226407343
63	0x3fd9e1435d28205a	0.40437397096002814

fc2.weight f8 [128, 64]
0	0x3fc54529e4d8012b	0.1661732070351801
1	0x3fa8d37b80000000	0.04848848283290863
2	0xbfc70926131fc7e4	-0.17996669706150137
3	0x3fb540ed80000000	0.08302196860313416
4	0xbfb3f9a7c0000000	-0.07802818715572357
5	0xbf8c0d2912c80e3b	-0.013696976552643672
6	0xbfb83ff0b2939726	-0.09472565040377087
7	0x3fb5832ec0000000	0.08403293788433075
8	0xbf76fdaa7181231d	-0.005613008303108538
9	0xbfb9c110e2c49eef	-0.10060220276192998
10	0x3fc8574c64b7c36e	0.19016413610327326
11	0xbf787449dbb30473	-0.005970276363940308
12	0x3fa762e000000000	0.045676231384277344
13	0x3fc0d321e50da5c1	0.13144324955218958
14	0x3fad8538cabe5e83	0.05765702700517485
15	0xbfbd6edd80000000	-0.11497291922569275
16	0x3fb1fc85b6e4c8dd	0.07025943484476067
17	0xbfab610b7a026d22	-0.05347476829885013
18	0xbfb9da7e80000000	-0.10099020600318909
19	0x3fb2ca4b364f8417	0.07339925838415727
20	0xbfc83a373b305b58	-0.18927660360415177
21	0x3fbfe46200000000	0.12457859516143799
22	0xbfb16f1700000000	-0.06810134649276733
23	0xbfb58ded71c4ff06	-0.08419689204765399
24	0x3fab41db80000000	0.05323682725429535
25	0xbfb0173230315db3	-0.06285394360144529
26	0xbfbe08a700000000	-0.11731952428817749
27	0x3fbc932d80000000	0.11162075400352478
28	0xbfa387e96c2d5d08	-0.03814629979631873
29	0x3fbeee6740000000	0.12082524597644806
30	0xbf9a2eab00000000	-0.025568649172782898
31	0x3fa09e0880000000	0.032455697655677795
32	0x3fb790894b63a1cb	0.09204919901424728
33	0x3fb2aa121ad75fb8	0.07290757327370911
34	0x3fafd07f00000000	0.06213757395744324
35	0x3fb45ad740000000	0.0795111209154129
36	0xbf81e9b7b2ca168a	-0.008746562141151121
37	0x3fc19ccd0dbdce3e	0.13759768649070908
38	0xbfb1fe9f9874c1de	-0.07029149505684226
39	0x3fb672ec9be80560	0.08769110494906363
40	0xbfc3457ab73148cd	-0.15055784172961353
41	0xbfb8bca940000000	-0.09662874042987823
42	0xbfac6f6780000000	-0.055537447333335876
43	0xbfbc2dd6c1926b45	-0.11007444597127598
44	0x3fc0c8974d3bff84	0.1311215521927772
45	0x3fb22e71cd363f17	0.07102118740135342
46	0x3fba84e007f236be	0.1035900134467864
47	0x3fc259dba065bd7e	0.14336724597840694
48	0xbfa648838b1ede2e	-0.04352198670624961
49	0xbfbe851040000000	-0.1192178875207901
50	0xbfb2cedeb4343d26	-0.07346908473504196
51	0x3fb7148d93c50657	0.09015736444146093
52	0x3fc122fde9a9fa90	0.13388036641477585
53	0xbfa35c3900000000	-0.0378129780292511
54	0x3fa6a6c280000000	0.04424102604389191
55	0xbfb2f88300000000	-0.07410448789596558
56	0xbfa33d3b910b5ace	-0.03757654328881231
57	0x3fbe4bc8caad0eca	0.11834387729782772
58	0xbfaf5fbb00000000	-0.06127724051475525
59	0x3fc674020ce16d34	0.1754152834790631
60	0x3f959b3100000000	0.021099820733070374
61	0xbfa37f78ae70bc88	-0.03808190469168787
62	0x3fc03ab314cb10b0	0.12679136767667876
63	0xbfa960c551a6a41a	-0.04956642743793101
64	0x3fc29ef35749c622	0.14547578584783688
65	0x3fa8580e00000000	0.04754680395126343
66	0xbf84596328ed8a54	-0.009936117826957837
67	0xbfbd74b280000000	-0.11506190896034241
68	0x3fb93d1500000000	0.09858828783035278
69	0x3fc25f93ad6c91d5	0.14354177444432872
70	0x3fb2bc8c152cde07	0.07318950192426864
71	0xbfa0285e00000000	-0.03155797719955444
72	0xbfbe57a72b82b725	-0.11852497875471764
73	0x3fc1fbbd2c018e30	0.14049496315702603
74	0x3fb7abdecc351a2f	0.09246628270657518
75	0x3fc227c22a859773	0.14183833194982362
76	0xbfb1ff7000000000	-0.07030391693115234
77	0x3fb1d869d1490d5f	0.06970845565324656
78	0xbf739c26269a64d4	-0.00478758719113977
79	0xbfad186900000000	-0.05682685971260071
80	0x3fbdebdf379d9bd0	0.11688037021450204
81	0x3fbe0bd62d3d17ff	0.11736811260661283
82	0x3f91da6200000000	0.017434626817703247
83	0x3fc2a7d845eb4cbe	0.1457472173120546
84	0xbfc63dcf479b443d	-0.17376128193294163
85	0x3fbf7b6200000000	0.12297642230987549
86	0xbfbea010c0000000	-0.11962990462779999
87	0x3fa59b15b9473780	0.04219882857033408
88	0x3fa8fdea80000000	0.048812225461006165
89	0x3f7be25bfda62428	0.006807669963003561
90	0xbfb331e240000000	-0.07497991621494293
91	0x3f8952cc00000000	0.012364953756332397
92	0xbfbf8f08d9478b8a	-0.12327628426241524
93	0xbfba802540000000	-0.10351784527301788
94	0x3fbb5a2000000000	0.10684394836425781
95	0x3fb5a48ac0000000	0.08454196155071259
96	0x3fb0ec47839f7c25	0.06610533679439408
97	0x3f7cfc513db90f9c	0.007076566074434878
98	0xbfb0e51480000000	-0.0659954845905304
99	0x3fb1cbd7c0000000	0.06951664388179779
100	0xbfc3cead6ed6d0b8	-0.15474479591433066
101	0xbf87b4cc2c35fdac	-0.011575312709054618
102	0xbfabb7a71e4c5f5c	-0.05413553471424734
103	0x3fabfe0595cdce81	0.05467240766202242
104	0xbfc6037f7790c29e	-0.17198174799115845
105	0xbf98a68200000000	-0.02407267689704895
106	0x3fab0b7e00000000	0.0528220534324646
107	0xbfb5670cc442e652	-0.08360366622482587
108	0x3fc12f8a2b8677b5	0.1342632973218635
109	0x3f8f68ad39b27bd6	0.015336373637465355
110	0xbfb29a5a26f538c0	-0.07266772700424706
111	0x3f8713494ad55108	0.011267254444341748
112	0x3fb7de8420cf24e1	0.09323907662396237
113	0xbf95a92b00000000	-0.02115313708782196
114	0xbfca56b57e327e4b	-0.20577114736532773
115	0xbf904ceccfbbf5cb	-0.015918445757952242
116	0x3fb80e6a78b9d8cd	0.09396996924792518
117	0xbf517af000000000	-0.0010669082403182983
118	0x3fa4d55700000000	0.04069015383720398
119	0xbfa3228880000000	-0.03737284243106842
120	0x3fb3196932825b5b	0.07460648997435497
121	0x3fcd1aa93905e686	0.22737612995461037
122	0x3f99621900000000	0.024788275361061096
123	0xbf6b1775a07eb5a6	-0.0033070847893756526
124	0x3fb362ef40000000	0.07572837173938751
125	0xbfa2f7b9962c5c9b	-0.03704624136133213
126	0xbf98722d73e227f7	-0.023873052785837925
127	0xbfb81d16e2c351d1	-0.09419386898236516
128	0x3faa422180000000	0.05128578841686249
129	0x3fbd5c6bc0000000	0.11469148099422455
130	0x3faccf1900000000	0.05626752972602844
131	0xbf957f9100000000	-0.020994439721107483
132	0xbfa7421f00000000	-0.04542633891105652
133	0x3f990aeb00000000	0.024455711245536804
134	0x3f98444800000000	0.023697972297668457
135	0xbf9f04c200000000	-0.030291587114334106
136	0x3fbdb363c0000000	0.11601851880550385
137	0x3fbda7a980000000	0.11583957076072693
138	0x3f8d86bc00000000	0.014417141675949097
139	0xbfa2c37980000000	-0.036647602915763855
140	0x3fbf4a42c0000000	0.12222687900066376
141	0x3fb7b0cb00000000	0.0925413966178894
142	0x3f8555da00000000	0.010417655110359192
143	0x3fbdbc1740000000	0.11615128815174103
144	0xbfb7e5e940000000	-0.09335191547870636
145	0x3f67e92800000000	0.0029187947511672974
146	0x3fae3b8a80000000	0.059048011898994446
147	0x3f8274f800000000	0.009012162685394287
148	0xbfbb640840000000	-0.1069951206445694
149	0x3faa555d80000000	0.0514325350522995
150	0x3f85d2bc00000000	0.010655850172042847
151	0x3fa4ea7100000000	0.04085114598274231
152	0xbfabe73200000000	-0.054498255252838135
153	0xbfa4c6ed00000000	-0.040580183267593384
154	0xbfb3c8cd40000000	-0.07728274166584015
155	0xbfa1ce2b80000000	-0.034776076674461365
156	0x3f7ba5f800000000	0.00675007700920105
157	0x3fa6613d00000000	0.0437106192111969
158	0xbf9b64d400000000	-0.026751816272735596
159	0xbf792b2400000000	-0.006144657731056213
160	0x3f81be0800000000	0.00866323709487915
161	0xbf9502f900000000	-0.020519152283668518
162	0x3fb4800600000000	0.08007848262786865
163	0xbf8f40ae00000000	-0.015260085463523865
164	0x3fb4a106c0000000	0.08058206737041473
165	0xbfaf20c880000000	-0.06079699099063873
166	0x3fb8585580000000	0.0950978696346283
167	0x3fa926a300000000	0.049122899770736694
168	0x3f9798ee00000000	0.023044317960739136
169	0x3f8bff3600000000	0.013670369982719421
170	0x3f94cc5900000000	0.020310774445533752
171	0x3fbc160380000000	0.10971090197563171
172	0x3fbb755100000000	0.1072588562965393
173	0x3fbd85b480000000	0.11532142758369446
174	0xbfaaae8100000000	-0.05211260914802551
175	0x3fba411c80000000	0.1025560200214386
176	0xbfb9a50b80000000	-0.10017463564872742
177	0xbfbe7b8480000000	-0.11907222867012024
178	0x3fba74a7c0000000	0.10334251821041107
179	0xbfb5fcbf80000000	-0.08588787913322449
180	0xbfa6d1cc80000000	-0.044569388031959534
181	0xbfbc571400000000	-0.11070370674133301
182	0x3fb6f6a680000000	0.0897010862827301
183	0xbf9e245700000000	-0.029435500502586365
184	0xbfa3e07580000000	-0.038821861147880554
185	0x3f8141b400000000	0.008426100015640259
186	0xbfb89c81c0000000	-0.0961381047964096
187	0x3fb2d22ec0000000	0.07351963222026825
188	0x3fb3c338c0000000	0.0771975964307785
189	0xbfb20ac3c0000000	-0.07047675549983978
190	0x3f92dde100000000	0.01842452585697174
191	0xbfaf727a00000000	-0.0614202618598938
192	0xbfbaeeee80000000	-0.10520830750465393
193	0x3f9014a600000000	0.01570376753807068
194	0xbfb4136400000000	-0.07842087745666504
195	0x3f9ba8f800000000	0.027011752128601074
196	0xbfa12c6f80000000	-0.03354214131832123
197	0xbfaeeca600000000	-0.06039923429489136
198	0x3fb1aa3200000000	0.06900322437286377
199	0xbfb65e8300000000	-0.08737963438034058
200	0xbf93a39d00000000	-0.01917882263660431
201	0xbfba8706c0000000	-0.10362283885478973
202	0x3f919cbe00000000	0.01719948649406433
203	0x3fbbd5a300000000	0.10872858762741089
204	0x3f79fdb800000000	0.006345480680465698
205	0xbfbb8dec00000000	-0.10763430595397949
206	0xbfb44831c0000000	-0.07922659814357758
207	0xbfb2776580000000	-0.0721343457698822
208	0x3fb23cd140000000	0.07124049961566925
209	0x3fb3b74080000000	0.07701495289802551
210	0xbfae427800000000	-0.05910086631774902
211	0x3fa28d5700000000	0.03623458743095398
212	0x3f619f5800000000	0.002151176333427429
213	0x3f73bb3400000000	0.004817202687263489
214	0xbfb3cd0480000000	-0.07734706997871399
215	0x3fbc710040000000	0.1110992580652237
216	0x3f97631400000000	0.022838890552520752
217	0x3fb3de43c0000000	0.07761023938655853
218	0xbfa6932300000000	-0.04409131407737732
219	0x3fa7c4fd80000000	0.04642479121685028
220	0xbfb4dab480000000	-0.08146217465400696
221	0x3fb8681b80000000	0.09533855319023132
222	0x3fb275f340000000	0.07211227715015411
223	0xbf82cb1e00000000	-0.009176477789878845
224	0xbfb32057c0000000	-0.07471226155757904
225	0xbfb7b31a40000000	-0.09257663786411285
226	0x3f708bb400000000	0.004039481282234192
227	0xbfaab8b680000000	-0.052190497517585754
228	0x3f9194ab00000000	0.017168685793876648
229	0xbfb9bb9e40000000	-0.1005190759897232
230	0x3fbb961140000000	0.10775859653949738
231	0xbfbb4b4000000000	-0.10661697387695312
232	0x3f6c101000000000	0.0034256279468536377
233	0xbfb0e3ccc0000000	-0.06597594916820526
234	0xbfa9867280000000	-0.04985387623310089
235	0x3fb4f39a80000000	0.0818420946598053
236	0xbfb4fbf580000000	-0.08196958899497986
237	0xbfb6676400000000	-0.08751511573791504
238	0xbfb14e3cc0000000	-0.0676000565290451
239	0xbfb8dcf040000000	-0.09712125360965729
240	0xbf824c2000000000	-0.008934259414672852
241	0xbf9fd30c00000000	-0.0310785174369812
242	0x3f9f394800000000	0.030491948127746582
243	0x3fae50f280000000	0.059211328625679016
244	0x3fafb76000000000	0.06194591522216797
245	0x3fbabe4440000000	0.10446573793888092
246	0x3f5befe000000000	0.0017051398754119873
247	0x3fa71d8700000000	0.04514715075492859
248	0x3fb5343680000000	0.08282795548439026
249	0x3fa011d480000000	0.031386032700538635
250	0xbf9988c200000000	-0.024935752153396606
251	0xbf98b29700000000	-0.02411876618862152
252	0xbf7c8e0c00000000	-0.006971403956413269
253	0x3fa2e5a580000000	0.036908313632011414
254	0xbfb98cf900000000	-0.09980732202529907
255	0xbfba360300000000	-0.10238665342330933

fc2.bias f8 [128]
0	0xbf95fb82f45dff67	-0.021467252888668933
1	0x3faa8d561e211a78	0.05185956113614493
2	0xbfb86d1880000000	-0.0954146683216095
3	0x3f8b1b0a00000000	0.013235166668891907
4	0xbf92fba89c139f59	-0.018538126493609173
5	0x3f95e7d694c186e2	0.021392205075591593
6	0xbfb0fed840000000	-0.06638862192630768
7	0xbfa6a78280000000	-0.044246748089790344
8	0xbfb29ee640000000	-0.07273711264133453
9	0xbfa88785f9fb9fc8	-0.04790896107243686
10	0xbf8efb3200000000	-0.015127554535865784
11	0xbf79f43c1ad209ec	-0.00633643606591015
12	0x3fa9ec580f5d03fe	0.05063128650227354
13	0xbfc28193461a7f34	-0.14457932398817663
14	0x3fa0e37054a1b9d4	0.032985220271132626
15	0xbfb8e1ca62d5f8e1	-0.09719529068931677
16	0x3fbffc9f1d24d45d	0.12494844876785423
17	0xbfc54f86aca65595	-0.16648944311297656
18	0x3fa6cf5eee2cdf05	0.044550863813524834
19	0xbfbc2679c0000000	-0.1099620908498764
20	0xbfa8246400000000	-0.04715263843536377
21	0x3fb529937c699262	0.0826656512013613
22	0xbf94eddab8888a29	-0.020438592446348523
23	0x3fa8990e00000000	0.04804271459579468
24	0x3fc314dc763e1830	0.14907413266718228
25	0xbfa1125180000000	-0.0333428829908371
26	0xbfa8fea6b276f812	-0.04881783417248199
27	0xbf81ac2e7afa1982	-0.008629191520651561
28	0x3fb25dd2b7476958	0.0717441270311715
29	0xbfc1a853a1b3a396	-0.13794942279426142
30	0xbfa0ccd37c110988	-0.032812699217646346
31	0x3f978c0d7419e127	0.022995195590256003
32	0xbfad99bd00000000	-0.057813555002212524
33	0xbf9e34c2131b2f83	-0.029498131195210952
34	0x3fabaf526e98d947	0.0540719757085975
35	0xbf6732642cfa9c0d	-0.002831645637189967
36	0xbfaac6a780ff0efa	-0.05229686212217462
37	0xbfb2fcad80000000	-0.07416805624961853
38	0xbfa18a6280000000	-0.03425891697406769
39	0xbfa2f76400000000	-0.03704369068145752
40	0xbfbf0eec7d5d0a99	-0.1213214689314931
41	0xbfc3e031feb3173d	-0.15527939735891919
42	0x3fc04fe80bb5a062	0.1274385506797016
43	0x3fa0c7f700000000	0.03277561068534851
44	0xbfb83e8ec0000000	-0.09470455348491669
45	0x3f9c88413a8e7fff	0.02786352081204768
46	0xbfc4c5c7cf6c4ba6	-0.16228578212812045
47	0xbf9294a827f40614	-0.018145205915976417
48	0xbfb742a3d2bdf400	-0.09086059470241992
49	0x3fbf70e80866c42a	0.12281656460869841
50	0xbfbdcfffc0000000	-0.1164550632238388
51	0xbf945fb700000000	-0.01989637315273285
52	0x3f9e5706f5d595ba	0.02962885737851704
53	0xbfa3f2ff8fe2dfb9	-0.038963304819332696
54	0xbfa561805334ceae	-0.041759500653282586
55	0x3f85a6fc00000000	0.0105724036693573
56	0xbfa3e0a08431845a	-0.038823143135922236
57	0xbfa7fe8680000000	-0.046863749623298645
58	0xbf93c9d600000000	-0.01932463049888611
59	0xbfadd81b00000000	-0.05828937888145447
60	0xbfafab89ccb4aa2b	-0.06185560821389332
61	0xbfb2110a80000000	-0.07057252526283264
62	0xbfb9cd26fbd33ad2	-0.10078662536691788
63	0xbfaeb3a700000000	-0.059964388608932495
64	0xbfa6207d00000000	-0.04321661591529846
65	0x3fc1ff9e3e0a72eb	0.14061334637963027
66	0xbf96fe6e854561a7	-0.02245495499059449
67	0x3fc26220fdb71d19	0.14361965549890313
68	0x3faa50b8dfc9f810	0.05139711124228097
69	0x3fa8022f4a6d9ca5	0.046891668162794255
70	0x3fb70ee78ebba287	0.09007117495242244
71	0xbfb74766c7660502	-0.09093325012328893
72	0xbfad3bb500000000	-0.05709615349769592
73	0xbfa39716fbeb2db3	-0.03826209855250386
74	0x3fb79cfef33a33bc	0.09223931730430385
75	0x3fb0540a6d3dda88	0.06378235976249347
76	0x3fb87dcb10b0a053	0.09566945226163286
77	0xbfa8b8ff80000000	-0.048286423087120056
78	0x3fb749fc2e02ac6b	0.09097267268468705
79	0xbf50129000000000	-0.0009809881448745728
80	0xbf61d52000000000	-0.002176821231842041
81	0x3fa435d200000000	0.039473116397857666
82	0xbfb572f2559f2eb8	-0.08378519621254099
83	0xbfc1c001d89e2e34	-0.13867209507985623
84	0xbfbbf868c0000000	-0.10925917327404022
85	0x3f9487d3f1614bfa	0.020049392326040284
86	0xbfb9a422e7158157	-0.10016077176760994
87	0x3fa3b3af56964d2a	0.03848026210757845
88	0x3f92f3fa9e36e1e3	0.018508830935134567
89	0x3fbc904fc0000000	0.11157701909542084
90	0xbfc1a7d07db0fec8	-0.13793378960871494
91	0xbfc5cc6e4d4f4081	-0.1703012349594282
92	0x3f8a8a4e00000000	0.012959107756614685
93	0xbfaa07d0965ddd3d	-0.050840872149758166
94	0x3fad8c54a9af4696	0.05771126338335113
95	0xbfb125b1693af0dc	-0.06698139971826172
96	0x3fb97742e67bef25	0.09947603346875818
97	0xbfb7a19d00000000	-0.09230977296829224
98	0xbfb8a4f3972bf9ce	-0.09626696053235337
99	0xbfb56705e80fb312	-0.08360325732764931
100	0x3f67b0c02c122394	0.002891898475870078
101	0xbfacff246fdefcf4	-0.05663408151257868
102	0x3fa159f4f29a6ba6	0.033889441122674044
103	0x3f99adabc3fb2c48	0.025076564633121273
104	0x3f8927de49cd5985	0.012283074023497384
105	0x3fbf8367d8dcfd44	0.12309884113800701
106	0xbf85b57205e72f3d	-0.010599985890528902
107	0xbfc5fe4359d22f9d	-0.17182199369233056
108	0x3f89fb4a00000000	0.01268632709980011
109	0x3fb22f78b9a2cb76	0.0710368588650406
110	0x3f992fccaecdefb7	0.024596403283325432
111	0x3fc0c17b892c1e27	0.1309046191965859
112	0xbfa6d2a7a00f5a15	-0.044575918472833966
113	0xbfaf4a3700000000	-0.06111308932304382
114	0xbfb57caab8443fe8	-0.08393351553627293
115	0xbf6817f88ce68ae9	-0.0029411177158221624
116	0xbfb1048cc84d5e8a	-0.06647567644301425
117	0x3fa9b00b52b94b9f	0.050171235893365244
118	0xbf5d7d0f53e67f09	-0.001799836128704104
119	0xbfbd03d1f3617064	-0.11333954040441224
120	0x3fbb7c97ea5a428c	0.10736989470957264
121	0xbfc00192dbbdf125	-0.12504802445972377
122	0x3fb5d55e711aacd9	0.08528700124104506
123	0x3fb7956200000000	0.09212315082550049
124	0x3fb2d6ce8144cb15	0.0735901895139189
125	0x3fbdaedee97185c4	0.11594956588080324
126	0x3fae1e518dbcd63c	0.05882506232448434
127	0xbf98febd00000000	-0.024409249424934387

fc3.weight f8 [64, 128]
0	0x3fb5b9f3a0000000	0.0848686471581459
1	0xbfa1e94460000000	-0.03498281165957451
2	0x3fb0e88020000000	0.06604767590761185
3	0x3f9249e600000000	0.01786002516746521
4	0xbf46bf0000000000	-0.0006941556930541992
5	0x3fb47dd360000000	0.0800449475646019
6	0x3f63761400000000	0.0023756399750709534
7	0xbfb0fc5980000000	-0.0663505494594574
8	0x3faa0559c0000000	0.050822071731090546
9	0x3f82c64300000000	0.009167216718196869
10	0xbfb3fa9880000000	-0.07804253697395325
11	0x3fadf818c0000000	0.058533452451229095
12	0xbf9a6c5b80000000	-0.025803975760936737
13	0xbfadb39520000000	-0.058010730892419815
14	0x3f7256fa00000000	0.004477478563785553
15	0x3f996e9e00000000	0.024836033582687378
16	0xbf9ff52040000000	-0.031208518892526627
17	0x3f81c54800000000	0.008677065372467041
18	0xbf999e2200000000	-0.02501729130744934
19	0xbfb6614120000000	-0.0874214842915535
20	0xbfb4a3e6c0000000	-0.08062593638896942
21	0xbfae678ba0000000	-0.05938373878598213
22	0xbf9ec95d80000000	-0.03006502240896225
23	0x3f698b7000000000	0.0031182467937469482
24	0xbf7d72ee00000000	-0.0071896836161613464
25	0xbfb09a27e0000000	-0.06485223025083542
26	0x3f9dff0500000000	0.029293134808540344
27	0x3faec7ddc0000000	0.06011860817670822
28	0xbfb1ae6ba0000000	-0.06906769424676895
29	0x3fa48d1b40000000	0.040139056742191315
30	0x3fb04bfda0000000	0.06365952640771866
31	0x3f8e1fc400000000	0.014709025621414185
32	0xbfa0b415a0000000	-0.032623935490846634
33	0x3f818acd00000000	0.008565522730350494
34	0xbf8da82400000000	-0.01448085904121399
35	0xbfb102bd60000000	-0.06644805520772934
36	0xbf97d65780000000	-0.02327858656644821
37	0xbfa371c5a0000000	-0.03797738626599312
38	0xbf9a6cce80000000	-0.02580568939447403
39	0xbf739fd200000000	-0.004791088402271271
40	0x3f91104c80000000	0.01666373759508133
41	0x3fa4753440000000	0.03995669633150101
42	0x3fb58ab5a0000000	0.08414778858423233
43	0x3fa520b240000000	0.04126507788896561
44	0x3f8f851b00000000	0.01539059728384018
45	0xbf85582e00000000	-0.010422095656394958
46	0xbfa41e67c0000000	-0.03929447382688522
47	0xbfb0b1f860000000	-0.06521560996770859
48	0xbf9fd7c3c0000000	-0.03109651431441307
49	0x3fa57829c0000000	0.041932396590709686
50	0x3fabc306c0000000	0.05422230809926987
51	0xbf9be6b580000000	-0.027247272431850433
52	0x3fb1f7a360000000	0.07018490880727768
53	0x3f8b5a8e00000000	0.013356313109397888
54	0x3fb54c6220000000	0.08319676667451859
55	0x3fa0ae8000000000	0.032581329345703125
56	0x3faf82bb40000000	0.061544276773929596
57	0xbf96368500000000	-0.021692350506782532
58	0xbfb4a473c0000000	-0.08063434064388275
59	0xbfa6a3fd00000000	-0.04421988129615784
60	0x3f81f9c200000000	0.008777156472206116
61	0x3fa2b43440000000	0.03653109818696976
62	0xbfa6668d40000000	-0.04375115782022476
63	0xbfa24dea40000000	-0.03575069457292557
64	0x3fa482cd40000000	0.040060438215732574
65	0xbf881b6400000000	-0.01177099347114563
66	0xbf98e44700000000	-0.024308308959007263
67	0xbfa3786060000000	-0.038027774542570114
68	0xbf9ddae1c0000000	-0.02915528044104576
69	0xbfac283a20000000	-0.054994408041238785
70	0x3fb3060fa0000000	0.07431123405694962
71	0x3fa75a46c0000000	0.04561062902212143
72	0x3fb2d97860000000	0.07363083213567734
73	0xbf90bf4b00000000	-0.016354724764823914
74	0x3f95c83780000000	0.02127157896757126
75	0xbfaea3daa0000000	-0.05984385684132576
76	0x3fae8f50c0000000	0.059687159955501556
77	0xbf2a084000000000	-0.00019861012697219849
78	0x3f70e9d400000000	0.00412924587726593
79	0xbfb1399b80000000	-0.06728526949882507
80	0xbfa6f12780000000	-0.044808611273765564
81	0xbf921cd400000000	-0.017688095569610596
82	0xbfb0785b80000000	-0.06433650851249695
83	0x3fb1a45ca0000000	0.06891421228647232
84	0x3fa3410740000000	0.03760550171136856
85	0xbfa4f5ef60000000	-0.040938835591077805
86	0xbf86afe800000000	-0.011077702045440674
87	0xbfb3789e80000000	-0.0760592520236969
88	0xbfb3d3c780000000	-0.07745024561882019
89	0xbfa6452080000000	-0.04349614679813385
90	0xbf83ac8200000000	-0.00960637629032135
91	0xbfadfd27a0000000	-0.05857204273343086
92	0xbfa7708700000000	-0.04578039050102234
93	0xbfb6181c20000000	-0.08630538731813431
94	0xbf8d163000000000	-0.014202475547790527
95	0xbfac856be0000000	-0.05570542439818382
96	0xbf868f7400000000	-0.01101580262184143
97	0x3fb5416920000000	0.08302933722734451
98	0xbfab40e3e0000000	-0.053229447454214096
99	0x3fac6d2540000000	0.05552021414041519
100	0xbfa20de1c0000000	-0.03526216000318527
101	0xbfa5638840000000	-0.041774995625019073
102	0x3f9e832a80000000	0.029797233641147614
103	0xbfb6467820000000	-0.08701277524232864
104	0xbfa8e9ade0000000	-0.04865783080458641
105	0x3fa23acd00000000	0.03560486435890198
106	0x3faa7c4bc0000000	0.05172955244779587
107	0xbf85bec600000000	-0.010617777705192566
108	0xbf8b4bf900000000	-0.013328500092029572
109	0xbfb5bacae0000000	-0.08488147705793381
110	0xbfa6004a60000000	-0.042970966547727585
111	0x3f64383800000000	0.002468213438987732
112	0x3fb63ed4a0000000	0.08689621835947037
113	0x3faf1a48c0000000	0.060747407376766205
114	0x3fb262bfa0000000	0.07181928306818008
115	0xbf9556d800000000	-0.02083909511566162
116	0x3fafac4440000000	0.06186116486787796
117	0xbfb5c98e60000000	-0.0851067528128624
118	0xbf91b36f00000000	-0.017286047339439392
119	0xbf9e808940000000	-0.029787201434373856
120	0x3fb0d5ba20000000	0.06576121598482132
121	0x3fb622f4a0000000	0.08647087961435318
122	0xbf972fb400000000	-0.022642910480499268
123	0xbfb52bf0e0000000	-0.08270173519849777
124	0xbfae9e0860000000	-0.0597994439303875
125	0xbf91d8ab80000000	-0.017428092658519745
126	0xbf8e054d00000000	-0.014658547937870026
127	0xbfaf79e240000000	-0.061476774513721466
128	0x3f81eef5daaa2c0d	0.008756561980836986
129	0xbfb05c95865066e3	-0.06391272095825289
130	0xbfb2c5bda0000000	-0.07332978397607803
131	0xbfa8586180000000	-0.0475492924451828
132	0xbfc1eb1782e4447a	-0.13998693362421816
133	0xbfbbaeed681b7926	-0.10813792983706047
134	0x3f6f65fc00000000	0.003832809627056122
135	0xbfb1cee0a0000000	-0.06956294924020767
136	0xbfa4305760000000	-0.039431314915418625
137	0x3f9ff8a875d11525	0.03122199267479177
138	0x3fa62a9fc0000000	0.043293945491313934
139	0x3fa3b3ac40000000	0.03848017007112503
140	0x3f69f06dce45c32a	0.00316640325962005
141	0x3f988ab429f714e0	0.02396661287436508
142	0xbfb328a34551799f	-0.07483883325901396
143	0x3f950c6d9f436dda	0.02055522236410732
144	0x3f7cbf3c29df520d	0.007018313421174327
145	0x3f957d9a7a36f15a	0.02098695155085415
146	0x3fc09a3193660b0e	0.1297056169242627
147	0xbfa10cfec0000000	-0.033302269876003265
148	0x3f9a875f80000000	0.025907032191753387
149	0xbfb223b080a04cf8	-0.07085707798278296
150	0x3fba0e90c3071f1a	0.10178475152417513
151	0x3f760cde00000000	0.0053833648562431335
152	0xbfa9a4dc04ceb4b1	-0.05008590277371051
153	0xbf87d6e800000000	-0.011640369892120361
154	0xbf7db17c00000000	-0.0072493404150009155
155	0x3fa93ab83b598dcc	0.04927612041936022
156	0xbfae99d6d82354fe	-0.059767450222048865
157	0x3faecfc85ca042f2	0.06017900591553439
158	0xbf9d264ee93e273f	-0.02846644686318389
159	0x3f83f1fc50e437d3	0.009738894671070064
160	0x3fb5af6320000000	0.08470744639635086
161	0xbf726dc10e6ba6c5	-0.004499200941361974
162	0x3fa3f2d164d0c645	0.03896192889841336
163	0x3fc12cdbc90847ba	0.13418147388489193
164	0x3fa59511746152b2	0.04215292497307156
165	0xbfaeae4ea0000000	-0.05992360785603523
166	0x3fb55f70a0000000	0.08348754793405533
167	0xbfb438c520000000	-0.07899124175310135
168	0xbfc1e6f05487e3dd	-0.13986019256097296
169	0x3f9ed31040baa87f	0.030102018309357433
170	0x3fa253a14fd6041f	0.03579429721413185
171	0x3fb4b95b60000000	0.08095332235097885
172	0xbfb1c6e080000000	-0.06944087147712708
173	0x3fb0a18d2e39c570	0.06496508005672808
174	0x3faa07ae135f5633	0.05083984362105944
175	0x3fa793c942ea4336	0.04604939405283519
176	0x3fa0ad585a103961	0.032572518343033215
177	0xbfb99a6d912dd672	-0.10001263422403797
178	0x3fa6b7dac0000000	0.04437144845724106
179	0x3f6bb92000000000	0.0033841729164123535
180	0x3fac6c867f6aa350	0.055515482953814144
181	0x3f7b215324b77809	0.006623577860834126
182	0x3fa91c102127cd97	0.04904222874383917
183	0x3fb01fb320000000	0.06298369914293289
184	0xbf79bf8ff6d830fe	-0.006286203728006477
185	0x3fa8b6bd40000000	0.04826918989419937
186	0xbf9778e580000000	-0.022922120988368988
187	0x3f726f4c00000000	0.004500672221183777
188	0x3fa511281bec68dc	0.04114652005064709
189	0x3f6924a800000000	0.0030692368745803833
190	0x3fc239f1a91807d9	0.1423933101323758
191	0xbfac19d340000000	-0.05488453060388565
192	0x3fb5d7b3e0000000	0.08532261103391647
193	0xbfae57f65934d0bb	-0.05926484908050741
194	0x3f9c3f91faced821	0.02758625119505365
195	0xbfa06d6b2e9967e8	-0.03208479827726746
196	0x3faa6d9e7c600717	0.05161757725001175
197	0xbf95bf10a9c25170	-0.021236667977590995
198	0xbf71072c00000000	-0.004157230257987976
199	0x3fbc633ac9e34e52	0.1108891241922774
200	0x3fb16f9a20000000	0.06810916215181351
201	0x3f9b53a3b9fd6235	0.026686247088351506
202	0x3f94b454e8c1e0fb	0.020219160753613057
203	0x3fb550322d820716	0.08325494395287722
204	0xbfa5fcfcbd6d7e20	-0.04294576465940403
205	0xbfa8c477c0000000	-0.048373930156230927
206	0x3f804e7f6347bea4	0.007962222306530826
207	0xbfa36b5120000000	-0.03792813792824745
208	0x3faad86f40000000	0.05243251472711563
209	0x3faeda7040000000	0.06026030331850052
210	0x3fb8264821b130c1	0.09433413336336384
211	0x3f8f8eae49b2476c	0.015408860801730838
212	0x3fa187f500000000	0.034240394830703735
213	0x3fbf6573cade7095	0.12264178946355948
214	0x3fb236ff49818d01	0.07115169090825547
215	0x3fb84808214a3a80	0.09484911740057989
216	0x3f965791298c37e6	0.021818416748878543
217	0x3fa6ae9cc0000000	0.04430093616247177
218	0x3fb7e2818bd88101	0.09329995788766966
219	0x3fb9103f6b8a2e81	0.0979041707561752
220	0x3f91da7e80000000	0.01743505150079727
221	0xbf6bb935092e7175	-0.003384212098764101
222	0xbfb439db26eabd34	-0.07900781345482671
223	0x3f79ecb482129105	0.00632925520872996
224	0xbfb140ca9f8b48a2	-0.06739488978499478
225	0x3fb54fc4e0000000	0.08324842900037766
226	0x3f9aa3158037189e	0.02601274104178996
227	0xbf818247ecb045fb	-0.008549272452031955
228	0x3fbd7fadc1303fa1	0.11522947279467967
229	0x3f95249a0d52bf3a	0.02064743715590043
230	0x3fa7553a1bf43131	0.04557210532411416
231	0x3facd329116862e3	0.0562985261678415
232	0xbf8f41f6f5dd7956	-0.015262536409576793
233	0xbf9b4c1868e12186	-0.02665746822484174
234	0x3f8f2ee289e8a4dd	0.015226144631997613
235	0x3fc0ee939dd7d6fa	0.1322807808607463
236	0x3f806e2e00000000	0.008022651076316833
237	0xbfb4310202b9a815	-0.078872800507867
238	0x3fb8e4741d702a4e	0.09723592489914631
239	0xbf97169e3e9144ed	-0.022547218865217756
240	0x3faf9897fd9643e4	0.061711072640839665
241	0xbf98438d80000000	-0.023695193231105804
242	0xbfbecdbbf657df85	-0.12032675518264398
243	0x3fb56e54e0000000	0.08371477574110031
244	0xbfb1f78ef4799278	-0.07018369167924188
245	0x3fbb72c9655bc08e	0.10722025608606797
246	0x3fa2bc3bc0000000	0.036592356860637665
247	0x3fb58d61483789d9	0.084188537722674
248	0xbf93524e805e5d79	-0.018868662438391113
249	0xbfaefdf240000000	-0.06053120642900467
250	0xbfb7b263dc9a5eac	-0.0925657666760979
251	0xbfb0027120000000	-0.06253726035356522
252	0x3f939f9000000000	0.01916337013244629
253	0xbfa2db548ffcab48	-0.03682960755971593
254	0xbfa84e2586f8946e	-0.04747121117205998
255	0xbf8ad90300000000	-0.013109229505062103

fc3.bias f8 [64]
0	0xbfabaa8d20000000	-0.054035577923059464
1	0x3fa330b264e2c1c3	0.037480902495534284
2	0xbf5e67d41308ba50	-0.001855809310778906
3	0x3fb4fa9aa723950c	0.08194891529599974
4	0xbfc066f50c275820	-0.12814200490419214
5	0x3fa4f08c264d890b	0.04089773147167549
6	0xbfa04c3021264eeb	-0.031831268354975815
7	0xbf9e62edc0000000	-0.029674258083105087
8	0xbf99725e00000000	-0.02485033869743347
9	0x3fb9833ada180b43	0.09965865921553267
10	0x3f9bf79d00000000	0.02731175720691681
11	0x3fc263c0d7ea90da	0.14366922896181827
12	0xbfb0323820000000	-0.06326628476381302
13	0x3fc0fbeca9e82f9d	0.1326881246208104
14	0xbfaa631eef3e5033	-0.051537481979864096
15	0xbfafec2066dde735	-0.0623483777589641
16	0x3fbabbe156d7812a	0.10442932481919756
17	0xbfad25e4e80fe19f	-0.0569297345427373
18	0x3fc5d7fe78e8baea	0.17065411475910902
19	0x3fb55a2b20000000	0.08340711146593094
20	0xbfaf9e4ba0000000	-0.06175457313656807
21	0xbfb92f49746a260a	-0.09837779132990235
22	0xbfc1568ca3b51ece	-0.1354537772515329
23	0x3f9c67d3dfc9e9b2	0.027739820989589332
24	0x3fca5c0352b097ab	0.205933013320814
25	0x3fbbd088f2ff4052	0.10865074093385488
26	0xbfc0dedd6dcb4b3b	-0.13180129872361043
27	0xbfb46ef7a0000000	-0.0798182263970375
28	0x3fbf627f11941181	0.12259668521079982
29	0xbfc20db06a756e97	-0.14104275892428994
30	0xbfa9a993707625f2	-0.05012188670941588
31	0xbf916cb100000000	-0.01701618731021881
32	0xbfa92d9c20000000	-0.04917610064148903
33	0xbfa6c5da80000000	-0.04447825253009796
34	0xbf9b3394fa41b3c6	-0.026563956999257753
35	0xbfb5a3ff40000000	-0.08453364670276642
36	0xbfadf6a34470e9ba	-0.058522321800825464
37	0xbfb3914740000000	-0.07643552124500275
38	0xbfa78dec00000000	-0.046004652976989746
39	0xbf8238c400000000	-0.008897334337234497
40	0xbfa7f8a59cde1815	-0.046818900488730865
41	0xbfbf9f703b1ca348	-0.12352658694420626
42	0x3f8f4270542b80a3	0.015263440674459899
43	0xbfc1462c12ad0057	-0.134953984374081
44	0xbf81c1696474bd78	-0.00866968477075035
45	0xbfbac765e0210655	-0.10460507127665981
46	0xbfb4e16e7b1634be	-0.08156481270835322
47	0xbf9bc7d42bd4f447	-0.02712947385338207
48	0xbfb0abd1295b8574	-0.06512171992974009
49	0xbfa617398342e07f	-0.04314594008741412
50	0x3fb999810e9101e1	0.09999853711725094
51	0x3f8032b01181807a	0.007909179243313458
52	0x3faf47aabee51ddf	0.06109365062962601
53	0x3fb9d8a7e57a77cc	0.10096215584277884
54	0xbfaeabdac85cbb73	-0.059904896696358366
55	0xbfabac9dce41ee60	-0.05405133383552818
56	0x3fb39b78d696c7b4	0.07659106482495198
57	0x3f881119b6d81523	0.011751366512735622
58	0xbf9ab9d1a63bb839	-0.02609946801288052
59	0xbfb3b766c196ba6b	-0.07701723314560531
60	0x3fbb1051518475b9	0.10571773758098048
61	0x3fc04185715813f7	0.12699955019357365
62	0xbfc10d57d0968818	-0.1332196968551791
63	0x3fb78365fb76b603	0.09184872998476838

fc4.weight f8 [2, 64]
0	0xbfb6f857c0000000	-0.08972690999507904
1	0x3fb87eb47dbbcf89	0.09568336553257785
2	0x3fa16d51780a7cc5	0.03403715696662738
3	0x3fa6fd787fccfcdf	0.044902577973056294
4	0xbfab2518513ce524	-0.0530173873107265
5	0x3f76064d40db3850	0.005377103587035206
6	0x3fb59d7f38f48cb9	0.08443446293363167
7	0x3fa75fd400000000	0.04565298557281494
8	0x3fa52fda80000000	0.04138071835041046
9	0xbfc10de02fb71000	-0.13323595361555363
10	0x3f83c02a00000000	0.00964386761188507
11	0x3fb09ca65393a231	0.06489028492399808
12	0x3fb938be00000000	0.09852206707000732
13	0x3f7688261d16ede3	0.00550093544137151
14	0x3fa77d55c7a33d13	0.045878105754690555
15	0xbfa437e5c70dc113	-0.03948896460394926
16	0x3faf11cfac2159c8	0.060682763826367
17	0x3fa3fb8663409334	0.03902835809302588
18	0x3fafbb3e1ffa8426	0.061975423244128344
19	0x3fad9c2880000000	0.0578320175409317
20	0x3fa8d1fc80000000	0.04847706854343414
21	0x3f7c3ad356dbf343	0.006892037910571971
22	0x3fa7bcf8dd43ef7a	0.04636361790650674
23	0x3f8402701fb4ff84	0.009770275085088327
24	0x3f8ce0311b9b8e1e	0.014099486975687244
25	0x3fa6a93e8b1a3a35	0.04425998161342585
26	0xbfab4688fa314fc0	-0.05327251485928697
27	0xbfa4d1d580000000	-0.04066340625286102
28	0x3f9ff74d3871e8b5	0.031216818399550223
29	0xbf99b2de3604a2df	-0.025096389815334127
30	0xbfa22b727ee0efef	-0.03548772620021611
31	0xbfbcbf26c0000000	-0.11229173839092255
32	0xbf805d8400000000	-0.007990866899490356
33	0x3fb8456ec0000000	0.09480945765972137
34	0x3f92a619c621442c	0.018211748807804337
35	0xbf8bb2d200000000	-0.013524666428565979
36	0x3fbb053c0e0bf418	0.10554862349449967
37	0x3fbc6ae140000000	0.11100585758686066
38	0x3fbbf985c0000000	0.10927616059780121
39	0x3fa7525c80000000	0.04555024206638336
40	0xbfa3dd2eb8ae0751	-0.038796863597794336
41	0xbf9251de141037b6	-0.017890424704141338
42	0xbfa7971dda4feff2	-0.04607480325645942
43	0x3fa252f32e7552a1	0.03578910772435973
44	0x3f7a6c30e52588e3	0.00645083522462839
45	0x3fa43c3b77936ac7	0.03952203592935671
46	0x3f63dc83645cb81d	0.002424484849050236
47	0x3f9d7b0789becc25	0.028789632589632092
48	0x3fa92b72af423181	0.04915960683237853
49	0x3fb042eab0f6b7a8	0.0635210687675839
50	0x3f76f1331c20842f	0.005601119659361094
51	0xbfa50ee93f01d21f	-0.041129387799547105
52	0x3fb62c8c6d102986	0.08661725676225815
53	0x3fb8c5d97ee77d2d	0.09676894520042785
54	0xbf43c1b5e8171d5a	-0.0006029260841210846
55	0xbf78ef43edb0d5a7	-0.006087556214926882
56	0xbfb2d4ac97ad4355	-0.07355765059516035
57	0xbfb078ce0af61a95	-0.0643433357964603
58	0x3fa2661528c84701	0.03593507883864611
59	0xbfafd4da0d5789d5	-0.06217080510011256
60	0x3fa096cf23d40fd9	0.032400582431392606
61	0x3fb5204e6f01a2ef	0.08252420625798228
62	0x3f8cfc03093683e4	0.014152549475342675
63	0x3fb86b4532f0296b	0.09538681501013506
64	0x3fbeef5780000000	0.12083956599235535
65	0xbfa127a2ef30f960	-0.033505527208478325
66	0xbfcdf026fd57c71d	-0.23389136667497548
67	0xbfad41368956ca93	-0.05713816095830739
68	0xbfc4bbe942ce5801	-0.16198459398282242
69	0xbfcaa24ab604c470	-0.20807775390270278
70	0xbfc5f6bf2afe80c1	-0.17159261321376643
71	0x3f8a2a9200000000	0.012776508927345276
72	0x3fbb478d80000000	0.10656055808067322
73	0xbfcf66de19b18edf	-0.24532676939553874
74	0xbfb8257380000000	-0.09432145953178406
75	0xbfd1b193f8e5fa7f	-0.27646350199203334
76	0xbf9ac55a00000000	-0.02614346146583557
77	0xbfc5c193b65bc976	-0.16997000126100276
78	0xbfb16cb433e0f500	-0.06806494013376962
79	0xbfbb29fc4b507a7d	-0.10610939825753891
80	0xbfc53089052caed6	-0.1655436778322527
81	0xbfb5c6942d93555d	-0.08506132233317971
82	0xbfd246f61b7ae082	-0.28558113750069236
83	0x3fb7a61200000000	0.09237778186798096
84	0xbfad056900000000	-0.05668190121650696
85	0x3faf27640ce45e96	0.060847403119791796
86	0xbfb917189dad2743	-0.09800866937180523
87	0xbfc10e2fe8cbdcf7	-0.13324545733460244
88	0xbfd0eefad620c6e0	-0.26458617125454786
89	0xbfc05a687381230d	-0.12775903358331
90	0xbfa549a8d13bbfe2	-0.04157760194891559
91	0xbfb8ce9fc0000000	-0.09690283238887787
92	0xbfc82f2a7db7fa3b	-0.1889393915043501
93	0x3fa2f55fea7d2f42	0.037028310178895754
94	0x3fb6ef6b899e426f	0.08959076032466283
95	0xbfb0425ac0000000	-0.06351248919963837
96	0x3fa49dfa00000000	0.040267765522003174
97	0xbf97871000000000	-0.022976160049438477
98	0xbfa960549123514a	-0.04956306716636279
99	0xbfa68e6700000000	-0.04405519366264343
100	0xbf8eb0af6d35fe94	-0.01498543788943544
101	0x3fbff86480000000	0.12488391995429993
102	0xbfbd0fd800000000	-0.11352300643920898
103	0x3fbb2ce3c0000000	0.1061537116765976
104	0xbfc3d67d7fe418c3	-0.15498322243383286
105	0xbfc090d4f070a64a	-0.1294199155830021
106	0xbfa2adb24389b970	-0.03648144792974761
107	0x3f9e1faa4bd5aeda	0.02941766822679779
108	0xbf69a4d36abc5ba8	-0.0031303529011767646
109	0xbfba45c2f47e9707	-0.10262697667220887
110	0x3fae6221ad0709ac	0.05934243428375238
111	0xbf7866272a31c68e	-0.005956795680604933
112	0xbfa9b5f0afd09b95	-0.050216218435074435
113	0xbfc12e85ec4ad1f1	-0.134232273461421
114	0xbfc8c65c212aa5fd	-0.19355346316778813
115	0x3f98748b426f78df	0.023882080011269898
116	0xbfc9fde074eedfd7	-0.20306020459770366
117	0xbfcf0dcacb3a1032	-0.24260840342697204
118	0x3f868430fb282171	0.010994322457023671
119	0xbfb6112fa9c843a0	-0.08619974036288491
120	0xbfc4598ee4bbbf3f	-0.15898309868452462
121	0x3fab1e4c36a2ad9e	0.05296552817284382
122	0xbf7cf07046727fd2	-0.007065237593593525
123	0xbfb7cdd325a940d9	-0.09298438710652891
124	0xbfd03f31037bdc9c	-0.25385690059870014
125	0xbfc7885f9b5ad5ab	-0.1838492878502341
126	0xbfaf2873b5bf544b	-0.060855499206504314
127	0xbfcfa4dd8f3f62c3	-0.24721879477035288

fc4.bias f8 [2]
0	0x3fb48b2077aa3714	0.08024790688997668
1	0xbfb2e6f69ca4fc48	-0.07383672069862357
