src/backend/controller/checkpoints/checkpoint_epoch_33.pth (torch, 420207 bytes, 25 tensors)

fc1.weight f8 [64, 5]
0	0x3fc63df48516fa9a	0.173765721307025
1	0xbfdd914a25200d81	-0.461992775206646
2	0x3fd015a8d302cab3	0.2513219891217588
3	0xbfc798b1d6763e86	-0.18434737178585098
4	0x3fbbd45c9837c271	0.10870913234954017
5	0xbfc4288740000000	-0.15748682618141174
6	0xbfd24cb4a0000000	-0.2859317362308502
7	0xbfdac41960000000	-0.4182189404964447
8	0xbfce277ec0000000	-0.23558029532432556
9	0x3fba497600000000	0.102683424949646
10	0xbfce756f3f6d5e13	-0.23795881840736452
11	0x3fbb9fa51c5e9fa4	0.10790473883264312
12	0xbfd7ff7d27c6ec95	-0.37496880421139994
13	0x3fd98e5327140421	0.3993118173239641
14	0x3faf713ba14dbdbb	0.06141077369727151
15	0x3fd2b3e300000000	0.29222941398620605
16	0xbfc07d2140000000	-0.12881866097450256
17	0xbfd1032180000000	-0.2658160924911499
18	0xbfd7520880000000	-0.36438190937042236
19	0xbfb5e70380000000	-0.08555623888969421
20	0xbfc4ff4bc0000000	-0.16404101252555847
21	0xbf8a2da400000000	-0.012782365083694458
22	0x3fd9654240000000	0.3968053460121155
23	0x3f93ab9800000000	0.01920926570892334
24	0xbfda0d1c40000000	-0.4070501923561096
25	0xbfc324d52e19e990	-0.14956154585872783
26	0x3fd536c32f3693ef	0.33146743403113893
27	0x3fd72ea26f291396	0.3622213445235557
28	0x3fb9f06bab29ddd5	0.10132477692410842
29	0xbfd6fab5b7fa6748	-0.35905211416831095
30	0xbfca77fa914a5da9	-0.20678646177542007
31	0xbfd199852cffc92c	-0.2749951304860072
32	0x3fd25338fb09345f	0.28632950320463196
33	0x3fd0efd5991ba33e	0.2646383280939978
34	0x3fda415f73970700	0.410240042572795
35	0x3fd7ec50c0000000	0.37379854917526245
36	0xbfda694480000000	-0.41267502307891846
37	0xbfb6651080000000	-0.0874796211719513
38	0xbfd48f5840000000	-0.3212490677833557
39	0x3fb6020000000000	0.085968017578125
40	0x3fc8fd32a39606df	0.1952269839057896
41	0xbfcf64312c43097e	-0.24524511967872437
42	0xbf47d7db6d729bc4	-0.0007276364730345254
43	0x3fbf7558b51038aa	0.12288431568615246
44	0x3fd071d0b64cb42d	0.25694673350045855
45	0x3fd4dd85aa39d730	0.326020637737531
46	0x3f96593260438d2d	0.02182463371799519
47	0x3fb3a624059eee68	0.07675385606028728
48	0xbfd8135682f0b2a7	-0.37618029391414115
49	0x3fc142d1a824f16a	0.13485165319606135
50	0xbfd5040e6d215f4b	-0.32837258012067555
51	0xbfb63792caca4a71	-0.08678548289234712
52	0x3fd62fce4512aef1	0.34666783090027226
53	0x3f805e103a9b5cca	0.007991911686458759
54	0x3fc0631d7874109b	0.1280247533942472
55	0x3fd21d36c1e469d6	0.2830330747107416
56	0x3fc84625946848ad	0.1896407103200252
57	0x3f80fa92827bf36d	0.008290428740559819
58	0x3fd51c06e83a4397	0.3298356311652752
59	0x3f9037ca56d00587	0.015837823437328005
60	0xbfc448db80000000	-0.1584734320640564
61	0x3fba708500000000	0.10327941179275513
62	0xbfd6b83380000000	-0.35499274730682373
63	0x3fd3168c80000000	0.29825127124786377
64	0xbfc9870540000000	-0.19943299889564514
65	0xbfd51f2e3f28e8cd	-0.3300281159205383
66	0x3fc8e9b85c9c512f	0.19463257333757997
67	0x3fda21f7cc301555	0.40832323971001944
68	0xbf898875141cad8f	-0.012467302967329256
69	0x3fd1b3561c9ab5ba	0.27657082360641605
70	0xbfd6307b89573e96	-0.34670914089381577
71	0x3fd021bace5ae0ca	0.2520586981950258
72	0xbfbcfac98b53e1c7	-0.1132017102389745
73	0x3f9ef4d61b6f6391	0.03023085157824174
74	0xbfb174ba3824a9a4	-0.06818736906703876
75	0xbfd204caa0000000	-0.28154245018959045
76	0xbfd90499c0000000	-0.39090579748153687
77	0xbfd1fa7e40000000	-0.2809138894081116
78	0x3fd95630c0000000	0.3958856463432312
79	0x3fc04c8800000000	0.1273355484008789
80	0x3fca943e57bc83bf	0.20764903339389026
81	0xbfa586fd9c20f31f	-0.04204552203052558
82	0x3fcc125d0adf5c5b	0.21931040793308196
83	0xbf763dce539b998c	-0.0054300365097560525
84	0x3fc2314c1778fd52	0.14212943216441914
85	0xbfa408dcf322a1b0	-0.03913011997184712
86	0x3fd6fbd171db8311	0.3591197597398131
87	0x3fc22c128969a76a	0.1419699831924917
88	0x3fc21926417db7c4	0.141392499902791
89	0x3fcfec0c6c21e748	0.24939112930206364
90	0x3fcd812080000000	0.2305031418800354
91	0xbfc6dee0c0000000	-0.17867669463157654
92	0xbfdb4c6980000000	-0.4265388250350952
93	0x3fa7d42d00000000	0.046540647745132446
94	0xbfd2233d80000000	-0.28340089321136475
95	0x3fb83cb38e0a201c	0.09467622964632522
96	0x3fa9889845b098ed	0.04987026072221732
97	0x3fbc6ef53962d3a8	0.1110680832960741
98	0x3fd18df5a7903f34	0.27428952563876696
99	0xbfc9077edb516be3	-0.19554124554528504
100	0x3fdf6e4de7381a9c	0.4911074407577105
101	0xbfd7445f1d9ee17e	-0.3635480679763744
102	0xbfd1981762fe1994	-0.27490791957134175
103	0x3fcbf822d306b0c8	0.2185100107575464
104	0xbfa26e5018ab27a2	-0.03599787045602844
105	0x3fc9b45f80000000	0.2008170485496521
106	0xbfcdd7d000000000	-0.23314857482910156
107	0xbfaae2ed00000000	-0.052512556314468384
108	0xbfc343f100000000	-0.15051090717315674
109	0xbfd027f300000000	-0.2524383068084717
110	0x3fdb511f40000000	0.4268262982368469
111	0xbfc98f40e0000000	-0.1996842473745346
112	0xbfd3d18280000000	-0.30966246128082275
113	0xbfda45af40000000	-0.41050320863723755
114	0xbfda46c9a0000000	-0.41057053208351135
115	0x3fc5437f9dcaca52	0.1661223907918435
116	0x3fd1ad8ea20a7bc3	0.27621808838187806
117	0xbfb873718a4eb1e8	-0.09551152826924858
118	0xbfe0213a7a0bd2b1	-0.5040562041964077
119	0x3fc119912ae28257	0.13359274476990166
120	0xbfbded0f00000000	-0.11689847707748413
121	0xbfd8b6bce0000000	-0.3861534297466278
122	0x3fd8779a80000000	0.3823000192642212
123	0x3fc1621480000000	0.1358056664466858
124	0xbfcf462520000000	-0.24432815611362457
125	0xbfcdb0136fe67d34	-0.23193591083416154
126	0x3fc0f860137f970e	0.1325798125464463
127	0xbfd2795fd580c33d	-0.28865810251140883
128	0x3fd195f441888720	0.2747774734472035
129	0xbfd1e0b925bfde9b	-0.2793410175940864
130	0x3fd6de8e00000000	0.3573336601257324
131	0xbfbd75e580000000	-0.11508020758628845
132	0x3fb55c7700000000	0.08344215154647827
133	0xbfdbb0c0c0000000	-0.4326631426811218
134	0xbfb32a1280000000	-0.07486072182655334
135	0xbfb02ea600000000	-0.06321179866790771
136	0xbfc009dd40000000	-0.1253010332584381
137	0xbfaf07b000000000	-0.060605525970458984
138	0xbfb2adbd80000000	-0.07296356558799744
139	0x3fd42570c0000000	0.3147851824760437
140	0x3faca7f4ab32c0d9	0.055968900583481314
141	0xbfca5f616dd4c462	-0.20603578436706288
142	0x3fd00be8aad52629	0.250726858929371
143	0x3fc38b09c6a2def6	0.15268060874017636
144	0xbfd2d925a8b853e6	-0.29450360752644966
145	0xbfc1f1d900000000	-0.14019310474395752
146	0xbfbf608880000000	-0.12256672978401184
147	0x3fd6096880000000	0.3443242311477661
148	0xbf8bff2800000000	-0.013670265674591064
149	0x3fc1659000000000	0.1359119415283203
150	0xbfc3e10e80000000	-0.1553056836128235
151	0x3fcb704080000000	0.21436315774917603
152	0xbfb8635e00000000	-0.09526622295379639
153	0x3fc8a01500000000	0.19238531589508057
154	0x3fa1f78d00000000	0.035091787576675415
155	0x3fc8d98180000000	0.19413775205612183
156	0x3f9103a400000000	0.016615450382232666
157	0xbfd4bdf880000000	-0.32409489154815674
158	0xbfd96889c0000000	-0.39700549840927124
159	0xbfd1d09740000000	-0.2783563733100891
160	0x3faffe33a9a9c8ae	0.06248628088077744
161	0x3fc42168418b6849	0.15726950836580247
162	0xbfcdfe47ed7f8525	-0.2343225392969909
163	0x3fcd65bee776fa06	0.2296675329398143
164	0x3fd4dad804b5273b	0.3258571668599079
165	0x3fc2bbcdfb3027f7	0.14635634198231148
166	0xbfd3e2bd65692a96	-0.3107141008701232
167	0x3fab0a7e407c4865	0.05281443154503122
168	0x3fcc4581e69db778	0.2208711982779581
169	0x3fd8a59f483eef7f	0.38510877661951065
170	0xbfd191cb00000000	-0.2745234966278076
171	0x3fadf6f400000000	0.0585247278213501
172	0xbfc0a04500000000	-0.129891037940979
173	0x3fcb790000000000	0.214630126953125
174	0x3fac667c00000000	0.055469393730163574
175	0xbfd8793520000000	-0.38239791989326477
176	0xbfb4eae080000000	-0.08170893788337708
177	0x3f9fbf0800000000	0.031002163887023926
178	0xbfd7095e00000000	-0.35994672775268555
179	0xbfd9241620000000	-0.3928275406360626
180	0x3fda1c8c2948725a	0.4079924014238593
181	0xbfbcd0f7688c748b	-0.11256357481438976
182	0xbfd69cc8af2be612	-0.35331933123197345
183	0x3fa241ab41c63279	0.0356572644987851
184	0x3fcca460dd344dbe	0.2237664299105812
185	0x3fd5939894e02056	0.33713354624388125
186	0x3fb2b6bc695c8563	0.07310082981395775
187	0x3fcd57394fbd6c09	0.22922436135817773
188	0x3fd1750401c03eb8	0.2727670685862722
189	0x3fd893f6e7a04d3e	0.384031034657898
190	0x3fd0ae41a0841f8b	0.260635763887415
191	0xbfc10022bab3c232	-0.1328166400558231
192	0xbfd142ed7797dc07	-0.269709936895595
193	0xbfc9568a9569fcf9	-0.19795353217703118
194	0xbfbbfed40feba792	-0.10935712231335362
195	0xbfd312752f56078a	-0.2980015718713892
196	0xbfd4119732f34f49	-0.3135736463129786
197	0x3fdf325f86480e66	0.48744953263687874
198	0xbfc072cb1903d033	-0.1285032150404973
199	0x3fd4aea983dc790e	0.32316053273270107
200	0x3fda51ad9b5007a1	0.41123523871658035
201	0xbfbe59ab607deed2	-0.11855574708709618
202	0xbfd9f00ed947d11a	-0.4052769777183741
203	0x3fd68fefab16eeff	0.3525351687237474
204	0xbfbe7ca6323fd86d	-0.11908949591438196
205	0x3fb0fe1700000000	0.06637710332870483
206	0x3fc4448500000000	0.15834105014801025
207	0xbfc4852280000000	-0.1603129506111145
208	0xbfbd61bf80000000	-0.11477276682853699
209	0xbfd7ff0c60000000	-0.3749419152736664
210	0x3f98d4dc00000000	0.024249494075775146
211	0xbfc0415d40000000	-0.1269947588443756
212	0xbfcd6e9dc0000000	-0.22993823885917664
213	0x3fc5a90800000000	0.1692209243774414
214	0xbfb4ba4600000000	-0.08096730709075928
215	0x3fc11a28880e6684	0.13361078875896137
216	0xbf94599864b0f4e7	-0.019873028894143465
217	0xbfdb02a5b416a956	-0.42203657709855713
218	0x3fca9565f0300616	0.20768427112493332
219	0xbfc22c6368dfbf34	-0.14197962399293262
220	0xbfb9fc5cd8897867	-0.1015069988875169
221	0x3fdcbba3b35a79ca	0.44895260348303323
222	0x3fda782398747ae6	0.41358270538505193
223	0x3fd3c649f397387c	0.30897759235529754
224	0xbfd52843259f1200	-0.3305824153324295
225	0xbfd43896fcd6a9b1	-0.31595396701109296
226	0xbf7ad73b4602d944	-0.0065529170389509485
227	0xbfd62d9930d04527	-0.3465331055350184
228	0x3fdaf2ff2241ad8f	0.4210813364540735
229	0x3fd065e23ff5ef13	0.2562184929481514
230	0x3fcbdce51d341eb2	0.21767867971379
231	0xbfcf1b8db883ad82	-0.24302836904039898
232	0x3f73c4b5add983ba	0.004826268848405252
233	0x3fd218a52df8fabd	0.28275422563084956
234	0x3fc49c79ef9bd169	0.16102527808801462
235	0x3fb9e56aa15bdb74	0.10115686835693599
236	0x3fd4b9a79c9442f6	0.32383146563465404
237	0x3fb714927c2357dc	0.09015765696253147
238	0x3fd8a72704df61c9	0.38520217395628414
239	0xbfb294eebea4c7ed	-0.07258503107439625
240	0x3f9c103865746a48	0.02740562552672035
241	0x3fd0bb2048eb3ba2	0.2614212715242791
242	0x3fd7fb1821ae7b41	0.37470057763305326
243	0x3fc83f49e43ae2ea	0.18943141597789942
244	0xbf4413bdc3365a01	-0.0006127049040738909
245	0x3fb2078500000000	0.07042723894119263
246	0xbfb9034f00000000	-0.09770673513412476
247	0xbf9bdd8c00000000	-0.027212321758270264
248	0x3fcd0ced80000000	0.2269570231437683
249	0xbf89036800000000	-0.012213528156280518
250	0x3fc6de1911343706	0.17865289058720907
251	0xbfd31f12220ab53d	-0.2987714130820967
252	0xbfd3bf325c726182	-0.3085447218704972
253	0x3f9c788dacaae812	0.027803624786180654
254	0xbfd16198b1244235	-0.27158181475627724
255	0x3fc2eed3f94bae7a	0.1479134528411697

fc1.bias f8 [64]
0	0xbfd05a1d44be7d3f	-0.25550014222422485
1	0x3fc4dbbe80000000	0.16295605897903442
2	0x3fd04c35044737ae	0.25465131204407043
3	0x3fb083fe00000000	0.06451404094696045
4	0xbfd8a4e500000000	-0.38506436347961426
5	0xbfc4da9472bf01a6	-0.16292052843892896
6	0xbfc912d54c97a2e0	-0.19588724365100685
7	0xbfd18a4b60000000	-0.2740658223628998
8	0xbfda03c93d1bda09	-0.40648108451515036
9	0xbfa241b8203c419f	-0.03565764802454229
10	0x3fc2cedc33e7d246	0.14693787130785746
11	0xbfb474b07d918afe	-0.07990553918493146
12	0xbfca1b0d40000000	-0.20395055413246155
13	0xbfd0c81b87d5e1b9	-0.2622135950582805
14	0xbfb7416bb459c1fb	-0.09084199097720351
15	0x3fcb36a380000000	0.21260493993759155
16	0xbfc4b2a7cab55d56	-0.1617021312510853
17	0xbfa5f999ccd9e0bd	-0.04291992784141161
18	0xbfcc602f40000000	-0.22168532013893127
19	0xbfcdd6014ac6b26e	-0.23309341574840253
20	0x3fa3422a27a41960	0.037614171351423975
21	0x3fac574a00000000	0.05535346269607544
22	0x3fa63d9800000000	0.04343867301940918
23	0xbfbdb9725c8dd926	-0.11611094245549633
24	0xbfd06eaee0000000	-0.2567555606365204
25	0x3fd14b2e08cee479	0.2702136121766397
26	0xbfd7cf8cc0000000	-0.37204283475875854
27	0xbfcff34560000000	-0.24961154162883759
28	0xbfd014d5b2262c75	-0.2512716521966419
29	0xbfd5b36b80000000	-0.3390759229660034
30	0xbfd4fb0ea0000000	-0.32782331109046936
31	0xbfc40220c0000000	-0.1563149392604828
32	0xbfc2086e5739b9e8	-0.14088229426438592
33	0xbfdca6e907c73112	-0.4476873947103438
34	0xbfc13cbd80000000	-0.13466614484786987
35	0xbf73036000000000	-0.004641890525817871
36	0xbfaccc7d658f501b	-0.056247633597792134
37	0x3fd0a6d85ac473d9	0.2601834188843078
38	0xbfbc1177ee1e352f	-0.10964154780795775
39	0x3fbfa4ef4486eac4	0.12361045287154143
40	0xbfb6f4807609fcd6	-0.08966830140888091
41	0xbfca783ce0000000	-0.2067943662405014
42	0x3fa0047f00000000	0.03128430247306824
43	0x3fd40736ecd703b4	0.31294034127136716
44	0x3fd29ea55ea55d1b	0.2909329818989634
45	0x3fb6e9d53cbeeb68	0.0895055077843786
46	0xbfdee8932f7a3a38	-0.4829452479979497
47	0xbf90e600c1c77788	-0.016502391650525833
48	0xbfbed9c1eeb3f2f6	-0.12051021650036006
49	0xbfdc691be0000000	-0.44391533732414246
50	0x3fdd35674773ba29	0.4563844869398133
51	0x3fdb6f6b9bda37de	0.42867555828058623
52	0x3fb46b5b801b74de	0.079763144279656
53	0xbfd0b5b420000000	-0.26109030842781067
54	0xbfd49eebe0000000	-0.3221997916698456
55	0x3fab82d600000000	0.05373257398605347
56	0xbfd101e5b7e67a04	-0.2657408042813645
57	0x3fbb2b29c2c51d50	0.10612736706854276
58	0xbfd27f1a80000000	-0.2890077829360962
59	0xbfda2e0192e81aae	-0.4090579924235652
60	0xbfd0c8c900000000	-0.2622549533843994
61	0xbfca34d1a5ddaeee	-0.20473690604136813
62	0xbfce58c313c04224	-0.23708380188374278
63	0x3fd9af7f61eb9617	0.40133652269864356

fc2.weight f8 [128, 64]
0	0x3fc539b01cf203d8	0.16582299626682473
1	0x3fa8d37b80000000	0.04848848283290863
2	0xbfc560da68ef4263	-0.16701822398910612
3	0x3fb540ed80000000	0.08302196860313416
4	0xbfb3f9a7c0000000	-0.07802818715572357
5	0xbf8f3c8778cdb1dd	-0.015252169012193778
6	0xbfb830c1bfdf424a	-0.09449397024514741
7	0x3fb5832ec0000000	0.08403293788433075
8	0xbf72da278b5f7099	-0.004602579565439546
9	0xbfb9c5dc2ce9a6d7	-0.1006753549242164
10	0x3fc894be23e93fe5	0.19203926804993823
11	0xbf76b82baf3d355d	-0.005546732561766046
12	0x3fa762e000000000	0.045676231384277344
13	0x3fc07195e4856d6d	0.12846635492574468
14	0x3fad44f7abab3731	0.05716680498663463
15	0xbfbd6edd80000000	-0.11497291922569275
16	0x3fb1fe6b50e85ad5	0.07028837895664293
17	0xbfab79fd2e52706e	-0.05366507711843914
18	0xbfb9da7e80000000	-0.10099020600318909
19	0x3fb2bd43f5655fa7	0.07320046177971894
20	0xbfc5ed6447f218d4	-0.17130712044690333
21	0x3fbfe46200000000	0.12457859516143799
22	0xbfb16f1700000000	-0.06810134649276733
23	0xbfb5cd6723bdd043	-0.08516544935793129
24	0x3fab41db80000000	0.05323682725429535
25	0xbfaf505d00c08636	-0.061159998266031954
26	0xbfbe08a700000000	-0.11731952428817749
27	0x3fbc932d80000000	0.11162075400352478
28	0xbfa34d6d8faa3bd1	-0.037700103556850835
29	0x3fbeee6740000000	0.12082524597644806
30	0xbf9a2eab00000000	-0.025568649172782898
31	0x3fa09e0880000000	0.032455697655677795
32	0x3fb7c5e006414b4b	0.0928630843421107
33	0x3fb292e55bddba79	0.07255395405602795
34	0x3fafd07f00000000	0.06213757395744324
35	0x3fb45ad740000000	0.0795111209154129
36	0xbf6850d5600a2a92	-0.0029682319148539105
37	0x3fc1a878e49fd85b	0.1379538647012762
38	0xbfb2062e8e45735a	-0.07040682767315101
39	0x3fb76434fcc97c5e	0.0913727872043508
40	0xbfc2fcfea803c13c	-0.14834578708497215
41	0xbfb8bca940000000	-0.09662874042987823
42	0xbfac6f6780000000	-0.055537447333335876
43	0xbfbb4884eb8a167b	-0.10657530546640175
44	0x3fc0c46cf75743c0	0.13099443509284292
45	0x3fa97a9aa6e8b8a9	0.049763520121233036
46	0x3fba768cd59c8722	0.10337143149493191
47	0x3fc25e31dbaa2a6e	0.1434995958882896
48	0xbfa674aa0176ecc8	-0.043858826330927025
49	0xbfbe851040000000	-0.1192178875207901
50	0xbfaa85319cffd8c4	-0.05179743806358908
51	0x3fb73a20748e0bc2	0.0907306942518025
52	0x3fc123b36fd95e6f	0.13390200578099917
53	0xbfa35c3900000000	-0.0378129780292511
54	0x3fa6a6c280000000	0.04424102604389191
55	0xbfb2f88300000000	-0.07410448789596558
56	0xbfa34581703745dd	-0.037639660785895514
57	0x3fb8159877ca9f46	0.09407952236744874
58	0xbfaf5fbb00000000	-0.06127724051475525
59	0x3fc6106c6de2744f	0.17237620702226983
60	0x3f959b3100000000	0.021099820733070374
61	0xbfa3ad99e759ba29	-0.03843384694197411
62	0x3fc04a3d1d7e0c11	0.12726558628136833
63	0xbfa54a745e123445	-0.041583668216028026
64	0x3fc293a2a61f6177	0.14513047324613712
65	0x3fa8580e00000000	0.04754680395126343
66	0x3f69dedf3ce48cc0	0.0031580314745426052
67	0xbfbd74b280000000	-0.11506190896034241
68	0x3fb93d1500000000	0.09858828783035278
69	0x3fc23135c73298b4	0.14212677217910186
70	0x3fb2d82e43d2ffe8	0.07361115604271584
71	0xbfa0285e00000000	-0.03155797719955444
72	0xbfbe15510b0357e3	-0.11751276511071711
73	0x3fc1fafa719ade89	0.14047174975506874
74	0x3fb85ca08ade8896	0.09516337766993596
75	0x3fc23798ad31d076	0.1423216672589011
76	0xbfb1ff7000000000	-0.07030391693115234
77	0x3fb124c0d7f81574	0.06696706078226616
78	0xbf757b7e34ff671b	-0.005244725223713133
79	0xbfad186900000000	-0.05682685971260071
80	0x3fbdf515f56291de	0.11702096215100918
81	0x3fbe05791e599d6f	0.11727101317375398
82	0x3f91da6200000000	0.017434626817703247
83	0x3fc2a20c5b574c3d	0.14557032070169554
84	0xbfc3e7e289b35cc4	-0.15551406596816808
85	0x3fbf7b6200000000	0.12297642230987549
86	0xbfbea010c0000000	-0.11962990462779999
87	0x3fa525cd99e4736a	0.04130403998917738
88	0x3fa8fdea80000000	0.048812225461006165
89	0x3f80e79804d65c93	0.008254230163215836
90	0xbfb331e240000000	-0.07497991621494293
91	0x3f8952cc00000000	0.012364953756332397
92	0xbfbf74744727cad0	-0.12287070023721047
93	0xbfba802540000000	-0.10351784527301788
94	0x3fbb5a2000000000	0.10684394836425781
95	0x3fb5a48ac0000000	0.08454196155071259
96	0x3fb124657ebe9da9	0.06696161598539753
97	0x3f7b92b29c88d75c	0.006731698704745739
98	0xbfb0e51480000000	-0.0659954845905304
99	0x3fb1cbd7c0000000	0.06951664388179779
100	0xbfc31e25deab49e3	-0.14935754177584135
101	0xbf86d38436e8ab3a	-0.011145623136220462
102	0xbfabc6e486b490aa	-0.05425180572845652
103	0x3fae24206111c608	0.0588693731778101
104	0xbfc5c10c7850cce3	-0.16995387911592905
105	0xbf98a68200000000	-0.02407267689704895
106	0x3fab0b7e00000000	0.0528220534324646
107	0xbfb48a1226b38887	-0.08023179478508001
108	0x3fc12e5634430f27	0.13422658492901826
109	0xbf7787e2ca57ce6a	-0.005744825267800383
110	0xbfb29ebf699bd3c1	-0.07273479774796866
111	0x3f87846ad9597191	0.011483034856774295
112	0x3fb7cdfc76080b6f	0.09298684960962843
113	0xbf95a92b00000000	-0.02115313708782196
114	0xbfc7a14dbbcdcaf7	-0.18461009664641612
115	0xbf8f4fc47e44a034	-0.015288863280673672
116	0x3fb814318aab89f6	0.09405812869548655
117	0xbf517af000000000	-0.0010669082403182983
118	0x3fa4d55700000000	0.04069015383720398
119	0xbfa3228880000000	-0.03737284243106842
120	0x3fb32eaea411e1db	0.07493106370555529
121	0x3fca09366e5aaeb6	0.2034061468924528
122	0x3f99621900000000	0.024788275361061096
123	0xbf791964d22595ea	-0.0061277330699786945
124	0x3fb362ef40000000	0.07572837173938751
125	0xbfa32568c71f2365	-0.037394785219993655
126	0xbf97d1d60c589df8	-0.023261398795652227
127	0xbfb5fe9fcbfc2c1c	-0.08591650705436432
128	0x3faa422180000000	0.05128578841686249
129	0x3fbd5c6bc0000000	0.11469148099422455
130	0x3faccf1900000000	0.05626752972602844
131	0xbf957f9100000000	-0.020994439721107483
132	0xbfa7421f00000000	-0.04542633891105652
133	0x3f990aeb00000000	0.024455711245536804
134	0x3f98444800000000	0.023697972297668457
135	0xbf9f04c200000000	-0.030291587114334106
136	0x3fbdb363c0000000	0.11601851880550385
137	0x3fbda7a980000000	0.11583957076072693
138	0x3f8d86bc00000000	0.014417141675949097
139	0xbfa2c37980000000	-0.036647602915763855
140	0x3fbf4a42c0000000	0.12222687900066376
141	0x3fb7b0cb00000000	0.0925413966178894
142	0x3f8555da00000000	0.010417655110359192
143	0x3fbdbc1740000000	0.11615128815174103
144	0xbfb7e5e940000000	-0.09335191547870636
145	0x3f67e92800000000	0.0029187947511672974
146	0x3fae3b8a80000000	0.059048011898994446
147	0x3f8274f800000000	0.009012162685394287
148	0xbfbb640840000000	-0.1069951206445694
149	0x3faa555d80000000	0.0514325350522995
150	0x3f85d2bc00000000	0.010655850172042847
151	0x3fa4ea7100000000	0.04085114598274231
152	0xbfabe73200000000	-0.054498255252838135
153	0xbfa4c6ed00000000	-0.040580183267593384
154	0xbfb3c8cd40000000	-0.07728274166584015
155	0xbfa1ce2b80000000	-0.034776076674461365
156	0x3f7ba5f800000000	0.00675007700920105
157	0x3fa6613d00000000	0.0437106192111969
158	0xbf9b64d400000000	-0.026751816272735596
159	0xbf792b2400000000	-0.006144657731056213
160	0x3f81be0800000000	0.00866323709487915
161	0xbf9502f900000000	-0.020519152283668518
162	0x3fb4800600000000	0.08007848262786865
163	0xbf8f40ae00000000	-0.015260085463523865
164	0x3fb4a106c0000000	0.08058206737041473
165	0xbfaf20c880000000	-0.06079699099063873
166	0x3fb8585580000000	0.0950978696346283
167	0x3fa926a300000000	0.049122899770736694
168	0x3f9798ee00000000	0.023044317960739136
169	0x3f8bff3600000000	0.013670369982719421
170	0x3f94cc5900000000	0.020310774445533752
171	0x3fbc160380000000	0.10971090197563171
172	0x3fbb755100000000	0.1072588562965393
173	0x3fbd85b480000000	0.11532142758369446
174	0xbfaaae8100000000	-0.05211260914802551
175	0x3fba411c80000000	0.1025560200214386
176	0xbfb9a50b80000000	-0.10017463564872742
177	0xbfbe7b8480000000	-0.11907222867012024
178	0x3fba74a7c0000000	0.10334251821041107
179	0xbfb5fcbf80000000	-0.08588787913322449
180	0xbfa6d1cc80000000	-0.044569388031959534
181	0xbfbc571400000000	-0.11070370674133301
182	0x3fb6f6a680000000	0.0897010862827301
183	0xbf9e245700000000	-0.029435500502586365
184	0xbfa3e07580000000	-0.038821861147880554
185	0x3f8141b400000000	0.008426100015640259
186	0xbfb89c81c0000000	-0.0961381047964096
187	0x3fb2d22ec0000000	0.07351963222026825
188	0x3fb3c338c0000000	0.0771975964307785
189	0xbfb20ac3c0000000	-0.07047675549983978
190	0x3f92dde100000000	0.01842452585697174
191	0xbfaf727a00000000	-0.0614202618598938
192	0xbfbaeeee80000000	-0.10520830750465393
193	0x3f9014a600000000	0.01570376753807068
194	0xbfb4136400000000	-0.07842087745666504
195	0x3f9ba8f800000000	0.027011752128601074
196	0xbfa12c6f80000000	-0.03354214131832123
197	0xbfaeeca600000000	-0.06039923429489136
198	0x3fb1aa3200000000	0.06900322437286377
199	0xbfb65e8300000000	-0.08737963438034058
200	0xbf93a39d00000000	-0.01917882263660431
201	0xbfba8706c0000000	-0.10362283885478973
202	0x3f919cbe00000000	0.01719948649406433
203	0x3fbbd5a300000000	0.10872858762741089
204	0x3f79fdb800000000	0.006345480680465698
205	0xbfbb8dec00000000	-0.10763430595397949
206	0xbfb44831c0000000	-0.07922659814357758
207	0xbfb2776580000000	-0.0721343457698822
208	0x3fb23cd140000000	0.07124049961566925
209	0x3fb3b74080000000	0.07701495289802551
210	0xbfae427800000000	-0.05910086631774902
211	0x3fa28d5700000000	0.03623458743095398
212	0x3f619f5800000000	0.002151176333427429
213	0x3f73bb3400000000	0.004817202687263489
214	0xbfb3cd0480000000	-0.07734706997871399
215	0x3fbc710040000000	0.1110992580652237
216	0x3f97631400000000	0.022838890552520752
217	0x3fb3de43c0000000	0.07761023938655853
218	0xbfa6932300000000	-0.04409131407737732
219	0x3fa7c4fd80000000	0.04642479121685028
220	0xbfb4dab480000000	-0.08146217465400696
221	0x3fb8681b80000000	0.09533855319023132
222	0x3fb275f340000000	0.07211227715015411
223	0xbf82cb1e00000000	-0.009176477789878845
224	0xbfb32057c0000000	-0.07471226155757904
225	0xbfb7b31a40000000	-0.09257663786411285
226	0x3f708bb400000000	0.004039481282234192
227	0xbfaab8b680000000	-0.052190497517585754
228	0x3f9194ab00000000	0.017168685793876648
229	0xbfb9bb9e40000000	-0.1005190759897232
230	0x3fbb961140000000	0.10775859653949738
231	0xbfbb4b4000000000	-0.10661697387695312
232	0x3f6c101000000000	0.0034256279468536377
233	0xbfb0e3ccc0000000	-0.06597594916820526
234	0xbfa9867280000000	-0.04985387623310089
235	0x3fb4f39a80000000	0.0818420946598053
236	0xbfb4fbf580000000	-0.08196958899497986
237	0xbfb6676400000000	-0.08751511573791504
238	0xbfb14e3cc0000000	-0.0676000565290451
239	0xbfb8dcf040000000	-0.09712125360965729
240	0xbf824c2000000000	-0.008934259414672852
241	0xbf9fd30c00000000	-0.0310785174369812
242	0x3f9f394800000000	0.030491948127746582
243	0x3fae50f280000000	0.059211328625679016
244	0x3fafb76000000000	0.06194591522216797
245	0x3fbabe4440000000	0.10446573793888092
246	0x3f5befe000000000	0.0017051398754119873
247	0x3fa71d8700000000	0.04514715075492859
248	0x3fb5343680000000	0.08282795548439026
249	0x3fa011d480000000	0.031386032700538635
250	0xbf9988c200000000	-0.024935752153396606
251	0xbf98b29700000000	-0.02411876618862152
252	0xbf7c8e0c00000000	-0.006971403956413269
253	0x3fa2e5a580000000	0.036908313632011414
254	0xbfb98cf900000000	-0.09980732202529907
255	0xbfba360300000000	-0.10238665342330933

fc2.bias f8 [128]
0	0xbf9556be2bb9b263	-0.02083871023062257
1	0x3faae5a8bd82099c	0.05253341019944743
2	0xbfb86d1880000000	-0.0954146683216095
3	0x3f8b1b0a00000000	0.013235166668891907
4	0xbf939e68dc1420c2	-0.01915897219899488
5	0x3f96281635921c3c	0.021637293834398927
6	0xbfb0fed840000000	-0.06638862192630768
7	0xbfa6a78280000000	-0.044246748089790344
8	0xbfb29ee640000000	-0.07273711264133453
9	0xbfa858906f2c5f1d	-0.04755069119545239
10	0xbf8efb3200000000	-0.015127554535865784
11	0x3f6eba05f7a35f22	0.0037508122014563586
12	0x3faa1cbbef5069eb	0.05100047394099135
13	0xbfc275e7c585e29f	-0.14422318596532066
14	0x3fa0c12637dbab67	0.032723612135518824
15	0xbfb8c95290da3c43	-0.0968219379085307
16	0x3fc00f5a8d649320	0.1254685583491204
17	0xbfc543d3266f0c29	-0.16613234879159336
18	0x3fa6f6e3ac74f702	0.04485236625849433
19	0xbfbc2679c0000000	-0.1099620908498764
20	0xbfa8246400000000	-0.04715263843536377
21	0x3fb53cf99860b4ff	0.08296165437851143
22	0xbf94739b47323849	-0.01997225400969452
23	0x3fa8990e00000000	0.04804271459579468
24	0x3fc3271faa441bce	0.14963146032115876
25	0xbfa1125180000000	-0.0333428829908371
26	0xbfa686492e251a81	-0.04399326980869934
27	0xbf80a73aef557c52	-0.008131466320888379
28	0x3fb288fab2ef8372	0.07240263813538464
29	0xbfc19ca009e989f5	-0.13759232028958449
30	0xbfa09edbad4ed533	-0.03246199122024009
31	0x3f97e9a665a154e6	0.023352241471305123
32	0xbfad99bd00000000	-0.057813555002212524
33	0xbf9dd725462a5d25	-0.029141027839242235
34	0x3fabde516b1e638c	0.05443052704430959
35	0xbf636e8042689796	-0.002372026926667335
36	0xbfaa55379560cec9	-0.051431405052793595
37	0xbfb2fcad80000000	-0.07416805624961853
38	0xbfa18a6280000000	-0.03425891697406769
39	0xbfa2f76400000000	-0.03704369068145752
40	0xbfbef680b1890a4f	-0.12094883283956757
41	0xbfc3ceb9e2189f26	-0.1547462800965544
42	0x3fc05c98509bb90c	0.1278257745356729
43	0x3fa0c7f700000000	0.03277561068534851
44	0xbfb83e8ec0000000	-0.09470455348491669
45	0x3f9cdaf93963524b	0.028179067733463275
46	0xbfc4ba14582b39d4	-0.16192869477386174
47	0xbf922cfb83c62d4c	-0.017749719541410955
48	0xbfb731eaa0ed6810	-0.09060541561976287
49	0x3fbeb6f2324e26ad	0.11997903564602082
50	0xbfbdcfffc0000000	-0.1164550632238388
51	0xbf945fb700000000	-0.01989637315273285
52	0x3f9f4519ea656d9b	0.030537037784012715
53	0xbfa3a47845a7fd28	-0.03836418009086123
54	0xbfa532b1ebb08973	-0.041402397175505444
55	0x3f85a6fc00000000	0.0105724036693573
56	0xbfa3aaf3557eb4ed	-0.03841362398757462
57	0xbfa7fe8680000000	-0.046863749623298645
58	0xbf93c9d600000000	-0.01932463049888611
59	0xbfadd81b00000000	-0.05828937888145447
60	0xbfaf77ec05c3b2a0	-0.06146180696837189
61	0xbfb2110a80000000	-0.07057252526283264
62	0xbfb9b5bfcb71d65f	-0.10042952267561976
63	0xbfaeb3a700000000	-0.059964388608932495
64	0xbfa6207d00000000	-0.04321661591529846
65	0x3fc221e82bf63b1e	0.14165975710462758
66	0xbf96a0d2d9a4c333	-0.02209786847487578
67	0x3fc2778527ff2635	0.14427246525728923
68	0x3faac27896a4b23a	0.05226494635494246
69	0x3fa84fd6f06c8258	0.047484127853981206
70	0x3fb6639f273b931d	0.08745760639028473
71	0xbfb71f8f7089eaa4	-0.09032532212760686
72	0xbfad3bb500000000	-0.05709615349769592
73	0xbfa3d1fa53994714	-0.03871137876980249
74	0x3fb7a5b32e0ac593	0.09237213014673377
75	0x3fb06b7189f21e53	0.06413945787255075
76	0x3fb8ba80622cc163	0.09659578701826414
77	0xbfa8b8ff80000000	-0.048286423087120056
78	0x3fb715130f85d87f	0.09016532067275483
79	0xbf50129000000000	-0.0009809881448745728
80	0xbf61d52000000000	-0.002176821231842041
81	0x3fa435d200000000	0.039473116397857666
82	0xbfb55b8b26b17aa1	-0.08342809385929197
83	0xbfc1b44e400c5d04	-0.13831499221189614
84	0xbfbbf868c0000000	-0.10925917327404022
85	0x3f94e3cef9e6d7b3	0.0204002704646979
86	0xbfb9840f5fef508f	-0.09967132656248821
87	0x3fa3e5239dc5fb04	0.03885756779617647
88	0x3f93cad713107c84	0.019328461207007056
89	0x3fbc904fc0000000	0.11157701909542084
90	0xbfc19c1ced3b7e11	-0.13757669051754864
91	0xbfc5bb2bbd124b40	-0.16977450115208548
92	0x3f8a8a4e00000000	0.012959107756614685
93	0xbfa9da412c06193d	-0.05049327528381518
94	0x3fadf748b10691d7	0.058527251824930175
95	0xbfb10e4a374baaff	-0.06662429666509338
96	0x3fb980d23ff5b8c4	0.099621906867216
97	0xbfb7a19d00000000	-0.09230977296829224
98	0xbfb888eab032bc33	-0.09583918382371408
99	0xbfb54fa28153c8c9	-0.08324638039974554
100	0x3f6a9d979082d04e	0.0032489738697112696
101	0xbface5b04e4337a9	-0.05643988566735853
102	0x3fa187e6f91a79cd	0.03423997679532285
103	0x3f9a45e7a66c90fa	0.025657290966720737
104	0x3f896ef76f710a02	0.012418683136393053
105	0x3fbf975bfc00ce53	0.12340330984516727
106	0xbf83d1edd2cfe03e	-0.009677751537296438
107	0xbfc5f28fc1b05ea3	-0.17146489102809878
108	0x3f89fb4a00000000	0.01268632709980011
109	0x3fb26f58bef9749f	0.07201151525937853
110	0x3f998dda57b40d97	0.024955188372599215
111	0x3fc0ba4a3d6ede3c	0.1306851196256832
112	0xbfa6be8549c0f2dc	-0.04442230725587645
113	0xbfaf4a3700000000	-0.06111308932304382
114	0xbfb58a0fadc5d5be	-0.0841378974199278
115	0xbf0614a29124f8c0	-4.211541285535766e-05
116	0xbfb0eaa5d122bafa	-0.06608044010020456
117	0x3fa9ded9ab27948e	0.050528337614914695
118	0x3f51f6be9f2686fb	0.001096426156984297
119	0xbfbcec6ac0647fa0	-0.11298243710598266
120	0x3fbb95056e41e05e	0.10774263326482145
121	0xbfbe796646837977	-0.11903990956804998
122	0x3fb5dbc5728bb663	0.08538469358946936
123	0x3fb7956200000000	0.09212315082550049
124	0x3fb1da9c948722b5	0.06974199892205031
125	0x3fbdc783f7500a60	0.1163256148138685
126	0x3fae269f6c52a296	0.058888418171879994
127	0xbf98febd00000000	-0.024409249424934387

fc3.weight f8 [64, 128]
0	0x3fb5b9f3a0000000	0.0848686471581459
1	0xbfa1e94460000000	-0.03498281165957451
2	0x3fb0e88020000000	0.06604767590761185
3	0x3f9249e600000000	0.01786002516746521
4	0xbf46bf0000000000	-0.0006941556930541992
5	0x3fb47dd360000000	0.0800449475646019
6	0x3f63761400000000	0.0023756399750709534
7	0xbfb0fc5980000000	-0.0663505494594574
8	0x3faa0559c0000000	0.050822071731090546
9	0x3f82c64300000000	0.009167216718196869
10	0xbfb3fa9880000000	-0.07804253697395325
11	0x3fadf818c0000000	0.058533452451229095
12	0xbf9a6c5b80000000	-0.025803975760936737
13	0xbfadb39520000000	-0.058010730892419815
14	0x3f7256fa00000000	0.004477478563785553
15	0x3f996e9e00000000	0.024836033582687378
16	0xbf9ff52040000000	-0.031208518892526627
17	0x3f81c54800000000	0.008677065372467041
18	0xbf999e2200000000	-0.02501729130744934
19	0xbfb6614120000000	-0.0874214842915535
20	0xbfb4a3e6c0000000	-0.08062593638896942
21	0xbfae678ba0000000	-0.05938373878598213
22	0xbf9ec95d80000000	-0.03006502240896225
23	0x3f698b7000000000	0.0031182467937469482
24	0xbf7d72ee00000000	-0.0071896836161613464
25	0xbfb09a27e0000000	-0.06485223025083542
26	0x3f9dff0500000000	0.029293134808540344
27	0x3faec7ddc0000000	0.06011860817670822
28	0xbfb1ae6ba0000000	-0.06906769424676895
29	0x3fa48d1b40000000	0.040139056742191315
30	0x3fb04bfda0000000	0.06365952640771866
31	0x3f8e1fc400000000	0.014709025621414185
32	0xbfa0b415a0000000	-0.032623935490846634
33	0x3f818acd00000000	0.008565522730350494
34	0xbf8da82400000000	-0.01448085904121399
35	0xbfb102bd60000000	-0.06644805520772934
36	0xbf97d65780000000	-0.02327858656644821
37	0xbfa371c5a0000000	-0.03797738626599312
38	0xbf9a6cce80000000	-0.02580568939447403
39	0xbf739fd200000000	-0.004791088402271271
40	0x3f91104c80000000	0.01666373759508133
41	0x3fa4753440000000	0.03995669633150101
42	0x3fb58ab5a0000000	0.08414778858423233
43	0x3fa520b240000000	0.04126507788896561
44	0x3f8f851b00000000	0.01539059728384018
45	0xbf85582e00000000	-0.010422095656394958
46	0xbfa41e67c0000000	-0.03929447382688522
47	0xbfb0b1f860000000	-0.06521560996770859
48	0xbf9fd7c3c0000000	-0.03109651431441307
49	0x3fa57829c0000000	0.041932396590709686
50	0x3fabc306c0000000	0.05422230809926987
51	0xbf9be6b580000000	-0.027247272431850433
52	0x3fb1f7a360000000	0.07018490880727768
53	0x3f8b5a8e00000000	0.013356313109397888
54	0x3fb54c6220000000	0.08319676667451859
55	0x3fa0ae8000000000	0.032581329345703125
56	0x3faf82bb40000000	0.061544276773929596
57	0xbf96368500000000	-0.021692350506782532
58	0xbfb4a473c0000000	-0.08063434064388275
59	0xbfa6a3fd00000000	-0.04421988129615784
60	0x3f81f9c200000000	0.008777156472206116
61	0x3fa2b43440000000	0.03653109818696976
62	0xbfa6668d40000000	-0.04375115782022476
63	0xbfa24dea40000000	-0.03575069457292557
64	0x3fa482cd40000000	0.040060438215732574
65	0xbf881b6400000000	-0.01177099347114563
66	0xbf98e44700000000	-0.024308308959007263
67	0xbfa3786060000000	-0.038027774542570114
68	0xbf9ddae1c0000000	-0.02915528044104576
69	0xbfac283a20000000	-0.054994408041238785
70	0x3fb3060fa0000000	0.07431123405694962
71	0x3fa75a46c0000000	0.04561062902212143
72	0x3fb2d97860000000	0.07363083213567734
73	0xbf90bf4b00000000	-0.016354724764823914
74	0x3f95c83780000000	0.02127157896757126
75	0xbfaea3daa0000000	-0.05984385684132576
76	0x3fae8f50c0000000	0.059687159955501556
77	0xbf2a084000000000	-0.00019861012697219849
78	0x3f70e9d400000000	0.00412924587726593
79	0xbfb1399b80000000	-0.06728526949882507
80	0xbfa6f12780000000	-0.044808611273765564
81	0xbf921cd400000000	-0.017688095569610596
82	0xbfb0785b80000000	-0.06433650851249695
83	0x3fb1a45ca0000000	0.06891421228647232
84	0x3fa3410740000000	0.03760550171136856
85	0xbfa4f5ef60000000	-0.040938835591077805
86	0xbf86afe800000000	-0.011077702045440674
87	0xbfb3789e80000000	-0.0760592520236969
88	0xbfb3d3c780000000	-0.07745024561882019
89	0xbfa6452080000000	-0.04349614679813385
90	0xbf83ac8200000000	-0.00960637629032135
91	0xbfadfd27a0000000	-0.05857204273343086
92	0xbfa7708700000000	-0.04578039050102234
93	0xbfb6181c20000000	-0.08630538731813431
94	0xbf8d163000000000	-0.014202475547790527
95	0xbfac856be0000000	-0.05570542439818382
96	0xbf868f7400000000	-0.01101580262184143
97	0x3fb5416920000000	0.08302933722734451
98	0xbfab40e3e0000000	-0.053229447454214096
99	0x3fac6d2540000000	0.05552021414041519
100	0xbfa20de1c0000000	-0.03526216000318527
101	0xbfa5638840000000	-0.041774995625019073
102	0x3f9e832a80000000	0.029797233641147614
103	0xbfb6467820000000	-0.08701277524232864
104	0xbfa8e9ade0000000	-0.04865783080458641
105	0x3fa23acd00000000	0.03560486435890198
106	0x3faa7c4bc0000000	0.05172955244779587
107	0xbf85bec600000000	-0.010617777705192566
108	0xbf8b4bf900000000	-0.013328500092029572
109	0xbfb5bacae0000000	-0.08488147705793381
110	0xbfa6004a60000000	-0.042970966547727585
111	0x3f64383800000000	0.002468213438987732
112	0x3fb63ed4a0000000	0.08689621835947037
113	0x3faf1a48c0000000	0.060747407376766205
114	0x3fb262bfa0000000	0.07181928306818008
115	0xbf9556d800000000	-0.02083909511566162
116	0x3fafac4440000000	0.06186116486787796
117	0xbfb5c98e60000000	-0.0851067528128624
118	0xbf91b36f00000000	-0.017286047339439392
119	0xbf9e808940000000	-0.029787201434373856
120	0x3fb0d5ba20000000	0.06576121598482132
121	0x3fb622f4a0000000	0.08647087961435318
122	0xbf972fb400000000	-0.022642910480499268
123	0xbfb52bf0e0000000	-0.08270173519849777
124	0xbfae9e0860000000	-0.0597994439303875
125	0xbf91d8ab80000000	-0.017428092658519745
126	0xbf8e054d00000000	-0.014658547937870026
127	0xbfaf79e240000000	-0.061476774513721466
128	0x3f831866c95bbb02	0.009323885936706858
129	0xbfb03e699ceff928	-0.06345233994941124
130	0xbfb2c5bda0000000	-0.07332978397607803
131	0xbfa8586180000000	-0.0475492924451828
132	0xbfc1ca18916e5d2b	-0.1389799795258367
133	0xbfbb7b2db77a80b0	-0.10734830598312572
134	0x3f6f65fc00000000	0.003832809627056122
135	0xbfb1cee0a0000000	-0.06956294924020767
136	0xbfa4305760000000	-0.039431314915418625
137	0x3f9f9b0b8bf4fb71	0.030864887635512376
138	0x3fa62a9fc0000000	0.043293945491313934
139	0x3fa3b3ac40000000	0.03848017007112503
140	0x3f708490e7d0038f	0.0040326748248852426
141	0x3f982bbb7388abde	0.023604325224521598
142	0xbfb2ed12d774e179	-0.07392995605630927
143	0x3f94ad22103f53ad	0.02019170021215515
144	0x3f7f2a3460b22e6e	0.0076086088184968825
145	0x3f951ffe18008b2a	0.020629854407285077
146	0x3fc08e75b863f132	0.12934752944409805
147	0xbfa10cfec0000000	-0.033302269876003265
148	0x3f9a875f80000000	0.025907032191753387
149	0xbfb1f8b3579373ee	-0.07020111930928838
150	0x3fb9f8455fcdd978	0.10144456471411967
151	0x3f760cde00000000	0.0053833648562431335
152	0xbfa951c29b520cdc	-0.04945190568926147
153	0xbf87d6e800000000	-0.011640369892120361
154	0xbf7db17c00000000	-0.0072493404150009155
155	0x3fa918c5445dc362	0.04901710948514083
156	0xbfae5cbcf73c673f	-0.05930128591553662
157	0x3faea0fb18d03dc8	0.05982193639658423
158	0xbf9d837b7ea27eae	-0.028821878055736043
159	0x3f8336c32ac7a20a	0.009381794684444795
160	0x3fb5af6320000000	0.08470744639635086
161	0xbf73e432901ef80b	-0.00485629798089172
162	0x3fa3c46db648604e	0.03860800600176671
163	0x3fc11fe44f1e26fd	0.13378576148198099
164	0x3fa60cc7dedd610c	0.04306625934140315
165	0xbfaeae4ea0000000	-0.05992360785603523
166	0x3fb55f70a0000000	0.08348754793405533
167	0xbfb438c520000000	-0.07899124175310135
168	0xbfc1d83f1cc84961	-0.139411820463077
169	0x3f9ee442b2a90ab4	0.030167619852600594
170	0x3fa29d0b8986df76	0.036354408777184696
171	0x3fb4b95b60000000	0.08095332235097885
172	0xbfb1c6e080000000	-0.06944087147712708
173	0x3fb0ba86b916ac3b	0.06534616488231475
174	0x3fa9d8dfb97dc0c9	0.05048274173066287
175	0x3fa7622767351ad2	0.04567072996956302
176	0x3fa07aa92319fd29	0.03218582681165067
177	0xbfb96761f24efe03	-0.0992337433408395
178	0x3fa6b7dac0000000	0.04437144845724106
179	0x3f6bb92000000000	0.0033841729164123535
180	0x3facb9e6d2078b5d	0.056105816973078794
181	0x3f7b848ab20131b4	0.006718198565135603
182	0x3fa8ed4203fe5a62	0.04868513392209618
183	0x3fb01fb320000000	0.06298369914293289
184	0xbf7b43f4b137ea85	-0.006656604603899501
185	0x3fa8b6bd40000000	0.04826918989419937
186	0xbf9778e580000000	-0.022922120988368988
187	0x3f726f4c00000000	0.004500672221183777
188	0x3fa51633263de7a5	0.041184996050062574
189	0x3f6924a800000000	0.0030692368745803833
190	0x3fc22e3e133ebd69	0.1420362085313898
191	0xbfac19d340000000	-0.05488453060388565
192	0x3fb5d7b3e0000000	0.08532261103391647
193	0xbfae0416ec2940ff	-0.05862495072199358
194	0x3f9be1f69c9b5117	0.027229169186129356
195	0xbfa02bb6e1ca04a6	-0.031583514272832944
196	0x3faaadca349752ea	0.052107161445439434
197	0xbf9509d23200301d	-0.020545276929667112
198	0xbf71072c00000000	-0.004157230257987976
199	0x3fbc543ca86b4a67	0.11066035377306492
200	0x3fb16f9a20000000	0.06810916215181351
201	0x3f9ba6ae98e81fa9	0.02700302894848475
202	0x3f956481067afcbd	0.020891204853566537
203	0x3fb538cb0ff81b78	0.08289784564850133
204	0xbfa5cb3f27b59c53	-0.042566274258938684
205	0xbfa8c477c0000000	-0.048373930156230927
206	0x3f82416b54899cc5	0.008913839833623158
207	0xbfa36b5120000000	-0.03792813792824745
208	0x3faad86f40000000	0.05243251472711563
209	0x3faeda7040000000	0.06026030331850052
210	0x3fb80ee0f72359ea	0.09397703202862542
211	0x3f8ed37540c7e349	0.015051761664823042
212	0x3fa187f500000000	0.034240394830703735
213	0x3fbf4e0befa0143c	0.1222846469900824
214	0x3fb22073c67e45a8	0.07080768199946041
215	0x3fb853ffd61a5263	0.09503172852630253
216	0x3f96c2eeffcb326a	0.02222798763505055
217	0x3fa6ae9cc0000000	0.04430093616247177
218	0x3fb7cb1cdf4647a8	0.09294300509489395
219	0x3fb90961b1540070	0.09779940203952875
220	0x3f91da7e80000000	0.01743505150079727
221	0xbf6ea2233054eb01	-0.003739422538868609
222	0xbfb40bb601a942a2	-0.0783036951118086
223	0x3f787641be4980e0	0.0059721534822474165
224	0xbfb11287f6e80d25	-0.06668901231755749
225	0x3fb54fc4e0000000	0.08324842900037766
226	0x3f9a8eb62bd8f1ef	0.025935026575313044
227	0xbf804d0f7e281a0d	-0.007959481275077196
228	0x3fbd6849c8b57d57	0.11487256193276117
229	0x3f95bfec9d79c912	0.021239945518069688
230	0x3fa724993071e41d	0.045201098598177426
231	0x3facbf7f98d02a98	0.056148517040204016
232	0xbf90019c055cf447	-0.01563113959058551
233	0xbf9a8ba575394d2c	-0.02592333343484403
234	0x3f8ead74494b8388	0.014979275213990353
235	0x3fc0e2e00a6d582d	0.13192368039261862
236	0x3f806e2e00000000	0.008022651076316833
237	0xbfb413f0d4813e85	-0.07842927158457698
238	0x3fb8cd41c0f1ae5d	0.09688197098301417
239	0xbf96253a9a2fde7a	-0.02162639204104131
240	0x3fafe517cf20b2a4	0.06229471591391203
241	0xbf98438d80000000	-0.023695193231105804
242	0xbfbea713be5c6af4	-0.11973689458356401
243	0x3fb56e54e0000000	0.08371477574110031
244	0xbfb1df904808aa26	-0.06981755980147195
245	0x3fbb5b623c1db51a	0.10686315505673286
246	0x3fa2bc3bc0000000	0.036592356860637665
247	0x3fb575fa33d85aba	0.08383144155264236
248	0xbf92ba669ffd7185	-0.018289187922492473
249	0xbfaefdf240000000	-0.06053120642900467
250	0xbfb78ab7e89db3a3	-0.09196042470075709
251	0xbfb0027120000000	-0.06253726035356522
252	0x3f939f9000000000	0.01916337013244629
253	0xbfa28324b442ca92	-0.0361567945523308
254	0xbfa7e1e1204eb2bd	-0.046645198053146576
255	0xbf8ad90300000000	-0.013109229505062103

fc3.bias f8 [64]
0	0xbfabaa8d20000000	-0.054035577923059464
1	0x3fa35d8ab29cf20c	0.037823042205193586
2	0xbf61cf5788bf9d17	-0.0021740636493522525
3	0x3fb50b1cee3c5b9b	0.08220082107832953
4	0xbfc05b4171f159b1	-0.127784901271935
5	0x3fa45a3c9a731175	0.03975095162744228
6	0xbfa01931318ec4bd	-0.03144220094635262
7	0xbf9e62edc0000000	-0.029674258083105087
8	0xbf99725e00000000	-0.02485033869743347
9	0x3fb8ff032fec88e7	0.0976411811830392
10	0x3f9bf79d00000000	0.02731175720691681
11	0x3fc260a3804a5d05	0.1435741783541077
12	0xbfb0323820000000	-0.06326628476381302
13	0x3fc0e32d4e8dad36	0.13193289123169344
14	0xbfaa345094f75ea1	-0.051180380043374336
15	0xbfafbd51fe2960ef	-0.06199127414282823
16	0x3fbad23583ec473b	0.10477003546500623
17	0xbfacf716886e8a30	-0.05657263198306273
18	0x3fc5d19eea6e8d71	0.1704596180617091
19	0x3fb55a2b20000000	0.08340711146593094
20	0xbfaf9e4ba0000000	-0.06175457313656807
21	0xbfb917e4179ffbf7	-0.09802079750805591
22	0xbfc14ad90f125bba	-0.1350966762153954
23	0x3f9c3125409ca6d2	0.027531225269888555
24	0x3fca2bedd9c264e5	0.20446560986309872
25	0x3fbbea9247a74e35	0.10904802560190137
26	0xbfc0b9c87b693dfe	-0.13066965127880786
27	0xbfb46ef7a0000000	-0.0798182263970375
28	0x3fbf629e8d8db4a1	0.12259856182000074
29	0xbfc201fcd0459a32	-0.14068565530324545
30	0xbfa6df7d66597d47	-0.04467384218582509
31	0xbf916cb100000000	-0.01701618731021881
32	0xbfa92d9c20000000	-0.04917610064148903
33	0xbfa6c5da80000000	-0.04447825253009796
34	0xbf9ad5f82dab40a4	-0.02620685366383725
35	0xbfb5a3ff40000000	-0.08453364670276642
36	0xbfadcf31109844cf	-0.05822137191365472
37	0xbfb3914740000000	-0.07643552124500275
38	0xbfa78dec00000000	-0.046004652976989746
39	0xbf8238c400000000	-0.008897334337234497
40	0xbfa7c9d7344def3f	-0.04646179688913187
41	0xbfbf8809071ad3d1	-0.12316948340851687
42	0x3f8c5f376c37e3a8	0.013853486051617583
43	0xbfc134168ef1a274	-0.13440210323030366
44	0xbf8077b7dbe5de1b	-0.008040844343425715
45	0xbfbab00c1c0ec25c	-0.10424876866341876
46	0xbfb4c770ed213692	-0.08116822995472209
47	0xbf9b4eb1679b96d7	-0.026667377423016028
48	0xbfb09469fce04d0d	-0.06476461814627417
49	0xbfa5d71d68c25dd5	-0.04265682128714913
50	0x3fb962e97842e3f4	0.09916552721087141
51	0x3f80ede9b5818cb4	0.008266282893777045
52	0x3faf75a4d9a074d7	0.061444427076119794
53	0x3fb9e91cbce8da73	0.10121326076555608
54	0xbfae72b0c5bd276e	-0.059468769205138425
55	0xbfab22934a714d3e	-0.05299816402171097
56	0x3fb09c72ba876140	0.0648872094528814
57	0x3f88cc535c21d8b3	0.012108470200683596
58	0xbf96a7019181e5a6	-0.022121452814166574
59	0xbfb39fff8d08fc70	-0.07666012948264878
60	0x3fbaf114486d76e8	0.10524107712032171
61	0x3fc04fd573637871	0.1274363339825331
62	0xbfc0fee9445844ee	-0.1327792724337437
63	0x3fb795b070334d25	0.09212782611148336

fc4.weight f8 [2, 64]
0	0xbfb6f857c0000000	-0.08972690999507904
1	0x3fb895d12b8eef94	0.09603602708278763
2	0x3fa21c2563de04fc	0.03537098735888297
3	0x3fa721c968cebee5	0.0451796474875417
4	0xbfab53e6ba0e220f	-0.05337449093991974
5	0x3f7b7902d501cb94	0.006707202017525744
6	0x3fb5d7edb4c0ee0e	0.08532605803423385
7	0x3fa75fd400000000	0.04565298557281494
8	0x3fa52fda80000000	0.04138071835041046
9	0xbfc0e99a2b183358	-0.13212897400117174
10	0x3f83c02a00000000	0.00964386761188507
11	0x3fb0f69e03851720	0.0662630804627864
12	0x3fb938be00000000	0.09852206707000732
13	0x3f7c185687d73f5f	0.00685914803530338
14	0x3fa74e87884a1ea2	0.045521006953149326
15	0xbfa466b430040791	-0.03984606824998516
16	0x3fafad2e88b297d3	0.061868147074434575
17	0x3fa3ccb7ff24f624	0.03867125501208715
18	0x3fb0238195c7cfe2	0.06304178148985742
19	0x3fad9c2880000000	0.0578320175409317
20	0x3fa8d1fc80000000	0.04847706854343414
21	0x3f7ac54b14e6aacd	0.006535809791254632
22	0x3fa78e2a85f8a14a	0.046006516317279436
23	0x3f855d6655f8957c	0.010432052134158758
24	0x3f8f8bfd3dcfaa7e	0.015403727005794506
25	0x3fa7228ef5c89170	0.04518553495680322
26	0xbfabd3d89cb2611b	-0.05435063278963722
27	0xbfa4d1d580000000	-0.04066340625286102
28	0x3fa0ae273cdfd8a0	0.03257868402572339
29	0xbf9a107b058e88d7	-0.025453493322523748
30	0xbfa4e8fe5f80cb44	-0.04084010043916078
31	0xbfbcbf26c0000000	-0.11229173839092255
32	0xbf805d8400000000	-0.007990866899490356
33	0x3fb8456ec0000000	0.09480945765972137
34	0x3f92487cf6a56069	0.017854645303799908
35	0xbf8bb2d200000000	-0.013524666428565979
36	0x3fbb1c189eec6cc9	0.10589746360749354
37	0x3fbc6ae140000000	0.11100585758686066
38	0x3fbbf985c0000000	0.10927616059780121
39	0x3fa7525c80000000	0.04555024206638336
40	0xbfa40bfd20071275	-0.03915396705591415
41	0xbf92af7ae4159a00	-0.01824752823940834
42	0xbfa77e2a210b416f	-0.04588443425530186
43	0x3fa294d53fd51a7b	0.03629175571636708
44	0x3f7bca9cb2a9aedf	0.0067850228320869
45	0x3fa40dee0e16a78b	0.039168776721751085
46	0x3f609cd2ce03d0dd	0.002027904251116748
47	0x3f9db0645ce9bba9	0.02899319474311893
48	0x3fa8fca4466f2665	0.04880250320236427
49	0x3fb062f873232769	0.06401017008752564
50	0x3f7c5897b2049e28	0.00692042594918222
51	0xbfa53db7a8155c1e	-0.04148649145889059
52	0x3fb67a3b0348a77e	0.08780258970423735
53	0x3fb91a5ab6719bbd	0.09805838541215812
54	0xbf254e9e2c822052	-0.00016256028016337299
55	0xbf7428ac1d87d202	-0.00492160065231362
56	0xbfb0fe4591373c2c	-0.06637987895304381
57	0xbfb090353fca94a8	-0.06470043952374971
58	0x3fa05c41154ef40e	0.03195384392845578
59	0xbfb001d43aa71889	-0.062527908629905
60	0x3fa15053b10db9e2	0.03381597076701205
61	0x3fb5742101372c86	0.08380323676753862
62	0x3f8de2da824a32af	0.014592845059519048
63	0x3fb8b8299b69e010	0.09656009716297853
64	0x3fbeef5780000000	0.12083956599235535
65	0xbfa079c45ade9d5f	-0.03217900857208166
66	0xbfcd90f5a4c624f5	-0.23098631425481356
67	0xbfaca25e11bf5299	-0.05592626539843088
68	0xbfc4b035ac5d5b2f	-0.16162749210590152
69	0xbfca2de5bc9e7448	-0.2045256777754807
70	0xbfc5b999a7371c26	-0.16972656884010567
71	0x3f8a2a9200000000	0.012776508927345276
72	0x3fbb478d80000000	0.10656055808067322
73	0xbfcf04252ed6c2a8	-0.24231400286727944
74	0xbfb8257380000000	-0.09432145953178406
75	0xbfd185aa53b51fe1	-0.27378328489839815
76	0xbf9ac55a00000000	-0.02614346146583557
77	0xbfc569c06d6d33ae	-0.16728978484243612
78	0xbfb1554dce5928bf	-0.06770788467216259
79	0xbfbb12951d71035a	-0.10575229615007001
80	0xbfc4ee160ca835ac	-0.16351581209202715
81	0xbfb5af2d15f20a49	-0.08470422540453017
82	0xbfd21d8125e56cf7	-0.283050810821535
83	0x3fb7a61200000000	0.09237778186798096
84	0xbfad056900000000	-0.05668190121650696
85	0x3faf55a2c21c4399	0.061200224108808494
86	0xbfb8ffb1b58c7828	-0.09765158350316538
87	0xbfc0e58bcc065446	-0.1320051904882879
88	0xbfd0bb4e7c1f2ac9	-0.26143228646530453
89	0xbfc021e0a39da07f	-0.12603385914849594
90	0xbfa5c4ecb978047f	-0.0425180412676207
91	0xbfb8ce9fc0000000	-0.09690283238887787
92	0xbfc7d9fa9aa4fe93	-0.18633968878747406
93	0x3fa3242e3b4f06c1	0.03738541101439586
94	0x3fb5d6bd91d771fd	0.08530793009362721
95	0xbfb0425ac0000000	-0.06351248919963837
96	0x3fa49dfa00000000	0.040267765522003174
97	0xbf97871000000000	-0.022976160049438477
98	0xbfa931864061611f	-0.04920596633809481
99	0xbfa68e6700000000	-0.04405519366264343
100	0xbf8c6fe531d0bd10	-0.013885298331017398
101	0x3fbff86480000000	0.12488391995429993
102	0xbfbd0fd800000000	-0.11352300643920898
103	0x3fbb2ce3c0000000	0.1061537116765976
104	0xbfc3cac9ec37f748	-0.15462612184631497
105	0xbfc085215b9f9521	-0.12906281446263626
106	0xbfa1334168bbfecc	-0.033594173464732785
107	0x3f9ebc6b737b753a	0.030015639232137327
108	0xbf628f6cd3594ce5	-0.0022656560420642896
109	0xbfba2ecb9ca61bc7	-0.10227654051241962
110	0x3fae961c74958984	0.05973900721689332
111	0xbf7434c9ab252a17	-0.004933154838293172
112	0xbfa98722558795f9	-0.049859116497639584
113	0xbfc11e7f635b73e0	-0.13374321319034177
114	0xbfc85c6907b09ac0	-0.19032013774377354
115	0x3f98d227fbfa24b7	0.024239182238066728
116	0xbfc9b3f2b814035a	-0.20080408085052676
117	0xbfcebebf4e0ecdbb	-0.24019614516656226
118	0x3f876b23fd52237f	0.01143482319663902
119	0xbfb5d4a6abafa195	-0.08527604762605841
120	0xbfc1db0ac0acc35b	-0.13949713142349193
121	0x3fab4d1a988ea372	0.05332263099928171
122	0xbf86364feaeb1ff8	-0.010845779759065963
123	0xbfb7b66bfbf5bb52	-0.09262728597034922
124	0xbfd0110f1e37ec69	-0.2510412020780622
125	0xbfc73dc3cea5a27f	-0.18157241430460044
126	0xbfaeeed64e00f546	-0.06041593267625926
127	0xbfcf562920bbd18b	-0.2448169145424227

fc4.bias f8 [2]
0	0x3fb4c264d634c071	0.0810912154163377
1	0xbfb25baa0caaef87	-0.07171118554373211
