src/backend/controller/checkpoints/checkpoint_epoch_45.pth (torch, 420207 bytes, 25 tensors)

fc1.weight f8 [64, 5]
0.17235670607689538 -0.4634016370489602 0.2499130105847526 -0.18575551340018812 0.1073009452235402 -0.15748682618141174 -0.2859317362308502 -0.4182189404964447
-0.23558029532432556 0.102683424949646 -0.22503978450031772 0.10027874634641115 -0.3792472323007047 0.4143005370373847 0.06845834676464624 0.29222941398620605
-0.12881866097450256 -0.2658160924911499 -0.36438190937042236 -0.08555623888969421 -0.16404101252555847 -0.012782365083694458 0.3968053460121155 0.01920926570892334
-0.4070501923561096 -0.1495771882890076 0.3396797794477258 0.3695805908644656 0.09894086079503638 -0.35663733347549803 -0.2105445277876805 -0.2760363264111669
0.2847018638578913 0.25998819202054635 0.40693498800817934 0.37379854917526245 -0.41267502307891846 -0.0874796211719513 -0.3212490677833557 0.085968017578125
0.19121552357341598 -0.24925536024265468 -0.0047385798871930835 0.11888344220142115 0.2529426716712241 0.3272786277620841 0.02755891950402919 0.08188099270030123
-0.37673872041618944 0.13703198098317645 -0.3184926581972993 -0.05781723176685211 0.37291881839115726 0.011153660225260898 0.13857255885693526 0.28466650489276035
0.19638726595536224 0.014437126863808766 0.33013265348385223 0.019116780745181756 -0.1584734320640564 0.10327941179275513 -0.35499274730682373 0.29825127124786377
-0.19943299889564514 -0.32597569716902985 0.20835702548759844 0.4204876122793008 -0.01058848748166154 0.2826968478707667 -0.3490821064977056 0.25234179750420194
-0.11283712702681857 0.031119824416343624 -0.06693861237420175 -0.28154245018959045 -0.39090579748153687 -0.2809138894081116 0.3958856463432312 0.1273355484008789
0.20496775604769532 -0.03549828566522574 0.2251554009746689 -0.01129790528606717 0.14207150306837701 -0.03887689605673115 0.36770032042901474 0.14966033037720117
0.13924334572520813 0.2520335010648616 0.2305031418800354 -0.17867669463157654 -0.4265388250350952 0.046540647745132446 -0.28340089321136475 0.09398145808738423
0.05391136446390769 0.11460673763004955 0.27176997821805177 -0.1949794093467514 0.5046475223886119 -0.36601974537383997 -0.2739128836674537 0.23780174026829426
-0.021633174019758408 0.2008170485496521 -0.23314857482910156 -0.052512556314468384 -0.15051090717315674 -0.2524383068084717 0.4268262982368469 -0.1996842473745346
-0.30966246128082275 -0.41050320863723755 -0.41057053208351135 0.18887353141592084 0.3041140717393483 -0.068845769301147 -0.47725032555615965 0.1634247827889103
-0.11689847707748413 -0.3861534297466278 0.3823000192642212 0.1358056664466858 -0.24432815611362457 -0.22635038947404265 0.13523844532085932 -0.28764150604996075
0.2816084000382108 -0.2765309627169826 0.3573336601257324 -0.11508020758628845 0.08344215154647827 -0.4326631426811218 -0.07486072182655334 -0.06321179866790771
-0.1253010332584381 -0.060605525970458984 -0.07296356558799744 0.3147851824760437 0.0538855085396176 -0.2081893808812807 0.24859115894920444 0.15060478791671553
-0.2965446432277989 -0.14019310474395752 -0.12256672978401184 0.3443242311477661 -0.013670265674591064 0.1359119415283203 -0.1553056836128235 0.21436315774917603
-0.09526622295379639 0.19238531589508057 0.035091787576675415 0.19413775205612183 0.016615450382232666 -0.32409489154815674 -0.39700549840927124 -0.2783563733100891
0.06171130257464954 0.16151143815627475 -0.23049848502305462 0.2275083162613784 0.32683851115305496 0.14495049997302975 -0.31212082345507897 0.05140809272787009
0.21946541291730917 0.3837031941142624 -0.2745234966278076 0.0585247278213501 -0.129891037940979 0.214630126953125 0.055469393730163574 -0.38239791989326477
-0.08170893788337708 0.031002163887023926 -0.35994672775268555 -0.3928275406360626 0.41143111822892525 -0.12055679701614128 -0.35940256198768605 0.042599133816411575
0.2242308885253407 0.33825752218218386 0.0799246380587025 0.23545061523442548 0.27233788319084157 0.3870338552034541 0.259226925610271 -0.13422524752412013
-0.27111819092735484 -0.199361291276297 -0.11076286308127403 -0.2977391804626228 -0.2930444568856171 0.5053508974988756 -0.13381798470089148 0.32644839355475447
0.45248199283720636 -0.08576129661787171 -0.3705592356052669 0.4059318845587292 -0.0691097354011205 0.06637710332870483 0.15834105014801025 -0.1603129506111145
-0.11477276682853699 -0.3749419152736664 0.024249494075775146 -0.1269947588443756 -0.22993823885917664 0.1692209243774414 -0.08096730709075928 0.13514667692106888
-0.02234093236142287 -0.4239463483496445 0.21117130068996462 -0.1407915249732428 -0.10053291996997604 0.4551701089369821 0.419269141621733 0.30858421593759155
-0.3278403917499592 -0.40510151378450554 0.020972736486900526 -0.28649281646471464 0.4215097690300035 0.3118991995506582 0.2153128212025425 -0.24536301044372683
0.0024703836234760182 0.2803862524679562 0.1586405570286355 0.10102437031104611 0.3307456760055509 0.09639692050644201 0.38301087061815564 -0.07051614955108731
0.026340648417489506 0.2674031579901511 0.379876833283152 0.18656103082634012 0.0005123939276248496 0.07042723894119263 -0.09770673513412476 -0.027212321758270264
0.2269570231437683 -0.012213528156280518 0.2378382338428965 -0.2534633589966579 -0.2571998671274022 0.0924685870272776 -0.20877435549682266 0.15080435887210833
00000000: c15b ecd7 c80f c63f fc70 0257 5fa8 ddbf
00000010: 9538 a747 26fd cf3f f380 8d2f d6c6 c7bf
00000020: 5aa3 9022 1378 bb3f 0000 0040 8728 c4bf
00000030: 0000 00a0 b44c d2bf 0000 0060 19c4 dabf
00000040: 0000 00c0 7e27 cebf 0000 0000 7649 ba3f
00000050: fd26 5d89 1ace ccbf dcad 0a30 deab b93f
00000060: 661f f52e 9645 d8bf 889c 5266 e683 da3f
00000070: d00c 7e78 7c86 b13f 0000 0000 e3b3 d23f
00000080: 0000 0040 217d c0bf 0000 0080 2103 d1bf
00000090: 0000 0080 0852 d7bf 0000 0080 03e7 b5bf
000000a0: 0000 00c0 4bff c4bf 0000 0000 a42d 8abf
000000b0: 0000 0040 4265 d93f 0000 0000 98ab 933f
000000c0: 0000 0040 1c0d dabf e9e6 f665 5825 c3bf
000000d0: 59ca f541 50bd d53f 7cf3 bf59 35a7 d73f
000000e0: 1f4f 5a31 3054 b93f 91d5 f364 25d3 d6bf
000000f0: b894 9982 1ff3 cabf 8f69 9c44 94aa d1bf
00000100: 1450 982a 8e38 d23f 36c3 8483 a5a3 d03f
00000110: 57f8 450c 390b da3f 0000 00c0 50ec d73f
00000120: 0000 0080 4469 dabf 0000 0080 1065 b6bf
00000130: 0000 0040 588f d4bf 0000 0000 0002 b63f
00000140: 941f 1e12 c079 c83f b325 4c82 99e7 cfbf
00000150: 19d4 51da c268 73bf a37f 4a30 256f be3f
00000160: 3acf a575 3630 d03f 05bf ba0e 22f2 d43f
00000170: d77d eec7 6738 9c3f afd2 cf19 27f6 b43f
00000180: 51c3 d4b8 7c1c d8bf 5317 6a92 438a c13f
00000190: f04d be07 2f62 d4bf 99f2 2a5f 389a adbf
000001a0: 1664 43e4 e6dd d73f 0d7f 2fef bad7 863f
000001b0: eeef 34e0 bebc c13f 64fc 31dc f937 d23f
000001c0: 7f87 50ca 3723 c93f de7a d35d 3691 8d3f
000001d0: 9882 83b5 e420 d53f 02e3 6b70 5993 933f
000001e0: 0000 0080 db48 c4bf 0000 0000 8570 ba3f
000001f0: 0000 0080 33b8 d6bf 0000 0080 8c16 d33f
00000200: 0000 0040 0587 c9bf 226f a82b c9dc d4bf
00000210: aa37 2e69 71ab ca3f e336 c7df 44e9 da3f
00000220: 092e 95bb 6aaf 85bf fb61 1285 b417 d23f
00000230: 1bb1 c179 5c57 d6bf 1471 ec35 5e26 d03f
00000240: 17d3 5ada e4e2 bcbf 1a78 8010 e0dd 9f3f
00000250: 11a0 fc8e e322 b1bf 0000 00a0 ca04 d2bf
00000260: 0000 00c0 9904 d9bf 0000 0040 7efa d1bf
00000270: 0000 00c0 3056 d93f 0000 0000 884c c03f
00000280: 3bcc 7a28 623c ca3f 420f fecf d42c a2bf
00000290: ac1b da65 e4d1 cc3f a257 bc2d 5b23 87bf
000002a0: a8a5 af25 662f c23f fd6d 442a ace7 a3bf
000002b0: 6b2a beec 6688 d73f e443 3dd8 1128 c33f
000002c0: 64a6 09d8 b9d2 c13f 417a 241f 5121 d03f
000002d0: 0000 0080 2081 cd3f 0000 00c0 e0de c6bf
000002e0: 0000 0080 694c dbbf 0000 0000 2dd4 a73f
000002f0: 0000 0080 3d23 d2bf f86b ea38 2b0f b83f
00000300: 36ac 8236 459a ab3f 76b6 05fe dd56 bd3f
00000310: 67cb 1ee8 ad64 d13f 28d3 44d5 15f5 c8bf
00000320: 1954 958f 1226 e03f 7689 0415 de6c d7bf
00000330: 4a81 53e7 c987 d1bf cc2d b194 4970 ce3f
00000340: 44b4 b1bb 0127 96bf 0000 0080 5fb4 c93f
00000350: 0000 0000 d0d7 cdbf 0000 0000 ede2 aabf
00000360: 0000 0000 f143 c3bf 0000 0000 f327 d0bf
00000370: 0000 0040 1f51 db3f 0000 00e0 408f c9bf
00000380: 0000 0080 82d1 d3bf 0000 0040 af45 dabf
00000390: 0000 00a0 c946 dabf d675 4104 022d c83f
000003a0: f5ed 17de 9a76 d33f 8ccb 9d57 e09f b1bf
000003b0: 4238 11f3 448b debf 4596 b770 1aeb c43f
000003c0: 0000 0000 0fed bdbf 0000 00e0 bcb6 d8bf
000003d0: 0000 0080 9a77 d83f 0000 0080 1462 c13f
000003e0: 0000 0020 2546 cfbf 092b 1db0 0cf9 ccbf
000003f0: 1a51 e84d 7e4f c13f ae3b 5deb b768 d2bf
00000400: 1f5a 1c3d df05 d23f 7dda 4cec aeb2 d1bf
00000410: 0000 0000 8ede d63f 0000 0080 e575 bdbf
00000420: 0000 0000 775c b53f 0000 00c0 c0b0 dbbf
00000430: 0000 0080 122a b3bf 0000 0000 a62e b0bf
00000440: 0000 0040 dd09 c0bf 0000 0000 b007 afbf
00000450: 0000 0080 bdad b2bf 0000 00c0 7025 d43f
00000460: 70dd cfa1 e196 ab3f 303a 211b f3a5 cabf
00000470: 277b e1c8 d5d1 cf3f 6595 5c87 0447 c33f
00000480: 9fe9 1d62 96fa d2bf 0000 0000 d9f1 c1bf
00000490: 0000 0080 8860 bfbf 0000 0080 6809 d63f
000004a0: 0000 0000 28ff 8bbf 0000 0000 9065 c13f
000004b0: 0000 0080 0ee1 c3bf 0000 0080 4070 cb3f
000004c0: 0000 0000 5e63 b8bf 0000 0000 15a0 c83f
000004d0: 0000 0000 8df7 a13f 0000 0080 81d9 c83f
000004e0: 0000 0000 a403 913f 0000 0080 f8bd d4bf
000004f0: 0000 00c0 8968 d9bf 0000 0040 97d0 d1bf
00000500: 730f b4b4 9f98 af3f ffd2 6724 68ac c43f
00000510: e5cc 796f f980 cdbf 0690 f414 fe1e cd3f
00000520: e871 1e13 ecea d43f 3f25 76ec bc8d c23f
00000530: 48f8 489e c9f9 d3bf f528 085a 2952 aa3f
00000540: 0d9f 8a51 7117 cc3f 15db 85d7 978e d83f
00000550: 0000 0000 cb91 d1bf 0000 0000 f4f6 ad3f
00000560: 0000 0000 45a0 c0bf 0000 0000 0079 cb3f
00000570: 0000 0000 7c66 ac3f 0000 0020 3579 d8bf
00000580: 0000 0080 e0ea b4bf 0000 0000 08bf 9f3f
00000590: 0000 0000 5e09 d7bf 0000 0020 1624 d9bf
000005a0: 7965 562f e354 da3f a6ad 7e6c cfdc bebf
000005b0: 827c 759a 7300 d7bf 22a9 28bd 8dcf a53f
000005c0: fd13 7c06 99b3 cc3f 9a80 d9e0 02a6 d53f
000005d0: e554 9bea f075 b43f c5a1 20ea 3e23 ce3f
000005e0: df0e 71df fb6d d13f eaca a2a5 29c5 d83f
000005f0: 7f47 ef87 2c97 d03f e0f0 34fc 4a2e c1bf
00000600: 198e d81c 005a d1bf 015d 0fb9 ab84 c9bf
00000610: 309f 8b7a f45a bcbf a4c9 b4a2 280e d3bf
00000620: 7a42 a689 3dc1 d2bf a461 38a5 d52b e03f
00000630: 2d17 f49d f220 c1bf e58f 89cd 87e4 d43f
00000640: f8f0 5008 77f5 dc3f 1a7f 3ccc 73f4 b5bf
00000650: bff1 8915 3eb7 d7bf 4056 25ba c9fa d93f
00000660: fe0d 62f5 2cb1 b1bf 0000 0000 17fe b03f
00000670: 0000 0000 8544 c43f 0000 0080 2285 c4bf
00000680: 0000 0080 bf61 bdbf 0000 0060 0cff d7bf
00000690: 0000 0000 dcd4 983f 0000 0040 5d41 c0bf
000006a0: 0000 00c0 9d6e cdbf 0000 0000 08a9 c53f
000006b0: 0000 0000 46ba b4bf 3500 c57e 7c4c c13f
000006c0: 60f7 6a97 8ae0 96bf f6e6 5add ef21 dbbf
000006d0: 5d99 2843 a907 cb3f a132 a8e9 7405 c2bf
000006e0: 4043 7183 86bc b9bf f311 00cf 8121 dd3f
000006f0: 8230 df3c 4ed5 da3f 68e1 e002 d8bf d33f
00000700: 07ee 3744 56fb d4bf 4cee 50e6 2eed d9bf
00000710: 3484 4685 e079 953f f34f 50f7 e555 d2bf
00000720: 8e6a 3b1c 04fa da3f 71fe 6d0f 28f6 d33f
00000730: a5b9 bcda 5e8f cb3f 3a80 c01c 0e68 cfbf
00000740: 8b89 e21b c53c 643f 8543 262e d9f1 d13f
00000750: 56ec 2072 554e c43f 64be 95ae bbdc b93f
00000760: 272f 6fe9 ef2a d53f b9a1 02f5 77ad b83f
00000770: 5c51 d406 4083 d83f 7069 29ac 580d b2bf
00000780: bfc1 08fe 0af9 9a3f 698c 9a22 221d d13f
00000790: 3e63 ddeb e64f d83f 08b8 0d5b 3be1 c73f
000007a0: 6c71 b694 45ca 403f 0000 0000 8507 b23f
000007b0: 0000 0000 4f03 b9bf 0000 0000 8cdd 9bbf
000007c0: 0000 0080 ed0c cd3f 0000 0000 6803 89bf
000007d0: 6dfc 0bb6 7b71 ce3f 3bff 6761 be38 d0bf
000007e0: 5741 766e f675 d0bf 3b82 3075 05ac b73f
000007f0: 3019 8d3a 1eb9 cabf 0d98 b9a6 8e4d c33f

fc1.bias f8 [64]
-0.25690917306548083 0.16295605897903442 0.2695007972306981 0.06451404094696045 -0.38506436347961426 -0.16373269547296446 -0.19964315121690218 -0.2740658223628998
-0.41049279737375544 -0.035223832683532526 0.15502275913435054 -0.07875341815752382 -0.20395055413246155 -0.259051184631401 -0.0906779329332876 0.21260493993759155
-0.16532300510047224 -0.043481230760366474 -0.22168532013893127 -0.2346369672537889 0.053315756667775216 0.05535346269607544 0.04343867301940918 -0.09399990367818394
-0.2567555606365204 0.2749265393496928 -0.37204283475875854 -0.24961154162883759 -0.2533474981211065 -0.3390759229660034 -0.32782331109046936 -0.1563149392604828
-0.14210322127304226 -0.4490931923208328 -0.13466614484786987 -0.004641890525817871 -0.05134133162839059 0.26075566191379645 -0.11105040732550625 0.12212056005137358
-0.047177784147498354 -0.2067943662405014 0.03128430247306824 0.31521356987127863 0.29144424625805415 0.08992639493223809 -0.4853132304094967 -0.01730374645361565
-0.12220914121193367 -0.44391533732414246 0.5186769300397309 0.4311416611024834 0.07735063799710629 -0.26109030842781067 -0.3221997916698456 0.05373257398605347
-0.26970791801467786 0.09401132494503178 -0.2890077829360962 -0.40951080393358347 -0.2622549533843994 -0.20614649317024888 -0.23865932425401107 0.4032518224459721
00000000: 07f4 162c 3371 d0bf 0000 0080 bedb c43f
00000010: 7e83 9645 803f d13f 0000 0000 fe83 b03f
00000020: 0000 0000 e5a4 d8bf cdd0 2b66 31f5 c4bf
00000030: c269 ac22 e88d c9bf 0000 0060 4b8a d1bf
00000040: 76af fd94 8345 dabf b9c2 d4b2 db08 a2bf
00000050: 7a11 4f28 c9d7 c33f 924d 6f1b 2f29 b4bf
00000060: 0000 0040 0d1b cabf dcd7 7e6b 4b94 d0bf
00000070: 8ed7 6a44 ab36 b7bf 0000 0080 a336 cb3f
00000080: 8b6b 17e2 4d29 c5bf a011 3600 2c43 a6bf
00000090: 0000 0040 2f60 ccbf 98d1 648a 9508 cebf
000000a0: 10ca 7fee 334c ab3f 0000 0000 4a57 ac3f
000000b0: 0000 0000 983d a63f bbfc 1fb0 6010 b8bf
000000c0: 0000 00e0 ae6e d0bf 02cd d37b 6598 d13f
000000d0: 0000 00c0 8ccf d7bf 0000 0060 45f3 cfbf
000000e0: 5b07 bd6c d836 d0bf 0000 0080 6bb3 d5bf
000000f0: 0000 00a0 0efb d4bf 0000 00c0 2002 c4bf
00000100: 6211 0338 7030 c2bf 24f3 775f f1bd dcbf
00000110: 0000 0080 bd3c c1bf 0000 0000 6003 73bf
00000120: 9dd6 8d38 6949 aabf 63a9 0a84 38b0 d03f
00000130: bca7 abab cc6d bcbf a500 9703 4b43 bf3f
00000140: e9c2 05c0 af27 a8bf 0000 00e0 3c78 cabf
00000150: 0000 0000 7f04 a03f 3990 7689 752c d43f
00000160: 1f49 92c4 05a7 d23f f8f8 478d 6a05 b73f
00000170: 9431 3b39 5f0f dfbf 3f5a 77c4 12b8 91bf
00000180: 4d0a c728 1949 bfbf 0000 00e0 1b69 dcbf
00000190: faba 765c 0099 e03f c435 9831 d397 db3f
000001a0: e0b5 855c 40cd b33f 0000 0020 b4b5 d0bf
000001b0: 0000 00e0 eb9e d4bf 0000 0000 d682 ab3f
000001c0: 3e19 d6ff e442 d1bf bcb0 174e 2011 b83f
000001d0: 0000 0080 1a7f d2bf db37 90cd 6c35 dabf
000001e0: 0000 0000 c9c8 d0bf 9bf7 2c1f 0263 cabf
000001f0: 5539 4784 638c cebf 654d 5dbb e0ce d93f

fc2.weight f8 [128, 64]
0.16720405651268688 0.04848848283290863 -0.21004486630380895 0.08302196860313416 -0.07802818715572357 -0.0027863024597403674 -0.09233454748098628 0.08403293788433075
-0.008589611291048864 -0.09616530429459086 0.2118107114163804 -0.0026914415951457484 0.045676231384277344 0.1491338491958511 0.05919569092253042 -0.11497291922569275
0.07473336635635613 -0.047740406594396996 -0.10099020600318909 0.07622285515309496 -0.27302546504961334 0.12457859516143799 -0.06810134649276733 -0.07780808337511368
0.05323682725429535 -0.06821985993968854 -0.11731952428817749 0.11162075400352478 -0.03946156165253428 0.12082524597644806 -0.025568649172782898 0.032455697655677795
0.09254449255611882 0.07394990075213809 0.06213757395744324 0.0795111209154129 -0.03083165358226696 0.14081452721673646 -0.06996762767284133 0.09978955189255091
-0.16759692073667087 -0.09662874042987823 -0.055537447333335876 -0.12329644796910233 0.136698762061699 0.17811574608785885 0.10423433296214092 0.1477366473606677
-0.03811208261040062 -0.1192178875207901 -0.13736061125709037 0.09263459395573784 0.13782727253184307 -0.0378129780292511 0.04424102604389191 -0.07410448789596558
-0.0373904924915558 0.22737624554934183 -0.06127724051475525 0.19539501570062368 0.021099820733070374 -0.0370455857539796 0.12913404507957182 -0.08071246849077623
0.1464911844987936 0.04754680395126343 -0.04146496620727697 -0.11506190896034241 0.09858828783035278 0.15419017141864472 0.0756295455995633 -0.03155797719955444
-0.12150722788324665 0.14471572628295132 0.11205387955274013 0.14486022100430312 -0.07030391693115234 0.08720653815711549 -0.0032989848600151216 -0.05682685971260071
0.12108738785279438 0.12280089798149746 0.017434626817703247 0.14852307089179617 -0.2605500926492572 0.12297642230987549 -0.11962990462779999 0.04841207572537484
0.048812225461006165 0.0021598607380710977 -0.07497991621494293 0.012364953756332397 -0.12447183512904374 -0.10351784527301788 0.10684394836425781 0.08454196155071259
0.0664728650117155 0.008093057452633837 -0.0659954845905304 0.06951664388179779 -0.17605235736642144 -0.00863483504790686 -0.053808972868031164 0.065640676310541
-0.18928636085392433 -0.02407267689704895 0.0528220534324646 -0.0968783160186786 0.1395305717739825 0.12172905060548686 -0.07247002076201607 0.01536648078541921
0.09839217529966851 -0.02115313708782196 -0.2731987431394828 -0.013694580804482506 0.09765210476084021 -0.0010669082403182983 0.04069015383720398 -0.03737284243106842
0.07364975496079468 0.3369634610326835 0.024788275361061096 0.0162645688590273 0.07572837173938751 -0.036020653589789176 -0.021765172000280997 -0.1275674737749397
0.05128578841686249 0.11469148099422455 0.05626752972602844 -0.020994439721107483 -0.04542633891105652 0.024455711245536804 0.023697972297668457 -0.030291587114334106
0.11601851880550385 0.11583957076072693 0.014417141675949097 -0.036647602915763855 0.12222687900066376 0.0925413966178894 0.010417655110359192 0.11615128815174103
-0.09335191547870636 0.0029187947511672974 0.059048011898994446 0.009012162685394287 -0.1069951206445694 0.0514325350522995 0.010655850172042847 0.04085114598274231
-0.054498255252838135 -0.040580183267593384 -0.07728274166584015 -0.034776076674461365 0.00675007700920105 0.0437106192111969 -0.026751816272735596 -0.006144657731056213
0.00866323709487915 -0.020519152283668518 0.08007848262786865 -0.015260085463523865 0.08058206737041473 -0.06079699099063873 0.0950978696346283 0.049122899770736694
0.023044317960739136 0.013670369982719421 0.020310774445533752 0.10971090197563171 0.1072588562965393 0.11532142758369446 -0.05211260914802551 0.1025560200214386
-0.10017463564872742 -0.11907222867012024 0.10334251821041107 -0.08588787913322449 -0.044569388031959534 -0.11070370674133301 0.0897010862827301 -0.029435500502586365
-0.038821861147880554 0.008426100015640259 -0.0961381047964096 0.07351963222026825 0.0771975964307785 -0.07047675549983978 0.01842452585697174 -0.0614202618598938
-0.10520830750465393 0.01570376753807068 -0.07842087745666504 0.027011752128601074 -0.03354214131832123 -0.06039923429489136 0.06900322437286377 -0.08737963438034058
-0.01917882263660431 -0.10362283885478973 0.01719948649406433 0.10872858762741089 0.006345480680465698 -0.10763430595397949 -0.07922659814357758 -0.0721343457698822
0.07124049961566925 0.07701495289802551 -0.05910086631774902 0.03623458743095398 0.002151176333427429 0.004817202687263489 -0.07734706997871399 0.1110992580652237
0.022838890552520752 0.07761023938655853 -0.04409131407737732 0.04642479121685028 -0.08146217465400696 0.09533855319023132 0.07211227715015411 -0.009176477789878845
-0.07471226155757904 -0.09257663786411285 0.004039481282234192 -0.052190497517585754 0.017168685793876648 -0.1005190759897232 0.10775859653949738 -0.10661697387695312
0.0034256279468536377 -0.06597594916820526 -0.04985387623310089 0.0818420946598053 -0.08196958899497986 -0.08751511573791504 -0.0676000565290451 -0.09712125360965729
-0.008934259414672852 -0.0310785174369812 0.030491948127746582 0.059211328625679016 0.06194591522216797 0.10446573793888092 0.0017051398754119873 0.04514715075492859
0.08282795548439026 0.031386032700538635 -0.024935752153396606 -0.02411876618862152 -0.006971403956413269 0.036908313632011414 -0.09980732202529907 -0.10238665342330933
00000000: e081 3d49 f166 c53f 0000 0080 7bd3 a83f
00000010: bdd8 bb0b c0e2 cabf 0000 0080 ed40 b53f
00000020: 0000 00c0 a7f9 b3bf 6e88 1fbe 4cd3 66bf
00000030: 93c7 b8a5 3ca3 b7bf 0000 00c0 2e83 b53f
00000040: 89ac a41c 6e97 81bf 1c85 f414 4a9e b8bf
00000050: 93e8 3c07 9d1c cb3f b1f7 2ab4 5c0c 66bf
00000060: 0000 0000 e062 a73f 56ea 8266 d116 c33f
00000070: e21c 27c9 e54e ae3f 0000 0080 dd6e bdbf
00000080: 44a8 6bd4 b921 b33f 4996 0a3a 6e71 a8bf
00000090: 0000 0080 7eda b9bf 1c1d 174e 5783 b33f
000000a0: fc3f d7cc 3f79 d1bf 0000 0000 62e4 bf3f
000000b0: 0000 0000 176f b1bf e7e6 7505 3beb b3bf
000000c0: 0000 0080 db41 ab3f 0cf0 6053 db76 b1bf
000000d0: 0000 0000 a708 bebf 0000 0080 2d93 bc3f
000000e0: 6852 7e49 4e34 a4bf 0000 0040 67ee be3f
000000f0: 0000 0000 ab2e 9abf 0000 0080 089e a03f
00000100: 0615 f4f0 feb0 b73f 64db 4575 61ee b23f
00000110: 0000 0000 7fd0 af3f 0000 0040 d75a b43f
00000120: 6d0e 453f 5592 9fbf 774a 99de 3506 c23f
00000130: dd30 a200 66e9 b1bf 916a dcdd ce8b b93f
00000140: 0cb6 bcde d073 c5bf 0000 0040 a9bc b8bf
00000150: 0000 0080 676f acbf b081 bd23 5b90 bfbf
00000160: 1eb6 3a54 587f c13f 98cc 2c2c 7fcc c63f
00000170: 6159 31eb 19af ba3f 2bd9 6ad2 08e9 c23f
00000180: 39ca c948 6d83 a3bf 0000 0040 1085 bebf
00000190: 7ecb 8d52 0895 c1bf 62a4 8497 e6b6 b73f
000001a0: e2b4 02f6 52a4 c13f 0000 0000 395c a3bf
000001b0: 0000 0080 c2a6 a63f 0000 0000 83f8 b2bf
000001c0: 4179 ddbc d824 a3bf b2c6 4231 aa1a cd3f
000001d0: 0000 0000 bb5f afbf a827 1e31 b402 c93f
000001e0: 0000 0000 319b 953f 098c 8c96 a3f7 a2bf
000001f0: a45e 35e2 7687 c03f cc1c 8c84 92a9 b4bf
00000200: 2b8d 491f 39c0 c23f 0000 0000 0e58 a83f
00000210: d97a 9463 e53a a5bf 0000 0080 b274 bdbf
00000220: 0000 0000 153d b93f 8ac9 cde7 80bc c33f
00000230: 9322 f638 755c b33f 0000 0000 5e28 a0bf
00000240: 3975 fc01 191b bfbf b213 cd7f 0b86 c23f
00000250: 2ea6 1124 90af bc3f 5a37 da9b c78a c23f
00000260: 0000 0000 70ff b1bf 04d7 61ed 2a53 b63f
00000270: 0532 ae02 7906 6bbf 0000 0000 6918 adbf
00000280: 782b c942 95ff be3f a4fd bf30 e16f bf3f
00000290: 0000 0000 62da 913f b843 17d2 cd02 c33f
000002a0: 3c7e b94b daac d0bf 0000 0000 627b bf3f
000002b0: 0000 00c0 10a0 bebf cca4 f1b3 77c9 a83f
000002c0: 0000 0080 eafd a83f 525a 7c67 8eb1 613f
000002d0: 0000 0040 e231 b3bf 0000 0000 cc52 893f
000002e0: 3300 27dd 62dd bfbf 0000 0040 2580 babf
000002f0: 0000 0000 205a bb3f 0000 00c0 8aa4 b53f
00000300: 33f7 4b9d 5d04 b13f e270 abc8 1793 803f
00000310: 0000 0080 14e5 b0bf 0000 00c0 d7cb b13f
00000320: c8e0 a236 e288 c6bf 84cf 18f1 23af 81bf
00000330: c92a 6685 d98c abbf 3d85 0ace d3cd b03f
00000340: 9725 b914 893a c8bf 0000 0000 82a6 98bf
00000350: 0000 0000 7e0b ab3f 22e5 fd6e 04cd b8bf
00000360: 1fdd 4745 23dc c13f aedd 5293 a229 bf3f
00000370: 3b01 1d31 658d b2bf ec84 6c23 7678 8f3f
00000380: fa28 18c7 3a30 b93f 0000 0000 2ba9 95bf
00000390: 9ae9 c594 167c d1bf 485f 8085 e70b 8cbf
000003a0: 0a58 5574 baff b83f 0000 0000 f07a 51bf
000003b0: 0000 0000 57d5 a43f 0000 0080 8822 a3bf
000003c0: 343f ead8 b5da b23f 2845 4531 cf90 d53f
000003d0: 0000 0000 1962 993f 480e 55bd a8a7 903f
000003e0: 0000 0040 ef62 b33f 0821 4c92 4c71 a2bf
000003f0: 106a bbf7 9b49 96bf 30c7 f287 2154 c0bf
00000400: 0000 0080 2142 aa3f 0000 00c0 6b5c bd3f
00000410: 0000 0000 19cf ac3f 0000 0000 917f 95bf
00000420: 0000 0000 1f42 a7bf 0000 0000 eb0a 993f
00000430: 0000 0000 4844 983f 0000 0000 c204 9fbf
00000440: 0000 00c0 63b3 bd3f 0000 0080 a9a7 bd3f
00000450: 0000 0000 bc86 8d3f 0000 0080 79c3 a2bf
00000460: 0000 00c0 424a bf3f 0000 0000 cbb0 b73f
00000470: 0000 0000 da55 853f 0000 0040 17bc bd3f
00000480: 0000 0040 e9e5 b7bf 0000 0000 28e9 673f
00000490: 0000 0080 8a3b ae3f 0000 0000 f874 823f
000004a0: 0000 0040 0864 bbbf 0000 0080 5d55 aa3f
000004b0: 0000 0000 bcd2 853f 0000 0000 71ea a43f
000004c0: 0000 0000 32e7 abbf 0000 0000 edc6 a4bf
000004d0: 0000 0040 cdc8 b3bf 0000 0080 2bce a1bf
000004e0: 0000 0000 f8a5 7b3f 0000 0000 3d61 a63f
000004f0: 0000 0000 d464 9bbf 0000 0000 242b 79bf
00000500: 0000 0000 08be 813f 0000 0000 f902 95bf
00000510: 0000 0000 0680 b43f 0000 0000 ae40 8fbf
00000520: 0000 00c0 06a1 b43f 0000 0080 c820 afbf
00000530: 0000 0080 5558 b83f 0000 0000 a326 a93f
00000540: 0000 0000 ee98 973f 0000 0000 36ff 8b3f
00000550: 0000 0000 59cc 943f 0000 0080 0316 bc3f
00000560: 0000 0000 5175 bb3f 0000 0080 b485 bd3f
00000570: 0000 0000 81ae aabf 0000 0080 1c41 ba3f
00000580: 0000 0080 0ba5 b9bf 0000 0080 847b bebf
00000590: 0000 00c0 a774 ba3f 0000 0080 bffc b5bf
000005a0: 0000 0080 ccd1 a6bf 0000 0000 1457 bcbf
000005b0: 0000 0080 a6f6 b63f 0000 0000 5724 9ebf
000005c0: 0000 0080 75e0 a3bf 0000 0000 b441 813f
000005d0: 0000 00c0 819c b8bf 0000 00c0 2ed2 b23f
000005e0: 0000 00c0 38c3 b33f 0000 00c0 c30a b2bf
000005f0: 0000 0000 e1dd 923f 0000 0000 7a72 afbf
00000600: 0000 0080 eeee babf 0000 0000 a614 903f
00000610: 0000 0000 6413 b4bf 0000 0000 f8a8 9b3f
00000620: 0000 0080 6f2c a1bf 0000 0000 a6ec aebf
00000630: 0000 0000 32aa b13f 0000 0000 835e b6bf
00000640: 0000 0000 9da3 93bf 0000 00c0 0687 babf
00000650: 0000 0000 be9c 913f 0000 0000 a3d5 bb3f
00000660: 0000 0000 b8fd 793f 0000 0000 ec8d bbbf
00000670: 0000 00c0 3148 b4bf 0000 0080 6577 b2bf
00000680: 0000 0040 d13c b23f 0000 0080 40b7 b33f
00000690: 0000 0000 7842 aebf 0000 0000 578d a23f
000006a0: 0000 0000 589f 613f 0000 0000 34bb 733f
000006b0: 0000 0080 04cd b3bf 0000 0040 0071 bc3f
000006c0: 0000 0000 1463 973f 0000 00c0 43de b33f
000006d0: 0000 0000 2393 a6bf 0000 0080 fdc4 a73f
000006e0: 0000 0080 b4da b4bf 0000 0080 1b68 b83f
000006f0: 0000 0040 f375 b23f 0000 0000 1ecb 82bf
00000700: 0000 00c0 5720 b3bf 0000 0040 1ab3 b7bf
00000710: 0000 0000 b48b 703f 0000 0080 b6b8 aabf
00000720: 0000 0000 ab94 913f 0000 0040 9ebb b9bf
00000730: 0000 0040 1196 bb3f 0000 0000 404b bbbf
00000740: 0000 0000 1010 6c3f 0000 00c0 cce3 b0bf
00000750: 0000 0080 7286 a9bf 0000 0080 9af3 b43f
00000760: 0000 0080 f5fb b4bf 0000 0000 6467 b6bf
00000770: 0000 00c0 3c4e b1bf 0000 0040 f0dc b8bf
00000780: 0000 0000 204c 82bf 0000 0000 0cd3 9fbf
00000790: 0000 0000 4839 9f3f 0000 0080 f250 ae3f
000007a0: 0000 0000 60b7 af3f 0000 0040 44be ba3f
000007b0: 0000 0000 e0ef 5b3f 0000 0000 871d a73f
000007c0: 0000 0080 3634 b53f 0000 0080 d411 a03f
000007d0: 0000 0000 c288 99bf 0000 0000 97b2 98bf
000007e0: 0000 0000 0c8e 7cbf 0000 0080 a5e5 a23f
000007f0: 0000 0000 f98c b9bf 0000 0000 0336 babf

fc2.bias f8 [128]
-0.019710251711714786 0.0533653848972406 -0.0954146683216095 0.013235166668891907 -0.011953590195296593 0.028015524931745667 -0.06638862192630768 -0.044246748089790344
-0.07273711264133453 -0.048965045440040086 -0.015127554535865784 -0.0360709278645416 0.05187055534401033 -0.14562912411717308 0.03876654407230604 -0.0982958354516593
0.12580182489499145 -0.16754206030392071 0.04366211478501576 -0.1099620908498764 -0.04715263843536377 0.08717502485482428 -0.021813234163739828 0.04804271459579468
0.1499849743573334 -0.0333428829908371 -0.0628918910612259 -0.01009635314172269 0.07325974009718142 -0.1390020659008449 -0.03384649313988789 0.021942731802966395
-0.057813555002212524 -0.03055077699775208 0.05301506182714819 -0.004186479261102123 -0.05484799749428911 -0.07416805624961853 -0.03425891697406769 -0.03704369068145752
-0.12241990041297185 -0.15685088429201677 0.12967591380291948 0.03277561068534851 -0.09470455348491669 0.02693337237967586 -0.16333837725497746 -0.019310994695696127
-0.09161279476417011 0.13574710031265613 -0.1164550632238388 -0.01989637315273285 0.029652890680037226 -0.03742645990332466 -0.04281214684157913 0.0105724036693573
-0.040030296773815366 -0.046863749623298645 -0.01932463049888611 -0.05828937888145447 -0.06301582463032428 -0.07057252526283264 -0.10183926906451228 -0.059964388608932495
-0.04321661591529846 0.14093165609447042 -0.0235075474618955 0.1451613557709306 0.05172242013743445 0.047797840309307664 0.09497535697270984 -0.09272526032064654
-0.05709615349769592 -0.029915650996619428 0.09574046775709841 0.0627297305732241 0.09632836418695974 -0.048286423087120056 0.10744947523664725 -0.0009809881448745728
-0.002176821231842041 0.039473116397857666 -0.08483783883956728 -0.13972473933692184 -0.10925917327404022 0.019015096937384585 -0.10160352611734545 0.041195222458584736
0.019368342101475602 0.11157701909542084 -0.13898642190505467 -0.17185390616377655 0.012959107756614685 -0.0518654953304486 0.05827927102930517 -0.06803404456186364
0.10275738442285398 -0.09230977296829224 -0.097527932611879 -0.08465523564564453 0.0018393412261367493 -0.053249780926707235 0.03285615507405683 0.023364737759310503
0.01188333442576686 0.12651007858368465 -0.013318487239152216 -0.17287463730420854 0.01268632709980011 0.07180324587485964 0.023538800480955233 0.1353184725099505
-0.0417691320479784 -0.06111308932304382 -0.08075333013607862 -0.011484634676936768 -0.06764043409465229 0.04911859526686884 -0.010334680415284276 -0.11439218602473254
0.10872010955481098 -0.14274736270017716 0.08993709775427386 0.09212315082550049 0.0790080114779438 0.11723449149452632 0.06174614086668374 -0.024409249424934387
00000000: 59b0 fd99 ec2e 94bf fc83 be2d b552 ab3f
00000010: 0000 0080 186d b8bf 0000 0000 0a1b 8b3f
00000020: ad2e abb7 1f7b 88bf a8cf 720d 1ab0 9c3f
00000030: 0000 0040 d8fe b0bf 0000 0080 82a7 a6bf
00000040: 0000 0040 e69e b2bf fece 9f49 f211 a9bf
00000050: 0000 0000 32fb 8ebf 3377 077f e377 a2bf
00000060: 34e0 a705 c78e aa3f 43d5 b6a2 f9a3 c2bf
00000070: ed61 f05d 35d9 a33f 470e 9976 ea29 b9bf
00000080: dfbd d931 461a c03f b4da daaa 0472 c5bf
00000090: 9ad4 2676 e15a a63f 0000 00c0 7926 bcbf
000000a0: 0000 0000 6424 a8bf 868a c738 1a51 b63f
000000b0: 04bb 695d 3556 96bf 0000 0000 0e99 a83f
000000c0: 61c9 e027 b532 c33f 0000 0080 5112 a1bf
000000d0: ada3 4ad7 ae19 b0bf 9fa7 6b94 65ad 84bf
000000e0: dab2 d47b 26c1 b23f b26e 8fd7 d1ca c1bf
000000f0: a57e 3dda 5354 a1bf 8c20 eacd 2778 963f
00000100: 0000 0000 bd99 adbf d97a 4af0 b348 9fbf
00000110: 0d6d 7c49 ca24 ab3f d565 3078 d725 71bf
00000120: 4b66 fa66 0915 acbf 0000 0080 adfc b2bf
00000130: 0000 0080 628a a1bf 0000 0000 64f7 a2bf
00000140: 143e a71c e956 bfbf 9c02 3195 b013 c4bf
00000150: e664 6e68 3899 c03f 0000 0000 f7c7 a03f
00000160: 0000 00c0 8e3e b8bf c1b2 2a06 6c94 9b3f
00000170: 90f4 3e9e 45e8 c4bf ad5a afea 42c6 93bf
00000180: e442 68a5 ef73 b7bf fc51 2f36 2960 c13f
00000190: 0000 00c0 ffcf bdbf 0000 0000 b75f 94bf
000001a0: 6d7c cfce 535d 9e3f 3865 949a 8f29 a3bf
000001b0: 57bd 1c45 79eb a5bf 0000 0000 fca6 853f
000001c0: a844 fcde d97e a4bf 0000 0080 86fe a7bf
000001d0: 0000 0000 d6c9 93bf 0000 0000 1bd8 adbf
000001e0: 4fef ea19 ce21 b0bf 0000 0080 0a11 b2bf
000001f0: d3a3 146a 2312 babf 0000 0000 a7b3 aebf
00000200: 0000 0000 7d20 a6bf 9fcc f26a 0c0a c23f
00000210: b566 3bce 5c12 98bf f8ee d6b5 a594 c23f
00000220: 41a6 eb6d 5c7b aa3f 0f54 e561 f578 a83f
00000230: beab 1f14 4e50 b83f 801b 97b8 d7bc b7bf
00000240: 0000 0000 b53b adbf 4416 ad5a 35a2 9ebf
00000250: 96a4 eb81 7282 b83f fb83 4c3d 0e0f b03f
00000260: 1534 dcc5 f9a8 b83f 0000 0080 ffb8 a8bf
00000270: 7e1f 1d0e cf81 bb3f 0000 0000 9012 50bf
00000280: 0000 0000 20d5 61bf 0000 0000 d235 a43f
00000290: 967d 47bf eeb7 b5bf 4775 f210 80e2 c1bf
000002a0: 0000 00c0 68f8 bbbf c5c4 e78d b178 933f
000002b0: 5710 d54d b002 babf dd10 6c4a 8a17 a53f
000002c0: 7443 9d6f 4bd5 933f 0000 00c0 4f90 bc3f
000002d0: 56cb 559c 4eca c1bf 22e6 540d 4fff c5bf
000002e0: 0000 0000 4e8a 8a3f 5061 783c 1d8e aabf
000002f0: 5d0f 36d6 c7d6 ad3f 4d66 68dc ad6a b1bf
00000300: c0c6 84d5 4e4e ba3f 0000 0000 9da1 b7bf
00000310: 12b7 0331 97f7 b8bf e480 882c f7ab b5bf
00000320: 9f72 659a c122 5e3f e8e0 3227 8e43 abbf
00000330: b2df 079f 85d2 a03f 0932 3902 edec 973f
00000340: 4f0d cf25 4a56 883f f3ce 1075 7b31 c03f
00000350: 50ac fe18 b946 8bbf 9ac4 c390 c120 c6bf
00000360: 0000 0000 4afb 893f a077 c790 b261 b23f
00000370: 9cd6 0229 8e1a 983f eec9 fc9e 1d52 c13f
00000380: 12ba 4180 c362 a5bf 0000 0000 374a afbf
00000390: a540 fa0f 40ac b4bf 5a69 c092 4185 87bf
000003a0: eae2 522c e250 b1bf 17e4 9790 1226 a93f
000003b0: b7a1 2f53 592a 85bf 9fe8 e469 ce48 bdbf
000003c0: 6498 f4c2 14d5 bb3f f799 31ab 8b45 c2bf
000003d0: 3a40 8d1d 1e06 b73f 0000 0000 6295 b73f
000003e0: 7975 6b79 de39 b43f 65a3 ee62 1403 be3f
000003f0: 616d 5aaf 309d af3f 0000 0000 bdfe 98bf

fc3.weight f8 [64, 128]
0.0848686471581459 -0.03498281165957451 0.06604767590761185 0.01786002516746521 -0.0006941556930541992 0.0800449475646019 0.0023756399750709534 -0.0663505494594574
0.050822071731090546 0.009167216718196869 -0.07804253697395325 0.058533452451229095 -0.025803975760936737 -0.058010730892419815 0.004477478563785553 0.024836033582687378
-0.031208518892526627 0.008677065372467041 -0.02501729130744934 -0.0874214842915535 -0.08062593638896942 -0.05938373878598213 -0.03006502240896225 0.0031182467937469482
-0.0071896836161613464 -0.06485223025083542 0.029293134808540344 0.06011860817670822 -0.06906769424676895 0.040139056742191315 0.06365952640771866 0.014709025621414185
-0.032623935490846634 0.008565522730350494 -0.01448085904121399 -0.06644805520772934 -0.02327858656644821 -0.03797738626599312 -0.02580568939447403 -0.004791088402271271
0.01666373759508133 0.03995669633150101 0.08414778858423233 0.04126507788896561 0.01539059728384018 -0.010422095656394958 -0.03929447382688522 -0.06521560996770859
-0.03109651431441307 0.041932396590709686 0.05422230809926987 -0.027247272431850433 0.07018490880727768 0.013356313109397888 0.08319676667451859 0.032581329345703125
0.061544276773929596 -0.021692350506782532 -0.08063434064388275 -0.04421988129615784 0.008777156472206116 0.03653109818696976 -0.04375115782022476 -0.03575069457292557
0.040060438215732574 -0.01177099347114563 -0.024308308959007263 -0.038027774542570114 -0.02915528044104576 -0.054994408041238785 0.07431123405694962 0.04561062902212143
0.07363083213567734 -0.016354724764823914 0.02127157896757126 -0.05984385684132576 0.059687159955501556 -0.00019861012697219849 0.00412924587726593 -0.06728526949882507
-0.044808611273765564 -0.017688095569610596 -0.06433650851249695 0.06891421228647232 0.03760550171136856 -0.040938835591077805 -0.011077702045440674 -0.0760592520236969
-0.07745024561882019 -0.04349614679813385 -0.00960637629032135 -0.05857204273343086 -0.04578039050102234 -0.08630538731813431 -0.014202475547790527 -0.05570542439818382
-0.01101580262184143 0.08302933722734451 -0.053229447454214096 0.05552021414041519 -0.03526216000318527 -0.041774995625019073 0.029797233641147614 -0.08701277524232864
-0.04865783080458641 0.03560486435890198 0.05172955244779587 -0.010617777705192566 -0.013328500092029572 -0.08488147705793381 -0.042970966547727585 0.002468213438987732
0.08689621835947037 0.060747407376766205 0.07181928306818008 -0.02083909511566162 0.06186116486787796 -0.0851067528128624 -0.017286047339439392 -0.029787201434373856
0.06576121598482132 0.08647087961435318 -0.022642910480499268 -0.08270173519849777 -0.0597994439303875 -0.017428092658519745 -0.014658547937870026 -0.061476774513721466
0.007084241672440293 -0.0652698018878041 -0.07332978397607803 -0.0475492924451828 -0.14295516636495115 -0.1104655311856465 0.003832809627056122 -0.06956294924020767
-0.039431314915418625 0.032274642969838556 0.043293945491313934 0.03848017007112503 0.0006128650288024142 0.025034540322152177 -0.07751796175938301 0.0216267889755456
0.005278279410620998 0.022039577679356992 0.1307611632677413 -0.033302269876003265 0.025907032191753387 -0.07279066989128943 0.10278753169994537 0.0053833648562431335
-0.05195475776376612 -0.011640369892120361 -0.0072493404150009155 0.050039615749109874 -0.061141578777147876 0.06123154456030409 -0.027418730519877064 0.010791529803236498
0.08470744639635086 -0.0034465751423406695 0.040005198775706914 0.1353479287828912 0.039460677980734694 -0.05992360785603523 0.08348754793405533 -0.07899124175310135
-0.1411818733495654 0.029908642576552614 0.03414323714783526 0.08095332235097885 -0.06944087147712708 0.0638417433377823 0.05189248478227788 0.047165594962490995
0.033712381945008994 -0.10230859727856845 0.04437144845724106 0.0033841729164123535 0.0537753350852842 0.006344661167535777 0.05009484751936808 0.06298369914293289
-0.00519436055716888 0.04826918989419937 -0.022922120988368988 0.004500672221183777 0.0410401308097787 0.0030692368745803833 0.14344595037705984 -0.05488453060388565
0.08532261103391647 -0.061151099412621354 0.028638829393891493 -0.033562450394980105 0.050174413080802664 -0.023274705049676377 -0.004157230257987976 0.11156347855277501
0.06810916215181351 0.025752458359602628 0.018238153269729895 0.08430757375753337 -0.04406440153466099 -0.048373930156230927 0.005157107122487286 -0.03792813792824745
0.05243251472711563 0.06026030331850052 0.09538677276486837 0.01646149324292918 0.034240394830703735 0.12369455021245555 0.07216573763692266 0.0943108283313031
0.02061111058744141 0.04430093616247177 0.09435212688646767 0.09821300099883894 0.01743505150079727 -0.0023371464199604137 -0.08108336718956144 0.007381895850848969
-0.06947562895712253 0.08324842900037766 0.02624182262613498 -0.010287819782185079 0.11628150901219368 0.01890087995316617 0.04666573440411938 0.05674071309025916
-0.014175992276322609 -0.028821502552236578 0.015953849481485986 0.1333334175177819 0.008022651076316833 -0.08018020595786128 0.0982792865984082 -0.02526157154284465
0.059990647405473246 -0.023695193231105804 -0.12206550729685023 0.08371477574110031 -0.07125683359862073 0.10827289452039084 0.036592356860637665 0.08524116076808741
-0.02057679938911559 -0.06053120642900467 -0.0943501539995335 -0.06253726035356522 0.01916337013244629 -0.03881288146722362 -0.04990607835728529 -0.013109229505062103
00000000: 0000 00a0 f3b9 b53f 0000 0060 44e9 a1bf
00000010: 0000 0020 80e8 b03f 0000 0000 e649 923f
00000020: 0000 0000 00bf 46bf 0000 0060 d37d b43f
00000030: 0000 0000 1476 633f 0000 0080 59fc b0bf
00000040: 0000 00c0 5905 aa3f 0000 0000 43c6 823f
00000050: 0000 0080 98fa b3bf 0000 00c0 18f8 ad3f
00000060: 0000 0080 5b6c 9abf 0000 0020 95b3 adbf
00000070: 0000 0000 fa56 723f 0000 0000 9e6e 993f
00000080: 0000 0040 20f5 9fbf 0000 0000 48c5 813f
00000090: 0000 0000 229e 99bf 0000 0020 4161 b6bf
000000a0: 0000 00c0 e6a3 b4bf 0000 00a0 8b67 aebf
000000b0: 0000 0080 5dc9 9ebf 0000 0000 708b 693f
000000c0: 0000 0000 ee72 7dbf 0000 00e0 279a b0bf
000000d0: 0000 0000 05ff 9d3f 0000 00c0 ddc7 ae3f
000000e0: 0000 00a0 6bae b1bf 0000 0040 1b8d a43f
000000f0: 0000 00a0 fd4b b03f 0000 0000 c41f 8e3f
00000100: 0000 00a0 15b4 a0bf 0000 0000 cd8a 813f
00000110: 0000 0000 24a8 8dbf 0000 0060 bd02 b1bf
00000120: 0000 0080 57d6 97bf 0000 00a0 c571 a3bf
00000130: 0000 0080 ce6c 9abf 0000 0000 d29f 73bf
00000140: 0000 0080 4c10 913f 0000 0040 3475 a43f
00000150: 0000 00a0 b58a b53f 0000 0040 b220 a53f
00000160: 0000 0000 1b85 8f3f 0000 0000 2e58 85bf
00000170: 0000 00c0 671e a4bf 0000 0060 f8b1 b0bf
00000180: 0000 00c0 c3d7 9fbf 0000 00c0 2978 a53f
00000190: 0000 00c0 06c3 ab3f 0000 0080 b5e6 9bbf
000001a0: 0000 0060 a3f7 b13f 0000 0000 8e5a 8b3f
000001b0: 0000 0020 624c b53f 0000 0000 80ae a03f
000001c0: 0000 0040 bb82 af3f 0000 0000 8536 96bf
000001d0: 0000 00c0 73a4 b4bf 0000 0000 fda3 a6bf
000001e0: 0000 0000 c2f9 813f 0000 0040 34b4 a23f
000001f0: 0000 0040 8d66 a6bf 0000 0040 ea4d a2bf
00000200: 0000 0040 cd82 a43f 0000 0000 641b 88bf
00000210: 0000 0000 47e4 98bf 0000 0060 6078 a3bf
00000220: 0000 00c0 e1da 9dbf 0000 0020 3a28 acbf
00000230: 0000 00a0 0f06 b33f 0000 00c0 465a a73f
00000240: 0000 0060 78d9 b23f 0000 0000 4bbf 90bf
00000250: 0000 0080 37c8 953f 0000 00a0 daa3 aebf
00000260: 0000 00c0 508f ae3f 0000 0000 4008 2abf
00000270: 0000 0000 d4e9 703f 0000 0080 9b39 b1bf
00000280: 0000 0080 27f1 a6bf 0000 0000 d41c 92bf
00000290: 0000 0080 5b78 b0bf 0000 00a0 5ca4 b13f
000002a0: 0000 0040 0741 a33f 0000 0060 eff5 a4bf
000002b0: 0000 0000 e8af 86bf 0000 0080 9e78 b3bf
000002c0: 0000 0080 c7d3 b3bf 0000 0080 2045 a6bf
000002d0: 0000 0000 82ac 83bf 0000 00a0 27fd adbf
000002e0: 0000 0000 8770 a7bf 0000 0020 1c18 b6bf
000002f0: 0000 0000 3016 8dbf 0000 00e0 6b85 acbf
00000300: 0000 0000 748f 86bf 0000 0020 6941 b53f
00000310: 0000 00e0 e340 abbf 0000 0040 256d ac3f
00000320: 0000 00c0 e10d a2bf 0000 0040 8863 a5bf
00000330: 0000 0080 2a83 9e3f 0000 0020 7846 b6bf
00000340: 0000 00e0 ade9 a8bf 0000 0000 cd3a a23f
00000350: 0000 00c0 4b7c aa3f 0000 0000 c6be 85bf
00000360: 0000 0000 f94b 8bbf 0000 00e0 caba b5bf
00000370: 0000 0060 4a00 a6bf 0000 0000 3838 643f
00000380: 0000 00a0 d43e b63f 0000 00c0 481a af3f
00000390: 0000 00a0 bf62 b23f 0000 0000 d856 95bf
000003a0: 0000 0040 44ac af3f 0000 0060 8ec9 b5bf
000003b0: 0000 0000 6fb3 91bf 0000 0040 8980 9ebf
000003c0: 0000 0020 bad5 b03f 0000 00a0 f422 b63f
000003d0: 0000 0000 b42f 97bf 0000 00e0 f02b b5bf
000003e0: 0000 0060 089e aebf 0000 0080 abd8 91bf
000003f0: 0000 0000 4d05 8ebf 0000 0040 e279 afbf
00000400: a52c cda4 5d04 7d3f ca46 8690 85b5 b0bf
00000410: 0000 00a0 bdc5 b2bf 0000 0080 6158 a8bf
00000420: 4a75 2ada 5a4c c2bf 1812 c713 7847 bcbf
00000430: 0000 0000 fc65 6f3f 0000 00a0 e0ce b1bf
00000440: 0000 0060 5730 a4bf 1750 1750 4d86 a03f
00000450: 0000 00c0 9f2a a63f 0000 0040 acb3 a33f
00000460: b077 b6a0 1515 443f 0def d08f a7a2 993f
00000470: dbef 9b96 37d8 b3bf e147 783d 5525 963f
00000480: 160e 2a57 ad9e 753f d0e6 6605 8b91 963f
00000490: e232 e923 c8bc c03f 0000 00c0 fe0c a1bf
000004a0: 0000 0080 5f87 9a3f be13 a3ca 68a2 b2bf
000004b0: f07b 169f 4850 ba3f 0000 0000 de0c 763f
000004c0: af17 ef62 d099 aabf 0000 0000 e8d6 87bf
000004d0: 0000 0000 7cb1 7dbf c12d 4be2 ca9e a93f
000004e0: e01c 8cf2 f24d afbf 2d7a bdb2 bd59 af3f
000004f0: 99d8 85db a713 9cbf bf32 a19c de19 863f
00000500: 0000 0020 63af b53f b53b a0f0 fd3b 6cbf
00000510: 89c2 d2b8 8f7b a43f ea17 dab7 1453 c13f
00000520: fd7b cfa2 3034 a43f 0000 00a0 4eae aebf
00000530: 0000 00a0 705f b53f 0000 0020 c538 b4bf
00000540: da85 6964 3f12 c2bf eda9 ef06 5fa0 9e3f
00000550: abea dbed 387b a13f 0000 0060 5bb9 b43f
00000560: 0000 0080 e0c6 b1bf f361 c1b7 ee57 b03f
00000570: 799b 18da a691 aa3f c676 b8bf 1626 a83f
00000580: 4b20 d9d3 bf42 a13f f03c 696f e530 babf
00000590: 0000 00c0 dab7 a63f 0000 0000 20b9 6b3f
000005a0: 2fa4 0bd3 7088 ab3f 2e12 8003 dcfc 793f
000005b0: fd6b 9627 08a6 a93f 0000 0020 b31f b03f
000005c0: c57d 778b ae46 75bf 0000 0040 bdb6 a83f
000005d0: 0000 0080 e578 97bf 0000 0000 4c6f 723f
000005e0: 7899 4d47 3603 a53f 0000 0000 a824 693f
000005f0: 6b7a ced8 6f5c c23f 0000 0040 d319 acbf
00000600: 0000 00e0 b3d7 b53f 36ed 2e68 324f afbf
00000610: 3ce8 914e 7f53 9d3f 25df a3f5 182f a1bf
00000620: 875b 8eee 75b0 a93f 2fb4 0c04 53d5 97bf
00000630: 0000 0000 2c07 71bf 1eea cf93 6c8f bc3f
00000640: 0000 0020 9a6f b13f 27cd c839 da5e 9a3f
00000650: 63ea 54bf 05ad 923f 9efd 1760 2e95 b53f
00000660: 65b3 04f7 9b8f a6bf 0000 00c0 77c4 a8bf
00000670: 79c7 ed66 9e1f 753f 0000 0020 516b a3bf
00000680: 0000 0040 6fd8 aa3f 0000 0040 70da ae3f
00000690: f6ff 7e7d 446b b83f 73a0 7c1c 48db 903f
000006a0: 0000 0000 f587 a13f ff1d db2f 72aa bf3f
000006b0: 1ed4 0a2b 7479 b23f 3774 5723 c124 b83f
000006c0: 4e13 a137 141b 953f 0000 00c0 9cae a63f
000006d0: 5911 4903 7627 b83f d3ff 54bb 7c24 b93f
000006e0: 0000 0080 7eda 913f 04f8 11ee 5925 63bf
000006f0: 6027 542a e1c1 b4bf 3aa3 3094 7a3c 7e3f
00000700: 3e68 3da2 27c9 b1bf 0000 00e0 c44f b53f
00000710: 09e2 dde7 22df 9a3f c5cf 17cc c711 85bf
00000720: 273f 56fe 9fc4 bd3f 69d1 0e95 c05a 933f
00000730: 5212 3836 92e4 a73f 6c15 2666 1e0d ad3f
00000740: c4a2 b879 4d08 8dbf 9da3 884b 6283 9dbf
00000750: 51ba 12b7 3456 903f ebf4 d9c5 1111 c13f
00000760: 0000 0000 2e6e 803f 9b24 60a2 b086 b4bf
00000770: d67a d0d1 d428 b93f 1303 7d5e 2bde 99bf
00000780: 8441 5819 18b7 ae3f 0000 0080 8d43 98bf
00000790: 5443 cf61 af3f bfbf 0000 00e0 546e b53f
000007a0: dc2e ec49 e33d b2bf 5322 02bd c5b7 bb3f
000007b0: 0000 00c0 3bbc a23f b0a2 c55d 5dd2 b53f
000007c0: 9bfc baa1 1512 95bf 0000 0040 f2fd aebf
000007d0: 80f1 cce9 5427 b8bf 0000 0020 7102 b0bf
000007e0: 0000 0000 909f 933f 7168 2131 48df a3bf
000007f0: 1a12 d51c 4a8d a9bf 0000 0000 03d9 8abf

fc3.bias f8 [64]
-0.054035577923059464 0.036472365472858675 0.0011121004469669066 0.08120636395178803 -0.12919465158171184 0.04817362621098348 -0.03215199815808976 -0.04231628295834746
-0.02485033869743347 0.10651484546857345 0.02731175720691681 0.14570214288436767 -0.06326628476381302 0.1388882430115539 -0.05259012328705505 -0.06340102438542929
0.10446919301608229 -0.0579823778234929 0.17320766460898804 0.08340711146593094 -0.06175457313656807 -0.09943009025660629 -0.13650641570739827 0.03011263938799084
0.21457912889850103 0.10848703649837925 -0.1351370801995604 -0.0798182263970375 0.12485419730800829 -0.14209540556630026 -0.06617962770504919 -0.01701618731021881
-0.04917610064148903 -0.04447825253009796 -0.02761660273672468 -0.08453364670276642 -0.059409442165379335 -0.07643552124500275 -0.046004652976989746 -0.008897334337234497
-0.047871547062825356 -0.1245792333159053 0.019552697775626803 -0.13658078340841134 -0.010523339252831302 -0.10565518163528945 -0.08273383321607085 -0.028491611366685446
-0.06617436075231975 -0.044587732271106746 0.10594918317471147 0.006856532508135728 0.061082247455143575 0.10129814743778691 -0.061190484623363815 -0.057155797750931506
0.105446223099988 0.010698719658848476 -0.037824490664218044 -0.078069879920347 0.10919868412189913 0.126717128072638 -0.13451795034966613 0.09228557431498385
00000000: 0000 0020 8daa abbf dcce d381 81ac a23f
00000010: e47a 2cc3 7c38 523f 9766 66b5 f0c9 b43f
00000020: d447 ae49 7389 c0bf d838 36aa 36aa a83f
00000030: bd1a 2e09 3a76 a0bf c3ec c9d6 7aaa a5bf
00000040: 0000 0000 5e72 99bf d675 d391 8e44 bb3f
00000050: 0000 0000 9df7 9b3f 089f 5229 5ea6 c23f
00000060: 0000 0020 3832 b0bf 884a c406 17c7 c13f
00000070: b294 38b7 17ed aabf 71b0 44ae 0c3b b0bf
00000080: ca8e 7137 7ebe ba3f 3e10 fec0 ddaf adbf
00000090: 03c1 7433 ab2b c63f 0000 0020 2b5a b53f
000000a0: 0000 00a0 4b9e afbf aef4 e319 4074 b9bf
000000b0: 8727 94cf 0a79 c1bf 6b7c 7805 d9d5 9e3f
000000c0: 37f9 8232 5477 cb3f 63ed cc71 cec5 bb3f
000000d0: a88e f7fd 2b4c c1bf 0000 00a0 f76e b4bf
000000e0: 48cb 34d6 71f6 bf3f cbd8 e8a7 2e30 c2bf
000000f0: 9b96 a7e8 25f1 b0bf 0000 0000 b16c 91bf
00000100: 0000 0020 9c2d a9bf 0000 0080 dac5 a6bf
00000110: 12cc 52d6 8647 9cbf 0000 0040 ffa3 b5bf
00000120: 6d0a 5916 ea6a aebf 0000 0040 4791 b3bf
00000130: 0000 0000 ec8d a7bf 0000 0000 c438 82bf
00000140: ae67 1692 9e82 a8bf d341 dab4 6ce4 bfbf
00000150: 33c4 fa55 9f05 943f de26 00a7 7a7b c1bf
00000160: 2f28 7caf 428d 85bf 3ac9 c6cd 370c bbbf
00000170: d78c ef63 0b2e b5bf 64fb 1eac e72c 9dbf
00000180: c0d1 438b cdf0 b0bf 797d d007 34d4 a6bf
00000190: f0f6 c554 7c1f bb3f c2b5 2e6e 9815 7c3f
000001a0: 213e 5f1e 2c46 af3f ab03 64e6 acee b93f
000001b0: 2b46 91f4 5b54 afbf d2ec 3b54 8643 adbf
000001c0: c27f b30f 86fe ba3f b3c1 59d8 35e9 853f
000001d0: 6606 c84c bb5d a3bf 627f 0f3d 63fc b3bf
000001e0: d7dd 11e9 71f4 bb3f 7f1f 7550 4438 c03f
000001f0: ba06 bd5a e237 c1bf 984f 9303 07a0 b73f
