src/backend/controller/checkpoints/checkpoint_epoch_9.pth (torch, 418434 bytes, 24 tensors)

fc1.weight f8 [64, 5]
000000 9c bb de ec eb f1 df 3f 81 b7 fa 73 08 23 c4 3f
       0.49914072162476386 0.15731912291579067
000010 06 2e 22 b1 7c 16 c6 3f 28 5b a5 fe 38 11 a2 3f
       0.1725612511548748 0.035287648281771944
000020 9f 80 5c 3f 17 d0 9e 3f 97 e7 2a 2c 0e ee cf 3f
       0.030090678446072713 0.24945237309094345
000030 83 8d 5d a5 33 cf 98 bf 35 93 42 6b b8 8b 86 bf
       -0.02422791191874075 -0.011008682988469335
000040 2f fd b8 ce d9 20 c3 3f 4d b3 cc d4 6c 99 a9 bf
       0.14944002717855073 -0.04999866578723431
000050 c1 e8 a5 71 6f 4e cc 3f 80 b7 f1 46 22 0d c7 3f
       0.22114365624640267 0.18008831466744013
000060 eb db b0 12 b6 6d c6 3f fe 75 b4 8e 33 53 d2 3f
       0.17522312080993116 0.28632821022060273
000070 11 d9 b0 7c 31 48 c5 3f 85 70 4a 82 c4 23 d4 3f
       0.1662656649438721 0.31468308185299804
000080 70 65 72 7e 61 76 d3 3f 9b 81 ef f0 0b c3 a6 bf
       0.30410039280248835 -0.044456837807732096
000090 ec ec 2d b0 4f d8 a1 3f 9d 4e 06 02 b6 8b d7 bf
       0.03485344911219976 -0.36790228078573667
0000a0 82 e7 7a 2e 0a 68 da bf 56 9a c2 30 2c 09 c3 3f
       -0.4126000837237528 0.1487174261175876
0000b0 a9 71 72 3b b2 43 d4 bf 53 c1 8e 00 2b 3a 8d bf
       -0.3166318493402068 -0.014271102861898177
0000c0 6e 07 93 8d dc a5 ab bf 8b e4 2e 84 6b 0e c1 bf
       -0.05399979809000298 -0.13325256304031927
0000d0 fb e8 e6 7f 76 75 ce bf 3c 93 ba ff 37 55 d1 bf
       -0.23795968289579847 -0.2708263394691135
0000e0 1c 90 78 4f 19 0e d8 bf aa 4d c6 91 47 0d d2 bf
       -0.3758605266650663 -0.282060520513563
0000f0 2a 83 0c 66 16 8f d1 bf 89 d2 90 a2 8f 78 d4 3f
       -0.27435836759291254 0.31985846400792944
000100 3f 22 4e 64 a7 ec c9 3f a8 2b 5d bc 07 96 d7 3f
       0.20253460309710822 0.36853211779515016
000110 e7 10 47 60 fe 8c d4 bf 10 51 13 43 85 97 ba 3f
       -0.32110556985959565 0.10387452018341414
000120 dd cf 4b e4 dd c8 d2 3f b3 c0 b3 a8 1a 85 d3 bf
       0.2935099343733308 -0.3049990317804358
000130 93 23 5c fd c9 7f d7 bf d6 b6 58 25 0c e8 d5 3f
       -0.3671746229379604 0.34228805205462487
000140 17 e6 11 f5 e6 89 d3 bf 93 13 c2 47 0a 32 aa 3f
       -0.30529188091858955 0.051163026103529984
000150 19 9c c5 81 b1 10 c8 3f 1d 58 c4 f1 c2 f8 db 3f
       0.1880094417240066 0.4370581971173822
000160 7a 84 f9 79 43 d9 d9 3f 24 2d e0 b8 9f cb ba 3f
       0.40388571654882066 0.1046695543629324
000170 da 5a 10 45 fb 28 b3 3f 98 2d ee 2f bc cc c4 bf
       0.07484407840852772 -0.1624980196032595
000180 d1 41 e1 42 66 db 98 3f 00 e0 dc 88 ef 5d b0 3f
       0.0242744425125368 0.063933344758766
000190 8d 57 b0 b3 42 a2 d9 bf 6a 6e d4 44 ab c9 d5 3f
       -0.40052859828699 0.340433900086032
0001a0 47 46 59 b4 35 d4 85 3f b6 19 df 80 bf bf d3 3f
       0.010658664289766707 0.3085783728132826
0001b0 79 46 8f 45 2c a0 ba bf 9f 75 21 f6 10 e9 db bf
       -0.10400654504999264 -0.4361002353305938
0001c0 78 1a 30 5e 4b ce 9a bf 40 16 bc 09 f7 a3 d4 bf
       -0.02617757570626586 -0.32250762892394746
0001d0 87 9e f4 32 5c 18 d8 bf af 8f 14 d8 75 6c d5 bf
       -0.3764868257153257 -0.33474489308923244
0001e0 43 36 c3 1c a3 6f c9 bf 5b bd 49 52 fb e4 da 3f
       -0.1987193956796763 0.42022593532506897
0001f0 ba 7d 3a 01 c9 94 d2 3f bd f3 b8 91 1b 84 c2 bf
       0.29033112640351144 -0.14465660682063045
000200 63 3f 37 ae 09 93 d7 3f fb 9b 35 1b 41 58 d9 3f
       0.3683494759870795 0.3960116162983806
000210 b5 33 71 2c b1 16 b4 3f a4 4b d8 da d4 a9 c0 3f
       0.07847125372900517 0.13018284498010957
000220 f0 6a 63 f4 ae 94 be 3f 0d 82 84 3e 1c 76 b1 bf
       0.11945622889053786 -0.06820847059544395
000230 e7 c0 5b 3f de 3e c7 bf 35 db 83 37 e0 26 d5 bf
       -0.18160608380959006 -0.3304977934016507
000240 a6 25 f2 b6 e0 ee b6 3f 4d e1 20 6a f3 31 bc 3f
       0.0895824858327133 0.1101371893026954
000250 81 38 2a 4c 0a 4f de bf ce 7b 0d be 7c 4f ce 3f
       -0.47357423246365477 0.23680075912395043
000260 2f 92 94 a6 17 52 d0 bf 99 2f 78 93 29 67 d0 3f
       -0.255010521579865 0.2562965335971455
000270 da d2 07 41 59 88 ce bf c6 0b 34 02 09 b6 da 3f
       -0.2385360305339848 0.41736054625669927
000280 be ea 2a 1f 2b 8e da 3f 3a 66 78 9b 02 38 e0 3f
       0.4149272732135322 0.5068371807603349
000290 3d 02 4b e2 24 86 d0 3f 42 a7 e8 77 49 20 bd bf
       0.25818750475812974 -0.11377391030751219
0002a0 d1 7a 09 a7 4b 55 dd 3f 37 57 7d 5e 39 45 cc 3f
       0.4583310252400397 0.22086255182028378
0002b0 5a 20 9b 88 36 48 80 bf fa ae dc b7 a9 af ae bf
       -0.007950235408671503 -0.0599339520398114
0002c0 3f 60 e6 cc 5d 68 db 3f 2b 75 fe 2a c0 17 ce 3f
       0.42824502000576453 0.23509981250109865
0002d0 4a ea 79 05 a3 c0 cd 3f d9 a0 99 d5 a2 37 bc bf
       0.23244130866426566 -0.11022393908354235
0002e0 c8 30 9c 9f 4a 6f a5 bf 14 b1 ae 78 77 67 c8 bf
       -0.04186471174588885 -0.1906575526494484
0002f0 bf d4 e5 ef 17 db d4 3f 16 5a ee 8d fb 15 db 3f
       0.3258724062682851 0.42321671352820667
000300 38 6e 2d 72 ed ba c8 bf 26 f1 e6 68 8e dd b4 3f
       -0.19320457530089796 0.08150568066679806
000310 f1 76 0c 65 49 28 e0 3f 8e f3 01 d2 37 7e a5 3f
       0.5049178098304009 0.041978592286773794
000320 56 12 fa ef fb a9 d1 3f d4 94 49 c9 b5 ef d3 3f
       0.2760000079654551 0.3115057435700923
000330 5a 4b e1 13 33 a6 c6 3f 23 2c 66 18 ab 82 d4 bf
       0.17694700689988957 -0.3204753626129692
000340 ba 24 5b 96 cc 52 b1 bf 52 6e d6 7b 7f 02 c7 bf
       -0.06766966505815022 -0.1797637324024089
000350 89 c0 39 b4 63 30 c2 3f cf cd 3e cb 67 02 c7 3f
       0.14210172939374768 0.17976090835655475
000360 60 f5 12 64 bf 47 51 3f 54 ef 03 31 14 3b cd 3f
       0.0010547036220452596 0.2283654441197266
000370 6b aa 35 1c 72 64 d1 bf c4 3a db f8 a6 ce c0 3f
       -0.27175572161528433 0.13130652571859092
000380 64 43 03 49 be 1b c9 3f 70 5b f9 0e 87 a1 d5 3f
       0.19615915837359943 0.3379838606101009
000390 fa fb c7 85 ce 44 d8 bf a3 de 98 f8 b2 0c cc bf
       -0.37919962944573593 -0.2191375459531076
0003a0 cd e7 41 0f 17 f0 d3 3f 4a 73 51 34 46 be df 3f
       0.31152893533692066 0.49598841771312563
0003b0 f4 96 ed 24 dc 55 de 3f d7 bf cc dd cd 8d ce 3f
       0.4739904747606112 0.23870251970356435
0003c0 6d 19 bb 6b 50 a4 d8 3f 94 a0 7f 6b 0a ba aa 3f
       0.38502893944350697 0.05220062792051397
0003d0 18 87 d7 c4 13 fb dc 3f 47 93 aa 46 90 5d d8 3f
       0.4528245374950628 0.3807106676197702
0003e0 73 5d 92 98 7e 2c d5 3f 7b e1 11 83 59 6a dc 3f
       0.33084072970947104 0.4439910678843472
0003f0 c3 01 57 7c 93 99 d8 bf 38 bd fe 56 54 fa db 3f
       -0.3843735422379064 0.4371538972436215
000400 f2 65 36 a4 5a b1 bf 3f 3f 28 29 17 c9 13 c1 bf
       0.12379995831579274 -0.13341630583664885
000410 c8 ad c1 8e df 4f d0 3f 98 b1 4d 00 ec 58 d5 bf
       0.25487507763929473 -0.3335523608173161
000420 03 90 20 a6 e8 85 c3 3f 1b 9c 7a 24 21 3e c0 bf
       0.1525240718048054 -0.12689604073713742
000430 ea 0e 4f b3 56 8b c9 3f 61 0f b7 1a c1 30 d5 bf
       0.19956477885545293 -0.3311007271661222
000440 c4 7b 40 7e 14 bf d5 3f a5 8a 34 42 44 8d b2 3f
       0.3397876007965659 0.072468057788266
000450 2a 73 3a 8b 98 c3 87 3f 24 72 72 33 fb 9d d6 bf
       0.011603538273726583 -0.3533924105084074
000460 08 b5 a9 44 53 44 dd 3f 2e d4 4f 5c 9e 7d d8 3f
       0.45729524331439153 0.3826671506388405
000470 a3 68 75 18 fb 4a 96 3f 88 ff 1f cc 3a dc bb bf
       0.021770404212795424 -0.10882918818970044
000480 da 41 39 32 c7 22 d1 3f e1 58 10 b1 38 60 d4 3f
       0.26774768738417054 0.3183728913439961
000490 1e a4 21 b7 79 02 cd bf c8 32 82 19 f4 9c cb bf
       -0.226638044757494 -0.21572734113251202
0004a0 4d 0d 4c 6f 60 1d b0 bf 55 43 27 a4 3e 26 d1 bf
       -0.06294825284208123 -0.26795927076914455
0004b0 19 36 2b 73 81 52 d2 bf 08 06 d9 5a 85 d6 d5 3f
       -0.28628574606850204 0.34121831771707933
0004c0 c5 cd b3 5a 8c 3f d4 bf 0e c3 26 d3 40 39 cb bf
       -0.3163786779179783 -0.21268472967269542
0004d0 41 3a 17 28 e9 37 d3 3f 83 58 e2 74 59 81 db bf
       0.300287522460085 -0.42976986326664973
0004e0 83 f6 8b 58 bc ad be 3f cf d6 2c b2 e0 e6 cc bf
       0.11983849679742246 -0.22579582881888036
0004f0 01 ef be fd eb bb b8 bf 96 12 74 79 b8 2e b4 3f
       -0.09661745972601567 0.07883789982958897
000500 4b 9d 05 64 2b da cc 3f a1 28 b5 7f a6 4a a7 bf
       0.225408004607042 -0.04549141224795617
000510 5e 60 5d 5a 06 1f c0 3f 6f e6 38 3f a6 bb cb 3f
       0.1259468022569789 0.21666410529160227
000520 3a ab c0 d3 94 c5 c2 3f 24 ce d1 d3 aa 83 d9 3f
       0.14665470447047274 0.3986613338995275
000530 9f 61 46 5a 97 44 c6 bf 94 69 8f 16 46 92 69 bf
       -0.17396823795276092 -0.003121506586905196
000540 24 1f 6f 38 cd 58 d5 3f 69 ed 6e f7 8a 5e d5 3f
       0.3335450221170382 0.3338954368916434
000550 d5 b2 f5 92 bb e6 da bf c1 cc a5 48 32 e0 b8 3f
       -0.42033280707873405 0.09717096589683917
000560 6f 3c bf 4a 59 32 c9 3f 5d ff d4 de 57 84 d3 bf
       0.19684902333981166 -0.30495259056987384
000570 49 85 22 1f 1d 39 d1 3f c5 89 d1 d1 79 75 df 3f
       0.26911094704162913 0.4915451573380348
000580 5d 52 f3 c7 11 12 db 3f f3 c3 9e ad 63 8f c1 bf
       0.4229778721467364 -0.13718839623973586
000590 18 be a3 79 75 b8 be bf f6 62 94 8f f8 43 d8 3f
       -0.12000211925236959 0.37914861699532254
0005a0 f0 9d 4d bb 70 30 d9 bf 0d 7b 5d f9 02 a1 d3 bf
       -0.3935815648205496 -0.30670236923280997
0005b0 e2 dc a9 b7 5a 60 d6 bf 49 73 2f 45 e3 a5 c7 3f
       -0.34963100372210765 0.1847499931162935
0005c0 dd 9e db 26 d0 7c da bf c9 e8 13 aa d9 4d d4 3f
       -0.4138679866286859 0.3172516022601824
0005d0 f1 7b 72 e5 5b 50 e0 3f 18 b0 79 2a 6c 3c dd 3f
       0.5098094445601175 0.456812898139789
0005e0 02 63 0b 6a 06 60 ac 3f 08 bc a4 a5 41 8f ba bf
       0.055420113034136534 -0.10374841970472926
0005f0 d1 7c ef 10 53 26 d2 3f c2 66 0b b4 fb 03 bb 3f
       0.2835891404519773 0.10552952905291149
000600 12 00 a9 a5 05 cb a5 3f b1 4b 7d 44 08 59 b6 bf
       0.04256456038683622 -0.08729602501016022
000610 5c 02 30 9b 26 46 a6 bf 9c ca 03 4e 4d b5 cc 3f
       -0.04350395817164518 0.22428289708439741
000620 65 57 85 6e ba 9f c3 3f c4 b8 02 ec 87 c0 da bf
       0.15331201931501962 -0.41800115631020796
000630 83 ae 8e 89 88 0e d3 bf 98 8e 94 ff 7f 94 cc bf
       -0.2977620452245235 -0.22328186015612483
000640 fd c4 14 41 3c 17 b5 3f 94 21 0d 8a 4c c2 cd 3f
       0.0823857935800056 0.23249203434739896
000650 4c e3 7e 67 d9 6c c6 bf c0 0d 5c 49 e6 02 cb bf
       -0.17519681504725282 -0.21102598745356538
000660 9a e4 dd 7b 42 55 de bf 7e 87 eb e6 82 14 d8 3f
       -0.4739538392673893 0.37625191260132584
000670 60 6c 9d da 50 b6 c5 3f bb 3b 9d e2 2c 25 d5 3f
       0.16962633776242608 0.3303940022496438
000680 7f 45 78 f6 c2 a2 db 3f 56 2c 03 db 45 e5 dc 3f
       0.4318091780597441 0.45149370563439584
000690 11 0d a4 66 a4 c7 c2 bf f7 d9 ac 40 e2 54 b3 bf
       -0.14671759616621974 -0.07551397398933789
0006a0 0e a3 4a 41 cb a9 da 3f f1 76 4f a9 dd c5 8e bf
       0.41661340118530255 -0.01502583668655741
0006b0 84 28 24 db ac 99 b0 bf 58 1a 27 f0 7a 64 b1 bf
       -0.06484489774826058 -0.06793945658783096
0006c0 b7 bd e1 c7 67 41 df 3f b2 79 25 3e 1d 4e ba bf
       0.48836702842433105 -0.10275442855115705
0006d0 cf 80 88 07 57 ae c3 bf fd 42 53 f6 e5 95 ae bf
       -0.15375793330986773 -0.05973738319301523
0006e0 c4 3c 69 cb 6f 4d d5 bf eb 2b d0 af 07 12 c7 bf
       -0.3328513609348642 -0.180237732740664
0006f0 b9 36 9c a4 9c 1a c7 bf d0 da 96 37 5d 0a c0 bf
       -0.18049963033302222 -0.1253162881309522
000700 52 78 f0 11 32 6e d1 bf b4 16 06 ac bb 95 a2 3f
       -0.2723508048237636 0.036298622845646916
000710 9a 29 e9 ef 95 e1 c9 bf 54 87 32 0e 14 6c d7 3f
       -0.20219682897943586 0.36597157846892014
000720 36 03 73 66 68 4a a7 3f e0 5a da c9 e5 c8 d0 bf
       0.045489561563505296 -0.26226181709482255
000730 82 e6 50 e1 eb 2a cd bf 5e 19 9e da f5 4c c7 bf
       -0.2278723573852411 -0.18203614401518114
000740 d6 6f 07 79 9a 66 d2 bf 0d 03 7a de d3 de a0 bf
       -0.2875124151157683 -0.032950039775647345
000750 da b7 91 01 11 1c dd bf 04 76 4d e2 c6 30 e0 3f
       -0.4548380389522869 0.5059542102787309
000760 b9 6e d9 1c 87 83 d7 bf b0 93 8e a2 22 7b bb 3f
       -0.36740281884497566 0.10734764546084707
000770 b4 dd 0e 47 66 be d4 bf f4 cc 68 ce 95 41 c0 3f
       -0.32412106456055345 0.12700150087912443
000780 ec b0 21 36 9b 2e c7 bf 9c ab c7 0e 7e aa c8 bf
       -0.18110981124062364 -0.19270301553418967
000790 aa b0 6d 02 77 8f d2 bf 62 1c 26 07 4d c6 a6 bf
       -0.2900064014163585 -0.04448166572824942
0007a0 ab 1b 14 14 b6 e9 bb 3f 09 32 3c 4f 03 90 d4 3f
       0.10903490057181268 0.32128985154921047
0007b0 ed f3 d0 8a a2 7b d6 bf b9 bc 3c b0 85 35 cc bf
       -0.35129607731124574 -0.22038336854300214
0007c0 a1 36 ca 27 70 04 d7 3f 0f 42 32 6e 5d 6a b1 3f
       0.3596458805630878 0.06802925052966934
0007d0 4b b5 f9 f5 1e 92 c6 bf b5 6e 22 6f 8c 56 d2 3f
       -0.17633425722616844 0.2865325055406445
0007e0 8a 5e 07 06 09 c4 c1 bf ce 4e a4 29 0f 42 c0 bf
       -0.13879502100347835 -0.12701596768658024
0007f0 d1 31 34 31 7f ef cb 3f f5 00 82 fb 20 cf da bf
       0.21824636366399244 -0.4188921409731983

fc1.bias f8 [64]
000000 b2 6f 1c 1b 73 4b de 3f cf 89 98 a4 b8 62 b3 3f
       0.4733550801045069 0.07572511690572202
000010 d0 b4 e6 c5 2f a8 a4 3f d8 c1 92 69 ae 54 d6 bf
       0.0403456620291337 -0.3489185362805336
000020 63 b6 15 94 32 89 d6 bf 2f 8f dd f9 ef 1d c5 3f
       -0.35212387524993555 0.16497611713850222
000030 07 1a 7e 55 be b7 be 3f 19 81 fe 87 76 17 c7 bf
       0.11999120318623833 -0.18040353432025638
000040 0b dd 00 77 b8 16 c4 bf 0c 79 ac 01 96 2d c1 bf
       -0.15694337664329114 -0.13420367318844517
000050 32 3b 66 24 79 c9 d3 bf 74 24 53 8c 09 7c c6 3f
       -0.30917194895384903 0.17566031791492132
000060 34 be ea dd 38 30 d0 3f db 54 34 b4 c3 f4 d0 3f
       0.25294324561670867 0.264939237576369
000070 a9 d5 8f 9b 07 95 d9 bf f3 2a d5 4a 12 8f c8 bf
       -0.39972105208957004 -0.1918661942857721
000080 93 3f 2c bb 6b d6 be 3f 10 c7 45 11 c6 55 d8 3f
       0.12045930213593996 0.38023521124624526
000090 de 37 79 87 38 68 ca 3f c6 ed b7 6a ea 77 bd 3f
       0.2063055669299833 0.11511101823264544
0000a0 20 0d 62 74 6b f1 84 bf b1 17 bf 97 01 9b 9c bf
       -0.010226096619823155 -0.02793505181013928
0000b0 37 36 3f f9 7d 36 d6 3f 60 b5 01 16 b2 2c d4 3f
       0.3470759328891719 0.3152280058773922
0000c0 10 92 35 d3 1b f9 cf 3f be 20 72 ad bb 07 d2 3f
       0.24978969395591877 0.2817219919020423
0000d0 00 ab 41 5a 9c 18 dc 3f 39 74 bd 23 21 0f d4 3f
       0.43900212110627024 0.3134234284423801
0000e0 8d 5c 74 2e 3e f2 c4 3f c3 70 f5 92 12 bb d4 3f
       0.16364266651428175 0.32391800261917697
0000f0 6f 12 9c ac 33 cb d1 bf 28 3c 3e 36 4d c4 d5 bf
       -0.27802745682155366 -0.3401062993734194
000100 f2 c4 88 40 d6 e3 ba bf 62 6a c6 0e 21 12 a1 bf
       -0.1050390155367216 -0.03334143929824475
000110 96 1d fb 02 c0 c0 d1 bf 72 f7 c0 a1 b5 e0 c6 bf
       -0.27738952914338577 -0.17873258970388012
000120 1d a1 c2 b0 db 14 bc 3f 06 d9 54 b8 78 ee c5 bf
       0.10969327035366346 -0.1713400745445101
000130 22 6f d2 4c bd e6 de 3f 59 d7 95 7b b7 2f d7 bf
       0.4828332185950207 -0.3622873980415214
000140 b3 60 d9 66 ef 4c c4 bf 8f 9f 64 98 ce e3 d2 3f
       -0.15859787485056173 0.2951542366231416
000150 e4 53 fe 8f bb 3f c5 3f 85 98 7b f2 6a e1 a7 bf
       0.16600746661120447 -0.04664167604441708
000160 29 0b be 79 9a 99 d4 3f 77 fc 5d 6e 2c 1b d8 3f
       0.32187520874883774 0.37665854242363345
000170 6a 37 59 04 bd 79 b3 3f d7 4a c5 4e 00 2c cd 3f
       0.07607632976688952 0.2279053101179531
000180 96 2b cf 82 8c f6 9a bf 25 87 1d 33 08 1e c9 3f
       -0.02633113430401187 0.196229004820503
000190 38 fa ea 7a ec e5 c3 bf 1d f6 99 ce 92 56 bb 3f
       -0.15545421602105747 0.10678975624065186
0001a0 f9 65 d8 15 6a 91 dc 3f bb 88 84 b3 eb 12 d6 bf
       0.4463753903706614 -0.344904828367486
0001b0 f9 ec 2f ca a6 e9 d9 bf 62 89 c5 07 0d 75 cd 3f
       -0.4048859571918935 0.23013460998033525
0001c0 6f a7 a0 04 09 88 d1 bf c9 71 42 5a ca ce 9c bf
       -0.2739279313269582 -0.028132592925077114
0001d0 7f 22 ab c1 0c 94 c7 3f 21 16 64 b2 8b a2 d8 3f
       0.18420562225789536 0.38492100163452575
0001e0 a2 e0 8e cc 87 71 a2 3f fc 61 48 a3 3f 39 c1 bf
       0.03602241870925239 -0.13455958817282
0001f0 0b 22 ba e1 68 2b c3 bf 31 32 ef cf 5c 2a 87 3f
       -0.14976225873785184 0.01131126889767939

fc2.weight f8 [128, 64]
000000 65 89 c0 90 cc 2b c1 3f 20 29 cc 86 19 59 37 bf
       0.13414914195989094 -0.00035626290518621546
000010 5c b8 98 0d 2d 22 a6 bf be 60 0e 71 87 80 ac 3f
       -0.043229492101418215 0.05566809897499202
000020 4b 44 e0 09 84 8a a8 bf 50 53 6c dc 35 8d 9b bf
       -0.04793179150159029 -0.026905862406312153
000030 b6 fc a8 4f 7f dc 7f bf 45 fb 89 b6 f5 74 9b bf
       -0.00777864199568439 -0.026813353792472645
000040 7f 24 ec a2 54 10 b3 bf 02 da b1 36 ce 78 b1 bf
       -0.07446793534849581 -0.06824959597893357
000050 89 38 18 d0 c0 3f c5 bf 4d 47 5f a1 71 8b b3 bf
       -0.16600809250707396 -0.07634649457693606
000060 e6 85 a4 31 c1 ba 6a bf e4 df 85 f8 aa 59 c5 3f
       -0.003262879688137532 0.16679894575986431
000070 a3 44 5e f5 33 db b2 3f 9a 80 19 5a 2d 51 b8 3f
       0.07365727177081509 0.09498866510102957
000080 96 aa 0d b0 3a 46 c1 3f 40 ed 3f 78 ea 31 b0 3f
       0.13495572658878946 0.06326165614875823
000090 36 25 89 88 d3 26 b7 3f 26 1d 27 d4 9a e8 b6 3f
       0.09043619235412312 0.08948676757346571
0000a0 ca 6f c1 45 78 34 bf 3f 29 9e 65 0e d7 47 b2 3f
       0.12189437582986709 0.07140869237411408
0000b0 6b 0e e6 08 fb 2c a1 bf 9f d8 e8 31 b4 e3 bc 3f
       -0.03354629977823439 0.11284948557372097
0000c0 b0 10 37 48 ff 25 a2 3f 42 38 b9 ec a2 1e a5 bf
       0.03544614559680903 -0.04124936237040845
0000d0 1d b5 78 17 d3 f9 82 3f a2 c7 7a 5c 18 57 bb 3f
       0.009265565065187215 0.10679771669199892
0000e0 f6 85 57 e5 4d 8f 91 3f 7a bc 54 d6 8e bd bb 3f
       0.01714822494785114 0.1083611748951955
0000f0 98 08 a8 15 f9 59 b5 bf 1c 1a 11 b9 46 70 b5 bf
       -0.08340412882538073 -0.08374444978935752
000100 ea 3c 50 8d b7 1e c7 3f 4e 69 63 4c 69 27 c2 3f
       0.18062490844793128 0.14182773809336385
000110 6e 96 50 92 2b b1 ca bf a7 9d 2f bb 5b 43 be 3f
       -0.20853180546071165 0.11821530647249877
000120 77 93 b1 9d db 9c b6 3f d6 b0 43 ad 05 e1 b9 3f
       0.08833096122687133 0.10108981590355212
000130 59 9d 56 6f 09 aa aa 3f 95 84 f2 b4 f1 4c be 3f
       0.05207852825270249 0.11836157481822547
000140 ba 74 b6 0f 7a 9f b2 bf ac be 03 f7 d5 b5 c3 3f
       -0.07274592288600248 0.15398668824444905
000150 ac 19 d0 dd 3b 49 b3 3f e8 ad 30 ef 9d b6 bd bf
       0.0753362099204426 -0.11606776322940215
000160 92 e0 79 9e cb 5a a1 3f ae c3 c9 bb 6f 0a 91 3f
       0.0338958388283014 0.016641374432257265
000170 81 9d e1 b6 a1 85 97 3f e4 c7 ad 53 16 3e c4 3f
       0.02297070196837359 0.15814475141411244
000180 ca 9d 34 5d 78 1b 83 bf 16 ef 90 55 a7 6f c2 3f
       -0.009329738945395589 0.14403239896807268
000190 af 23 d2 0e ec 62 be bf b1 cf a1 48 a3 ba a9 3f
       -0.11869693147504166 0.05025205861684812
0001a0 52 ca 62 7e 46 cd c0 3f c3 af 02 bf 8e 00 9b bf
       0.1312645070189143 -0.026369314583163616
0001b0 76 2f c6 38 72 4f c1 bf 70 54 b9 9d 7f b0 8c 3f
       -0.135237004968413 0.014008519173481754
0001c0 e8 d9 2f df 1a 05 b1 bf 3a e8 9c df c2 7c b3 3f
       -0.0664841456308306 0.07612245520877617
0001d0 91 e6 6c b2 f6 4c c0 bf 65 31 d1 6f 1e 76 a4 3f
       -0.12734874450852776 0.03996367564158979
0001e0 b3 56 11 7b f9 a2 a9 3f f7 89 ac 3c 99 1b 90 bf
       0.050071522019306335 -0.015730280235524998
0001f0 98 8f 13 e7 54 76 b1 3f ca 51 36 b9 70 37 ab 3f
       0.06821184770120536 0.05315735112086235
000200 e9 3e 2a 1c 5b 54 c7 3f 58 51 d9 89 42 4a 8e 3f
       0.18226183772320972 0.014790077049078462
000210 04 a1 6f 13 1e 2a b1 3f a3 8a c6 c6 fb 4b 96 bf
       0.06704891180527645 -0.021774229056641514
000220 56 e7 e6 2f 74 70 bd bf c0 29 b7 44 eb af 9a 3f
       -0.11499715966683985 0.026061702794132335
000230 ea d5 ec c8 8d e3 b2 3f 4a 49 fb ea f9 a4 8b bf
       0.07378469615363029 -0.013498260959214154
000240 c0 5f 3b 9b 0a d2 ae bf 9d cc f8 0b 28 e5 b0 bf
       -0.06019623894616144 -0.06599664966852221
000250 e0 f0 85 b5 bd 62 91 bf cb 98 60 06 11 c6 b1 bf
       -0.01697822971753815 -0.06942850499817436
000260 6c ea be b6 c2 a4 8d bf a6 04 6c df 7c 25 a9 bf
       -0.0144744121570188 -0.04911413409537006
000270 4b 56 b3 96 d9 58 86 bf e2 f2 e3 e8 6a 19 b0 bf
       -0.010911655341639867 -0.06288784204293621
000280 58 95 06 49 c3 a9 bd 3f 32 df c9 70 9c 46 b5 bf
       0.11587162525991823 -0.08310868981959343
000290 fa eb b6 45 d2 db c6 3f b1 24 d2 c1 8c b7 7d 3f
       0.17858341602354227 0.007255124886009033
0002a0 65 12 82 11 90 ee 9d 3f e0 01 1e c9 01 65 ab 3f
       0.029230357235535815 0.053504997063104076
0002b0 4e 9d ab 57 0b 10 79 3f a8 4c 29 40 d8 e8 a1 bf
       0.006118816668027561 -0.03497958930224715
0002c0 36 41 d1 d6 67 f5 be 3f a0 ce ea 3f d9 cc c9 3f
       0.12093209261479818 0.2015639841171053
0002d0 f8 1d bf 0e 52 5b 98 3f 47 d4 20 c9 4e 20 a9 bf
       0.023785860204752013 -0.04907461362055492
0002e0 06 13 cb 56 02 99 b7 3f 5c d7 39 af 32 f3 94 bf
       0.09217848414398241 -0.020458976693098804
0002f0 84 40 3e 27 02 0a a3 bf 28 75 a5 6f ea 29 c2 bf
       -0.037185733118463765 -0.14190416766624847
000300 f0 e7 0d a8 50 08 b2 3f cc 7f ab 44 72 06 c3 3f
       0.0704393778122776 0.14863422730468157
000310 de 07 73 a9 76 14 b9 bf 24 9a 05 55 50 2a b4 bf
       -0.09796849858233211 -0.07877065730790683
000320 3b df 42 b8 ec af b5 bf e1 3e cc 77 7e 22 c6 3f
       -0.08471564768376265 0.1729276738119472
000330 9f 53 c5 34 57 eb 93 bf b4 9c bd f5 6d 63 b3 bf
       -0.019452440830110992 -0.07573592423942693
000340 ae b3 96 a5 32 00 ab bf 3c 52 cc 6d f3 87 b0 3f
       -0.052735884393178764 0.06457444601648715
000350 de 42 f8 62 11 06 9a bf b3 f6 f8 d0 b3 b7 a4 bf
       -0.025413772264132876 -0.040464038142528656
000360 c2 e7 32 88 8c 91 b5 bf 78 da 64 46 fc 86 81 bf
       -0.0842521507755967 -0.008558245561841135
000370 47 d1 3f fb 00 78 81 bf 35 7b 3e 17 ea 6b b5 3f
       -0.008529670398254153 0.08367789332849614
000380 5a 98 bd 21 4b 77 92 bf bb 28 68 6a 6a 3a a7 3f
       -0.018033193525660664 0.045367551316375786
000390 bd 22 8b c4 1d e1 c2 bf 5c 62 83 05 25 12 93 bf
       -0.14749500367022064 -0.01862390371465704
0003a0 8a fa fd c5 67 5c b0 3f 1c 32 94 05 6f b2 90 bf
       0.06390999397079092 -0.01630567046690788
0003b0 5c 4e 1a df 37 da 9f 3f a3 54 6c 29 42 4b 9b bf
       0.031105874054061608 -0.026654275682706296
0003c0 e2 54 d7 f8 41 86 b4 3f 32 56 01 ba 39 a0 b4 3f
       0.08017360997412795 0.08056984702246764
0003d0 6d c7 00 a5 da a8 ad 3f e3 68 6a aa 5a 9e 8c 3f
       0.05792887939641287 0.01397391159598666
0003e0 c0 c8 fd 3e 01 b7 a4 3f a4 36 1e 35 57 50 bf 3f
       0.040458716334698774 0.12231965109659854
0003f0 e9 59 81 9f b9 9a 9c bf 8f 3b 93 88 1b f1 c5 3f
       -0.027933979378156257 0.17142051857669258
000400 c0 1b 0f 48 92 b1 a3 3f e6 36 3b 55 43 30 bb 3f
       0.03846413735987353 0.10620518523065989
000410 6e 1e 13 59 7b d4 a1 3f a3 eb 15 da d2 c6 ae bf
       0.03482423269593658 -0.060110653993397344
000420 41 4a eb 5c e3 34 b2 bf 04 5d 51 57 f8 e2 49 3f
       -0.07111950892002829 0.0007899963953929283
000430 24 1f ba 5e 8f c3 9e 3f 61 67 5c 7c 35 2c ab 3f
       0.030042877346686883 0.05307166235998185
000440 12 23 ab 3a c0 5a bd bf a9 ac 88 12 ee 5d ba bf
       -0.1146659987672474 -0.10299575760352532
000450 db 3e 7e f1 29 6d be bf d9 35 b9 bc 95 d2 c3 bf
       -0.11885320802525305 -0.15486404147161073
000460 64 54 12 ad 3e 58 ba 3f 76 f3 ea 98 de b0 b0 bf
       0.10290900922184815 -0.06519881471008468
000470 02 33 f7 16 6d cb b1 bf 9a 8c ca d6 e3 c4 7d 3f
       -0.06951028643306859 0.007267847057536825
000480 17 c1 80 b4 b5 04 c3 3f f7 14 c8 81 d4 b4 9a 3f
       0.14858123124714304 0.02608043710826721
000490 9c 11 82 b5 55 44 a0 3f 8c 30 e8 0e 1e af 90 3f
       0.03177135315584964 0.016293019924021254
0004a0 de 12 8d e6 94 93 8b 3f b6 68 b8 6b 3b 24 6f 3f
       0.01346508339487101 0.0038014565050278016
0004b0 20 63 ac 21 ad af a9 bf f5 5a 5e 20 51 07 a5 3f
       -0.05016842876484007 0.041071448518030275
0004c0 1f 46 2a 84 62 f8 c0 3f 2a f3 7d c4 fc 3c a4 bf
       0.1325801034295617 -0.03952779673179514
0004d0 a0 6b 2d 86 12 88 48 3f bc 94 58 70 7b 07 ad bf
       0.0007486429643493893 -0.05669770952617045
0004e0 df 79 d1 8e ee 9a c0 3f 35 79 99 a1 2f e8 90 3f
       0.12972814534710062 0.016510719526530344
0004f0 a2 b6 dd 36 88 83 73 3f ef a6 42 d4 a4 04 bb bf
       0.00476411064833618 -0.10553960973870934
000500 c9 ad 94 ea 43 97 b4 3f ad bc 07 18 a6 36 a9 3f
       0.08043312527723069 0.04924506228768997
000510 21 ac 6a 2a b1 8f bb bf 11 f1 6b 69 4f d9 c0 3f
       -0.10766131673396774 0.13163178107777943
000520 df dd 2b 10 6e 9b c5 bf 3e 55 f4 aa da 34 b9 3f
       -0.16880584516159922 0.09846274064724
000530 51 cc 64 4c 90 1b 96 bf ba 50 0b d0 fd 0e ac bf
       -0.021589522040084855 -0.05480187573053415
000540 d2 30 80 ed 7c 16 90 bf 2f a0 8f 30 91 04 a1 3f
       -0.015710784908194615 0.03323796956812008
000550 88 7b eb 04 bf 54 b1 3f 42 b0 8c ea fc b1 98 3f
       0.0676993739138948 0.02411647016121799
000560 ff b8 0a 1a 38 a2 a0 bf 1e 1e 04 cc a1 58 bd bf
       -0.03248763387579067 -0.11463366728650512
000570 37 5b 46 7f b7 a2 a5 3f 01 0b ff e1 2b 4e 7a 3f
       0.042257055555799665 0.006422206322840963
000580 f5 62 d4 5c e4 1f 90 bf 48 44 c1 1c d8 7a b8 3f
       -0.015746658483382487 0.09562445356392957
000590 03 3b fa d4 d2 d1 c2 bf 42 f4 cc f1 20 7f a4 3f
       -0.14702830695429023 0.040032414929080065
0005a0 be 27 71 74 64 b9 a5 bf f4 83 f9 75 88 78 b3 3f
       -0.0424300567761544 0.07605793838730773
0005b0 75 09 1b a2 e9 38 c1 bf 1f 36 09 d8 6e bb ab 3f
       -0.13454933562577379 0.054164375182704776
0005c0 79 38 66 b5 43 97 bb bf e2 eb f2 22 7c b3 c2 3f
       -0.10777686289495304 0.14610244471063455
0005d0 34 34 b6 36 12 ec b8 bf 57 f9 cb 5a d3 b0 b4 bf
       -0.09735215984092421 -0.0808231445953188
0005e0 8c b8 8a 08 d9 bb 99 3f c5 fa cf 02 93 0a 9f 3f
       0.025130644937853705 0.030313775107056146
0005f0 de fa ea 89 40 3b b4 3f 9c 05 ed 41 81 97 be bf
       0.07902911536346433 -0.11949928149717554
000600 0a eb e0 74 cb 23 a4 3f cd e4 cc d7 5b 49 b7 bf
       0.039335592286496704 -0.09096311586917523
000610 ec 69 40 72 80 3b ab 3f 2f ba 24 6a 7d 26 b3 3f
       0.05318833727524805 0.07480605927842342
000620 d5 8c 96 9f fe ab 90 bf dd 2b 2a 61 b2 41 b5 bf
       -0.016281107416614333 -0.08303370353875957
000630 03 22 67 47 99 29 b9 3f 33 95 e1 e1 85 8a 98 3f
       0.09829099648698762 0.02396592322511033
000640 fb c5 21 17 1e 43 a3 bf e3 0c 43 9e 33 37 bf 3f
       -0.03762144119617613 0.12193606008354467
000650 fe e1 8f 1b 38 6f c3 bf b0 c5 29 a3 5d 0d 4f 3f
       -0.15183163972666586 0.000947638245930962
000660 82 3e a1 f9 cf 3b c1 bf bc 78 ce a0 9e d3 bc bf
       -0.134637829675274 -0.11260405946674984
000670 61 92 21 f3 21 fc a6 bf d4 3c 76 22 c5 0d 97 bf
       -0.04489236920270368 -0.022513466099152904
000680 10 85 e6 67 a2 06 ad 3f ec ff d9 f8 9d af a8 3f
       0.05669124143902071 0.048214851977718215
000690 13 a6 ba 64 ad eb 92 bf 4f 13 a1 ef fd 09 a0 bf
       -0.01847716262151351 -0.031326232434855876
0006a0 e8 c1 43 7b 86 1a b9 3f 9f 3e e8 03 4c a9 a0 bf
       0.09806099423781911 -0.0325416331071413
0006b0 7f c8 4a a8 56 da 97 bf 63 02 56 9d 8c 0f a2 3f
       -0.023293832799659683 0.035274881559421066
0006c0 40 b2 a7 ea 17 2c 9f 3f d3 7d 06 80 f0 8d a1 3f
       0.030441640565117334 0.034286037090392484
0006d0 19 80 bf fb 8e 6d b2 3f b8 d4 f5 16 aa 4e 8a bf
       0.07198423048203074 -0.012845352960292863
0006e0 f7 a7 b5 db fc 05 b5 3f 70 7a f9 fd 1a da b1 3f
       0.08212261547092213 0.06973427486944117
0006f0 5a 1a 83 13 9f b5 b6 bf f4 5f 93 73 2a f9 ad bf
       -0.08870882250185144 -0.05854160939060185
000700 41 f8 45 c6 f9 b2 b8 3f d4 de 10 2d f5 ec a8 3f
       0.09648095217377863 0.04868284392472125
000710 ae 89 b2 7d aa 08 c0 bf 18 8e 5f 2c 84 36 bc bf
       -0.12526446473664293 -0.11020685275394049
000720 bb d2 cf 2f 60 2a c0 bf 61 fd 39 1f 54 4e a5 bf
       -0.12629320463715552 -0.04161322480376373
000730 20 96 e2 b0 cf 7d b3 3f ff 8b 68 1d ba 88 a8 bf
       0.07613847797855344 -0.04791814431180085
000740 e1 45 af ba 9e dc c1 bf 7c cf 8d a3 03 76 bc bf
       -0.13954528918706813 -0.11117575400368013
000750 80 af 29 16 34 d0 b6 bf 94 e5 2b 06 58 31 83 bf
       -0.08911443272671526 -0.009371459663713812
000760 81 d6 09 98 d1 23 a3 3f 01 47 7c 61 53 9f a4 3f
       0.03738265019357546 0.040278058672027946
000770 04 41 a7 8f d1 58 b3 bf 97 c9 ca 5b b2 10 a3 bf
       -0.0755740142551567 -0.037236760811896356
000780 b6 5f 7f 6e 27 25 ac bf d3 26 b3 37 3a a4 83 3f
       -0.0549709627518377 0.009590582680533732
000790 a7 24 14 f7 8b c5 aa 3f 6d 8c bc 7e 64 88 b0 3f
       0.052288412009212686 0.06458118528512254
0007a0 fb ce 4e e0 76 61 ab 3f 4d 8a 02 8a 06 0e b6 3f
       0.05347796905644305 0.08615151280768281
0007b0 6e 82 b1 02 c7 4f b1 3f cf 5a 89 4f 9c 2f b5 bf
       0.06762355628735303 -0.0827577299290667
0007c0 7b 8c aa 07 81 19 ac 3f a5 19 52 65 e8 0a b1 bf
       0.05488208025533311 -0.06657268975877757
0007d0 7d 58 38 38 fa 66 ac bf 7f 70 b6 34 91 f8 bd bf
       -0.055473155367665485 -0.1170740846341136
0007e0 e5 36 06 5c 81 01 ac bf a6 0c 56 d4 cd 4b 94 3f
       -0.05469898460715487 0.019820419392556098
0007f0 33 70 ec 64 7b db 7b 3f 3a 96 43 ba 68 4a a1 bf
       0.0068011112296311625 -0.03377082132082561

fc2.bias f8 [128]
000000 9a dd 5c 46 4e d0 c0 3f cc 1d 5d b5 37 88 c2 3f
       0.13135698733979667 0.14478203158999603
000010 01 b1 2f b8 d4 1c b7 3f c3 8b 47 be 17 4d ae bf
       0.09028367516265591 -0.05918192098376764
000020 93 6c 8d 7f cb ed be 3f c2 89 d4 58 cf f5 91 3f
       0.12081596244881813 0.017539253041044985
000030 ae 66 bc ea 63 71 aa bf 80 bf e5 f2 d1 a6 c4 3f
       -0.05164634933880784 0.1613409458182069
000040 c5 a1 53 26 b3 fa c3 3f c1 2c fd 8b 64 c4 c7 bf
       0.15608825084133407 -0.18568093142889633
000050 22 c6 d6 20 04 9b b7 3f 41 f9 d4 07 0c 5c b1 3f
       0.09220910836918297 0.06781077567300021
000060 ff da b7 7d 5c e8 b5 bf b1 8c 4c c9 06 90 b0 3f
       -0.08557680196086535 0.06469767012144946
000070 be 9d ff 77 5d 29 af 3f ac be d5 92 a7 c9 82 bf
       0.060862465761427384 -0.009173688095614217
000080 3e fe 1d d4 a2 7c c7 3f bd 28 7f 7e e1 b9 a4 3f
       0.18349109036715733 0.04048065823697431
000090 f5 e9 54 dc da 32 9a bf b8 ed 02 47 aa e8 7b 3f
       -0.025584621141414094 0.006813683649109441
0000a0 35 72 8e 8f ea 60 c7 3f c5 de d4 83 93 28 86 bf
       0.18264514932242695 -0.010819580517462577
0000b0 da 00 50 43 09 49 a6 bf ef 42 cf c5 9d fa b5 bf
       -0.0435259718578906 -0.08585535125099474
0000c0 ca 69 3e 8c 13 ab 8c 3f 4f 8f 2b 48 7c b4 bf 3f
       0.013998177258874107 0.1238477398106259
0000d0 22 30 d3 f5 3b 84 a1 bf e9 00 6d 0b 5c 10 b7 bf
       -0.034211992032936914 -0.09009337691259457
0000e0 d3 8c e5 00 f4 5e 99 bf 04 bc 62 b8 05 7f be 3f
       -0.024776279978493698 0.11912570716479826
0000f0 e3 db 94 54 c3 69 a5 bf 2d 01 fe a2 17 bc 79 bf
       -0.04182253272522709 -0.006282894450009996
000100 fd 60 ce c5 0b de ba bf f6 54 12 34 7e 55 b4 bf
       -0.10495065287830481 -0.07942951937942042
000110 85 ea 35 b4 cd d2 c2 3f 9a 03 52 d1 c5 66 b6 3f
       0.14705821322771243 0.08750568733559164
000120 44 87 f5 96 a2 25 ac 3f 6a c1 d5 8f a7 17 c3 bf
       0.05497463314783471 -0.1491593792266131
000130 74 ba da 1f 61 6e 84 3f 26 06 c9 d2 2a 70 63 bf
       0.009976156983012553 -0.002372821463979563
000140 cd 6a e0 d8 83 f9 bf 3f 64 94 5f ec 1f dd a9 3f
       0.12490104718055335 0.05051517258088081
000150 b3 b9 da 7b 6c c6 a8 3f 51 26 69 65 b1 84 a3 bf
       0.048388853186554746 -0.03812174189495166
000160 ba 6e ab f2 73 c3 53 3f 5b 8c cb 7d c5 a7 90 bf
       0.0012062675765979595 -0.016264997294353694
000170 8a 9d da 34 c7 66 c3 3f 10 6e a7 da fe df a5 3f
       0.15157404022941662 0.0427245752250337
000180 3b 19 c9 81 d9 e5 b0 3f 02 15 94 6c 22 c5 b8 3f
       0.06600722712127986 0.09675803328362423
000190 8b b5 d8 6c 03 2a b4 3f 47 46 d8 c6 9c 8e c3 3f
       0.07876607329736467 0.15278968533725587
0001a0 8d 7c 94 5a ba 71 c0 bf 99 97 86 d8 0f ec c3 3f
       -0.12847070143559272 0.15564153740450307
0001b0 13 cd 60 38 7e 45 b5 3f 3a 92 e8 87 54 f4 93 bf
       0.0830916297571103 -0.019486733241267575
0001c0 a7 2a be e5 04 8b c3 3f d2 07 eb 85 1c 0a 9e 3f
       0.15268002717887905 0.02933544700022834
0001d0 d5 0d ca 77 a3 6e c3 3f fd 10 0a da b6 07 be 3f
       0.1518139204891741 0.11730521033502224
0001e0 d2 1d 5d eb e5 a3 80 3f 15 3d 49 18 45 c5 a3 bf
       0.00812511086009141 -0.038614424910173785
0001f0 26 83 47 b3 50 40 c0 bf 16 5b 8c f7 d9 95 b3 3f
       -0.1269627452266146 0.0765053014150506
000200 5b 1b f0 28 a5 b4 b3 3f 0b f4 52 a3 80 ec 49 bf
       0.0769751763292396 -0.0007911327471884511
000210 ee 17 55 17 59 23 bf 3f 20 26 af e5 35 77 bb bf
       0.12163311786306938 -0.10728775842212501
000220 2f 33 16 48 9d 7d 8f 3f 4a c1 c1 7d 25 e5 af 3f
       0.015376309168254913 0.06229512367360941
000230 76 67 8b 41 ab 98 91 3f 87 c1 c3 d5 4c fc b0 bf
       0.01718394839813394 -0.06634979456771904
000240 5c b0 96 ed ca e2 b6 3f f0 20 89 ea 49 10 ad bf
       0.08939808178428293 -0.056764898185578505
000250 4f d5 a1 72 7d 17 ba 3f 5b ea 10 ec ec 12 86 3f
       0.10192092941891427 0.010778284982838551
000260 d0 56 2b 79 94 bc b4 3f 29 61 fb 67 6b cd b3 3f
       0.08100250204310133 0.07735320366498812
000270 75 c5 a3 f5 57 ed 84 3f a1 95 75 91 15 b9 c0 3f
       0.0102183219755456 0.13064832308297716
000280 94 fe d9 be e9 1f ac 3f a9 31 e8 ad 00 18 a4 3f
       0.05493097738962863 0.039245625714190276
000290 cb 5b 98 12 a2 75 b2 bf a9 46 8d 2e 31 1f 7f bf
       -0.07210743860228701 -0.007598106495451931
0002a0 2c 56 fd 4b 03 b6 a7 3f e2 c2 83 ff 44 20 bb 3f
       0.04631052305800795 0.10596114385749503
0002b0 c8 6f f4 0f 2d 16 a3 bf da 5f 36 51 12 09 bd 3f
       -0.03727856464158169 0.11341967089390384
0002c0 1e 34 18 a0 ee db bd 3f 0a 3e 40 60 55 48 af bf
       0.11663714798506006 -0.06109873580873788
0002d0 4b 61 d7 05 3c 11 95 3f 05 75 56 8b bb 7b a8 bf
       0.020573556763197314 -0.047819004782676124
0002e0 97 61 e7 16 13 1b c4 3f 85 96 74 f8 b0 16 8a bf
       0.15707625025130476 -0.012738592703111404
0002f0 c5 95 7f 75 df c4 ac bf 0f 40 7a 06 c6 e2 a0 3f
       -0.05618952092462907 0.03298014477798016
000300 62 c4 52 ff 84 07 bd 3f cc 9f c2 a0 0e bc 9f 3f
       0.11339598878363824 0.03099081855967238
000310 cf 81 34 5d 4b d6 bc 3f ed 3d cc 90 05 9b 96 3f
       0.11264487290873791 0.022075736010320247
000320 73 50 76 b8 77 55 c2 3f 67 f6 91 88 5b 7b bd bf
       0.14323326594297078 -0.11516353687508173
000330 2d 04 30 0b 89 5c c4 3f 0f ee 75 15 27 c1 ba 3f
       0.15907395406978378 0.10450977586690889
000340 40 e7 24 91 39 40 bc bf dd 06 f5 5e 3d bf 8d bf
       -0.1103549937587589 -0.014524917087899986
000350 2b 9b 0d 7a 28 2d bf 3f 16 70 18 7f fe 2d 9d 3f
       0.12178280811131674 0.02849576616982582
000360 aa d5 73 a5 4f eb 94 3f f5 dc 76 43 27 89 99 3f
       0.020428890679757984 0.02493726109761681
000370 82 25 43 71 31 69 ae bf 1a 40 1c 1d c6 81 97 3f
       -0.05939630992504431 0.02295598557162757
000380 43 e5 18 b1 5c 75 c5 3f 59 09 a5 a4 76 63 c4 3f
       0.16764410636259627 0.15928538359919278
000390 fc a0 a8 2d 12 4f aa bf 17 6b b4 8a a2 e9 a9 3f
       -0.05138451392514473 0.05061061804936722
0003a0 d4 4c 4b 20 ec 7d b1 bf d5 a8 b6 67 5e 6a b2 bf
       -0.06832767284804514 -0.07193555862491803
0003b0 9e 88 17 ac ad 23 bf bf af 25 f1 1b 5a 8a ac 3f
       -0.12163815928900809 0.05574304190720213
0003c0 bf 60 e4 bc 88 ca aa bf f0 93 7d e9 d4 51 a3 3f
       -0.05232646280109198 0.037733701231253636
0003d0 04 a1 ea 63 88 cc b9 3f cb 39 9e f2 4b ee b3 bf
       0.10077717246406698 -0.0778548686341544
0003e0 26 a1 54 39 07 4d c1 bf 6f f4 29 2b cf 66 b9 bf
       -0.13516321467728537 -0.09922499469571887
0003f0 44 5b ca 34 0a 7b b0 3f a6 42 2e d7 5c 51 9c bf
       0.0643774393923709 -0.02765412391051094

fc3.weight f8 [64, 128]
000000 c2 b7 e0 8f 27 21 ad 3f 7d 30 0f fa a8 cc c1 3f
       0.05689357405968522 0.13905822954109573
000010 d0 a5 d7 9b 30 75 8c 3f ca 81 bc 3a e1 3f b4 3f
       0.013895396953517741 0.0790997284316354
000020 64 25 8b a7 43 51 4e bf 44 09 e8 57 fd c5 ab 3f
       -0.0009252148002697855 0.05424491594387118
000030 98 70 e0 eb 2c c9 80 bf 34 cc c4 3d 06 87 b1 3f
       -0.008196211765657588 0.06846655853296185
000040 da 03 f7 83 d4 a7 bb 3f b7 b3 d2 ac 05 0b c1 3f
       0.10802963468360308 0.1331488698828289
000050 3f e5 4d f0 3e af bb bf 6a 75 47 f4 6f c7 a9 3f
       -0.10814278952411359 0.05034971100733794
000060 ff 21 75 e9 bc 0d a9 bf 7a 0f 67 b9 48 f1 a0 bf
       -0.04893293714355095 -0.03309085143294417
000070 b7 4a af 9f 40 8b 83 bf 98 05 d3 5b 72 37 bf 3f
       -0.00954294669455656 0.12193979970745372
000080 0f e2 b6 a3 f7 54 c2 3f 0e eb c3 ae 63 d3 7b 3f
       0.1432179974924712 0.0067933935026711755
000090 42 05 f7 4a 4b 4e b5 3f bd 95 d2 a8 b4 6c 92 bf
       0.08322592334936466 -0.017992804340470892
0000a0 33 b0 b8 dd 36 7b c2 3f e7 85 61 bc 8e 64 bf 3f
       0.14438520265810126 0.12262813662666582
0000b0 3c c6 cc 35 75 d5 b6 bf 84 0d 03 d3 8b eb bf 3f
       -0.08919460834001652 0.12468789960535359
0000c0 d9 da 44 07 5e 35 92 bf f5 72 a3 5d c6 9e ba 3f
       -0.01778170508733976 0.10398521219344643
0000d0 ee f8 51 af 20 89 52 3f 49 db ae 1d 91 42 a7 3f
       0.0011313265979704906 0.04542973983136862
0000e0 ba 0d 5b 47 b3 da a5 3f c6 2c b4 50 4f bd 84 3f
       0.04268417593041414 0.01012670483625867
0000f0 c3 d6 d2 ca 4a 14 70 bf f0 18 e1 ba 1e ac c2 3f
       -0.003925602109281892 0.14587768673863577
000100 9c 1b a4 f1 9b bc 8a 3f a5 de b4 58 44 e7 b0 3f
       0.013055055915641316 0.0660288540428789
000110 c0 01 fb c4 8f 86 9d 3f 56 5a 04 4f 87 e0 ad 3f
       0.028833624265418356 0.05835364188731222
000120 1f dc 7f d1 6f a0 bf 3f 74 c0 06 82 9d bf b2 3f
       0.12354182114346245 0.07323631691429161
000130 89 08 80 c5 50 29 c1 3f 97 ed 76 96 58 2a bd 3f
       0.13407334941445395 0.11392739938212625
000140 4b 99 f5 82 b4 91 b4 3f f1 07 84 ec 9b 05 95 bf
       0.08034828374147655 -0.020529209433341526
000150 99 10 19 8c 55 be af 3f 3b da 04 96 03 cb 91 3f
       0.06199900946788368 0.017375999480657916
000160 bc a9 5c 22 bc 07 ae 3f 12 17 44 3f 5a 38 ac 3f
       0.058652762598586844 0.05511743566789397
000170 37 c1 ed 14 d2 ae b9 3f 63 20 2d 70 42 91 a4 3f
       0.10032380114512739 0.040170742219346044
000180 6d 58 cb 2c a7 69 a0 3f 3a 94 00 d6 2b 96 8a 3f
       0.032056068628364943 0.012981741398173086
000190 86 f9 d8 68 aa 4d 94 3f 86 4c be 21 12 40 b0 3f
       0.01982752098978715 0.06347764324009306
0001a0 9a fa 4e ae cd 4c 86 bf 10 d2 a9 70 6e 28 a3 3f
       -0.010888678438161482 0.03741784215245414
0001b0 6f 85 86 55 9f 89 95 3f 12 fe 5a d5 fe 22 bd 3f
       0.02103280028825821 0.11381523808358221
0001c0 01 3d c9 15 91 6a 92 3f 19 8a 0b e7 74 b8 b6 3f
       0.017984644846646528 0.08875208512066769
0001d0 8c bc a0 88 e1 48 be 3f fb 83 16 38 f9 74 b7 3f
       0.118299575668731 0.09162862414679289
0001e0 b4 41 88 c0 9c 25 9e bf 37 77 02 f9 1b 0d 8c bf
       -0.029440354586826437 -0.013696878945036779
0001f0 9a 93 b2 4d cf 77 bb 3f 1a 0e 21 1a 19 c7 9e 3f
       0.10729690215028001 0.03005637380580426
000200 e2 aa 63 d6 06 b2 bc 3f 20 21 8c 15 56 c9 84 bf
       0.11209147199739847 -0.010149643452237955
000210 b8 1d 36 25 99 61 91 3f 4a f3 5b ed 23 47 96 bf
       0.01697387017841631 -0.021755753862623885
000220 21 99 79 17 89 cf b8 3f 7c ce 57 cf c4 1d a5 3f
       0.09691674063796941 0.041242742834495666
000230 a9 ff 49 9c 33 7b 8b bf b8 48 b9 12 4a 7d 58 bf
       -0.013418582160056607 -0.0014947150583748802
000240 2e 37 51 c7 ea ef b4 3f b1 78 60 9d dc b5 b0 3f
       0.08178584447997814 0.06527499048431441
000250 35 2e 52 3b cc ba b0 3f 19 98 ca 8b eb 58 c1 3f
       0.06535030792490988 0.13552612615347995
000260 fb ce 68 5b 4d 2d a1 bf b0 54 26 15 fe 11 22 3f
       -0.033548753174185784 0.00013786532015261843
000270 fe ef fb d5 fa 74 98 bf dc a6 f8 67 91 31 82 bf
       -0.023883742628626685 -0.00888360594315734
000280 eb dd 94 ab 38 9a b3 3f 40 96 c6 33 1d 9b 7a bf
       0.07657198132516611 -0.00649558455589766
000290 59 bc 8a fb a9 b7 71 3f 61 86 49 6e 99 fc b8 3f
       0.0043255462593797195 0.09760436003264196
0002a0 48 26 31 2f 7c 80 76 3f e3 ca 59 c3 e9 8c 82 3f
       0.005493626685230853 0.009057832979328
0002b0 3a 6b 60 00 a0 5a 88 bf e9 3f a0 f3 fc 31 a7 3f
       -0.011891603480810187 0.04530325387906926
0002c0 89 43 6b 5a 8c 37 b0 3f 56 00 3b 59 51 90 c4 bf
       0.06334759910101985 -0.16065422875363095
0002d0 e2 2a 0a 40 f2 63 b3 3f ed 76 40 3c f3 43 83 bf
       0.07574380935163164 -0.009406948353042089
0002e0 ea 20 f5 81 7e ee 51 bf 59 81 a7 bc 07 4d c2 3f
       -0.001094459097503326 0.14297577582966417
0002f0 f1 55 b0 4b ac 9d c2 3f e7 b2 8c 45 37 7f aa 3f
       0.14543679900877707 0.0517518303298397
000300 30 c3 34 03 0c ae ab 3f 95 f6 da a1 e7 6a b0 3f
       0.0540622476495457 0.06413123799844762
000310 5f a7 fb 9e 77 4f b8 3f 37 51 b4 a2 53 a8 b0 3f
       0.09496257430478526 0.06506846163057821
000320 dd 23 86 f5 27 cb c4 3f 89 f1 7d f6 c1 9d 90 bf
       0.16244983185268227 -0.016226797742534358
000330 c0 32 65 8e 45 4a c3 bf 22 5f 2f 9d c9 19 b6 3f
       -0.15070409253021033 0.08633098685765764
000340 30 8e 33 a1 14 1a a7 3f 67 7d f1 e8 92 1b ab 3f
       0.04512085407057176 0.05294474690958389
000350 ad 9d 21 fb 73 30 b0 3f a3 df 34 f7 42 76 ac bf
       0.06323933488021423 -0.0555897642865937
000360 96 33 c0 00 63 3b 68 3f 78 7d 3e b9 e0 39 44 3f
       0.0029580052996664536 0.0006172511370898101
000370 05 d2 9c 49 74 55 aa 3f 5d 17 84 bd f5 00 aa bf
       0.05143321417418537 -0.05078857363154896
000380 80 73 ff 93 4d df 87 3f a2 13 c6 42 18 3a a6 3f
       0.011656385497127664 0.043411977912035896
000390 46 70 f2 4f bc e1 b4 bf 7c 5f 7d 5d 7a ba 82 3f
       -0.08156945182639772 0.00914474103744544
0003a0 71 5c 39 39 45 e8 c2 bf 44 65 f8 a6 14 56 71 bf
       -0.1477133302130116 -0.004232483551754488
0003b0 cc fb c5 68 8b 1b 7b bf fe f2 bd 18 f3 cb c0 3f
       -0.006618065421547702 0.1312240477381223
0003c0 fa 92 66 03 08 80 75 bf 32 e0 89 d3 45 cc 97 bf
       -0.0052490532893087975 -0.023240176235475647
0003d0 b3 ee 5a 26 60 eb 95 3f 69 f9 eb 51 b2 a2 c2 3f
       0.021405699101463237 0.145590105057589
0003e0 49 77 e8 e8 96 75 92 bf a4 ef d9 a4 32 f8 bb 3f
       -0.018026693311291173 0.10925594830217605
0003f0 4b b3 ee 85 3a 9b a7 3f d8 73 82 1d 27 94 9e 3f
       0.0461061752788284 0.029862033058282694
000400 ed 58 ef 3d 81 37 68 3f e6 32 71 5b 5b b4 7e 3f
       0.0029561542755614984 0.007496220459029179
000410 a8 f1 25 59 6b 1d 91 bf 9e 9c d6 3f 1a 12 94 3f
       -0.016713788334060148 0.019600305696851998
000420 82 ca b7 97 f5 cc ad 3f 66 8a 86 4f 8c fc a8 3f
       0.05820434071565207 0.04880178900500169
000430 28 46 bf 42 81 bf 96 bf 54 38 aa 37 46 b9 88 3f
       -0.022214908312724685 0.01207213265777455
000440 2b 58 1e bb 93 1a c2 3f 90 a4 76 61 2b c6 7f bf
       0.14143606793067084 -0.007757348495411112
000450 45 8b cf 4b e9 0b bd bf 0f b7 a4 40 4e 63 bc 3f
       -0.11346300221297863 0.11089028433044866
000460 a6 6c 48 54 db 19 b5 3f 8f 53 66 be 41 ac bb 3f
       0.08242579276741199 0.10809718035154801
000470 ce 27 8b e9 a5 74 b8 3f 3d 68 f5 8d 83 e0 9c 3f
       0.09552990867373909 0.028200202502695716
000480 7a db ff 0c 6d 28 a7 3f 79 ec 60 7f 8a da b4 3f
       0.045230300747724564 0.08145967111424736
000490 3d c1 dc c9 c3 26 be 3f 70 1b 60 f5 31 e4 c1 3f
       0.11777900388984093 0.13977646332952132
0004a0 32 1d 5c 80 7e 82 97 3f ae b1 18 49 d3 9f ae 3f
       0.02295873316236658 0.059813120530040606
0004b0 30 8f c3 18 3f 40 c7 bf ac 38 48 ed 8c ef 6d bf
       -0.18164814671683294 -0.0036542656400860487
0004c0 b2 ca 8a ae 21 4c ad bf 7b 8e a1 6c ea 30 bd 3f
       -0.057221462780394985 0.1140276446545218
0004d0 f5 eb 23 c7 20 06 c1 3f 77 ab aa b1 d7 ee a4 3f
       0.132999512897953 0.04088472408087445
0004e0 bd f8 aa cb 32 04 c1 3f ab a7 ae fc 4c b0 c1 3f
       0.13294062561721445 0.13819277132034577
0004f0 44 21 0f 6e 55 64 c0 3f fa 1a 35 bb a3 3b 99 3f
       0.12806194185237463 0.024641569424853828
000500 7f 84 2a c1 8e b0 6f bf 32 aa a2 76 e2 c0 ba 3f
       -0.003868368928423182 0.10450568577167799
000510 11 97 1c 4e 58 b8 c0 3f b7 89 2c 75 d8 ad 97 3f
       0.13062576116606597 0.02312410559819408
000520 82 39 9e 19 35 ba c2 3f e6 36 21 96 a8 17 87 3f
       0.14630759955293732 0.011275593835445585
000530 f2 ab 06 b3 0c 24 a5 3f ca e9 1b 5c 0f 95 71 3f
       0.04129066167237018 0.004292545317861893
000540 fc e6 87 98 52 cb b9 3f 1f 88 66 4f 83 9e c3 3f
       0.10075870727441932 0.15327493073442697
000550 12 51 1c 46 07 cd 54 3f 4e 10 59 6a 30 77 af 3f
       0.0012695857080347634 0.06145621584121895
000560 4a a2 99 16 53 16 a5 bf a6 08 11 06 07 40 92 bf
       -0.04118594790344739 -0.017822370286247356
000570 c2 e7 d7 1d 21 f1 b9 3f b0 ec ba c4 d2 4a 73 3f
       0.10133559206579348 0.004710028948177555
000580 8c 08 84 6f d1 ed 85 bf c1 66 91 4c df 8e 9e bf
       -0.010707508292856958 -0.029841889427507654
000590 56 ac 20 6c ef 1f c2 3f a4 13 94 cb 16 f6 c4 3f
       0.14159958629292885 0.16376004162171143
0005a0 5c 72 5e 75 c1 83 90 3f 26 75 2b 76 b6 3a b1 3f
       0.01612760809767831 0.06730213532451454
0005b0 50 b2 07 7a db d2 c2 bf bf 4e 30 11 5c b8 a1 3f
       -0.14705985506533858 0.03460967740843789
0005c0 44 eb 6d 98 ad 2b c1 3f dc 70 d8 8c f8 46 96 bf
       0.13414545004692446 -0.021755107494855305
0005d0 5d dc 80 8b 1a 24 a7 3f d2 e4 10 72 21 fe 9f 3f
       0.04519732430383592 0.031242868983302703
0005e0 f3 73 50 ba 3d 29 bc 3f 6e 00 33 42 36 0e 99 bf
       0.11000428961456503 -0.024468276777725277
0005f0 f0 4c dd 6b b5 29 68 3f d4 16 39 b8 e5 9d b4 3f
       0.002949575747075543 0.0805343222392268
000600 e0 28 0e 9d 59 0d 9c 3f 9c 60 cf 76 c1 b9 b2 3f
       0.027394676409621677 0.07314690733562873
000610 b9 41 84 36 51 e3 af 3f a7 93 24 0a 85 c4 c1 3f
       0.06228116789327793 0.13880980487115588
000620 84 10 06 84 f9 fa b4 3f 69 36 49 3d ae 22 93 bf
       0.08195456956133468 -0.0186869835763929
000630 84 42 16 b7 64 10 ba 3f 7c d0 c5 77 02 c6 ae 3f
       0.10181264371773052 0.060104443665211144
000640 84 6d bc c3 d0 07 64 3f f6 7d cb 8a 7f 85 87 bf
       0.0024451329644656367 -0.01148509638136284
000650 ea dd c2 59 77 3f b2 3f df 46 aa 89 e8 0c b1 3f
       0.07128091756282343 0.06660321579900196
000660 be ad be 56 0c 2a c1 3f c7 0a 51 21 c7 a0 81 3f
       0.13409570918643782 0.008607440666428613
000670 55 e9 1e cd 6d 52 89 3f 20 c5 e6 81 58 4c 83 bf
       0.012364251920975159 -0.009422961677815922
000680 0a 5f 13 e1 a5 62 b3 3f 0a f3 4d 69 70 b2 a2 3f
       0.07572399849902581 0.036517632345725984
000690 00 5a 16 d1 9e 4a 72 3f 94 61 75 de 61 76 9f bf
       0.0044656947879020414 -0.030725030138769663
0006a0 4c 89 c4 4d 3c 31 80 bf b6 5d 9f 5c 65 ae be 3f
       -0.007906409381182165 0.11984857093135912
0006b0 b9 27 81 5f 13 10 af 3f 96 f6 f2 11 b2 e0 a0 3f
       0.06066952267481391 0.032964291277932364
0006c0 39 32 c0 9a fc c2 83 3f ee 14 60 d8 0e a4 c1 bf
       0.009649251434916116 -0.13781915250016347
0006d0 49 cd 6e b8 41 25 9a 3f 7c 10 e4 fd f6 68 aa 3f
       0.025532748109708767 0.05158206795934547
0006e0 5e ca ef a0 a4 24 c1 3f e6 4b 6d 37 61 75 b4 3f
       0.13393075807796867 0.07991607287594568
0006f0 d2 04 ed 8b 06 25 ae 3f ef 77 f5 f6 a6 1f 7d 3f
       0.058876232701103995 0.007110264020722553
000700 3f 3f 96 d9 ca c6 a3 3f 9c 29 6d 6f a4 b7 ad 3f
       0.0386260405167591 0.05804170475183243
000710 e4 16 b5 e0 c2 c3 ac 3f 87 ee 14 c4 49 cc 9b bf
       0.056181039743518985 -0.02714648494041552
000720 6c 7b 11 01 1d 77 b7 3f f6 35 42 fd 59 bf a8 3f
       0.09166127468186652 0.048334896245346856
000730 0b 08 ae 1a 5f 4e a5 bf 8e 2b cf b7 a0 f2 a1 3f
       -0.041613552100003025 0.035054228246358496
000740 93 8f 79 ba 7a 3d b8 3f 72 8e b6 52 ed a8 96 3f
       0.09468810131653375 0.022128780530364663
000750 e5 f6 bb b3 0c 76 c1 3f d4 4a c0 21 d8 24 a3 bf
       0.13641508842550035 -0.037390474433910775
000760 10 e0 b9 20 c7 75 bb 3f e9 bb 6d be 18 d6 b3 3f
       0.10726589726425595 0.07748560570847442
000770 06 36 15 c1 13 db 71 3f 39 76 b4 bf a5 ed a5 bf
       0.004359318890533986 -0.04282873120449122
000780 57 74 d0 d9 91 81 8e 3f b0 91 1f 82 a2 8c a4 3f
       0.014895572147049103 0.040135458358949605
000790 e9 8e 70 7e 0b 73 9d 3f a8 19 f7 a5 c2 75 b9 bf
       0.028759173958078064 -0.09945313026319147
0007a0 7a 56 da 28 9e 69 c0 bf ca aa 6c db 82 3f b9 3f
       -0.12822319979447966 0.09862535340350145
0007b0 ed 28 b9 ae 9b 58 a4 bf a8 99 3c 23 43 fd ba 3f
       -0.03973852641918705 0.10542697534820056
0007c0 14 48 4f 48 4b 20 78 3f ac 60 f6 33 0f 08 a3 3f
       0.005890173027141916 0.0371708632403068
0007d0 22 2a af 01 4b 09 a8 3f 3d 87 f7 8a b4 a0 c6 3f
       0.04694589992103128 0.1767793348836281
0007e0 34 e5 bd f3 33 67 53 3f 18 3c f6 50 d9 19 c4 3f
       0.0011842734665761913 0.1570388455697589
0007f0 56 e2 fc d6 1f 2e be bf 70 78 59 37 ca b8 ad 3f
       -0.11789130209661755 0.05805046010640147
