src/backend/controller/checkpoints/checkpoint_epoch_95.pth (torch, 420207 bytes, 25 tensors)

fc1.weight f8 [64, 5]
0	0x3fc5fa6f179f14e9	0.17170513776196764
1	0xbfddb30bdb7b98eb	-0.46405311998240845
2	0x3fcfe7ccb336c8ae	0.24926146269496513
3	0xbfc7dc2bdbabf958	-0.18640659547959149
4	0x3fbb4d675d8b9fc8	0.10664983781646165
5	0xbfc4288740000000	-0.15748682618141174
6	0xbfd24cb4a0000000	-0.2859317362308502
7	0xbfdac41960000000	-0.4182189404964447
8	0xbfce277ec0000000	-0.23558029532432556
9	0x3fba497600000000	0.102683424949646
10	0xbfcda436b983c2ac	-0.23157390650114473
11	0x3fb0d1299c432c06	0.06569156708717125
12	0xbfd9c0a8a998145a	-0.40238396226806616
13	0x3fda2ceb5f685a93	0.4089916640963704
14	0x3facdab0779da736	0.05635596714166839
15	0x3fd2b3e300000000	0.29222941398620605
16	0xbfc07d2140000000	-0.12881866097450256
17	0xbfd1032180000000	-0.2658160924911499
18	0xbfd7520880000000	-0.36438190937042236
19	0xbfb5e70380000000	-0.08555623888969421
20	0xbfc4ff4bc0000000	-0.16404101252555847
21	0xbf8a2da400000000	-0.012782365083694458
22	0x3fd9654240000000	0.3968053460121155
23	0x3f93ab9800000000	0.01920926570892334
24	0xbfda0d1c40000000	-0.4070501923561096
25	0xbfc38a2311a2830c	-0.1526531063182336
26	0x3fd6cfc83d493b5f	0.35643201813666353
27	0x3fd837bb1e5ebb1e	0.37840154615234833
28	0x3fb93cc253253605	0.09858336000362307
29	0xbfd698bc28f3cda4	-0.35307220458272526
30	0xbfcc999339aa616e	-0.22343674007130282
31	0xbfd23a627218aa49	-0.28481351034375685
32	0x3fd191926ed15861	0.27451000997587555
33	0x3fcf8e72c4d10784	0.2465346776025933
34	0x3fd97a04c4684f6f	0.39807242565551965
35	0x3fd7ec50c0000000	0.37379854917526245
36	0xbfda694480000000	-0.41267502307891846
37	0xbfb6651080000000	-0.0874796211719513
38	0xbfd48f5840000000	-0.3212490677833557
39	0x3fb6020000000000	0.085968017578125
40	0x3fc83cfe8075caa0	0.18936139366595217
41	0xbfd0122ab1af0a6a	-0.25110881187371226
42	0xbf7b00a7e5bb1384	-0.006592422341502483
43	0x3fbdf604c536442a	0.11703519644494578
44	0x3fd011e6ecdc184e	0.2510926545222717
45	0x3fd38a69b31ea199	0.3053230523314823
46	0x3f91a179533295d2	0.017217536643007687
47	0x3fb0d86ed4185d65	0.06580250433068142
48	0xbfd98dd90c0b2cfa	-0.39928270507944286
49	0x3fbd605fa9e2f1f1	0.11475179574603779
50	0xbfd4872961213609	-0.3207496117146041
51	0xbf9f2c3303cf580e	-0.030442044360675928
52	0x3fd8de941d4f8346	0.38858511793482753
53	0x3f7db7656bd96406	0.007254978348634649
54	0x3fc1bf09b1e32248	0.138642513140683
55	0x3fd0bf82fc4601e7	0.26168894420700756
56	0x3fc7c79d2167aed6	0.18577922946075515
57	0xbf5bb5a83faa6903	-0.0016912596753742577
58	0x3fd39387c6aed3cb	0.30587953951481656
59	0xbf718f8294535f94	-0.004287252498407574
60	0xbfc448db80000000	-0.1584734320640564
61	0x3fba708500000000	0.10327941179275513
62	0xbfd6b83380000000	-0.35499274730682373
63	0x3fd3168c80000000	0.29825127124786377
64	0xbfc9870540000000	-0.19943299889564514
65	0xbfd4725788106326	-0.31947887694836863
66	0x3fce64e24ede69e0	0.23745373583808682
67	0x3fdc2a99828f5be4	0.44010007619857405
68	0xbf61f8e534a7a00a	-0.002193877856587538
69	0x3fd2d605c844113e	0.294312902042538
70	0xbfd6699302c9cabd	-0.3501937415341379
71	0x3fd016fbc70b1707	0.25140280187439185
72	0xbfbd13ca73335f43	-0.11358323395267882
73	0x3f9eeac2d86f22d3	0.030192417583552022
74	0xbfb1435400665bc9	-0.06743359575044318
75	0xbfd204caa0000000	-0.28154245018959045
76	0xbfd90499c0000000	-0.39090579748153687
77	0xbfd1fa7e40000000	-0.2809138894081116
78	0x3fd95630c0000000	0.3958856463432312
79	0x3fc04c8800000000	0.1273355484008789
80	0x3fc7c5e063bd6a11	0.18572621221649446
81	0xbfa1f6f43262bf43	-0.03508723368702118
82	0x3fcbf629574fcc05	0.2184497524573034
83	0xbf9c55aaff8261a3	-0.02767054733757991
84	0x3fc0a7db24dee1c3	0.13012255955051275
85	0xbfaa1fd86bcacf6a	-0.051024211080771334
86	0x3fd7fbaeff803883	0.37473654700523457
87	0x3fc316a2184bd508	0.149128209937466
88	0x3fc09f8407b9f3df	0.12986803414597056
89	0x3fcf83a3a7772964	0.2462048118307606
90	0x3fcd812080000000	0.2305031418800354
91	0xbfc6dee0c0000000	-0.17867669463157654
92	0xbfdb4c6980000000	-0.4265388250350952
93	0x3fa7d42d00000000	0.046540647745132446
94	0xbfd2233d80000000	-0.28340089321136475
95	0x3fb4c04310053a8f	0.08105868474124577
96	0x3fabbedb3f5cf77f	0.05419049404598208
97	0x3fbc45b186e33194	0.11043843787337543
98	0x3fd0bc91e06d9662	0.2615093890839032
99	0xbfc9f3b8736a33b2	-0.20275025973788058
100	0x3fe05ada5f37fadf	0.5110904559840853
101	0xbfd8f90013b9ba6a	-0.3901977722770541
102	0xbfd234189d623ad0	-0.28442969674590035
103	0x3fcf346b3e3428bb	0.2437871984223586
104	0xbf94221dbf5a4210	-0.019661392978891412
105	0x3fc9b45f80000000	0.2008170485496521
106	0xbfcdd7d000000000	-0.23314857482910156
107	0xbfaae2ed00000000	-0.052512556314468384
108	0xbfc343f100000000	-0.15051090717315674
109	0xbfd027f300000000	-0.2524383068084717
110	0x3fdb511f40000000	0.4268262982368469
111	0xbfc98f40e0000000	-0.1996842473745346
112	0xbfd3d18280000000	-0.30966246128082275
113	0xbfda45af40000000	-0.41050320863723755
114	0xbfda46c9a0000000	-0.41057053208351135
115	0x3fc8cc6924086194	0.19373811969195442
116	0x3fd5002823a43764	0.32813456993686985
117	0xbfab21e4a8d14147	-0.052992959601967864
118	0xbfddddabfc15735b	-0.466654773879602
119	0x3fc6bbd03e19e7b6	0.17760661155972252
120	0xbfbded0f00000000	-0.11689847707748413
121	0xbfd8b6bce0000000	-0.3861534297466278
122	0x3fd8779a80000000	0.3823000192642212
123	0x3fc1621480000000	0.1358056664466858
124	0xbfcf462520000000	-0.24432815611362457
125	0xbfd29dfe38054748	-0.29089313002360884
126	0x3fb03c71ad4c73e8	0.06342230301784435
127	0xbfd601f63e1281a7	-0.3438697439360347
128	0x3fc88ea7c1ceb364	0.1918534942937199
129	0xbfd508bae55cefad	-0.3286578407166825
130	0x3fd6de8e00000000	0.3573336601257324
131	0xbfbd75e580000000	-0.11508020758628845
132	0x3fb55c7700000000	0.08344215154647827
133	0xbfdbb0c0c0000000	-0.4326631426811218
134	0xbfb32a1280000000	-0.07486072182655334
135	0xbfb02ea600000000	-0.06321179866790771
136	0xbfc009dd40000000	-0.1253010332584381
137	0xbfaf07b000000000	-0.060605525970458984
138	0xbfb2adbd80000000	-0.07296356558799744
139	0x3fd42570c0000000	0.3147851824760437
140	0x3fab18974678c5b9	0.05292198882342398
141	0xbfcac6960df77fd5	-0.20918536836597804
142	0x3fcfb1784431d721	0.2476034481984977
143	0x3fc3278f54f1ae5b	0.1496447720304442
144	0xbfd30a0d81bad322	-0.2974885718243049
145	0xbfc1f1d900000000	-0.14019310474395752
146	0xbfbf608880000000	-0.12256672978401184
147	0x3fd6096880000000	0.3443242311477661
148	0xbf8bff2800000000	-0.013670265674591064
149	0x3fc1659000000000	0.1359119415283203
150	0xbfc3e10e80000000	-0.1553056836128235
151	0x3fcb704080000000	0.21436315774917603
152	0xbfb8635e00000000	-0.09526622295379639
153	0x3fc8a01500000000	0.19238531589508057
154	0x3fa1f78d00000000	0.035091787576675415
155	0x3fc8d98180000000	0.19413775205612183
156	0x3f9103a400000000	0.016615450382232666
157	0xbfd4bdf880000000	-0.32409489154815674
158	0xbfd96889c0000000	-0.39700549840927124
159	0xbfd1d09740000000	-0.2783563733100891
160	0x3fa927c50cbbe3d4	0.04913154392665545
161	0x3fc49afdd5a41518	0.1609799664658247
162	0xbfce2ea659d1d9bf	-0.23579863916138596
163	0x3fcb703ed7888e1b	0.2143629600915212
164	0x3fd439507d3f0282	0.31599819403712825
165	0x3fc2786ee8ccdd6e	0.14430033080291643
166	0xbfd404725557a860	-0.31277139982433333
167	0x3fa9fce9960a4dd2	0.05075769382997532
168	0x3fcc02238894a194	0.21881527108167786
169	0x3fd883f1579c909c	0.3830531459409572
170	0xbfd191cb00000000	-0.2745234966278076
171	0x3fadf6f400000000	0.0585247278213501
172	0xbfc0a04500000000	-0.129891037940979
173	0x3fcb790000000000	0.214630126953125
174	0x3fac667c00000000	0.055469393730163574
175	0xbfd8793520000000	-0.38239791989326477
176	0xbfb4eae080000000	-0.08170893788337708
177	0x3f9fbf0800000000	0.031002163887023926
178	0xbfd7095e00000000	-0.35994672775268555
179	0xbfd9241620000000	-0.3928275406360626
180	0x3fd9e0e4490a2529	0.40435130245949097
181	0xbfc35694805488a9	-0.15107971445201443
182	0xbfd85c7750dafa41	-0.38064368148835476
183	0x3fa1f2c9f619de4f	0.03505545739329518
184	0x3fcae9b9fd8f268b	0.21025776749438693
185	0x3fd4d5fc03a9d76f	0.32556057317503123
186	0x3fb4d29d54c27627	0.08133872336699054
187	0x3fcd805c291cd482	0.2304797363991931
188	0x3fd0b07677d7a5cf	0.2607704325042421
189	0x3fd8215f4b682ffd	0.3770368801494895
190	0x3fd08c80118bace8	0.25857545579374497
191	0xbfc143a2d519badd	-0.1348765888719389
192	0xbfd164ab3614b336	-0.2717693355687517
193	0xbfc999ff9c10f76b	-0.2000121604959831
194	0xbfbc85896a64e77c	-0.11141260955346682
195	0xbfd428635cd5ac62	-0.3149650961483471
196	0xbfd1f718fb433e64	-0.28070663964624587
197	0x3fe04eb17513e9b5	0.50960610262637
198	0xbfc34c341714ba02	-0.1507630455684677
199	0x3fd45c48f0d06b41	0.318132624788337
200	0x3fdc9869793dda49	0.4468024906158559
201	0xbfbed31821a5158f	-0.12040854283721657
202	0xbfd9284ba39281c9	-0.39308443998200154
203	0x3fd9d7c777e919ee	0.40379511556639514
204	0xbfb396bab97de4a5	-0.07651869801147144
205	0x3fb0fe1700000000	0.06637710332870483
206	0x3fc4448500000000	0.15834105014801025
207	0xbfc4852280000000	-0.1603129506111145
208	0xbfbd61bf80000000	-0.11477276682853699
209	0xbfd7ff0c60000000	-0.3749419152736664
210	0x3f98d4dc00000000	0.024249494075775146
211	0xbfc0415d40000000	-0.1269947588443756
212	0xbfcd6e9dc0000000	-0.22993823885917664
213	0x3fc5a90800000000	0.1692209243774414
214	0xbfb4ba4600000000	-0.08096730709075928
215	0x3fc19805c1be9aa6	0.13745185814078303
216	0xbfa390d035a44fad	-0.038214212940288796
217	0xbfdba5e775ca4490	-0.43200098517360974
218	0x3fcb0db6398fbcfd	0.21135595141047495
219	0xbfc2bc08e1d6716c	-0.1463633635256757
220	0xbfbdc0a8f4b367ff	-0.11622100805416834
221	0x3fdd0328492fa5d4	0.4533177103718036
222	0x3fda548fac23cf29	0.41141120729956754
223	0x3fd2cbeb2296034d	0.29369619729555013
224	0xbfd5d4e4b7fa0941	-0.3411189839026925
225	0xbfe0e46a486f1562	-0.5278827109074593
226	0xbfa32cb7675203e9	-0.037450534212446325
227	0xbfd56bfa1a010887	-0.3347153905816715
228	0x3fd69964cc4e3807	0.3531124110385239
229	0x3fd0bb8958601fe8	0.26144631987017286
230	0x3fcb6b846a1635bc	0.21421866588609173
231	0xbfcf8b6f71af7eab	-0.24644272852946378
232	0x3f569faa7bdb017b	0.0013808407669984857
233	0x3fd1dfe7dca5e2ea	0.27929112002998
234	0x3fc42a31d5bd308a	0.15753767906642607
235	0x3fb73c1a6e826065	0.09076085279446174
236	0x3fd597e556449560	0.337395986791611
237	0x3fb8af6b31f2dabd	0.09642667741250484
238	0x3fd804e97206d9b4	0.3752997983496258
239	0xbfb32e581b4f1f82	-0.07492590586400463
240	0x3f8a50b641af97b7	0.012849258308005191
241	0x3fd15ed32dae5634	0.2714126535514396
242	0x3fd818cdb24eeaea	0.3765138856212348
243	0x3fc692bf428616cc	0.17635336635810572
244	0xbf7c7dee4dddaeee	-0.0069560345417405255
245	0x3fb2078500000000	0.07042723894119263
246	0xbfb9034f00000000	-0.09770673513412476
247	0xbf9bdd8c00000000	-0.027212321758270264
248	0x3fcd0ced80000000	0.2269570231437683
249	0xbf89036800000000	-0.012213528156280518
250	0x3fccd5e4304dfeef	0.22527744635225797
251	0xbfd327b1623df368	-0.299297662677239
252	0xbfd271beba913648	-0.2881924459405565
253	0x3fb5ad11e57fcf6a	0.08467208722123379
254	0xbfcc1e4427f0f9b5	-0.2196736521745614
255	0x3fbcd8184b17d11d	0.11267234643293418

fc1.bias f8 [64]
0	0xbfd07be015924551	-0.25756075007037277
1	0x3fc4dbbe80000000	0.16295605897903442
2	0x3fd11fddf2cc194f	0.26757000647230184
3	0x3fb083fe00000000	0.06451404094696045
4	0xbfd8a4e500000000	-0.38506436347961426
5	0xbfc5d39e616b6863	-0.17052058941664247
6	0xbfcb3e5f7f5c171d	-0.21284097403275207
7	0xbfd18a4b60000000	-0.2740658223628998
8	0xbfda63e4f49bc7dd	-0.4123470677142203
9	0xbfae8b302daa5737	-0.059655671667469816
10	0x3fc2e901affe12fb	0.147735796865298
11	0xbfbab500517ad86a	-0.10432435979132185
12	0xbfca1b0d40000000	-0.20395055413246155
13	0xbfd06b951b28a80a	-0.2565663113806528
14	0xbfb7847c3da6a749	-0.09186531548644185
15	0x3fcb36a380000000	0.21260493993759155
16	0xbfc811f081399d1d	-0.188047469232722
17	0xbfae4cf87a0d1916	-0.05918098916895269
18	0xbfcc602f40000000	-0.22168532013893127
19	0xbfcfff55cde28f54	-0.24997971108416073
20	0x3fb08cf7d43e42de	0.06465100223273221
21	0x3fac574a00000000	0.05535346269607544
22	0x3fa63d9800000000	0.04343867301940918
23	0xbfb7b38c38486fc5	-0.0925834309968528
24	0xbfd06eaee0000000	-0.2567555606365204
25	0x3fcb04eabdfd0aa3	0.21108755375651808
26	0xbfd7cf8cc0000000	-0.37204283475875854
27	0xbfcff34560000000	-0.24961154162883759
28	0xbfd0469314f406ab	-0.254307527982841
29	0xbfd5b36b80000000	-0.3390759229660034
30	0xbfd4fb0ea0000000	-0.32782331109046936
31	0xbfc40220c0000000	-0.1563149392604828
32	0xbfc4192fab1f0d04	-0.15701862197429517
33	0xbfdcc8984b45b4fc	-0.449743340976809
34	0xbfc13cbd80000000	-0.13466614484786987
35	0xbf73036000000000	-0.004641890525817871
36	0xbfac24da09bc3bcf	-0.05496865624274216
37	0x3fcf648d254d1316	0.2452560836919921
38	0xbfbc987eb8017c70	-0.11170188896493172
39	0x3fb99e94b11f4bbb	0.10007600139878907
40	0xbfa894879e494fdf	-0.048008192131106624
41	0xbfca783ce0000000	-0.2067943662405014
42	0x3fa0047f00000000	0.03128430247306824
43	0x3fd489fdc3b8b0f4	0.3209223185865675
44	0x3fd177880f2609fb	0.27292062262873146
45	0x3f95ea5c9c2cf785	0.02140183165760547
46	0xbfdf215090430620	-0.4864083679968605
47	0xbf9f852d130d489e	-0.03078146389754776
48	0xbfc1ca5bf7aa8a45	-0.13898801415514775
49	0xbfdc691be0000000	-0.44391533732414246
50	0x3fe06335a0e45f16	0.5121105329917295
51	0x3fd9043bfeb69c0e	0.39088344454143076
52	0x3faea4866a46743b	0.059848976586387846
53	0xbfd0b5b420000000	-0.26109030842781067
54	0xbfd49eebe0000000	-0.3221997916698456
55	0x3fab82d600000000	0.05373257398605347
56	0xbfd160f447b251e2	-0.27154261590592743
57	0x3f965d31557773f6	0.021839876977413263
58	0xbfd27f1a80000000	-0.2890077829360962
59	0xbfda76eb3df078e2	-0.4135082344890987
60	0xbfd0c8c900000000	-0.2622549533843994
61	0xbfca785e8b2eba93	-0.2067983798601359
62	0xbfd2b407a18d19eb	-0.29223814751131155
63	0x3fda6dc9a868db62	0.41295091100930936

fc2.weight f8 [128, 64]
0	0x3fc57bc90ab7f594	0.16784012816780758
1	0x3fa8d37b80000000	0.04848848283290863
2	0xbfcb74666da6a851	-0.2144897494702627
3	0x3fb540ed80000000	0.08302196860313416
4	0xbfb3f9a7c0000000	-0.07802818715572357
5	0x3f827704733cc1c5	0.009016070143474839
6	0xbfb9838e2b9adfa7	-0.09966362537932004
7	0x3fb5832ec0000000	0.08403293788433075
8	0xbf855c6a3475b128	-0.010430173612541241
9	0xbfbb6ed9d389bbed	-0.10716020025732549
10	0x3fcbb0195c5997c2	0.21631161698604556
11	0xbf758bd372b02fd0	-0.0052603015601668385
12	0x3fa762e000000000	0.045676231384277344
13	0x3fc57d27d7857afb	0.16788194678789367
14	0x3faead61af426c20	0.05991654648206457
15	0xbfbd6edd80000000	-0.11497291922569275
16	0x3fb13367773ef3a7	0.06719061528470026
17	0xbfa70b30f99997a3	-0.0450072579085792
18	0xbfb9da7e80000000	-0.10099020600318909
19	0x3fb1b2a8dba2dfa2	0.06913237917149087
20	0xbfd8aada4eb05e90	-0.38542802509753304
21	0x3fbfe46200000000	0.12457859516143799
22	0xbfb16f1700000000	-0.06810134649276733
23	0xbfb4071a0db01fb6	-0.07823336443118376
24	0x3fab41db80000000	0.05323682725429535
25	0xbfae7a5a5b4dc529	-0.05952722897098745
26	0xbfbe08a700000000	-0.11731952428817749
27	0x3fbc932d80000000	0.11162075400352478
28	0xbfa49f1482d9e0f3	-0.04027618500998811
29	0x3fbeee6740000000	0.12082524597644806
30	0xbf9a2eab00000000	-0.025568649172782898
31	0x3fa09e0880000000	0.032455697655677795
32	0x3fb5e0aa34a8d147	0.0854593638003439
33	0x3fb318af46f59132	0.07459540827182279
34	0x3fafd07f00000000	0.06213757395744324
35	0x3fb45ad740000000	0.0795111209154129
36	0xbfa24ddbb51c046b	-0.03575026117142318
37	0x3fc1a9fcda194eb3	0.13800011300428636
38	0xbfb1ddb28b6c0094	-0.06978908447126947
39	0x3fb3ad86815eb9bc	0.0768665376515178
40	0xbfc74d597e2318d7	-0.18204802187955835
41	0xbfb8bca940000000	-0.09662874042987823
42	0xbfac6f6780000000	-0.055537447333335876
43	0xbfc188e1f62e1568	-0.13698982735165122
44	0x3fc1d18a5851e24d	0.1392071658372224
45	0x3fc41b6362408a1f	0.15708582208124341
46	0x3fbac9412e415625	0.10463340167310571
47	0x3fc2fe61b31b2b6f	0.14838811154762818
48	0xbfa24b3c0357a270	-0.035730243118284544
49	0xbfbe851040000000	-0.1192178875207901
50	0xbfc7cb3cf524158b	-0.18588983506940013
51	0x3fb68a8b54180de0	0.08805151751590001
52	0x3fc080f4ab99932a	0.12893541697408156
53	0xbfa35c3900000000	-0.0378129780292511
54	0x3fa6a6c280000000	0.04424102604389191
55	0xbfb2f88300000000	-0.07410448789596558
56	0xbfa315be45ef27d3	-0.03727526286782248
57	0x3fd2ab6e9fc5d8a3	0.29171338656250095
58	0xbfaf5fbb00000000	-0.06127724051475525
59	0x3fcc7f54a21ac4f1	0.2226358214880189
60	0x3f959b3100000000	0.021099820733070374
61	0xbfa2a3bf08f2e995	-0.03640553459395616
62	0x3fbfedb8cc428bde	0.12472109782042604
63	0xbfc293d8f5051719	-0.14513694728719242
64	0x3fc2d4b2ed2db4e6	0.14711605626090501
65	0x3fa8580e00000000	0.04754680395126343
66	0xbfa5a59712725512	-0.0422789773958049
67	0xbfbd74b280000000	-0.11506190896034241
68	0x3fb93d1500000000	0.09858828783035278
69	0x3fc5e8ee29d2be7d	0.17117096941136714
70	0x3fb3173e23f29437	0.07457340600611038
71	0xbfa0285e00000000	-0.03155797719955444
72	0xbfbf93fdb362a109	-0.12335191373370348
73	0x3fc1be32e40f4fe2	0.1386169065068535
74	0x3fbf6bd864ebb689	0.1227393385304031
75	0x3fc2dfd41bcf499f	0.14745570524116844
76	0xbfb1ff7000000000	-0.07030391693115234
77	0x3fbd05d63a2fbf6b	0.11337031288689807
78	0xbf6620815a9fa1a5	-0.002701046604659934
79	0xbfad186900000000	-0.05682685971260071
80	0x3fbe6249e187844a	0.1186872649773402
81	0x3fc0bed6aa04ba71	0.1308239298027334
82	0x3f91da6200000000	0.017434626817703247
83	0x3fc27cecba8f5112	0.14443739995352495
84	0xbfd7f3f257ac906d	-0.37426432191774134
85	0x3fbf7b6200000000	0.12297642230987549
86	0xbfbea010c0000000	-0.11962990462779999
87	0x3faba95d57f7e56a	0.05402652453262642
88	0x3fa8fdea80000000	0.048812225461006165
89	0x3f881647bc729617	0.011761246145691335
90	0xbfb331e240000000	-0.07497991621494293
91	0x3f8952cc00000000	0.012364953756332397
92	0xbfc006f50d9a5de9	-0.12521231807907832
93	0xbfba802540000000	-0.10351784527301788
94	0x3fbb5a2000000000	0.10684394836425781
95	0x3fb5a48ac0000000	0.08454196155071259
96	0x3fb08e95cd7a5293	0.0646756769804802
97	0x3f81dd1a3cc0094b	0.00872250078100891
98	0xbfb0e51480000000	-0.0659954845905304
99	0x3fb1cbd7c0000000	0.06951664388179779
100	0xbfc6ba759a80d02b	-0.17756528896427545
101	0xbf7a810ff7e44718	-0.00647073972347003
102	0xbfab753e5ae4813e	-0.05362887248543523
103	0x3fa9c609b7e20a29	0.05033903474488383
104	0xbfc97789fde0b92d	-0.19896054169061853
105	0xbf98a68200000000	-0.02407267689704895
106	0x3fab0b7e00000000	0.0528220534324646
107	0xbfbc41ecb483fda3	-0.11038093001479025
108	0x3fc2d2f541835087	0.1470629281890334
109	0x3fb9b3fb7447f2d9	0.10040256108181768
110	0xbfb2855ec7d2bb4e	-0.0723475683068788
111	0x3f9599c0da4e8ec5	0.021094334911721874
112	0x3fbb07324930e3d4	0.10557855879677841
113	0xbf95a92b00000000	-0.02115313708782196
114	0xbfd48d81e23929a7	-0.32113692371481267
115	0xbf8aff1170131fea	-0.013181816323040569
116	0x3fb7f0766d6be95f	0.09351291819976869
117	0xbf517af000000000	-0.0010669082403182983
118	0x3fa4d55700000000	0.04069015383720398
119	0xbfa3228880000000	-0.03737284243106842
120	0x3fb2b3e0bbf2e85c	0.07305721844287077
121	0x3fd9b9f7638debc2	0.4019754860125283
122	0x3f99621900000000	0.024788275361061096
123	0x3fa9c6b80adc4aa9	0.050344230008837094
124	0x3fb362ef40000000	0.07572837173938751
125	0xbfa21e6dc294b76c	-0.035388402941278624
126	0xbf951fcbf7a1dea1	-0.020629107465053868
127	0xbfc977e0295220ff	-0.19897081391923874
128	0x3faa422180000000	0.05128578841686249
129	0x3fbd5c6bc0000000	0.11469148099422455
130	0x3faccf1900000000	0.05626752972602844
131	0xbf957f9100000000	-0.020994439721107483
132	0xbfa7421f00000000	-0.04542633891105652
133	0x3f990aeb00000000	0.024455711245536804
134	0x3f98444800000000	0.023697972297668457
135	0xbf9f04c200000000	-0.030291587114334106
136	0x3fbdb363c0000000	0.11601851880550385
137	0x3fbda7a980000000	0.11583957076072693
138	0x3f8d86bc00000000	0.014417141675949097
139	0xbfa2c37980000000	-0.036647602915763855
140	0x3fbf4a42c0000000	0.12222687900066376
141	0x3fb7b0cb00000000	0.0925413966178894
142	0x3f8555da00000000	0.010417655110359192
143	0x3fbdbc1740000000	0.11615128815174103
144	0xbfb7e5e940000000	-0.09335191547870636
145	0x3f67e92800000000	0.0029187947511672974
146	0x3fae3b8a80000000	0.059048011898994446
147	0x3f8274f800000000	0.009012162685394287
148	0xbfbb640840000000	-0.1069951206445694
149	0x3faa555d80000000	0.0514325350522995
150	0x3f85d2bc00000000	0.010655850172042847
151	0x3fa4ea7100000000	0.04085114598274231
152	0xbfabe73200000000	-0.054498255252838135
153	0xbfa4c6ed00000000	-0.040580183267593384
154	0xbfb3c8cd40000000	-0.07728274166584015
155	0xbfa1ce2b80000000	-0.034776076674461365
156	0x3f7ba5f800000000	0.00675007700920105
157	0x3fa6613d00000000	0.0437106192111969
158	0xbf9b64d400000000	-0.026751816272735596
159	0xbf792b2400000000	-0.006144657731056213
160	0x3f81be0800000000	0.00866323709487915
161	0xbf9502f900000000	-0.020519152283668518
162	0x3fb4800600000000	0.08007848262786865
163	0xbf8f40ae00000000	-0.015260085463523865
164	0x3fb4a106c0000000	0.08058206737041473
165	0xbfaf20c880000000	-0.06079699099063873
166	0x3fb8585580000000	0.0950978696346283
167	0x3fa926a300000000	0.049122899770736694
168	0x3f9798ee00000000	0.023044317960739136
169	0x3f8bff3600000000	0.013670369982719421
170	0x3f94cc5900000000	0.020310774445533752
171	0x3fbc160380000000	0.10971090197563171
172	0x3fbb755100000000	0.1072588562965393
173	0x3fbd85b480000000	0.11532142758369446
174	0xbfaaae8100000000	-0.05211260914802551
175	0x3fba411c80000000	0.1025560200214386
176	0xbfb9a50b80000000	-0.10017463564872742
177	0xbfbe7b8480000000	-0.11907222867012024
178	0x3fba74a7c0000000	0.10334251821041107
179	0xbfb5fcbf80000000	-0.08588787913322449
180	0xbfa6d1cc80000000	-0.044569388031959534
181	0xbfbc571400000000	-0.11070370674133301
182	0x3fb6f6a680000000	0.0897010862827301
183	0xbf9e245700000000	-0.029435500502586365
184	0xbfa3e07580000000	-0.038821861147880554
185	0x3f8141b400000000	0.008426100015640259
186	0xbfb89c81c0000000	-0.0961381047964096
187	0x3fb2d22ec0000000	0.07351963222026825
188	0x3fb3c338c0000000	0.0771975964307785
189	0xbfb20ac3c0000000	-0.07047675549983978
190	0x3f92dde100000000	0.01842452585697174
191	0xbfaf727a00000000	-0.0614202618598938
192	0xbfbaeeee80000000	-0.10520830750465393
193	0x3f9014a600000000	0.01570376753807068
194	0xbfb4136400000000	-0.07842087745666504
195	0x3f9ba8f800000000	0.027011752128601074
196	0xbfa12c6f80000000	-0.03354214131832123
197	0xbfaeeca600000000	-0.06039923429489136
198	0x3fb1aa3200000000	0.06900322437286377
199	0xbfb65e8300000000	-0.08737963438034058
200	0xbf93a39d00000000	-0.01917882263660431
201	0xbfba8706c0000000	-0.10362283885478973
202	0x3f919cbe00000000	0.01719948649406433
203	0x3fbbd5a300000000	0.10872858762741089
204	0x3f79fdb800000000	0.006345480680465698
205	0xbfbb8dec00000000	-0.10763430595397949
206	0xbfb44831c0000000	-0.07922659814357758
207	0xbfb2776580000000	-0.0721343457698822
208	0x3fb23cd140000000	0.07124049961566925
209	0x3fb3b74080000000	0.07701495289802551
210	0xbfae427800000000	-0.05910086631774902
211	0x3fa28d5700000000	0.03623458743095398
212	0x3f619f5800000000	0.002151176333427429
213	0x3f73bb3400000000	0.004817202687263489
214	0xbfb3cd0480000000	-0.07734706997871399
215	0x3fbc710040000000	0.1110992580652237
216	0x3f97631400000000	0.022838890552520752
217	0x3fb3de43c0000000	0.07761023938655853
218	0xbfa6932300000000	-0.04409131407737732
219	0x3fa7c4fd80000000	0.04642479121685028
220	0xbfb4dab480000000	-0.08146217465400696
221	0x3fb8681b80000000	0.09533855319023132
222	0x3fb275f340000000	0.07211227715015411
223	0xbf82cb1e00000000	-0.009176477789878845
224	0xbfb32057c0000000	-0.07471226155757904
225	0xbfb7b31a40000000	-0.09257663786411285
226	0x3f708bb400000000	0.004039481282234192
227	0xbfaab8b680000000	-0.052190497517585754
228	0x3f9194ab00000000	0.017168685793876648
229	0xbfb9bb9e40000000	-0.1005190759897232
230	0x3fbb961140000000	0.10775859653949738
231	0xbfbb4b4000000000	-0.10661697387695312
232	0x3f6c101000000000	0.0034256279468536377
233	0xbfb0e3ccc0000000	-0.06597594916820526
234	0xbfa9867280000000	-0.04985387623310089
235	0x3fb4f39a80000000	0.0818420946598053
236	0xbfb4fbf580000000	-0.08196958899497986
237	0xbfb6676400000000	-0.08751511573791504
238	0xbfb14e3cc0000000	-0.0676000565290451
239	0xbfb8dcf040000000	-0.09712125360965729
240	0xbf824c2000000000	-0.008934259414672852
241	0xbf9fd30c00000000	-0.0310785174369812
242	0x3f9f394800000000	0.030491948127746582
243	0x3fae50f280000000	0.059211328625679016
244	0x3fafb76000000000	0.06194591522216797
245	0x3fbabe4440000000	0.10446573793888092
246	0x3f5befe000000000	0.0017051398754119873
247	0x3fa71d8700000000	0.04514715075492859
248	0x3fb5343680000000	0.08282795548439026
249	0x3fa011d480000000	0.031386032700538635
250	0xbf9988c200000000	-0.024935752153396606
251	0xbf98b29700000000	-0.02411876618862152
252	0xbf7c8e0c00000000	-0.006971403956413269
253	0x3fa2e5a580000000	0.036908313632011414
254	0xbfb98cf900000000	-0.09980732202529907
255	0xbfba360300000000	-0.10238665342330933

fc2.bias f8 [128]
0	0xbf9a6810b34f14f2	-0.02578760237135653
1	0x3faa7d75b0e6d74d	0.051738431782196594
2	0xbfb86d1880000000	-0.0954146683216095
3	0x3f8b1b0a00000000	0.013235166668891907
4	0xbf9ee6a170b08d81	-0.03017666101744743
5	0x3f8d73c4f62f5bb0	0.014380968821496726
6	0xbfb0fed840000000	-0.06638862192630768
7	0xbfa6a78280000000	-0.044246748089790344
8	0xbfb29ee640000000	-0.07273711264133453
9	0xbfa967ae768238e5	-0.049619152037040405
10	0xbf8efb3200000000	-0.015127554535865784
11	0xbfabe5c98785ace7	-0.05448751239131316
12	0x3fa59750f60b7687	0.0421700764033917
13	0xbfc2b9480701efdd	-0.146279338285125
14	0x3f9d6b19cd27d3ac	0.028728869578077784
15	0xbfb956968d6098de	-0.09897747947306665
16	0x3fbee7a2d231e3e8	0.1207219851657012
17	0xbfc58761ab93dfef	-0.16819401624502414
18	0x3fa612baf37effe0	0.04311165068020251
19	0xbfbc2679c0000000	-0.1099620908498764
20	0xbfa8246400000000	-0.04715263843536377
21	0x3fb3fef89bca0628	0.07810930064626886
22	0xbf9735669be924ec	-0.0226646454487182
23	0x3fa8990e00000000	0.04804271459579468
24	0x3fc2652766d66f83	0.14371197244042486
25	0xbfa1125180000000	-0.0333428829908371
26	0xbfb2550dd0acfb44	-0.07161032051679422
27	0xbf8689d34c678191	-0.011005068558859661
28	0x3fb2092e65a79466	0.07045259458353001
29	0xbfc1e02f010db18a	-0.13965404082717853
30	0xbfa1a840c5c9ef6c	-0.03448679365553073
31	0x3f95cd4752bf2d82	0.021290888238394874
32	0xbfad99bd00000000	-0.057813555002212524
33	0xbf9ff39d5e2ac0e2	-0.031202753899095444
34	0x3faacefce16eebaf	0.05236044170256748
35	0xbf7495bf14d25ef7	-0.0050256218065880464
36	0xbface424821aa275	-0.05642808998283481
37	0xbfb2fcad80000000	-0.07416805624961853
38	0xbfa18a6280000000	-0.03425891697406769
39	0xbfa2f76400000000	-0.03704369068145752
40	0xbfbf837f390403f7	-0.12310023443207273
41	0xbfc43395768c470a	-0.15782421387171325
42	0x3fbfc65147f241cc	0.12411983496190898
43	0x3fa0c7f700000000	0.03277561068534851
44	0xbfb83e8ec0000000	-0.09470455348491669
45	0x3f9afd663a1564f1	0.02635726670755373
46	0xbfc4fda27c41fb7e	-0.16399031703255312
47	0xbf94838b28fcc29a	-0.020033048988980263
48	0xbfb79277fae508e0	-0.09207868457182
49	0x3fc36c56c4a82697	0.1517437420118781
50	0xbfbdcfffc0000000	-0.1164550632238388
51	0xbf945fb700000000	-0.01989637315273285
52	0x3f97f554c8d46e52	0.023396801717451794
53	0xbfa757406d2ad653	-0.04558755238160175
54	0xbfa640edfe7a50aa	-0.04346412402552009
55	0x3f85a6fc00000000	0.0105724036693573
56	0xbfa4e0d9a908c2fd	-0.040777971157131866
57	0xbfa7fe8680000000	-0.046863749623298645
58	0xbf93c9d600000000	-0.01932463049888611
59	0xbfc09ca7259dda09	-0.12978066765545318
60	0xbfb050d5afd67376	-0.06373343985474186
61	0xbfb2110a80000000	-0.07057252526283264
62	0xbfba3cddbeed35f9	-0.10249124442380965
63	0xbfaeb3a700000000	-0.059964388608932495
64	0xbfa6207d00000000	-0.04321661591529846
65	0x3fc103a8edd31790	0.1329241906407188
66	0xbf98bd439ce7c2b4	-0.024159485294094465
67	0x3fc22108fd812126	0.14163315179963226
68	0x3fa85001a986ee95	0.04748540110037173
69	0x3fa53b5e291b505e	0.04146856548109733
70	0x3fabf1031c19da7d	0.05457315176038422
71	0xbfb8059508f9ebd6	-0.09383517712733122
72	0xbfad3bb500000000	-0.05709615349769592
73	0xbfa4f2118e433dc1	-0.04090933667759656
74	0x3fb62bc5021937c7	0.08660537053330507
75	0x3fafc8a82c34385a	0.062077765842432256
76	0x3fb628638109f73e	0.08655378246654963
77	0xbfa8b8ff80000000	-0.048286423087120056
78	0x3fba8e4e726c4bc1	0.10373392385035542
79	0xbf50129000000000	-0.0009809881448745728
80	0xbf61d52000000000	-0.002176821231842041
81	0x3fa435d200000000	0.039473116397857666
82	0xbfb5e2a910c1bcfd	-0.08548981341458624
83	0xbfc1f7dd3c4010c7	-0.1403767151060775
84	0xbfbbf868c0000000	-0.10925917327404022
85	0x3f92d0c2e0ae1b6a	0.01837448593462502
86	0xbfba3d4064f1cc19	-0.10249712433305581
87	0x3fa1e7d547fcaa16	0.034971871411773645
88	0x3f90cca734761114	0.016405689789750502
89	0x3fbe70a2d89bc58e	0.11890619076054618
90	0xbfc1dfabb4d25605	-0.13963838891201888
91	0xbfc61ed22fa8fabf	-0.17281558348800805
92	0x3f8a8a4e00000000	0.012959107756614685
93	0xbfaae14b912c72fd	-0.052500115844145136
94	0x3fa95b1be9a1f54a	0.04952323176346825
95	0xbfb1956834dc0f25	-0.06868602076070525
96	0x3fb7f447295c4f29	0.09357113609104019
97	0xbfb7a19d00000000	-0.09230977296829224
98	0xbfb92ac6546aeea9	-0.09830894051531892
99	0xbfb5d6aa982241ce	-0.08530679907040126
100	0x3f537470640890b1	0.0011874291959737377
101	0xbfae36e90b96900b	-0.05901268259484035
102	0x3fa07ea3403981be	0.03221616896621836
103	0x3f96d6fc980abdd6	0.022304484157471403
104	0x3f87d47ba5321b95	0.011635747889398288
105	0x3fbe7ae391440e0f	0.11906263634232793
106	0xbf8eb97f142cb421	-0.015002243807964945
107	0xbfc6361ebb0d8829	-0.1735266126007116
108	0x3f89fb4a00000000	0.01268632709980011
109	0x3fb169df8c468f01	0.0680217473478102
110	0x3f976ed6b9c0d5e9	0.02288375385997724
111	0x3fbf001b6c01688d	0.12109538447239938
112	0xbfa836b3c549c6b9	-0.047292344887762856
113	0xbfaf4a3700000000	-0.06111308932304382
114	0xbfb6197eece169d3	-0.08632653506484837
115	0xbf912cf182c0f66a	-0.01677300797040574
116	0xbfb1802174a6c33c	-0.06836136911330198
117	0x3fa8d09dfa3a2ce0	0.048466622157400385
118	0xbf8ffba7446e9f4c	-0.015616709495432389
119	0xbfbd7388c4ca3391	-0.11504416279258424
120	0x3fbb0fbedefbe494	0.10570900863594296
121	0xbfc3ac2cd159448a	-0.15369186613182634
122	0x3fb50c621192161a	0.08222020081492368
123	0x3fb7956200000000	0.09212315082550049
124	0x3fb5fc3feeea2a3b	0.08588027556303583
125	0x3fbca6f1dec48000	0.11192237557088447
126	0x3fade2491b540c06	0.058367046915030626
127	0xbf98febd00000000	-0.024409249424934387

fc3.weight f8 [64, 128]
0	0x3f92b3ca63709e09	0.018263971633272678
1	0xbfba0da1a21aeaf1	-0.10177049834866715
2	0x3fb0e88020000000	0.06604767590761185
3	0x3f9249e600000000	0.01786002516746521
4	0xbfb0add2ec5c0fdf	-0.06515234251497713
5	0x3f8de26a4b5abfa4	0.014592008995663104
6	0x3f63761400000000	0.0023756399750709534
7	0xbfb0fc5980000000	-0.0663505494594574
8	0x3faa0559c0000000	0.050822071731090546
9	0x3f82c64300000000	0.009167216718196869
10	0xbfb3fa9880000000	-0.07804253697395325
11	0x3fadf818c0000000	0.058533452451229095
12	0xbfb786446e0daefc	-0.09189250647403563
13	0xbfadb39520000000	-0.058010730892419815
14	0xbfaf28c5d1134a32	-0.060857946178334635
15	0x3f996e9e00000000	0.024836033582687378
16	0xbfb8ecf127980abb	-0.09736544815681729
17	0x3f81c54800000000	0.008677065372467041
18	0xbf999e2200000000	-0.02501729130744934
19	0xbfb6614120000000	-0.0874214842915535
20	0xbfb4a3e6c0000000	-0.08062593638896942
21	0xbfc0014f0d22386d	-0.12503994122784282
22	0xbf9ec95d80000000	-0.03006502240896225
23	0x3f698b7000000000	0.0031182467937469482
24	0xbfb2af6ea07b1da5	-0.07298938196173894
25	0xbfb09a27e0000000	-0.06485223025083542
26	0x3f9dff0500000000	0.029293134808540344
27	0x3faec7ddc0000000	0.06011860817670822
28	0xbfc152c6a1a0fdfb	-0.13533862010989126
29	0x3fa48d1b40000000	0.040139056742191315
30	0x3fb04bfda0000000	0.06365952640771866
31	0x3f8e1fc400000000	0.014709025621414185
32	0xbfa0b415a0000000	-0.032623935490846634
33	0x3f818acd00000000	0.008565522730350494
34	0xbf8da82400000000	-0.01448085904121399
35	0xbfb102bd60000000	-0.06644805520772934
36	0xbf97d65780000000	-0.02327858656644821
37	0xbfa371c5a0000000	-0.03797738626599312
38	0xbf9a6cce80000000	-0.02580568939447403
39	0xbf739fd200000000	-0.004791088402271271
40	0x3f91104c80000000	0.01666373759508133
41	0x3fa4753440000000	0.03995669633150101
42	0x3f9245c31d54c3bb	0.017844246545056324
43	0x3fa520b240000000	0.04126507788896561
44	0x3f8f851b00000000	0.01539059728384018
45	0xbf85582e00000000	-0.010422095656394958
46	0xbfa41e67c0000000	-0.03929447382688522
47	0xbfb0b1f860000000	-0.06521560996770859
48	0xbf9fd7c3c0000000	-0.03109651431441307
49	0xbf90c9cf7fbedab5	-0.016394846126525937
50	0x3fabc306c0000000	0.05422230809926987
51	0xbf9be6b580000000	-0.027247272431850433
52	0x3f6f8ea2fba85ca9	0.003852194143529515
53	0xbfafae3af4f48d52	-0.0618761466996839
54	0x3fb54c6220000000	0.08319676667451859
55	0x3fa0ae8000000000	0.032581329345703125
56	0x3faf82bb40000000	0.061544276773929596
57	0xbf96368500000000	-0.021692350506782532
58	0xbfb4a473c0000000	-0.08063434064388275
59	0xbfa6a3fd00000000	-0.04421988129615784
60	0x3f81f9c200000000	0.008777156472206116
61	0x3fa2b43440000000	0.03653109818696976
62	0xbfa6668d40000000	-0.04375115782022476
63	0xbfa24dea40000000	-0.03575069457292557
64	0x3fa482cd40000000	0.040060438215732574
65	0xbfb407512c8cc1ae	-0.07823664987222997
66	0xbf98e44700000000	-0.024308308959007263
67	0xbfbaa20d293a5968	-0.1040352082876318
68	0xbfb888d9000a52d5	-0.09583812952980549
69	0xbfbf04bdbab70e13	-0.1211660939070998
70	0x3f9205f4af915739	0.017600844589046736
71	0x3fa75a46c0000000	0.04561062902212143
72	0x3fb2d97860000000	0.07363083213567734
73	0xbfb4e58e872a1b57	-0.0816277580253034
74	0xbfa6be7588a9e2f6	-0.044421837742396095
75	0xbfaea3daa0000000	-0.05984385684132576
76	0xbf8fd688197cb382	-0.015545905378155703
77	0xbf2a084000000000	-0.00019861012697219849
78	0xbfae56dba0b02a13	-0.05925642334485217
79	0xbfb1399b80000000	-0.06728526949882507
80	0xbfa6f12780000000	-0.044808611273765564
81	0xbf921cd400000000	-0.017688095569610596
82	0xbfb0785b80000000	-0.06433650851249695
83	0x3fb1a45ca0000000	0.06891421228647232
84	0x3fa3410740000000	0.03760550171136856
85	0xbfa4f5ef60000000	-0.040938835591077805
86	0xbf86afe800000000	-0.011077702045440674
87	0xbfc25de8554388f9	-0.14349083102485574
88	0xbfc29213b583b572	-0.14508291590702133
89	0xbfa6452080000000	-0.04349614679813385
90	0xbf83ac8200000000	-0.00960637629032135
91	0xbfadfd27a0000000	-0.05857204273343086
92	0xbfa7708700000000	-0.04578039050102234
93	0xbfb6181c20000000	-0.08630538731813431
94	0xbfb4d45acdf73d31	-0.08136527565442432
95	0xbfac856be0000000	-0.05570542439818382
96	0xbfb3bff4cb88f4b7	-0.07714776963344404
97	0x3fb5416920000000	0.08302933722734451
98	0xbfab40e3e0000000	-0.053229447454214096
99	0x3fac6d2540000000	0.05552021414041519
100	0xbfa20de1c0000000	-0.03526216000318527
101	0xbfbbbf9ef9566a1a	-0.10839265429823577
102	0x3f9e832a80000000	0.029797233641147614
103	0xbfb6467820000000	-0.08701277524232864
104	0xbfa8e9ade0000000	-0.04865783080458641
105	0xbf9ee37eb846fb7a	-0.03016469955195642
106	0x3faa7c4bc0000000	0.05172955244779587
107	0xbf85bec600000000	-0.010617777705192566
108	0xbf8b4bf900000000	-0.013328500092029572
109	0xbfc36f866fd9239b	-0.1518409773000514
110	0xbfa6004a60000000	-0.042970966547727585
111	0xbfb00188859703a1	-0.06252339612457415
112	0x3f94629008b9daa4	0.019907236607162773
113	0x3faf1a48c0000000	0.060747407376766205
114	0x3f72dd5b2ad497e6	0.004605632898607914
115	0xbf9556d800000000	-0.02083909511566162
116	0x3fafac4440000000	0.06186116486787796
117	0xbfb5c98e60000000	-0.0851067528128624
118	0xbf91b36f00000000	-0.017286047339439392
119	0xbf9e808940000000	-0.029787201434373856
120	0xbf35f464a178dbf0	-0.00033500153356008557
121	0x3fb622f4a0000000	0.08647087961435318
122	0xbfb6ba1873ba6940	-0.08877709222216357
123	0xbfb52bf0e0000000	-0.08270173519849777
124	0xbfbeae2486a28b86	-0.11984470641122699
125	0xbfb59da932ebaa65	-0.08443696492364834
126	0xbfb4999b6c3a5c23	-0.08046885864529023
127	0xbfaf79e240000000	-0.061476774513721466
128	0x3f78c6445742d9d4	0.006048457104205391
129	0xbfb0ec9b664f8a82	-0.066110336759758
130	0xbfb2c5bda0000000	-0.07332978397607803
131	0xbfa8586180000000	-0.0475492924451828
132	0xbfc28898be7f3f2a	-0.14479359914411677
133	0xbfbca5f2e15660b0	-0.11190717698480301
134	0x3f6f65fc00000000	0.003832809627056122
135	0xbfb1cee0a0000000	-0.06956294924020767
136	0xbfa4305760000000	-0.039431314915418625
137	0x3fa0dbc2185585d7	0.03292662188574596
138	0x3fa62a9fc0000000	0.043293945491313934
139	0x3fa3b3ac40000000	0.03848017007112503
140	0xbf4fbe33fb9760f8	-0.0009687188932572524
141	0x3f9a500c2533bff3	0.025695981760634323
142	0xbfb444f736d307eb	-0.07917733276829579
143	0x3f96d3511b1cdcc7	0.022290484695272974
144	0x3f713499e7dfd0bd	0.004200555033083639
145	0x3f973c737bab029d	0.022691540167900304
146	0x3fc0d23462399e8e	0.1314149360289218
147	0xbfa10cfec0000000	-0.033302269876003265
148	0x3f9a875f80000000	0.025907032191753387
149	0xbfb2f0e5530e77a3	-0.07398827817675495
150	0x3fba78fcce5ea5a7	0.10340862310717701
151	0x3f760cde00000000	0.0053833648562431335
152	0xbfab31880d2bdc15	-0.05311226998122024
153	0xbf87d6e800000000	-0.011640369892120361
154	0xbf7db17c00000000	-0.0072493404150009155
155	0x3fa9dcc64bd225ec	0.05051250148342121
156	0xbfafbd80e961b2ea	-0.06199267243287017
157	0x3fafaf2fc75d7bc2	0.06188344296128136
158	0xbf9b698b5cc6bb04	-0.026769807374587465
159	0x3f876fb06bcb75d0	0.011443498887667852
160	0x3fb5af6320000000	0.08470744639635086
161	0xbf66e4ba5fabd65e	-0.0027946128951679547
162	0x3fa4d04189b1e419	0.040651367243249754
163	0x3fc16ac13518a2b1	0.13607039539899327
164	0x3fa359a1d92ecac2	0.037793214570589054
165	0xbfaeae4ea0000000	-0.05992360785603523
166	0x3fb55f70a0000000	0.08348754793405533
167	0xbfb438c520000000	-0.07899124175310135
168	0xbfc22d125e54b7f7	-0.14200048070910018
169	0x3f9e80f958dd41eb	0.029788871811719558
170	0x3fa0f52f9c563871	0.03312062056930721
171	0x3fb4b95b60000000	0.08095332235097885
172	0xbfb1c6e080000000	-0.06944087147712708
173	0x3fb02a55cad698ba	0.06314598276239539
174	0x3faae71b73d3bd78	0.05254445828347348
175	0x3fa880b44b1f6734	0.047856935663459416
176	0x3fa19f4923a6e11a	0.03441837845042724
177	0xbfba8e177733bd5b	-0.10373064670760838
178	0x3fa6b7dac0000000	0.04437144845724106
179	0x3f6bb92000000000	0.0033841729164123535
180	0x3faafb2c07382934	0.052697540169975104
181	0x3f7947b71b00252f	0.00617190862249943
182	0x3fa9fb7c34733074	0.050746804621298575
183	0x3fb01fb320000000	0.06298369914293289
184	0xbf728193ecc53de5	-0.004518106299954171
185	0x3fa8b6bd40000000	0.04826918989419937
186	0xbf9778e580000000	-0.022922120988368988
187	0x3f726f4c00000000	0.004500672221183777
188	0x3fa4fbc634339ba3	0.04098338496424183
189	0x3f6924a800000000	0.0030692368745803833
190	0x3fc271ccfdcc22bf	0.14409792320681977
191	0xbfac19d340000000	-0.05488453060388565
192	0x3fb5d7b3e0000000	0.08532261103391647
193	0xbfafe8539700151e	-0.062319385702759286
194	0x3f9dfe65699e6121	0.029290756770565033
195	0xbfa1a70e69e8a5dc	-0.03447766344863698
196	0x3fa93b4d3a5ce73a	0.049280560850503766
197	0xbf99203a6ca436eb	-0.02453700340361468
198	0xbf71072c00000000	-0.004157230257987976
199	0x3fbcaacbfe7360b0	0.11198115312743329
200	0x3fb16f9a20000000	0.06810916215181351
201	0x3f99c73d1dba2ba7	0.02517409795704464
202	0x3f916b60c6dafa24	0.017011177193802976
203	0x3fb5bfe8893a13a2	0.08495953893914401
204	0xbfa6ea6c257018be	-0.04475725132947293
205	0xbfa8c477c0000000	-0.048373930156230927
206	0x3f6c03a3deb8f9aa	0.003419704493153837
207	0xbfa36b5120000000	-0.03792813792824745
208	0x3faad86f40000000	0.05243251472711563
209	0x3faeda7040000000	0.06026030331850052
210	0x3fb895fec4d32660	0.09603874497693132
211	0x3f918630e233aeae	0.017113460356013625
212	0x3fa187f500000000	0.034240394830703735
213	0x3fbfd52dba8f9e15	0.12434659771644647
214	0x3fb2a29d6d731526	0.07279380724056192
215	0x3fb80ee79d927d4e	0.09397742840746057
216	0x3f94570e4c2d58e7	0.019863341712459095
217	0x3fa6ae9cc0000000	0.04430093616247177
218	0x3fb8522a82a8f019	0.09500375451983735
219	0x3fb93105e067094d	0.09840428093506155
220	0x3f91da7e80000000	0.01743505150079727
221	0xbf5baa9c8fc01e94	-0.0016886261864800566
222	0xbfb51620dd1f7519	-0.08236890219219041
223	0x3f80740fa3f3d9e9	0.008033868971762241
224	0xbfb21d9d373c16d6	-0.07076437567237845
225	0x3fb54fc4e0000000	0.08324842900037766
226	0x3f9b0454b9b13906	0.02638370879531584
227	0xbf874655d82d017e	-0.011364622745191563
228	0x3fbdef52dc020188	0.11693303939137512
229	0x3f923f2c9718bd99	0.017819115373809067
230	0x3fa83d5aa80cb2c2	0.047343094838969715
231	0x3fad31042f6b997b	0.05701459006177153
232	0xbf8ba778a830fb61	-0.013503019936363438
233	0xbf9ee2becf9ea17d	-0.03016183988771236
234	0x3f90cc5bd8312665	0.01640456683188631
235	0x3fc1266ee532b947	0.13398538771930132
236	0x3f806e2e00000000	0.008022651076316833
237	0xbfb4bbc246bfb8cb	-0.08098997332828899
238	0x3fb9532eb1374183	0.09892551256712605
239	0xbf9b96e1f535c65d	-0.026942759124216276
240	0x3fae2b6d32041af9	0.058925068240617
241	0xbf98438d80000000	-0.023695193231105804
242	0xbfbf8643451b7291	-0.12314243733585274
243	0x3fb56e54e0000000	0.08371477574110031
244	0xbfb268ce7bb7d88f	-0.0719117214246998
245	0x3fbbe280014b3cef	0.10892486602391548
246	0x3fa2bc3bc0000000	0.036592356860637665
247	0x3fb5fd1771a34e72	0.0858931209980314
248	0xbf96276caf7964d5	-0.021634767732710742
249	0xbfaefdf240000000	-0.06053120642900467
250	0xbfb86fc304372665	-0.09545534947314989
251	0xbfb0027120000000	-0.06253726035356522
252	0x3f939f9000000000	0.01916337013244629
253	0xbfa48049c5f65d03	-0.04004126111538577
254	0xbfaa52f4fa8f3bc2	-0.05141416128719058
255	0xbf8ad90300000000	-0.013109229505062103

fc3.bias f8 [64]
0	0xbfbe5aa8b43604e4	-0.11857084655459321
1	0x3fa25aa17bca6ef0	0.03584770809285753
2	0x3f78a4a4d2b5c968	0.006016391601735151
3	0x3fb4abcca27302db	0.08074645010038799
4	0xbfc09ed078cab474	-0.1298466291240491
5	0x3fae436c1635f4da	0.059108140670085255
6	0xbfa08c65a171583f	-0.03232114406334618
7	0xbfb9fa25a7ac6911	-0.10147319167700554
8	0xbf99725e00000000	-0.02485033869743347
9	0x3fbc7a902c14f2f3	0.111245165598074
10	0x3f9bf79d00000000	0.02731175720691681
11	0x3fc343be60082e5d	0.15050487221775458
12	0xbfb0323820000000	-0.06326628476381302
13	0x3fc23bcff6eb34e7	0.1424503284128271
14	0xbfab428c51dedeb6	-0.05324209689518737
15	0xbfb065c70c546a0e	-0.06405300189036486
16	0x3fbabe723a88ed5f	0.10446847848009132
17	0xbfae0552680fb161	-0.05863435287742181
18	0x3fc6e60c5380e0b9	0.17889551236453885
19	0x3fb55a2b20000000	0.08340711146593094
20	0xbfaf9e4ba0000000	-0.06175457313656807
21	0xbfb99ef63202fce8	-0.10008181305873942
22	0xbfc18e67f1c161e6	-0.13715838722670454
23	0x3fa0c72f4299a07d	0.03276965797414364
24	0x3fcd385c6c7f0024	0.22828250215207035
25	0x3fbb6ea494472afd	0.10715702648228027
26	0xbfc18fdf583cb9f3	-0.13720313843209872
27	0xbfb46ef7a0000000	-0.0798182263970375
28	0x3fc03fb539575150	0.1269442110048069
29	0xbfc2458bd6f6f854	-0.1427473830826239
30	0xbfb37cc58640cdfc	-0.07612261321701647
31	0xbf916cb100000000	-0.01701618731021881
32	0xbfa92d9c20000000	-0.04917610064148903
33	0xbfa6c5da80000000	-0.04447825253009796
34	0xbf9cf270436167fc	-0.028268579590395845
35	0xbfb5a3ff40000000	-0.08453364670276642
36	0xbfaeb2eec1c53735	-0.05995889773713118
37	0xbfb3914740000000	-0.07643552124500275
38	0xbfa78dec00000000	-0.046004652976989746
39	0xbf8238c400000000	-0.008897334337234497
40	0xbfa8d8134de17cdd	-0.0485235245293951
41	0xbfc00793890e62df	-0.1252312106342037
42	0x3f911a653e441820	0.016702253270544642
43	0xbfc19c7eee50ded5	-0.13758837353247225
44	0xbf87e731b5a97191	-0.011671436649685759
45	0xbfbb36d303526388	-0.10630530196284671
46	0xbfb55d7f07b837e0	-0.08345788897005901
47	0xbf9e0a1130289381	-0.029335278095590226
48	0xbfb11b87d7109e59	-0.06682633400543504
49	0xbfa7494036d3466c	-0.04548073453191823
50	0x3fbd02cdf1f3aec9	0.11332404286411725
51	0x3f7969f287ba0d1d	0.0062045549235592275
52	0x3fafddeed4c7da4b	0.06224008891506524
53	0x3fba7b42ecd5629a	0.10344332010334725
54	0xbfafbcb9cf9b7b38	-0.06198673877019306
55	0xbfae3f8d1bc37049	-0.059078607215014296
56	0x3fc22850920f6b10	0.14185530788275758
57	0x3f849362e2227adf	0.010046741987307537
58	0xbfa7155ae0531320	-0.045084800608981235
59	0xbfb4271d9b96a829	-0.07872185753390738
60	0x3fbd727529f6f04f	0.11502773546720955
61	0x3fc047c1de518548	0.12718985896484925
62	0xbfc1523b9d8b42f9	-0.135322048116471
63	0x3fb8450d4623263f	0.09480364763580783

fc4.weight f8 [2, 64]
0	0xbf95d93dda1ef5ac	-0.02133652347378294
1	0x3fb8106163428724	0.0939999453862837
2	0x3f9ec55a74b865ec	0.03004971825985152
3	0x3fa6501df4b46b07	0.04357999431723241
4	0xbfaa45aa9ed46bcb	-0.051312763107680924
5	0x3f752d88bf96ef58	0.0051703778967143385
6	0x3fb0f3c7c21b2e05	0.06621979226036252
7	0xbf964581702b6234	-0.021749517890244444
8	0x3fa52fda80000000	0.04138071835041046
9	0xbfbfb99f3314d2c6	-0.12392611500838333
10	0x3f83c02a00000000	0.00964386761188507
11	0x3fae602a5ac7fa0e	0.05932743414085816
12	0x3fb938be00000000	0.09852206707000732
13	0x3f63f172e48457cc	0.0024344676968537145
14	0x3fa85cc296820a07	0.047582703468851455
15	0xbfa3587813da0f19	-0.03778434030848938
16	0x3fa4afea772b3089	0.04040463165947112
17	0x3fa4daf3fbd1e29e	0.04073297928784324
18	0x3fae3b183ba4bc43	0.05904460647649803
19	0x3fad9c2880000000	0.0578320175409317
20	0x3fa8d1fc80000000	0.04847706854343414
21	0x3f81989bf35a5691	0.008591860164681083
22	0x3fa89c662f867a25	0.04806823091643179
23	0xbf58f5813e1f1fb1	-0.00152337666848899
24	0x3f8bfe1024715f02	0.013668180572650627
25	0x3f93549d41da8b67	0.01887746538580917
26	0xbfa8a8b5fa424248	-0.048162161635563694
27	0xbfa4d1d580000000	-0.04066340625286102
28	0x3f97896c5eb1c23d	0.022985165862737345
29	0xbf97f402dcb3d8c8	-0.023391766281712717
30	0xbf84803cf6a07370	-0.010010219837619266
31	0xbfbcbf26c0000000	-0.11229173839092255
32	0xbf805d8400000000	-0.007990866899490356
33	0x3fb8456ec0000000	0.09480945765972137
34	0x3f9464f51f253106	0.01991637232394885
35	0xbf8bb2d200000000	-0.013524666428565979
36	0x3fba981afe4c434c	0.10388344486660833
37	0x3fbc6ae140000000	0.11100585758686066
38	0x3fbbf985c0000000	0.10927616059780121
39	0x3fa7525c80000000	0.04555024206638336
40	0xbfa2fdc10e55b411	-0.03709224033341497
41	0xbf909302b819df5a	-0.01618580101646159
42	0xbf93136d16cb9043	-0.01862879230147053
43	0x3fa118757a41e48e	0.033389731573103196
44	0x3f73e377308a6c36	0.004855599960730086
45	0x3fa518e6984a22e3	0.04120560273174136
46	0x3f71af474f7bfa3c	0.004317549282630891
47	0x3f9c7c4df7e503a2	0.02781793427971347
48	0x3faa0ae061b492da	0.050864231039928945
49	0x3faf53d1e63ef42b	0.061186370235624864
50	0x3f71d89340bc9348	0.004356932837059464
51	0xbfa42f7b8b2d8edc	-0.03942476343106957
52	0x3fb2ee5cd83758b4	0.07394962576595071
53	0x3fb64b1ece8979fa	0.08708374540717748
54	0xbf6628cbb61d1ffb	-0.002704999803345485
55	0xbf87dda2781002a2	-0.011653203286188078
56	0xbfb0d616134ede7e	-0.06576669665707333
57	0xbfb009172f720f31	-0.06263871105516895
58	0x3fac20d7d3b68aaa	0.054938072770956595
59	0xbfaef56c5f9e6bd1	-0.060466181442471297
60	0x3f9d976eecb0bf76	0.028897984692036492
61	0x3fb256d7f15cfc79	0.0716376270547573
62	0x3f88ae251a495ea9	0.01205090509863223
63	0x3fb6d7364e9011aa	0.08922137659107557
64	0x3fa5e4f6e92c6829	0.04276248546939627
65	0xbfa46598ed5545e4	-0.03983762642986813
66	0xbfd3bed7904a63c4	-0.30852307406308577
67	0xbfb01bba9c1b885d	-0.06292311011523695
68	0xbfc4f3c49ac2cbbb	-0.16368920857129673
69	0xbfd544de58312f99	-0.3323284016848845
70	0xbfc9c6dcba6f06dd	-0.2013812933274072
71	0xbf87bfc5a0cfd7e9	-0.011596244783486713
72	0x3fbb478d80000000	0.10656055808067322
73	0xbfd51c6eb84cfa30	-0.32986038206209667
74	0xbfb8257380000000	-0.09432145953178406
75	0xbfd57d68d7679eb2	-0.3357793906747971
76	0xbf9ac55a00000000	-0.02614346146583557
77	0xbfce9c062a8b2d14	-0.2391364772541712
78	0xbfb1dc669dfbb8c9	-0.0697693000508678
79	0xbfbb99b300a842d2	-0.1078140141110098
80	0xbfc96795b0d3c824	-0.19847365507263348
81	0xbfb6364a68dfc352	-0.08676590977098655
82	0xbfd5bbc50a76a8ac	-0.3395855524237372
83	0x3fb7a61200000000	0.09237778186798096
84	0xbfad056900000000	-0.05668190121650696
85	0x3fae4b094eb76b76	0.059166231974549996
86	0xbfb986cdd45606ca	-0.09971319612489107
87	0xbfc3179d979ce221	-0.14915819075555795
88	0xbfd6ad561151b72e	-0.3543296021588159
89	0xbfc2cc67df9f4294	-0.14686296862648318
90	0xbfa30b89d250ff4d	-0.03719740574206174
91	0xbfb8ce9fc0000000	-0.09690283238887787
92	0xbfcf718db18cbfb7	-0.24565287751602025
93	0x3fa215f2bbc0fe7f	0.03532370130460282
94	0x3fbc024d48483f14	0.10941012396528677
95	0xbfb0425ac0000000	-0.06351248919963837
96	0x3fa49dfa00000000	0.040267765522003174
97	0xbf97871000000000	-0.022976160049438477
98	0xbfaa3fc1bf883f0f	-0.0512676760009737
99	0xbfa68e6700000000	-0.04405519366264343
100	0xbf94b8fcea033d3d	-0.020236923010825015
101	0x3fbff86480000000	0.12488391995429993
102	0xbfbd0fd800000000	-0.11352300643920898
103	0x3fbb2ce3c0000000	0.1061537116765976
104	0xbfc40e58c8a71dc4	-0.15668782994747066
105	0xbfc0c8b03f7afba1	-0.13112452602032668
106	0xbfc9739bdba8b8e4	-0.19884060121098124
107	0x3f9b3366f79641ec	0.026563271390445495
108	0xbf7dba8568326c5a	-0.0072579585277266715
109	0xbfbab315df7623b1	-0.1042951269684085
110	0x3fad6a02629f31d4	0.057449411906052156
111	0xbf8634ea715b5cdb	-0.01084311636388551
112	0xbfaa955e127c915b	-0.05192083335558336
113	0xbfc17b04e78b1817	-0.13656674676730127
114	0xbfd3243e5f164b88	-0.2990871361336578
115	0x3f96b5b061d0c1a3	0.02217746350305706
116	0xbfcf6664c5220d03	-0.24531230569491677
117	0xbfd29f540c1b03dd	-0.29097462827854575
118	0x3f8235c32a05589c	0.008891606063724126
119	0xbfb73225f8340d20	-0.09060895261432167
120	0xbfeafcbb54933452	-0.8433510448318293
121	0x3faa3edeaa102393	0.05126090837445143
122	0x3f863636f17f7271	0.0108455936860363
123	0xbfb83d89c41d52ed	-0.09468899763062284
124	0xbfd4c2448c864bb2	-0.3243571636496042
125	0xbfcc872511b1dc87	-0.22287429203035833
126	0xbfb01db28204256b	-0.06295314478133711
127	0xbfd2c831addbfd40	-0.29346887567949764

fc4.bias f8 [2]
0	0x3fb3ce8aff8770df	0.07737034548285092
1	0xbfbaad0836e8ae62	-0.10420276012944776
