src/backend/controller/checkpoints/checkpoint_epoch_86.pth (torch, 420207 bytes, 25 tensors)

fc1.weight f8 [64, 5]
0.1717120449103628 -0.4640462140031112 0.24926836956367826 -0.18639969498787687 0.10665673865484823 -0.15748682618141174 -0.2859317362308502 -0.4182189404964447
-0.23558029532432556 0.102683424949646 -0.2343192993931723 0.06409249527111525 -0.4044159644030782 0.40741036516969653 0.05511550759605337 0.29222941398620605
-0.12881866097450256 -0.2658160924911499 -0.36438190937042236 -0.08555623888969421 -0.16404101252555847 -0.012782365083694458 0.3968053460121155 0.01920926570892334
-0.4070501923561096 -0.15362636053011428 0.35225410335443247 0.37553073686800753 0.09786684548237874 -0.35436096959506 -0.22335966761088727 -0.2847881848871545
0.2745575697745319 0.24671733178317268 0.39800178225540245 0.37379854917526245 -0.41267502307891846 -0.0874796211719513 -0.3212490677833557 0.085968017578125
0.18938103283447794 -0.2510891819770935 -0.006572787102640991 0.11705475524240928 0.25111223749977035 0.30384442441617093 0.013214057150649387 0.06304284889377243
-0.4003572537456254 0.11339886648721365 -0.32245665813656843 -0.035139311899811586 0.3852274159466697 0.006069029618741902 0.13702630354205783 0.25995882274447224
0.18122548661030022 -0.004952882523186515 0.3047765671772354 -0.005801799294616604 -0.1584734320640564 0.10327941179275513 -0.35499274730682373 0.29825127124786377
-0.19943299889564514 -0.31968942413078794 0.2340581328312221 0.4379971488754407 -0.0023769524569307917 0.29356495418031936 -0.350164461796044 0.25279691799323833
-0.11233885959765602 0.031941788824827434 -0.06589706377748893 -0.28154245018959045 -0.39090579748153687 -0.2809138894081116 0.3958856463432312 0.1273355484008789
0.18899523888449826 -0.034873402659124954 0.2196880429546201 -0.025069680802027202 0.13217089886763242 -0.05044634405311622 0.3722794638398119 0.14788448893633382
0.13046502049636696 0.24629551645057135 0.2305031418800354 -0.17867669463157654 -0.4265388250350952 0.046540647745132446 -0.28340089321136475 0.07856088852195306
0.05008022764034762 0.10682420119738108 0.2591850782450344 -0.2050355366413464 0.509973893504298 -0.38804436759656785 -0.28378032029977884 0.24320638408518516
-0.019658267940103294 0.2008170485496521 -0.23314857482910156 -0.052512556314468384 -0.15051090717315674 -0.2524383068084717 0.4268262982368469 -0.1996842473745346
-0.30966246128082275 -0.41050320863723755 -0.41057053208351135 0.19663764072627066 0.3283655319372656 -0.051767956685992496 -0.4646166218041986 0.17921377317971626
-0.11689847707748413 -0.3861534297466278 0.3823000192642212 0.1358056664466858 -0.24432815611362457 -0.28730142717416574 0.06718475516267389 -0.340887892261144
0.19695873484569823 -0.3257745593540368 0.3573336601257324 -0.11508020758628845 0.08344215154647827 -0.4326631426811218 -0.07486072182655334 -0.06321179866790771
-0.1253010332584381 -0.060605525970458984 -0.07296356558799744 0.3147851824760437 0.05293220474553857 -0.20917480820010126 0.24761392060838636 0.14965495076007765
-0.29747856366340175 -0.14019310474395752 -0.12256672978401184 0.3443242311477661 -0.013670265674591064 0.1359119415283203 -0.1553056836128235 0.21436315774917603
-0.09526622295379639 0.19238531589508057 0.035091787576675415 0.19413775205612183 0.016615450382232666 -0.32409489154815674 -0.39700549840927124 -0.2783563733100891
0.046868492680014896 0.15632659044274577 -0.23953331072344425 0.21262828197687375 0.3138239668870437 0.14430722436628063 -0.3127645019444012 0.0507645898284528
0.2188221643344637 0.38306003820347406 -0.2745234966278076 0.0585247278213501 -0.129891037940979 0.214630126953125 0.055469393730163574 -0.38239791989326477
-0.08170893788337708 0.031002163887023926 -0.35994672775268555 -0.3928275406360626 0.4005333290716406 -0.15345060918448974 -0.3834478927974679 0.03290312785073502
0.20836946329847456 0.32447883612444983 0.07741609505788574 0.22788196232423938 0.2600915783200318 0.375914152943012 0.25858236159344467 -0.13486968483113032
-0.27176243422070717 -0.20000526291747742 -0.11140572733196297 -0.31486520225091474 -0.28322037527734767 0.5077627842759588 -0.1505852181010926 0.31766453232598246
0.4495931908503427 -0.11456535463001401 -0.3884567687701623 0.4063409470705866 -0.07345294931710616 0.06637710332870483 0.15834105014801025 -0.1603129506111145
-0.11477276682853699 -0.3749419152736664 0.024249494075775146 -0.1269947588443756 -0.22993823885917664 0.1692209243774414 -0.08096730709075928 0.1317888089331022
-0.0415983396430027 -0.43636033388975637 0.20716818451456806 -0.1501787327849652 -0.11828962829998807 0.44815620852824073 0.40759261770460997 0.2922368568509897
-0.3430831551370555 -0.5237541666073092 -0.03310394209650639 -0.330393911781194 0.35741942561935 0.26572353725107717 0.21423026692757907 -0.24643128056276475
0.0013923929029849617 0.2793027314159789 0.15754937257629595 0.09034475093767805 0.33403448676743625 0.09424220328526342 0.37506589207946456 -0.0756748737887842
0.014372331653632109 0.26996783953793835 0.37635557501719386 0.17770955891583504 -0.00606926710610775 0.07042723894119263 -0.09770673513412476 -0.027212321758270264
0.2269570231437683 -0.012213528156280518 0.22955402859154092 -0.2915087738091142 -0.28186265266251237 0.08816227809229558 -0.21560137564574627 0.11011416628296448
00000000: be11 9c08 a9fa c53f 7476 3ee4 eeb2 ddbf
00000010: c403 9aa3 06e8 cf3f 0389 faf8 f1db c7bf
00000020: eeab 6b24 db4d bb3f 0000 0040 8728 c4bf
00000030: 0000 00a0 b44c d2bf 0000 0060 19c4 dabf
00000040: 0000 00c0 7e27 cebf 0000 0000 7649 ba3f
00000050: 348f dbbf 2cfe cdbf ffc4 1ba3 5d68 b03f
00000060: 7bdb 457f f3e1 d9bf 0c23 9dec 0213 da3f
00000070: 3646 418d 1938 ac3f 0000 0000 e3b3 d23f
00000080: 0000 0040 217d c0bf 0000 0080 2103 d1bf
00000090: 0000 0080 0852 d7bf 0000 0080 03e7 b5bf
000000a0: 0000 00c0 4bff c4bf 0000 0000 a42d 8abf
000000b0: 0000 0040 4265 d93f 0000 0000 98ab 933f
000000c0: 0000 0040 1c0d dabf 61e2 2351 07aa c3bf
000000d0: 7980 72cb 548b d63f 7a6a 5f12 b208 d83f
000000e0: eda1 b534 cd0d b93f c0ef d8a1 d9ad d6bf
000000f0: 2e2d d1b1 0c97 ccbf 7429 1839 f839 d2bf
00000100: 2b41 c3e9 5992 d13f dcbb aefb 6e94 cf3f
00000110: bf58 a277 dc78 d93f 0000 00c0 50ec d73f
00000120: 0000 0080 4469 dabf 0000 0080 1065 b6bf
00000130: 0000 0040 588f d4bf 0000 0000 0002 b63f
00000140: 54de 403f a33d c83f 0425 3e5c d811 d0bf
00000150: 92ff 631a 11ec 7abf b180 9be9 4cf7 bd3f
00000160: 25f6 eb0f 3912 d03f 191f 7ce2 2f72 d33f
00000170: 82e2 79ba f80f 8b3f 00d4 3e7e 9323 b03f
00000180: 0772 e307 749f d9bf 404f f746 b507 bd3f
00000190: a4bc 4440 21a3 d4bf e3c7 d3a6 c7fd a1bf
000001a0: c3dd 40e4 90a7 d83f 89fa b1bb d6db 783f
000001b0: 01d4 33f2 138a c13f 78a0 7f54 2aa3 d03f
000001c0: c7b1 1891 6532 c73f a208 5447 7949 74bf
000001d0: 8141 2793 7581 d33f bf41 a7a3 a0c3 77bf
000001e0: 0000 0080 db48 c4bf 0000 0000 8570 ba3f
000001f0: 0000 0080 33b8 d6bf 0000 0080 8c16 d33f
00000200: 0000 0040 0587 c9bf 2434 61a1 ca75 d4bf
00000210: efbb efec 9df5 cd3f 1a52 8a31 2508 dc3f
00000220: cc1d 22a2 d478 63bf 8c32 5da9 c4c9 d23f
00000230: 38ab e833 1869 d6bf 18e0 d31f d32d d03f
00000240: e2b7 0a50 3dc2 bcbf fdb9 c194 ac5a a03f
00000250: 4fa5 d345 a1de b0bf 0000 00a0 ca04 d2bf
00000260: 0000 00c0 9904 d9bf 0000 0040 7efa d1bf
00000270: 0000 00c0 3056 d93f 0000 0000 884c c03f
00000280: 82e7 0df9 fe30 c83f 0da5 d737 edda a1bf
00000290: a5fa e7df bc1e cc3f bfd8 a9cc ddab 99bf
000002a0: a748 0fdc f9ea c03f 4161 d26b 1ad4 a9bf
000002b0: a485 8a3e 6dd3 d73f ea9a c801 e1ed c23f
000002c0: 13e5 26ea 13b3 c03f c83f 278a 9c86 cf3f
000002d0: 0000 0080 2081 cd3f 0000 00c0 e0de c6bf
000002e0: 0000 0080 694c dbbf 0000 0000 2dd4 a73f
000002f0: 0000 0080 3d23 d2bf 2e4d f2fe 901c b43f
00000300: 6576 c897 1da4 a93f 4567 90b2 d458 bb3f
00000310: a71c ab02 7d96 d03f eb39 32be 9a3e cabf
00000320: 9b45 4dc5 b451 e03f 4b5a 0e0b b8d5 d8bf
00000330: b0e6 bbee 7429 d2bf 2d82 e904 6321 cf3f
00000340: a451 9807 4c21 94bf 0000 0080 5fb4 c93f
00000350: 0000 0000 d0d7 cdbf 0000 0000 ede2 aabf
00000360: 0000 0000 f143 c3bf 0000 0000 f327 d0bf
00000370: 0000 0040 1f51 db3f 0000 00e0 408f c9bf
00000380: 0000 0080 82d1 d3bf 0000 0040 af45 dabf
00000390: 0000 00a0 c946 dabf b07c 0a16 6c2b c93f
000003a0: 0078 33dd f003 d53f f9e7 e461 5481 aabf
000003b0: 1eee f45a 47bc ddbf b65a 6617 7af0 c63f
000003c0: 0000 0000 0fed bdbf 0000 00e0 bcb6 d8bf
000003d0: 0000 0080 9a77 d83f 0000 0080 1462 c13f
000003e0: 0000 0020 2546 cfbf a2a8 7386 2563 d2bf
000003f0: c2a4 3626 0533 b13f 884b 3773 1bd1 d5bf
00000400: 9772 699e f135 c93f 6fd7 9289 7dd9 d4bf
00000410: 0000 0000 8ede d63f 0000 0080 e575 bdbf
00000420: 0000 0000 775c b53f 0000 00c0 c0b0 dbbf
00000430: 0000 0080 122a b3bf 0000 0000 a62e b0bf
00000440: 0000 0040 dd09 c0bf 0000 0000 b007 afbf
00000450: 0000 0080 bdad b2bf 0000 00c0 7025 d43f
00000460: 4a14 9310 ee19 ab3f b8e9 2e78 3dc6 cabf
00000470: e30f 861d d0b1 cf3f 9d79 99b7 e427 c33f
00000480: da80 8c87 e309 d3bf 0000 0000 d9f1 c1bf
00000490: 0000 0080 8860 bfbf 0000 0080 6809 d63f
000004a0: 0000 0000 28ff 8bbf 0000 0000 9065 c13f
000004b0: 0000 0080 0ee1 c3bf 0000 0080 4070 cb3f
000004c0: 0000 0000 5e63 b8bf 0000 0000 15a0 c83f
000004d0: 0000 0000 8df7 a13f 0000 0080 81d9 c83f
000004e0: 0000 0000 a403 913f 0000 0080 f8bd d4bf
000004f0: 0000 00c0 8968 d9bf 0000 0040 97d0 d1bf
00000500: 7d05 8ca6 25ff a73f 1030 b97c 8202 c43f
00000510: e60d ee0b 07a9 cebf abcd a54e 6737 cb3f
00000520: 14c6 9e1e b115 d43f 2067 9dbc a878 c23f
00000530: 10dc cc66 5504 d4bf 8353 37fa d0fd a93f
00000540: 416d ba5b 5d02 cc3f 7742 1f40 0e84 d83f
00000550: 0000 0000 cb91 d1bf 0000 0000 f4f6 ad3f
00000560: 0000 0000 45a0 c0bf 0000 0000 0079 cb3f
00000570: 0000 0000 7c66 ac3f 0000 0020 3579 d8bf
00000580: 0000 0080 e0ea b4bf 0000 0000 08bf 9f3f
00000590: 0000 0000 5e09 d7bf 0000 0020 1624 d9bf
000005a0: 6386 548b 56a2 d93f 1dd4 ff01 45a4 c3bf
000005b0: 5941 d207 698a d8bf c12a 1cc4 add8 a03f
000005c0: 020f 2dbf d9ab ca3f 9283 59e1 42c4 d43f
000005d0: 5228 758c 8ad1 b33f eff4 c373 3c2b cd3f
000005e0: 2e5f b625 57a5 d03f 129a 3f3c fa0e d83f
000005f0: 5171 9708 9d8c d03f f627 c9ea 6843 c1bf
00000600: 2f98 d043 8e64 d1bf cb14 a1bf c599 c9bf
00000610: f855 7af3 1585 bcbf 0e3b 9460 c026 d4bf
00000620: ac21 585a 4820 d2bf abea 12bd 973f e03f
00000630: 0cab 805d 6046 c3bf 561c 5c9e 9d54 d43f
00000640: 6f37 cd84 22c6 dc3f 3dfb 63b3 2754 bdbf
00000650: 87c5 71c7 79dc d8bf d167 ac75 7d01 da3f
00000660: 7499 1cff cfcd b2bf 0000 0000 17fe b03f
00000670: 0000 0000 8544 c43f 0000 0080 2285 c4bf
00000680: 0000 0080 bf61 bdbf 0000 0060 0cff d7bf
00000690: 0000 0000 dcd4 983f 0000 0040 5d41 c0bf
000006a0: 0000 00c0 9d6e cdbf 0000 0000 08a9 c53f
000006b0: 0000 0000 46ba b4bf 0459 2ca8 74de c03f
000006c0: 4950 aba8 604c a5bf 5000 d5e4 53ed dbbf
000006d0: 7781 a1b0 7c84 ca3f f5dd ee84 0e39 c3bf
000006e0: 4c23 01a5 3a48 bebf 9d33 c860 97ae dc3f
000006f0: 1a78 c858 ff15 da3f e917 b737 02b4 d23f
00000700: 45d1 c70c 13f5 d5bf ad1b 1719 98c2 e0bf
00000710: 15aa 58f9 fff2 a0bf 8774 7981 2c25 d5bf
00000720: a55f ffb9 f5df d63f 0555 914b 9d01 d13f
00000730: f836 22bb e56b cb3f ac3e 5d69 0f8b cfbf
00000740: 96f1 d07e 1ed0 563f d15d 4790 18e0 d13f
00000750: af39 5ced 932a c43f f280 a466 d520 b73f
00000760: 03bf 192f d260 d53f 6e60 03cd 4120 b83f
00000770: 2de3 145f 1401 d83f dd3f 0db4 6d5f b3bf
00000780: 605f 5bb3 3d6f 8d3f d461 7230 2747 d13f
00000790: 8c6e 97b1 3516 d83f cf73 ddd3 2fbf c63f
000007a0: dfe6 b37b 16dc 78bf 0000 0000 8507 b23f
000007b0: 0000 0000 4f03 b9bf 0000 0000 8cdd 9bbf
000007c0: 0000 0080 ed0c cd3f 0000 0000 6803 89bf
000007d0: 9f9c bbc2 0662 cd3f 1476 806a 14a8 d2bf
000007e0: 198e c9a6 090a d2bf 47b3 2595 cd91 b63f
000007f0: ea7f af6c d398 cbbf bbfa 0227 7130 bc3f

fc1.bias f8 [64]
-0.25755384280298416 0.16295605897903442 0.26427073519648103 0.06451404094696045 -0.38506436347961426 -0.17055681632429107 -0.2126586211205606 -0.2740658223628998
-0.4123274266257616 -0.06052769982687212 0.14692838225203222 -0.10519483112434856 -0.20395055413246155 -0.2558699972668742 -0.09029560896436921 0.21260493993759155
-0.18405192800061912 -0.057726641041386764 -0.22168532013893127 -0.2521779962917978 0.0628382165083416 0.05535346269607544 0.04343867301940918 -0.08904002402817826
-0.2567555606365204 0.21465341354922227 -0.37204283475875854 -0.24961154162883759 -0.2542973490617728 -0.3390759229660034 -0.32782331109046936 -0.1563149392604828
-0.15858010587471333 -0.4497364476305984 -0.13466614484786987 -0.004641890525817871 -0.05908465860461347 0.24501583312214842 -0.1116949830033524 0.10095396072943255
-0.04589268871101435 -0.2067943662405014 0.03128430247306824 0.31466264059740173 0.2717863338611144 0.025786776724941857 -0.48639675654032527 -0.03034368670591812
-0.136613355385901 -0.44391533732414246 0.5155510924216246 0.38915264963608215 0.06281198781105628 -0.26109030842781067 -0.3221997916698456 0.05373257398605347
-0.2715231631088627 0.06637624218701685 -0.2890077829360962 -0.4119040224561592 -0.2622549533843994 -0.20679146835157608 -0.28725810419412723 0.40453667312601505
00000000: 7b11 f31c c37b d0bf 0000 0080 bedb c43f
00000010: 5c5c 3dcd cfe9 d03f 0000 0000 fe83 b03f
00000020: 0000 0000 e5a4 d8bf bb81 1c46 ced4 c5bf
00000030: 026f 76cf 6538 cbbf 0000 0060 4b8a d1bf
00000040: be7e 2693 9263 dabf d05c 8496 7cfd aebf
00000050: 9136 509a 8cce c23f 6727 6367 0cee babf
00000060: 0000 0040 0d1b cabf 427c 928d 2c60 d0bf
00000070: 5370 79ef 9c1d b7bf 0000 0080 a336 cb3f
00000080: cda2 c379 038f c7bf 7ae9 c2a6 588e adbf
00000090: 0000 0040 2f60 ccbf 6c05 b62d af23 d0bf
000000a0: 9ca0 d754 2a16 b03f 0000 0000 4a57 ac3f
000000b0: 0000 0000 983d a63f ba6f 3cb7 53cb b6bf
000000c0: 0000 00e0 ae6e d0bf 1397 9557 c379 cb3f
000000d0: 0000 00c0 8ccf d7bf 0000 0060 45f3 cfbf
000000e0: 0482 6b63 6846 d0bf 0000 0080 6bb3 d5bf
000000f0: 0000 00a0 0efb d4bf 0000 00c0 2002 c4bf
00000100: 2699 4358 5a4c c4bf f620 9961 7bc8 dcbf
00000110: 0000 0080 bd3c c1bf 0000 0000 6003 73bf
00000120: 46e5 cd28 5840 aebf 5a83 21c7 ad5c cf3f
00000130: bc6d 20db 0a98 bcbf 820d bc67 1ed8 b93f
00000140: 4d54 471a 3f7f a7bf 0000 00e0 3c78 cabf
00000150: 0000 0000 7f04 a03f cbe2 a8c5 6e23 d43f
00000160: f0b9 db81 f264 d13f 95bf cf4a d967 9a3f
00000170: ab27 8edc 1f21 dfbf fbfe 2a58 6a12 9fbf
00000180: 8725 cae2 8b7c c1bf 0000 00e0 1b69 dcbf
00000190: 41c6 2b01 657f e03f 93ad d583 e0e7 d83f
000001a0: 13fb 7149 7214 b03f 0000 0020 b4b5 d0bf
000001b0: 0000 00e0 eb9e d4bf 0000 0000 d682 ab3f
000001c0: b22d 6ab0 a260 d1bf 6eb3 6c8d 08fe b03f
000001d0: 0000 0080 1a7f d2bf 3c90 62b0 a25c dabf
000001e0: 0000 0000 c9c8 d0bf 1eb7 d490 2478 cabf
000001f0: 4a95 c1d0 6f62 d2bf d6f7 46c9 ede3 d93f

fc2.weight f8 [128, 64]
0.16783343178699506 0.04848848283290863 -0.2166090664665992 0.08302196860313416 -0.07802818715572357 0.0018159802807609015 -0.09915954020632409 0.08403293788433075
-0.010410719544503719 -0.10781512886898782 0.21468682685551713 -0.007769344870239282 0.045676231384277344 0.16040198154758917 0.060154298561387994 -0.11497291922569275
0.06505760718018329 -0.0491745348145506 -0.10099020600318909 0.06913255048038468 -0.37092279193786387 0.12457859516143799 -0.06810134649276733 -0.08473040121176696
0.05323682725429535 -0.060137533955874144 -0.11731952428817749 0.11162075400352478 -0.040267547966629375 0.12082524597644806 -0.025568649172782898 0.032455697655677795
0.08546953066912003 0.0745885656931003 0.06213757395744324 0.0795111209154129 -0.03577831707693714 0.13502036274576845 -0.06979064103257877 0.07904047943715817
-0.18171788256674742 -0.09662874042987823 -0.055537447333335876 -0.13123466924003613 0.13503962910573203 0.16220325024920024 0.10462917051509961 0.1446148500996768
-0.03986512883604466 -0.1192178875207901 -0.18110650600942738 0.08614911537959734 0.1269643688516358 -0.0378129780292511 0.04424102604389191 -0.07410448789596558
-0.037276484525901044 0.30103448113117864 -0.06127724051475525 0.2118569982573455 0.021099820733070374 -0.03641228482760322 0.12486239783653817 -0.12562905326713628
0.14710951044572199 0.04754680395126343 -0.04461673089296047 -0.11506190896034241 0.09858828783035278 0.16427631749845722 0.0747318927238087 -0.03155797719955444
-0.12333240349034948 0.13819212707946887 0.1213358424200018 0.14535066248417497 -0.07030391693115234 0.10603779694546568 -0.002363673198464752 -0.05682685971260071
0.11684793263866032 0.12710086244650587 0.017434626817703247 0.14422619142535942 -0.35830002246668935 0.12297642230987549 -0.11962990462779999 0.04817510227521904
0.048812225461006165 0.011111361119759787 -0.07497991621494293 0.012364953756332397 -0.12520446702833007 -0.10351784527301788 0.10684394836425781 0.08454196155071259
0.06471705382442838 0.00871582976940021 -0.0659954845905304 0.06951664388179779 -0.17752691144512708 -0.008917611631662962 -0.05363044355769658 0.05214377811433218
-0.19805679729362105 -0.02407267689704895 0.0528220534324646 -0.10363579036262327 0.1434216738753354 0.1054854537657145 -0.07234886662293469 0.017822363866621206
0.1018472591814025 -0.02115313708782196 -0.3149762590843497 -0.014673030915314262 0.0919646867241765 -0.0010669082403182983 0.04069015383720398 -0.03737284243106842
0.0730635002320198 0.411223420305751 0.024788275361061096 0.04007197629053578 0.07572837173938751 -0.035395047789526284 -0.02084679549319642 -0.1765871044884561
0.05128578841686249 0.11469148099422455 0.05626752972602844 -0.020994439721107483 -0.04542633891105652 0.024455711245536804 0.023697972297668457 -0.030291587114334106
0.11601851880550385 0.11583957076072693 0.014417141675949097 -0.036647602915763855 0.12222687900066376 0.0925413966178894 0.010417655110359192 0.11615128815174103
-0.09335191547870636 0.0029187947511672974 0.059048011898994446 0.009012162685394287 -0.1069951206445694 0.0514325350522995 0.010655850172042847 0.04085114598274231
-0.054498255252838135 -0.040580183267593384 -0.07728274166584015 -0.034776076674461365 0.00675007700920105 0.0437106192111969 -0.026751816272735596 -0.006144657731056213
0.00866323709487915 -0.020519152283668518 0.08007848262786865 -0.015260085463523865 0.08058206737041473 -0.06079699099063873 0.0950978696346283 0.049122899770736694
0.023044317960739136 0.013670369982719421 0.020310774445533752 0.10971090197563171 0.1072588562965393 0.11532142758369446 -0.05211260914802551 0.1025560200214386
-0.10017463564872742 -0.11907222867012024 0.10334251821041107 -0.08588787913322449 -0.044569388031959534 -0.11070370674133301 0.0897010862827301 -0.029435500502586365
-0.038821861147880554 0.008426100015640259 -0.0961381047964096 0.07351963222026825 0.0771975964307785 -0.07047675549983978 0.01842452585697174 -0.0614202618598938
-0.10520830750465393 0.01570376753807068 -0.07842087745666504 0.027011752128601074 -0.03354214131832123 -0.06039923429489136 0.06900322437286377 -0.08737963438034058
-0.01917882263660431 -0.10362283885478973 0.01719948649406433 0.10872858762741089 0.006345480680465698 -0.10763430595397949 -0.07922659814357758 -0.0721343457698822
0.07124049961566925 0.07701495289802551 -0.05910086631774902 0.03623458743095398 0.002151176333427429 0.004817202687263489 -0.07734706997871399 0.1110992580652237
0.022838890552520752 0.07761023938655853 -0.04409131407737732 0.04642479121685028 -0.08146217465400696 0.09533855319023132 0.07211227715015411 -0.009176477789878845
-0.07471226155757904 -0.09257663786411285 0.004039481282234192 -0.052190497517585754 0.017168685793876648 -0.1005190759897232 0.10775859653949738 -0.10661697387695312
0.0034256279468536377 -0.06597594916820526 -0.04985387623310089 0.0818420946598053 -0.08196958899497986 -0.08751511573791504 -0.0676000565290451 -0.09712125360965729
-0.008934259414672852 -0.0310785174369812 0.030491948127746582 0.059211328625679016 0.06194591522216797 0.10446573793888092 0.0017051398754119873 0.04514715075492859
0.08282795548439026 0.031386032700538635 -0.024935752153396606 -0.02411876618862152 -0.006971403956413269 0.036908313632011414 -0.09980732202529907 -0.10238665342330933
00000000: f4ac 59de 907b c53f 0000 0080 7bd3 a83f
00000010: 79dd 3e8c d8b9 cbbf 0000 0080 ed40 b53f
00000020: 0000 00c0 a7f9 b3bf dc8b a0fa c5c0 5d3f
00000030: 6ec6 4506 8562 b9bf 0000 00c0 2e83 b53f
00000040: d892 c51f 3752 85bf b99e 81b4 c599 bbbf
00000050: a9fc 1ca2 db7a cb3f 817a 10a2 bfd2 7fbf
00000060: 0000 0000 e062 a73f 5ef1 7a58 0d88 c43f
00000070: 11e9 1152 8bcc ae3f 0000 0080 dd6e bdbf
00000080: 19e5 3187 9da7 b03f f225 a695 672d a9bf
00000090: 0000 0080 7eda b9bf 87fe 66bb abb2 b13f
000000a0: 6fb4 2df3 32bd d7bf 0000 0000 62e4 bf3f
000000b0: 0000 0000 176f b1bf a576 2e3e e4b0 b5bf
000000c0: 0000 0080 db41 ab3f eb83 34cb 58ca aebf
000000d0: 0000 0000 a708 bebf 0000 0080 2d93 bc3f
000000e0: 74ac 36b3 f29d a4bf 0000 0040 67ee be3f
000000f0: 0000 0000 ab2e 9abf 0000 0080 089e a03f
00000100: 4241 07c7 54e1 b53f a4b2 4e7a 3c18 b33f
00000110: 0000 0000 7fd0 af3f 0000 0040 d75a b43f
00000120: b2b2 801b 8951 a2bf c0c0 24e5 5848 c13f
00000130: dd42 cda8 ccdd b1bf 2e25 3e32 ff3b b43f
00000140: 7a7c 5c15 8842 c7bf 0000 0040 a9bc b8bf
00000150: 0000 0080 676f acbf e860 3e32 4ccc c0bf
00000160: c627 5683 fa48 c13f 2c07 907b 13c3 c43f
00000170: ebe8 9131 fac8 ba3f c5d6 d849 bd82 c23f
00000180: f109 34c1 3369 a4bf 0000 0040 1085 bebf
00000190: ed9f 337c 7f2e c7bf c77b 2251 de0d b63f
000001a0: aace fc51 5e40 c03f 0000 0000 395c a3bf
000001b0: 0000 0080 c2a6 a63f 0000 0000 83f8 b2bf
000001c0: 40ae e543 e715 a3bf bb4f db20 2644 d33f
000001d0: 0000 0000 bb5f afbf e8d5 784f 211e cb3f
000001e0: 0000 0000 319b 953f c7ae 0389 a1a4 a2bf
000001f0: 3f44 356b fbf6 bf3f 79da 9ae1 9c14 c0bf
00000200: cdc0 2504 7cd4 c23f 0000 0000 0e58 a83f
00000210: 4f53 1410 01d8 a6bf 0000 0080 b274 bdbf
00000220: 0000 0000 153d b93f 4ae3 94a1 0107 c53f
00000230: 4c89 371b a121 b33f 0000 0000 5e28 a0bf
00000240: 5933 875f b692 bfbf c27c 2f95 47b0 c13f
00000250: d5c9 06a3 dd0f bf3f c925 e9ba d99a c23f
00000260: 0000 0000 70ff b1bf 394a 0506 4b25 bb3f
00000270: f92e bf62 fb5c 63bf 0000 0000 6918 adbf
00000280: 37cb 4901 bfe9 bd3f 4425 c04f d744 c03f
00000290: 0000 0000 62da 913f d403 b3fb 0076 c23f
000002a0: baa1 a937 63ee d6bf 0000 0000 627b bf3f
000002b0: 0000 00c0 10a0 bebf 80cd 8131 68aa a83f
000002c0: 0000 0080 eafd a83f 99c0 fca4 8dc1 863f
000002d0: 0000 0040 e231 b3bf 0000 0000 cc52 893f
000002e0: a792 9931 b306 c0bf 0000 0040 2580 babf
000002f0: 0000 0000 205a bb3f 0000 00c0 8aa4 b53f
00000300: 405d abfd 4b91 b03f bb5f 89de 9ad9 813f
00000310: 0000 0080 14e5 b0bf 0000 00c0 d7cb b13f
00000320: eb89 68ab 33b9 c6bf 0f08 8892 6543 82bf
00000330: 98f1 4c12 7375 abbf 87c2 61db 96b2 aa3f
00000340: 8d34 90d5 ec59 c9bf 0000 0000 82a6 98bf
00000350: 0000 0000 7e0b ab3f d075 4d0a e087 babf
00000360: aa83 6a33 a45b c23f 78a1 203e 1801 bb3f
00000370: e654 0c90 7485 b2bf 2a38 c797 0640 923f
00000380: 6a11 5f77 a912 ba3f 0000 0000 2ba9 95bf
00000390: 3828 f22e 9228 d4bf 8ad6 50df e40c 8ebf
000003a0: 5b02 de69 ff8a b73f 0000 0000 f07a 51bf
000003b0: 0000 0000 57d5 a43f 0000 0080 8822 a3bf
000003c0: c81e 0720 4ab4 b23f 64ff 6309 7c51 da3f
000003d0: 0000 0000 1962 993f 09d1 4e67 5084 a43f
000003e0: 0000 0040 ef62 b33f ef8a 64b9 4c1f a2bf
000003f0: 158d 7ac3 dc58 95bf 2e2d 56ff 679a c6bf
00000400: 0000 0080 2142 aa3f 0000 00c0 6b5c bd3f
00000410: 0000 0000 19cf ac3f 0000 0000 917f 95bf
00000420: 0000 0000 1f42 a7bf 0000 0000 eb0a 993f
00000430: 0000 0000 4844 983f 0000 0000 c204 9fbf
00000440: 0000 00c0 63b3 bd3f 0000 0080 a9a7 bd3f
00000450: 0000 0000 bc86 8d3f 0000 0080 79c3 a2bf
00000460: 0000 00c0 424a bf3f 0000 0000 cbb0 b73f
00000470: 0000 0000 da55 853f 0000 0040 17bc bd3f
00000480: 0000 0040 e9e5 b7bf 0000 0000 28e9 673f
00000490: 0000 0080 8a3b ae3f 0000 0000 f874 823f
000004a0: 0000 0040 0864 bbbf 0000 0080 5d55 aa3f
000004b0: 0000 0000 bcd2 853f 0000 0000 71ea a43f
000004c0: 0000 0000 32e7 abbf 0000 0000 edc6 a4bf
000004d0: 0000 0040 cdc8 b3bf 0000 0080 2bce a1bf
000004e0: 0000 0000 f8a5 7b3f 0000 0000 3d61 a63f
000004f0: 0000 0000 d464 9bbf 0000 0000 242b 79bf
00000500: 0000 0000 08be 813f 0000 0000 f902 95bf
00000510: 0000 0000 0680 b43f 0000 0000 ae40 8fbf
00000520: 0000 00c0 06a1 b43f 0000 0080 c820 afbf
00000530: 0000 0080 5558 b83f 0000 0000 a326 a93f
00000540: 0000 0000 ee98 973f 0000 0000 36ff 8b3f
00000550: 0000 0000 59cc 943f 0000 0080 0316 bc3f
00000560: 0000 0000 5175 bb3f 0000 0080 b485 bd3f
00000570: 0000 0000 81ae aabf 0000 0080 1c41 ba3f
00000580: 0000 0080 0ba5 b9bf 0000 0080 847b bebf
00000590: 0000 00c0 a774 ba3f 0000 0080 bffc b5bf
000005a0: 0000 0080 ccd1 a6bf 0000 0000 1457 bcbf
000005b0: 0000 0080 a6f6 b63f 0000 0000 5724 9ebf
000005c0: 0000 0080 75e0 a3bf 0000 0000 b441 813f
000005d0: 0000 00c0 819c b8bf 0000 00c0 2ed2 b23f
000005e0: 0000 00c0 38c3 b33f 0000 00c0 c30a b2bf
000005f0: 0000 0000 e1dd 923f 0000 0000 7a72 afbf
00000600: 0000 0080 eeee babf 0000 0000 a614 903f
00000610: 0000 0000 6413 b4bf 0000 0000 f8a8 9b3f
00000620: 0000 0080 6f2c a1bf 0000 0000 a6ec aebf
00000630: 0000 0000 32aa b13f 0000 0000 835e b6bf
00000640: 0000 0000 9da3 93bf 0000 00c0 0687 babf
00000650: 0000 0000 be9c 913f 0000 0000 a3d5 bb3f
00000660: 0000 0000 b8fd 793f 0000 0000 ec8d bbbf
00000670: 0000 00c0 3148 b4bf 0000 0080 6577 b2bf
00000680: 0000 0040 d13c b23f 0000 0080 40b7 b33f
00000690: 0000 0000 7842 aebf 0000 0000 578d a23f
000006a0: 0000 0000 589f 613f 0000 0000 34bb 733f
000006b0: 0000 0080 04cd b3bf 0000 0040 0071 bc3f
000006c0: 0000 0000 1463 973f 0000 00c0 43de b33f
000006d0: 0000 0000 2393 a6bf 0000 0080 fdc4 a73f
000006e0: 0000 0080 b4da b4bf 0000 0080 1b68 b83f
000006f0: 0000 0040 f375 b23f 0000 0000 1ecb 82bf
00000700: 0000 00c0 5720 b3bf 0000 0040 1ab3 b7bf
00000710: 0000 0000 b48b 703f 0000 0080 b6b8 aabf
00000720: 0000 0000 ab94 913f 0000 0040 9ebb b9bf
00000730: 0000 0040 1196 bb3f 0000 0000 404b bbbf
00000740: 0000 0000 1010 6c3f 0000 00c0 cce3 b0bf
00000750: 0000 0080 7286 a9bf 0000 0080 9af3 b43f
00000760: 0000 0080 f5fb b4bf 0000 0000 6467 b6bf
00000770: 0000 00c0 3c4e b1bf 0000 0040 f0dc b8bf
00000780: 0000 0000 204c 82bf 0000 0000 0cd3 9fbf
00000790: 0000 0000 4839 9f3f 0000 0080 f250 ae3f
000007a0: 0000 0000 60b7 af3f 0000 0040 44be ba3f
000007b0: 0000 0000 e0ef 5b3f 0000 0000 871d a73f
000007c0: 0000 0080 3634 b53f 0000 0080 d411 a03f
000007d0: 0000 0000 c288 99bf 0000 0000 97b2 98bf
000007e0: 0000 0000 0c8e 7cbf 0000 0080 a5e5 a23f
000007f0: 0000 0000 f98c b9bf 0000 0000 0336 babf

fc2.bias f8 [128]
-0.028344534795859067 0.04986216426985197 -0.0954146683216095 0.013235166668891907 -0.038569636177708054 0.010163083809487721 -0.06638862192630768 -0.044246748089790344
-0.07273711264133453 -0.049612216713137716 -0.015127554535865784 -0.054292247227503816 0.04146392584136733 -0.1462724442348991 0.02466081379074014 -0.09897025217682762
0.11935366268087337 -0.1681871037879037 0.04311748710817146 -0.1099620908498764 -0.04715263843536377 0.07558758671488698 -0.022655618155266646 0.04804271459579468
0.1427685358205213 -0.0333428829908371 -0.07150216724358291 -0.010995433682189498 0.06760769254008826 -0.13964712811000007 -0.034480004715080836 0.02129779915627968
-0.057813555002212524 -0.03119584115486319 0.052367382466301404 -0.005016724599584238 -0.05641133673522553 -0.07416805624961853 -0.03425891697406769 -0.03704369068145752
-0.12309302104748898 -0.15781389394313133 0.12085818065149709 0.03277561068534851 -0.09470455348491669 0.026363375007129496 -0.16398340479683593 -0.02002539323086216
-0.09207374486360692 0.14400894894328783 -0.1164550632238388 -0.01989637315273285 0.022459247449721293 -0.0496365030595491 -0.0434572112774168 0.0105724036693573
-0.04077004375674186 -0.046863749623298645 -0.01932463049888611 -0.12569602095749258 -0.06372585087831642 -0.07057252526283264 -0.1024843317007004 -0.059964388608932495
-0.04321661591529846 0.13200342032144144 -0.024152573085024238 0.13976308415749003 0.04622235753336305 0.0404431135308849 0.05717753101914838 -0.09382340896324794
-0.05709615349769592 -0.052712779838774995 0.08402329296316732 0.06208467841995255 0.07917771608014976 -0.048286423087120056 0.09605973375405168 -0.0009809881448745728
-0.002176821231842041 0.039473116397857666 -0.08548290070222006 -0.140369802377354 -0.10925917327404022 0.01838127816496768 -0.10248764974175421 0.033548625579467715
0.014671495626142395 0.11157701909542084 -0.13963147630331973 -0.17280538707252976 0.012959107756614685 -0.052493387125752425 0.04904844288769442 -0.06867910802609589
0.0894741435709555 -0.09230977296829224 -0.09830065968797005 -0.08529989071129496 0.0011943410516224125 -0.06274930206046406 0.03222295457616175 0.022315725753604337
0.011638372985016012 0.11698942823696698 -0.014984391383208994 -0.1735196998784625 0.01268632709980011 0.06701471159173997 0.022890699141730707 0.11686021037283692
-0.05103421460532771 -0.06111308932304382 -0.08671605000725686 -0.016717001140622096 -0.06835373483312754 0.04847353484969142 -0.015560789344281381 -0.11503725005018055
0.10296052493391741 -0.15357618202540899 0.0778517339230483 0.09212315082550049 0.07874144774710501 0.1093428333581062 0.0554262223146648 -0.024409249424934387
00000000: 3dcb df87 5906 9dbf f98e b199 8887 a93f
00000010: 0000 0080 186d b8bf 0000 0000 0a1b 8b3f
00000020: b3f5 003c 66bf a3bf 03c0 b404 62d0 843f
00000030: 0000 0040 d8fe b0bf 0000 0080 82a7 a6bf
00000040: 0000 0040 e69e b2bf eaac 87c0 c566 a9bf
00000050: 0000 0000 32fb 8ebf a175 8984 31cc abbf
00000060: 79a6 e77a c23a a53f 7abe 2532 0eb9 c2bf
00000070: 9f59 e532 af40 993f 4e58 604c 1d56 b9bf
00000080: 5346 df2d f68d be3f 7062 30af 2787 c5bf
00000090: 25d5 07ca 7e13 a63f 0000 00c0 7926 bcbf
000000a0: 0000 0000 6424 a8bf 818b ec44 b559 b33f
000000b0: c7ac 30cc 0833 97bf 0000 0000 0e99 a83f
000000c0: d89b 1f48 3d46 c23f 0000 0080 5112 a1bf
000000d0: ee80 e74d f74d b2bf d00e 9020 c684 86bf
000000e0: 89ee 6adc bc4e b13f 223c 1b04 f5df c1bf
000000f0: 6001 3cf9 5ca7 a1bf 3578 691b 17cf 953f
00000100: 0000 0000 bd99 adbf c319 2076 cdf1 9fbf
00000110: 68c8 23c6 e5cf aa3f fa7b 69c1 6a8c 74bf
00000120: 2989 cd5c f2e1 acbf 0000 0080 adfc b2bf
00000130: 0000 0080 628a a1bf 0000 0000 64f7 a2bf
00000140: 40ca c333 0683 bfbf 6a8a abe4 3e33 c4bf
00000150: 662c 5acd 8ff0 be3f 0000 0000 f7c7 a03f
00000160: 0000 00c0 8e3e b8bf 4308 df25 00ff 9a3f
00000170: bc35 5880 68fd c4bf 9f7a 1064 8981 94bf
00000180: a46a 021b 2592 b7bf ff78 059f e26e c23f
00000190: 0000 00c0 ffcf bdbf 0000 0000 b75f 94bf
000001a0: a544 2895 8eff 963f fa39 a8aa f469 a9bf
000001b0: e779 6c0a 0640 a6bf 0000 0000 fca6 853f
000001c0: aff2 2ea9 cfdf a4bf 0000 0080 86fe a7bf
000001d0: 0000 0000 d6c9 93bf 2df8 9fa5 ce16 c0bf
000001e0: daa0 6e5d 5650 b0bf 0000 0080 0a11 b2bf
000001f0: cac5 01c5 693c babf 0000 0000 a7b3 aebf
00000200: 0000 0000 7d20 a6bf 55d0 9ef2 7ce5 c03f
00000210: 75c6 0ebe 73bb 98bf 7b7f d2b9 c1e3 c13f
00000220: f54d e6f3 74aa a73f 7d58 edb3 f5b4 a43f
00000230: 3427 9693 5f46 ad3f 91ac 1899 cf04 b8bf
00000240: 0000 0000 b53b adbf 4242 fa62 2bfd aabf
00000250: 2608 61ef 8c82 b53f 6cf1 ca1e 90c9 af3f
00000260: 16df 22a5 fd44 b43f 0000 0080 ffb8 a8bf
00000270: 83a5 efe6 5e97 b83f 0000 0000 9012 50bf
00000280: 0000 0000 20d5 61bf 0000 0000 d235 a43f
00000290: b61c e216 35e2 b5bf 8d42 473f a3f7 c1bf
000002a0: 0000 00c0 68f8 bbbf 7811 4fb2 8ad2 923f
000002b0: 237e e26f a13c babf 630e 6113 492d a13f
000002c0: 6077 2ecf 160c 8e3f 0000 00c0 4f90 bc3f
000002d0: b883 1bb8 71df c1bf 1b4a 06a7 7c1e c6bf
000002e0: 0000 0000 4e8a 8a3f 3a39 ecc9 69e0 aabf
000002f0: 75a7 3ea4 e01c a93f f8f9 e33a f494 b1bf
00000300: 9790 7908 c7e7 b63f 0000 0000 9da1 b7bf
00000310: 7ef9 8866 3b2a b9bf 4017 f5b0 36d6 b5bf
00000320: ef7f 72f0 6d91 533f 0a4f 3298 5610 b0bf
00000330: 4f93 2bf0 867f a03f ab64 3101 efd9 963f
00000340: 7b5a cbfa dbd5 873f 3e69 41e8 04f3 bd3f
00000350: d9e0 87f7 22b0 8ebf 2049 18be e435 c6bf
00000360: 0000 0000 4afb 893f 562c a34a e027 b13f
00000370: 2305 c9d0 a870 973f a248 c1fd 8cea bd3f
00000380: 7af2 6915 2821 aabf 0000 0000 374a afbf
00000390: b5c8 d1e6 0533 b6bf 75a2 bef4 421e 91bf
000003a0: eef0 aa5f a17f b1bf 2148 cded 85d1 a83f
000003b0: 3548 abca 55de 8fbf 7b8c c9ca 1473 bdbf
000003c0: 52c3 5ef7 9e5b ba3f bb30 9f63 62a8 c3bf
000003d0: 35ea 225b 17ee b33f 0000 0000 6295 b73f
000003e0: b8db e946 6628 b43f 1536 5355 e4fd bb3f
000003f0: d557 5d68 d360 ac3f 0000 0000 bdfe 98bf

fc3.weight f8 [64, 128]
0.019414617558432407 -0.10061689986913493 0.06604767590761185 0.01786002516746521 -0.06403639897546329 0.015724119891457618 0.0023756399750709534 -0.0663505494594574
0.050822071731090546 0.009167216718196869 -0.07804253697395325 0.058533452451229095 -0.09075026848190026 -0.058010730892419815 -0.05972774799943142 0.024836033582687378
-0.09622199921552699 0.008677065372467041 -0.02501729130744934 -0.0874214842915535 -0.08062593638896942 -0.12390458934466991 -0.03006502240896225 0.0031182467937469482
-0.07185164432794193 -0.06485223025083542 0.029293134808540344 0.06011860817670822 -0.13419333054270882 0.040139056742191315 0.06365952640771866 0.014709025621414185
-0.032623935490846634 0.008565522730350494 -0.01448085904121399 -0.06644805520772934 -0.02327858656644821 -0.03797738626599312 -0.02580568939447403 -0.004791088402271271
0.01666373759508133 0.03995669633150101 0.018989999013370486 0.04126507788896561 0.01539059728384018 -0.010422095656394958 -0.03929447382688522 -0.06521560996770859
-0.03109651431441307 -0.01537807181284817 0.05422230809926987 -0.027247272431850433 0.004998497621785955 -0.060698369857523804 0.08319676667451859 0.032581329345703125
0.061544276773929596 -0.021692350506782532 -0.08063434064388275 -0.04421988129615784 0.008777156472206116 0.03653109818696976 -0.04375115782022476 -0.03575069457292557
0.040060438215732574 -0.0770882395919825 -0.024308308959007263 -0.1028941343139096 -0.0946862380251988 -0.12002243953931017 0.018591584121647187 0.04561062902212143
0.07363083213567734 -0.08049866756242885 -0.04328585719974813 -0.05984385684132576 -0.014368116709116141 -0.00019861012697219849 -0.05815785725848204 -0.06728526949882507
-0.044808611273765564 -0.017688095569610596 -0.06433650851249695 0.06891421228647232 0.03760550171136856 -0.040938835591077805 -0.011077702045440674 -0.14232728993885568
-0.1439162495242838 -0.04349614679813385 -0.00960637629032135 -0.05857204273343086 -0.04578039050102234 -0.08630538731813431 -0.08020587906063889 -0.05570542439818382
-0.07600484237131895 0.08302933722734451 -0.053229447454214096 0.05552021414041519 -0.03526216000318527 -0.10724192107572565 0.029797233641147614 -0.08701277524232864
-0.04865783080458641 -0.02902746438536887 0.05172955244779587 -0.010617777705192566 -0.013328500092029572 -0.1506846231359377 -0.042970966547727585 -0.06139877642193167
0.021063912442369315 0.060747407376766205 0.005764364095539954 -0.02083909511566162 0.06186116486787796 -0.0851067528128624 -0.017286047339439392 -0.029787201434373856
0.0008074883785990463 0.08647087961435318 -0.08763406489290357 -0.08270173519849777 -0.11880011811290646 -0.08328003008758418 -0.07933100235733595 -0.061476774513721466
0.006059439264150147 -0.06610142478199132 -0.07332978397607803 -0.0475492924451828 -0.14477410672395902 -0.1118918915817315 0.003832809627056122 -0.06956294924020767
-0.039431314915418625 0.03291970913553541 0.043293945491313934 0.03848017007112503 -0.0009519497687540327 0.025688968675364035 -0.0791597388815916 0.0222834477025551
0.004211981869988832 0.02268462762109409 0.13140800425661214 -0.033302269876003265 0.025907032191753387 -0.07397558024118933 0.10340203783867083 0.0053833648562431335
-0.05309999717366366 -0.011640369892120361 -0.0072493404150009155 0.05050748759958761 -0.061983648502996 0.061876531292314255 -0.02677668772863969 0.011436586250511702
0.08470744639635086 -0.002801525438667901 0.04064451610978996 0.13606273527414225 0.037810893602123384 -0.05992360785603523 0.08348754793405533 -0.07899124175310135
-0.1419918012579506 0.029790141704433035 0.033131463111621656 0.08095332235097885 -0.06944087147712708 0.06315335973097987 0.05253754558581655 0.04784960556108628
0.03441089295931235 -0.10371556909124738 0.04437144845724106 0.0033841729164123535 0.0527089677551266 0.00617374027352359 0.05073989214827736 0.06298369914293289
-0.004525276444651452 0.04826918989419937 -0.022922120988368988 0.004500672221183777 0.04098385659751883 0.0030692368745803833 0.14409101051836024 -0.05488453060388565
0.08532261103391647 -0.0623069986619672 0.02928384470470958 -0.03446795967636758 0.049290038138759054 -0.02452361957780755 -0.004157230257987976 0.11197672463230278
0.06810916215181351 0.025180230163775554 0.01702418650894326 0.08495262635544842 -0.04474990521994247 -0.048373930156230927 0.003438125714890294 -0.03792813792824745
0.05243251472711563 0.06026030331850052 0.09603183229693295 0.017106547745860876 0.034240394830703735 0.12433968423548253 0.07278714798332275 0.09398096336135847
0.019871270115184855 0.04430093616247177 0.09499684655916459 0.09840225284594514 0.01743505150079727 -0.0016955022703653132 -0.08235527199484322 0.008026956279314431
-0.07075071142186609 0.08324842900037766 0.02638220441297653 -0.011353205690021817 0.1169261327624313 0.017830585046624665 0.04733591296496023 0.05701168621842391
-0.01351015528665612 -0.030147628632533785 0.016399788010685704 0.13397847506684332 0.008022651076316833 -0.0809813875707734 0.09891866081138903 -0.026924933926287607
0.058936366302301875 -0.023695193231105804 -0.12313101892854253 0.08371477574110031 -0.07190496670857466 0.10891795335362266 0.036592356860637665 0.08588620848216316
-0.021623550363215935 -0.06053120642900467 -0.09544363136727221 -0.06253726035356522 0.01916337013244629 -0.04002823692217073 -0.05139817146976499 -0.013109229505062103
00000000: 3848 e9ed 6ce1 933f 29e3 5c76 07c2 b9bf
00000010: 0000 0020 80e8 b03f 0000 0000 e649 923f
00000020: ce6c 5a7f b064 b0bf 62ce c4d2 fb19 903f
00000030: 0000 0000 1476 633f 0000 0080 59fc b0bf
00000040: 0000 00c0 5905 aa3f 0000 0000 43c6 823f
00000050: 0000 0080 98fa b3bf 0000 00c0 18f8 ad3f
00000060: a8a4 3bdb 683b b7bf 0000 0020 95b3 adbf
00000070: c77f a4a8 a294 aebf 0000 0000 9e6e 993f
00000080: 3853 c943 01a2 b8bf 0000 0000 48c5 813f
00000090: 0000 0000 229e 99bf 0000 0020 4161 b6bf
000000a0: 0000 00c0 e6a3 b4bf 5c46 0f0f 36b8 bfbf
000000b0: 0000 0080 5dc9 9ebf 0000 0000 708b 693f
000000c0: cb65 8d8e de64 b2bf 0000 00e0 279a b0bf
000000d0: 0000 0000 05ff 9d3f 0000 00c0 ddc7 ae3f
000000e0: 2ad9 023f 3f2d c1bf 0000 0040 1b8d a43f
000000f0: 0000 00a0 fd4b b03f 0000 0000 c41f 8e3f
00000100: 0000 00a0 15b4 a0bf 0000 0000 cd8a 813f
00000110: 0000 0000 24a8 8dbf 0000 0060 bd02 b1bf
00000120: 0000 0080 57d6 97bf 0000 00a0 c571 a3bf
00000130: 0000 0080 ce6c 9abf 0000 0000 d29f 73bf
00000140: 0000 0080 4c10 913f 0000 0040 3475 a43f
00000150: 5a9f da42 1d72 933f 0000 0040 b220 a53f
00000160: 0000 0000 1b85 8f3f 0000 0000 2e58 85bf
00000170: 0000 00c0 671e a4bf 0000 0060 f8b1 b0bf
00000180: 0000 00c0 c3d7 9fbf e001 18dc 897e 8fbf
00000190: 0000 00c0 06c3 ab3f 0000 0080 b5e6 9bbf
000001a0: 8a07 09fd 4d79 743f 98ca ea52 db13 afbf
000001b0: 0000 0020 624c b53f 0000 0000 80ae a03f
000001c0: 0000 0040 bb82 af3f 0000 0000 8536 96bf
000001d0: 0000 00c0 73a4 b4bf 0000 0000 fda3 a6bf
000001e0: 0000 0000 c2f9 813f 0000 0040 34b4 a23f
000001f0: 0000 0040 8d66 a6bf 0000 0040 ea4d a2bf
00000200: 0000 0040 cd82 a43f be2a f40b 0ebc b3bf
00000210: 0000 0000 47e4 98bf d116 d41d 4557 babf
00000220: 7612 b377 5b3d b8bf 7383 9b64 cab9 bebf
00000230: 601b 2217 ac09 933f 0000 00c0 465a a73f
00000240: 0000 0060 78d9 b23f 805d 8d88 8f9b b4bf
00000250: c6bf 1a5a 9029 a6bf 0000 00a0 daa3 aebf
00000260: a053 f7fa 076d 8dbf 0000 0000 4008 2abf
00000270: c779 dcdd ddc6 adbf 0000 0080 9b39 b1bf
00000280: 0000 0080 27f1 a6bf 0000 0000 d41c 92bf
00000290: 0000 0080 5b78 b0bf 0000 00a0 5ca4 b13f
000002a0: 0000 0040 0741 a33f 0000 0060 eff5 a4bf
000002b0: 0000 0000 e8af 86bf 18cf ced7 c737 c2bf
000002c0: 5fee 8800 d96b c2bf 0000 0080 2045 a6bf
000002d0: 0000 0000 82ac 83bf 0000 00a0 27fd adbf
000002e0: 0000 0000 8770 a7bf 0000 0020 1c18 b6bf
000002f0: 062b 835b 5f88 b4bf 0000 00e0 6b85 acbf
00000300: 158c 52a8 0d75 b3bf 0000 0020 6941 b53f
00000310: 0000 00e0 e340 abbf 0000 0040 256d ac3f
00000320: 0000 00c0 e10d a2bf e3cb c7df 3474 bbbf
00000330: 0000 0080 2a83 9e3f 0000 0020 7846 b6bf
00000340: 0000 00e0 ade9 a8bf 6644 e228 60b9 9dbf
00000350: 0000 00c0 4b7c aa3f 0000 0000 c6be 85bf
00000360: 0000 0000 f94b 8bbf 0581 303c a249 c3bf
00000370: 0000 0060 4a00 a6bf fc43 7e11 a96f afbf
00000380: cd5c 433c c791 953f 0000 00c0 481a af3f
00000390: 9a7d 5cb4 5f9c 773f 0000 0000 d856 95bf
000003a0: 0000 0040 44ac af3f 0000 0060 8ec9 b5bf
000003b0: 0000 0000 6fb3 91bf 0000 0040 8980 9ebf
000003c0: 5e25 c816 b475 4a3f 0000 00a0 f422 b63f
000003d0: 2606 bba2 2f6f b6bf 0000 00e0 f02b b5bf
000003e0: 874d 0e3e af69 bebf 7dd5 a20d d751 b5bf
000003f0: 2204 af5c 094f b4bf 0000 0040 e279 afbf
00000400: c1c4 8b57 c8d1 783f 305c a8e1 05ec b0bf
00000410: 0000 00a0 bdc5 b2bf 0000 0080 6158 a8bf
00000420: 32f0 d73a f587 c2bf 1ff7 076f f2a4 bcbf
00000430: 0000 0000 fc65 6f3f 0000 00a0 e0ce b1bf
00000440: 0000 0060 5730 a4bf cc0c 4324 dada a03f
00000450: 0000 00c0 9f2a a63f 0000 0040 acb3 a33f
00000460: bbe0 e68f 8831 4fbf 748b 5081 354e 9a3f
00000470: 9b05 a809 d043 b4bf 4597 7fdc 78d1 963f
00000480: fd8c 2046 9540 713f 74a5 0497 a33a 973f
00000490: d87d 5b3c fad1 c03f 0000 00c0 fe0c a1bf
000004a0: 0000 0080 5f87 9a3f 08aa d649 10f0 b2bf
000004b0: 3e5a db52 8e78 ba3f 0000 0000 de0c 763f
000004c0: c2a1 8e3e ec2f abbf 0000 0000 e8d6 87bf
000004d0: 0000 0000 7cb1 7dbf 57ff e20e 1edc a93f
000004e0: 930c 6a1e 52bc afbf aab0 94dc 47ae af3f
000004f0: 76dd 5b18 596b 9bbf 8501 649f 106c 873f
00000500: 0000 0020 63af b53f 736b 6a84 39f3 66bf
00000510: 0616 e8a6 5bcf a43f ac76 1af3 806a c13f
00000520: 8b45 e80e f35b a33f 0000 00a0 4eae aebf
00000530: 0000 00a0 705f b53f 0000 0020 c538 b4bf
00000540: dffc 598f c92c c2bf b979 7491 4e81 9e3f
00000550: 54eb 106d 9bf6 a03f 0000 0060 5bb9 b43f
00000560: 0000 0080 e0c6 b1bf 3d55 ad8e d12a b03f
00000570: 7cd5 3480 33e6 aa3f acd1 0556 be7f a83f
00000580: a4d6 c5f7 4d9e a13f 4a3b 5581 1a8d babf
00000590: 0000 00c0 dab7 a63f 0000 0000 20b9 6b3f
000005a0: f5a9 6d79 abfc aa3f 10bb 19c9 a249 793f
000005b0: 2243 c242 94fa a93f 0000 0020 b31f b03f
000005c0: c3b8 5ca5 1889 72bf 0000 0040 bdb6 a83f
000005d0: 0000 0080 e578 97bf 0000 0000 4c6f 723f
000005e0: f526 8007 d6fb a43f 0000 0000 a824 693f
000005f0: 2b77 e900 9371 c23f 0000 0040 d319 acbf
00000600: 0000 00e0 b3d7 b53f 2f50 21f3 b3e6 afbf
00000610: 6242 3b8d 95fc 9d3f cac2 23cf c8a5 a1bf
00000620: 1a2d a63b 8b3c a93f 78d1 4340 b81c 99bf
00000630: 0000 0000 2c07 71bf f77c 35b2 81aa bc3f
00000640: 0000 0020 9a6f b13f ba96 3ca4 d8c8 993f
00000650: ac0a 30d1 c96e 913f e8ec e78f 74bf b53f
00000660: bd66 d6a6 75e9 a6bf 0000 00c0 77c4 a8bf
00000670: b2e1 28b0 452a 6c3f 0000 0020 516b a3bf
00000680: 0000 0040 6fd8 aa3f 0000 0040 70da ae3f
00000690: d31c 17cb 8a95 b83f a9b7 76fc 6084 913f
000006a0: 0000 0000 f587 a13f c4e8 62bd b9d4 bf3f
000006b0: d850 28b4 2da2 b23f 6467 15ec 220f b83f
000006c0: 3f4b 195d 2259 943f 0000 00c0 9cae a63f
000006d0: 9dda 319d b651 b83f 7e78 d3d9 e330 b93f
000006e0: 0000 0080 7eda 913f 38fc 4bb3 73c7 5bbf
000006f0: 3cfc de2f 3c15 b5bf de0b a6d5 6f70 803f
00000700: 1ac4 b9f7 b71c b2bf 0000 00e0 c44f b53f
00000710: 57b9 99c4 ef03 9b3f 6db1 2579 5940 87bf
00000720: 6c2c 43fc deee bd3f 3240 934e 2e42 923f
00000730: a4bb 38ac 693c a83f 328c 98bf a230 ad3f
00000740: 05e7 f558 36ab 8bbf d05f 1d1c 05df 9ebf
00000750: d13d ab24 1bcb 903f 77d8 63e8 3426 c13f
00000760: 0000 0000 2e6e 803f 0d80 333b 32bb b4bf
00000770: 0227 26bd bb52 b93f 0637 a4ba 3592 9bbf
00000780: 397e a04b e82c ae3f 0000 0080 8d43 98bf
00000790: dad6 6bb3 8385 bfbf 0000 00e0 546e b53f
000007a0: 8cec 6e28 5d68 b2bf 41df 9907 0ce2 bb3f
000007b0: 0000 00c0 3bbc a23f 6cbb 9b78 a3fc b53f
000007c0: 9c9f 88e6 7b24 96bf 0000 0040 f2fd aebf
000007d0: 627b 556b fe6e b8bf 0000 0020 7102 b0bf
000007e0: 0000 0000 909f 933f 4199 fec0 947e a4bf
000007f0: cfdc 1273 dc50 aabf 0000 0000 03d9 8abf

fc3.bias f8 [64]
-0.11745346609200441 0.03585433117759689 0.0026075960900239707 0.08075132645040946 -0.12983971637103647 0.04999497117157778 -0.033361262873035785 -0.10084615856859011
-0.02485033869743347 0.11038011139818094 0.02731175720691681 0.14778318770007867 -0.06326628476381302 0.1352330788646545 -0.05323518419606563 -0.06404608913786458
0.10331279124547908 -0.05862744015849552 0.175934417403498 0.08340711146593094 -0.06175457313656807 -0.10007490379478425 -0.13715147455619556 0.029302601341660805
0.2203190319190688 0.1062025779004672 -0.13718123302001026 -0.0798182263970375 0.12398962802639935 -0.1427404703299676 -0.07601724417867857 -0.01701618731021881
-0.04917610064148903 -0.04447825253009796 -0.028261666846816615 -0.08453364670276642 -0.0599530719981335 -0.07643552124500275 -0.046004652976989746 -0.008897334337234497
-0.04851661177742035 -0.12522429788425998 0.016014990226211716 -0.13757769030994002 -0.011659263666799747 -0.10629841462940415 -0.08345021199444344 -0.029326332912301804
-0.06681942131117634 -0.045471266259742786 0.10567546177118457 0.006211467677150448 0.060855787820108656 0.10183557376450111 -0.06197829629215651 -0.05905822018598481
0.1339418821463788 0.010053654742090001 -0.04500785770445059 -0.07871494477991915 0.11146112268341729 0.12599793315147972 -0.13531352249554168 0.09301644432490584
00000000: c4c0 aa2b 6e11 bebf 77cc a7b7 7f5b a23f
00000010: 6fc9 b07d 865c 653f 958f 3672 1eac b43f
00000020: d68b c47b 969e c0bf 8cf3 4adc f098 a93f
00000030: a463 fc39 ba14 a1bf 06b5 fac8 0dd1 b9bf
00000040: 0000 0000 5e72 99bf 9882 95f8 de41 bc3f
00000050: 0000 0000 9df7 9b3f 1305 093b 8fea c23f
00000060: 0000 0020 3832 b0bf 77d1 8749 514f c13f
00000070: 1cbe 3c5e a441 abbf 08a9 4812 5365 b0bf
00000080: 1766 a803 b572 ba3f cf03 4274 6a04 aebf
00000090: 3792 7edc 0485 c63f 0000 0020 2b5a b53f
000000a0: 0000 00a0 4b9e afbf 09ee f246 829e b9bf
000000b0: a394 e8f4 2d8e c1bf 73f6 cc49 8001 9e3f
000000c0: 15af 63fe 6933 cc3f a259 d596 1730 bb3f
000000d0: 3b13 b996 278f c1bf 0000 00a0 f76e b4bf
000000e0: a8a5 6ac5 c8bd bf3f db01 f1d9 5145 c2bf
000000f0: cdf1 adb9 dd75 b3bf 0000 0000 b16c 91bf
00000100: 0000 0020 9c2d a9bf 0000 0080 dac5 a6bf
00000110: 1aa0 595b a0f0 9cbf 0000 0040 ffa3 b5bf
00000120: d2ad 0d47 2bb2 aebf 0000 0040 4791 b3bf
00000130: 0000 0000 ec8d a7bf 0000 0000 c438 82bf
00000140: aa22 cb59 2bd7 a8bf 2aea 098c 5907 c0bf
00000150: 4ec1 11cd 3b66 903f 1b2c 4550 259c c1bf
00000160: da9e 27e1 cfe0 87bf 302f 7376 5f36 bbbf
00000170: 4643 5c3b fe5c b5bf 616c 14e3 b807 9ebf
00000180: dfe6 44dd 131b b1bf 4792 fc82 0248 a7bf
00000190: ff03 4c0c 8c0d bb3f a34e 8928 3271 793f
000001a0: 6a5b eb64 7d28 af3f 3e4f e36a e511 ba3f
000001b0: c8f1 4587 9ebb afbf bd7d 8408 e13c aebf
000001c0: b412 b1f1 0125 c13f 1396 94b2 0297 843f
000001d0: 80a9 ce19 450b a7bf 5144 89a1 a926 b4bf
000001e0: 7462 b354 b788 bc3f c6e5 1f45 b320 c03f
000001f0: b696 e918 f451 c1bf e79c 5dfa eccf b73f
