src/backend/controller/checkpoints/checkpoint_epoch_99.pth (torch, 420207 bytes, 25 tensors)

fc1.weight f8 [64, 5]
0	0x3fc5fa61fbbdaf2b	0.17170357505835318
1	0xbfddb3126920ad43	-0.4640546824109217
2	0x3fcfe7bf9779913a	0.2492599000571632
3	0xbfc7dc38f43044a0	-0.18640815661686805
4	0x3fbb4d4d2c29594d	0.10664827659761507
5	0xbfc4288740000000	-0.15748682618141174
6	0xbfd24cb4a0000000	-0.2859317362308502
7	0xbfdac41960000000	-0.4182189404964447
8	0xbfce277ec0000000	-0.23558029532432556
9	0x3fba497600000000	0.102683424949646
10	0xbfccfff2e29893ac	-0.22656093658693288
11	0x3fb1e6ce13ca4d34	0.06992805464897317
12	0xbfd979830ac6a4e9	-0.39804149677600137
13	0x3fda6c09eb4cc0a2	0.4128441617822408
14	0x3faeb5c41929f91a	0.05998051459481442
15	0x3fd2b3e300000000	0.29222941398620605
16	0xbfc07d2140000000	-0.12881866097450256
17	0xbfd1032180000000	-0.2658160924911499
18	0xbfd7520880000000	-0.36438190937042236
19	0xbfb5e70380000000	-0.08555623888969421
20	0xbfc4ff4bc0000000	-0.16404101252555847
21	0xbf8a2da400000000	-0.012782365083694458
22	0x3fd9654240000000	0.3968053460121155
23	0x3f93ab9800000000	0.01920926570892334
24	0xbfda0d1c40000000	-0.4070501923561096
25	0xbfc3531d08ce32cf	-0.1509739201541351
26	0x3fd709332d7740fd	0.35993651809714305
27	0x3fd867637321b018	0.3813103317577329
28	0x3fb97760d8f38bb7	0.09947781845725855
29	0xbfd68438806c1a4e	-0.35182011166799476
30	0xbfcc9a33661b9327	-0.2234558342526267
31	0xbfd23c97e731b24b	-0.28494832589675373
32	0x3fd18f88991a767f	0.2743855948591331
33	0x3fcf895d6e548bc7	0.24637954604358311
34	0x3fd978a9e4112a68	0.39798972389386345
35	0x3fd7ec50c0000000	0.37379854917526245
36	0xbfda694480000000	-0.41267502307891846
37	0xbfb6651080000000	-0.0874796211719513
38	0xbfd48f5840000000	-0.3212490677833557
39	0x3fb6020000000000	0.085968017578125
40	0x3fc83cd93c095187	0.18935695105995995
41	0xbfd0123d518dbc43	-0.2511132522985841
42	0xbf7b055033c397ca	-0.0065968640230717555
43	0x3fbdf5ba8d8e345e	0.11703077274269577
44	0x3fd011d458d6f2c2	0.25108822513338336
45	0x3fd3a7dc25eaa204	0.307120358493677
46	0x3f950875bb362408	0.02054008441112745
47	0x3fb18bd704e97582	0.06854003782196652
48	0xbfd977e8848e4848	-0.3979436201563016
49	0x3fbdc46da01628a5	0.11627850683558678
50	0xbfd45eb72ae0b5bb	-0.3182809752205135
51	0xbf9af4646b6bc9d1	-0.026322907501659835
52	0x3fd917e1dae07110	0.3920826566188831
53	0x3f81f16f7c408d8c	0.008761282901167865
54	0x3fc1f926342bf370	0.14041593120046114
55	0x3fd0e91a50e9b297	0.2642274656452996
56	0x3fc84fadb21c2245	0.18993159481785163
57	0x3f5df29f1aac1365	0.0018278650047147346
58	0x3fd3afa0ee276699	0.3075945211145182
59	0xbf62e67d88836af8	-0.002307171995295728
60	0xbfc448db80000000	-0.1584734320640564
61	0x3fba708500000000	0.10327941179275513
62	0xbfd6b83380000000	-0.35499274730682373
63	0x3fd3168c80000000	0.29825127124786377
64	0xbfc9870540000000	-0.19943299889564514
65	0xbfd4617c70770029	-0.3184500788011087
66	0x3fcec1ec00450e5a	0.24029302609607123
67	0x3fdc4fb0690edaa4	0.442363836856581
68	0xbf5d54fff3ec8044	-0.0017902850665407902
69	0x3fd2e256b16af190	0.295064614543457
70	0xbfd66a1c2e9aee26	-0.3502264456871863
71	0x3fcfe008c4968383	0.24902448271771158
72	0xbfbd9f048cb62d43	-0.11570766864149555
73	0x3f9bdb826198ebfe	0.027204549033040586
74	0xbfb1efaa2d4fde5a	-0.07006324392556831
75	0xbfd204caa0000000	-0.28154245018959045
76	0xbfd90499c0000000	-0.39090579748153687
77	0xbfd1fa7e40000000	-0.2809138894081116
78	0x3fd95630c0000000	0.3958856463432312
79	0x3fc04c8800000000	0.1273355484008789
80	0x3fc7bb7c264e0271	0.18540908689830674
81	0xbfa134b5253d05e2	-0.03360525207109412
82	0x3fcc17bc991144cf	0.21947438692089924
83	0xbf9ccdcf10fee80c	-0.02812884846910184
84	0x3fc0a342b6fe63f3	0.12998231826057313
85	0xbfa97d30a662bd06	-0.049783249197725296
86	0x3fd82ba5f77192fe	0.3776640812341582
87	0x3fc36454b15b102d	0.1514993539805131
88	0x3fc0b1c6bcd386a2	0.13042530269654146
89	0x3fcfa038b0ce3f43	0.24707707055176273
90	0x3fcd812080000000	0.2305031418800354
91	0xbfc6dee0c0000000	-0.17867669463157654
92	0xbfdb4c6980000000	-0.4265388250350952
93	0x3fa7d42d00000000	0.046540647745132446
94	0xbfd2233d80000000	-0.28340089321136475
95	0x3fb628b67fc0b8da	0.08655872935262057
96	0x3faefbb305ea5623	0.060514063331691646
97	0x3fbdd0d95efa8dc2	0.11646803444687406
98	0x3fd1066df2e3eb94	0.2660174247718541
99	0xbfc95d756ebd1a53	-0.1981646338192201
100	0x3fe0590768ad98af	0.5108677906507831
101	0xbfd91e038ebe83df	-0.3924569028841329
102	0xbfd24de659092bdf	-0.28600462622551776
103	0x3fcf343e752d5df7	0.24378185960334495
104	0xbf947c3930eda3b4	-0.020005124675126232
105	0x3fc9b45f80000000	0.2008170485496521
106	0xbfcdd7d000000000	-0.23314857482910156
107	0xbfaae2ed00000000	-0.052512556314468384
108	0xbfc343f100000000	-0.15051090717315674
109	0xbfd027f300000000	-0.2524383068084717
110	0x3fdb511f40000000	0.4268262982368469
111	0xbfc98f40e0000000	-0.1996842473745346
112	0xbfd3d18280000000	-0.30966246128082275
113	0xbfda45af40000000	-0.41050320863723755
114	0xbfda46c9a0000000	-0.41057053208351135
115	0x3fc8c85e3ad47805	0.19361474869305098
116	0x3fd5188730443fe0	0.32962207520995257
117	0xbfaa9a5d3a3a1cd3	-0.05195895515230977
118	0xbfdde18a87a99200	-0.4668909382656068
119	0x3fc6bcc7c7bba5b4	0.1776361203440452
120	0xbfbded0f00000000	-0.11689847707748413
121	0xbfd8b6bce0000000	-0.3861534297466278
122	0x3fd8779a80000000	0.3823000192642212
123	0x3fc1621480000000	0.1358056664466858
124	0xbfcf462520000000	-0.24432815611362457
125	0xbfd2ab4ea18ef235	-0.2917057588308894
126	0x3fb004a7e2b98865	0.06257104192039405
127	0xbfd60d03ecd5748a	-0.3445443928556605
128	0x3fc868ce56563b5c	0.19069842544237303
129	0xbfd5136b0992178d	-0.3293101876700966
130	0x3fd6de8e00000000	0.3573336601257324
131	0xbfbd75e580000000	-0.11508020758628845
132	0x3fb55c7700000000	0.08344215154647827
133	0xbfdbb0c0c0000000	-0.4326631426811218
134	0xbfb32a1280000000	-0.07486072182655334
135	0xbfb02ea600000000	-0.06321179866790771
136	0xbfc009dd40000000	-0.1253010332584381
137	0xbfaf07b000000000	-0.060605525970458984
138	0xbfb2adbd80000000	-0.07296356558799744
139	0x3fd42570c0000000	0.3147851824760437
140	0x3fab1849b7f6ba42	0.052919677454486905
141	0xbfcac6aa18da12df	-0.2091877576205183
142	0x3fcfb16463f2a29f	0.24760107879889845
143	0x3fc3277c03643930	0.14964246907806844
144	0xbfd30a1701119e36	-0.29749083618523586
145	0xbfc1f1d900000000	-0.14019310474395752
146	0xbfbf608880000000	-0.12256672978401184
147	0x3fd6096880000000	0.3443242311477661
148	0xbf8bff2800000000	-0.013670265674591064
149	0x3fc1659000000000	0.1359119415283203
150	0xbfc3e10e80000000	-0.1553056836128235
151	0x3fcb704080000000	0.21436315774917603
152	0xbfb8635e00000000	-0.09526622295379639
153	0x3fc8a01500000000	0.19238531589508057
154	0x3fa1f78d00000000	0.035091787576675415
155	0x3fc8d98180000000	0.19413775205612183
156	0x3f9103a400000000	0.016615450382232666
157	0xbfd4bdf880000000	-0.32409489154815674
158	0xbfd96889c0000000	-0.39700549840927124
159	0xbfd1d09740000000	-0.2783563733100891
160	0x3faa5d81eb6fd433	0.05149465559944879
161	0x3fc51271c467daac	0.16462537851449122
162	0xbfcdc5507c80b3a1	-0.23258405760989567
163	0x3fcba893a9b20416	0.21608205591113067
164	0x3fd459e364d24ead	0.3179863438210571
165	0x3fc27861d369a107	0.1442987711227561
166	0xbfd40478e115b872	-0.31277296048109016
167	0x3fa9fcb53bc1ddfa	0.05075613359889171
168	0x3fcc021673587bf9	0.2188137114726201
169	0x3fd883eacd3c0bfe	0.3830515865558367
170	0xbfd191cb00000000	-0.2745234966278076
171	0x3fadf6f400000000	0.0585247278213501
172	0xbfc0a04500000000	-0.129891037940979
173	0x3fcb790000000000	0.214630126953125
174	0x3fac667c00000000	0.055469393730163574
175	0xbfd8793520000000	-0.38239791989326477
176	0xbfb4eae080000000	-0.08170893788337708
177	0x3f9fbf0800000000	0.031002163887023926
178	0xbfd7095e00000000	-0.35994672775268555
179	0xbfd9241620000000	-0.3928275406360626
180	0x3fda3c112e29236f	0.40991620548134383
181	0xbfc2c357052200a9	-0.14658630133272268
182	0xbfd81052307c4941	-0.3759961579791203
183	0x3fa4019929b8f45d	0.03907469400699235
184	0x3fcb69146be572a6	0.21414428013203696
185	0x3fd4efa84526cbf5	0.3271275210674383
186	0x3fb5a2e03077bd6b	0.0845165365533284
187	0x3fcdd4a18a8b431f	0.23305148377269178
188	0x3fd0beff5732db79	0.2616575576352527
189	0x3fd8348b396305e7	0.37820702175312565
190	0x3fd08c7983f23667	0.25857389340749254
191	0xbfc143afef691fbd	-0.13487815084431345
192	0xbfd164b1c28e3b79	-0.2717708969075186
193	0xbfc99a0cb31c6e48	-0.20001372094781034
194	0xbfbc85a388f754a5	-0.11141416639232433
195	0xbfd40ca8f3b2128f	-0.31327270315549866
196	0xbfd1c4edb44e48e9	-0.27764456375110896
197	0x3fe064c0a33abede	0.5122988880229646
198	0xbfc32cbe84dbcff7	-0.14980298506964093
199	0x3fd47086a744029e	0.3193680413678893
200	0x3fdc7dabecc504bf	0.44517038461715325
201	0xbfbfb683a3d14312	-0.12387869595955817
202	0xbfd95887d1eec9df	-0.3960284757733045
203	0x3fd9c4f13ade18e5	0.40264540432725787
204	0xbfb3f6531bb9b3bc	-0.0779773657502138
205	0x3fb0fe1700000000	0.06637710332870483
206	0x3fc4448500000000	0.15834105014801025
207	0xbfc4852280000000	-0.1603129506111145
208	0xbfbd61bf80000000	-0.11477276682853699
209	0xbfd7ff0c60000000	-0.3749419152736664
210	0x3f98d4dc00000000	0.024249494075775146
211	0xbfc0415d40000000	-0.1269947588443756
212	0xbfcd6e9dc0000000	-0.22993823885917664
213	0x3fc5a90800000000	0.1692209243774414
214	0xbfb4ba4600000000	-0.08096730709075928
215	0x3fc1bfff282c466e	0.1386717744976979
216	0xbfa3a6245b779852	-0.03837693802397325
217	0xbfdba28848e67cad	-0.43179518813299006
218	0x3fcb34b7c3d11057	0.2125463205467237
219	0xbfc29ec740cac4d0	-0.1454705301635273
220	0xbfbd23b84f6a6da2	-0.11382629336224295
221	0x3fdd47deeabf47a4	0.45751164364366503
222	0x3fda8ebf13a66272	0.4149625484365408
223	0x3fd2e55be444556b	0.2952489594620917
224	0xbfd5b60de15a76d6	-0.33923670775571446
225	0xbfe0ec198a15a346	-0.5288207718814213
226	0xbfa3d5690a2155c6	-0.0387375664583192
227	0xbfd5806b672b25c8	-0.33596310687115905
228	0x3fd68559ac27cb5d	0.351889055367044
229	0x3fd0a8360f8af14d	0.26026679532858027
230	0x3fcb6b6e65779596	0.21421604113053822
231	0xbfcf8b852bee2cd5	-0.24644531865155864
232	0x3f5694b40e1012e3	0.0013782270764305874
233	0x3fd1dfdcd7d3679a	0.2792884929345917
234	0x3fc42a1ba43164e5	0.15753503339036637
235	0x3fb7a5991ea95aee	0.0923705768449101
236	0x3fd5cd5508b113c2	0.34065748070525725
237	0x3fb96168482f57dc	0.09914256822898387
238	0x3fd813cff8472ee0	0.37620925184158516
239	0xbfb2ddff3f17a551	-0.07369990625706647
240	0x3f8b422172e39678	0.01330972797263573
241	0x3fd18228f2f0b195	0.2735693333113656
242	0x3fd832bd1412fa16	0.37809683761943924
243	0x3fc690c9dbfd6387	0.17629359475793313
244	0xbf7b78aacfbe17c4	-0.006706874115371467
245	0x3fb2078500000000	0.07042723894119263
246	0xbfb9034f00000000	-0.09770673513412476
247	0xbf9bdd8c00000000	-0.027212321758270264
248	0x3fcd0ced80000000	0.2269570231437683
249	0xbf89036800000000	-0.012213528156280518
250	0x3fcc79f6cb7021a0	0.22247204717156155
251	0xbfd37906e1deb041	-0.3042618947754399
252	0xbfd2b81fc6a0196f	-0.29248804471025996
253	0x3fb52c8159fcf994	0.08271034666993266
254	0xbfcc69d9c1936226	-0.2219803042596748
255	0x3fbdb2b7e9665883	0.11600827644574178

fc1.bias f8 [64]
0	0xbfd07be6a38aaa8e	-0.2575623128019878
1	0x3fc4dbbe80000000	0.16295605897903442
2	0x3fd17b43f24e644d	0.27314852392880057
3	0x3fb083fe00000000	0.06451404094696045
4	0xbfd8a4e500000000	-0.38506436347961426
5	0xbfc5b4d6eb6a6d9b	-0.16958128447445805
6	0xbfcb44921b17bc91	-0.21303011248480577
7	0xbfd18a4b60000000	-0.2740658223628998
8	0xbfda63f7974e2ac9	-0.4123515107718672
9	0xbfadcc2cf9b8472d	-0.05819836185777514
10	0x3fc323735e7576dd	0.14951936828850068
11	0xbfba3b0de2b5c491	-0.10246359620011193
12	0xbfca1b0d40000000	-0.20395055413246155
13	0xbfd066651daf3f1d	-0.2562496938598871
14	0xbfb833d5bddaa889	-0.09454093823538491
15	0x3fcb36a380000000	0.21260493993759155
16	0xbfc829e251bebe63	-0.18877820006808851
17	0xbfae04c557d7ce0d	-0.058630148861905075
18	0xbfcc602f40000000	-0.22168532013893127
19	0xbfcf4f5e9b87fd3f	-0.2446096667699553
20	0x3fb09bacb90c7a67	0.06487540738860674
21	0x3fac574a00000000	0.05535346269607544
22	0x3fa63d9800000000	0.04343867301940918
23	0xbfb7d44024dfff32	-0.09308243656414275
24	0xbfd06eaee0000000	-0.2567555606365204
25	0x3fcaea7af74f0025	0.21028077197661435
26	0xbfd7cf8cc0000000	-0.37204283475875854
27	0xbfcff34560000000	-0.24961154162883759
28	0xbfd0469cbdc7235a	-0.2543098309802666
29	0xbfd5b36b80000000	-0.3390759229660034
30	0xbfd4fb0ea0000000	-0.32782331109046936
31	0xbfc40220c0000000	-0.1563149392604828
32	0xbfc3dc7d128a59af	-0.1551662769822548
33	0xbfdcc89ed5e9d2df	-0.44974490060785216
34	0xbfc13cbd80000000	-0.13466614484786987
35	0xbf73036000000000	-0.004641890525817871
36	0xbfa92c5f08da1e9a	-0.04916665061051369
37	0x3fcf829b0271d501	0.24617326373451223
38	0xbfbc9898ee91384e	-0.11170345138927582
39	0x3fb9e7e9dda3bc83	0.10119496976015978
40	0xbfa936826a90898a	-0.04924399901234995
41	0xbfca783ce0000000	-0.2067943662405014
42	0x3fa0047f00000000	0.03128430247306824
43	0x3fd4a663b06c7338	0.32265560368414326
44	0x3fd192edf5bcff9e	0.2745928668773504
45	0x3f9489359d61d46e	0.020054662447780584
46	0xbfdf215b951a1180	-0.486410995108848
47	0xbf9e8a3cb99cab5f	-0.02982420809636765
48	0xbfc1d19d7908f02d	-0.1392094460478587
49	0xbfdc691be0000000	-0.44391533732414246
50	0x3fe050739b8c3ca3	0.509820751003549
51	0x3fd93047d2127a93	0.3935718108640824
52	0x3fae53bc2a65c576	0.0592325975184264
53	0xbfd0b5b420000000	-0.26109030842781067
54	0xbfd49eebe0000000	-0.3221997916698456
55	0x3fab82d600000000	0.05373257398605347
56	0xbfd16106bd7a9c06	-0.27154701713374185
57	0xbf6901288d0a8872	-0.0030523101816735615
58	0xbfd27f1a80000000	-0.2890077829360962
59	0xbfda726bd57a17ca	-0.41323371741634374
60	0xbfd0c8c900000000	-0.2622549533843994
61	0xbfca786ba944309b	-0.20679994358977613
62	0xbfd2c67d891b8f99	-0.2933648909513465
63	0x3fda7c272e26899d	0.4138277006806222

fc2.weight f8 [128, 64]
0	0x3fc57bd5bc38bb19	0.16784164133556415
1	0x3fa8d37b80000000	0.04848848283290863
2	0xbfcbbaad7fa52789	-0.21663445217773994
3	0x3fb540ed80000000	0.08302196860313416
4	0xbfb3f9a7c0000000	-0.07802818715572357
5	0x3f8ee3066074f2ed	0.015081453150395297
6	0xbfb99a5c46fec9bb	-0.10001160367281774
7	0x3fb5832ec0000000	0.08403293788433075
8	0xbf855eb8a3a57055	-0.010434572691046787
9	0xbfbaf87d70197e44	-0.10535415636831497
10	0x3fcbfbe4f58e1f8e	0.21862470617292867
11	0xbf69f88241995147	-0.003170256048898565
12	0x3fa762e000000000	0.045676231384277344
13	0x3fc63e2442ac4981	0.17377141242520724
14	0x3fae81acc59c6500	0.05958309089892033
15	0xbfbd6edd80000000	-0.11497291922569275
16	0x3fb1c713ec4e23a1	0.0694439365307873
17	0xbfa5836a62a68add	-0.042018246214203116
18	0xbfb9da7e80000000	-0.10099020600318909
19	0x3fb1ed4810573190	0.07002687834682875
20	0xbfd9a69140e9d627	-0.40079146708680685
21	0x3fbfe46200000000	0.12457859516143799
22	0xbfb16f1700000000	-0.06810134649276733
23	0xbfb2add7aeb1f4c9	-0.07296512618082142
24	0x3fab41db80000000	0.05323682725429535
25	0xbfae684119412def	-0.05938914712222842
26	0xbfbe08a700000000	-0.11731952428817749
27	0x3fbc932d80000000	0.11162075400352478
28	0xbfa49f5614c4fb88	-0.04027813914807782
29	0x3fbeee6740000000	0.12082524597644806
30	0xbf9a2eab00000000	-0.025568649172782898
31	0x3fa09e0880000000	0.032455697655677795
32	0x3fb601e5acd75fb4	0.08596644849546814
33	0x3fb318c93febf96a	0.07459695635404776
34	0x3fafd07f00000000	0.06213757395744324
35	0x3fb45ad740000000	0.0795111209154129
36	0xbfa3fee96099fe8b	-0.03905419639795323
37	0x3fc1efd181bb9413	0.14013117632490033
38	0xbfb1ddacd0985ab0	-0.06978874294905313
39	0x3fb3c40143d6ea8a	0.07720954805601302
40	0xbfc7a85f70a5c905	-0.18482583046313308
41	0xbfb8bca940000000	-0.09662874042987823
42	0xbfac6f6780000000	-0.055537447333335876
43	0xbfc23ea5882e9007	-0.14253682279115784
44	0x3fc235556f98d11d	0.14225261639661194
45	0x3fc3cd0c0bc0eeb1	0.15469503950031574
46	0x3fbac9513dd87bbd	0.10463435897734903
47	0x3fc3592b5b00ed42	0.15115873282943865
48	0xbfa0b886b63bafaf	-0.032657823319680694
49	0xbfbe851040000000	-0.1192178875207901
50	0xbfc8905d676eeca0	-0.19190566587881097
51	0x3fb6e955b7f0ea49	0.08949790707348727
52	0x3fc0c60dff51638f	0.13104414908118797
53	0xbfa35c3900000000	-0.0378129780292511
54	0x3fa6a6c280000000	0.04424102604389191
55	0xbfb2f88300000000	-0.07410448789596558
56	0xbfa315b4ffb04685	-0.0372749864692539
57	0x3fd2543a2bd8be91	0.28639082223797013
58	0xbfaf5fbb00000000	-0.06127724051475525
59	0x3fcd91a484756520	0.23100716083244155
60	0x3f959b3100000000	0.021099820733070374
61	0xbfa2a38bd65068ac	-0.03640400878085023
62	0x3fbfeba070dd90b4	0.12468912845139607
63	0xbfc4aeec317b10a5	-0.16158821502734103
64	0x3fc2d4bf52d8e66f	0.1471175341155688
65	0x3fa8580e00000000	0.04754680395126343
66	0xbfa6b2b1448c5b08	-0.04433206521769334
67	0xbfbd74b280000000	-0.11506190896034241
68	0x3fb93d1500000000	0.09858828783035278
69	0x3fc69f547c9e59c9	0.17673736653223518
70	0x3fb30634178220df	0.07431340764935922
71	0xbfa0285e00000000	-0.03155797719955444
72	0xbfbf9447ba01505b	-0.12335632601872375
73	0x3fc1ece1b6f6eeba	0.14004155572717086
74	0x3fbfe708178c6c0b	0.12461901259341361
75	0x3fc314baecf18ed2	0.1490701348258115
76	0xbfb1ff7000000000	-0.07030391693115234
77	0x3fbe6ba8edcf8e4e	0.11883025937964328
78	0xbf69f8107bcd80cb	-0.0031700441308402986
79	0xbfad186900000000	-0.05682685971260071
80	0x3fbedc7a7ee38810	0.12055173490401239
81	0x3fc11012c6a9cfb7	0.1333030195270319
82	0x3f91da6200000000	0.017434626817703247
83	0x3fc29a9e515d2ae1	0.14534357998703398
84	0xbfd8f72b1c7b9b3f	-0.39008596211936103
85	0x3fbf7b6200000000	0.12297642230987549
86	0xbfbea010c0000000	-0.11962990462779999
87	0x3fae02e4299ae723	0.05861580856203676
88	0x3fa8fdea80000000	0.048812225461006165
89	0x3f88635ebbc91e0c	0.011908283334505242
90	0xbfb331e240000000	-0.07497991621494293
91	0x3f8952cc00000000	0.012364953756332397
92	0xbfc00703f4330c31	-0.12521409438895284
93	0xbfba802540000000	-0.10351784527301788
94	0x3fbb5a2000000000	0.10684394836425781
95	0x3fb5a48ac0000000	0.08454196155071259
96	0x3fb0a147b7c912aa	0.06496093975972408
97	0x3f81dde4ccfb90ee	0.008724009996008832
98	0xbfb0e51480000000	-0.0659954845905304
99	0x3fb1cbd7c0000000	0.06951664388179779
100	0xbfc72782c49140b6	-0.18089327428834218
101	0xbf73fed393af6c02	-0.004881693336723282
102	0xbfab7532c9a591f9	-0.053628527751047934
103	0x3fa9ec425bf23992	0.050630639766598
104	0xbfc9de274ae22dc5	-0.20209208637639456
105	0xbf98a68200000000	-0.02407267689704895
106	0x3fab0b7e00000000	0.0528220534324646
107	0xbfbdd79196238c9a	-0.11657056727885831
108	0x3fc3244a1f9281ed	0.1495449690019223
109	0x3fb91a6e779a1e8c	0.0980595628735676
110	0xbfb28559da31ffad	-0.07234727456125141
111	0x3f97e2a77178e7c8	0.02332555418090701
112	0x3fbbb18e471b3dae	0.10817803607937179
113	0xbf95a92b00000000	-0.02115313708782196
114	0xbfd4fc17282e630d	-0.32788638042397694
115	0xbf88fab1963c531f	-0.012196910283401472
116	0x3fb85bb3885fd04f	0.09514925078821189
117	0xbf517af000000000	-0.0010669082403182983
118	0x3fa4d55700000000	0.04069015383720398
119	0xbfa3228880000000	-0.03737284243106842
120	0x3fb2b3c8e3c8aa4b	0.07305579720620263
121	0x3fd96358764d9be4	0.39668857148211445
122	0x3f99621900000000	0.024788275361061096
123	0x3fadb4b2af33be82	0.058019241225221854
124	0x3fb362ef40000000	0.07572837173938751
125	0xbfa21e3b6472c5a1	-0.035386901866682814
126	0xbf9512e2b3b2d00d	-0.020579855173039664
127	0xbfcbc97c19033dd2	-0.2170863268024577
128	0x3faa422180000000	0.05128578841686249
129	0x3fbd5c6bc0000000	0.11469148099422455
130	0x3faccf1900000000	0.05626752972602844
131	0xbf957f9100000000	-0.020994439721107483
132	0xbfa7421f00000000	-0.04542633891105652
133	0x3f990aeb00000000	0.024455711245536804
134	0x3f98444800000000	0.023697972297668457
135	0xbf9f04c200000000	-0.030291587114334106
136	0x3fbdb363c0000000	0.11601851880550385
137	0x3fbda7a980000000	0.11583957076072693
138	0x3f8d86bc00000000	0.014417141675949097
139	0xbfa2c37980000000	-0.036647602915763855
140	0x3fbf4a42c0000000	0.12222687900066376
141	0x3fb7b0cb00000000	0.0925413966178894
142	0x3f8555da00000000	0.010417655110359192
143	0x3fbdbc1740000000	0.11615128815174103
144	0xbfb7e5e940000000	-0.09335191547870636
145	0x3f67e92800000000	0.0029187947511672974
146	0x3fae3b8a80000000	0.059048011898994446
147	0x3f8274f800000000	0.009012162685394287
148	0xbfbb640840000000	-0.1069951206445694
149	0x3faa555d80000000	0.0514325350522995
150	0x3f85d2bc00000000	0.010655850172042847
151	0x3fa4ea7100000000	0.04085114598274231
152	0xbfabe73200000000	-0.054498255252838135
153	0xbfa4c6ed00000000	-0.040580183267593384
154	0xbfb3c8cd40000000	-0.07728274166584015
155	0xbfa1ce2b80000000	-0.034776076674461365
156	0x3f7ba5f800000000	0.00675007700920105
157	0x3fa6613d00000000	0.0437106192111969
158	0xbf9b64d400000000	-0.026751816272735596
159	0xbf792b2400000000	-0.006144657731056213
160	0x3f81be0800000000	0.00866323709487915
161	0xbf9502f900000000	-0.020519152283668518
162	0x3fb4800600000000	0.08007848262786865
163	0xbf8f40ae00000000	-0.015260085463523865
164	0x3fb4a106c0000000	0.08058206737041473
165	0xbfaf20c880000000	-0.06079699099063873
166	0x3fb8585580000000	0.0950978696346283
167	0x3fa926a300000000	0.049122899770736694
168	0x3f9798ee00000000	0.023044317960739136
169	0x3f8bff3600000000	0.013670369982719421
170	0x3f94cc5900000000	0.020310774445533752
171	0x3fbc160380000000	0.10971090197563171
172	0x3fbb755100000000	0.1072588562965393
173	0x3fbd85b480000000	0.11532142758369446
174	0xbfaaae8100000000	-0.05211260914802551
175	0x3fba411c80000000	0.1025560200214386
176	0xbfb9a50b80000000	-0.10017463564872742
177	0xbfbe7b8480000000	-0.11907222867012024
178	0x3fba74a7c0000000	0.10334251821041107
179	0xbfb5fcbf80000000	-0.08588787913322449
180	0xbfa6d1cc80000000	-0.044569388031959534
181	0xbfbc571400000000	-0.11070370674133301
182	0x3fb6f6a680000000	0.0897010862827301
183	0xbf9e245700000000	-0.029435500502586365
184	0xbfa3e07580000000	-0.038821861147880554
185	0x3f8141b400000000	0.008426100015640259
186	0xbfb89c81c0000000	-0.0961381047964096
187	0x3fb2d22ec0000000	0.07351963222026825
188	0x3fb3c338c0000000	0.0771975964307785
189	0xbfb20ac3c0000000	-0.07047675549983978
190	0x3f92dde100000000	0.01842452585697174
191	0xbfaf727a00000000	-0.0614202618598938
192	0xbfbaeeee80000000	-0.10520830750465393
193	0x3f9014a600000000	0.01570376753807068
194	0xbfb4136400000000	-0.07842087745666504
195	0x3f9ba8f800000000	0.027011752128601074
196	0xbfa12c6f80000000	-0.03354214131832123
197	0xbfaeeca600000000	-0.06039923429489136
198	0x3fb1aa3200000000	0.06900322437286377
199	0xbfb65e8300000000	-0.08737963438034058
200	0xbf93a39d00000000	-0.01917882263660431
201	0xbfba8706c0000000	-0.10362283885478973
202	0x3f919cbe00000000	0.01719948649406433
203	0x3fbbd5a300000000	0.10872858762741089
204	0x3f79fdb800000000	0.006345480680465698
205	0xbfbb8dec00000000	-0.10763430595397949
206	0xbfb44831c0000000	-0.07922659814357758
207	0xbfb2776580000000	-0.0721343457698822
208	0x3fb23cd140000000	0.07124049961566925
209	0x3fb3b74080000000	0.07701495289802551
210	0xbfae427800000000	-0.05910086631774902
211	0x3fa28d5700000000	0.03623458743095398
212	0x3f619f5800000000	0.002151176333427429
213	0x3f73bb3400000000	0.004817202687263489
214	0xbfb3cd0480000000	-0.07734706997871399
215	0x3fbc710040000000	0.1110992580652237
216	0x3f97631400000000	0.022838890552520752
217	0x3fb3de43c0000000	0.07761023938655853
218	0xbfa6932300000000	-0.04409131407737732
219	0x3fa7c4fd80000000	0.04642479121685028
220	0xbfb4dab480000000	-0.08146217465400696
221	0x3fb8681b80000000	0.09533855319023132
222	0x3fb275f340000000	0.07211227715015411
223	0xbf82cb1e00000000	-0.009176477789878845
224	0xbfb32057c0000000	-0.07471226155757904
225	0xbfb7b31a40000000	-0.09257663786411285
226	0x3f708bb400000000	0.004039481282234192
227	0xbfaab8b680000000	-0.052190497517585754
228	0x3f9194ab00000000	0.017168685793876648
229	0xbfb9bb9e40000000	-0.1005190759897232
230	0x3fbb961140000000	0.10775859653949738
231	0xbfbb4b4000000000	-0.10661697387695312
232	0x3f6c101000000000	0.0034256279468536377
233	0xbfb0e3ccc0000000	-0.06597594916820526
234	0xbfa9867280000000	-0.04985387623310089
235	0x3fb4f39a80000000	0.0818420946598053
236	0xbfb4fbf580000000	-0.08196958899497986
237	0xbfb6676400000000	-0.08751511573791504
238	0xbfb14e3cc0000000	-0.0676000565290451
239	0xbfb8dcf040000000	-0.09712125360965729
240	0xbf824c2000000000	-0.008934259414672852
241	0xbf9fd30c00000000	-0.0310785174369812
242	0x3f9f394800000000	0.030491948127746582
243	0x3fae50f280000000	0.059211328625679016
244	0x3fafb76000000000	0.06194591522216797
245	0x3fbabe4440000000	0.10446573793888092
246	0x3f5befe000000000	0.0017051398754119873
247	0x3fa71d8700000000	0.04514715075492859
248	0x3fb5343680000000	0.08282795548439026
249	0x3fa011d480000000	0.031386032700538635
250	0xbf9988c200000000	-0.024935752153396606
251	0xbf98b29700000000	-0.02411876618862152
252	0xbf7c8e0c00000000	-0.006971403956413269
253	0x3fa2e5a580000000	0.036908313632011414
254	0xbfb98cf900000000	-0.09980732202529907
255	0xbfba360300000000	-0.10238665342330933

fc2.bias f8 [128]
0	0xbf98b43b09722bf5	-0.024125025226151526
1	0x3fab074ef19af7b9	0.052790133469428686
2	0xbfb86d1880000000	-0.0954146683216095
3	0x3f8b1b0a00000000	0.013235166668891907
4	0xbf990b9b5c2fc479	-0.02445833921587279
5	0x3f9215b1bea33e13	0.01766088224468205
6	0xbfb0fed840000000	-0.06638862192630768
7	0xbfa6a78280000000	-0.044246748089790344
8	0xbfb29ee640000000	-0.07273711264133453
9	0xbfa967e31d398df2	-0.049620721166117834
10	0xbf8efb3200000000	-0.015127554535865784
11	0xbfabeb93ee8e772e	-0.054531691427867166
12	0x3fa6175582527bde	0.04314677444312286
13	0xbfc2b9551ca1f224	-0.14628089807583067
14	0x3fa042874440dbac	0.03175757129832077
15	0xbfb956b1fc752e01	-0.09897911466139676
16	0x3fbf2983518d5ff7	0.1217271875478899
17	0xbfc5876eca240d6f	-0.1681955801978847
18	0x3fa6128ea4789551	0.043110330178289254
19	0xbfbc2679c0000000	-0.1099620908498764
20	0xbfa8246400000000	-0.04715263843536377
21	0x3fb48c9c00f65fc4	0.08027052901741089
22	0xbf9735efacc6a527	-0.022666687889487804
23	0x3fa8990e00000000	0.04804271459579468
24	0x3fc2813cdd082a73	0.14456902306149608
25	0xbfa1125180000000	-0.0333428829908371
26	0xbfb24e4007d70463	-0.07150650206951208
27	0xbf868af7e175b2c2	-0.011007248466478162
28	0x3fb277d310966639	0.07214087634056278
29	0xbfc1e03c1fbf83fd	-0.13965560484123776
30	0xbfa1a8745002982e	-0.03448832966505254
31	0x3f95ccde6476d0e3	0.021289324647754248
32	0xbfad99bd00000000	-0.057813555002212524
33	0xbf9ff40653d5547d	-0.031204317919521152
34	0x3faacec83025885f	0.05235887134291838
35	0xbf7497db71b334d4	-0.00502763481490583
36	0xbface4a3b1cf79d2	-0.056431880431535256
37	0xbfb2fcad80000000	-0.07416805624961853
38	0xbfa18a6280000000	-0.03425891697406769
39	0xbfa2f76400000000	-0.03704369068145752
40	0xbfbf839a9a92df4a	-0.12310186647198154
41	0xbfc433a90cb55627	-0.15782654877209376
42	0x3fc0288c5b948113	0.1262374350708418
43	0x3fa0c7f700000000	0.03277561068534851
44	0xbfb83e8ec0000000	-0.09470455348491669
45	0x3f9afd097b4657fb	0.02635588469419046
46	0xbfc4fdaf9ab58449	-0.16399188093331166
47	0xbf9483ff66bb2d12	-0.020034781117641627
48	0xbfb7928abb0678fb	-0.09207980218932114
49	0x3fc3e0efe90c5f9e	0.15530203704178985
50	0xbfbdcfffc0000000	-0.1164550632238388
51	0xbf945fb700000000	-0.01989637315273285
52	0x3f98b2d6c8b80838	0.024119716645152972
53	0xbfa44ac337d7dbb2	-0.03963289314918174
54	0xbfa6412279519b4b	-0.043465688046856764
55	0x3f85a6fc00000000	0.0105724036693573
56	0xbfa4e115d7d6d592	-0.040779764745290895
57	0xbfa7fe8680000000	-0.046863749623298645
58	0xbf93c9d600000000	-0.01932463049888611
59	0xbfc0baef8c6db1c6	-0.13070482594356586
60	0xbfb050f27afd275d	-0.06373515608461618
61	0xbfb2110a80000000	-0.07057252526283264
62	0xbfba3cf7fc5263b6	-0.10249280843926453
63	0xbfaeb3a700000000	-0.059964388608932495
64	0xbfa6207d00000000	-0.04321661591529846
65	0x3fc12094c39e17fa	0.13380679656637523
66	0xbf98bdac906874d6	-0.024161049188582272
67	0x3fc24866c287d9ec	0.14283451555793591
68	0x3fa8bdf97e6b457d	0.04832439106179274
69	0x3fa5ad6b0717b93b	0.04233869992809721
70	0x3fabd8d79d66c58f	0.054388750042004046
71	0xbfb805c1b49dfef1	-0.09383783969496641
72	0xbfad3bb500000000	-0.05709615349769592
73	0xbfa1650f8e376445	-0.033974157438656984
74	0x3fb6b73dbde3d073	0.08873353849395631
75	0x3fafc873b1b5341f	0.062076201861238405
76	0x3fb857109f372b66	0.09507850539300264
77	0xbfa8b8ff80000000	-0.048286423087120056
78	0x3fbbf83ff7d119d5	0.109256742479466
79	0xbf50129000000000	-0.0009809881448745728
80	0xbf61d52000000000	-0.002176821231842041
81	0x3fa435d200000000	0.039473116397857666
82	0xbfb5e2c34e24231f	-0.08549137742751299
83	0xbfc1f7ea5af36196	-0.14037827912285356
84	0xbfbbf868c0000000	-0.10925917327404022
85	0x3f92d05bbf738115	0.018372949180844495
86	0xbfba3d645bd1e2a1	-0.10249926797576815
87	0x3fa28abfd7e36c20	0.03621482382160246
88	0x3f91efd09c725167	0.017516383694400697
89	0x3fc345d2958eb456	0.15056831648454033
90	0xbfc1dfb8d3761fb4	-0.13963995290054998
91	0xbfc61ee589cfce4d	-0.17281789044465015
92	0x3f8a8a4e00000000	0.012959107756614685
93	0xbfaae17ea65acb42	-0.05250163822838384
94	0x3fa9b72853022d74	0.050225505955576205
95	0xbfb19582724436a4	-0.06868758477886644
96	0x3fb8ab7907789f04	0.09636646683122413
97	0xbfb7a19d00000000	-0.09230977296829224
98	0xbfb92ae5c342bc6f	-0.09831081406695018
99	0xbfb5d6c4d149fa91	-0.0853083620986388
100	0x3f536de142d9efca	0.0011858653846550265
101	0xbfacefe532e26191	-0.05651775594850784
102	0x3fa07e6fbc799caf	0.03221463371010579
103	0x3f96d651e83c7106	0.02230194072682059
104	0x3f87d42bedd5583b	0.011635153956984215
105	0x3fbee8732267ce40	0.12073440160730176
106	0xbf8ebb9d3405ddf1	-0.015006282949555834
107	0xbfc6362bd9c0028b	-0.17352817661596406
108	0x3f89fb4a00000000	0.01268632709980011
109	0x3fb19711efe9c5ea	0.06871139628653791
110	0x3f976e6d459f0ad3	0.02288218247827951
111	0x3fbfdb058b080bc6	0.12443575519868863
112	0xbfa70f98facbb4ce	-0.04504087506743702
113	0xbfaf4a3700000000	-0.06111308932304382
114	0xbfb597d85f35d916	-0.0843482239195946
115	0xbf913043b784f6aa	-0.016785677028784342
116	0xbfb1803e6d8fa077	-0.06836309599714406
117	0x3fa8d0697f7fc41e	0.04846505814919787
118	0xbf90012478b686bf	-0.0156293581654896
119	0xbfbd73a302345f59	-0.11504572681257964
120	0x3fbb798e8796225e	0.1073235589048038
121	0xbfc3ad08424696a7	-0.15371802555198608
122	0x3fb5d2bab7fbf440	0.08524672500421193
123	0x3fb7956200000000	0.09212315082550049
124	0x3fb6eb0f2763a197	0.08952421867036829
125	0x3fbd118914c8a5e9	0.11354882008949797
126	0x3faed29ed29c7677	0.06020065613686836
127	0xbf98febd00000000	-0.024409249424934387

fc3.weight f8 [64, 128]
0	0x3f926f8b9359c508	0.01800363623482773
1	0xbfba1ebc8b404ced	-0.1020315017670332
2	0x3fb0e88020000000	0.06604767590761185
3	0x3f9249e600000000	0.01786002516746521
4	0xbfb0be5ee6bfab5c	-0.0654048264838542
5	0x3f8d5c1f80e1aea5	0.01433586704316465
6	0x3f63761400000000	0.0023756399750709534
7	0xbfb0fc5980000000	-0.0663505494594574
8	0x3faa0559c0000000	0.050822071731090546
9	0x3f82c64300000000	0.009167216718196869
10	0xbfb3fa9880000000	-0.07804253697395325
11	0x3fadf818c0000000	0.058533452451229095
12	0xbfb7973436f63060	-0.09215093938672814
13	0xbfadb39520000000	-0.058010730892419815
14	0xbfaf4a49fe566288	-0.061113655373621845
15	0x3f996e9e00000000	0.024836033582687378
16	0xbfb8fde589e9e925	-0.0976241552070048
17	0x3f81c54800000000	0.008677065372467041
18	0xbf999e2200000000	-0.02501729130744934
19	0xbfb6614120000000	-0.0874214842915535
20	0xbfb4a3e6c0000000	-0.08062593638896942
21	0xbfc009b9e04ee8b8	-0.125296816373355
22	0xbf9ec95d80000000	-0.03006502240896225
23	0x3f698b7000000000	0.0031182467937469482
24	0xbfb2c04d5513937d	-0.0732467968660568
25	0xbfb09a27e0000000	-0.06485223025083542
26	0x3f9dff0500000000	0.029293134808540344
27	0x3faec7ddc0000000	0.06011860817670822
28	0xbfc15b445125b3dd	-0.13559774362820934
29	0x3fa48d1b40000000	0.040139056742191315
30	0x3fb04bfda0000000	0.06365952640771866
31	0x3f8e1fc400000000	0.014709025621414185
32	0xbfa0b415a0000000	-0.032623935490846634
33	0x3f818acd00000000	0.008565522730350494
34	0xbf8da82400000000	-0.01448085904121399
35	0xbfb102bd60000000	-0.06644805520772934
36	0xbf97d65780000000	-0.02327858656644821
37	0xbfa371c5a0000000	-0.03797738626599312
38	0xbf9a6cce80000000	-0.02580568939447403
39	0xbf739fd200000000	-0.004791088402271271
40	0x3f91104c80000000	0.01666373759508133
41	0x3fa4753440000000	0.03995669633150101
42	0x3f9201ce9c0b9239	0.017585018419497642
43	0x3fa520b240000000	0.04126507788896561
44	0x3f8f851b00000000	0.01539059728384018
45	0xbf85582e00000000	-0.010422095656394958
46	0xbfa41e67c0000000	-0.03929447382688522
47	0xbfb0b1f860000000	-0.06521560996770859
48	0xbf9fd7c3c0000000	-0.03109651431441307
49	0xbf91061da4f05378	-0.01662489241796858
50	0x3fabc306c0000000	0.05422230809926987
51	0xbf9be6b580000000	-0.027247272431850433
52	0x3f6d6ebbf3009756	0.003592841232619752
53	0xbfafd1284b410561	-0.06214261931064403
54	0x3fb54c6220000000	0.08319676667451859
55	0x3fa0ae8000000000	0.032581329345703125
56	0x3faf82bb40000000	0.061544276773929596
57	0xbf96368500000000	-0.021692350506782532
58	0xbfb4a473c0000000	-0.08063434064388275
59	0xbfa6a3fd00000000	-0.04421988129615784
60	0x3f81f9c200000000	0.008777156472206116
61	0x3fa2b43440000000	0.03653109818696976
62	0xbfa6668d40000000	-0.04375115782022476
63	0xbfa24dea40000000	-0.03575069457292557
64	0x3fa482cd40000000	0.040060438215732574
65	0xbfb4185863d47b5d	-0.07849647938972511
66	0xbf98e44700000000	-0.024308308959007263
67	0xbfbab2f8881e1de9	-0.10429337809738794
68	0xbfb899ed6e3fed0b	-0.09609874669688538
69	0xbfbf15b2e477871e	-0.12142484739117917
70	0x3f91cb31d890ebea	0.017376688807626474
71	0x3fa75a46c0000000	0.04561062902212143
72	0x3fb2d97860000000	0.07363083213567734
73	0xbfb4f64c687f15be	-0.08188321639234794
74	0xbfa6e0259b56d86a	-0.04467885514479593
75	0xbfaea3daa0000000	-0.05984385684132576
76	0xbf90311ee927c146	-0.015812380772275668
77	0xbf2a084000000000	-0.00019861012697219849
78	0xbfae776fa7bb8473	-0.05950497553363556
79	0xbfb1399b80000000	-0.06728526949882507
80	0xbfa6f12780000000	-0.044808611273765564
81	0xbf921cd400000000	-0.017688095569610596
82	0xbfb0785b80000000	-0.06433650851249695
83	0x3fb1a45ca0000000	0.06891421228647232
84	0x3fa3410740000000	0.03760550171136856
85	0xbfa4f5ef60000000	-0.040938835591077805
86	0xbf86afe800000000	-0.011077702045440674
87	0xbfc26688a7b3834a	-0.14375408352409585
88	0xbfc29ab9f6847c62	-0.14534687554348397
89	0xbfa6452080000000	-0.04349614679813385
90	0xbf83ac8200000000	-0.00960637629032135
91	0xbfadfd27a0000000	-0.05857204273343086
92	0xbfa7708700000000	-0.04578039050102234
93	0xbfb6181c20000000	-0.08630538731813431
94	0xbfb4e58bb85491f5	-0.08162759065869081
95	0xbfac856be0000000	-0.05570542439818382
96	0xbfb3d0e7327cd361	-0.07740635855300361
97	0x3fb5416920000000	0.08302933722734451
98	0xbfab40e3e0000000	-0.053229447454214096
99	0x3fac6d2540000000	0.05552021414041519
100	0xbfa20de1c0000000	-0.03526216000318527
101	0xbfbbd0af01885e09	-0.1086530092946917
102	0x3f9e832a80000000	0.029797233641147614
103	0xbfb6467820000000	-0.08701277524232864
104	0xbfa8e9ade0000000	-0.04865783080458641
105	0xbf9f26f1ea91477c	-0.030422000829566795
106	0x3faa7c4bc0000000	0.05172955244779587
107	0xbf85bec600000000	-0.010617777705192566
108	0xbf8b4bf900000000	-0.013328500092029572
109	0xbfc378191f4d5789	-0.15210260418342283
110	0xbfa6004a60000000	-0.042970966547727585
111	0xbfb012356ec991ed	-0.06277784304399577
112	0x3f941df5aeb25939	0.019645537173880376
113	0x3faf1a48c0000000	0.060747407376766205
114	0x3f71ca7534fdfbf6	0.004343469467015906
115	0xbf9556d800000000	-0.02083909511566162
116	0x3fafac4440000000	0.06186116486787796
117	0xbfb5c98e60000000	-0.0851067528128624
118	0xbf91b36f00000000	-0.017286047339439392
119	0xbf9e808940000000	-0.029787201434373856
120	0xbf43729198f7b56f	-0.0005934916425169144
121	0x3fb622f4a0000000	0.08647087961435318
122	0xbfb6cb0b3c2e349b	-0.0890357038426423
123	0xbfb52bf0e0000000	-0.08270173519849777
124	0xbfbebda1a46e2167	-0.12008104576500998
125	0xbfb5aed0c4e8f152	-0.08469872290965455
126	0xbfb4aa7a945858ca	-0.08072630044657383
127	0xbfaf79e240000000	-0.061476774513721466
128	0x3f78c3a959b7ed5e	0.006045972371335166
129	0xbfb0ecbd3a786dc6	-0.06611235311031924
130	0xbfb2c5bda0000000	-0.07332978397607803
131	0xbfa8586180000000	-0.0475492924451828
132	0xbfc288bdbd50c834	-0.14479800933765008
133	0xbfbca62ce6d5781a	-0.11191063533394222
134	0x3f6f65fc00000000	0.003832809627056122
135	0xbfb1cee0a0000000	-0.06956294924020767
136	0xbfa4305760000000	-0.039431314915418625
137	0x3fa0dbf6932c6d4f	0.032928185906906486
138	0x3fa62a9fc0000000	0.043293945491313934
139	0x3fa3b3ac40000000	0.03848017007112503
140	0xbf4fde07a1066d98	-0.000972512936687253
141	0x3f9a5076a0e2a7d5	0.025697568483032136
142	0xbfb44539ff9349c3	-0.0791813134158366
143	0x3f96d3bbf3ba49a5	0.02229207682700864
144	0x3f7131e3e889d3fc	0.0041979696912806085
145	0x3f973cdc7089413e	0.02269310414186631
146	0x3fc0d2418a2d6db4	0.13141650435396246
147	0xbfa10cfec0000000	-0.033302269876003265
148	0x3f9a875f80000000	0.025907032191753387
149	0xbfb2f115863284a5	-0.07399115110685502
150	0x3fba7915cd901e1d	0.10341011303545895
151	0x3f760cde00000000	0.0053833648562431335
152	0xbfab31e53938d82c	-0.053115046725381226
153	0xbf87d6e800000000	-0.011640369892120361
154	0xbf7db17c00000000	-0.0072493404150009155
155	0x3fa9dcec5c3dcbc7	0.050513635883269674
156	0xbfafbdc56b4753b0	-0.06199471411279178
157	0x3fafaf64400655f3	0.06188500672866928
158	0xbf9b6922e504a0bc	-0.02676825068297782
159	0x3f8770825642f857	0.011445062882895636
160	0x3fb5af6320000000	0.08470744639635086
161	0xbf66e172b8d5416c	-0.002793048921980004
162	0x3fa4d0758cc78cd2	0.040652917323109286
163	0x3fc16acfbeef7994	0.13607212851543393
164	0x3fa3591ba26deff3	0.03778921468526155
165	0xbfaeae4ea0000000	-0.05992360785603523
166	0x3fb55f70a0000000	0.08348754793405533
167	0xbfb438c520000000	-0.07899124175310135
168	0xbfc22d22d76dfc90	-0.1420024444487109
169	0x3f9e80e610d3a9f0	0.02978858449652394
170	0x3fa0f4dd4bfd485a	0.03311816742520142
171	0x3fb4b95b60000000	0.08095332235097885
172	0xbfb1c6e080000000	-0.06944087147712708
173	0x3fb02a39ca50a480	0.06314431371051121
174	0x3faae74fee90ed16	0.05254602229293874
175	0x3fa880ebf11587be	0.04785859411164449
176	0x3fa19f81f79bbe61	0.034420072055465274
177	0xbfba8e50b2c7f881	-0.10373405804418391
178	0x3fa6b7dac0000000	0.04437144845724106
179	0x3f6bb92000000000	0.0033841729164123535
180	0x3faafad545d91ab3	0.05269495465886589
181	0x3f794747dcabd1c1	0.006171494208264184
182	0x3fa9fbb0aebc20f0	0.05074836857790099
183	0x3fb01fb320000000	0.06298369914293289
184	0xbf727fe07415c897	-0.004516484042470867
185	0x3fa8b6bd40000000	0.04826918989419937
186	0xbf9778e580000000	-0.022922120988368988
187	0x3f726f4c00000000	0.004500672221183777
188	0x3fa4fbc2c0fbc41c	0.0409832821441187
189	0x3f6924a800000000	0.0030692368745803833
190	0x3fc271da1c7a3e0b	0.14409948721412066
191	0xbfac19d340000000	-0.05488453060388565
192	0x3fb5d7b3e0000000	0.08532261103391647
193	0xbfafe8b1a10fb89c	-0.06232218829232858
194	0x3f9dfece5c8ada0a	0.02929232063135071
195	0xbfa1a758151244be	-0.03447985894411819
196	0x3fa93b05475e93c4	0.049278416597452274
197	0xbf992105a33de868	-0.024540031517496536
198	0xbf71072c00000000	-0.004157230257987976
199	0x3fbcaadccdd03279	0.11198215508211175
200	0x3fb16f9a20000000	0.06810916215181351
201	0x3f99c6e001fdc8cc	0.025172710534612716
202	0x3f916a9b3ff79269	0.01700823381351527
203	0x3fb5c002c67b2ecb	0.08496110292179108
204	0xbfa6eaa3ea82e524	-0.04475891339957119
205	0xbfa8c477c0000000	-0.048373930156230927
206	0x3f6bfae6481f4d79	0.0034155366601937268
207	0xbfa36b5120000000	-0.03792813792824745
208	0x3faad86f40000000	0.05243251472711563
209	0x3faeda7040000000	0.06026030331850052
210	0x3fb89619022d2c81	0.09604030898224104
211	0x3f918699d7537d44	0.01711502434488678
212	0x3fa187f500000000	0.034240394830703735
213	0x3fbfd547f8b10331	0.12434816190308308
214	0x3fb2a2b6b48a7f1c	0.07279531390895183
215	0x3fb80eda3280aa94	0.09397662861798955
216	0x3f945695eaabbae8	0.01986154789750119
217	0x3fa6ae9cc0000000	0.04430093616247177
218	0x3fb85244bb3de4a0	0.0950053174145915
219	0x3fb9310d932f5f0a	0.0984047397936331
220	0x3f91da7e80000000	0.01743505150079727
221	0xbf5ba4161d2aecba	-0.00168707046093068
222	0xbfb516549a2ed0f2	-0.08237198604803433
223	0x3f8074e18eddd007	0.008035432980001657
224	0xbfb21dd11562bda3	-0.07076746723281828
225	0x3fb54fc4e0000000	0.08324842900037766
226	0x3f9b046b9130652f	0.02638404916442488
227	0xbf8747b08bc8bf0b	-0.011367205873369387
228	0x3fbdef6d133e6784	0.11693460197275668
229	0x3f923e7e70c2ee7f	0.017816520340359517
230	0x3fa83d912dee6b30	0.04734471975026222
231	0x3fad311a3b00ac6b	0.057015247061223594
232	0xbf8ba69ffa55a7e9	-0.013501405551057348
233	0xbf9ee396966b417b	-0.03016505520901223
234	0x3f90cca46756b1e6	0.016405648047724507
235	0x3fc1267c03dc2c3a	0.13398695171813008
236	0x3f806e2e00000000	0.008022651076316833
237	0xbfb4bbe2dde7f39f	-0.08099191587093778
238	0x3fb95348b35d71a0	0.09892706278828323
239	0xbf9b97f09b4fe789	-0.026946792106151505
240	0x3fae2b176c5f7dcd	0.05892251203453789
241	0xbf98438d80000000	-0.023695193231105804
242	0xbfbf866e9cdf7e5c	-0.12314502077014694
243	0x3fb56e54e0000000	0.08371477574110031
244	0xbfb268e800134c66	-0.07191324235763971
245	0x3fbbe29a3ea2c02e	0.10892643002694122
246	0x3fa2bc3bc0000000	0.036592356860637665
247	0x3fb5fd31aed2dcd0	0.08589468496471686
248	0xbf962817011d3166	-0.02163730568217783
249	0xbfaefdf240000000	-0.06053120642900467
250	0xbfb86fef7f36767d	-0.09545800071506423
251	0xbfb0027120000000	-0.06253726035356522
252	0x3f939f9000000000	0.01916337013244629
253	0xbfa480aca6521336	-0.040044207861717515
254	0xbfaa536e5e928e64	-0.0514177790112427
255	0xbf8ad90300000000	-0.013109229505062103

fc3.bias f8 [64]
0	0xbfbe6b3a23403a30	-0.11882365570657138
1	0x3fa25a6f33e80b41	0.035846209608300324
2	0x3f7ee549fde86dbb	0.00754288580949541
3	0x3fb4abba1fe2d0f3	0.08074534681765382
4	0xbfc09edd978129b4	-0.12984819314654106
5	0x3fb048eaf68e77e9	0.06361263770529003
6	0xbfa0613aa8c43093	-0.03199179945122057
7	0xbfba0371aa0b2446	-0.10161505128338985
8	0xbf99725e00000000	-0.02485033869743347
9	0x3fbcb2c6124f08ce	0.11210287043562348
10	0x3f9bf79d00000000	0.02731175720691681
11	0x3fc366b144253981	0.15157142474567922
12	0xbfb0323820000000	-0.06326628476381302
13	0x3fc2b77d24713de1	0.14622463492786067
14	0xbfab42c0cc9cd063	-0.053243660904997346
15	0xbfb065e149c1329e	-0.06405456591273626
16	0x3fbadcaf50e91462	0.10492988324502187
17	0xbfae0586e2d7e2b7	-0.05863591689189234
18	0x3fc70c2c9f4e29a9	0.1800590303285621
19	0x3fb55a2b20000000	0.08340711146593094
20	0xbfaf9e4ba0000000	-0.06175457313656807
21	0xbfb99f106be92525	-0.100083376260177
22	0xbfc18e75106d2aae	-0.13715995122978114
23	0x3fa18e3ad6a27c66	0.034288252544904904
24	0x3fcdb44c4e829ebb	0.23206476052768274
25	0x3fbb8b434e3720a9	0.1075937334018159
26	0xbfc19008eb6bbbc9	-0.13720809455068508
27	0xbfb46ef7a0000000	-0.0798182263970375
28	0x3fc06e0ef07caaa1	0.12835871450927974
29	0xbfc24598f5ad61c7	-0.14274894710503203
30	0xbfb37e5574acf9e8	-0.0761464509823565
31	0xbf916cb100000000	-0.01701618731021881
32	0xbfa92d9c20000000	-0.04917610064148903
33	0xbfa6c5da80000000	-0.04447825253009796
34	0xbf9cf2d9390b4e92	-0.028270143610667882
35	0xbfb5a3ff40000000	-0.08453364670276642
36	0xbfaeb31afc05e488	-0.05996021582081662
37	0xbfb3914740000000	-0.07643552124500275
38	0xbfa78dec00000000	-0.046004652976989746
39	0xbf8238c400000000	-0.008897334337234497
40	0xbfa8d847c8bac860	-0.048525088551642837
41	0xbfc007a0a7c4727d	-0.12523277465597352
42	0x3f923c76b22f4287	0.017808775544667668
43	0xbfc19c9334fe70ac	-0.1375907906302748
44	0xbf87e8a35dd48f72	-0.011674190808271343
45	0xbfbb36ed270f13de	-0.10630686000429487
46	0xbfb55d9c2bc5de9b	-0.08345962589907645
47	0xbf9e0a9901ddab3d	-0.029337301958928242
48	0xbfb11ba2146e5510	-0.0668278980141006
49	0xbfa74988184b721c	-0.04548287674490245
50	0x3fbdff369c300002	0.11717549622699155
51	0x3f79684eb0e8ffdd	0.0062029909009310965
52	0x3fb00d426166dcb4	0.06270232084249266
53	0x3fba9e5de2d2ebc4	0.10397898471539607
54	0xbfafbcf9e7757f68	-0.06198864889552064
55	0xbfae4027e1b180f3	-0.05908321981473987
56	0x3fc2b174323a16d8	0.14604046299444096
57	0x3f849290f6b77cff	0.010045177964399075
58	0xbfa717a2f564924a	-0.045102207617934
59	0xbfb42737d903d349	-0.07872342155662894
60	0x3fbddadf9b0c32a2	0.1166209939512535
61	0x3fc054c3b928f168	0.12758680859577542
62	0xbfc1524bcbe6e1c5	-0.13532397705217938
63	0x3fb86c1ad161a33e	0.09539954768991962

fc4.weight f8 [2, 64]
0	0xbf95938713306771	-0.021070585771759413
1	0x3fb8104779646c76	0.09399840081862174
2	0x3fa06a8510a6e857	0.03206268146773599
3	0x3fa64ff53cdf4aad	0.043578780823414355
4	0xbfaa457623faa3b0	-0.05131119908521187
5	0x3f7a0f757dd159ce	0.0063623990546006325
6	0x3fb1e5316bc5c079	0.06990345841563962
7	0xbf9667a51d066bc2	-0.021879749199438477
8	0x3fa52fda80000000	0.04138071835041046
9	0xbfbf521a51e1c983	-0.12234653948852352
10	0x3f83c02a00000000	0.00964386761188507
11	0x3faf648e4a018821	0.06131405499833443
12	0x3fb938be00000000	0.09852206707000732
13	0x3f67f6afb58301dc	0.0029252464119908627
14	0x3fa85cf7110c6d6b	0.047584267455216565
15	0xbfa3584399000015	-0.03778277628589436
16	0x3fa5b81c898961d9	0.042420284070150145
17	0x3fa4db2876a2a685	0.0407345433062121
18	0x3faf6e6c6349818f	0.06138933860779893
19	0x3fad9c2880000000	0.0578320175409317
20	0x3fa8d1fc80000000	0.04847706854343414
21	0x3f81996cfe2ba9e9	0.008593417650861706
22	0x3fa89c9aaa3eb5d2	0.04806979492364473
23	0xbf5d4e515d8f4dd6	-0.0017886919579169678
24	0x3f8f7f4f5ae8673d	0.015379543268000279
25	0x3f954a9d1f4d721e	0.020792441402010302
26	0xbfa8a81cacaf092b	-0.04815759284930928
27	0xbfa4d1d580000000	-0.04066340625286102
28	0x3f995ba038b2b1fd	0.0247635874372225
29	0xbf97f399e7044bdd	-0.02339020226015608
30	0xbf84741c2ebc337b	-0.009987087417835152
31	0xbfbcbf26c0000000	-0.11229173839092255
32	0xbf805d8400000000	-0.007990866899490356
33	0x3fb8456ec0000000	0.09480945765972137
34	0x3f94655e14d4a31f	0.019917936345481665
35	0xbf8bb2d200000000	-0.013524666428565979
36	0x3fba98015c50912d	0.10388191703583934
37	0x3fbc6ae140000000	0.11100585758686066
38	0x3fbbf985c0000000	0.10927616059780121
39	0x3fa7525c80000000	0.04555024206638336
40	0xbfa2fd8c937ebc32	-0.037090676312225304
41	0xbf909299c2696604	-0.01618423699469497
42	0xbf92425497027e2a	-0.017831155506995135
43	0x3fa1182b9bc744c9	0.033387530103604464
44	0x3f73e1ee4ad70ea4	0.004854136304348753
45	0x3fa5191a1e099e93	0.041207138220497395
46	0x3f71b1198f3ac8b1	0.004319286195526726
47	0x3f9c7c12232d1b40	0.02781704272936314
48	0x3faa0b14dc8e5e6a	0.05086579506240414
49	0x3faf538a05e6406e	0.0611842281533662
50	0x3f7614e3036bc07f	0.00539101292700661
51	0xbfa42f47105347d0	-0.03942319940837502
52	0x3fb388ac953c9088	0.07630423205825043
53	0x3fb6e1005b3ab82a	0.08937074878005605
54	0xbf662cd72b166213	-0.0027069284921703656
55	0xbf87e04fdbab86ff	-0.011658309832856427
56	0xbfb101259227ef60	-0.06642374819051389
57	0xbfb008fcf2045ca4	-0.06263714703196627
58	0x3fac2320b75d72f9	0.05495550382940979
59	0xbfaef537e4c64632	-0.06046461742074562
60	0x3f9f9dfc4bfee878	0.03087610448685793
61	0x3fb2d068eb3d4593	0.07349258177898425
62	0x3f88ad2255a8e199	0.012048977126242021
63	0x3fb75670c92911b8	0.09116272841590145
64	0x3fa5c1e5021f1c22	0.04249492312333582
65	0xbfa4665bdf38ae8b	-0.03984343623991745
66	0xbfd43a21747e4222	-0.31604801536835414
67	0xbfb01c13a8e4a9fa	-0.06292841790551754
68	0xbfc4f3d1b9720974	-0.16369077258066123
69	0xbfd6183a8b056932	-0.34522880150111057
70	0xbfca20e1aadb87b3	-0.20412846415189065
71	0xbf87d402f8c3556e	-0.011634848801274269
72	0x3fbb478d80000000	0.10656055808067322
73	0xbfd5a6bb53939a9a	-0.3383014980485456
74	0xbfb8257380000000	-0.09432145953178406
75	0xbfd5dd8d0d27884d	-0.3416473988019149
76	0xbf9ac55a00000000	-0.02614346146583557
77	0xbfcf7025ee325941	-0.24560999041268342
78	0xbfb1dc80d9dc9348	-0.069770863713143
79	0xbfbb99cd3e08a394	-0.10781557812209847
80	0xbfc9cab04f793144	-0.2014980686239004
81	0xbfb63664a6158e93	-0.0867674737433453
82	0xbfd6136011e9b028	-0.3449325728349799
83	0x3fb7a61200000000	0.09237778186798096
84	0xbfad056900000000	-0.05668190121650696
85	0x3fae4ad5e4ac1777	0.05916469971093268
86	0xbfb986e81130e148	-0.09971476001453994
87	0xbfc33d2f1f0a0006	-0.15030468955592385
88	0xbfd746cad8f1f44d	-0.36369582353637925
89	0xbfc2fb50dad90231	-0.14829455076143597
90	0xbfa30b0e6082c6ae	-0.037193726807698155
91	0xbfb8ce9fc0000000	-0.09690283238887787
92	0xbfd011da92339355	-0.25108970906722067
93	0x3fa215be4115280f	0.035322137303026684
94	0x3fbc035e702673fc	0.10942640531580133
95	0xbfb0425ac0000000	-0.06351248919963837
96	0x3fa49dfa00000000	0.040267765522003174
97	0xbf97871000000000	-0.022976160049438477
98	0xbfaa3ff63a33f70b	-0.05126924000249574
99	0xbfa68e6700000000	-0.04405519366264343
100	0xbf94ba4044426493	-0.02024174133893959
101	0x3fbff86480000000	0.12488391995429993
102	0xbfbd0fd800000000	-0.11352300643920898
103	0x3fbb2ce3c0000000	0.1061537116765976
104	0xbfc40e65e7510e5f	-0.15668939394719225
105	0xbfc0c8bd5e271d11	-0.13112609002403322
106	0xbfcb3a8e8eeef1d3	-0.21272451380890675
107	0x3f9b32b736470ab5	0.026560652435146454
108	0xbf7dbe7e0304777f	-0.0072617456756044465
109	0xbfbab32f49843bbf	-0.10429664177739449
110	0x3fad69c81b2564d3	0.05744767505047723
111	0xbf8637442dce5392	-0.01084759964741425
112	0xbfaa95928d3a8703	-0.051922397365400406
113	0xbfc17b16def884e2	-0.13656888854260446
114	0xbfd3d37dbbfdf99b	-0.3097833953724149
115	0x3f96b5476c4b51dc	0.022175899491075998
116	0xbfcfe8ebf3a7c4b9	-0.24929570576890628
117	0xbfd2ec4e8c30e80e	-0.29567302408725105
118	0x3f8234c038af9b51	0.008889676790159536
119	0xbfb73269d77bae4d	-0.09061299811190189
120	0xbfecc856b8d298d7	-0.899455414754608
121	0x3faa3eaa2f438f25	0.05125934435798588
122	0x3f863e981cadc1f5	0.010861576438146317
123	0xbfb83da40175b715	-0.09469056163444763
124	0xbfd538d501980390	-0.3315937533916946
125	0xbfccfab38f719f0b	-0.22640079979031955
126	0xbfb01dd2c336db35	-0.06295506731008234
127	0xbfd30f89b7e13cd7	-0.2978233619405279

fc4.bias f8 [2]
0	0x3fb3c51bd7a39cbf	0.07722639097811433
1	0xbfbb5dd16bfed4cf	-0.10690029989821713
