src/backend/controller/checkpoints/checkpoint_epoch_59.pth (torch, 420207 bytes, 25 tensors)

fc1.weight f8 [64, 5]
0.17186883558149055 -0.46388944614491534 0.2494251547773897 -0.18624303422469052 0.10681340618434124 -0.15748682618141174 -0.2859317362308502 -0.4182189404964447
-0.23558029532432556 0.102683424949646 -0.21942922050589161 0.08583100711553392 -0.38618975031784597 0.4247644823782761 0.07457677156350255 0.29222941398620605
-0.12881866097450256 -0.2658160924911499 -0.36438190937042236 -0.08555623888969421 -0.16404101252555847 -0.012782365083694458 0.3968053460121155 0.01920926570892334
-0.4070501923561096 -0.14567713643075697 0.35231582370035003 0.3793499623287043 0.10025112310207977 -0.35293646208037155 -0.21175349605894636 -0.2751950188353417
0.2847413198636402 0.2589827635278063 0.40681145369854027 0.37379854917526245 -0.41267502307891846 -0.0874796211719513 -0.3212490677833557 0.085968017578125
0.18982706455191978 -0.25064333137437456 -0.0061268321432313725 0.1174992162298483 0.25155717123591786 0.3330637406649389 0.037578320310754205 0.09036355286042239
-0.3719587931523922 0.14250745248644514 -0.3042480979769793 -0.025528269573894646 0.3987446700454432 0.018818823495222774 0.14880627226411253 0.28995077462271907
0.2060692516163623 0.022661145582275024 0.3345949863172983 0.024392530034107105 -0.1584734320640564 0.10327941179275513 -0.35499274730682373 0.29825127124786377
-0.19943299889564514 -0.3185874699611274 0.2269179860715551 0.434891353594667 -0.006399008511771587 0.2885249773489592 -0.34990119911402884 0.2526862184492734
-0.11246005382642717 0.03174186149142863 -0.0661504008243568 -0.28154245018959045 -0.39090579748153687 -0.2809138894081116 0.3958856463432312 0.1273355484008789
0.20513496270375367 -0.026452190678824577 0.23151358367635116 -0.014150574702953313 0.14210998222158444 -0.0344707296521562 0.3806491463152832 0.15981595288752035
0.1411857816740373 0.2561873341631816 0.2305031418800354 -0.17867669463157654 -0.4265388250350952 0.046540647745132446 -0.28340089321136475 0.0954282076209449
0.06049691981393686 0.11953570637011254 0.2714925141367228 -0.1936615831020769 0.5098574918578664 -0.37941970256084373 -0.2795312438893569 0.24876823879053878
-0.012781092177275636 0.2008170485496521 -0.23314857482910156 -0.052512556314468384 -0.15051090717315674 -0.2524383068084717 0.4268262982368469 -0.1996842473745346
-0.30966246128082275 -0.41050320863723755 -0.41057053208351135 0.2014216283037909 0.32560772465171267 -0.05091345656072396 -0.465622218016046 0.17704417602478553
-0.11689847707748413 -0.3861534297466278 0.3823000192642212 0.1358056664466858 -0.24432815611362457 -0.2266846792199056 0.13090868921005175 -0.29006860789369815
0.2831547151659728 -0.2765303725882587 0.3573336601257324 -0.11508020758628845 0.08344215154647827 -0.4326631426811218 -0.07486072182655334 -0.06321179866790771
-0.1253010332584381 -0.060605525970458984 -0.07296356558799744 0.3147851824760437 0.053164077876902076 -0.20893512165174352 0.2478516153411889 0.1498859803232178
-0.29725140554033347 -0.14019310474395752 -0.12256672978401184 0.3443242311477661 -0.013670265674591064 0.1359119415283203 -0.1553056836128235 0.21436315774917603
-0.09526622295379639 0.19238531589508057 0.035091787576675415 0.19413775205612183 0.016615450382232666 -0.32409489154815674 -0.39700549840927124 -0.2783563733100891
0.06391154130951025 0.1681550237473068 -0.22519172144594576 0.22857819176985683 0.3291371697975843 0.14446368906091372 -0.31260793926367586 0.05092110980222085
0.21897862227276654 0.3832164736258216 -0.2745234966278076 0.0585247278213501 -0.129891037940979 0.214630126953125 0.055469393730163574 -0.38239791989326477
-0.08170893788337708 0.031002163887023926 -0.35994672775268555 -0.3928275406360626 0.4157513525541697 -0.13109265065198245 -0.36451286251045434 0.051667333016026974
0.2293913913482007 0.3425975814019972 0.08952156410975758 0.2433161629685025 0.2754178851110954 0.3913731102777913 0.25873912594700865 -0.13471295480155623
-0.2716057567439378 -0.19984865901770618 -0.1112494232979509 -0.29227695185540276 -0.26928407732125864 0.5236223602312252 -0.13417529719806523 0.33025419446155857
0.46350257084851865 -0.091863115520378 -0.3698760877759104 0.4245565035542537 -0.05343718405885839 0.06637710332870483 0.15834105014801025 -0.1603129506111145
-0.11477276682853699 -0.3749419152736664 0.024249494075775146 -0.1269947588443756 -0.22993823885917664 0.1692209243774414 -0.08096730709075928 0.1400807918985812
-0.026302491745136644 -0.42481996640760633 0.22002101612080663 -0.1354256894239476 -0.09640165701274656 0.46412583067926305 0.42666498436565203 0.31163283902403555
-0.3236755172357546 -0.44992969531784693 0.03885326268301112 -0.2588346983328441 0.4294912065263697 0.33756492760645457 0.21449357804042873 -0.24617144380961106
0.0016545940093696107 0.2795662775410996 0.1578147826814418 0.10394882298775998 0.3404845594448178 0.10399174909858329 0.3839654013862213 -0.06762121390979949
0.030186760403494942 0.27858885551327445 0.3886056168628177 0.18847864744694434 0.004257397851934252 0.07042723894119263 -0.09770673513412476 -0.027212321758270264
0.2269570231437683 -0.012213528156280518 0.23403942379334164 -0.27801526203170457 -0.27277097274729045 0.0969828702364095 -0.2054983840451472 0.15867567665194807
00000000: cf15 034a ccff c53f cab9 095c 5db0 ddbf
00000010: c4c8 48d9 29ed cf3f 562a 8dce cfd6 c7bf
00000020: 4a0b 5696 1f58 bb3f 0000 0040 8728 c4bf
00000030: 0000 00a0 b44c d2bf 0000 0060 19c4 dabf
00000040: 0000 00c0 7e27 cebf 0000 0000 7649 ba3f
00000050: 9f06 eeb6 4116 ccbf 0f41 8b58 05f9 b53f
00000060: 7098 ea36 55b7 d8bf c74a 145e 572f db3f
00000070: cb10 e89a 7617 b33f 0000 0000 e3b3 d23f
00000080: 0000 0040 217d c0bf 0000 0080 2103 d1bf
00000090: 0000 0080 0852 d7bf 0000 0080 03e7 b5bf
000000a0: 0000 00c0 4bff c4bf 0000 0000 a42d 8abf
000000b0: 0000 0040 4265 d93f 0000 0000 98ab 933f
000000c0: 0000 0040 1c0d dabf 305d 5f64 8ca5 c2bf
000000d0: e700 2aab 578c d63f 1233 7c10 4547 d83f
000000e0: 0357 1cbf 0eaa b93f 7adf 8cd0 8296 d6bf
000000f0: f583 3112 bd1a cbbf 96df 7a91 cb9c d1bf
00000100: e596 28a8 3339 d23f a718 e570 2c93 d03f
00000110: 2f80 51e8 3209 da3f 0000 00c0 50ec d73f
00000120: 0000 0080 4469 dabf 0000 0080 1065 b6bf
00000130: 0000 0040 588f d4bf 0000 0000 0002 b63f
00000140: e8b5 12d5 404c c83f d4a8 cd53 8a0a d0bf
00000150: 63a2 eefa 7218 79bf e248 03bb 6d14 be3f
00000160: 1f15 e23f 8319 d03f e9ea 6894 ea50 d53f
00000170: 39ee 8b31 773d a33f 862f 49d8 1022 b73f
00000180: 5425 0341 2cce d7bf 88ca ee27 af3d c23f
00000190: e99a ab03 cd78 d3bf 60fd c52b 1524 9abf
000001a0: d52a 535d 0885 d93f 1b3f d8dd 3d45 933f
000001b0: 4e32 687c 150c c33f a115 9db1 8d8e d23f
000001c0: f2a4 332c 7a60 ca3f 97be a9bc 7b34 973f
000001d0: f3da e816 016a d53f 1981 0dfb 5afa 983f
000001e0: 0000 0080 db48 c4bf 0000 0000 8570 ba3f
000001f0: 0000 0080 33b8 d6bf 0000 0080 8c16 d33f
00000200: 0000 0040 0587 c9bf ca7f 19b3 bc63 d4bf
00000210: f897 8608 a60b cd3f 2425 408b 42d5 db3f
00000220: 27e3 8ec4 d835 7abf 36bf 7277 3177 d23f
00000230: f8a8 c1ff c764 d6bf 3eee 18d1 022c d03f
00000240: b578 4a9d 2eca bcbf 7c29 0a22 7840 a03f
00000250: 646c 2890 3bef b0bf 0000 00a0 ca04 d2bf
00000260: 0000 00c0 9904 d9bf 0000 0040 7efa d1bf
00000270: 0000 00c0 3056 d93f 0000 0000 884c c03f
00000280: 2d16 0aca dc41 ca3f eb0f 7e77 4816 9bbf
00000290: ba1e 3cb3 3ca2 cd3f 74e1 8cfc f9fa 8cbf
000002a0: 1cd6 09ef a830 c23f f9ef 0cc1 25a6 a1bf
000002b0: 5b2a ab3c 8e5c d83f 0bf7 8361 d974 c43f
000002c0: b59f 792d 6012 c23f a656 788f 5f65 d03f
000002d0: 0000 0080 2081 cd3f 0000 00c0 e0de c6bf
000002e0: 0000 0080 694c dbbf 0000 0000 2dd4 a73f
000002f0: 0000 0080 3d23 d2bf 1c0d d9a6 fb6d b83f
00000300: 9a1c 38c8 73f9 ae3f 3e5b 905d e499 be3f
00000310: e0dd 5423 2260 d13f ef1e f51a e7c9 c8bf
00000320: cecd a4a8 c050 e03f 613d 7d93 6948 d8bf
00000330: 5cc2 ad03 d7e3 d1bf e8c6 f13c a3d7 cf3f
00000340: 42bb 4427 f92c 8abf 0000 0080 5fb4 c93f
00000350: 0000 0000 d0d7 cdbf 0000 0000 ede2 aabf
00000360: 0000 0000 f143 c3bf 0000 0000 f327 d0bf
00000370: 0000 0040 1f51 db3f 0000 00e0 408f c9bf
00000380: 0000 0080 82d1 d3bf 0000 0040 af45 dabf
00000390: 0000 00a0 c946 dabf facb 2215 2fc8 c93f
000003a0: a10f 2dc8 c1d6 d43f 8c91 b51d 5411 aabf
000003b0: a2df aa21 c1cc ddbf e5a2 fc30 62a9 c63f
000003c0: 0000 0000 0fed bdbf 0000 00e0 bcb6 d8bf
000003d0: 0000 0080 9a77 d83f 0000 0080 1462 c13f
000003e0: 0000 0020 2546 cfbf ba7a e0e9 0004 cdbf
000003f0: e9ae 75ad 9dc1 c03f c6fa 1fec 7b90 d2bf
00000400: a825 56f4 341f d23f 4981 a772 acb2 d1bf
00000410: 0000 0000 8ede d63f 0000 0080 e575 bdbf
00000420: 0000 0000 775c b53f 0000 00c0 c0b0 dbbf
00000430: 0000 0080 122a b3bf 0000 0000 a62e b0bf
00000440: 0000 0040 dd09 c0bf 0000 0000 b007 afbf
00000450: 0000 0080 bdad b2bf 0000 00c0 7025 d43f
00000460: 0749 9b6f 5238 ab3f 4b71 3dd5 62be cabf
00000470: cf59 130b 9ab9 cf3f c9fd cebb 762f c33f
00000480: c816 5fc2 2a06 d3bf 0000 0000 d9f1 c1bf
00000490: 0000 0080 8860 bfbf 0000 0080 6809 d63f
000004a0: 0000 0000 28ff 8bbf 0000 0000 9065 c13f
000004b0: 0000 0080 0ee1 c3bf 0000 0080 4070 cb3f
000004c0: 0000 0000 5e63 b8bf 0000 0000 15a0 c83f
000004d0: 0000 0000 8df7 a13f 0000 0080 81d9 c83f
000004e0: 0000 0000 a403 913f 0000 0080 f8bd d4bf
000004f0: 0000 00c0 8968 d9bf 0000 0040 97d0 d1bf
00000500: 87e4 c2bb 815c b03f 7e8e d393 1a86 c53f
00000510: 0f5b 7813 15d3 ccbf 287c 1dd9 0c42 cd3f
00000520: 916e 0b59 9510 d53f 12f2 fc41 c97d c23f
00000530: 55e0 e6ba c401 d4bf be99 8dea 5412 aa3f
00000540: 40a3 97d2 7d07 cc3f f7b9 6063 9e86 d83f
00000550: 0000 0000 cb91 d1bf 0000 0000 f4f6 ad3f
00000560: 0000 0000 45a0 c0bf 0000 0000 0079 cb3f
00000570: 0000 0000 7c66 ac3f 0000 0020 3579 d8bf
00000580: 0000 0080 e0ea b4bf 0000 0000 08bf 9f3f
00000590: 0000 0000 5e09 d7bf 0000 0020 1624 d9bf
000005a0: 293a 9f8f ab9b da3f 76ea a5db a4c7 c0bf
000005b0: 2c0a ddc1 2d54 d7bf cd97 2603 2474 aa3f
000005c0: e287 e975 b25c cd3f 8fdb f367 1eed d53f
000005d0: 835f 239e e2ea b63f b6da 44e9 fb24 cf3f
000005e0: ed47 5256 72a0 d13f 9452 4bcd 410c d93f
000005f0: 70d5 088d 2e8f d03f d92f 9c2b 463e c1bf
00000600: ffb6 a71c fd61 d1bf 57b4 500f a494 c9bf
00000610: a478 c39a d77a bcbf 41fc 6563 aab4 d2bf
00000620: f169 5b48 f33b d1bf dbb7 14ae 83c1 e03f
00000630: 61c9 b2f8 a72c c1bf ea11 257d e222 d53f
00000640: fe00 daaf 06aa dd3f b362 de54 5784 b7bf
00000650: 3c7a 24c1 0cac d7bf c674 840a ef2b db3f
00000660: 68a4 d85b 1e5c abbf 0000 0000 17fe b03f
00000670: 0000 0000 8544 c43f 0000 0080 2285 c4bf
00000680: 0000 0080 bf61 bdbf 0000 0060 0cff d7bf
00000690: 0000 0000 dcd4 983f 0000 0040 5d41 c0bf
000006a0: 0000 00c0 9d6e cdbf 0000 0000 08a9 c53f
000006b0: 0000 0000 46ba b4bf b247 00da 2aee c13f
000006c0: 3c0a 6557 0aef 9abf aa24 9a15 4030 dbbf
000006d0: 75f5 550e a629 cc3f 179b 8e05 a155 c1bf
000006e0: 7c63 266c c7ad b8bf dcc2 ffd3 3cb4 dd3f
000006f0: 94b9 8ca6 7a4e db3f 81f1 fddc caf1 d33f
00000700: e4c7 4284 19b7 d4bf e1eb b8eb a5cb dcbf
00000710: 1c03 2229 93e4 a33f be36 1a69 bf90 d0bf
00000720: 5dd2 7caf c87c db3f 452a 16ed a99a d53f
00000730: 7a5d 718b 8674 cb3f 6b89 2fbe 8b82 cfbf
00000740: bc39 23ca de1b 5b3f 739f c6f4 69e4 d13f
00000750: 0998 3859 4633 c43f d8ab 30db 639c ba3f
00000760: 04f1 e6bf 7fca d53f 1da8 6e09 349f ba3f
00000770: 15f5 6f9e e392 d83f 1927 42b6 9f4f b1bf
00000780: 911f d232 47e9 9e3f cf69 dd59 66d4 d13f
00000790: eeee dd17 eade d83f 4db4 637d 1120 c83f
000007a0: 0c53 a488 3470 713f 0000 0000 8507 b23f
000007b0: 0000 0000 4f03 b9bf 0000 0000 8cdd 9bbf
000007c0: 0000 0080 ed0c cd3f 0000 0000 6803 89bf
000007d0: 1863 95fb 00f5 cd3f 3ec3 8d86 00cb d1bf
000007e0: a4da cf61 1475 d1bf f005 f08f ded3 b83f
000007f0: a068 6d63 c54d cabf 5505 f20c 7c4f c43f

fc1.bias f8 [64]
-0.25739704980996403 0.16295605897903442 0.27767046418588587 0.06451404094696045 -0.38506436347961426 -0.16091913299708177 -0.2008959973993917 -0.2740658223628998
-0.4118813574078628 -0.03011231930943224 0.16698124973050968 -0.07397705894657604 -0.20395055413246155 -0.2530261436627134 -0.09038860211999593 0.21260493993759155
-0.16626540270101148 -0.04012546105327235 -0.22168532013893127 -0.23398495654968454 0.06107529578435662 0.05535346269607544 0.04343867301940918 -0.08266408901425741
-0.2567555606365204 0.27481152254444713 -0.37204283475875854 -0.24961154162883759 -0.2540663157640161 -0.3390759229660034 -0.32782331109046936 -0.1563149392604828
-0.14041350632759458 -0.4495799878697154 -0.13466614484786987 -0.004641890525817871 -0.04508424914405745 0.26446527344291987 -0.11153821549089946 0.12533129250962174
-0.03381969172593476 -0.2067943662405014 0.03128430247306824 0.3214693127797696 0.29501758937052625 0.09795332538516086 -0.486133209039147 -0.015203231057462267
-0.1192453706438102 -0.44391533732414246 0.5180726187844652 0.43862307982874094 0.0777619804593477 -0.26109030842781067 -0.3221997916698456 0.05373257398605347
-0.2710816388377023 0.0730978995694499 -0.2890077829360962 -0.40819179305772696 -0.2622549533843994 -0.20663459260877945 -0.233567432426677 0.40328839674661593
00000000: cc52 c179 3179 d0bf 0000 0080 bedb c43f
00000010: d195 af56 5ac5 d13f 0000 0000 fe83 b03f
00000020: 0000 0000 e5a4 d8bf 46f6 c286 ff98 c4bf
00000030: e524 5dc5 f5b6 c9bf 0000 0060 4b8a d1bf
00000040: e486 f99f 435c dabf 1b19 908a c3d5 9ebf
00000050: b9a1 513f a45f c53f 516e d418 29f0 b2bf
00000060: 0000 0040 0d1b cabf 571e 0491 9431 d0bf
00000070: 9b5a 091a b523 b7bf 0000 0080 a336 cb3f
00000080: 864f 8749 2f48 c5bf 57e4 eb0d 538b a4bf
00000090: 0000 0040 2f60 ccbf 2885 1114 38f3 cdbf
000000a0: 6a84 f9db 4245 af3f 0000 0000 4a57 ac3f
000000b0: 0000 0000 983d a63f b3af de46 7929 b5bf
000000c0: 0000 00e0 ae6e d0bf 8b1c 7911 8396 d13f
000000d0: 0000 00c0 8ccf d7bf 0000 0060 45f3 cfbf
000000e0: a72f 4e5d 9f42 d0bf 0000 0080 6bb3 d5bf
000000f0: 0000 00a0 0efb d4bf 0000 00c0 2002 c4bf
00000100: 9efe cbdc 11f9 c1bf 4a89 3524 ebc5 dcbf
00000110: 0000 0080 bd3c c1bf 0000 0000 6003 73bf
00000120: f8e1 465f 4815 a7bf c95c 17c1 ffec d03f
00000130: 0ea1 c9bb c48d bcbf 1943 3f15 db0a c03f
00000140: 1bee d88b d050 a1bf 0000 00e0 3c78 cabf
00000150: 0000 0000 7f04 a03f 0fa1 4306 f492 d43f
00000160: b0d5 8574 91e1 d23f 764f 1019 7813 b93f
00000170: 97a6 9476 ce1c dfbf 4f8f 7b21 df22 8fbf
00000180: 0554 1d57 dd86 bebf 0000 00e0 1b69 dcbf
00000190: 3d3c 5407 0d94 e03f c4a7 c889 6612 dc3f
000001a0: 61f1 f18a 35e8 b33f 0000 0020 b4b5 d0bf
000001b0: 0000 00e0 eb9e d4bf 0000 0000 d682 ab3f
000001c0: 2ea8 56cd 6659 d1bf c89c 0e40 8bb6 b23f
000001d0: 0000 0080 1a7f d2bf 276d 6b78 d01f dabf
000001e0: 0000 0000 c9c8 d0bf 0b0e bd98 0073 cabf
000001f0: 5075 d7a1 89e5 cdbf e182 b822 7acf d93f

fc2.weight f8 [128, 64]
0.16768077124314737 0.04848848283290863 -0.2462466479807709 0.08302196860313416 -0.07802818715572357 0.009475682331165271 -0.08865310635118427 0.08403293788433075
-0.009968308001302228 -0.0910148465673194 0.23036030747299435 0.001494627803927227 0.045676231384277344 0.16560657326504197 0.05992113677125538 -0.11497291922569275
0.07934482035235799 -0.041544789385528476 -0.10099020600318909 0.07993182862572239 -0.3643289685135387 0.12457859516143799 -0.06810134649276733 -0.0674768758493853
0.05323682725429535 -0.07052402986253976 -0.11731952428817749 0.11162075400352478 -0.04007150856027468 0.12082524597644806 -0.025568649172782898 0.032455697655677795
0.09344603078363226 0.0744332362176644 0.06213757395744324 0.0795111209154129 -0.053108207766624754 0.14433169721489347 -0.06983033505170666 0.1015845183461425
-0.18438010295292348 -0.09662874042987823 -0.055537447333335876 -0.1338297647380208 0.1430677319697815 0.23412377747823399 0.10453313420705479 0.1529615697429243
-0.03239500777593329 -0.1192178875207901 -0.165243001789308 0.0956979424935506 0.1418780608145883 -0.0378129780292511 0.04424102604389191 -0.07410448789596558
-0.03730421402801557 0.2831245834762075 -0.06127724051475525 0.2180428731765075 0.021099820733070374 -0.03656600398487023 0.1301856636944875 -0.11176274923765174
0.14695982188297735 0.04754680395126343 -0.07988053099948685 -0.11506190896034241 0.09858828783035278 0.16676126181314807 0.07982702569414289 -0.03155797719955444
-0.1228888922799097 0.14983510811361536 0.12997566403904573 0.14890125661712386 -0.07030391693115234 0.10447500290108978 -0.0025911689183260194 -0.05682685971260071
0.12566760234261096 0.1289375484406986 0.017434626817703247 0.15230336796501012 -0.356428876298366 0.12297642230987549 -0.11962990462779999 0.059327172581866115
0.048812225461006165 1.0482721571809274e-05 -0.07497991621494293 0.012364953756332397 -0.12502626884255938 -0.10351784527301788 0.10684394836425781 0.08454196155071259
0.06730624553654505 0.00856437685446945 -0.0659954845905304 0.06951664388179779 -0.19872502823972032 -0.005288999166955117 -0.053670494071002044 0.06776604778640667
-0.20706583970606907 -0.02407267689704895 0.0528220534324646 -0.1081328839138126 0.14580030827781484 0.17741605576831693 -0.07237833497102844 0.02050325760181986
0.10407517581209974 -0.02115313708782196 -0.30509044634389965 -0.01080977359009328 0.10158173112085131 -0.0010669082403182983 0.04069015383720398 -0.03737284243106842
0.07320608939087579 0.3931649242566315 0.024788275361061096 0.03954504149862311 0.07572837173938751 -0.0355466931768296 -0.020769190125783914 -0.16266319030931378
0.05128578841686249 0.11469148099422455 0.05626752972602844 -0.020994439721107483 -0.04542633891105652 0.024455711245536804 0.023697972297668457 -0.030291587114334106
0.11601851880550385 0.11583957076072693 0.014417141675949097 -0.036647602915763855 0.12222687900066376 0.0925413966178894 0.010417655110359192 0.11615128815174103
-0.09335191547870636 0.0029187947511672974 0.059048011898994446 0.009012162685394287 -0.1069951206445694 0.0514325350522995 0.010655850172042847 0.04085114598274231
-0.054498255252838135 -0.040580183267593384 -0.07728274166584015 -0.034776076674461365 0.00675007700920105 0.0437106192111969 -0.026751816272735596 -0.006144657731056213
0.00866323709487915 -0.020519152283668518 0.08007848262786865 -0.015260085463523865 0.08058206737041473 -0.06079699099063873 0.0950978696346283 0.049122899770736694
0.023044317960739136 0.013670369982719421 0.020310774445533752 0.10971090197563171 0.1072588562965393 0.11532142758369446 -0.05211260914802551 0.1025560200214386
-0.10017463564872742 -0.11907222867012024 0.10334251821041107 -0.08588787913322449 -0.044569388031959534 -0.11070370674133301 0.0897010862827301 -0.029435500502586365
-0.038821861147880554 0.008426100015640259 -0.0961381047964096 0.07351963222026825 0.0771975964307785 -0.07047675549983978 0.01842452585697174 -0.0614202618598938
-0.10520830750465393 0.01570376753807068 -0.07842087745666504 0.027011752128601074 -0.03354214131832123 -0.06039923429489136 0.06900322437286377 -0.08737963438034058
-0.01917882263660431 -0.10362283885478973 0.01719948649406433 0.10872858762741089 0.006345480680465698 -0.10763430595397949 -0.07922659814357758 -0.0721343457698822
0.07124049961566925 0.07701495289802551 -0.05910086631774902 0.03623458743095398 0.002151176333427429 0.004817202687263489 -0.07734706997871399 0.1110992580652237
0.022838890552520752 0.07761023938655853 -0.04409131407737732 0.04642479121685028 -0.08146217465400696 0.09533855319023132 0.07211227715015411 -0.009176477789878845
-0.07471226155757904 -0.09257663786411285 0.004039481282234192 -0.052190497517585754 0.017168685793876648 -0.1005190759897232 0.10775859653949738 -0.10661697387695312
0.0034256279468536377 -0.06597594916820526 -0.04985387623310089 0.0818420946598053 -0.08196958899497986 -0.08751511573791504 -0.0676000565290451 -0.09712125360965729
-0.008934259414672852 -0.0310785174369812 0.030491948127746582 0.059211328625679016 0.06194591522216797 0.10446573793888092 0.0017051398754119873 0.04514715075492859
0.08282795548439026 0.031386032700538635 -0.024935752153396606 -0.02411876618862152 -0.006971403956413269 0.036908313632011414 -0.09980732202529907 -0.10238665342330933
00000000: df24 5442 9076 c53f 0000 0080 7bd3 a83f
00000010: 4cdc e999 0285 cfbf 0000 0080 ed40 b53f
00000020: 0000 00c0 a7f9 b3bf 8ed2 c18d fc67 833f
00000030: e796 7750 f8b1 b6bf 0000 00c0 2e83 b53f
00000040: 8679 e5a6 436a 84bf 2804 75bd bf4c b7bf
00000050: 524e 7251 727c cd3f f860 6762 ec7c 583f
00000060: 0000 0000 e062 a73f 9e86 16a0 9832 c53f
00000070: 481a 8bb5 fbad ae3f 0000 0080 dd6e bdbf
00000080: 2637 8530 f14f b43f 79c9 75cf 5b45 a5bf
00000090: 0000 0080 7eda b9bf 5b61 db8d 6976 b43f
000000a0: 6811 3073 2a51 d7bf 0000 0000 62e4 bf3f
000000b0: 0000 0000 176f b1bf 8e65 021f 2a46 b1bf
000000c0: 0000 0080 db41 ab3f fd7b d7e1 dc0d b2bf
000000d0: 0000 0000 a708 bebf 0000 0080 2d93 bc3f
000000e0: 5618 89b5 4084 a4bf 0000 0040 67ee be3f
000000f0: 0000 0000 ab2e 9abf 0000 0080 089e a03f
00000100: 221e 283e 14ec b73f d851 4a7b 0e0e b33f
00000110: 0000 0000 7fd0 af3f 0000 0040 d75a b43f
00000120: c47e 03bf ff30 abbf cc35 a807 7679 c23f
00000130: 70d8 509d 66e0 b1bf ab9b 1368 7101 ba3f
00000140: 3fa3 1b68 c499 c7bf 0000 0040 a9bc b8bf
00000150: 0000 0080 676f acbf 7dfd 636f 5521 c1bf
00000160: 5028 f61e 0b50 c23f 5c14 be97 c4f7 cd3f
00000170: a086 c4f8 aec2 ba3f 809b cba5 3e94 c33f
00000180: b010 e715 1496 a0bf 0000 0040 1085 bebf
00000190: 2efa 49c4 ae26 c5bf dae5 4d0d a97f b83f
000001a0: a4f9 9b6f 0f29 c23f 0000 0000 395c a3bf
000001b0: 0000 0080 c2a6 a63f 0000 0000 83f8 b2bf
000001c0: 05b2 81b6 8919 a3bf ec54 ae92 b61e d23f
000001d0: 0000 0000 bb5f afbf fca0 b530 d4e8 cb3f
000001e0: 0000 0000 319b 953f 3456 857e c7b8 a2bf
000001f0: 95e9 fc7f eca9 c03f e902 e3c8 7b9c bcbf
00000200: 9a1c 6856 94cf c23f 0000 0000 0e58 a83f
00000210: 65db 3aec 0c73 b4bf 0000 0080 b274 bdbf
00000220: 0000 0000 153d b93f bb13 ddda 6e58 c53f
00000230: cf7b b140 8b6f b43f 0000 0000 5e28 a0bf
00000240: e645 627d a575 bfbf 41ff 91fc cb2d c33f
00000250: 396b 29e5 0aa3 c03f 2d7e c045 320f c33f
00000260: 0000 0000 70ff b1bf f7ad b5b0 dfbe ba3f
00000270: 2566 6738 133a 65bf 0000 0000 6918 adbf
00000280: 3337 1d41 e015 c03f 5cbd e38c 0681 c03f
00000290: 0000 0000 62da 913f d97c 3d40 ad7e c33f
000002a0: f74b c30f bbcf d6bf 0000 0000 627b bf3f
000002b0: 0000 00c0 10a0 bebf abab 0194 2160 ae3f
000002c0: 0000 0080 eafd a83f 0042 4948 defb e53e
000002d0: 0000 0040 e231 b3bf 0000 0000 cc52 893f
000002e0: cfeb e85b dc00 c0bf 0000 0040 2580 babf
000002f0: 0000 0000 205a bb3f 0000 00c0 8aa4 b53f
00000300: b660 656b fb3a b13f 8f28 0134 338a 813f
00000310: 0000 0080 14e5 b0bf 0000 00c0 d7cb b13f
00000320: ded7 975c d26f c9bf eed5 35e7 eaa9 75bf
00000330: 6719 97f1 b27a abbf 0594 059f 1d59 b13f
00000340: 1c03 d428 2281 cabf 0000 0000 82a6 98bf
00000350: 0000 0000 7e0b ab3f 7830 08c0 98ae bbbf
00000360: 3364 e6a1 95a9 c23f bab5 a7be 91b5 c63f
00000370: 4ab6 a3f5 6287 b2bf 4ef3 7153 cefe 943f
00000380: 343c 70b4 aba4 ba3f 0000 0000 2ba9 95bf
00000390: 339f 5714 9a86 d3bf c377 5f40 6f23 86bf
000003a0: befd 08a5 4201 ba3f 0000 0000 f07a 51bf
000003b0: 0000 0000 57d5 a43f 0000 0080 8822 a3bf
000003c0: f746 cd5f a2bd b23f 8c75 e736 9d29 d93f
000003d0: 0000 0000 1962 993f bb3d e967 3f3f a43f
000003e0: 0000 0040 ef62 b33f e4d1 5919 2d33 a2bf
000003f0: db28 6bc1 8444 95bf 8d1d 52bd 25d2 c4bf
00000400: 0000 0080 2142 aa3f 0000 00c0 6b5c bd3f
00000410: 0000 0000 19cf ac3f 0000 0000 917f 95bf
00000420: 0000 0000 1f42 a7bf 0000 0000 eb0a 993f
00000430: 0000 0000 4844 983f 0000 0000 c204 9fbf
00000440: 0000 00c0 63b3 bd3f 0000 0080 a9a7 bd3f
00000450: 0000 0000 bc86 8d3f 0000 0080 79c3 a2bf
00000460: 0000 00c0 424a bf3f 0000 0000 cbb0 b73f
00000470: 0000 0000 da55 853f 0000 0040 17bc bd3f
00000480: 0000 0040 e9e5 b7bf 0000 0000 28e9 673f
00000490: 0000 0080 8a3b ae3f 0000 0000 f874 823f
000004a0: 0000 0040 0864 bbbf 0000 0080 5d55 aa3f
000004b0: 0000 0000 bcd2 853f 0000 0000 71ea a43f
000004c0: 0000 0000 32e7 abbf 0000 0000 edc6 a4bf
000004d0: 0000 0040 cdc8 b3bf 0000 0080 2bce a1bf
000004e0: 0000 0000 f8a5 7b3f 0000 0000 3d61 a63f
000004f0: 0000 0000 d464 9bbf 0000 0000 242b 79bf
00000500: 0000 0000 08be 813f 0000 0000 f902 95bf
00000510: 0000 0000 0680 b43f 0000 0000 ae40 8fbf
00000520: 0000 00c0 06a1 b43f 0000 0080 c820 afbf
00000530: 0000 0080 5558 b83f 0000 0000 a326 a93f
00000540: 0000 0000 ee98 973f 0000 0000 36ff 8b3f
00000550: 0000 0000 59cc 943f 0000 0080 0316 bc3f
00000560: 0000 0000 5175 bb3f 0000 0080 b485 bd3f
00000570: 0000 0000 81ae aabf 0000 0080 1c41 ba3f
00000580: 0000 0080 0ba5 b9bf 0000 0080 847b bebf
00000590: 0000 00c0 a774 ba3f 0000 0080 bffc b5bf
000005a0: 0000 0080 ccd1 a6bf 0000 0000 1457 bcbf
000005b0: 0000 0080 a6f6 b63f 0000 0000 5724 9ebf
000005c0: 0000 0080 75e0 a3bf 0000 0000 b441 813f
000005d0: 0000 00c0 819c b8bf 0000 00c0 2ed2 b23f
000005e0: 0000 00c0 38c3 b33f 0000 00c0 c30a b2bf
000005f0: 0000 0000 e1dd 923f 0000 0000 7a72 afbf
00000600: 0000 0080 eeee babf 0000 0000 a614 903f
00000610: 0000 0000 6413 b4bf 0000 0000 f8a8 9b3f
00000620: 0000 0080 6f2c a1bf 0000 0000 a6ec aebf
00000630: 0000 0000 32aa b13f 0000 0000 835e b6bf
00000640: 0000 0000 9da3 93bf 0000 00c0 0687 babf
00000650: 0000 0000 be9c 913f 0000 0000 a3d5 bb3f
00000660: 0000 0000 b8fd 793f 0000 0000 ec8d bbbf
00000670: 0000 00c0 3148 b4bf 0000 0080 6577 b2bf
00000680: 0000 0040 d13c b23f 0000 0080 40b7 b33f
00000690: 0000 0000 7842 aebf 0000 0000 578d a23f
000006a0: 0000 0000 589f 613f 0000 0000 34bb 733f
000006b0: 0000 0080 04cd b3bf 0000 0040 0071 bc3f
000006c0: 0000 0000 1463 973f 0000 00c0 43de b33f
000006d0: 0000 0000 2393 a6bf 0000 0080 fdc4 a73f
000006e0: 0000 0080 b4da b4bf 0000 0080 1b68 b83f
000006f0: 0000 0040 f375 b23f 0000 0000 1ecb 82bf
00000700: 0000 00c0 5720 b3bf 0000 0040 1ab3 b7bf
00000710: 0000 0000 b48b 703f 0000 0080 b6b8 aabf
00000720: 0000 0000 ab94 913f 0000 0040 9ebb b9bf
00000730: 0000 0040 1196 bb3f 0000 0000 404b bbbf
00000740: 0000 0000 1010 6c3f 0000 00c0 cce3 b0bf
00000750: 0000 0080 7286 a9bf 0000 0080 9af3 b43f
00000760: 0000 0080 f5fb b4bf 0000 0000 6467 b6bf
00000770: 0000 00c0 3c4e b1bf 0000 0040 f0dc b8bf
00000780: 0000 0000 204c 82bf 0000 0000 0cd3 9fbf
00000790: 0000 0000 4839 9f3f 0000 0080 f250 ae3f
000007a0: 0000 0000 60b7 af3f 0000 0040 44be ba3f
000007b0: 0000 0000 e0ef 5b3f 0000 0000 871d a73f
000007c0: 0000 0080 3634 b53f 0000 0080 d411 a03f
000007d0: 0000 0000 c288 99bf 0000 0000 97b2 98bf
000007e0: 0000 0000 0c8e 7cbf 0000 0080 a5e5 a23f
000007f0: 0000 0000 f98c b9bf 0000 0000 0336 babf

fc2.bias f8 [128]
-0.017402177237090147 0.05542965855137438 -0.0954146683216095 0.013235166668891907 -0.0011927808553605025 0.0371434719377508 -0.06638862192630768 -0.044246748089790344
-0.07273711264133453 -0.04945480435532236 -0.015127554535865784 -0.049860260770670066 0.05442116555445723 -0.1461159686276189 0.04651761153156303 -0.09880621286928234
0.12737254462650732 -0.16803020953960232 0.04324995763504681 -0.1099620908498764 -0.04715263843536377 0.0945840130345615 -0.02245072395105603 0.04804271459579468
0.15130256985496007 -0.0333428829908371 -0.06940787944542237 -0.010776749078596635 0.0759314291329185 -0.13949022878833903 -0.034325914834287916 0.021454663375219764
-0.057813555002212524 -0.031038941305425102 0.052524918363122564 -0.004814782933361612 -0.05603108417008795 -0.07416805624961853 -0.03425891697406769 -0.03704369068145752
-0.12292929718442447 -0.15757966008688948 0.1329378087096191 0.03277561068534851 -0.09470455348491669 0.026502016245839352 -0.16382651486783525 -0.019851629073616955
-0.09196162735104191 0.15499325989786802 -0.1164550632238388 -0.01989637315273285 0.029671691382222674 -0.035537116768475235 -0.043300311352460805 0.0105724036693573
-0.04059011407010332 -0.046863749623298645 -0.01932463049888611 -0.05828937888145447 -0.06355332455358936 -0.07057252526283264 -0.10232743226333955 -0.059964388608932495
-0.04321661591529846 0.141997387356841 -0.02399568367587558 0.14756541704160173 0.05276945500314455 0.049618928980551 0.10824340551376982 -0.09355630474408741
-0.05709615349769592 -0.016434592375206704 0.10077667983090946 0.06224157501708911 0.09578241941846223 -0.048286423087120056 0.1361362046409665 -0.0009809881448745728
-0.002176821231842041 0.039473116397857666 -0.08532600147443994 -0.14021290283046778 -0.10925917327404022 0.018535442747026423 -0.1022726031432848 0.04582212754270345
0.021636076455045807 0.11157701909542084 -0.13947457909792912 -0.1725739570788767 0.012959107756614685 -0.0523406641381315 0.05985141463842212 -0.06852220836438569
0.10832661657842184 -0.09230977296829224 -0.09811270820598716 -0.08514309037580076 0.0013512235658703696 -0.047393122604273835 0.032376968820375975 0.022570878385434538
0.011697955286528103 0.1309160258263838 -0.014579191342704193 -0.17336280045788202 0.01268632709980011 0.07308651631697893 0.023048337641510933 0.14220724449039773
-0.03770804495971532 -0.06111308932304382 -0.07872283217380435 -0.015444894733012736 -0.06818032261352652 0.04863043368583629 -0.014290376649232281 -0.1148803502364151
0.11049794342500599 -0.15094543731277177 0.09729865377955335 0.09212315082550049 0.09162944327781924 0.11971181611847025 0.0653713543835368 -0.024409249424934387
00000000: a132 7358 e0d1 91bf 70c7 69b5 4661 ac3f
00000010: 0000 0080 186d b8bf 0000 0000 0a1b 8b3f
00000020: e2e0 f6b0 e28a 53bf 9f0e 771a 7804 a33f
00000030: 0000 0040 d8fe b0bf 0000 0080 82a7 a6bf
00000040: 0000 0040 e69e b2bf d220 acde 2352 a9bf
00000050: 0000 0000 32fb 8ebf 2f97 c2ba 4887 a9bf
00000060: 357f 884c 17dd ab3f fce8 5695 edb3 c2bf
00000070: 18a4 6e08 28d1 a73f 5e49 ea2c 5d4b b9bf
00000080: 9221 ca58 be4d c03f 1b37 5b8f 0382 c5bf
00000090: 521b 31c3 db24 a63f 0000 00c0 7926 bcbf
000000a0: 0000 0000 6424 a8bf 9537 b56a a836 b83f
000000b0: 74b3 9094 52fd 96bf 0000 0000 0e99 a83f
000000c0: a5f5 a9f2 e15d c33f 0000 0080 5112 a1bf
000000d0: 4884 4dfc b6c4 b1bf 9254 ccc6 1e12 86bf
000000e0: 104b ddfc 3d70 b33f e7f4 60d9 d0da c1bf
000000f0: 4eb2 3c93 2a93 a1bf ca4b 2c16 36f8 953f
00000100: 0000 0000 bd99 adbf ccaf 3c17 acc8 9fbf
00000110: 107a 30cd 8be4 aa3f 2e2d c773 aab8 73bf
00000120: a0d0 2334 1bb0 acbf 0000 0080 adfc b2bf
00000130: 0000 0080 628a a1bf 0000 0000 64f7 a2bf
00000140: 309b 205f 4b78 bfbf 2743 4bff 912b c4bf
00000150: d7a4 672a 1b04 c13f 0000 0000 f7c7 a03f
00000160: 0000 00c0 8e3e b8bf 3c3c 3734 5823 9b3f
00000170: ef99 c969 44f8 c4bf a8f3 9246 fc53 94bf
00000180: 8cac f515 cc8a b7bf 874e 2eb3 d1d6 c33f
00000190: 0000 00c0 ffcf bdbf 0000 0000 b75f 94bf
000001a0: 9923 6a80 4162 9e3f dc24 a1c4 eb31 a2bf
000001b0: 1eb4 545a 752b a6bf 0000 0000 fca6 853f
000001c0: 68aa f138 3ac8 a4bf 0000 0080 86fe a7bf
000001d0: 0000 0000 d6c9 93bf 0000 0000 1bd8 adbf
000001e0: 547e 82da 0745 b0bf 0000 0080 0a11 b2bf
000001f0: bb00 0e6f 2132 babf 0000 0000 a7b3 aebf
00000200: 0000 0000 7d20 a6bf 6954 686b f82c c23f
00000210: 643d 8812 5392 98bf 8b6d 1b70 6ce3 c23f
00000220: 3eb8 ee16 9904 ab3f 93d0 77fa a667 a93f
00000230: 7476 b0fe d6b5 bb3f 0ae1 3555 4ef3 b7bf
00000240: 0000 0000 b53b adbf ba31 19d3 3ad4 90bf
00000250: 7abe 1220 80cc b93f 69c3 4cb2 20de af3f
00000260: f11d ef56 3285 b83f 0000 0080 ffb8 a8bf
00000270: 9304 5e41 e96c c13f 0000 0000 9012 50bf
00000280: 0000 0000 20d5 61bf 0000 0000 d235 a43f
00000290: 62c7 d4c1 ecd7 b5bf b229 1114 7ff2 c1bf
000002a0: 0000 00c0 68f8 bbbf d753 a981 f4fa 923f
000002b0: 41f6 c68d 892e babf 5346 7576 ff75 a73f
000002c0: f717 2783 c427 963f 0000 00c0 4f90 bc3f
000002d0: 13ab ec91 4dda c1bf 49c5 e546 e716 c6bf
000002e0: 0000 0000 4e8a 8a3f aac9 7241 65cc aabf
000002f0: 5d93 fb38 d8a4 ae3f 2e88 f9e3 ab8a b1bf
00000300: 739b 7d0b 4bbb bb3f 0000 0000 9da1 b7bf
00000310: a013 1119 ea1d b9bf ccf9 a404 f0cb b5bf
00000320: 1e90 9941 7123 563f 7c06 484f e943 a8bf
00000330: ed49 74cc b693 a03f f19c 0702 d21c 973f
00000340: 58ee 15fb 18f5 873f 822a b938 dbc1 c03f
00000350: e2fe 26f0 b1db 8dbf 39a0 2793 c030 c6bf
00000360: 0000 0000 4afb 893f a028 5c45 ccb5 b23f
00000370: 81fe 96c1 fb99 973f a296 2bd4 d833 c23f
00000380: 7ad0 cb07 784e a3bf 0000 0000 374a afbf
00000390: 768e a2f5 2d27 b4bf 59ca 25ae 92a1 8fbf
000003a0: 6417 dbff 4374 b1bf bebb 8a94 16e6 a83f
000003b0: 4509 d9e2 4544 8dbf f2ea 3773 cc68 bdbf
000003c0: f220 49dd 9749 bc3f 1c90 5e1a 2e52 c3bf
000003d0: f691 ed87 90e8 b83f 0000 0000 6295 b73f
000003e0: 8c9a 3af6 0675 b73f bf70 2cff 6ea5 be3f
000003f0: 102a 2c55 2dbc b03f 0000 0000 bdfe 98bf

fc3.weight f8 [64, 128]
0.04553113013804496 -0.07443337238219283 0.06604767590761185 0.01786002516746521 -0.03870754897324711 0.041419891397537836 0.0023756399750709534 -0.0663505494594574
0.050822071731090546 0.009167216718196869 -0.07804253697395325 0.058533452451229095 -0.06482453040247746 -0.058010730892419815 -0.03407538919547574 0.024836033582687378
-0.07026883155953847 0.008677065372467041 -0.02501729130744934 -0.0874214842915535 -0.08062593638896942 -0.0981352263157332 -0.03006502240896225 0.0031182467937469482
-0.04602812394133557 -0.06485223025083542 0.029293134808540344 0.06011860817670822 -0.10819839404850369 0.040139056742191315 0.06365952640771866 0.014709025621414185
-0.032623935490846634 0.008565522730350494 -0.01448085904121399 -0.06644805520772934 -0.02327858656644821 -0.03797738626599312 -0.02580568939447403 -0.004791088402271271
0.01666373759508133 0.03995669633150101 0.0449954859618926 0.04126507788896561 0.01539059728384018 -0.010422095656394958 -0.03929447382688522 -0.06521560996770859
-0.03109651431441307 0.007700079908923042 0.05422230809926987 -0.027247272431850433 0.03101644934857767 -0.033965638484493674 0.08319676667451859 0.032581329345703125
0.061544276773929596 -0.021692350506782532 -0.08063434064388275 -0.04421988129615784 0.008777156472206116 0.03653109818696976 -0.04375115782022476 -0.03575069457292557
0.040060438215732574 -0.05102244794104637 -0.024308308959007263 -0.07699490691825078 -0.0685414381739138 -0.09406459374569588 0.041078853081728664 0.04561062902212143
0.07363083213567734 -0.05487137857170856 -0.017502232953441943 -0.05984385684132576 0.012364845396269893 -0.00019861012697219849 -0.033223391059378986 -0.06728526949882507
-0.044808611273765564 -0.017688095569610596 -0.06433650851249695 0.06891421228647232 0.03760550171136856 -0.040938835591077805 -0.011077702045440674 -0.11591793473381433
-0.1174359706065494 -0.04349614679813385 -0.00960637629032135 -0.05857204273343086 -0.04578039050102234 -0.08630538731813431 -0.053890663711166686 -0.05570542439818382
-0.05006348029693083 0.08302933722734451 -0.053229447454214096 0.05552021414041519 -0.03526216000318527 -0.08112337327593579 0.029797233641147614 -0.08701277524232864
-0.04865783080458641 -0.0032153687496127158 0.05172955244779587 -0.010617777705192566 -0.013328500092029572 -0.12443854464098775 -0.042970966547727585 -0.035872985591132965
0.04731737233339073 0.060747407376766205 0.03206483712352395 -0.02083909511566162 0.06186116486787796 -0.0851067528128624 -0.017286047339439392 -0.029787201434373856
0.02673887444235646 0.08647087961435318 -0.06169045285253865 -0.08270173519849777 -0.09509070226305535 -0.05702067520727043 -0.053504806864080344 -0.061476774513721466
0.0063087033859828955 -0.06589914797786658 -0.07332978397607803 -0.0475492924451828 -0.14433168344506256 -0.1115449559504904 0.003832809627056122 -0.06956294924020767
-0.039431314915418625 0.03276280893334862 0.043293945491313934 0.03848017007112503 -0.0005713377403623041 0.02552979123922225 -0.07876040715057885 0.022123727717583877
0.004471338909479909 0.02252773162314576 0.13125067234038623 -0.033302269876003265 0.025907032191753387 -0.07368737284127994 0.1032525707002341 0.0053833648562431335
-0.05282143898851149 -0.011640369892120361 -0.0072493404150009155 0.0503936865034456 -0.06177883070129582 0.06171965242007647 -0.026932852581242714 0.011279688489966041
0.08470744639635086 -0.0029584213721156384 0.04048901429265196 0.13588887193349716 0.038212167150017955 -0.05992360785603523 0.08348754793405533 -0.07899124175310135
-0.14179480166268063 0.029818964782427706 0.03337755831733739 0.08095332235097885 -0.06944087147712708 0.06332079620605813 0.05238064664499149 0.047683232769000154
0.03424099323751158 -0.10337334947280001 0.04437144845724106 0.0033841729164123535 0.052968341772731686 0.0062153135995852956 0.05058299758977292 0.06298369914293289
-0.004688018647063256 0.04826918989419937 -0.022922120988368988 0.004500672221183777 0.04099621066206117 0.0030692368745803833 0.14393411175696108 -0.05488453060388565
0.08532261103391647 -0.06202584768252628 0.02912695808952611 -0.034247711376290145 0.04950514589824981 -0.024219844370523342 -0.004157230257987976 0.1118762102285262
0.06810916215181351 0.025319414016012468 0.017319461343568217 0.08479572963784109 -0.04458316920385078 -0.048373930156230927 0.003856235825314099 -0.03792813792824745
0.05243251472711563 0.06026030331850052 0.09587493370059935 0.016949650512112124 0.034240394830703735 0.12418276749708405 0.07263600151867858 0.0940611968739043
0.02005122254546646 0.04430093616247177 0.09484004003846908 0.09835622088406841 0.01743505150079727 -0.0018515701767347962 -0.08204590483674158 0.007870057440111197
-0.07044057135549799 0.08324842900037766 0.026348059159839878 -0.011094070496066592 0.11676935222736941 0.018090914359354348 0.04717290455135646 0.05694577708482583
-0.013672107712691183 -0.02982507313449768 0.016291321936180804 0.13382157700778163 0.008022651076316833 -0.08078651504441087 0.09876314504821214 -0.02652035202030567
0.059192800543751804 -0.023695193231105804 -0.12287185311234268 0.08371477574110031 -0.07174901779760737 0.10876105494662976 0.036592356860637665 0.08572931308777199
-0.021368947655483535 -0.06053120642900467 -0.0951776633409991 -0.06253726035356522 0.01916337013244629 -0.03973262434569811 -0.051035247592367716 -0.013109229505062103
00000000: 1b20 c935 db4f a73f 50cd 1cc4 100e b3bf
00000010: 0000 0020 80e8 b03f 0000 0000 e649 923f
00000020: 9d96 e5d1 79d1 a3bf ba9f e9ed fc34 a53f
00000030: 0000 0000 1476 633f 0000 0080 59fc b0bf
00000040: 0000 00c0 5905 aa3f 0000 0000 43c6 823f
00000050: 0000 0080 98fa b3bf 0000 00c0 18f8 ad3f
00000060: 8ea4 0e26 5798 b0bf 0000 0020 95b3 adbf
00000070: 25d6 6254 5472 a1bf 0000 0000 9e6e 993f
00000080: 1af2 795d 23fd b1bf 0000 0000 48c5 813f
00000090: 0000 0000 229e 99bf 0000 0020 4161 b6bf
000000a0: 0000 00c0 e6a3 b4bf f593 9ce3 631f b9bf
000000b0: 0000 0080 5dc9 9ebf 0000 0000 708b 693f
000000c0: 3c6d 0c8e ff90 a7bf 0000 00e0 279a b0bf
000000d0: 0000 0000 05ff 9d3f 0000 00c0 ddc7 ae3f
000000e0: f504 ebd3 e3b2 bbbf 0000 0040 1b8d a43f
000000f0: 0000 00a0 fd4b b03f 0000 0000 c41f 8e3f
00000100: 0000 00a0 15b4 a0bf 0000 0000 cd8a 813f
00000110: 0000 0000 24a8 8dbf 0000 0060 bd02 b1bf
00000120: 0000 0080 57d6 97bf 0000 00a0 c571 a3bf
00000130: 0000 0080 ce6c 9abf 0000 0000 d29f 73bf
00000140: 0000 0080 4c10 913f 0000 0040 3475 a43f
00000150: bd10 59f9 a509 a73f 0000 0040 b220 a53f
00000160: 0000 0000 1b85 8f3f 0000 0000 2e58 85bf
00000170: 0000 00c0 671e a4bf 0000 0060 f8b1 b0bf
00000180: 0000 00c0 c3d7 9fbf dba4 2a76 1e8a 7f3f
00000190: 0000 00c0 06c3 ab3f 0000 0080 b5e6 9bbf
000001a0: 9158 5cae c6c2 9f3f d612 f5b4 f163 a1bf
000001b0: 0000 0020 624c b53f 0000 0000 80ae a03f
000001c0: 0000 0040 bb82 af3f 0000 0000 8536 96bf
000001d0: 0000 00c0 73a4 b4bf 0000 0000 fda3 a6bf
000001e0: 0000 0000 c2f9 813f 0000 0040 34b4 a23f
000001f0: 0000 0040 8d66 a6bf 0000 0040 ea4d a2bf
00000200: 0000 0040 cd82 a43f 5f8d 8942 9d1f aabf
00000210: 0000 0000 47e4 98bf c425 2c2f f0b5 b3bf
00000220: 41b5 6083 ee8b b1bf 116b d901 9e14 b8bf
00000230: 1220 1695 4908 a53f 0000 00c0 465a a73f
00000240: 0000 0060 78d9 b23f 8362 e7f0 1918 acbf
00000250: 306a 91f8 1aec 91bf 0000 00a0 daa3 aebf
00000260: 71cf c674 bd52 893f 0000 0000 4008 2abf
00000270: 6fdf 1f04 a802 a1bf 0000 0080 9b39 b1bf
00000280: 0000 0080 27f1 a6bf 0000 0000 d41c 92bf
00000290: 0000 0080 5b78 b0bf 0000 00a0 5ca4 b13f
000002a0: 0000 0040 0741 a33f 0000 0060 eff5 a4bf
000002b0: 0000 0000 e8af 86bf bb9b b33a ccac bdbf
000002c0: c60f 21a5 4810 bebf 0000 0080 2045 a6bf
000002d0: 0000 0000 82ac 83bf 0000 00a0 27fd adbf
000002e0: 0000 0000 8770 a7bf 0000 0020 1c18 b6bf
000002f0: e0fc 659c 8e97 abbf 0000 00e0 6b85 acbf
00000300: fbd1 32a5 eba1 a9bf 0000 0020 6941 b53f
00000310: 0000 00e0 e340 abbf 0000 0040 256d ac3f
00000320: 0000 00c0 e10d a2bf e14d 295b 80c4 b4bf
00000330: 0000 0080 2a83 9e3f 0000 0020 7846 b6bf
00000340: 0000 00e0 ade9 a8bf 212d f9f3 1d57 6abf
00000350: 0000 00c0 4b7c aa3f 0000 0000 c6be 85bf
00000360: 0000 0000 f94b 8bbf f449 9857 34db bfbf
00000370: 0000 0060 4a00 a6bf b3fb d8a7 f15d a2bf
00000380: 30bd 688d fb39 a83f 0000 00c0 481a af3f
00000390: c31d 9865 cd6a a03f 0000 0000 d856 95bf
000003a0: 0000 0040 44ac af3f 0000 0060 8ec9 b5bf
000003b0: 0000 0000 6fb3 91bf 0000 0040 8980 9ebf
000003c0: c20d 0c7d 6f61 9b3f 0000 00a0 f422 b63f
000003d0: 4744 f41a e495 afbf 0000 00e0 f02b b5bf
000003e0: 6e9d 5f40 dd57 b8bf a610 6c5e d031 adbf
000003f0: 53ee 5167 fb64 abbf 0000 0040 e279 afbf
00000400: 8e3f 91ab 27d7 793f 1232 663d c4de b0bf
00000410: 0000 00a0 bdc5 b2bf 0000 0080 6158 a8bf
00000420: 612a 16ea 7579 c2bf 6f53 d7d1 358e bcbf
00000430: 0000 0000 fc65 6f3f 0000 00a0 e0ce b1bf
00000440: 0000 0060 5730 a4bf f3a3 c971 49c6 a03f
00000450: 0000 00c0 9f2a a63f 0000 0040 acb3 a33f
00000460: fe32 7574 bab8 42bf f8df c849 7b24 9a3f
00000470: f76e ee5c a429 b4bf 44ef 0c3c 9aa7 963f
00000480: eb34 2be6 8950 723f 7243 4c7a 8211 973f
00000490: 14d6 a370 d2cc c03f 0000 00c0 fe0c a1bf
000004a0: 0000 0080 5f87 9a3f b240 7bf8 2cdd b2bf
000004b0: c1ab 62ae c26e ba3f 0000 0000 de0c 763f
000004c0: 3875 f761 690b abbf 0000 0000 e8d6 87bf
000004d0: 0000 0000 7cb1 7dbf e612 ea86 33cd a93f
000004e0: 9af5 e492 79a1 afbf 9e55 54e1 b799 af3f
000004f0: 4c03 1924 4994 9bbf 2b45 6329 ce19 873f
00000500: 0000 0020 63af b53f cd11 5061 423c 68bf
00000510: 42eb 77e0 f9ba a43f 371f 6c7a ce64 c13f
00000520: ffed 6f90 8b90 a33f 0000 00a0 4eae aebf
00000530: 0000 00a0 705f b53f 0000 0020 c538 b4bf
00000540: 8f27 f101 5526 c2bf d716 2ada dc88 9e3f
00000550: 355e c902 dd16 a13f 0000 0060 5bb9 b43f
00000560: 0000 0080 e0c6 b1bf 6898 dcac ca35 b03f
00000570: 2930 91d8 a2d1 aa3f 37ee 9eca ef69 a83f
00000580: 9a7c 4614 0988 a13f e37e 4303 ad76 babf
00000590: 0000 00c0 dab7 a63f 0000 0000 20b9 6b3f
000005a0: 7043 469f aa1e ab3f 1d4b 508a 3a75 793f
000005b0: 0171 c3c0 03e6 a93f 0000 0020 b31f b03f
000005c0: 04d4 5a6c be33 73bf 0000 0040 bdb6 a83f
000005d0: 0000 0080 e578 97bf 0000 0000 4c6f 723f
000005e0: a161 1b90 74fd a43f 0000 0000 a824 693f
000005f0: ca31 63d7 6e6c c23f 0000 0040 d319 acbf
00000600: 0000 00e0 b3d7 b53f 9033 9b16 dac1 afbf
00000610: 76b6 b411 75d3 9d3f 13e5 a580 ea88 a1bf
00000620: fcbe 3b0d bd58 a93f 1543 f13d 16cd 98bf
00000630: 0000 0000 2c07 71bf dec6 2158 eba3 bc3f
00000640: 0000 0020 9a6f b13f 4452 9c1c 55ed 993f
00000650: e247 3860 31bc 913f 678e a245 2cb5 b53f
00000660: 457a 5deb 9ad3 a6bf 0000 00c0 77c4 a8bf
00000670: ab22 2cd8 1c97 6f3f 0000 0020 516b a3bf
00000680: 0000 0040 6fd8 aa3f 0000 0040 70da ae3f
00000690: e40f c078 428b b83f 133a 83ca 3f5b 913f
000006a0: 0000 0000 f587 a13f 8b72 201d 71ca bf3f
000006b0: 3af1 08e3 4598 b23f a462 6504 6514 b83f
000006c0: 6975 4fc4 4e88 943f 0000 00c0 9cae a63f
000006d0: c409 51d6 6f47 b83f 4b23 0e90 df2d b93f
000006e0: 0000 0080 7eda 913f 9ba4 bd56 0c56 5ebf
000006f0: 8966 0bde f500 b5bf 9856 953a 2d1e 803f
00000700: 198e 48ae 6408 b2bf 0000 00e0 c44f b53f
00000710: aa4b 9e51 fcfa 9a3f c255 aeef 7cb8 86bf
00000720: 31dd fda4 98e4 bd3f f3d6 1cb6 6c86 923f
00000730: 1e5e 9c04 0c27 a83f 1e03 7334 ff27 ad3f
00000740: a67a f23b 1f00 8cbf 6399 dac6 768a 9ebf
00000750: 2ab1 b21b acae 903f 4cb0 5fc0 1021 c13f
00000760: 0000 0000 2e6e 803f 9cd4 12d0 6cae b4bf
00000770: a73c 089e 8a48 b93f c027 6cb2 2628 9bbf
00000780: 17f6 fccc 844e ae3f 0000 0080 8d43 98bf
00000790: cd67 b79e 8774 bfbf 0000 00e0 546e b53f
000007a0: faf9 f5c4 245e b2bf fd00 13b6 c3d7 bb3f
000007b0: 0000 00c0 3bbc a23f 2841 0534 5bf2 b53f
000007c0: d229 52cd bde1 95bf 0000 0040 f2fd aebf
000007d0: 61fa 5b37 905d b8bf 0000 0020 7102 b0bf
000007e0: 0000 0000 909f 933f 3d4d 4ca4 d557 a4bf
000007f0: 8878 b4be 4a21 aabf 0000 0000 03d9 8abf

fc3.bias f8 [64]
-0.0920920289449237 0.036004656537447596 0.003696648528365217 0.08086200586306604 -0.12968281635030707 0.056587908535291984 -0.03325421867886525 -0.08661155526000495
-0.02485033869743347 0.11451093115401301 0.02731175720691681 0.14689544125936324 -0.06326628476381302 0.1466976935646889 -0.05307828522666415 -0.06388918912712994
0.10398466582757179 -0.05847054080273753 0.17480455372008327 0.08340711146593094 -0.06175457313656807 -0.09991807184486727 -0.13699457614498534 0.03284252139984856
0.22332164303612484 0.1080311383030167 -0.13668403508520904 -0.0798182263970375 0.12703421720442204 -0.14258357031618973 -0.07362490304797611 -0.01701618731021881
-0.04917610064148903 -0.04447825253009796 -0.02810476701011785 -0.08453364670276642 -0.05982084414076661 -0.07643552124500275 -0.046004652976989746 -0.008897334337234497
-0.04835971177693811 -0.12506739792339994 0.025857172836809356 -0.13733521124150913 -0.011382971196361717 -0.10614201075752115 -0.08327596621060558 -0.029123302425567876
-0.0666625224366451 -0.04525636308245695 0.11315699647258884 0.006368367709167353 0.060289883380077625 0.10076145752408763 -0.06178667577550832 -0.058595491583035446
0.13936947083104997 0.010210554797346212 -0.04326095799660939 -0.07855804474015694 0.1122310225337291 0.12574470981956715 -0.13512001457271983 0.09176936120212142
00000000: 756d 8adc 5793 b7bf 7602 aacc 336f a23f
00000010: 91a2 1711 6f48 6e3f 71bb ab56 5fb3 b43f
00000020: 7bf3 894f 7299 c0bf 1628 0421 17f9 ac3f
00000030: 5109 5c6b b206 a1bf 9723 4cc5 2c2c b6bf
00000040: 0000 0000 5e72 99bf 584b 57a0 9650 bd3f
00000050: 0000 0000 9df7 9b3f 67fa 1146 78cd c23f
00000060: 0000 0020 3832 b0bf e125 2172 fdc6 c23f
00000070: b241 5ab6 132d abbf 9975 deb9 0a5b b0bf
00000080: 1ed1 0333 bd9e ba3f 04ec 0dc9 d9ef adbf
00000090: 87b6 b5e0 fe5f c63f 0000 0020 2b5a b53f
000000a0: 0000 00a0 4b9e afbf ab63 da12 3b94 b9bf
000000b0: f8d3 22cc 0989 c1bf 303b a926 bcd0 a03f
000000c0: 5621 aab8 cd95 cc3f 480b f6bd eda7 bb3f
000000d0: dac3 49ca dc7e c1bf 0000 00a0 f76e b4bf
000000e0: 8ed7 2e40 a842 c03f d83b baad 2d40 c2bf
000000f0: 6221 c3e6 14d9 b2bf 0000 0000 b16c 91bf
00000100: 0000 0020 9c2d a9bf 0000 0080 dac5 a6bf
00000110: 573d aefc 7ec7 9cbf 0000 0040 ffa3 b5bf
00000120: 214c 6872 d6a0 aebf 0000 0040 4791 b3bf
00000130: 0000 0000 ec8d a7bf 0000 0000 c438 82bf
00000140: 6247 0da9 9ac2 a8bf ac3b f05f 3502 c0bf
00000150: 48f1 cd7e 4d7a 9a3f 678e 6f40 3394 c1bf
00000160: dc4f 2888 f44f 87bf 776b ef70 1f2c bbbf
00000170: 95d7 6adf 9251 b5bf 7098 e0bd 7fd2 9dbf
00000180: 43f8 bb89 cb10 b1bf 2007 c08e d72b a7bf
00000190: bad1 295f dbf7 bc3f 64ec a2b0 b715 7a3f
000001a0: 084f cbca 50de ae3f 5264 c3bc 80cb b93f
000001b0: 1e98 91cf 80a2 afbf af98 1570 3a00 aebf
000001c0: 1fdd a3db dbd6 c13f 37cf 6d77 45e9 843f
000001d0: 9700 94df 4c26 a6bf 5926 ff48 611c b4bf
000001e0: 8206 611b 2cbb bc3f 6ef7 2814 6718 c03f
000001f0: e8fb cfd5 9c4b c1bf e84e 2365 327e b73f
