src/backend/controller/checkpoints/checkpoint_epoch_83.pth (torch, 420207 bytes, 25 tensors)

fc1.weight f8 [64, 5]
0.17171610486216174 -0.4640421547167587 0.2492724293562838 -0.186395638825133 0.10666079501492733 -0.15748682618141174 -0.2859317362308502 -0.4182189404964447
-0.23558029532432556 0.102683424949646 -0.23354370846426428 0.0652379197329948 -0.4035747574683736 0.4083573772535744 0.05611396447808229 0.29222941398620605
-0.12881866097450256 -0.2658160924911499 -0.36438190937042236 -0.08555623888969421 -0.16404101252555847 -0.012782365083694458 0.3968053460121155 0.01920926570892334
-0.4070501923561096 -0.15431167955155398 0.350698158682908 0.37449372516536705 0.09709040326101905 -0.35515059599417825 -0.2233149817801063 -0.28482125969562716
0.2745432969963938 0.24678240794123615 0.3979235944508426 0.37379854917526245 -0.41267502307891846 -0.0874796211719513 -0.3212490677833557 0.085968017578125
0.1893925778633872 -0.25107764222699036 -0.006561244311001485 0.11706625450813557 0.2511237505348279 0.3040822259459809 0.01282395242018482 0.06311035183219976
-0.4001744883087695 0.11366574955789291 -0.3227637404382237 -0.0363018523997289 0.38458260742371875 0.005673877974719509 0.1366460291081108 0.2599728981951116
0.18049889796612834 -0.005206742169099173 0.3047718682668236 -0.005756818195864806 -0.1584734320640564 0.10327941179275513 -0.35499274730682373 0.29825127124786377
-0.19943299889564514 -0.3204823826230786 0.23238706425927247 0.4368467181155785 -0.003252881114522235 0.2926621706622896 -0.35015764425090434 0.25279405127809484
-0.11234199808688976 0.03193661143899293 -0.06590362427941569 -0.28154245018959045 -0.39090579748153687 -0.2809138894081116 0.3958856463432312 0.1273355484008789
0.18960829170205884 -0.035130184214669596 0.21986168722894844 -0.02475391461275081 0.1324445091495772 -0.05040101433920718 0.37148044481361064 0.14756733705692893
0.1303366769905429 0.24615975042744642 0.2305031418800354 -0.17867669463157654 -0.4265388250350952 0.046540647745132446 -0.28340089321136475 0.07972553030071292
0.050535541714067544 0.10747023226210002 0.2599495795872405 -0.20428565713790114 0.5108226773921152 -0.3863071758922383 -0.28262809695127133 0.24421110609018973
-0.018625908879671627 0.2008170485496521 -0.23314857482910156 -0.052512556314468384 -0.15051090717315674 -0.2524383068084717 0.4268262982368469 -0.1996842473745346
-0.30966246128082275 -0.41050320863723755 -0.41057053208351135 0.19707218477630162 0.328044790706833 -0.051675303567779274 -0.46454256933932275 0.17926471743983602
-0.11689847707748413 -0.3861534297466278 0.3823000192642212 0.1358056664466858 -0.24432815611362457 -0.28519031431409964 0.06939623022755562 -0.3391352345570143
0.1999594680411743 -0.3240798382591638 0.3573336601257324 -0.11508020758628845 0.08344215154647827 -0.4326631426811218 -0.07486072182655334 -0.06321179866790771
-0.1253010332584381 -0.060605525970458984 -0.07296356558799744 0.3147851824760437 0.05293820940961602 -0.2091686011979138 0.2476200760298072 0.14966093356683335
-0.29747268111270314 -0.14019310474395752 -0.12256672978401184 0.3443242311477661 -0.013670265674591064 0.1359119415283203 -0.1553056836128235 0.21436315774917603
-0.09526622295379639 0.19238531589508057 0.035091787576675415 0.19413775205612183 0.016615450382232666 -0.32409489154815674 -0.39700549840927124 -0.2783563733100891
0.046711751431149896 0.1555135898622615 -0.23998361786089506 0.21243911537153362 0.31364211140172565 0.14431127623022977 -0.3127604475432113 0.05076864312375221
0.21882621601757235 0.38306408930429625 -0.2745234966278076 0.0585247278213501 -0.129891037940979 0.214630126953125 0.055469393730163574 -0.38239791989326477
-0.08170893788337708 0.031002163887023926 -0.35994672775268555 -0.3928275406360626 0.40108128033959883 -0.1524878563499256 -0.38277327708275793 0.03372976279373604
0.2092764669817 0.3241276758545035 0.0763160724400211 0.22728693132242236 0.2596792512531882 0.3755367824847606 0.2585864207775702 -0.13486562664817459
-0.27175837757051796 -0.2000012084130369 -0.11140168157001662 -0.3141035447663693 -0.2832600269457048 0.5079434965897308 -0.15013990967607438 0.3179204829973234
0.4514504170486341 -0.11186452600459837 -0.38625837126233176 0.4081464142898068 -0.07160873671465878 0.06637710332870483 0.15834105014801025 -0.1603129506111145
-0.11477276682853699 -0.3749419152736664 0.024249494075775146 -0.1269947588443756 -0.22993823885917664 0.1692209243774414 -0.08096730709075928 0.13081913465486808
-0.04193266160760403 -0.4371280411400306 0.2066200990550482 -0.1506889643893003 -0.11874616961752278 0.4469138443410536 0.4068572645063406 0.2917430842271281
-0.34353412044473824 -0.5213292207912726 -0.030679751593941516 -0.3279700112906532 0.35984389749864615 0.2681464527122202 0.21423708572797484 -0.24642455173582814
0.0013991829580232036 0.2793095562979073 0.15755624572856108 0.09012394497823659 0.33299412534564093 0.09366694230082695 0.37470471040108116 -0.07604547231344373
0.014388382322657019 0.26917574992389365 0.3760717032912803 0.17755537660283466 -0.006213726089091748 0.07042723894119263 -0.09770673513412476 -0.027212321758270264
0.2269570231437683 -0.012213528156280518 0.23156406078856956 -0.2885760860273335 -0.27950668323225236 0.09001761731092509 -0.21373005658930166 0.11068990965272357
00000000: c52c 4a17 cbfa c53f 9253 9edd ddb2 ddbf
00000010: 509a f0b1 28e8 cf3f 147c 6ff2 cfdb c7bf
00000020: b9be 5a32 1f4e bb3f 0000 0040 8728 c4bf
00000030: 0000 00a0 b44c d2bf 0000 0060 19c4 dabf
00000040: 0000 00c0 7e27 cebf 0000 0000 7649 ba3f
00000050: 8331 059f c2e4 cdbf 5b58 b6ab 6eb3 b03f
00000060: c756 3438 2bd4 d9bf 9b9a 18fb 8622 da3f
00000070: 9585 9034 f8ba ac3f 0000 0000 e3b3 d23f
00000080: 0000 0040 217d c0bf 0000 0080 2103 d1bf
00000090: 0000 0080 0852 d7bf 0000 0080 03e7 b5bf
000000a0: 0000 00c0 4bff c4bf 0000 0000 a42d 8abf
000000b0: 0000 0040 4265 d93f 0000 0000 98ab 933f
000000c0: 0000 0040 1c0d dabf ef49 8830 7cc0 c3bf
000000d0: 5edf 93b0 d671 d63f 201e 8987 b4f7 d73f
000000e0: 89f3 c2aa eada b83f 3bcb bc90 c9ba d6bf
000000f0: ffe7 b9d7 9595 ccbf 9749 e6f2 823a d2bf
00000100: aadf 7b0c 1e92 d13f 87f9 aae1 9096 cf3f
00000110: dc47 1e86 9477 d93f 0000 00c0 50ec d73f
00000120: 0000 0080 4469 dabf 0000 0080 1065 b6bf
00000130: 0000 0040 588f d4bf 0000 0000 0002 b63f
00000140: 02a2 0318 043e c83f 22ca 87f5 a711 d0bf
00000150: 1301 ca9b f6df 7abf 30e1 93d6 0df8 bd3f
00000160: d1f0 f259 6912 d03f 5ae7 ee4b 1576 d33f
00000170: aa50 00c2 7143 8a3f bc89 2801 0028 b03f
00000180: 65b3 fe74 759c d9bf 2ac7 06d5 3219 bd3f
00000190: 4f13 613f 29a8 d4bf ba9e ae09 2896 a2bf
000001a0: a6b2 5f5e 009d d83f 7294 7c05 7e3d 773f
000001b0: 8ee4 12f9 9d7d c13f b209 e65d 65a3 d03f
000001c0: 8641 dd7f 961a c73f 4919 5c35 aa53 75bf
000001d0: d398 bcdd 6181 d33f 6e88 151e 7694 77bf
000001e0: 0000 0080 db48 c4bf 0000 0000 8570 ba3f
000001f0: 0000 0080 33b8 d6bf 0000 0080 8c16 d33f
00000200: 0000 0040 0587 c9bf a6db 138a c882 d4bf
00000210: 38e6 80fc dbbe cd3f 3ef7 eaef 4bf5 db3f
00000220: b915 2640 c9a5 6abf 8056 f11c faba d23f
00000230: 5e21 a09b fb68 d6bf 8837 b719 c72d d03f
00000240: db1f c0f7 71c2 bcbf 9cdf 59db fe59 a03f
00000250: 5bcc f756 0fdf b0bf 0000 00a0 ca04 d2bf
00000260: 0000 00c0 9904 d9bf 0000 0040 7efa d1bf
00000270: 0000 00c0 3056 d93f 0000 0000 884c c03f
00000280: 2494 f4a1 1545 c83f 5ce2 9b60 95fc a1bf
00000290: e656 2582 6d24 cc3f 68c6 d616 1759 99bf
000002a0: c185 aa11 f1f3 c03f 8f53 8b68 29ce a9bf
000002b0: ccfd 64ea 55c6 d73f 4c04 4f8b 7ce3 c23f
000002c0: ae64 924a dfae c03f 30b5 d6a6 2982 cf3f
000002d0: 0000 0080 2081 cd3f 0000 00c0 e0de c6bf
000002e0: 0000 0080 694c dbbf 0000 0000 2dd4 a73f
000002f0: 0000 0080 3d23 d2bf de3d 4c71 e468 b43f
00000300: 1827 e565 cbdf a93f 65f7 db4c 2b83 bb3f
00000310: d6e9 bb8f 03a3 d03f e47d 394c 0826 cabf
00000320: 9289 aecc a858 e03f c4b4 aabb 41b9 d8bf
00000330: 0888 5528 9416 d2bf d919 fd3c 4f42 cf3f
00000340: 7d61 fc95 ab12 93bf 0000 0080 5fb4 c93f
00000350: 0000 0000 d0d7 cdbf 0000 0000 ede2 aabf
00000360: 0000 0000 f143 c3bf 0000 0000 f327 d0bf
00000370: 0000 0040 1f51 db3f 0000 00e0 408f c9bf
00000380: 0000 0080 82d1 d3bf 0000 0040 af45 dabf
00000390: 0000 00a0 c946 dabf cc61 484e a939 c93f
000003a0: 7660 ed93 affe d43f 8041 ab75 2f75 aabf
000003b0: 8b61 bac1 10bb ddbf 168a 5d71 25f2 c63f
000003c0: 0000 0000 0fed bdbf 0000 00e0 bcb6 d8bf
000003d0: 0000 0080 9a77 d83f 0000 0080 1462 c13f
000003e0: 0000 0020 2546 cfbf 775c 47e0 8e40 d2bf
000003f0: 8a04 4b8b f3c3 b13f 9dfe 5545 64b4 d5bf
00000400: 5996 e197 4598 c93f d36d a75c b9bd d4bf
00000410: 0000 0000 8ede d63f 0000 0080 e575 bdbf
00000420: 0000 0000 775c b53f 0000 00c0 c0b0 dbbf
00000430: 0000 0080 122a b3bf 0000 0000 a62e b0bf
00000440: 0000 0040 dd09 c0bf 0000 0000 b007 afbf
00000450: 0000 0080 bdad b2bf 0000 00c0 7025 d43f
00000460: 0007 3f8c b71a ab3f a45f bf66 09c6 cabf
00000470: 6dc6 30c0 03b2 cf3f ba45 94e7 1628 c33f
00000480: a147 35db ca09 d3bf 0000 0000 d9f1 c1bf
00000490: 0000 0080 8860 bfbf 0000 0080 6809 d63f
000004a0: 0000 0000 28ff 8bbf 0000 0000 9065 c13f
000004b0: 0000 0080 0ee1 c3bf 0000 0080 4070 cb3f
000004c0: 0000 0000 5e63 b8bf 0000 0000 15a0 c83f
000004d0: 0000 0000 8df7 a13f 0000 0080 81d9 c83f
000004e0: 0000 0000 a403 913f 0000 0080 f8bd d4bf
000004f0: 0000 00c0 8968 d9bf 0000 0040 97d0 d1bf
00000500: bda9 7849 9aea a73f 485f 458b dee7 c33f
00000510: 34e7 247f c8b7 cebf 65b9 7476 3431 cb3f
00000520: 6d9a c75c b612 d43f 7c2a edb9 ca78 c23f
00000530: f08b 6b65 4404 d4bf 85f3 c1fb 58fe a93f
00000540: 94c5 a658 7f02 cc3f dc5f f53d 1f84 d83f
00000550: 0000 0000 cb91 d1bf 0000 0000 f4f6 ad3f
00000560: 0000 0000 45a0 c0bf 0000 0000 0079 cb3f
00000570: 0000 0000 7c66 ac3f 0000 0020 3579 d8bf
00000580: 0000 0080 e0ea b4bf 0000 0000 08bf 9f3f
00000590: 0000 0000 5e09 d7bf 0000 0020 1624 d9bf
000005a0: 2b2b 86d1 50ab d93f 95b0 07da b884 c3bf
000005b0: b19a b67c 5b7f d8bf 9bad 3308 0745 a13f
000005c0: 3021 c13e 92c9 ca3f 5c82 e101 82be d43f
000005d0: adff 493b 7389 b33f a743 6bf8 bc17 cd3f
000005e0: ef42 e5b8 959e d03f 2be5 cd6d cb08 d83f
000005f0: 9e7a 1b0f ae8c d03f 7c7b e7df 4643 c1bf
00000600: cd14 0540 7d64 d1bf 4fb1 a5bc a399 c9bf
00000610: 5808 1013 d284 bcbf 1312 15c1 451a d4bf
00000620: 83bc ffa9 ee20 d2bf 7533 42b8 1241 e03f
00000630: 840a f1d8 c837 c3bf 07ee 4c27 cf58 d43f
00000640: 0e53 3f4a 90e4 dc3f e6b4 c550 27a3 bcbf
00000650: 3030 1808 75b8 d8bf 48ae 5623 121f da3f
00000660: 141e 4c3e f354 b2bf 0000 0000 17fe b03f
00000670: 0000 0000 8544 c43f 0000 0080 2285 c4bf
00000680: 0000 0080 bf61 bdbf 0000 0060 0cff d7bf
00000690: 0000 0000 dcd4 983f 0000 0040 5d41 c0bf
000006a0: 0000 00c0 9d6e cdbf 0000 0000 08a9 c53f
000006b0: 0000 0000 46ba b4bf 954f 8470 aebe c03f
000006c0: 5450 7aa4 3278 a5bf 331a 37e4 e7f9 dbbf
000006d0: 90a0 1104 8772 ca3f 96c7 f5a6 c649 c3bf
000006e0: d553 0823 2666 bebf f3c3 6486 3c9a dc3f
000006f0: db76 4c0d f309 da3f 75bd 652f ebab d23f
00000700: 99b2 1789 76fc d5bf fdec 379e baae e0bf
00000710: 9945 fb46 836a 9fbf 8cf9 23ee 75fd d4bf
00000720: c7ff dab2 ae07 d73f 4dfe 3bbd 4f29 d13f
00000730: 4460 65ee 1e6c cb3f 0984 51f7 d68a cfbf
00000740: cbe1 ee42 99ec 563f 48a0 7030 35e0 d13f
00000750: 90a4 5795 cd2a c43f 969d 44e4 5c12 b73f
00000760: 63a8 8797 c64f d53f a0fb e585 8efa b73f
00000770: 5b1b 3577 29fb d73f 6959 9850 b777 b3bf
00000780: 312f 25fc a777 8d3f 5529 b3ec 2c3a d13f
00000790: 7792 a50c 8f11 d83f 527b de73 22ba c63f
000007a0: ed57 6c65 9073 79bf 0000 0000 8507 b23f
000007b0: 0000 0000 4f03 b9bf 0000 0000 8cdd 9bbf
000007c0: 0000 0080 ed0c cd3f 0000 0000 6803 89bf
000007d0: c607 0222 e4a3 cd3f fd48 f9d4 0778 d2bf
000007e0: bcbd dfff 6fe3 d1bf 620d 6a02 650b b73f
000007f0: 7094 9ca9 815b cbbf fca4 f485 2c56 bc3f

fc1.bias f8 [64]
-0.2575497827834549 0.16295605897903442 0.26492558248317666 0.06451404094696045 -0.38506436347961426 -0.17101860290601303 -0.21260638231854806 -0.2740658223628998
-0.4123158805037902 -0.06011356542115558 0.14684772075313127 -0.10498098823825662 -0.20395055413246155 -0.25644101598399743 -0.09029801714862465 0.21260493993759155
-0.18322601169698502 -0.057466466420400014 -0.22168532013893127 -0.2508680764249826 0.06349511586642013 0.05535346269607544 0.04343867301940918 -0.0884190727716425
-0.2567555606365204 0.21674933649295297 -0.37204283475875854 -0.24961154162883759 -0.2542913661460592 -0.3390759229660034 -0.32782331109046936 -0.1563149392604828
-0.15856914447574114 -0.44973239589431563 -0.13466614484786987 -0.004641890525817871 -0.05861989051706902 0.24486093531155015 -0.11169092372708495 0.10192127917820912
-0.04424489930534777 -0.2067943662405014 0.03128430247306824 0.3135295089333169 0.27153983384165015 0.028211369726221333 -0.48638993161825 -0.030355071626460478
-0.13638969519848074 -0.44391533732414246 0.5173205558117265 0.389907625056591 0.06324281670986487 -0.26109030842781067 -0.3221997916698456 0.05373257398605347
-0.2715117292421429 0.06655030673381933 -0.2890077829360962 -0.4121435772029368 -0.2622549533843994 -0.20678740591804992 -0.2843309601746155 0.40257865252051545
00000000: df65 8915 b27b d0bf 0000 0080 bedb c43f
00000010: 48e5 286e 8af4 d03f 0000 0000 fe83 b03f
00000020: 0000 0000 e5a4 d8bf 7995 3e05 f0e3 c5bf
00000030: 1251 7d99 af36 cbbf 0000 0060 4b8a d1bf
00000040: 7ea7 9825 6263 dabf 8744 0f8b 34c7 aebf
00000050: 453c 10f7 e7cb c23f ef60 2fb7 08e0 babf
00000060: 0000 0040 0d1b cabf 2946 4094 8769 d0bf
00000070: 8a07 8c56 c51d b7bf 0000 0080 a336 cb3f
00000080: 9fed 0130 f373 c7bf 94db c8a3 3e6c adbf
00000090: 0000 0040 2f60 ccbf 43c4 f6f9 380e d0bf
000000a0: 031d 1a46 3741 b03f 0000 0000 4a57 ac3f
000000b0: 0000 0000 983d a63f df97 e5e1 a1a2 b6bf
000000c0: 0000 00e0 ae6e d0bf 0a5e d537 71be cb3f
000000d0: 0000 00c0 8ccf d7bf 0000 0060 45f3 cfbf
000000e0: ba28 504b 4f46 d0bf 0000 0080 6bb3 d5bf
000000f0: 0000 00a0 0efb d4bf 0000 00c0 2002 c4bf
00000100: f1c8 d664 fe4b c4bf 0157 1463 6ac8 dcbf
00000110: 0000 0080 bd3c c1bf 0000 0000 6003 73bf
00000120: 6af2 5421 6d03 aebf 0394 9d66 9a57 cf3f
00000130: e4f8 aac0 c697 bcbf ae3e d650 8317 ba3f
00000140: 2b04 1077 44a7 a6bf 0000 00e0 3c78 cabf
00000150: 0000 0000 7f04 a03f 32c5 cc12 de10 d43f
00000160: 7850 7a9c e860 d13f 6cdf 65f9 70e3 9c3f
00000170: 1fdc 593c 0321 dfbf 0811 9d5f 6615 9fbf
00000180: ebc6 31b0 3775 c1bf 0000 00e0 1b69 dcbf
00000190: 2b51 98d6 e38d e03f c90f 851c 3ff4 d83f
000001a0: 80cd 7965 ae30 b03f 0000 0020 b4b5 d0bf
000001b0: 0000 00e0 eb9e d4bf 0000 0000 d682 ab3f
000001c0: 87d3 64bb 7260 d1bf cfe4 f5de 7009 b13f
000001d0: 0000 0080 1a7f d2bf c6f4 5574 8f60 dabf
000001e0: 0000 0000 c9c8 d0bf 0944 d27c 0278 cabf
000001f0: 172d cc7b 7a32 d2bf d72c a940 d9c3 d93f

fc2.weight f8 [128, 64]
0.16782949191932262 0.04848848283290863 -0.21887897819472849 0.08302196860313416 -0.07802818715572357 0.00014294970001241985 -0.09896315058103922 0.08403293788433075
-0.010399279929410636 -0.1076725806813206 0.21450441776449425 -0.008732630944138136 0.045676231384277344 0.1587229021681777 0.06014826057069916 -0.11497291922569275
0.06464809325437637 -0.05058101797787333 -0.10099020600318909 0.0695109880659405 -0.37158418727793413 0.12457859516143799 -0.06810134649276733 -0.08624333531309908
0.05323682725429535 -0.060496257314802154 -0.11731952428817749 0.11162075400352478 -0.04026247131379093 0.12082524597644806 -0.025568649172782898 0.032455697655677795
0.08535901212025943 0.07458454366832046 0.06213757395744324 0.0795111209154129 -0.03710098153857225 0.13377056433537007 -0.06979157884509395 0.08062556504381066
-0.18343615340545666 -0.09662874042987823 -0.055537447333335876 -0.13203843327352488 0.1335453460602797 0.16461917142392574 0.10462668354167906 0.14322926838037722
-0.041189031318786734 -0.1192178875207901 -0.18208381075757024 0.08526135741246466 0.1264516509621782 -0.0378129780292511 0.04424102604389191 -0.07410448789596558
-0.03727720259331642 0.300570875102876 -0.06127724051475525 0.20933561375024742 0.021099820733070374 -0.03641625539994201 0.12494545043653599 -0.12523059730413505
0.1471056565053098 0.04754680395126343 -0.047036746090701624 -0.11506190896034241 0.09858828783035278 0.16242088201278507 0.07472942821135299 -0.03155797719955444
-0.12332093187702937 0.13817636719682724 0.12094248743184655 0.14426506660030042 -0.07030391693115234 0.10411307275010548 -0.002369564466269392 -0.05682685971260071
0.11629049905994196 0.12556957826511306 0.017434626817703247 0.14447255843627327 -0.35855342900002185 0.12297642230987549 -0.11962990462779999 0.046535532113101456
0.048812225461006165 0.010729374198435199 -0.07497991621494293 0.012364953756332397 -0.1251998523703041 -0.10351784527301788 0.10684394836425781 0.08454196155071259
0.06443606456968973 0.008711908485169818 -0.0659954845905304 0.06951664388179779 -0.1788919296236428 -0.010264968432229985 -0.053631390049002955 0.05339620703765079
-0.19977683961564294 -0.02407267689704895 0.0528220534324646 -0.10427332328506973 0.14181904882814006 0.10790124900108689 -0.07234962974170628 0.01632720445822512
0.10039993183458387 -0.02115313708782196 -0.31575914598407767 -0.015675797776099416 0.09133434250888672 -0.0010669082403182983 0.04069015383720398 -0.03737284243106842
0.07306719256896986 0.41075589437886767 0.024788275361061096 0.037361343752382106 0.07572837173938751 -0.03539895826117726 -0.020974747036904513 -0.17560181296034588
0.05128578841686249 0.11469148099422455 0.05626752972602844 -0.020994439721107483 -0.04542633891105652 0.024455711245536804 0.023697972297668457 -0.030291587114334106
0.11601851880550385 0.11583957076072693 0.014417141675949097 -0.036647602915763855 0.12222687900066376 0.0925413966178894 0.010417655110359192 0.11615128815174103
-0.09335191547870636 0.0029187947511672974 0.059048011898994446 0.009012162685394287 -0.1069951206445694 0.0514325350522995 0.010655850172042847 0.04085114598274231
-0.054498255252838135 -0.040580183267593384 -0.07728274166584015 -0.034776076674461365 0.00675007700920105 0.0437106192111969 -0.026751816272735596 -0.006144657731056213
0.00866323709487915 -0.020519152283668518 0.08007848262786865 -0.015260085463523865 0.08058206737041473 -0.06079699099063873 0.0950978696346283 0.049122899770736694
0.023044317960739136 0.013670369982719421 0.020310774445533752 0.10971090197563171 0.1072588562965393 0.11532142758369446 -0.05211260914802551 0.1025560200214386
-0.10017463564872742 -0.11907222867012024 0.10334251821041107 -0.08588787913322449 -0.044569388031959534 -0.11070370674133301 0.0897010862827301 -0.029435500502586365
-0.038821861147880554 0.008426100015640259 -0.0961381047964096 0.07351963222026825 0.0771975964307785 -0.07047675549983978 0.01842452585697174 -0.0614202618598938
-0.10520830750465393 0.01570376753807068 -0.07842087745666504 0.027011752128601074 -0.03354214131832123 -0.06039923429489136 0.06900322437286377 -0.08737963438034058
-0.01917882263660431 -0.10362283885478973 0.01719948649406433 0.10872858762741089 0.006345480680465698 -0.10763430595397949 -0.07922659814357758 -0.0721343457698822
0.07124049961566925 0.07701495289802551 -0.05910086631774902 0.03623458743095398 0.002151176333427429 0.004817202687263489 -0.07734706997871399 0.1110992580652237
0.022838890552520752 0.07761023938655853 -0.04409131407737732 0.04642479121685028 -0.08146217465400696 0.09533855319023132 0.07211227715015411 -0.009176477789878845
-0.07471226155757904 -0.09257663786411285 0.004039481282234192 -0.052190497517585754 0.017168685793876648 -0.1005190759897232 0.10775859653949738 -0.10661697387695312
0.0034256279468536377 -0.06597594916820526 -0.04985387623310089 0.0818420946598053 -0.08196958899497986 -0.08751511573791504 -0.0676000565290451 -0.09712125360965729
-0.008934259414672852 -0.0310785174369812 0.030491948127746582 0.059211328625679016 0.06194591522216797 0.10446573793888092 0.0017051398754119873 0.04514715075492859
0.08282795548439026 0.031386032700538635 -0.024935752153396606 -0.02411876618862152 -0.006971403956413269 0.036908313632011414 -0.09980732202529907 -0.10238665342330933
00000000: 4884 8cd1 6f7b c53f 0000 0080 7bd3 a83f
00000010: b16a 90f2 3904 ccbf 0000 0080 ed40 b53f
00000020: 0000 00c0 a7f9 b3bf 1095 b392 98bc 223f
00000030: 2833 4127 a655 b9bf 0000 00c0 2e83 b53f
00000040: 9c13 97b9 374c 85bf f2c2 b324 6e90 bbbf
00000050: ecb0 9279 e174 cb3f 4940 81e2 69e2 81bf
00000060: 0000 0000 e062 a73f c621 f834 0851 c43f
00000070: 07f8 1fb8 c0cb ae3f 0000 0080 dd6e bdbf
00000080: e8bb 4606 c78c b03f 56d6 0654 c1e5 a9bf
00000090: 0000 0080 7eda b9bf 4ab3 74dc 78cb b13f
000000a0: 2372 040b 09c8 d7bf 0000 0000 62e4 bf3f
000000b0: 0000 0000 176f b1bf dcef aa10 0b14 b6bf
000000c0: 0000 0080 db41 ab3f 941b 658d 5df9 aebf
000000d0: 0000 0000 a708 bebf 0000 0080 2d93 bc3f
000000e0: 8405 195b 489d a4bf 0000 0040 67ee be3f
000000f0: 0000 0000 ab2e 9abf 0000 0080 089e a03f
00000100: a0b2 7995 16da b53f 68af d7ff f817 b33f
00000110: 0000 0000 7fd0 af3f 0000 0040 d75a b43f
00000120: 3420 b75c e6fe a2bf cd72 7ed3 641f c13f
00000130: bb06 ad64 dcdd b1bf 16ae 1585 e0a3 b43f
00000140: 9ee6 e3fb d57a c7bf 0000 0040 a9bc b8bf
00000150: 0000 0080 676f acbf 76c8 5ca8 a2e6 c0bf
00000160: dd52 ee8e 0318 c13f 7eba c7b2 3d12 c53f
00000170: 4ab7 1978 d0c8 ba3f 7d09 c32f 5655 c23f
00000180: f4ab ef8c ba16 a5bf 0000 0040 1085 bebf
00000190: 4adb 2ab6 854e c7bf 68f8 b235 b0d3 b53f
000001a0: 8e31 b454 912f c03f 0000 0000 395c a3bf
000001b0: 0000 0080 c2a6 a63f 0000 0000 83f8 b2bf
000001c0: 4aa0 0c5c ff15 a3bf e19a ac9f 8d3c d33f
000001d0: 0000 0000 bb5f afbf e302 7967 82cb ca3f
000001e0: 0000 0000 319b 953f f597 f8c3 26a5 a2bf
000001f0: 64ae 68cf 6cfc bf3f 7a9d f063 8e07 c0bf
00000200: eb9a dfaf 5bd4 c23f 0000 0000 0e58 a83f
00000210: 8ff2 564c 3315 a8bf 0000 0080 b274 bdbf
00000220: 0000 0000 153d b93f 7158 371c 35ca c43f
00000230: 396f 37c2 7721 b33f 0000 0000 5e28 a0bf
00000240: 3df7 52e9 f591 bfbf 0061 1861 c3af c13f
00000250: d077 373c 16f6 be3f 6674 8017 4777 c23f
00000260: 0000 0000 70ff b1bf c63a 8c82 27a7 ba3f
00000270: 67b2 6d3c 5669 63bf 0000 0000 6918 adbf
00000280: ba47 4cd2 36c5 bd3f ccb5 02f8 a912 c03f
00000290: 0000 0000 62da 913f 749d d3a8 137e c23f
000002a0: c01e db14 8af2 d6bf 0000 0000 627b bf3f
000002b0: 0000 00c0 10a0 bebf 6f32 0e59 81d3 a73f
000002c0: 0000 0080 eafd a83f b083 4f3a 48f9 853f
000002d0: 0000 0040 e231 b3bf 0000 0000 cc52 893f
000002e0: 757e b27b 8c06 c0bf 0000 0040 2580 babf
000002f0: 0000 0000 205a bb3f 0000 00c0 8aa4 b53f
00000300: be7f 02c6 e17e b03f 5484 3c90 8cd7 813f
00000310: 0000 0080 14e5 b0bf 0000 00c0 d7cb b13f
00000320: 963d a045 eee5 c6bf 6fec afbd cc05 85bf
00000330: 6e56 99d4 9275 abbf 3f10 ea65 bf56 ab3f
00000340: c7de 5298 4992 c9bf 0000 0000 82a6 98bf
00000350: 0000 0000 7e0b ab3f b5c7 5a11 a8b1 babf
00000360: 0e56 5568 2027 c23f a03f a88f 6a9f bb3f
00000370: 5c4b 9e5d 8185 b2bf 2394 bb24 14b8 903f
00000380: f20a c057 cfb3 b93f 0000 0000 2ba9 95bf
00000390: 3987 5ad9 6535 d4bf 25f2 25fb 500d 90bf
000003a0: f8cb 13fe af61 b73f 0000 0000 f07a 51bf
000003b0: 0000 0000 57d5 a43f 0000 0080 8822 a3bf
000003c0: cf87 7e12 88b4 b23f 1dc6 3f17 d349 da3f
000003d0: 0000 0000 1962 993f 2229 1aab 0621 a33f
000003e0: 0000 0040 ef62 b33f b5a4 16f0 cf1f a2bf
000003f0: 65f2 4272 677a 95bf 2a39 e4c5 1e7a c6bf
00000400: 0000 0080 2142 aa3f 0000 00c0 6b5c bd3f
00000410: 0000 0000 19cf ac3f 0000 0000 917f 95bf
00000420: 0000 0000 1f42 a7bf 0000 0000 eb0a 993f
00000430: 0000 0000 4844 983f 0000 0000 c204 9fbf
00000440: 0000 00c0 63b3 bd3f 0000 0080 a9a7 bd3f
00000450: 0000 0000 bc86 8d3f 0000 0080 79c3 a2bf
00000460: 0000 00c0 424a bf3f 0000 0000 cbb0 b73f
00000470: 0000 0000 da55 853f 0000 0040 17bc bd3f
00000480: 0000 0040 e9e5 b7bf 0000 0000 28e9 673f
00000490: 0000 0080 8a3b ae3f 0000 0000 f874 823f
000004a0: 0000 0040 0864 bbbf 0000 0080 5d55 aa3f
000004b0: 0000 0000 bcd2 853f 0000 0000 71ea a43f
000004c0: 0000 0000 32e7 abbf 0000 0000 edc6 a4bf
000004d0: 0000 0040 cdc8 b3bf 0000 0080 2bce a1bf
000004e0: 0000 0000 f8a5 7b3f 0000 0000 3d61 a63f
000004f0: 0000 0000 d464 9bbf 0000 0000 242b 79bf
00000500: 0000 0000 08be 813f 0000 0000 f902 95bf
00000510: 0000 0000 0680 b43f 0000 0000 ae40 8fbf
00000520: 0000 00c0 06a1 b43f 0000 0080 c820 afbf
00000530: 0000 0080 5558 b83f 0000 0000 a326 a93f
00000540: 0000 0000 ee98 973f 0000 0000 36ff 8b3f
00000550: 0000 0000 59cc 943f 0000 0080 0316 bc3f
00000560: 0000 0000 5175 bb3f 0000 0080 b485 bd3f
00000570: 0000 0000 81ae aabf 0000 0080 1c41 ba3f
00000580: 0000 0080 0ba5 b9bf 0000 0080 847b bebf
00000590: 0000 00c0 a774 ba3f 0000 0080 bffc b5bf
000005a0: 0000 0080 ccd1 a6bf 0000 0000 1457 bcbf
000005b0: 0000 0080 a6f6 b63f 0000 0000 5724 9ebf
000005c0: 0000 0080 75e0 a3bf 0000 0000 b441 813f
000005d0: 0000 00c0 819c b8bf 0000 00c0 2ed2 b23f
000005e0: 0000 00c0 38c3 b33f 0000 00c0 c30a b2bf
000005f0: 0000 0000 e1dd 923f 0000 0000 7a72 afbf
00000600: 0000 0080 eeee babf 0000 0000 a614 903f
00000610: 0000 0000 6413 b4bf 0000 0000 f8a8 9b3f
00000620: 0000 0080 6f2c a1bf 0000 0000 a6ec aebf
00000630: 0000 0000 32aa b13f 0000 0000 835e b6bf
00000640: 0000 0000 9da3 93bf 0000 00c0 0687 babf
00000650: 0000 0000 be9c 913f 0000 0000 a3d5 bb3f
00000660: 0000 0000 b8fd 793f 0000 0000 ec8d bbbf
00000670: 0000 00c0 3148 b4bf 0000 0080 6577 b2bf
00000680: 0000 0040 d13c b23f 0000 0080 40b7 b33f
00000690: 0000 0000 7842 aebf 0000 0000 578d a23f
000006a0: 0000 0000 589f 613f 0000 0000 34bb 733f
000006b0: 0000 0080 04cd b3bf 0000 0040 0071 bc3f
000006c0: 0000 0000 1463 973f 0000 00c0 43de b33f
000006d0: 0000 0000 2393 a6bf 0000 0080 fdc4 a73f
000006e0: 0000 0080 b4da b4bf 0000 0080 1b68 b83f
000006f0: 0000 0040 f375 b23f 0000 0000 1ecb 82bf
00000700: 0000 00c0 5720 b3bf 0000 0040 1ab3 b7bf
00000710: 0000 0000 b48b 703f 0000 0080 b6b8 aabf
00000720: 0000 0000 ab94 913f 0000 0040 9ebb b9bf
00000730: 0000 0040 1196 bb3f 0000 0000 404b bbbf
00000740: 0000 0000 1010 6c3f 0000 00c0 cce3 b0bf
00000750: 0000 0080 7286 a9bf 0000 0080 9af3 b43f
00000760: 0000 0080 f5fb b4bf 0000 0000 6467 b6bf
00000770: 0000 00c0 3c4e b1bf 0000 0040 f0dc b8bf
00000780: 0000 0000 204c 82bf 0000 0000 0cd3 9fbf
00000790: 0000 0000 4839 9f3f 0000 0080 f250 ae3f
000007a0: 0000 0000 60b7 af3f 0000 0040 44be ba3f
000007b0: 0000 0000 e0ef 5b3f 0000 0000 871d a73f
000007c0: 0000 0080 3634 b53f 0000 0080 d411 a03f
000007d0: 0000 0000 c288 99bf 0000 0000 97b2 98bf
000007e0: 0000 0000 0c8e 7cbf 0000 0080 a5e5 a23f
000007f0: 0000 0000 f98c b9bf 0000 0000 0336 babf

fc2.bias f8 [128]
-0.029641415904476793 0.04850803136519024 -0.0954146683216095 0.013235166668891907 -0.03862278063352158 0.009152953999525247 -0.06638862192630768 -0.044246748089790344
-0.07273711264133453 -0.04960814030446795 -0.015127554535865784 -0.05417747518942897 0.04128605104463243 -0.1462683920855888 0.02366686616193174 -0.09896600415418341
0.11846761157315114 -0.16818304081448712 0.04312091761359969 -0.1099620908498764 -0.04715263843536377 0.07502979277926448 -0.022650312139493367 0.04804271459579468
0.14204092964248244 -0.0333428829908371 -0.07144793284004393 -0.01098977054449264 0.06620478531220346 -0.13964306498856754 -0.034476014346824124 0.02130186125361011
-0.057813555002212524 -0.031191778018032648 0.05237146207277622 -0.005011495045005042 -0.056401489592874686 -0.07416805624961853 -0.03425891697406769 -0.03704369068145752
-0.12308878119995025 -0.15780782814626157 0.11983306929699043 0.03277561068534851 -0.09470455348491669 0.026366965311783983 -0.16397934194943456 -0.020020893369298045
-0.09207084142743976 0.14388884516730518 -0.1164550632238388 -0.01989637315273285 0.021480851298425953 -0.048280089379200836 -0.043453148138383 0.0105724036693573
-0.0407653842306156 -0.046863749623298645 -0.01932463049888611 -0.12329516828394219 -0.06372138864963046 -0.07057252526283264 -0.10248026857589232 -0.059964388608932495
-0.04321661591529846 0.1311595242003751 -0.02414851025278945 0.1385201299902323 0.045133099956654696 0.03976884532045408 0.05907109505810785 -0.09381649193302416
-0.05709615349769592 -0.05412850140240115 0.08342669164256598 0.06208874146189656 0.07988579175570541 -0.048286423087120056 0.09687218671312516 -0.0009809881448745728
-0.002176821231842041 0.039473116397857666 -0.08547883758352655 -0.1403657392493505 -0.10925917327404022 0.01838527046711526 -0.10248208081562944 0.03346088516025055
0.013579387796128427 0.11157701909542084 -0.13962741324362982 -0.17279939387624896 0.012959107756614685 -0.05248943215463073 0.04856084944376823 -0.06867504489474237
0.0889351795240306 -0.09230977296829224 -0.09829579242639963 -0.08529583015183709 0.0011984036827010283 -0.06349783882192953 0.03222694298657709 0.02232233328059849
0.011639915950144814 0.11624932054312144 -0.0149738981766358 -0.173515636754144 0.01268632709980011 0.0658126505409247 0.022894781404114016 0.11686592298000076
-0.05195911924431436 -0.06111308932304382 -0.08651836197627318 -0.016684076436336896 -0.06834924680518559 0.04847759795695888 -0.01552791399276681 -0.11503318691439078
0.10165754713253934 -0.15350815645351717 0.07717808318143757 0.09212315082550049 0.07891885592103563 0.10849310734344476 0.05415910134614311 -0.024409249424934387
00000000: e5dd aabf 515a 9ebf 6319 9d70 0bd6 a83f
00000010: 0000 0080 186d b8bf 0000 0000 0a1b 8b3f
00000020: 8632 6777 5dc6 a3bf 99d0 b7b0 c8be 823f
00000030: 0000 0040 d8fe b0bf 0000 0080 82a7 a6bf
00000040: 0000 0040 e69e b2bf 2536 72f8 3c66 a9bf
00000050: 0000 0000 32fb 8ebf 53a5 3c68 26bd abbf
00000060: bc0d 09fe 7123 a53f 1b1a 3934 ecb8 c2bf
00000070: cc3f a880 203c 983f 760d 4207 d655 b9bf
00000080: c287 57b5 e453 be3f 8920 059a 0587 c5bf
00000090: 2d0c d9e5 f113 a63f 0000 00c0 7926 bcbf
000000a0: 0000 0000 6424 a8bf d16c 360a 2735 b33f
000000b0: f083 88b7 a431 97bf 0000 0000 0e99 a83f
000000c0: d602 c1ad 652e c23f 0000 0080 5112 a1bf
000000d0: e12f ea66 694a b2bf 2714 a208 ce81 86bf
000000e0: 732e c1fb cbf2 b03f d69a 9eee d2df c1bf
000000f0: 2069 3b14 d7a6 a1bf 2076 b6b5 27d0 953f
00000100: 0000 0000 bd99 adbf c456 f7c9 bcf0 9fbf
00000110: 624b b1a9 6ed0 aa3f cb65 28f5 ee86 74bf
00000120: 6b81 7ef2 a7e0 acbf 0000 0080 adfc b2bf
00000130: 0000 0080 628a a1bf 0000 0000 64f7 a2bf
00000140: 071f c211 bf82 bfbf 1772 7802 0c33 c4bf
00000150: cf20 9c49 61ad be3f 0000 0000 f7c7 a03f
00000160: 0000 00c0 8e3e b8bf 49e4 d516 f1ff 9a3f
00000170: e53a 726b 46fd c4bf c706 0869 5b80 94bf
00000180: 1c97 d864 f491 b7bf 355b 201e f36a c23f
00000190: 0000 00c0 ffcf bdbf 0000 0000 b75f 94bf
000001a0: 0a96 4487 13ff 953f e4fd dcf9 2ab8 a8bf
000001b0: 1540 53b4 7d3f a6bf 0000 0000 fca6 853f
000001c0: f0a2 2850 33df a4bf 0000 0080 86fe a7bf
000001d0: 0000 0000 d6c9 93bf 0acb 88ab 4590 bfbf
000001e0: 654d 4e80 0b50 b0bf 0000 0080 0a11 b2bf
000001f0: 10cd 049a 253c babf 0000 0000 a7b3 aebf
00000200: 0000 0000 7d20 a6bf a7f0 7fd5 d5c9 c03f
00000210: cba3 2117 63ba 98bf d7a6 1212 07bb c13f
00000220: 2ed6 8f88 af1b a73f fc20 1a04 955c a43f
00000230: b5b3 d30a 913e ae3f 6c83 ad8c 5b04 b8bf
00000240: 0000 0000 b53b adbf 260f 9c1e bbb6 abbf
00000250: 57e2 37a0 735b b53f 8daa 0e74 18ca af3f
00000260: 7f7d 012f 6573 b43f 0000 0080 ffb8 a8bf
00000270: 392b d399 9dcc b83f 0000 0000 9012 50bf
00000280: 0000 0000 20d5 61bf 0000 0000 d235 a43f
00000290: 15dd ebeb f0e1 b5bf 7904 c729 81f7 c1bf
000002a0: 0000 00c0 68f8 bbbf 8499 899d 96d3 923f
000002b0: dd76 8701 443c babf ebbe eafe c821 a13f
000002c0: b961 df93 82cf 8b3f 0000 00c0 4f90 bc3f
000002d0: ecd3 c0a2 4fdf c1bf 53ca bb60 4a1e c6bf
000002e0: 0000 0000 4e8a 8a3f 7cc0 fa14 e5df aabf
000002f0: ab34 74b8 f7dc a83f ddce df0f b094 b1bf
00000300: 8604 85b7 74c4 b63f 0000 0000 9da1 b7bf
00000310: 5048 cebd e929 b9bf 6ac0 fc90 f2d5 b5bf
00000320: 208f f927 78a2 533f 9a5b 1bf5 6441 b0bf
00000330: dad4 5ac4 0c80 a03f d86f a46d aadb 963f
00000340: 0a28 ac12 abd6 873f b138 eaf5 83c2 bd3f
00000350: 5fc2 b297 a2aa 8ebf aa11 9aa8 c235 c6bf
00000360: 0000 0000 4afb 893f 5281 bc0d 19d9 b03f
00000370: 36da 84c5 ba71 973f 0849 37d5 ecea bd3f
00000380: 2a3f c4bb 629a aabf 0000 0000 374a afbf
00000390: 990b 313f 1126 b6bf eed2 a16a a115 91bf
000003a0: 7e08 bc13 567f b1bf 17a7 a043 0ed2 a83f
000003b0: dc38 3156 19cd 8fbf af80 c09f d072 bdbf
000003c0: ed69 53a0 3a06 ba3f be8c d1bf 27a6 c3bf
000003d0: 3674 3b5f f1c1 b33f 0000 0000 6295 b73f
000003e0: 1ff5 37b1 0634 b43f d1aa e14b 34c6 bb3f
000003f0: 61f7 1fe2 bdba ab3f 0000 0000 bdfe 98bf

fc3.weight f8 [64, 128]
0.020090938738271467 -0.09993884325092008 0.06604767590761185 0.01786002516746521 -0.06338047507686036 0.01638954636779478 0.0023756399750709534 -0.0663505494594574
0.050822071731090546 0.009167216718196869 -0.07804253697395325 0.058533452451229095 -0.09007888891174055 -0.058010730892419815 -0.05906344576642493 0.024836033582687378
-0.09554990820425878 0.008677065372467041 -0.02501729130744934 -0.0874214842915535 -0.08062593638896942 -0.12323725772122905 -0.03006502240896225 0.0031182467937469482
-0.07118291037647118 -0.06485223025083542 0.029293134808540344 0.06011860817670822 -0.1335201577057443 0.040139056742191315 0.06365952640771866 0.014709025621414185
-0.032623935490846634 0.008565522730350494 -0.01448085904121399 -0.06644805520772934 -0.02327858656644821 -0.03797738626599312 -0.02580568939447403 -0.004791088402271271
0.01666373759508133 0.03995669633150101 0.01966344418817239 0.04126507788896561 0.01539059728384018 -0.010422095656394958 -0.03929447382688522 -0.06521560996770859
-0.03109651431441307 -0.014780436127426202 0.05422230809926987 -0.027247272431850433 0.005672266423567368 -0.0600060993380321 0.08319676667451859 0.032581329345703125
0.061544276773929596 -0.021692350506782532 -0.08063434064388275 -0.04421988129615784 0.008777156472206116 0.03653109818696976 -0.04375115782022476 -0.03575069457292557
0.040060438215732574 -0.07641323233992986 -0.024308308959007263 -0.10222343945402429 -0.09400918463106174 -0.11935022769286203 0.019173917414660575 0.04561062902212143
0.07363083213567734 -0.07983501599545642 -0.042618156110377683 -0.05984385684132576 -0.013675839458133401 -0.00019861012697219849 -0.0575121471816485 -0.06728526949882507
-0.044808611273765564 -0.017688095569610596 -0.06433650851249695 0.06891421228647232 0.03760550171136856 -0.040938835591077805 -0.011077702045440674 -0.14164338838198973
-0.1432305110652381 -0.04349614679813385 -0.00960637629032135 -0.05857204273343086 -0.04578039050102234 -0.08630538731813431 -0.07952441394936834 -0.05570542439818382
-0.07533305778524693 0.08302933722734451 -0.053229447454214096 0.05552021414041519 -0.03526216000318527 -0.10656554827061698 0.029797233641147614 -0.08701277524232864
-0.04865783080458641 -0.028359025889112092 0.05172955244779587 -0.010617777705192566 -0.013328500092029572 -0.1500049467682364 -0.042970966547727585 -0.06073775279800603
0.02174377834927995 0.060747407376766205 0.006445440206196307 -0.02083909511566162 0.06186116486787796 -0.0851067528128624 -0.017286047339439392 -0.029787201434373856
0.0014790156130889028 0.08647087961435318 -0.08696222161406847 -0.08270173519849777 -0.11818613427310952 -0.08260001185079148 -0.07866219876904872 -0.061476774513721466
0.006065894300868286 -0.06609618654621208 -0.07332978397607803 -0.0475492924451828 -0.1447626495696808 -0.1118829072071925 0.003832809627056122 -0.06956294924020767
-0.039431314915418625 0.032915645993924145 0.043293945491313934 0.03848017007112503 -0.0009420932996036848 0.025684846559856863 -0.07914939763847023 0.022279311535337114
0.004218698276625255 0.022680564596631463 0.1314039299344895 -0.033302269876003265 0.025907032191753387 -0.07396811671481897 0.10339816718342829 0.0053833648562431335
-0.05309278352684998 -0.011640369892120361 -0.0072493404150009155 0.05050454056482734 -0.0619783444645917 0.06187246876748905 -0.026780731828325948 0.011432523174625063
0.08470744639635086 -0.0028055884612487175 0.040640489184123774 0.1360582328455091 0.037821284945324635 -0.05992360785603523 0.08348754793405533 -0.07899124175310135
-0.14198669969258895 0.029790888115862224 0.03313783608468196 0.08095332235097885 -0.06944087147712708 0.06315769572740987 0.052533482475495025 0.047845297111152915
0.03440649317554575 -0.10370670684755974 0.04437144845724106 0.0033841729164123535 0.05271568460153433 0.006174816871830589 0.05073582916581059 0.06298369914293289
-0.004529490875492361 0.04826918989419937 -0.022922120988368988 0.004500672221183777 0.0409841422549547 0.0030692368745803833 0.14408694741327346 -0.05488453060388565
0.08532261103391647 -0.06229971787161329 0.029279781953987956 -0.034462256043806365 0.049295608649780324 -0.024515752902275804 -0.004157230257987976 0.11197412167435804
0.06810916215181351 0.025183834520385303 0.017031833056345952 0.08494856330998968 -0.04474558736195082 -0.048373930156230927 0.0034489532458666437 -0.03792813792824745
0.05243251472711563 0.06026030331850052 0.09602776919666205 0.01710248468534362 0.034240394830703735 0.1243356206646437 0.07278323383942562 0.09398304111817862
0.01987593023042053 0.04430093616247177 0.0949927861450243 0.09840106078602365 0.01743505150079727 -0.0016995438600064924 -0.0823472605082722 0.008022893171957741
-0.07074267991971918 0.08324842900037766 0.02638132017492097 -0.011346495031837087 0.11692207310630134 0.01783732663123793 0.04733169163999061 0.057009979412155846
-0.01351434926598213 -0.030139275615038597 0.016396979138422075 0.13397441198224744 0.008022651076316833 -0.08097634107901044 0.09891463352100228 -0.026914456723903506
0.05894300701832675 -0.023695193231105804 -0.1231243074759979 0.08371477574110031 -0.07190098130750948 0.1089138902588758 0.036592356860637665 0.08588214547530937
-0.02161695707630663 -0.06053120642900467 -0.09543674376007254 -0.06253726035356522 0.01916337013244629 -0.040020581629510686 -0.05138877305809585 -0.013109229505062103
00000000: b6a8 4e13 b892 943f a1de 5c8f 9795 b9bf
00000010: 0000 0020 80e8 b03f 0000 0000 e649 923f
00000020: 95f9 a8eb b339 b0bf 0275 95d6 6bc8 903f
00000030: 0000 0000 1476 633f 0000 0080 59fc b0bf
00000040: 0000 00c0 5905 aa3f 0000 0000 43c6 823f
00000050: 0000 0080 98fa b3bf 0000 00c0 18f8 ad3f
00000060: f199 eff9 680f b7bf 0000 0020 95b3 adbf
00000070: 1a67 e95f 903d aebf 0000 0000 9e6e 993f
00000080: 0f83 df72 f575 b8bf 0000 0000 48c5 813f
00000090: 0000 0000 229e 99bf 0000 0020 4161 b6bf
000000a0: 0000 00c0 e6a3 b4bf 0fb8 8f17 7a8c bfbf
000000b0: 0000 0080 5dc9 9ebf 0000 0000 708b 693f
000000c0: f0dd 1910 0b39 b2bf 0000 00e0 279a b0bf
000000d0: 0000 0000 05ff 9d3f 0000 00c0 ddc7 ae3f
000000e0: bff9 5943 3017 c1bf 0000 0040 1b8d a43f
000000f0: 0000 00a0 fd4b b03f 0000 0000 c41f 8e3f
00000100: 0000 00a0 15b4 a0bf 0000 0000 cd8a 813f
00000110: 0000 0000 24a8 8dbf 0000 0060 bd02 b1bf
00000120: 0000 0080 57d6 97bf 0000 00a0 c571 a3bf
00000130: 0000 0080 ce6c 9abf 0000 0000 d29f 73bf
00000140: 0000 0080 4c10 913f 0000 0040 3475 a43f
00000150: 6e14 dc66 a722 943f 0000 0040 b220 a53f
00000160: 0000 0000 1b85 8f3f 0000 0000 2e58 85bf
00000170: 0000 00c0 671e a4bf 0000 0060 f8b1 b0bf
00000180: 0000 00c0 c3d7 9fbf 08a5 4d8e 3445 8ebf
00000190: 0000 00c0 06c3 ab3f 0000 0080 b5e6 9bbf
000001a0: 2de4 886c cd3b 773f cb4b 6f94 1eb9 aebf
000001b0: 0000 0020 624c b53f 0000 0000 80ae a03f
000001c0: 0000 0040 bb82 af3f 0000 0000 8536 96bf
000001d0: 0000 00c0 73a4 b4bf 0000 0000 fda3 a6bf
000001e0: 0000 0000 c2f9 813f 0000 0040 34b4 a23f
000001f0: 0000 0040 8d66 a6bf 0000 0040 ea4d a2bf
00000200: 0000 0040 cd82 a43f b4b3 e14d d18f b3bf
00000210: 0000 0000 47e4 98bf a4f4 56b9 502b babf
00000220: dd97 8365 fc10 b8bf d503 b68c bc8d bebf
00000230: 82be edd0 53a2 933f 0000 00c0 465a a73f
00000240: 0000 0060 78d9 b23f f2af c64e 1170 b4bf
00000250: 5277 6b05 0cd2 a5bf 0000 00a0 daa3 aebf
00000260: 2886 be19 1402 8cbf 0000 0000 4008 2abf
00000270: aa2c 896e 3b72 adbf 0000 0080 9b39 b1bf
00000280: 0000 0080 27f1 a6bf 0000 0000 d41c 92bf
00000290: 0000 0080 5b78 b0bf 0000 00a0 5ca4 b13f
000002a0: 0000 0040 0741 a33f 0000 0060 eff5 a4bf
000002b0: 0000 0000 e8af 86bf 7bcb 65dc 5e21 c2bf
000002c0: a043 689c 6055 c2bf 0000 0080 2045 a6bf
000002d0: 0000 0000 82ac 83bf 0000 00a0 27fd adbf
000002e0: 0000 0000 8770 a7bf 0000 0020 1c18 b6bf
000002f0: 0567 2545 b65b b4bf 0000 00e0 6b85 acbf
00000300: e2cc 7efb 0649 b3bf 0000 0020 6941 b53f
00000310: 0000 00e0 e340 abbf 0000 0040 256d ac3f
00000320: 0000 00c0 e10d a2bf 34de b338 e147 bbbf
00000330: 0000 0080 2a83 9e3f 0000 0020 7846 b6bf
00000340: 0000 00e0 ade9 a8bf deea f502 260a 9dbf
00000350: 0000 00c0 4b7c aa3f 0000 0000 c6be 85bf
00000360: 0000 0000 f94b 8bbf 44cc 4db2 5c33 c3bf
00000370: 0000 0060 4a00 a6bf a8c8 cccb 0419 afbf
00000380: f644 9b43 0044 963f 0000 00c0 481a af3f
00000390: 8090 4dae 8866 7a3f 0000 0000 d856 95bf
000003a0: 0000 0040 44ac af3f 0000 0060 8ec9 b5bf
000003b0: 0000 0000 6fb3 91bf 0000 0040 8980 9ebf
000003c0: 5039 10ec 703b 583f 0000 00a0 f422 b63f
000003d0: d4e6 d1f9 2743 b6bf 0000 00e0 f02b b5bf
000003e0: f72d 8b4d 7241 bebf 7161 8c3d 4625 b5bf
000003f0: fbfe 24b3 3423 b4bf 0000 0040 e279 afbf
00000400: 3aa3 4a1a 8dd8 783f 3836 9bff adeb b0bf
00000410: 0000 00a0 bdc5 b2bf 0000 0080 6158 a8bf
00000420: 61c3 ca1e 9587 c2bf ffb0 6fb3 5ba4 bcbf
00000430: 0000 0000 fc65 6f3f 0000 00a0 e0ce b1bf
00000440: 0000 0060 5730 a4bf fe27 24ce 51da a03f
00000450: 0000 00c0 9f2a a63f 0000 0040 acb3 a33f
00000460: 2b9b aef4 d9de 4ebf efd1 e8df 204d 9a3f
00000470: dcf6 5a8a 2243 b4bf dbc9 af49 63d0 963f
00000480: 0da6 1332 a047 713f 7b15 caec 9239 973f
00000490: 8d37 d10e d8d1 c03f 0000 00c0 fe0c a1bf
000004a0: 0000 0080 5f87 9a3f c1a2 3c12 93ef b2bf
000004b0: fee7 8462 4d78 ba3f 0000 0000 de0c 763f
000004c0: ff87 cd31 fa2e abbf 0000 0000 e8d6 87bf
000004d0: 0000 0000 7cb1 7dbf 5006 0d2c bbdb a93f
000004e0: ee3f 1225 a0bb afbf 8b1f c28b bfad af3f
000004f0: 7b61 767d 686c 9bbf ff8c 2a49 ef69 873f
00000500: 0000 0020 63af b53f 60b5 fcd5 befb 66bf
00000510: d0e5 e087 d4ce a43f 5825 362e 5b6a c13f
00000520: aca0 ddbb 4f5d a33f 0000 00a0 4eae aebf
00000530: 0000 00a0 705f b53f 0000 0020 c538 b4bf
00000540: 31c5 d2c3 9e2c c2bf 50a8 b4a8 8081 9e3f
00000550: c8e2 7c44 71f7 a03f 0000 0060 5bb9 b43f
00000560: 0000 0080 e0c6 b1bf 64d3 a34d 1a2b b03f
00000570: 3cbf 5a2a abe5 aa3f 5e38 b8c4 2d7f a83f
00000580: 2b04 eb55 ba9d a13f b53f 49d2 858c babf
00000590: 0000 00c0 dab7 a63f 0000 0000 20b9 6b3f
000005a0: 531e b3da 8cfd aa3f 4b71 5fc8 c34a 793f
000005b0: b754 01ee 0bfa a93f 0000 0020 b31f b03f
000005c0: 7525 d8f2 838d 72bf 0000 0040 bdb6 a83f
000005d0: 0000 0080 e578 97bf 0000 0000 4c6f 723f
000005e0: 2c7f 479d dffb a43f 0000 0000 a824 693f
000005f0: 55d2 75eb 7071 c23f 0000 0040 d319 acbf
00000600: 0000 00e0 b3d7 b53f 9501 9ea5 bfe5 afbf
00000610: 629f b4e7 84fb 9d3f 1f1e 4f6d 09a5 a1bf
00000620: 0f75 f925 463d a93f 1ef1 ce53 a81a 99bf
00000630: 0000 0000 2c07 71bf 17f6 9606 56aa bc3f
00000640: 0000 0020 9a6f b13f df99 9c86 cac9 993f
00000650: 082b dff7 ca70 913f 0833 4265 30bf b53f
00000660: 7643 b8c4 e4e8 a6bf 0000 00c0 77c4 a8bf
00000670: 8f8e afac fa40 6c3f 0000 0020 516b a3bf
00000680: 0000 0040 6fd8 aa3f 0000 0040 70da ae3f
00000690: b31e 35a0 4695 b83f c995 9d51 5083 913f
000006a0: 0000 0000 f587 a13f 8b85 7b90 75d4 bf3f
000006b0: 8e96 0909 eca1 b23f f42f fbc7 450f b83f
000006c0: f8d8 4419 5b5a 943f 0000 00c0 9cae a63f
000006d0: 0a4b d97d 7251 b83f dab9 f7d9 cf30 b93f
000006e0: 0000 0080 7eda 913f 3784 ff52 67d8 5bbf
000006f0: 3d58 ccc6 b514 b5bf 17c7 577e 4e6e 803f
00000700: 59c4 af38 311c b2bf 0000 00e0 c44f b53f
00000710: f5a0 816d b403 9b3f 580f b0c8 d43c 87bf
00000720: ca0d 2ce0 9aee bd3f 3ef0 1dba f243 923f
00000730: 9ef4 5007 dc3b a83f 17df 3d7a 6930 ad3f
00000740: ee2f fe40 69ad 8bbf 20ec 5d8c d4dc 9ebf
00000750: dd61 9ca4 5eca 903f 7777 fbd2 1226 c13f
00000760: 0000 0000 2e6e 803f 9a20 af90 ddba b4bf
00000770: 318b 112c 7852 b93f cbd2 ac9d 768f 9bbf
00000780: 1c77 f11e c72d ae3f 0000 0080 8d43 98bf
00000790: 28ba f319 1385 bfbf 0000 00e0 546e b53f
000007a0: 8b1c 444b 1a68 b2bf 02f4 bddc c7e1 bb3f
000007b0: 0000 00c0 3bbc a23f e073 204e 5ffc b53f
000007c0: a322 ba6e c122 96bf 0000 0040 f2fd aebf
000007d0: 4347 49dd 8a6e b8bf 0000 0020 7102 b0bf
000007e0: 0000 0000 909f 933f db02 88e2 937d a4bf
000007f0: 6f09 5517 a14f aabf 0000 0000 03d9 8abf

fc3.bias f8 [64]
-0.11679669776362361 0.035858224059680414 0.001060586008506617 0.08075419264595313 -0.12983565322920845 0.047919574780245916 -0.034471136511963284 -0.10047758846522921
-0.02485033869743347 0.11189413819404713 0.02731175720691681 0.14602246500829552 -0.06326628476381302 0.13393358745185313 -0.05323112108491038 -0.06404202599632818
0.10237479104186632 -0.05862337703606822 0.17404854327112074 0.08340711146593094 -0.06175457313656807 -0.10007084263883419 -0.13714741146132567 0.028662577151756265
0.21794871241018587 0.10569220989174875 -0.13716835753180168 -0.0798182263970375 0.12267575761557076 -0.14273640718834238 -0.0759553064772532 -0.01701618731021881
-0.04917610064148903 -0.04447825253009796 -0.028257603710357748 -0.08453364670276642 -0.05994964777576295 -0.07643552124500275 -0.046004652976989746 -0.008897334337234497
-0.04851254863618305 -0.12522023474417868 0.017080668093292214 -0.13757141098118614 -0.011652108694268366 -0.10629436595717591 -0.08344569966148263 -0.029321075159091523
-0.06681535820278896 -0.04546570104781074 0.10403027128426122 0.006215530819307776 0.05948297990461744 0.10033031891201619 -0.06197333401627664 -0.059046237201880916
0.1338009016458974 0.01005771788492534 -0.044962629615806944 -0.07871088163753585 0.10992314811362405 0.1246461176965719 -0.1353085113486352 0.09132637609511447
00000000: 7cf1 2c6d 63e6 bdbf 0f08 4257 025c a23f
00000010: 0c03 278e 6b60 513f 7ce3 6d88 4eac b43f
00000020: 21b4 3c66 749e c0bf 84ec 091d ea88 a83f
00000030: 6b1d f367 33a6 a1bf 4569 7034 e6b8 b9bf
00000040: 0000 0000 5e72 99bf 5754 2820 18a5 bc3f
00000050: 0000 0000 9df7 9b3f 4891 d837 ddb0 c23f
00000060: 0000 0020 3832 b0bf 7c88 f85c bc24 c13f
00000070: 84d2 6008 1c41 abbf b34b 39e7 0e65 b0bf
00000080: 99ab 75fb 3b35 ba3f 9e4e 4d1e e203 aebf
00000090: 2809 a200 3947 c63f 0000 0020 2b5a b53f
000000a0: 0000 00a0 4b9e afbf 93bd 6a24 3e9e b9bf
000000b0: b38d 7adf 0b8e c1bf e787 f1fd b859 9d3f
000000c0: 44e7 0050 bee5 cb3f bf51 ed08 a50e bb3f
000000d0: 6893 d294 bb8e c1bf 0000 00a0 f76e b4bf
000000e0: dc8c f8ae ad67 bf3f b146 69c4 2f45 c2bf
000000f0: 9507 4795 ce71 b3bf 0000 0000 b16c 91bf
00000100: 0000 0020 9c2d a9bf 0000 0080 dac5 a6bf
00000110: 937f 32af 8fef 9cbf 0000 0040 ffa3 b5bf
00000120: d00d 3561 b8b1 aebf 0000 0040 4791 b3bf
00000130: 0000 0000 ec8d a7bf 0000 0000 c438 82bf
00000140: 6210 ad03 a3d6 a8bf 4908 8376 3707 c0bf
00000150: 7c07 6b3b 987d 913f baae 83a3 f09b c1bf
00000160: c4a9 2b8e 0fdd 87bf 09fe 8889 1b36 bbbf
00000170: 38b4 0987 b25c b5bf b942 910b 5806 9ebf
00000180: 29fc 59b2 cf1a b1bf 5a1c 2ec6 4747 a7bf
00000190: a7bc f554 baa1 ba3f 5510 8ad9 7475 793f
000001a0: 3ac9 b79a 8d74 ae3f 723c 866e 3faf b93f
000001b0: 58e2 a505 f8ba afbf 9ac6 77f3 4e3b aebf
000001c0: df49 5f50 6320 c13f abed 1a0b 2499 843f
000001d0: 39ee 7b7f 5705 a7bf 9bf8 7876 6526 b4bf
000001e0: 52ac 3866 ec23 bc3f 4384 14d7 cee8 bf3f
000001f0: 5071 8e0f ca51 c1bf f538 9756 2a61 b73f
