src/backend/controller/checkpoints/checkpoint_epoch_109.pth (torch, 420244 bytes, 25 tensors)

fc1.weight f8 [64, 5]
000000 9b 6a f9 26 51 fa c5 3f df 78 1e d3 1a b3 dd bf
       0.17170156863251837 -0.46405668847172693
000010 c8 4e e5 c2 ae e7 cf 3f f3 f9 7d c4 49 dc c7 bf
       0.24925789371865492 -0.1864101609643992
000020 21 ef 16 8b 2b 4d bb 3f 00 00 00 40 87 28 c4 bf
       0.10664627214185575 -0.15748682618141174
000030 00 00 00 a0 b4 4c d2 bf 00 00 00 60 19 c4 da bf
       -0.2859317362308502 -0.4182189404964447
000040 00 00 00 c0 7e 27 ce bf 00 00 00 00 76 49 ba 3f
       -0.23558029532432556 0.102683424949646
000050 87 f9 9f 84 50 df cb bf 75 7c 86 06 1b 67 b3 3f
       -0.2177525184233213 0.07579201611814475
000060 7b 88 06 b6 68 11 d9 bf 76 ef d4 e9 1d ca da 3f
       -0.3916875627129525 0.4185862334741083
000070 0e 85 f5 e5 e3 94 b0 3f 00 00 00 00 e3 b3 d2 3f
       0.06477188457713032 0.29222941398620605
000080 00 00 00 40 21 7d c0 bf 00 00 00 80 21 03 d1 bf
       -0.12881866097450256 -0.2658160924911499
000090 00 00 00 80 08 52 d7 bf 00 00 00 80 03 e7 b5 bf
       -0.36438190937042236 -0.08555623888969421
0000a0 00 00 00 c0 4b ff c4 bf 00 00 00 00 a4 2d 8a bf
       -0.16404101252555847 -0.012782365083694458
0000b0 00 00 00 40 42 65 d9 3f 00 00 00 00 98 ab 93 3f
       0.3968053460121155 0.01920926570892334
0000c0 00 00 00 40 1c 0d da bf aa 3a 2e 0d 41 2b c3 bf
       -0.4070501923561096 -0.14975751060088288
0000d0 5c 04 c8 68 cd 69 d7 3f 15 9f 43 b0 54 b4 d8 3f
       0.3658326648001713 0.38600651944442294
0000e0 7a 78 ac e1 d2 be b9 3f 4b 2f ef f1 e2 5e d6 bf
       0.10056798944103376 -0.34954141260526644
0000f0 d5 b7 dd 33 70 28 cc bf 6f 6a c7 e2 c4 fd d1 bf
       -0.2199840787174582 -0.28111383577712606
000100 1c 07 e1 b3 c3 cc d1 3f c3 32 26 dd 5a f4 cf 3f
       0.2781228310233119 0.24964462087918635
000110 5c eb 5d 5f 71 bb d9 3f 00 00 00 c0 50 ec d7 3f
       0.40206560433550975 0.37379854917526245
000120 00 00 00 80 44 69 da bf 00 00 00 80 10 65 b6 bf
       -0.41267502307891846 -0.0874796211719513
000130 00 00 00 40 58 8f d4 bf 00 00 00 00 00 02 b6 3f
       -0.3212490677833557 0.085968017578125
000140 ce 50 33 64 a9 3c c8 3f 6d 6b 5d 3a 55 12 d0 bf
       0.18935124771690542 -0.2511189527482916
000150 71 6f 3e da 4a 0b 7b bf ff bc 92 49 5b f5 bd 3f
       -0.006602566139829112 0.11702509447308172
000160 b0 fd be 7f bc 11 d0 3f f0 3c 2b 77 9e bd d3 3f
       0.25108253932190916 0.3084484256514335
000170 d0 a2 ad 47 4c 2a 9a 3f a2 46 61 dc 7c 8a b2 3f
       0.02555197894563116 0.07242565517779068
000180 00 46 6b 1a 97 60 d9 bf ae ef 5a 4d 83 4a be 3f
       -0.39652040081008977 0.11832447660975617
000190 50 c5 ac a5 78 3b d4 bf 9a 7c 52 9c 9d 5a 94 bf
       -0.31612983874500333 -0.019876921335364096
0001a0 42 ed 6e a7 25 6e d9 3f 63 de 0a 03 fe 5a 85 3f
       0.397347844609346 0.010427460162971863
0001b0 be 3b e5 b2 de 51 c2 3f 9e e4 7d f6 8c 10 d1 3f
       0.14312347159508748 0.26663517066442377
0001c0 3f 26 fa d7 b8 23 c9 3f d4 8d 5c aa fb 10 7d 3f
       0.19640265031584822 0.0070962744410140895
0001d0 26 b1 a1 d2 33 d0 d3 3f 56 ed 87 33 34 85 46 3f
       0.30958266801350687 0.0006872658623814736
0001e0 00 00 00 80 db 48 c4 bf 00 00 00 00 85 70 ba 3f
       -0.1584734320640564 0.10327941179275513
0001f0 00 00 00 80 33 b8 d6 bf 00 00 00 80 8c 16 d3 3f
       -0.35499274730682373 0.29825127124786377
000200 00 00 00 40 05 87 c9 bf c7 08 24 36 e0 5c d4 bf
       -0.19943299889564514 -0.31816869055922975
000210 0f 0d 31 1b 5d 63 cf 3f ba 99 29 59 2f 8d dc 3f
       0.24521983936038125 0.44611724574351863
000220 48 e5 ff 34 75 4c 57 bf 30 2b 8f cd 69 fb d2 3f
       -0.0014220375633143423 0.29659504961152816
000230 35 08 c0 4f 34 6b d6 bf 1b 05 8e 45 ba 3b cf 3f
       -0.35029323375795524 0.24401024242619304
000240 87 0a 54 3f 93 c4 be bf 05 0b 54 54 39 68 95 3f
       -0.12018699928379749 0.020905395290365742
000250 ab 4a d2 12 0f 5b b3 bf 00 00 00 a0 ca 04 d2 bf
       -0.07560819825656988 -0.28154245018959045
000260 00 00 00 c0 99 04 d9 bf 00 00 00 40 7e fa d1 bf
       -0.39090579748153687 -0.2809138894081116
000270 00 00 00 c0 30 56 d9 3f 00 00 00 00 88 4c c0 3f
       0.3958856463432312 0.1273355484008789
000280 58 69 28 28 19 a8 c7 3f 73 a3 4d a4 7f 68 9e bf
       0.18481745205719835 -0.029695505526805954
000290 6a f4 e2 81 74 78 cc 3f ac 01 e5 ae 8b 95 9c bf
       0.22242599813572222 -0.027914221334187125
0002a0 27 b4 7d 11 76 cc c0 3f 14 3a e2 f6 05 22 a9 bf
       0.1312396607785626 -0.04908770216671968
0002b0 e1 03 5a 75 cf 7d d8 3f 05 d1 e5 f9 d3 e3 c3 3f
       0.38267885646933847 0.1553902597621645
0002c0 d7 0a 24 e8 76 c5 c0 3f a4 ad 03 00 35 d7 cf 3f
       0.1310261376857713 0.24875509739591195
0002d0 00 00 00 80 20 81 cd 3f 00 00 00 c0 e0 de c6 bf
       0.2305031418800354 -0.17867669463157654
0002e0 00 00 00 80 69 4c db bf 00 00 00 00 2d d4 a7 3f
       -0.4265388250350952 0.046540647745132446
0002f0 00 00 00 80 3d 23 d2 bf d0 30 1f 56 f9 3f b8 3f
       -0.28340089321136475 0.09472616531928968
000300 a6 5d c3 33 59 62 b2 3f e2 17 d8 91 45 40 c0 3f
       0.07181317819355701 0.12696141835493707
000310 25 78 96 e6 ed 83 d1 3f 15 95 a8 0b 9c 48 c8 bf
       0.2736773254235934 -0.1897158677030936
000320 2d 7e da dd 50 60 e0 3f e0 a6 d2 d1 29 67 d9 bf
       0.5117573102069791 -0.39692159166825824
000330 ca 43 c1 66 38 81 d2 bf 97 53 86 90 c7 2c cf 3f
       -0.28913698229467555 0.2435540633856845
000340 fb d1 74 41 4b fa 95 bf 00 00 00 80 5f b4 c9 3f
       -0.021462608213555594 0.2008170485496521
000350 00 00 00 00 d0 d7 cd bf 00 00 00 00 ed e2 aa bf
       -0.23314857482910156 -0.052512556314468384
000360 00 00 00 00 f1 43 c3 bf 00 00 00 00 f3 27 d0 bf
       -0.15051090717315674 -0.2524383068084717
000370 00 00 00 40 1f 51 db 3f 00 00 00 e0 40 8f c9 bf
       0.4268262982368469 -0.1996842473745346
000380 00 00 00 80 82 d1 d3 bf 00 00 00 40 af 45 da bf
       -0.30966246128082275 -0.41050320863723755
000390 00 00 00 a0 c9 46 da bf 87 b1 7b 49 b9 a1 c8 3f
       -0.41057053208351135 0.19243541801496297
0003a0 aa 04 a5 c9 66 4a d5 3f 64 22 58 a1 66 8b a9 bf
       0.33266610805373864 -0.049891669459672966
0003b0 30 12 1a 10 15 e9 dd bf f2 4e 9a 01 f8 cc c6 3f
       -0.46735121319241824 0.1781301505876552
0003c0 00 00 00 00 0f ed bd bf 00 00 00 e0 bc b6 d8 bf
       -0.11689847707748413 -0.3861534297466278
0003d0 00 00 00 80 9a 77 d8 3f 00 00 00 80 14 62 c1 3f
       0.3823000192642212 0.1358056664466858
0003e0 00 00 00 20 25 46 cf bf 55 8d d2 f7 66 bc d2 bf
       -0.24432815611362457 -0.2927491588727283
0003f0 37 be ec ab 0c 7a af 3f 99 43 1f 2f 35 1b d6 bf
       0.06147803877535945 -0.34541062928934135
000400 f7 92 1a 4f 35 38 c8 3f 03 b2 9d 30 24 21 d5 bf
       0.18921533930292586 -0.3301477885022736
000410 00 00 00 00 8e de d6 3f 00 00 00 80 e5 75 bd bf
       0.3573336601257324 -0.11508020758628845
000420 00 00 00 00 77 5c b5 3f 00 00 00 c0 c0 b0 db bf
       0.08344215154647827 -0.4326631426811218
000430 00 00 00 80 12 2a b3 bf 00 00 00 00 a6 2e b0 bf
       -0.07486072182655334 -0.06321179866790771
000440 00 00 00 40 dd 09 c0 bf 00 00 00 00 b0 07 af bf
       -0.1253010332584381 -0.060605525970458984
000450 00 00 00 80 bd ad b2 bf 00 00 00 c0 70 25 d4 3f
       -0.07296356558799744 0.3147851824760437
000460 60 07 28 23 e6 17 ab 3f 58 41 cf d4 c3 c6 ca bf
       0.05291670970110718 -0.2091908253774004
000470 16 95 bc de 4a b1 cf 3f cf a3 66 35 63 27 c3 3f
       0.24759803653538687 0.1496395121332896
000480 ad 06 dc 32 23 0a d3 bf 00 00 00 00 d9 f1 c1 bf
       -0.2974937435793475 -0.14019310474395752
000490 00 00 00 80 88 60 bf bf 00 00 00 80 68 09 d6 3f
       -0.12256672978401184 0.3443242311477661
0004a0 00 00 00 00 28 ff 8b bf 00 00 00 00 90 65 c1 3f
       -0.013670265674591064 0.1359119415283203
0004b0 00 00 00 80 0e e1 c3 bf 00 00 00 80 40 70 cb 3f
       -0.1553056836128235 0.21436315774917603
0004c0 00 00 00 00 5e 63 b8 bf 00 00 00 00 15 a0 c8 3f
       -0.09526622295379639 0.19238531589508057
0004d0 00 00 00 00 8d f7 a1 3f 00 00 00 80 81 d9 c8 3f
       0.035091787576675415 0.19413775205612183
0004e0 00 00 00 00 a4 03 91 3f 00 00 00 80 f8 bd d4 bf
       0.016615450382232666 -0.32409489154815674
0004f0 00 00 00 c0 89 68 d9 bf 00 00 00 40 97 d0 d1 bf
       -0.39700549840927124 -0.2783563733100891
000500 f7 a8 01 a6 70 eb aa 3f 25 f5 0e e8 f7 9b c5 3f
       0.052577514900649484 0.1688222773645204
000510 2e 11 07 9c bb 57 cd bf d1 42 86 e8 70 b7 cb 3f
       -0.2292398940900368 0.21653567651494268
000520 20 29 62 71 07 6f d4 3f ca ca dc 06 51 78 c2 3f
       0.319276676870361 0.1442967685230399
000530 76 ce b4 48 81 04 d4 bf 13 0c 7b 03 72 fc a9 3f
       -0.31277496433469965 0.050754130291828535
000540 14 59 fe a6 05 02 cc 3f ea fa 5d 67 e2 83 d8 3f
       0.2188117089651277 0.38304958433574987
000550 00 00 00 00 cb 91 d1 bf 00 00 00 00 f4 f6 ad 3f
       -0.2745234966278076 0.0585247278213501
000560 00 00 00 00 45 a0 c0 bf 00 00 00 00 00 79 cb 3f
       -0.129891037940979 0.214630126953125
000570 00 00 00 00 7c 66 ac 3f 00 00 00 20 35 79 d8 bf
       0.055469393730163574 -0.38239791989326477
000580 00 00 00 80 e0 ea b4 bf 00 00 00 00 08 bf 9f 3f
       -0.08170893788337708 0.031002163887023926
000590 00 00 00 00 5e 09 d7 bf 00 00 00 20 16 24 d9 bf
       -0.35994672775268555 -0.3928275406360626
0005a0 06 b0 6e 7c 95 f4 da 3f 14 a0 11 cd 7a c3 c1 bf
       0.4211782183799645 -0.13877806676032434
0005b0 21 f8 e6 60 64 87 d7 bf 91 e3 03 c1 97 ce a7 3f
       -0.36763867819888857 0.046498052894043636
0005c0 6f c0 99 49 03 3f cc 3f 8a 99 b0 2c 41 fb d4 3f
       0.22067299932269033 0.3278353630470511
0005d0 e9 13 4a 2c 28 d5 b6 3f 72 5e 11 c9 90 47 ce 3f
       0.08919001656802518 0.23655900781408296
0005e0 6f 80 aa dd db c6 d0 3f e0 ac 50 a4 9a 4b d8 3f
       0.2621373810488938 0.3796145062103289
0005f0 bc d4 03 1a 71 8c d0 3f 5e fb 17 c2 c0 43 c1 bf
       0.2585718874027625 -0.13488015629988132
000600 91 92 fe 2a ba 64 d1 bf 2e 2a 76 81 1d 9a c9 bf
       -0.2717729015223905 -0.2000157243858935
000610 1e 9b 14 11 c5 85 bc bf 9c f0 9c f6 0f 12 d4 bf
       -0.11141616503719518 -0.31360243876748384
000620 ee e5 ac cd 23 8e d1 bf 9d 56 a1 1f d1 7b e0 3f
       -0.2743005283878962 0.515114366319455
000630 ec e8 7b 2a a9 44 c3 bf ee df 22 0b f2 7b d4 3f
       -0.15053286146559886 0.3200650318863144
000640 3f 73 dd 82 24 59 dc 3f 1b 7a a7 1d b8 bf c0 bf
       0.4429408338526634 -0.13085080573996852
000650 20 51 de 6f 7e b9 d9 bf fd 12 a4 2b 45 99 d9 3f
       -0.40194664883280673 0.3999798704319771
000660 3b 00 9f 2b 42 ec b4 bf 00 00 00 00 17 fe b0 3f
       -0.08173001828163333 0.06637710332870483
000670 00 00 00 00 85 44 c4 3f 00 00 00 80 22 85 c4 bf
       0.15834105014801025 -0.1603129506111145
000680 00 00 00 80 bf 61 bd bf 00 00 00 60 0c ff d7 bf
       -0.11477276682853699 -0.3749419152736664
000690 00 00 00 00 dc d4 98 3f 00 00 00 40 5d 41 c0 bf
       0.024249494075775146 -0.1269947588443756
0006a0 00 00 00 c0 9d 6e cd bf 00 00 00 00 08 a9 c5 3f
       -0.22993823885917664 0.1692209243774414
0006b0 00 00 00 00 46 ba b4 bf f0 1f 0f 04 28 dc c1 3f
       -0.08096730709075928 0.13953113744923895
0006c0 ff b4 94 03 c5 49 a5 bf d0 bf f9 b3 d9 c8 db bf
       -0.04157844227516171 -0.43413393569698844
0006d0 ec 36 7d 59 7e 31 cb 3f 82 7c fa 76 42 c7 c2 bf
       0.2124479233702269 -0.14670592126364929
0006e0 f8 bd 51 02 6e d8 bc bf fc fe 9d a3 bc a3 dd 3f
       -0.11267745548843056 0.463118705541987
0006f0 fb 4e 33 b9 53 d6 da 3f 89 aa 87 15 96 f0 d2 3f
       0.41933148466090103 0.2959342203381899
000700 03 fd 20 93 6e 98 d5 bf 04 4c ec 70 ff f5 e0 bf
       -0.3374287068181305 -0.530029030373385
000710 2d 1c 15 9b 26 d4 a4 bf 53 98 c7 28 e8 9e d5 bf
       -0.04068108218285036 -0.337823905776877
000720 89 d8 9b e1 b4 67 d6 3f c7 d5 ae 6a 12 8c d0 3f
       0.35007974655253143 0.258549312765663
000730 42 29 27 20 52 6b cb 3f 43 a6 bf 11 a1 8b cf bf
       0.2142126709935131 -0.2464486443198429
000740 f3 ad 1d a7 a0 86 56 3f a3 91 f1 b1 ce df d1 3f
       0.0013748711466757795 0.27928511979396314
000750 06 11 32 25 ff 29 c4 3f da ec b6 d4 7e c9 b7 3f
       0.1575316363924985 0.09291832631327016
000760 34 b5 4c cd 8e 1b d6 3f eb ff d3 1b 93 54 ba 3f
       0.34543199585717166 0.10285300664327195
000770 1c 2d e0 77 95 19 d8 3f 86 b5 6c 50 98 7d b2 bf
       0.3765615149174708 -0.07222892726414018
000780 61 55 e9 2b d6 eb 8a 3f 77 b0 13 b3 45 c7 d1 3f
       0.013145135130950338 0.2777876137540782
000790 a0 ef da a5 c9 64 d8 3f 0c bc ac 18 84 91 c6 3f
       0.3811515922241089 0.17631579594441893
0007a0 2b 62 af 3c 2f fa 76 bf 00 00 00 00 85 07 b2 3f
       -0.0056096883008299 0.07042723894119263
0007b0 00 00 00 00 4f 03 b9 bf 00 00 00 00 8c dd 9b bf
       -0.09770673513412476 -0.027212321758270264
0007c0 00 00 00 80 ed 0c cd 3f 00 00 00 00 68 03 89 bf
       0.2269570231437683 -0.012213528156280518
0007d0 b1 61 a4 81 8b 14 cc 3f f3 24 c7 35 6c 07 d4 bf
       0.21937698202306202 -0.3129530453848723
0007e0 2b 4f b5 89 f9 30 d3 bf 87 e4 30 08 85 54 b4 3f
       -0.2998641819769882 0.07941466760611791
0007f0 aa 4e 52 57 2e fd cc bf c6 f8 a9 1d 99 4d be 3f
       -0.2264764715551924 0.11837155317514023

fc1.bias f8 [64]
000000 52 03 f7 0d ef 7b d0 bf 00 00 00 80 be db c4 3f
       -0.2575643192649767 0.16295605897903442
000010 e1 b3 da 2a 0e 23 d2 3f 00 00 00 00 fe 83 b0 3f
       0.28338960824004117 0.06451404094696045
000020 00 00 00 00 e5 a4 d8 bf 46 3c 14 7f f8 c5 c5 bf
       -0.38506436347961426 -0.17010408597022514
000030 67 2d 36 ad 7e df ca bf 00 00 00 60 4b 8a d1 bf
       -0.20994552095030913 -0.2740658223628998
000040 9e dc dd 83 0f 64 da bf 49 0a e2 23 e8 7f ad bf
       -0.4123572147140723 -0.05761647642159013
000050 90 0f 31 b9 d0 35 c3 3f b9 52 14 de f5 04 ba bf
       0.15007981340943077 -0.10163819000110665
000060 00 00 00 40 0d 1b ca bf 97 9f 44 eb 27 7d d0 bf
       -0.20395055413246155 -0.25763891196629046
000070 7b 2d 4e a4 7d a5 b9 bf 00 00 00 80 a3 36 cb 3f
       -0.10018143903123715 0.21260493993759155
000080 b7 e1 20 39 70 5d c8 bf b9 b6 d2 6c 04 80 ae bf
       -0.19035151280855953 -0.05957044437796583
000090 00 00 00 40 2f 60 cc bf 92 bb 72 01 86 56 ce bf
       -0.22168532013893127 -0.23701548643790865
0000a0 38 e6 c3 ca cd 1b b1 3f 00 00 00 00 4a 57 ac 3f
       0.06683050346682584 0.05535346269607544
0000b0 00 00 00 00 98 3d a6 3f 99 57 61 1f bd 60 b8 bf
       0.04343867301940918 -0.0952261163341447
0000c0 00 00 00 e0 ae 6e d0 bf 1d e1 ef 44 89 c8 ca 3f
       -0.2567555606365204 0.209244879398974
0000d0 00 00 00 c0 8c cf d7 bf 00 00 00 60 45 f3 cf bf
       -0.37204283475875854 -0.24961154162883759
0000e0 aa 5c d6 24 a9 46 d0 bf 00 00 00 80 6b b3 d5 bf
       -0.25431278798482515 -0.3390759229660034
0000f0 00 00 00 a0 0e fb d4 bf 00 00 00 c0 20 02 c4 bf
       -0.32782331109046936 -0.1563149392604828
000100 2a c8 a4 a6 42 df c3 bf 43 e9 1e 3c a7 c8 dc bf
       -0.15525086533449556 -0.44974690314451865
000110 00 00 00 80 bd 3c c1 bf 00 00 00 00 60 03 73 bf
       -0.13466614484786987 -0.004641890525817871
000120 28 77 3f fb 77 0e a3 bf c7 82 d0 de 80 68 cf 3f
       -0.03721976224890816 0.2453766906701473
000130 9e 51 82 96 ba 98 bc bf 85 25 42 6c fa 7b b9 3f
       -0.11170545744454904 0.09954800742175081
000140 a8 9d 52 a5 ea e0 a9 bf 00 00 00 e0 3c 78 ca bf
       -0.05054410236453616 -0.2067943662405014
000150 00 00 00 00 7f 04 a0 3f 13 af 88 9e be c8 d4 3f
       0.03128430247306824 0.32475247842624916
000160 1d f0 6b d5 a4 8a d1 3f f7 b0 3b e0 8e 6a 92 3f
       0.274087150973857 0.017984611927134044
000170 73 f5 01 bb 69 21 df bf 43 59 9d 6f 91 89 9f bf
       -0.48641436827150314 -0.03079821819059104
000180 47 46 5a 7f 0a 0c c2 bf 00 00 00 e0 1b 69 dc bf
       -0.1409924623335874 -0.44391533732414246
000190 73 cb dd fa 29 40 e0 3f ff 26 fc d2 81 3e d9 3f
       0.5078325175985426 0.3944401321792696
0001a0 1d 72 41 fd 02 f9 ac 3f 00 00 00 20 b4 b5 d0 bf
       0.05658730832576373 -0.26109030842781067
0001b0 00 00 00 e0 eb 9e d4 bf 00 00 00 00 d6 82 ab 3f
       -0.3221997916698456 0.05373257398605347
0001c0 22 44 4b 71 1e 61 d1 bf d8 8d 79 46 45 ed a1 bf
       -0.2715526682268906 -0.03501335606849992
0001d0 00 00 00 80 1a 7f d2 bf c3 42 d4 35 25 84 da bf
       -0.2890077829360962 -0.41431551224472346
0001e0 00 00 00 00 c9 c8 d0 bf 23 ee f4 80 7c 78 ca bf
       -0.2622549533843994 -0.20680195137707455
0001f0 cc 96 4c 82 31 de d2 bf d5 19 f5 f5 3a 92 da 3f
       -0.29481160854844 0.4151751901557906

fc2.weight f8 [128, 64]
000000 7f 7f fc 03 e6 7b c5 3f 00 00 00 80 7b d3 a8 3f
       0.16784358210224679 0.04848848283290863
000010 00 9e a7 24 93 46 cc bf 00 00 00 80 ed 40 b5 3f
       -0.2209037713030142 0.08302196860313416
000020 00 00 00 c0 a7 f9 b3 bf 07 6b c0 f2 83 b7 9a 3f
       -0.07802818715572357 0.026090680781730515
000030 c6 ab cd 07 15 18 b9 bf 00 00 00 c0 2e 83 b5 3f
       -0.09802371445191146 0.08403293788433075
000040 31 53 ac 61 ae 61 85 bf 2e 24 2f 1d ac 9a ba bf
       -0.010440218311069312 -0.10392261230948982
000050 4a 96 d0 ba ed 73 cc 3f b1 02 44 df d9 ef 40 bf
       0.22228786107841564 -0.0005168737248198633
000060 00 00 00 00 e0 62 a7 3f f6 5c 28 d2 1e e4 c7 3f
       0.045676231384277344 0.18664918195347696
000070 3d a1 d9 0d 36 34 ae 3f 00 00 00 80 dd 6e bd bf
       0.05899208945339971 -0.11497291922569275
000080 76 9f 4d 5f 9b a6 b2 3f 14 36 b8 e8 10 0e a3 bf
       0.07285471989382394 -0.03721669045271994
000090 00 00 00 80 7e da b9 bf f9 7c 11 08 cb a9 b2 3f
       -0.10099020600318909 0.07290333697300246
0000a0 56 09 c5 a2 e3 23 dc bf 00 00 00 00 62 e4 bf 3f
       -0.43969050307727764 0.12457859516143799
0000b0 00 00 00 00 17 6f b1 bf 82 b8 5a 94 d7 a5 b0 bf
       -0.06810134649276733 -0.0650305497353845
0000c0 00 00 00 80 db 41 ab 3f 2a 21 ba 1b 04 51 ae bf
       0.05323682725429535 -0.05921185339417641
0000d0 00 00 00 00 a7 08 be bf 00 00 00 80 2d 93 bc 3f
       -0.11731952428817749 0.11162075400352478
0000e0 be fb 7f 45 aa 9f a4 bf 00 00 00 40 67 ee be 3f
       -0.04028064821613196 0.12082524597644806
0000f0 00 00 00 00 ab 2e 9a bf 00 00 00 80 08 9e a0 3f
       -0.025568649172782898 0.032455697655677795
000100 91 90 d3 52 82 66 b6 3f 47 8b c3 98 ea 18 b3 3f
       0.08750166437272557 0.07459894399248156
000110 00 00 00 00 7f d0 af 3f 00 00 00 40 d7 5a b4 3f
       0.06213757395744324 0.0795111209154129
000120 3d 25 94 52 9a 32 aa bf 1b 99 a5 d2 32 40 c2 3f
       -0.05116731889763535 0.142584183554569
000130 52 bd 10 a5 a5 dd b1 bf ba c1 d8 66 22 48 b4 3f
       -0.06978831558148116 0.07922568331628713
000140 98 4f 08 d2 d7 bc c8 bf 00 00 00 40 a9 bc b8 bf
       -0.19326303248874122 -0.09662874042987823
000150 00 00 00 80 67 6f ac bf 51 4e 8c 1d 4a 4f c4 bf
       -0.055537447333335876 -0.15866972391869408
000160 37 1c 6c 3e d9 bd c2 3f 90 cb 0e 95 65 45 c3 3f
       0.14641871974910867 0.1505553224393137
000170 55 eb 09 dd 65 c9 ba 3f 64 34 5f 4c f3 d9 c3 3f
       0.10463558813527858 0.15508881787391993
000180 32 ca 12 a8 48 62 9c bf 00 00 00 40 10 85 be bf
       -0.027718672998796552 -0.1192178875207901
000190 5b 3e bb ef f7 3c cb bf 87 5f 16 58 f7 37 b7 3f
       -0.2127981110156608 0.09069772625514193
0001a0 e4 38 7c f4 90 14 c1 3f 00 00 00 00 39 5c a3 bf
       0.13344013154750833 -0.0378129780292511
0001b0 00 00 00 80 c2 a6 a6 3f 00 00 00 00 83 f8 b2 bf
       0.04424102604389191 -0.07410448789596558
0001c0 6a 9b 3c 17 a9 15 a3 bf ac 95 76 c2 45 e4 d1 3f
       -0.037274631582753084 0.27955764761494595
0001d0 00 00 00 00 bb 5f af bf 89 1f 4f f0 2e aa cf 3f
       -0.06127724051475525 0.24738108381120252
0001e0 00 00 00 00 31 9b 95 3f 3b 30 64 27 4a a3 a2 bf
       0.021099820733070374 -0.0364020512662084
0001f0 9b 19 c0 c4 ef e8 bf 3f a1 de 46 ec a8 23 ca bf
       0.12464808038212143 -0.20421325241999447
000200 6f 17 47 36 cf d4 c2 3f 00 00 00 00 0e 58 a8 3f
       0.14711942816046128 0.04754680395126343
000210 df 76 b2 d1 3d c0 a8 bf 00 00 00 80 b2 74 bd bf
       -0.0483416861036241 -0.11506190896034241
000220 00 00 00 00 15 3d b9 3f ad b9 87 4c 9d ef c7 3f
       0.09858828783035278 0.18699995266747518
000230 56 98 2a 4e 16 88 b3 3f 00 00 00 00 5e 28 a0 bf
       0.07629527481421525 -0.03155797719955444
000240 71 1b f6 bc a6 94 bf bf a3 0d 76 2f 7d 0d c2 3f
       -0.12336198914827691 0.141036651777637
000250 2a c4 0f 60 92 5b c0 3f 0b b8 87 42 ca 58 c3 3f
       0.12779454889781167 0.1511471581320055
000260 00 00 00 00 70 ff b1 bf e2 5c 06 9a 7b c6 c0 3f
       -0.07030391693115234 0.1310572149347769
000270 d6 2c d6 4a 46 5f 70 bf 00 00 00 00 69 18 ad bf
       -0.00399711091939566 -0.05682685971260071
000280 b1 8d 2f 51 7d 9d bf 3f 56 f9 29 5c f5 97 c1 3f
       0.1234968493659412 0.13744990349000358
000290 00 00 00 00 62 da 91 3f e4 6f 0e cb 72 fa c2 3f
       0.017434626817703247 0.148268078945761
0002a0 78 67 db e6 3f 6f db bf 00 00 00 00 62 7b bf 3f
       -0.4286651377166133 0.12297642230987549
0002b0 00 00 00 c0 10 a0 be bf 92 ca f3 34 23 cd b0 3f
       -0.11962990462779999 0.0656301502493
0002c0 00 00 00 80 ea fd a8 3f f7 35 ff 09 5a c6 88 3f
       0.048812225461006165 0.012097075872499181
0002d0 00 00 00 40 e2 31 b3 bf 00 00 00 00 cc 52 89 3f
       -0.07497991621494293 0.012364953756332397
0002e0 68 86 0f 16 17 07 c0 bf 00 00 00 40 25 80 ba bf
       -0.12521637513332284 -0.10351784527301788
0002f0 00 00 00 00 20 5a bb 3f 00 00 00 c0 8a a4 b5 3f
       0.10684394836425781 0.08454196155071259
000300 49 02 a2 8f 52 f6 b0 3f 7c 0a 18 df e8 de 81 3f
       0.06625858313237488 0.008725947674070193
000310 00 00 00 80 14 e5 b0 bf 00 00 00 c0 d7 cb b1 3f
       -0.0659954845905304 0.06951664388179779
000320 ec 3a c8 ee 9d a4 c8 bf 5e 7c b7 35 7f 2c 69 bf
       -0.1925237098625624 -0.0030729755942356237
000330 47 18 d0 4f 24 75 ab bf a2 57 b4 51 fb f3 aa 3f
       -0.053628096335203206 0.05264268276566432
000340 15 a6 d9 dc 45 f9 ca bf 00 00 00 00 82 a6 98 bf
       -0.210732205235488 -0.02407267689704895
000350 00 00 00 00 7e 0b ab 3f a3 f0 05 25 fe 14 c1 bf
       0.0528220534324646 -0.1334531479623183
000360 b0 42 6d 24 76 95 c3 3f e2 a2 d2 ce 8a 12 b8 3f
       0.15299870279934202 0.09403293179878916
000370 b0 a9 4a 86 53 85 b2 bf 9a 24 19 63 b3 37 9b 3f
       -0.07234689739804057 0.026579668925738355
000380 2f df 07 4a c3 cc bc 3f 00 00 00 00 2b a9 95 bf
       0.1124994331111082 -0.02115313708782196
000390 fb 87 7d 2a c4 58 d6 bf 42 e5 22 58 0d 9b 87 bf
       -0.3491678633637318 -0.011526207210737941
0003a0 ff 42 f0 ad c7 d4 b8 3f 00 00 00 00 f0 7a 51 bf
       0.0969967651037784 -0.0010669082403182983
0003b0 00 00 00 00 57 d5 a4 3f 00 00 00 80 88 22 a3 bf
       0.04069015383720398 -0.03737284243106842
0003c0 c3 e1 49 46 aa b3 b2 3f f8 d4 c0 9e 22 f4 d8 3f
       0.07305397239713955 0.38990083220717464
0003d0 00 00 00 00 19 62 99 3f 60 6d 8f f0 87 c3 b2 3f
       0.024788275361061096 0.07329606650403298
0003e0 00 00 00 40 ef 62 b3 3f d1 e8 e5 ce fa 1d a2 bf
       0.07572837173938751 -0.03538497710811018
0003f0 3b 8b 8b cd 4e 02 95 bf f7 78 19 8d 6c c3 d0 bf
       -0.02051661614940346 -0.2619277360844445
000400 00 00 00 80 21 42 aa 3f 00 00 00 c0 6b 5c bd 3f
       0.05128578841686249 0.11469148099422455
000410 00 00 00 00 19 cf ac 3f 00 00 00 00 91 7f 95 bf
       0.05626752972602844 -0.020994439721107483
000420 00 00 00 00 1f 42 a7 bf 00 00 00 00 eb 0a 99 3f
       -0.04542633891105652 0.024455711245536804
000430 00 00 00 00 48 44 98 3f 00 00 00 00 c2 04 9f bf
       0.023697972297668457 -0.030291587114334106
000440 00 00 00 c0 63 b3 bd 3f 00 00 00 80 a9 a7 bd 3f
       0.11601851880550385 0.11583957076072693
000450 00 00 00 00 bc 86 8d 3f 00 00 00 80 79 c3 a2 bf
       0.014417141675949097 -0.036647602915763855
000460 00 00 00 c0 42 4a bf 3f 00 00 00 00 cb b0 b7 3f
       0.12222687900066376 0.0925413966178894
000470 00 00 00 00 da 55 85 3f 00 00 00 40 17 bc bd 3f
       0.010417655110359192 0.11615128815174103
000480 00 00 00 40 e9 e5 b7 bf 00 00 00 00 28 e9 67 3f
       -0.09335191547870636 0.0029187947511672974
000490 00 00 00 80 8a 3b ae 3f 00 00 00 00 f8 74 82 3f
       0.059048011898994446 0.009012162685394287
0004a0 00 00 00 40 08 64 bb bf 00 00 00 80 5d 55 aa 3f
       -0.1069951206445694 0.0514325350522995
0004b0 00 00 00 00 bc d2 85 3f 00 00 00 00 71 ea a4 3f
       0.010655850172042847 0.04085114598274231
0004c0 00 00 00 00 32 e7 ab bf 00 00 00 00 ed c6 a4 bf
       -0.054498255252838135 -0.040580183267593384
0004d0 00 00 00 40 cd c8 b3 bf 00 00 00 80 2b ce a1 bf
       -0.07728274166584015 -0.034776076674461365
0004e0 00 00 00 00 f8 a5 7b 3f 00 00 00 00 3d 61 a6 3f
       0.00675007700920105 0.0437106192111969
0004f0 00 00 00 00 d4 64 9b bf 00 00 00 00 24 2b 79 bf
       -0.026751816272735596 -0.006144657731056213
000500 00 00 00 00 08 be 81 3f 00 00 00 00 f9 02 95 bf
       0.00866323709487915 -0.020519152283668518
000510 00 00 00 00 06 80 b4 3f 00 00 00 00 ae 40 8f bf
       0.08007848262786865 -0.015260085463523865
000520 00 00 00 c0 06 a1 b4 3f 00 00 00 80 c8 20 af bf
       0.08058206737041473 -0.06079699099063873
000530 00 00 00 80 55 58 b8 3f 00 00 00 00 a3 26 a9 3f
       0.0950978696346283 0.049122899770736694
000540 00 00 00 00 ee 98 97 3f 00 00 00 00 36 ff 8b 3f
       0.023044317960739136 0.013670369982719421
000550 00 00 00 00 59 cc 94 3f 00 00 00 80 03 16 bc 3f
       0.020310774445533752 0.10971090197563171
000560 00 00 00 00 51 75 bb 3f 00 00 00 80 b4 85 bd 3f
       0.1072588562965393 0.11532142758369446
000570 00 00 00 00 81 ae aa bf 00 00 00 80 1c 41 ba 3f
       -0.05211260914802551 0.1025560200214386
000580 00 00 00 80 0b a5 b9 bf 00 00 00 80 84 7b be bf
       -0.10017463564872742 -0.11907222867012024
000590 00 00 00 c0 a7 74 ba 3f 00 00 00 80 bf fc b5 bf
       0.10334251821041107 -0.08588787913322449
0005a0 00 00 00 80 cc d1 a6 bf 00 00 00 00 14 57 bc bf
       -0.044569388031959534 -0.11070370674133301
0005b0 00 00 00 80 a6 f6 b6 3f 00 00 00 00 57 24 9e bf
       0.0897010862827301 -0.029435500502586365
0005c0 00 00 00 80 75 e0 a3 bf 00 00 00 00 b4 41 81 3f
       -0.038821861147880554 0.008426100015640259
0005d0 00 00 00 c0 81 9c b8 bf 00 00 00 c0 2e d2 b2 3f
       -0.0961381047964096 0.07351963222026825
0005e0 00 00 00 c0 38 c3 b3 3f 00 00 00 c0 c3 0a b2 bf
       0.0771975964307785 -0.07047675549983978
0005f0 00 00 00 00 e1 dd 92 3f 00 00 00 00 7a 72 af bf
       0.01842452585697174 -0.0614202618598938
000600 00 00 00 80 ee ee ba bf 00 00 00 00 a6 14 90 3f
       -0.10520830750465393 0.01570376753807068
000610 00 00 00 00 64 13 b4 bf 00 00 00 00 f8 a8 9b 3f
       -0.07842087745666504 0.027011752128601074
000620 00 00 00 80 6f 2c a1 bf 00 00 00 00 a6 ec ae bf
       -0.03354214131832123 -0.06039923429489136
000630 00 00 00 00 32 aa b1 3f 00 00 00 00 83 5e b6 bf
       0.06900322437286377 -0.08737963438034058
000640 00 00 00 00 9d a3 93 bf 00 00 00 c0 06 87 ba bf
       -0.01917882263660431 -0.10362283885478973
000650 00 00 00 00 be 9c 91 3f 00 00 00 00 a3 d5 bb 3f
       0.01719948649406433 0.10872858762741089
000660 00 00 00 00 b8 fd 79 3f 00 00 00 00 ec 8d bb bf
       0.006345480680465698 -0.10763430595397949
000670 00 00 00 c0 31 48 b4 bf 00 00 00 80 65 77 b2 bf
       -0.07922659814357758 -0.0721343457698822
000680 00 00 00 40 d1 3c b2 3f 00 00 00 80 40 b7 b3 3f
       0.07124049961566925 0.07701495289802551
000690 00 00 00 00 78 42 ae bf 00 00 00 00 57 8d a2 3f
       -0.05910086631774902 0.03623458743095398
0006a0 00 00 00 00 58 9f 61 3f 00 00 00 00 34 bb 73 3f
       0.002151176333427429 0.004817202687263489
0006b0 00 00 00 80 04 cd b3 bf 00 00 00 40 00 71 bc 3f
       -0.07734706997871399 0.1110992580652237
0006c0 00 00 00 00 14 63 97 3f 00 00 00 c0 43 de b3 3f
       0.022838890552520752 0.07761023938655853
0006d0 00 00 00 00 23 93 a6 bf 00 00 00 80 fd c4 a7 3f
       -0.04409131407737732 0.04642479121685028
0006e0 00 00 00 80 b4 da b4 bf 00 00 00 80 1b 68 b8 3f
       -0.08146217465400696 0.09533855319023132
0006f0 00 00 00 40 f3 75 b2 3f 00 00 00 00 1e cb 82 bf
       0.07211227715015411 -0.009176477789878845
000700 00 00 00 c0 57 20 b3 bf 00 00 00 40 1a b3 b7 bf
       -0.07471226155757904 -0.09257663786411285
000710 00 00 00 00 b4 8b 70 3f 00 00 00 80 b6 b8 aa bf
       0.004039481282234192 -0.052190497517585754
000720 00 00 00 00 ab 94 91 3f 00 00 00 40 9e bb b9 bf
       0.017168685793876648 -0.1005190759897232
000730 00 00 00 40 11 96 bb 3f 00 00 00 00 40 4b bb bf
       0.10775859653949738 -0.10661697387695312
000740 00 00 00 00 10 10 6c 3f 00 00 00 c0 cc e3 b0 bf
       0.0034256279468536377 -0.06597594916820526
000750 00 00 00 80 72 86 a9 bf 00 00 00 80 9a f3 b4 3f
       -0.04985387623310089 0.0818420946598053
000760 00 00 00 80 f5 fb b4 bf 00 00 00 00 64 67 b6 bf
       -0.08196958899497986 -0.08751511573791504
000770 00 00 00 c0 3c 4e b1 bf 00 00 00 40 f0 dc b8 bf
       -0.0676000565290451 -0.09712125360965729
000780 00 00 00 00 20 4c 82 bf 00 00 00 00 0c d3 9f bf
       -0.008934259414672852 -0.0310785174369812
000790 00 00 00 00 48 39 9f 3f 00 00 00 80 f2 50 ae 3f
       0.030491948127746582 0.059211328625679016
0007a0 00 00 00 00 60 b7 af 3f 00 00 00 40 44 be ba 3f
       0.06194591522216797 0.10446573793888092
0007b0 00 00 00 00 e0 ef 5b 3f 00 00 00 00 87 1d a7 3f
       0.0017051398754119873 0.04514715075492859
0007c0 00 00 00 80 36 34 b5 3f 00 00 00 80 d4 11 a0 3f
       0.08282795548439026 0.031386032700538635
0007d0 00 00 00 00 c2 88 99 bf 00 00 00 00 97 b2 98 bf
       -0.024935752153396606 -0.02411876618862152
0007e0 00 00 00 00 0c 8e 7c bf 00 00 00 80 a5 e5 a2 3f
       -0.006971403956413269 0.036908313632011414
0007f0 00 00 00 00 f9 8c b9 bf 00 00 00 00 03 36 ba bf
       -0.09980732202529907 -0.10238665342330933

fc2.bias f8 [128]
000000 e3 7d 3a b2 4c 1e 98 bf 70 24 eb b4 aa f6 aa 3f
       -0.023553083780482608 0.05266316851118169
000010 00 00 00 80 18 6d b8 bf 00 00 00 00 0a 1b 8b 3f
       -0.0954146683216095 0.013235166668891907
000020 e1 4f 95 de ed ec 91 bf 58 8b 20 6b 97 3e 94 3f
       -0.01750537558594079 0.01977001754142846
000030 00 00 00 40 d8 fe b0 bf 00 00 00 80 82 a7 a6 bf
       -0.06638862192630768 -0.044246748089790344
000040 00 00 00 40 e6 9e b2 bf 57 3f a5 b7 26 68 a9 bf
       -0.07273711264133453 -0.049622735898650454
000050 00 00 00 00 32 fb 8e bf 71 b9 ad 4e 03 f3 ab bf
       -0.015127554535865784 -0.05458841643745672
000060 51 52 1c 95 28 0f a6 3f e9 0d 7d e9 65 b9 c2 bf
       0.04308440036962636 -0.14628290081792208
000070 99 7f da 56 56 5b a1 3f 3b 58 f6 35 d5 56 b9 bf
       0.03389997301314835 -0.09898121421278543
000080 8f 94 3f b6 36 26 bf 3f 32 a2 77 a2 7f 87 c5 bf
       0.12167684506819597 -0.1681975882813887
000090 21 0a 3d c0 55 12 a6 3f 00 00 00 c0 79 26 bc bf
       0.043108634678464826 -0.1099620908498764
0000a0 00 00 00 00 64 24 a8 bf 2d 2f f1 4f 21 cd b4 3f
       -0.04715263843536377 0.08125503732406676
0000b0 80 93 39 aa 9f 36 97 bf 00 00 00 00 0e 99 a8 3f
       -0.022669310345367233 0.04804271459579468
0000c0 20 a0 f2 e4 e4 77 c2 3f 00 00 00 80 51 12 a1 bf
       0.14428387812699928 -0.0333428829908371
0000d0 9f 0b fc 84 e9 0c b2 bf ae c0 05 8d 6f 8c 86 bf
       -0.07050952431386158 -0.011010047427334104
0000e0 45 2e fd c3 bf a9 b2 3f e7 bd 3f f8 4c e0 c1 bf
       0.07290266547095665 -0.13965761300595078
0000f0 a8 f2 24 7d b6 a8 a1 bf 7c 18 1c aa 57 cc 95 3f
       -0.03449030187264174 0.02128731704490193
000100 00 00 00 00 bd 99 ad bf 97 4b fc 17 8d f4 9f bf
       -0.057813555002212524 -0.031206326092682337
000110 ca cd 27 88 84 ce aa 3f 12 45 86 42 91 9a 74 bf
       0.052356855030577146 -0.005030219479878599
000120 a2 8c d7 ff 46 e5 ac bf 00 00 00 80 ad fc b2 bf
       -0.05643674729415095 -0.07416805624961853
000130 00 00 00 80 62 8a a1 bf 00 00 00 00 64 f7 a2 bf
       -0.03425891697406769 -0.03704369068145752
000140 26 29 b6 c2 bd 83 bf bf d1 2c cb 32 c2 33 c4 bf
       -0.12310396197986914 -0.1578295467391855
000150 a9 0d 9e 6c d8 57 c0 3f 00 00 00 00 f7 c7 a0 3f
       0.12768082908233438 0.03277561068534851
000160 00 00 00 c0 8e 3e b8 bf 05 5c f3 65 92 fc 9a 3f
       -0.09470455348491669 0.026354110214779087
000170 c5 16 e3 72 c0 fd c4 bf 1a 45 1f a7 94 84 94 bf
       -0.16399388894767788 -0.02003700513870852
000180 ab a9 4d ce a2 92 b7 bf 94 66 d6 30 ec 8e c4 3f
       -0.09208123718932508 0.16061165222781837
000190 00 00 00 c0 ff cf bd bf 00 00 00 00 b7 5f 94 bf
       -0.1164550632238388 -0.01989637315273285
0001a0 5e 2d 29 6e cb 1e 98 3f 91 1e 66 f4 31 e6 9f bf
       0.023554972265896416 -0.031151562253880775
0001b0 5a bf 67 db 65 41 a6 bf 00 00 00 00 fc a6 85 3f
       -0.04346769622122677 0.0105724036693573
0001c0 8f fb e3 1d 63 e1 a4 bf 00 00 00 80 86 fe a7 bf
       -0.04078206767916647 -0.046863749623298645
0001d0 00 00 00 00 d6 c9 93 bf c6 33 9f 7c d1 e1 c0 bf
       -0.01932463049888611 -0.13189142785122793
0001e0 8c 78 a2 6f 17 51 b0 bf 00 00 00 80 0a 11 b2 bf
       -0.06373735881286019 -0.07057252526283264
0001f0 d7 e0 54 ad 19 3d ba bf 00 00 00 00 a7 b3 ae bf
       -0.10249481660582958 -0.059964388608932495
000200 00 00 00 00 7d 20 a6 bf fb 84 d6 20 8f 11 c1 3f
       -0.04321661591529846 0.13334836104790057
000210 05 70 b0 51 33 be 98 bf bc 52 7b 56 97 48 c2 3f
       -0.02416305719462743 0.14284030649891644
000220 ae 22 56 29 b6 8b a8 3f 28 5d d4 5f 6e 89 a5 3f
       0.04794091467471638 0.04206414146227139
000230 23 ac a7 34 55 93 ab 3f b7 83 c4 0f fb 05 b8 bf
       0.05385843532334202 -0.09384125838233968
000240 00 00 00 00 b5 3b ad bf 78 68 c1 4b 1d ba 9a bf
       -0.05709615349769592 -0.026100595234631346
000250 d2 2b f0 f6 93 05 b7 3f 8c 33 14 50 30 c8 af 3f
       0.08992886332286723 0.06207419374013687
000260 9e 83 2e b1 49 b9 bb 3f 00 00 00 80 ff b8 a8 bf
       0.10829601836895938 -0.048286423087120056
000270 64 e0 9a a1 53 e2 bd 3f 00 00 00 00 90 12 50 bf
       0.11673472114023437 -0.0009809881448745728
000280 00 00 00 00 20 d5 61 bf 00 00 00 00 d2 35 a4 3f
       -0.002176821231842041 0.039473116397857666
000290 f5 ef 22 ff e4 e2 b5 bf e2 96 75 33 fb f7 c1 bf
       -0.08549338559072324 -0.14038028729117175
0002a0 00 00 00 c0 68 f8 bb bf 04 61 c4 54 d7 cf 92 3f
       -0.10925917327404022 0.018370976017735977
0002b0 72 be 46 89 92 3d ba bf 68 58 f9 9b f5 9f a2 3f
       -0.10250202037308911 0.03637664345721775
0002c0 8b 93 2a 3a 3e 1f 92 3f 1b 0b 22 eb 33 cb bb 3f
       0.017697307872953465 0.10856937876273458
0002d0 1a ba e3 ab c9 df c1 bf 49 a1 d9 62 fe 1e c6 bf
       -0.13964196103138776 -0.17282085253396876
0002e0 00 00 00 00 4e 8a 8a 3f c0 3e 36 3d c0 e1 aa bf
       0.012959107756614685 -0.05250359294143214
0002f0 90 90 e0 82 54 71 a9 3f 98 a6 4a 23 a4 95 b1 bf
       0.049692765213223855 -0.06868959294902266
000300 6b da 91 a7 a0 48 b9 3f 00 00 00 00 9d a1 b7 bf
       0.09876445857103426 -0.09230977296829224
000310 54 f3 41 1f 0e 2b b9 bf 9c f0 da 7c e6 d6 b5 bf
       -0.09831321967244594 -0.08531036899779781
000320 67 4f b0 4c 75 65 53 3f 0f 80 0d de 6d fb ab bf
       0.0011838574889723953 -0.05465262733082465
000330 d0 35 a6 97 2d 7e a0 3f 36 71 a2 bf 76 d5 96 3f
       0.03221266246974219 0.02229867500919732
000340 2b 37 29 93 c5 d3 87 3f 2e 74 a0 64 13 0d bf 3f
       0.011634391358849768 0.1212932701750595
000350 6e ad e1 47 55 be 8e bf 4d 1b 41 b2 3c 36 c6 bf
       -0.015011469131613633 -0.17353018478226048
000360 00 00 00 00 4a fb 89 3f c6 1e ca 38 a7 66 b1 3f
       0.01268632709980011 0.0679726136823958
000370 21 db 18 df e5 6d 97 3f 21 5e d7 d5 cd 5a c0 3f
       0.022880164853826494 0.12777111951321365
000380 63 da 9e 4e 5e 25 a6 bf 00 00 00 00 37 4a af bf
       -0.04325384816859381 -0.06111308932304382
000390 bf 1e f5 d8 5d 05 b5 bf 9b 3a 26 2c 87 34 91 bf
       -0.08211313769163107 -0.016801940984403
0003a0 b3 16 e4 9e 63 80 b1 bf 89 f3 8f 1d 26 d0 a8 3f
       -0.0683653128545199 0.04846304999225654
0003b0 b2 49 bc 1c 66 05 90 bf 65 7c 3d b3 c4 73 bd bf
       -0.01564559507739611 -0.1150477349851698
0003c0 47 08 79 13 b1 b4 bb 3f 25 9f 2f e2 21 ae c3 bf
       0.10822588658723574 -0.1537515978263794
0003d0 54 b4 04 99 c9 78 b6 3f 00 00 00 00 62 95 b7 3f
       0.08778057084846697 0.09212315082550049
0003e0 17 f1 78 24 54 2d b8 3f 3b 09 fb 34 9f 52 bd 3f
       0.09444166078987269 0.11454196017715372
0003f0 52 95 2d a5 1e 55 af 3f 00 00 00 00 bd fe 98 bf
       0.06119628683408486 -0.024409249424934387

fc3.weight f8 [64, 128]
000000 6e 50 20 65 eb 17 92 3f e9 a8 b4 fa b2 34 ba bf
       0.017669370696311075 -0.10236662502999007
000010 00 00 00 20 80 e8 b0 3f 00 00 00 00 e6 49 92 3f
       0.06604767590761185 0.01786002516746521
000020 59 ae 92 d0 9d d3 b0 bf 45 36 90 ca b1 af 8c 3f
       -0.06572901098359675 0.0140069856588766
000030 00 00 00 00 14 76 63 3f 00 00 00 80 59 fc b0 bf
       0.0023756399750709534 -0.0663505494594574
000040 00 00 00 c0 59 05 aa 3f 00 00 00 00 43 c6 82 3f
       0.050822071731090546 0.009167216718196869
000050 00 00 00 80 98 fa b3 bf 00 00 00 c0 18 f8 ad 3f
       -0.07804253697395325 0.058533452451229095
000060 fa 7e 1d 46 f3 ac b7 bf 00 00 00 20 95 b3 ad bf
       -0.09248276197240193 -0.058010730892419815
000070 2a 7b e2 c6 52 75 af bf 00 00 00 00 9e 6e 99 3f
       -0.06144198110381745 0.024836033582687378
000080 fc 58 99 81 aa 13 b9 bf 00 00 00 00 48 c5 81 3f
       -0.09795632995642117 0.008677065372467041
000090 00 00 00 00 22 9e 99 bf 00 00 00 20 41 61 b6 bf
       -0.02501729130744934 -0.0874214842915535
0000a0 00 00 00 c0 e6 a3 b4 bf c2 cf 26 a1 88 14 c0 bf
       -0.08062593638896942 -0.12562663906794397
0000b0 00 00 00 80 5d c9 9e bf 00 00 00 00 70 8b 69 3f
       -0.03006502240896225 0.0031182467937469482
0000c0 b5 f4 3e 77 f6 d5 b2 bf 00 00 00 e0 27 9a b0 bf
       -0.07357731257703189 -0.06485223025083542
0000d0 00 00 00 00 05 ff 9d 3f 00 00 00 c0 dd c7 ae 3f
       0.029293134808540344 0.06011860817670822
0000e0 12 ac 62 49 2b 66 c1 bf 00 00 00 40 1b 8d a4 3f
       -0.13593045314095825 0.040139056742191315
0000f0 00 00 00 a0 fd 4b b0 3f 00 00 00 00 c4 1f 8e 3f
       0.06365952640771866 0.014709025621414185
000100 00 00 00 a0 15 b4 a0 bf 00 00 00 00 cd 8a 81 3f
       -0.032623935490846634 0.008565522730350494
000110 00 00 00 00 24 a8 8d bf 00 00 00 60 bd 02 b1 bf
       -0.01448085904121399 -0.06644805520772934
000120 00 00 00 80 57 d6 97 bf 00 00 00 a0 c5 71 a3 bf
       -0.02327858656644821 -0.03797738626599312
000130 00 00 00 80 ce 6c 9a bf 00 00 00 00 d2 9f 73 bf
       -0.02580568939447403 -0.004791088402271271
000140 00 00 00 80 4c 10 91 3f 00 00 00 40 34 75 a4 3f
       0.01666373759508133 0.03995669633150101
000150 55 4a 0a d9 8d aa 91 3f 00 00 00 40 b2 20 a5 3f
       0.017252174732286758 0.04126507788896561
000160 00 00 00 00 1b 85 8f 3f 00 00 00 00 2e 58 85 bf
       0.01539059728384018 -0.010422095656394958
000170 00 00 00 c0 67 1e a4 bf 00 00 00 60 f8 b1 b0 bf
       -0.03929447382688522 -0.06521560996770859
000180 00 00 00 c0 c3 d7 9f bf 4c 8f cc e2 8b 53 91 bf
       -0.03109651431441307 -0.01692026683589569
000190 00 00 00 c0 06 c3 ab 3f 00 00 00 80 b5 e6 9b bf
       0.05422230809926987 -0.027247272431850433
0001a0 a1 9b 11 c4 5f b4 6a 3f 09 9d 16 c0 00 fe af bf
       0.003259837191353879 -0.06248476357296268
0001b0 00 00 00 20 62 4c b5 3f 00 00 00 00 80 ae a0 3f
       0.08319676667451859 0.032581329345703125
0001c0 00 00 00 40 bb 82 af 3f 00 00 00 00 85 36 96 bf
       0.061544276773929596 -0.021692350506782532
0001d0 00 00 00 c0 73 a4 b4 bf 00 00 00 00 fd a3 a6 bf
       -0.08063434064388275 -0.04421988129615784
0001e0 00 00 00 00 c2 f9 81 3f 00 00 00 40 34 b4 a2 3f
       0.008777156472206116 0.03653109818696976
0001f0 00 00 00 40 8d 66 a6 bf 00 00 00 40 ea 4d a2 bf
       -0.04375115782022476 -0.03575069457292557
000200 00 00 00 40 cd 82 a4 3f 6f ac 53 89 35 2e b4 bf
       0.040060438215732574 -0.07883009531694694
000210 00 00 00 00 47 e4 98 bf 97 c0 95 ed b1 c8 ba bf
       -0.024308308959007263 -0.10462486315168672
000220 f3 9e 71 8b db af b8 bf 89 ef 01 dc 78 2b bf bf
       -0.09643337396994038 -0.12175708171156265
000230 5a 95 21 2d bf 7f 91 3f 00 00 00 c0 46 5a a7 3f
       0.017088877801503123 0.04561062902212143
000240 00 00 00 60 78 d9 b2 3f 4d c5 8d 64 cb 0b b5 bf
       0.07363083213567734 -0.08221121983458098
000250 f4 67 ea bf 66 0b a7 bf 00 00 00 a0 da a3 ae bf
       -0.0450088605186493 -0.05984385684132576
000260 18 96 45 12 d0 8a 90 bf 00 00 00 00 40 08 2a bf
       -0.01615452872774456 -0.00019861012697219849
000270 c6 19 91 15 44 a1 ae bf 00 00 00 80 9b 39 b1 bf
       -0.05982411158815952 -0.06728526949882507
000280 00 00 00 80 27 f1 a6 bf 00 00 00 00 d4 1c 92 bf
       -0.044808611273765564 -0.017688095569610596
000290 00 00 00 80 5b 78 b0 bf 00 00 00 a0 5c a4 b1 3f
       -0.06433650851249695 0.06891421228647232
0002a0 00 00 00 40 07 41 a3 3f 00 00 00 60 ef f5 a4 bf
       0.03760550171136856 -0.040938835591077805
0002b0 00 00 00 00 e8 af 86 bf fe f5 cd 17 9c 71 c2 bf
       -0.011077702045440674 -0.14409209406214524
0002c0 8d c4 82 04 d5 a5 c2 bf 00 00 00 80 20 45 a6 bf
       -0.14568579406980967 -0.04349614679813385
0002d0 00 00 00 00 82 ac 83 bf 00 00 00 a0 27 fd ad bf
       -0.00960637629032135 -0.05857204273343086
0002e0 00 00 00 00 87 70 a7 bf 00 00 00 20 1c 18 b6 bf
       -0.04578039050102234 -0.08630538731813431
0002f0 f7 2a 8c 67 9e fb b4 bf 00 00 00 e0 6b 85 ac bf
       -0.08196439769760021 -0.05570542439818382
000300 1d b7 3e 9e a9 e6 b3 bf 00 00 00 20 69 41 b5 3f
       -0.07773838151362296 0.08302933722734451
000310 00 00 00 e0 e3 40 ab bf 00 00 00 40 25 6d ac 3f
       -0.053229447454214096 0.05552021414041519
000320 00 00 00 c0 e1 0d a2 bf bc 87 6e 78 97 e6 bb bf
       -0.03526216000318527 -0.10898729982593997
000330 00 00 00 80 2a 83 9e 3f 00 00 00 20 78 46 b6 bf
       0.029797233641147614 -0.08701277524232864
000340 00 00 00 e0 ad e9 a8 bf e2 f2 e4 a9 8c 7d 9f bf
       -0.04865783080458641 -0.03075237070992188
000350 00 00 00 c0 4b 7c aa 3f 00 00 00 00 c6 be 85 bf
       0.05172955244779587 -0.010617777705192566
000360 00 00 00 00 f9 4b 8b bf bb 6d 18 0e 1b 83 c3 bf
       -0.013328500092029572 -0.15243852794888632
000370 00 00 00 60 4a 00 a6 bf 95 f1 63 a1 9e 27 b0 bf
       -0.042970966547727585 -0.06310454788394389
000380 c6 0d 61 fc df c5 93 3f 00 00 00 c0 48 1a af 3f
       0.019309520510672383 0.060747407376766205
000390 f1 42 05 ce 7e 69 70 3f 00 00 00 00 d8 56 95 bf
       0.004006858187793881 -0.02083909511566162
0003a0 00 00 00 40 44 ac af 3f 00 00 00 60 8e c9 b5 bf
       0.06186116486787796 -0.0851067528128624
0003b0 00 00 00 00 6f b3 91 bf 00 00 00 40 89 80 9e bf
       -0.017286047339439392 -0.029787201434373856
0003c0 18 74 04 5c b7 52 4e bf 00 00 00 a0 f4 22 b6 3f
       -0.0009253878888874105 0.08647087961435318
0003d0 46 66 6a 25 ce e0 b6 bf 00 00 00 e0 f0 2b b5 bf
       -0.08936775601832733 -0.08270173519849777
0003e0 81 0f 76 c4 84 d1 be bf 80 03 2a 74 d7 c4 b5 bf
       -0.12038450046935446 -0.08503481470144258
0003f0 61 69 16 4b 24 c0 b4 bf 00 00 00 40 e2 79 af bf
       -0.08105685074989345 -0.061476774513721466
000400 25 9b 79 f2 50 c0 78 3f d2 72 f4 a9 e8 ec b0 bf
       0.006042782020449865 -0.0661149420670413
000410 00 00 00 a0 bd c5 b2 bf 00 00 00 80 61 58 a8 bf
       -0.07332978397607803 -0.0475492924451828
000420 ae 59 ab 3d ed 88 c2 bf b3 94 72 66 77 a6 bc bf
       -0.14480367194364646 -0.1119150757900396
000430 00 00 00 00 fc 65 6f 3f 00 00 00 a0 e0 ce b1 bf
       0.003832809627056122 -0.06956294924020767
000440 00 00 00 60 57 30 a4 bf 4b 78 40 f5 39 dc a0 3f
       -0.039431314915418625 0.03293019408032246
000450 00 00 00 c0 9f 2a a6 3f 00 00 00 40 ac b3 a3 3f
       0.043293945491313934 0.03848017007112503
000460 b5 8c 05 87 72 03 50 bf 3e 1b ce 59 ff 50 9a 3f
       -0.000977384417716815 0.025699605804699426
000470 c6 6b 7c bf 8f 45 b4 bf 39 7b f9 23 45 d4 96 3f
       -0.07918642449332855 0.022294121094428496
000480 d8 fe 1c d4 68 2e 71 3f b2 13 a1 33 63 3d 97 3f
       0.004194650160399958 0.022695112253376677
000490 69 81 90 6e 52 d2 c0 3f 00 00 00 c0 fe 0c a1 bf
       0.13141851805358876 -0.033302269876003265
0004a0 00 00 00 80 5f 87 9a 3f 67 d4 6c 69 53 f1 b2 bf
       0.025907032191753387 -0.07399483989577647
0004b0 57 db 01 e6 35 79 ba 3f 00 00 00 00 de 0c 76 3f
       0.10341202607547238 0.0053833648562431335
0004c0 80 05 d0 da 5c 32 ab bf 00 00 00 00 e8 d6 87 bf
       -0.053118612013359545 -0.011640369892120361
0004d0 00 00 00 00 7c b1 7d bf b5 2d e5 3b 1d dd a9 3f
       -0.0072493404150009155 0.050515092431477816
0004e0 c0 f1 9c 61 1d be af bf 15 72 37 9f a7 af af 3f
       -0.06199733559194298 0.06188701456605742
0004f0 a6 eb 89 c2 9c 68 9b bf 18 c9 6a dd 8f 71 87 3f
       -0.02676625192041695 0.011447071022619812
000500 00 00 00 20 63 af b5 3f 56 01 3b a0 3c dd 66 bf
       0.08470744639635086 -0.002791040811502092
000510 25 45 17 55 b8 d0 a4 3f ee 1c b5 69 e2 6a c1 3f
       0.040654907595703706 0.13607435380456628
000520 50 5a ae 4e 6f 58 a3 3f 00 00 00 a0 4e ae ae bf
       0.0377840789362166 -0.05992360785603523
000530 00 00 00 a0 70 5f b5 3f 00 00 00 20 c5 38 b4 bf
       0.08348754793405533 -0.07899124175310135
000540 b1 51 1a fe 37 2d c2 bf a5 13 0d 4f cd 80 9e 3f
       -0.14200496585239145 0.029788215589423257
000550 1c 9b 7c 9b 73 f4 a0 3f 00 00 00 60 5b b9 b4 3f
       0.03311501763373867 0.08095332235097885
000560 00 00 00 80 e0 c6 b1 bf c3 9c 10 d6 15 2a b0 3f
       -0.06944087147712708 0.06314217067903187
000570 f4 6c 84 50 93 e7 aa 3f 40 a8 a1 64 33 81 a8 3f
       0.05254803045155568 0.0478607235280184
000580 fc 1f e9 ee ca 9f a1 3f 9c 6a 22 2f 9a 8e ba bf
       0.03442224661245061 -0.10373843813651223
000590 00 00 00 c0 da b7 a6 3f 00 00 00 00 20 b9 6b 3f
       0.04437144845724106 0.0033841729164123535
0005a0 be 6d 6d e1 65 fa aa 3f 76 84 06 07 b9 46 79 3f
       0.05269163491058347 0.006170962108087532
0005b0 3c 5f 15 10 f4 fb a9 3f 00 00 00 20 b3 1f b0 3f
       0.05075037666637036 0.06298369914293289
0005c0 be c3 f9 50 b1 7d 72 bf 00 00 00 40 bd b6 a8 3f
       -0.004514401094284302 0.04826918989419937
0005d0 00 00 00 80 e5 78 97 bf 00 00 00 00 4c 6f 72 3f
       -0.022922120988368988 0.004500672221183777
0005e0 2f b9 6b 75 be fb a4 3f 00 00 00 00 a8 24 69 3f
       0.040983154138176985 0.0030692368745803833
0005f0 ce 89 f5 f4 ea 71 c2 3f 00 00 00 40 d3 19 ac bf
       0.14410149536986555 -0.05488453060388565
000600 00 00 00 e0 b3 d7 b5 3f d6 63 b5 5f 2a e9 af bf
       0.08532261103391647 -0.06232578676526372
000610 2c 25 0e 1d 55 ff 9d 3f da f7 e2 ab b6 a7 a1 bf
       0.029294328592674265 -0.03448267791962652
000620 26 33 b9 e5 a8 3a a9 3f 41 20 4b 8f 0a 22 99 bf
       0.04927566341630145 -0.024543919559420372
000630 00 00 00 00 2c 07 71 bf 8b 24 40 63 f2 aa bc 3f
       -0.004157230257987976 0.11198344157323185
000640 00 00 00 20 9a 6f b1 3f aa 92 59 75 68 c6 99 3f
       0.06810916215181351 0.025170929110020758
000650 0a 55 05 a1 9d 69 91 3f de cd 4d 77 24 c0 b5 3f
       0.017004454567843864 0.08496311104482099
000660 f8 29 02 86 eb ea a6 bf 00 00 00 c0 77 c4 a8 bf
       -0.04476104746671078 -0.048373930156230927
000670 61 12 a2 42 ad ef 6b 3f 00 00 00 20 51 6b a3 bf
       0.0034101852407409238 -0.03792813792824745
000680 00 00 00 40 6f d8 aa 3f 00 00 00 40 70 da ae 3f
       0.05243251472711563 0.06026030331850052
000690 4d dc 20 b3 3a 96 b8 3f 92 4f c2 9a 20 87 91 3f
       0.09604231713534368 0.017117032476178524
0006a0 00 00 00 00 f5 87 a1 3f ac d1 a4 aa 69 d5 bf 3f
       0.034240394830703735 0.12435017028912537
0006b0 d4 28 4d 29 d7 a2 b2 3f 5d e4 ef f7 c8 0e b8 3f
       0.07279724844298424 0.0939756017031796
0006c0 31 9b 90 59 fb 55 94 3f 00 00 00 c0 9c ae a6 3f
       0.01985924467239925 0.04430093616247177
0006d0 a6 4a dd 65 66 52 b8 3f f8 f3 a1 75 17 31 b9 3f
       0.09500732409405063 0.09840532895937304
0006e0 00 00 00 80 7e da 91 3f 00 8e 6f 4a b5 9b 5b bf
       0.01743505150079727 -0.0016850729386924668
0006f0 c0 f0 97 08 97 16 b5 bf 94 80 9d 16 ef 75 80 3f
       -0.08237594566157025 0.008037441136991931
000700 76 db 48 ae 13 1e b2 bf 00 00 00 e0 c4 4f b5 3f
       -0.07077143673892103 0.08324842900037766
000710 14 13 44 e5 88 04 9b 3f 14 a0 51 b4 6d 49 87 bf
       0.026384486192017567 -0.011370522561449582
000720 1b 9c 14 bc 8e ef bd 3f 69 28 df d5 9e 3d 92 3f
       0.1169366082364011 0.01781318836564375
000730 f4 0a 97 2f d7 3d a8 3f 2f 81 41 89 36 31 ad 3f
       0.04734680610592604 0.05701609063612733
000740 7e 05 13 c4 89 a5 8b bf 0a 08 03 a4 ab e4 9e bf
       -0.0134993327104691 -0.0301691836218723
000750 14 7d 77 91 01 cd 90 3f c5 49 51 dc 8c 26 c1 3f
       0.01640703630789371 0.13398895986263262
000760 00 00 00 00 2e 6e 80 3f 9b 73 5d b6 0c bc b4 bf
       0.008022651076316833 -0.08099441005965817
000770 dc 66 4d 18 6a 53 b9 3f 62 6f 60 1d 4c 99 9b bf
       0.09892905324286566 -0.026951970379840325
000780 53 02 2b 4b a9 2a ae 3f 00 00 00 80 8d 43 98 bf
       0.05891922991350342 -0.023695193231105804
000790 e8 ff a0 43 a6 86 bf bf 00 00 00 e0 54 6e b5 3f
       -0.12314833785148915 0.08371477574110031
0007a0 99 22 be a0 08 69 b2 bf e3 1a 93 ef bb e2 bb 3f
       -0.0719151871145506 0.10892843817701307
0007b0 00 00 00 c0 3b bc a2 3f 14 32 8e 5f 53 fd b5 3f
       0.036592356860637665 0.08589669306656617
0007c0 85 8e cf b0 f1 28 96 bf 00 00 00 40 f2 fd ae bf
       -0.02164056436221397 -0.06053120642900467
0007d0 00 e9 e7 9b 28 70 b8 bf 00 00 00 20 71 02 b0 bf
       -0.09546140486046184 -0.06253726035356522
0007e0 00 00 00 00 90 9f 93 3f e3 e0 ea 9a 2b 81 a4 bf
       0.01916337013244629 -0.04004799142916384
0007f0 92 7d 98 3b 0a 54 aa bf 00 00 00 00 03 d9 8a bf
       -0.05142242410169752 -0.013109229505062103
