src/backend/controller/checkpoints/checkpoint_epoch_22.pth (torch, 420207 bytes, 25 tensors)

fc1.weight f8 [64, 5]
0	0x3fc6b8ebd1b77790	0.17751834621497808
1	0xbfdd53cfedeff656	-0.4582404922110518
2	0x3fd053242180a379	0.255074532239227
3	0xbfc71dcae0168505	-0.18059669439120554
4	0x3fbcca2c38c32a05	0.11245991121101191
5	0xbfc4288740000000	-0.15748682618141174
6	0xbfd24cb4a0000000	-0.2859317362308502
7	0xbfdac41960000000	-0.4182189404964447
8	0xbfce277ec0000000	-0.23558029532432556
9	0x3fba497600000000	0.102683424949646
10	0xbfd2a9179486bd43	-0.2915705633594891
11	0x3fb0d4129b26108a	0.06573597228822528
12	0xbfd78eb468d1361f	-0.3680850051503927
13	0x3fd6447f486a59a2	0.3479307372266708
14	0x3fb0c9efa4427847	0.06558130035634334
15	0x3fd2b3e300000000	0.29222941398620605
16	0xbfc07d2140000000	-0.12881866097450256
17	0xbfd1032180000000	-0.2658160924911499
18	0xbfd7520880000000	-0.36438190937042236
19	0xbfb5e70380000000	-0.08555623888969421
20	0xbfc4ff4bc0000000	-0.16404101252555847
21	0xbf8a2da400000000	-0.012782365083694458
22	0x3fd9654240000000	0.3968053460121155
23	0x3f93ab9800000000	0.01920926570892334
24	0xbfda0d1c40000000	-0.4070501923561096
25	0xbfc2a88114767ef3	-0.14576734065212058
26	0x3fd51f8db88ff6ae	0.33005087875049355
27	0x3fd70e3e3d0eadd1	0.36024433100348313
28	0x3fbb70c1f17fd6ad	0.10718929429989528
29	0xbfd6f1924f5b6f53	-0.3584943556759203
30	0xbfca15610f32bc2f	-0.20377743951891733
31	0xbfd178bef65846e1	-0.27299474770653204
32	0x3fd2783faeb77fa3	0.28858940183817533
33	0x3fd1249ae9c1eda1	0.26785919978984835
34	0x3fda6f3742ab50b4	0.41303807745613175
35	0x3fd7ec50c0000000	0.37379854917526245
36	0xbfda694480000000	-0.41267502307891846
37	0xbfb6651080000000	-0.0874796211719513
38	0xbfd48f5840000000	-0.3212490677833557
39	0x3fb6020000000000	0.085968017578125
40	0x3fca5b6a36bb2a21	0.20591476128022726
41	0xbfce06106ca1a13c	-0.23456006340280477
42	0x3f846560b66852c1	0.009958987776408692
43	0x3fc1181dbc5731f2	0.13354846664732595
44	0x3fd120a741899090	0.26761800193913476
45	0x3fd50d6339e3b438	0.32894211438435006
46	0x3f9613301eac3b41	0.021557571289174907
47	0x3fb381814c5134ed	0.07619484055722454
48	0xbfd7c1eeb39c0cb8	-0.37121169605252247
49	0x3fc1703592b527bb	0.13623685515841352
50	0xbfd8d19257840ef3	-0.38779123827428846
51	0xbfc5cc3837b100dc	-0.17029478759105288
52	0x3fd0d77e101907cb	0.2631526143269382
53	0xbfb23eb69f7b8545	-0.07126943009963778
54	0x3fa86bd43f4504bc	0.047697670672741194
55	0x3fd24a4bfb84d0f6	0.28578471720108156
56	0x3fc82dc044a0bf80	0.18889621115658528
57	0x3f7dabf33bd8d723	0.007244062549536942
58	0x3fd56703204f7134	0.33441236644081873
59	0x3f9120d0d4081db3	0.0167267445958978
60	0xbfc448db80000000	-0.1584734320640564
61	0x3fba708500000000	0.10327941179275513
62	0xbfd6b83380000000	-0.35499274730682373
63	0x3fd3168c80000000	0.29825127124786377
64	0xbfc9870540000000	-0.19943299889564514
65	0xbfd4fa4103ad10a3	-0.3277742896937161
66	0x3fc88f7746597974	0.1918782323363747
67	0x3fd9f30320ccccd6	0.40545728877186826
68	0xbf80df77c24efef8	-0.008238731019332132
69	0x3fd1afa118ad9e23	0.27634456071834473
70	0xbfd5c7dfd2596163	-0.3403243593397944
71	0x3fd078c629b08f08	0.25737146445520453
72	0xbfbba3dd9010316f	-0.10796913878602309
73	0x3fa2268b440fdc0d	0.03545031743845337
74	0xbfb0210754f21ee2	-0.06300397704955743
75	0xbfd204caa0000000	-0.28154245018959045
76	0xbfd90499c0000000	-0.39090579748153687
77	0xbfd1fa7e40000000	-0.2809138894081116
78	0x3fd95630c0000000	0.3958856463432312
79	0x3fc04c8800000000	0.1273355484008789
80	0x3fcae190e574bbe5	0.21000872806459295
81	0xbfa776d3cea4d76b	-0.045828455901228825
82	0x3fcb7d10b5c79e8b	0.21475418926205622
83	0xbf4fedc29c7c7a7c	-0.0009743881464350924
84	0x3fc1f3368c595efe	0.14023477414115598
85	0xbfa1907c393afd68	-0.034305459962974905
86	0x3fd6fa1ef30ee7d8	0.3590161679854851
87	0x3fc2178bc401ee2b	0.14134356566124615
88	0x3fc2fe1029968825	0.14837839155831137
89	0x3fd014ea6cb0c3a9	0.2512765942984126
90	0x3fcd812080000000	0.2305031418800354
91	0xbfc6dee0c0000000	-0.17867669463157654
92	0xbfdb4c6980000000	-0.4265388250350952
93	0x3fa7d42d00000000	0.046540647745132446
94	0xbfd2233d80000000	-0.28340089321136475
95	0x3fb95ae7d95b8925	0.09904336029606904
96	0x3faa197fafc8a37a	0.05097579022214567
97	0x3fbca09b0fa7c486	0.11182564861498365
98	0x3fd1ed2354426f7a	0.2800987551543056
99	0xbfc8baaad1d4de15	-0.19319663282088642
100	0x3fdd2dcc3cf36443	0.45592027618619485
101	0xbfd948afacd85aea	-0.395061415475921
102	0xbfd373a5e17d9fbe	-0.30393359203889847
103	0x3fc733ba1ff000c5	0.18126608428429428
104	0xbfb168a88b7d214b	-0.06800321012008685
105	0x3fc9b45f80000000	0.2008170485496521
106	0xbfcdd7d000000000	-0.23314857482910156
107	0xbfaae2ed00000000	-0.052512556314468384
108	0xbfc343f100000000	-0.15051090717315674
109	0xbfd027f300000000	-0.2524383068084717
110	0x3fdb511f40000000	0.4268262982368469
111	0xbfc98f40e0000000	-0.1996842473745346
112	0xbfd3d18280000000	-0.30966246128082275
113	0xbfda45af40000000	-0.41050320863723755
114	0xbfda46c9a0000000	-0.41057053208351135
115	0x3fc5ace78e42068b	0.16933912702738882
116	0x3fd1b02523770739	0.276376042016739
117	0xbfb8647a05b6fb29	-0.09528315200348615
118	0xbfdff72e8eaa84f1	-0.4994617837165399
119	0x3fc1451502c030b5	0.1349207175666202
120	0xbfbded0f00000000	-0.11689847707748413
121	0xbfd8b6bce0000000	-0.3861534297466278
122	0x3fd8779a80000000	0.3823000192642212
123	0x3fc1621480000000	0.1358056664466858
124	0xbfcf462520000000	-0.24432815611362457
125	0xbfcdc5bd3275c7b8	-0.2325970169436553
126	0x3fc12cb0db654f1a	0.13417635643656284
127	0xbfd2452d9aebc484	-0.28547229889870374
128	0x3fd18ef270088ef7	0.2743497938229064
129	0xbfd1b3e2e71eea63	-0.2766043908156119
130	0x3fd6de8e00000000	0.3573336601257324
131	0xbfbd75e580000000	-0.11508020758628845
132	0x3fb55c7700000000	0.08344215154647827
133	0xbfdbb0c0c0000000	-0.4326631426811218
134	0xbfb32a1280000000	-0.07486072182655334
135	0xbfb02ea600000000	-0.06321179866790771
136	0xbfc009dd40000000	-0.1253010332584381
137	0xbfaf07b000000000	-0.060605525970458984
138	0xbfb2adbd80000000	-0.07296356558799744
139	0x3fd42570c0000000	0.3147851824760437
140	0x3faf7f2c4362bf35	0.06151712725238526
141	0xbfc9a373317eceb8	-0.2003005973507379
142	0x3fd06917e2bbed16	0.25641438619614243
143	0x3fc4402ea0847e31	0.15820868337412855
144	0xbfd28017c64549bd	-0.28906816828125753
145	0xbfc1f1d900000000	-0.14019310474395752
146	0xbfbf608880000000	-0.12256672978401184
147	0x3fd6096880000000	0.3443242311477661
148	0xbf8bff2800000000	-0.013670265674591064
149	0x3fc1659000000000	0.1359119415283203
150	0xbfc3e10e80000000	-0.1553056836128235
151	0x3fcb704080000000	0.21436315774917603
152	0xbfb8635e00000000	-0.09526622295379639
153	0x3fc8a01500000000	0.19238531589508057
154	0x3fa1f78d00000000	0.035091787576675415
155	0x3fc8d98180000000	0.19413775205612183
156	0x3f9103a400000000	0.016615450382232666
157	0xbfd4bdf880000000	-0.32409489154815674
158	0xbfd96889c0000000	-0.39700549840927124
159	0xbfd1d09740000000	-0.2783563733100891
160	0x3fb1337399ad557b	0.06719133855707142
161	0x3fc4411b0e8e6d3b	0.15823686800727352
162	0xbfcdebdf0655404f	-0.2337607174799836
163	0x3fce308fc0cd3f54	0.23585698045871573
164	0x3fd501767115dc92	0.32821427386756696
165	0x3fc3367bbfa7bf1a	0.1501002012077997
166	0xbfd3a55cacfb8b1a	-0.3069678963931196
167	0x3facf561b87fa1aa	0.05655961396388716
168	0x3fccc02e725a2928	0.22461491187670757
169	0x3fd8e2f3494c830d	0.38885194929211836
170	0xbfd191cb00000000	-0.2745234966278076
171	0x3fadf6f400000000	0.0585247278213501
172	0xbfc0a04500000000	-0.129891037940979
173	0x3fcb790000000000	0.214630126953125
174	0x3fac667c00000000	0.055469393730163574
175	0xbfd8793520000000	-0.38239791989326477
176	0xbfb4eae080000000	-0.08170893788337708
177	0x3f9fbf0800000000	0.031002163887023926
178	0xbfd7095e00000000	-0.35994672775268555
179	0xbfd9241620000000	-0.3928275406360626
180	0x3fda2d33e4fe1927	0.40900895464473525
181	0xbfbb86ef8891a5b5	-0.1075277050419093
182	0xbfd64462e9b69c39	-0.34792397330824404
183	0x3fa226253a503217	0.035447276466673276
184	0x3fcd2b3bc83a9eff	0.22788188244634708
185	0x3fd5c4eb16996934	0.3401439400382913
186	0x3fb27e52f972959c	0.07224005308179077
187	0x3fcd2e6a24cccc2d	0.22797896191477332
188	0x3fd1c3f6d2b59d40	0.2775857026776585
189	0x3fd8a0d87b403930	0.38481723819940594
190	0x3fd0ebbb9f4d02ea	0.26438799435349714
191	0xbfc085330e0b8aca	-0.12906492410464515
192	0xbfd10578ef4b91e7	-0.26595900887175933
193	0xbfc8dbaac684153b	-0.19420370762979097
194	0xbfbb095ff6f1b643	-0.10561179903899025
195	0xbfd6643cf1d57a25	-0.34986804596511184
196	0xbfd8f9b6bbc43ba4	-0.39024132095885933
197	0x3fda4bf962d2b41d	0.4108870949810937
198	0xbfc9b9ad0f329aa9	-0.200978882237185
199	0x3fcfec30c5feb360	0.24939546268196988
200	0x3fd9f7b24b5b6df0	0.40574319228264155
201	0xbfbf707c5ebc2c92	-0.122810147408176
202	0xbfda235ba8c6e7fb	-0.4084080837452572
203	0x3fd6136fe73109c4	0.34493634774494475
204	0xbfbfab697822a2bf	-0.12370928938856716
205	0x3fb0fe1700000000	0.06637710332870483
206	0x3fc4448500000000	0.15834105014801025
207	0xbfc4852280000000	-0.1603129506111145
208	0xbfbd61bf80000000	-0.11477276682853699
209	0xbfd7ff0c60000000	-0.3749419152736664
210	0x3f98d4dc00000000	0.024249494075775146
211	0xbfc0415d40000000	-0.1269947588443756
212	0xbfcd6e9dc0000000	-0.22993823885917664
213	0x3fc5a90800000000	0.1692209243774414
214	0xbfb4ba4600000000	-0.08096730709075928
215	0x3fc1be348d27c3b7	0.13861710445737938
216	0xbf8e0e9991147cd7	-0.014676284542075297
217	0xbfdaabd35e9d5994	-0.4167374061556981
218	0x3fcb5aa062ec48fb	0.21370320158218434
219	0xbfc16ed00b06e184	-0.13619423426076704
220	0xbfb971cffd6d18d4	-0.09939289033090698
221	0x3fdca0ef3b9706a6	0.44732266253786646
222	0x3fda56efa0604d47	0.41155615483986135
223	0x3fd40427b7e2400b	0.31275361020470943
224	0xbfd529b56a63fc7d	-0.33067069425300827
225	0xbfd52ee940000000	-0.33098822832107544
226	0xbf9d5cde00000000	-0.028674572706222534
227	0xbfd7980b40000000	-0.3686550259590149
228	0x3fd989d640000000	0.3990378975868225
229	0x3fcdf8a380000000	0.23415035009384155
230	0x3fccab591bcc7bd2	0.2239791284309534
231	0xbfce4fd31921c018	-0.23681105353489396
232	0x3f86bbae03935430	0.011100158199420646
233	0x3fd27ff6d03f83a6	0.289060309760368
234	0x3fc56c9357a9422e	0.1673759630234754
235	0x3fbaca8b05208a8e	0.10465306162999807
236	0x3fd4a6018ec97da9	0.3226322073369042
237	0x3fb6a64d10668820	0.08847505236056508
238	0x3fd8ff25a29b5f1e	0.39057293777067226
239	0xbfb26c93e2dc041a	-0.07196926392136085
240	0x3fa28f6cb146833f	0.03625049270636404
241	0x3fd109cbb290a18b	0.2662228816793905
242	0x3fd843282392d633	0.37909892534239303
243	0x3fc99a0ba2ad73fe	0.20001359408607294
244	0x3f783670ebae0dae	0.005911294075193236
245	0x3fb2078500000000	0.07042723894119263
246	0xbfb9034f00000000	-0.09770673513412476
247	0xbf9bdd8c00000000	-0.027212321758270264
248	0x3fcd0ced80000000	0.2269570231437683
249	0xbf89036800000000	-0.012213528156280518
250	0x3fb883ab73822b21	0.09575912065535565
251	0xbfd86ef8296b6bec	-0.38177303357014014
252	0xbfd8dda324f25c26	-0.3885276661689566
253	0xbfac578c29c81c6b	-0.05535543451338117
254	0xbfd67a3672140320	-0.351209269909349
255	0x3fc35d86e791541a	0.1512917166425332

fc1.bias f8 [64]
0	0xbfd01ca1791124e6	-0.2517474825186369
1	0x3fc4dbbe80000000	0.16295605897903442
2	0x3fca05d89d79f408	0.20330341042782174
3	0x3fb083fe00000000	0.06451404094696045
4	0xbfd8a4e500000000	-0.38506436347961426
5	0xbfc45093c6e4d3bc	-0.1587090226327329
6	0xbfc8b2fd2c6c0e4c	-0.19296230954215543
7	0xbfd18a4b60000000	-0.2740658223628998
8	0xbfd954ab16afc64d	-0.3957927438305873
9	0xbfa0872e78a814eb	-0.032281353214821916
10	0x3fb0e7a25ac9dce6	0.06603445736424227
11	0xbfb3ac73ac9a8e70	-0.0768501564403381
12	0xbfca1b0d40000000	-0.20395055413246155
13	0xbfd09ea0d4c4e41a	-0.25968189981682743
14	0xbfb5e5055d026971	-0.08552583237397983
15	0x3fcb36a380000000	0.21260493993759155
16	0xbfc4548b3cb3eac3	-0.15883007492069198
17	0xbfa34baced29668c	-0.03768673319855251
18	0xbfcc602f40000000	-0.22168532013893127
19	0xbfcd386990ee3060	-0.2282840688388914
20	0x3f56d06fa268dd18	0.0013924684696016761
21	0x3fac574a00000000	0.05535346269607544
22	0x3fa63d9800000000	0.04343867301940918
23	0xbfbccf55bca4ef82	-0.11253867965291245
24	0xbfd06eaee0000000	-0.2567555606365204
25	0x3fd14af76bb1bc31	0.2702005912496502
26	0xbfd7cf8cc0000000	-0.37204283475875854
27	0xbfcff34560000000	-0.24961154162883759
28	0xbfcf748612486d7f	-0.24574352162094823
29	0xbfd5b36b80000000	-0.3390759229660034
30	0xbfd4fb0ea0000000	-0.32782331109046936
31	0xbfc40220c0000000	-0.1563149392604828
32	0xbfc16484fdf991ae	-0.13588011170498987
33	0xbfdc6992a4989841	-0.4439436538108375
34	0xbfc13cbd80000000	-0.13466614484786987
35	0xbf73036000000000	-0.004641890525817871
36	0xbfac9025fd848387	-0.05578726501176506
37	0x3fd0ddb164ac06ce	0.2635310633778375
38	0xbfbb1b8f279fb12f	-0.10588926999452462
39	0x3fa963d9526e2aa3	0.049589911758706216
40	0xbfb871406ecd2f75	-0.09547808365931394
41	0xbfca783ce0000000	-0.2067943662405014
42	0x3fa0047f00000000	0.03128430247306824
43	0x3fd458bf7cf56345	0.31791674807532316
44	0x3fd2c608a11e7153	0.2933370183398171
45	0x3fb1400d00000000	0.06738358736038208
46	0xbfde81417711e2dd	-0.47663914325634754
47	0xbf89de7ffc0f702a	-0.012631416206140573
48	0xbfbc83cdf19390c9	-0.11138617656576168
49	0xbfdc691be0000000	-0.44391533732414246
50	0x3fd7df79fd3317d8	0.3730149243023084
51	0x3fdbab981c808ca2	0.4323482778874653
52	0x3fb57ab5daac9e69	0.08390366162040554
53	0xbfd0b5b420000000	-0.26109030842781067
54	0xbfd49eebe0000000	-0.3221997916698456
55	0x3fab82d600000000	0.05373257398605347
56	0xbfd07a03a63c144c	-0.25744715913635186
57	0x3fbc5a9db4f50ead	0.11075769107724893
58	0xbfd27f1a80000000	-0.2890077829360962
59	0xbfd9e8f8e52b505d	-0.4048444974880619
60	0xbfd0c8c900000000	-0.2622549533843994
61	0xbfc9b9cfa7d95940	-0.20098300643685185
62	0xbfcd5bd8a4c16828	-0.22936542553617412
63	0x3fd962b3e27c4393	0.3966493331691307

fc2.weight f8 [128, 64]
0	0x3fc4c0c537ab3c7e	0.16213288515288932
1	0x3fa8d37b80000000	0.04848848283290863
2	0xbfb66c09dcea6684	-0.08758603709648055
3	0x3fb540ed80000000	0.08302196860313416
4	0xbfb3f9a7c0000000	-0.07802818715572357
5	0xbf97fe5f8351ae86	-0.02343129385955802
6	0xbfb7d632245286c7	-0.09311211954857433
7	0x3fb5832ec0000000	0.08403293788433075
8	0x3f78b398705f76a2	0.006030650582003057
9	0xbfba63c37927e08a	-0.1030847712316946
10	0x3fbbff21a44f0735	0.10936174642031633
11	0xbf7a9d2e74006cda	-0.006497556169075847
12	0x3fa762e000000000	0.045676231384277344
13	0x3fbcd082291ebe7e	0.1125565863028388
14	0x3faad510697c3f90	0.052406800152424826
15	0xbfbd6edd80000000	-0.11497291922569275
16	0x3fb1522ba942605c	0.0676600731115981
17	0xbfad74e2d7209d75	-0.05753239513461043
18	0xbfb9da7e80000000	-0.10099020600318909
19	0x3fb264498cf73622	0.07184276286644622
20	0xbfb86eeccf2176ae	-0.09544258171942019
21	0x3fbfe46200000000	0.12457859516143799
22	0xbfb16f1700000000	-0.06810134649276733
23	0xbfb7714f06112413	-0.09157270334357319
24	0x3fab41db80000000	0.05323682725429535
25	0xbfa865618195489c	-0.04764847475839071
26	0xbfbe08a700000000	-0.11731952428817749
27	0x3fbc932d80000000	0.11162075400352478
28	0xbfa0e693d95ef2ae	-0.033009166988880664
29	0x3fbeee6740000000	0.12082524597644806
30	0xbf9a2eab00000000	-0.025568649172782898
31	0x3fa09e0880000000	0.032455697655677795
32	0x3fb814016431a9e6	0.09405525871412798
33	0x3fb19f3d5765f965	0.06883605369327979
34	0x3fafd07f00000000	0.06213757395744324
35	0x3fb45ad740000000	0.0795111209154129
36	0x3f968458cea58aca	0.021989238369665633
37	0x3fc16e8c8e4721db	0.1361861891475787
38	0xbfb25c936427f22d	-0.07172509379592702
39	0x3f85fd947c54face	0.010737571758565958
40	0xbfc17fb88fc0ffc2	-0.13671023387177966
41	0xbfb8bca940000000	-0.09662874042987823
42	0xbfac6f6780000000	-0.055537447333335876
43	0xbfb726f6d72969de	-0.09043829682324353
44	0x3fc0511e32b57cc0	0.12747552371999937
45	0x3f9bd51400000000	0.027180016040802002
46	0x3fb9dff311910886	0.10107344797964588
47	0x3fc214f5b8fcabfe	0.1412646439797242
48	0xbfa8a39d742680b1	-0.04812328379489495
49	0xbfbe851040000000	-0.1192178875207901
50	0x3faa32de9c5a7074	0.05116935404404979
51	0x3fb70f919cea52b0	0.09008131104412587
52	0x3fc0d52d5c308ed2	0.1315056514878195
53	0xbfa35c3900000000	-0.0378129780292511
54	0x3fa6a6c280000000	0.04424102604389191
55	0xbfb2f88300000000	-0.07410448789596558
56	0xbfa3efdbb9c72fca	-0.038939348628985807
57	0xbf7e86c63d967fd6	-0.00745274961209926
58	0xbfaf5fbb00000000	-0.06127724051475525
59	0x3fc41ead68fc1144	0.15718619943812417
60	0x3f959b3100000000	0.021099820733070374
61	0xbfa593631b4a03a3	-0.042140099602881585
62	0x3fc037a03090a223	0.12669756289803144
63	0xbf818b54c5831984	-0.008566534307089986
64	0x3fc21c379cd86d02	0.14148612173526237
65	0x3fa8580e00000000	0.04754680395126343
66	0x3fb548c277f52a5f	0.08314147404340975
67	0xbfbd74b280000000	-0.11506190896034241
68	0x3fb93d1500000000	0.09858828783035278
69	0x3fc135768c19a1da	0.13444406357599697
70	0x3fb391016f2193dc	0.07643135989344735
71	0xbfa0285e00000000	-0.03155797719955444
72	0xbfbb5b5e781ac56c	-0.10686293060532187
73	0x3fc1993ff633cada	0.13748931428525318
74	0x3f8e153eeb1b9f6f	0.014688960599826576
75	0x3fc20259961543d4	0.14069671467089384
76	0xbfb1ff7000000000	-0.07030391693115234
77	0x3faaff3705c54172	0.052728385404978165
78	0xbf8383468fdd8ece	-0.009527732148576187
79	0xbfad186900000000	-0.05682685971260071
80	0x3fbd4140be188d8e	0.1142769302464812
81	0x3fbcf4dabbf73866	0.11311118210798696
82	0x3f91da6200000000	0.017434626817703247
83	0x3fc270e1f2f994ac	0.1440699039841652
84	0xbfb49c04adcbdaa7	-0.08050564997743469
85	0x3fbf7b6200000000	0.12297642230987549
86	0xbfbea010c0000000	-0.11962990462779999
87	0x3fa226f137edf2b1	0.035453355862931864
88	0x3fa8fdea80000000	0.048812225461006165
89	0x3f941802a6eaaf63	0.019622842252530314
90	0xbfb331e240000000	-0.07497991621494293
91	0x3f8952cc00000000	0.012364953756332397
92	0xbfbe5d02e7e3e9f7	-0.11860674058326724
93	0xbfba802540000000	-0.10351784527301788
94	0x3fbb5a2000000000	0.10684394836425781
95	0x3fb5a48ac0000000	0.08454196155071259
96	0x3fb15599a51f8ad8	0.06771240502670695
97	0x3f6970e77733acf2	0.0031055947125558864
98	0xbfb0e51480000000	-0.0659954845905304
99	0x3fb1cbd7c0000000	0.06951664388179779
100	0xbfc0727fb2af7cd4	-0.1284942266929422
101	0xbf8b9d91aa35ab09	-0.013484132773290651
102	0xbfac7506c232e7a2	-0.05558034058181184
103	0xbf941dbb6ea5eac5	-0.01964466917841425
104	0xbfc47f7c87abc817	-0.160140577550522
105	0xbf98a68200000000	-0.02407267689704895
106	0x3fab0b7e00000000	0.0528220534324646
107	0xbfb0ed351ab1efb8	-0.06611949826941454
108	0x3fc0ad118803826d	0.13028163090986614
109	0xbf9d050800000000	-0.028339505195617676
110	0xbfb2ccf56cc4d746	-0.07343992143145525
111	0x3f820ed75105c1c2	0.00881736961375246
112	0x3fb6aaa949c12646	0.08854158449789748
113	0xbf95a92b00000000	-0.02115313708782196
114	0xbfb4f51d6fe8d5c9	-0.08186515791097472
115	0xbf9115a76aa449e2	-0.01668416584386446
116	0x3fb75b37aa92e76a	0.09123561777496794
117	0xbf517af000000000	-0.0010669082403182983
118	0x3fa4d55700000000	0.04069015383720398
119	0xbfa3228880000000	-0.03737284243106842
120	0x3fb3b3a468b98a8d	0.07695987278706636
121	0x3fbaadb740c45a4f	0.10421319323754939
122	0x3f99621900000000	0.024788275361061096
123	0xbf94dc0b4faa45eb	-0.02037065194833147
124	0x3fb362ef40000000	0.07572837173938751
125	0xbfa5070a5f18a750	-0.041069339855609344
126	0xbf982bffcd2835d5	-0.023605343720239553
127	0xbfac1049f71ecb5d	-0.05481177465062246
128	0x3faa422180000000	0.05128578841686249
129	0x3fbd5c6bc0000000	0.11469148099422455
130	0x3faccf1900000000	0.05626752972602844
131	0xbf957f9100000000	-0.020994439721107483
132	0xbfa7421f00000000	-0.04542633891105652
133	0x3f990aeb00000000	0.024455711245536804
134	0x3f98444800000000	0.023697972297668457
135	0xbf9f04c200000000	-0.030291587114334106
136	0x3fbdb363c0000000	0.11601851880550385
137	0x3fbda7a980000000	0.11583957076072693
138	0x3f8d86bc00000000	0.014417141675949097
139	0xbfa2c37980000000	-0.036647602915763855
140	0x3fbf4a42c0000000	0.12222687900066376
141	0x3fb7b0cb00000000	0.0925413966178894
142	0x3f8555da00000000	0.010417655110359192
143	0x3fbdbc1740000000	0.11615128815174103
144	0xbfb7e5e940000000	-0.09335191547870636
145	0x3f67e92800000000	0.0029187947511672974
146	0x3fae3b8a80000000	0.059048011898994446
147	0x3f8274f800000000	0.009012162685394287
148	0xbfbb640840000000	-0.1069951206445694
149	0x3faa555d80000000	0.0514325350522995
150	0x3f85d2bc00000000	0.010655850172042847
151	0x3fa4ea7100000000	0.04085114598274231
152	0xbfabe73200000000	-0.054498255252838135
153	0xbfa4c6ed00000000	-0.040580183267593384
154	0xbfb3c8cd40000000	-0.07728274166584015
155	0xbfa1ce2b80000000	-0.034776076674461365
156	0x3f7ba5f800000000	0.00675007700920105
157	0x3fa6613d00000000	0.0437106192111969
158	0xbf9b64d400000000	-0.026751816272735596
159	0xbf792b2400000000	-0.006144657731056213
160	0x3f81be0800000000	0.00866323709487915
161	0xbf9502f900000000	-0.020519152283668518
162	0x3fb4800600000000	0.08007848262786865
163	0xbf8f40ae00000000	-0.015260085463523865
164	0x3fb4a106c0000000	0.08058206737041473
165	0xbfaf20c880000000	-0.06079699099063873
166	0x3fb8585580000000	0.0950978696346283
167	0x3fa926a300000000	0.049122899770736694
168	0x3f9798ee00000000	0.023044317960739136
169	0x3f8bff3600000000	0.013670369982719421
170	0x3f94cc5900000000	0.020310774445533752
171	0x3fbc160380000000	0.10971090197563171
172	0x3fbb755100000000	0.1072588562965393
173	0x3fbd85b480000000	0.11532142758369446
174	0xbfaaae8100000000	-0.05211260914802551
175	0x3fba411c80000000	0.1025560200214386
176	0xbfb9a50b80000000	-0.10017463564872742
177	0xbfbe7b8480000000	-0.11907222867012024
178	0x3fba74a7c0000000	0.10334251821041107
179	0xbfb5fcbf80000000	-0.08588787913322449
180	0xbfa6d1cc80000000	-0.044569388031959534
181	0xbfbc571400000000	-0.11070370674133301
182	0x3fb6f6a680000000	0.0897010862827301
183	0xbf9e245700000000	-0.029435500502586365
184	0xbfa3e07580000000	-0.038821861147880554
185	0x3f8141b400000000	0.008426100015640259
186	0xbfb89c81c0000000	-0.0961381047964096
187	0x3fb2d22ec0000000	0.07351963222026825
188	0x3fb3c338c0000000	0.0771975964307785
189	0xbfb20ac3c0000000	-0.07047675549983978
190	0x3f92dde100000000	0.01842452585697174
191	0xbfaf727a00000000	-0.0614202618598938
192	0xbfbaeeee80000000	-0.10520830750465393
193	0x3f9014a600000000	0.01570376753807068
194	0xbfb4136400000000	-0.07842087745666504
195	0x3f9ba8f800000000	0.027011752128601074
196	0xbfa12c6f80000000	-0.03354214131832123
197	0xbfaeeca600000000	-0.06039923429489136
198	0x3fb1aa3200000000	0.06900322437286377
199	0xbfb65e8300000000	-0.08737963438034058
200	0xbf93a39d00000000	-0.01917882263660431
201	0xbfba8706c0000000	-0.10362283885478973
202	0x3f919cbe00000000	0.01719948649406433
203	0x3fbbd5a300000000	0.10872858762741089
204	0x3f79fdb800000000	0.006345480680465698
205	0xbfbb8dec00000000	-0.10763430595397949
206	0xbfb44831c0000000	-0.07922659814357758
207	0xbfb2776580000000	-0.0721343457698822
208	0x3fb23cd140000000	0.07124049961566925
209	0x3fb3b74080000000	0.07701495289802551
210	0xbfae427800000000	-0.05910086631774902
211	0x3fa28d5700000000	0.03623458743095398
212	0x3f619f5800000000	0.002151176333427429
213	0x3f73bb3400000000	0.004817202687263489
214	0xbfb3cd0480000000	-0.07734706997871399
215	0x3fbc710040000000	0.1110992580652237
216	0x3f97631400000000	0.022838890552520752
217	0x3fb3de43c0000000	0.07761023938655853
218	0xbfa6932300000000	-0.04409131407737732
219	0x3fa7c4fd80000000	0.04642479121685028
220	0xbfb4dab480000000	-0.08146217465400696
221	0x3fb8681b80000000	0.09533855319023132
222	0x3fb275f340000000	0.07211227715015411
223	0xbf82cb1e00000000	-0.009176477789878845
224	0xbfb32057c0000000	-0.07471226155757904
225	0xbfb7b31a40000000	-0.09257663786411285
226	0x3f708bb400000000	0.004039481282234192
227	0xbfaab8b680000000	-0.052190497517585754
228	0x3f9194ab00000000	0.017168685793876648
229	0xbfb9bb9e40000000	-0.1005190759897232
230	0x3fbb961140000000	0.10775859653949738
231	0xbfbb4b4000000000	-0.10661697387695312
232	0x3f6c101000000000	0.0034256279468536377
233	0xbfb0e3ccc0000000	-0.06597594916820526
234	0xbfa9867280000000	-0.04985387623310089
235	0x3fb4f39a80000000	0.0818420946598053
236	0xbfb4fbf580000000	-0.08196958899497986
237	0xbfb6676400000000	-0.08751511573791504
238	0xbfb14e3cc0000000	-0.0676000565290451
239	0xbfb8dcf040000000	-0.09712125360965729
240	0xbf824c2000000000	-0.008934259414672852
241	0xbf9fd30c00000000	-0.0310785174369812
242	0x3f9f394800000000	0.030491948127746582
243	0x3fae50f280000000	0.059211328625679016
244	0x3fafb76000000000	0.06194591522216797
245	0x3fbabe4440000000	0.10446573793888092
246	0x3f5befe000000000	0.0017051398754119873
247	0x3fa71d8700000000	0.04514715075492859
248	0x3fb5343680000000	0.08282795548439026
249	0x3fa011d480000000	0.031386032700538635
250	0xbf9988c200000000	-0.024935752153396606
251	0xbf98b29700000000	-0.02411876618862152
252	0xbf7c8e0c00000000	-0.006971403956413269
253	0x3fa2e5a580000000	0.036908313632011414
254	0xbfb98cf900000000	-0.09980732202529907
255	0xbfba360300000000	-0.10238665342330933

fc2.bias f8 [128]
0	0xbf95b7ba6eb69a9f	-0.02120868015995347
1	0x3faa4607f7ffe359	0.05131554510439313
2	0xbfb86d1880000000	-0.0954146683216095
3	0x3f8b1b0a00000000	0.013235166668891907
4	0xbf953e42bc06da85	-0.020745318151706122
5	0x3f93870fef39554c	0.0190699090729443
6	0xbfb0fed840000000	-0.06638862192630768
7	0xbfa6a78280000000	-0.044246748089790344
8	0xbfb29ee640000000	-0.07273711264133453
9	0xbfa66ae0d7018459	-0.04378416657051138
10	0xbf8efb3200000000	-0.015127554535865784
11	0x3f6f120800000000	0.00379277765750885
12	0x3faaa5272bd43542	0.05204126749058925
13	0xbfc1fb37e0829695	-0.14047907316596722
14	0x3f9c69f0f58a353a	0.027747883783878914
15	0xbfb7c81670969a96	-0.09289684532869055
16	0x3fc00c9dc5e5610d	0.12538501894847123
17	0xbfc4c8ced51a9bb6	-0.16237817197290177
18	0x3fa89659f24ad7b6	0.04802208979292237
19	0xbfbc2679c0000000	-0.1099620908498764
20	0xbfa8246400000000	-0.04715263843536377
21	0x3fb536c1e728685f	0.08286678212644592
22	0xbf8edcceb631f7f0	-0.01506959432139962
23	0x3fa8990e00000000	0.04804271459579468
24	0x3fc2f6a74a07cd1a	0.1481522666432305
25	0xbfa1125180000000	-0.0333428829908371
26	0xbf932d2e1ec12068	-0.01872703612050977
27	0xbf67bf4c3794426c	-0.0028988350501395945
28	0x3fb24c2887dd624d	0.07147458378802547
29	0xbfc1219b15625704	-0.13383806747577165
30	0xbf9d772f39054fdd	-0.02877496514822996
31	0x3f9bc1aabfd1af36	0.02710596843500853
32	0xbfad99bd00000000	-0.057813555002212524
33	0xbf99fefd1a1f94b1	-0.025386767119830626
34	0x3fadcc64543597c9	0.05820001151987204
35	0x3f6426f83268fef5	0.0024599883647907724
36	0xbfa5aca3cfe85edd	-0.04233276284156571
37	0xbfb2fcad80000000	-0.07416805624961853
38	0xbfa18a6280000000	-0.03425891697406769
39	0xbfa2f76400000000	-0.03704369068145752
40	0xbfbdf5c2ea09a4f4	-0.11703127111254102
41	0xbfc317121b2e4055	-0.1491415627210723
42	0x3fc06cf48b5ee3b9	0.1283250504036724
43	0x3fa0c7f700000000	0.03277561068534851
44	0xbfb83e8ec0000000	-0.09470455348491669
45	0x3fa0204d390a9c09	0.031496442044321844
46	0xbfc43f1091c8b8c2	-0.15817458265650514
47	0xbf8bd6169b83e3f8	-0.013591934796282942
48	0xbfb6821a06bfc201	-0.08792269387027575
49	0x3fbf0f501cf27b12	0.1213274069473125
50	0xbfbdcfffc0000000	-0.1164550632238388
51	0xbf945fb700000000	-0.01989637315273285
52	0x3f9f37af1f88fec4	0.030485855388404884
53	0xbfa3544810734368	-0.037752391822897746
54	0xbfa3469dcbf3a4de	-0.03764813532490917
55	0x3f85a6fc00000000	0.0105724036693573
56	0xbfa176a5026eb7c9	-0.03410831122106079
57	0xbfa7fe8680000000	-0.046863749623298645
58	0xbf93c9d600000000	-0.01932463049888611
59	0xbfadd81b00000000	-0.05828937888145447
60	0xbfad58d490b96a97	-0.057318346659220136
61	0xbfb2110a80000000	-0.07057252526283264
62	0xbfb8bfb5daf1e739	-0.09667526812873185
63	0xbfaeb3a700000000	-0.059964388608932495
64	0xbfa6207d00000000	-0.04321661591529846
65	0x3fc21f1bf0e59958	0.14157437574903997
66	0xbf92c8b52c59731c	-0.01834376414477666
67	0x3fc25545ae8737ed	0.14322730085262894
68	0x3fab37037e71368e	0.05315409582599982
69	0x3fa8503c6a9c85c3	0.04748715211304557
70	0x3fac376db705eb0e	0.05511038645905418
71	0xbfb57cb4d6fb922c	-0.08393411873436979
72	0xbfad3bb500000000	-0.05709615349769592
73	0xbfa2c70eaf20c28c	-0.036674937131811
74	0x3fb75146c835abbf	0.09108393085413889
75	0x3fb1617ac3b83bb2	0.06789366987525972
76	0x3fb98fae6247604f	0.09984865092644778
77	0xbfa8b8ff80000000	-0.048286423087120056
78	0x3fb95dab14049fcf	0.0990855144378877
79	0xbf50129000000000	-0.0009809881448745728
80	0xbf61d52000000000	-0.002176821231842041
81	0x3fa435d200000000	0.039473116397857666
82	0xbfb4658143ad44c0	-0.07967384245172848
83	0xbfc139494446793e	-0.13456073602442048
84	0xbfbbf868c0000000	-0.10925917327404022
85	0x3f98aacf2b8ad1fa	0.02408908561001686
86	0xbfb832d6d0714d9a	-0.09452574337892941
87	0x3fa47a758e74a12e	0.039996789588544565
88	0x3f957238b941c512	0.020943533236679697
89	0x3fbc904fc0000000	0.11157701909542084
90	0xbfc121183cc7824f	-0.13382246940365625
91	0xbfc505b6f77eb743	-0.16423689923015602
92	0x3f8a8a4e00000000	0.012959107756614685
93	0xbfa7fb4699c3578d	-0.04683895709028638
94	0x3fae59db49f22b18	0.05927930143032806
95	0xbfb01840385cc7ad	-0.06287003875766457
96	0x3fb9cc4ab3c81699	0.10077349557112782
97	0xbfb7a19d00000000	-0.09230977296829224
98	0xbfb7622f400f692d	-0.09134192766160672
99	0xbfb459c06579bbab	-0.07949449994496997
100	0x3f7caf26c3b01529	0.007002974914035045
101	0xbfabefcdc210bda5	-0.054563932361243496
102	0x3fa36aee3b4a37b7	0.03792519067529503
103	0x3fa0432d5a5149ea	0.031762521052445994
104	0x3f8c5a6dceb66a97	0.013844354506365604
105	0x3fbeebcff21e8c4c	0.12078570996395505
106	0x3ef2a68036270800	1.7786401608217706e-05
107	0xbfc5778ac9fa9602	-0.16771063673256498
108	0x3f89fb4a00000000	0.01268632709980011
109	0x3fb1fd9764bfd38f	0.07027574739170304
110	0x3f9d6aa520b8a860	0.028727131006384687
111	0x3fc0add06ce3befc	0.1303043872535382
112	0xbfa5d63075e399a4	-0.04264975966525533
113	0xbfaf4a3700000000	-0.06111308932304382
114	0xbfb5566a63933c73	-0.0833498471358654
115	0x3f9f2d57b12525a8	0.030446405589179243
116	0xbfafb47476072a4e	-0.06192363682528833
117	0x3fabcaed3ecbc904	0.054282583156139125
118	0x3fa0289075c2a515	0.03155948102478071
119	0xbfbbf660b7ad517a	-0.10922817692091327
120	0x3fbb52ab5308e5cf	0.10673018243041742
121	0xbfb7b13140000000	-0.09254749119281769
122	0x3fb5f7a5b2604c6f	0.08581004719626305
123	0x3fb7956200000000	0.09212315082550049
124	0x3f9d09fa6dba87a2	0.028358376452736096
125	0x3fbde448775926d8	0.11676457322860345
126	0x3fac351671718889	0.05509252676780913
127	0xbf98febd00000000	-0.024409249424934387

fc3.weight f8 [64, 128]
0	0x3fb5b9f3a0000000	0.0848686471581459
1	0xbfa1e94460000000	-0.03498281165957451
2	0x3fb0e88020000000	0.06604767590761185
3	0x3f9249e600000000	0.01786002516746521
4	0xbf46bf0000000000	-0.0006941556930541992
5	0x3fb47dd360000000	0.0800449475646019
6	0x3f63761400000000	0.0023756399750709534
7	0xbfb0fc5980000000	-0.0663505494594574
8	0x3faa0559c0000000	0.050822071731090546
9	0x3f82c64300000000	0.009167216718196869
10	0xbfb3fa9880000000	-0.07804253697395325
11	0x3fadf818c0000000	0.058533452451229095
12	0xbf9a6c5b80000000	-0.025803975760936737
13	0xbfadb39520000000	-0.058010730892419815
14	0x3f7256fa00000000	0.004477478563785553
15	0x3f996e9e00000000	0.024836033582687378
16	0xbf9ff52040000000	-0.031208518892526627
17	0x3f81c54800000000	0.008677065372467041
18	0xbf999e2200000000	-0.02501729130744934
19	0xbfb6614120000000	-0.0874214842915535
20	0xbfb4a3e6c0000000	-0.08062593638896942
21	0xbfae678ba0000000	-0.05938373878598213
22	0xbf9ec95d80000000	-0.03006502240896225
23	0x3f698b7000000000	0.0031182467937469482
24	0xbf7d72ee00000000	-0.0071896836161613464
25	0xbfb09a27e0000000	-0.06485223025083542
26	0x3f9dff0500000000	0.029293134808540344
27	0x3faec7ddc0000000	0.06011860817670822
28	0xbfb1ae6ba0000000	-0.06906769424676895
29	0x3fa48d1b40000000	0.040139056742191315
30	0x3fb04bfda0000000	0.06365952640771866
31	0x3f8e1fc400000000	0.014709025621414185
32	0xbfa0b415a0000000	-0.032623935490846634
33	0x3f818acd00000000	0.008565522730350494
34	0xbf8da82400000000	-0.01448085904121399
35	0xbfb102bd60000000	-0.06644805520772934
36	0xbf97d65780000000	-0.02327858656644821
37	0xbfa371c5a0000000	-0.03797738626599312
38	0xbf9a6cce80000000	-0.02580568939447403
39	0xbf739fd200000000	-0.004791088402271271
40	0x3f91104c80000000	0.01666373759508133
41	0x3fa4753440000000	0.03995669633150101
42	0x3fb58ab5a0000000	0.08414778858423233
43	0x3fa520b240000000	0.04126507788896561
44	0x3f8f851b00000000	0.01539059728384018
45	0xbf85582e00000000	-0.010422095656394958
46	0xbfa41e67c0000000	-0.03929447382688522
47	0xbfb0b1f860000000	-0.06521560996770859
48	0xbf9fd7c3c0000000	-0.03109651431441307
49	0x3fa57829c0000000	0.041932396590709686
50	0x3fabc306c0000000	0.05422230809926987
51	0xbf9be6b580000000	-0.027247272431850433
52	0x3fb1f7a360000000	0.07018490880727768
53	0x3f8b5a8e00000000	0.013356313109397888
54	0x3fb54c6220000000	0.08319676667451859
55	0x3fa0ae8000000000	0.032581329345703125
56	0x3faf82bb40000000	0.061544276773929596
57	0xbf96368500000000	-0.021692350506782532
58	0xbfb4a473c0000000	-0.08063434064388275
59	0xbfa6a3fd00000000	-0.04421988129615784
60	0x3f81f9c200000000	0.008777156472206116
61	0x3fa2b43440000000	0.03653109818696976
62	0xbfa6668d40000000	-0.04375115782022476
63	0xbfa24dea40000000	-0.03575069457292557
64	0x3fa482cd40000000	0.040060438215732574
65	0xbf881b6400000000	-0.01177099347114563
66	0xbf98e44700000000	-0.024308308959007263
67	0xbfa3786060000000	-0.038027774542570114
68	0xbf9ddae1c0000000	-0.02915528044104576
69	0xbfac283a20000000	-0.054994408041238785
70	0x3fb3060fa0000000	0.07431123405694962
71	0x3fa75a46c0000000	0.04561062902212143
72	0x3fb2d97860000000	0.07363083213567734
73	0xbf90bf4b00000000	-0.016354724764823914
74	0x3f95c83780000000	0.02127157896757126
75	0xbfaea3daa0000000	-0.05984385684132576
76	0x3fae8f50c0000000	0.059687159955501556
77	0xbf2a084000000000	-0.00019861012697219849
78	0x3f70e9d400000000	0.00412924587726593
79	0xbfb1399b80000000	-0.06728526949882507
80	0xbfa6f12780000000	-0.044808611273765564
81	0xbf921cd400000000	-0.017688095569610596
82	0xbfb0785b80000000	-0.06433650851249695
83	0x3fb1a45ca0000000	0.06891421228647232
84	0x3fa3410740000000	0.03760550171136856
85	0xbfa4f5ef60000000	-0.040938835591077805
86	0xbf86afe800000000	-0.011077702045440674
87	0xbfb3789e80000000	-0.0760592520236969
88	0xbfb3d3c780000000	-0.07745024561882019
89	0xbfa6452080000000	-0.04349614679813385
90	0xbf83ac8200000000	-0.00960637629032135
91	0xbfadfd27a0000000	-0.05857204273343086
92	0xbfa7708700000000	-0.04578039050102234
93	0xbfb6181c20000000	-0.08630538731813431
94	0xbf8d163000000000	-0.014202475547790527
95	0xbfac856be0000000	-0.05570542439818382
96	0xbf868f7400000000	-0.01101580262184143
97	0x3fb5416920000000	0.08302933722734451
98	0xbfab40e3e0000000	-0.053229447454214096
99	0x3fac6d2540000000	0.05552021414041519
100	0xbfa20de1c0000000	-0.03526216000318527
101	0xbfa5638840000000	-0.041774995625019073
102	0x3f9e832a80000000	0.029797233641147614
103	0xbfb6467820000000	-0.08701277524232864
104	0xbfa8e9ade0000000	-0.04865783080458641
105	0x3fa23acd00000000	0.03560486435890198
106	0x3faa7c4bc0000000	0.05172955244779587
107	0xbf85bec600000000	-0.010617777705192566
108	0xbf8b4bf900000000	-0.013328500092029572
109	0xbfb5bacae0000000	-0.08488147705793381
110	0xbfa6004a60000000	-0.042970966547727585
111	0x3f64383800000000	0.002468213438987732
112	0x3fb63ed4a0000000	0.08689621835947037
113	0x3faf1a48c0000000	0.060747407376766205
114	0x3fb262bfa0000000	0.07181928306818008
115	0xbf9556d800000000	-0.02083909511566162
116	0x3fafac4440000000	0.06186116486787796
117	0xbfb5c98e60000000	-0.0851067528128624
118	0xbf91b36f00000000	-0.017286047339439392
119	0xbf9e808940000000	-0.029787201434373856
120	0x3fb0d5ba20000000	0.06576121598482132
121	0x3fb622f4a0000000	0.08647087961435318
122	0xbf972fb400000000	-0.022642910480499268
123	0xbfb52bf0e0000000	-0.08270173519849777
124	0xbfae9e0860000000	-0.0597994439303875
125	0xbf91d8ab80000000	-0.017428092658519745
126	0xbf8e054d00000000	-0.014658547937870026
127	0xbfaf79e240000000	-0.061476774513721466
128	0x3f8f4f6d7f93f5bb	0.015288215118284812
129	0xbfae026ed6048022	-0.058612311959450616
130	0xbfb2c5bda0000000	-0.07332978397607803
131	0xbfa8586180000000	-0.0475492924451828
132	0xbfc06f350d8f670a	-0.12839377557866555
133	0xbfb95b238707a637	-0.09904691740634851
134	0x3f6f65fc00000000	0.003832809627056122
135	0xbfb1cee0a0000000	-0.06956294924020767
136	0xbfa4305760000000	-0.039431314915418625
137	0x3f9bc2e202c0af7b	0.027110606592187985
138	0x3fa62a9fc0000000	0.043293945491313934
139	0x3fa3b3ac40000000	0.03848017007112503
140	0x3f8ae9135e83cd38	0.013139869043220828
141	0x3f9445498b3c92aa	0.019795560000732827
142	0xbfb07adeb14e1a42	-0.06437484577882294
143	0x3f90c3494162a835	0.016369957557494003
144	0x3f8c4abe9ac581ae	0.013814438913585327
145	0x3f9147d9cb1a5c28	0.016875651379987172
146	0x3fc01319e3dbb2b7	0.1255829203213545
147	0xbfa10cfec0000000	-0.033302269876003265
148	0x3f9a875f80000000	0.025907032191753387
149	0xbfb034c112f77dbf	-0.06330496514373517
150	0x3fb90de310b5c563	0.09786814840278661
151	0x3f760cde00000000	0.0053833648562431335
152	0xbfa5e82142fa67bb	-0.042786635805171135
153	0xbf87d6e800000000	-0.011640369892120361
154	0xbf7db17c00000000	-0.0072493404150009155
155	0x3fa7b3dc553fdde0	0.04629410305636461
156	0xbfabda60746db484	-0.05440045758482717
157	0x3facb4f18e0a6970	0.0560679899110309
158	0xbfa0ab84073b07aa	-0.032558561213149886
159	0x3f770cee0b9b0f6c	0.005627565254773131
160	0x3fb5af6320000000	0.08470744639635086
161	0xbf81a261c0a94aec	-0.008610500042015322
162	0x3fa1dcbb6bfbbe38	0.034887177402080416
163	0x3fc09792578d259a	0.1296255996224261
164	0x3faaf7583f2edc46	0.052668340409063805
165	0xbfaeae4ea0000000	-0.05992360785603523
166	0x3fb55f70a0000000	0.08348754793405533
167	0xbfb438c520000000	-0.07899124175310135
168	0xbfc13dc908911dff	-0.1346980373220816
169	0x3f9f990e14a00875	0.030857295998437857
170	0x3fa5a0dcf84baf20	0.04224291354134224
171	0x3fb4b95b60000000	0.08095332235097885
172	0xbfb1c6e080000000	-0.06944087147712708
173	0x3fb1c116a2c0965d	0.06935254548496901
174	0x3fa7eccc1861722e	0.04672849462142313
175	0x3fa5585d80504847	0.04168979827240143
176	0x3f9ccb9ee5a236ef	0.02812050129482818
177	0xbfb74ebccf7f975f	-0.09104518953207962
178	0x3fa6b7dac0000000	0.04437144845724106
179	0x3f6bb92000000000	0.0033841729164123535
180	0x3fafe75d8bf10c72	0.06231205304404676
181	0x3f7f979e8aa2489d	0.0077129548100335595
182	0x3fa7013096c27ac3	0.04493095245674319
183	0x3fb01fb320000000	0.06298369914293289
184	0xbf859b9635717b6e	-0.010550664430579917
185	0x3fa8b6bd40000000	0.04826918989419937
186	0xbf9778e580000000	-0.022922120988368988
187	0x3f726f4c00000000	0.004500672221183777
188	0x3fa5519ccca6a542	0.041638278943831
189	0x3f6924a800000000	0.0030692368745803833
190	0x3fc1b33930bd3565	0.13828196410978957
191	0xbfac19d340000000	-0.05488453060388565
192	0x3fb5d7b3e0000000	0.08532261103391647
193	0xbfaa9253d49009de	-0.05189763993987005
194	0x3f9809dbbe5890c3	0.02347510670928511
195	0xbf9af1eb0ac30ec8	-0.026313469440323783
196	0x3fad506c55e945e3	0.0572542052147005
197	0xbf8b30c594e61231	-0.013276618582275553
198	0xbf71072c00000000	-0.004157230257987976
199	0x3fbbb69e076c3a9e	0.1082552688714977
200	0x3fb16f9a20000000	0.06810916215181351
201	0x3f9f0fb715db5370	0.03033338614371267
202	0x3f9ca09eb5d70f43	0.02795646653045415
203	0x3fb442c1ce71dac6	0.07914363184122938
204	0xbfa3c051cc7c4d53	-0.03857665654336508
205	0xbfa8c477c0000000	-0.048373930156230927
206	0x3f935f50a6d7f408	0.018918285544703678
207	0xbfa36b5120000000	-0.03792813792824745
208	0x3faad86f40000000	0.05243251472711563
209	0x3faeda7040000000	0.06026030331850052
210	0x3fb718d73cbede96	0.0902227900795601
211	0x3f87232a2aefb77f	0.01129754012614703
212	0x3fa187f500000000	0.034240394830703735
213	0x3fbe57faf5a24764	0.11852997300073081
214	0x3fb1336f53334b87	0.06719108372935355
215	0x3fb8d1d0dd8f4cbd	0.0969515362660784
216	0x3f9b2bb0251b7f83	0.02653384424672779
217	0x3fa6ae9cc0000000	0.04430093616247177
218	0x3fb6d52a49dac6f8	0.08919014266100678
219	0x3fb8c132885ca5b7	0.09669795827053106
220	0x3f91da7e80000000	0.01743505150079727
221	0xbf7e9cd4c6c24bd2	-0.007473784597226323
222	0xbfb226954ebe9c06	-0.07090123341059504
223	0x3f622b4a3c03dfd8	0.002217907895211351
224	0xbfae5861fb68ca91	-0.05926805681192094
225	0x3fb54fc4e0000000	0.08324842900037766
226	0x3f99b888ec4bc9e7	0.02511800710903769
227	0xbf5cd192310e1c3a	-0.0017589500095896008
228	0x3fbc725dbbe8b6d3	0.11112008893607177
229	0x3f9c20d822011edf	0.027469040942633135
230	0x3fa5255c8208e286	0.04130066954934812
231	0x3fabf0ca3999b3da	0.054571456462191484
232	0xbf93f9759b210353	-0.01950629958469403
233	0xbf92a4697039a23c	-0.01820530650585027
234	0x3f895cbc5e5f5f23	0.012383910779973533
235	0x3fc067db3e837781	0.12816944649142317
236	0x3f806e2e00000000	0.008022651076316833
237	0xbfb2e25b03236e1c	-0.073766411081515
238	0x3fb7d9632c68552a	0.0931608184258336
239	0xbf8876f67a8b45ee	-0.01194565354799956
240	0x3fb184ab28d7e6af	0.06843061206009325
241	0xbf98438d80000000	-0.023695193231105804
242	0xbfbd10abdc398033	-0.11353563429429485
243	0x3fb56e54e0000000	0.08371477574110031
244	0xbfb0e105144aa01c	-0.06593353028677068
245	0x3fba65588de79d85	0.10310891594382639
246	0x3fa2bc3bc0000000	0.036592356860637665
247	0x3fb47ff147735c89	0.08007724756622471
248	0xbf88facd95d61014	-0.012197118888032356
249	0xbfaefdf240000000	-0.06053120642900467
250	0xbfb5e9a56f4a5374	-0.08559640852975098
251	0xbfb0027120000000	-0.06253726035356522
252	0x3f939f9000000000	0.01916337013244629
253	0xbf9dc80d335ddb94	-0.029083448658152003
254	0xbfa36fa807d2507a	-0.037961245493677034
255	0xbf8ad90300000000	-0.013109229505062103

fc3.bias f8 [64]
0	0xbfabaa8d20000000	-0.054035577923059464
1	0x3fa535002e67add5	0.04141998831240882
2	0xbf8125677c18084f	-0.008372124170822696
3	0x3fb5b8ac2d5b34e9	0.08484912974673232
4	0xbfbfc078cddae759	-0.12403063798674675
5	0x3fa07e0bdff800e3	0.03221165760987945
6	0xbfa178f7eaef6d4e	-0.03412604086744385
7	0xbf9e62edc0000000	-0.029674258083105087
8	0xbf99725e00000000	-0.02485033869743347
9	0x3fb7b4c28ff4fbe7	0.09260192884993011
10	0x3f9bf79d00000000	0.02731175720691681
11	0x3fc18b57c46e486e	0.1370649060377817
12	0xbfb0323820000000	-0.06326628476381302
13	0x3fc057d05b1f46d6	0.1276798672611707
14	0xbfa8483cf02dc5f4	-0.047426132506085766
15	0xbfadd13dd36300f7	-0.05823701100735151
16	0x3fba31861e9c8be7	0.10231817481375992
17	0xbfab0b02b1ee9cee	-0.05281837865850912
18	0x3fc4dbc46dd497d3	0.1629567657739118
19	0x3fb55a2b20000000	0.08340711146593094
20	0xbfaf9e4ba0000000	-0.06175457313656807
21	0xbfb821eb1d99b8d4	-0.09426755402248271
22	0xbfc0cfd437d49563	-0.13134243703931778
23	0x3f9a646069a24169	0.025773531386734137
24	0x3fc89036e985aa0f	0.19190107729384961
25	0x3fbb9f79618a41fa	0.10790213233327242
26	0xbfbe67df2485882b	-0.11877245561257214
27	0xbfb46ef7a0000000	-0.0798182263970375
28	0x3fbe49314adbcfa2	0.11830432965854112
29	0xbfc186f7c57af2c7	-0.1369313921221844
30	0xbf8f1a8500000000	-0.015187300741672516
31	0xbf916cb100000000	-0.01701618731021881
32	0xbfa92d9c20000000	-0.04917610064148903
33	0xbfa6c5da80000000	-0.04447825253009796
34	0xbf96fdd004e7b79d	-0.02245259313524849
35	0xbfb5a3ff40000000	-0.08453364670276642
36	0xbfac307dbcb4792c	-0.05505745819594873
37	0xbfb3914740000000	-0.07643552124500275
38	0xbfa78dec00000000	-0.046004652976989746
39	0xbf8238c400000000	-0.008897334337234497
40	0xbfa5ddc30ad9442c	-0.04270753390722634
41	0xbfbe91fef4ed0e3e	-0.11941522102011334
42	0x3f8db138ca3fba16	0.014498180076739902
43	0xbfc075f80b9a10f1	-0.1286001259469525
44	0xbf576cf5a5cd3407	-0.001429786577506366
45	0xbfb9ba7edb4cbf7d	-0.10050194601057956
46	0xbfb3b6337bd7c86a	-0.07699891828068109
47	0xbf96552e5949d2bd	-0.021809314918260315
48	0xbfaf3cc0612bf934	-0.061010372030056464
49	0xbfa3351f6dce1342	-0.03751466956513251
50	0x3fb81849fd0b4f06	0.09412062099300664
51	0x3f889e3a6b8f21c4	0.012020546348041068
52	0x3fadbdcc936466aa	0.05808867739888275
53	0x3fb8d73ebb5b9a15	0.09703437875905536
54	0xbfac19b80f3b57cb	-0.05488372026381646
55	0xbfa577560bc25f9e	-0.04192608731790347
56	0x3fa76038c0000000	0.0456559881567955
57	0x3f903e520f12aee5	0.015862734003049623
58	0x3f8c77a100000000	0.013900049030780792
59	0xbfb2a9f575c7b9fb	-0.07290586591236796
60	0x3fb921a6b77e1f08	0.09816972713280958
61	0x3fbfed42604ba388	0.12471403933490255
62	0xbfc067301c884868	-0.12814904587918652
63	0x3fb663d756b2a361	0.08746095530172006

fc4.weight f8 [2, 64]
0	0xbfb6f857c0000000	-0.08972690999507904
1	0x3fb988cbc1f23c84	0.09974359021201634
2	0x3fa0dd4152ee7d52	0.03293804299687032
3	0x3fa89f94ad2a8e3a	0.04809250463338484
4	0xbfad3ffae5df2874	-0.05712875419665489
5	0x3f65656fbc9aee2c	0.0026118452413734974
6	0x3fb65e0202b5c45d	0.087371946012142
7	0x3fa75fd400000000	0.04565298557281494
8	0x3fa52fda80000000	0.04138071835041046
9	0xbfc1b77ab1e0a541	-0.13841184316087587
10	0x3f83c02a00000000	0.00964386761188507
11	0x3fb08d39d1660bbd	0.06465493547697938
12	0x3fb938be00000000	0.09852206707000732
13	0x3f7516fc26b3d433	0.005148873296311018
14	0x3fa56274dd94c245	0.041766788528893296
15	0xbfa652c85d2d0168	-0.0436003316631311
16	0x3fb060d7bd34bf34	0.06397770280159137
17	0x3fa1e0a3ff10131b	0.034916996846766156
18	0x3faef52e386b7722	0.060464329135113695
19	0x3fad9c2880000000	0.0578320175409317
20	0x3fa8d1fc80000000	0.04847706854343414
21	0x3f66da61abdcdec0	0.002789679302534015
22	0x3fa5a216fce2a27f	0.04225227200487768
23	0x3f9125be5d0a3f5b	0.01674554293509743
24	0x3f873ee9f6963e2c	0.011350467527136386
25	0x3fa910ac6600fa38	0.04895533318675799
26	0xbfb0d4dcc3628026	-0.06574802179466185
27	0xbfa4d1d580000000	-0.04066340625286102
28	0x3fa0310b6245413d	0.03162417959777251
29	0xbf9de8a349b99c10	-0.029207755446261585
30	0xbfb1e17a80000000	-0.06984677910804749
31	0xbfbcbf26c0000000	-0.11229173839092255
32	0xbf805d8400000000	-0.007990866899490356
33	0x3fb8456ec0000000	0.09480945765972137
34	0x3f8ce0a965f8c9a9	0.014100383209641647
35	0xbf8bb2d200000000	-0.013524666428565979
36	0x3fbc0c712e714fe3	0.10956485160687594
37	0x3fbc6ae140000000	0.11100585758686066
38	0x3fbbf985c0000000	0.10927616059780121
39	0x3fa7525c80000000	0.04555024206638336
40	0xbfa5f8113e3288d1	-0.042908228723960946
41	0xbf9687a32cbb6fce	-0.022001790623889232
42	0xbfae4c934cf637b1	-0.059177973885297226
43	0x3fa54977c535e976	0.041576140235480105
44	0x3f85174f85da41ee	0.010298367760044305
45	0x3fa226894c99ed37	0.035450258827916796
46	0xbf618ad09bc2bb8a	-0.002141387403831134
47	0x3f9fe165dd0c6d78	0.031133262268764977
48	0x3fa710901a8d5bd3	0.045048239938004685
49	0x3fb1b3f4b765ffcb	0.06915215947628821
50	0x3f6c8fdffd41c0b4	0.0034865736761774072
51	0xbfa729cbd64e1878	-0.04524075499561858
52	0x3fb67cecd94c99cd	0.08784370713383467
53	0x3fb90eaa8dc102a5	0.09788003884114944
54	0x3f724c09905e74a0	0.004467046126504531
55	0x3f7e0c93bb4bf8b3	0.007336213184997375
56	0xbfab1f9880000000	-0.052975431084632874
57	0xbfb1863f599cb97e	-0.06845470369146331
58	0xbf70c49800000000	-0.004093736410140991
59	0xbfb0f7de4c98a7cc	-0.06628217096354588
60	0x3fa07d31ca2391d0	0.03220515816227343
61	0x3fb587edd6b02747	0.08410536281021762
62	0x3f93aee633ecda5d	0.019221875113738175
63	0x3fb869d2bc8db168	0.09536473372799537
64	0x3fbeef5780000000	0.12083956599235535
65	0xbf92abb909d8a5cb	-0.018233195520371653
66	0xbfcb9f03bd14fbb2	-0.21579024059789514
67	0xbfa61c68c3a3166e	-0.04318549526355474
68	0xbfc43530c45b13dd	-0.15787324512180492
69	0xbfc8bb764573f613	-0.19322088614710306
70	0xbfc3e937ca71b1c1	-0.15555474648443915
71	0x3f8a2a9200000000	0.012776508927345276
72	0x3fbb478d80000000	0.10656055808067322
73	0xbfcd2fe2758a1ef2	-0.2280238222049245
74	0xbfb8257380000000	-0.09432145953178406
75	0xbfd07a9fe1df5ce3	-0.2574844079767457
76	0xbf9ac55a00000000	-0.02614346146583557
77	0xbfc38f883773b2c0	-0.15281775195707858
78	0xbfb05f4b39a97791	-0.06395406873477173
79	0xbfba1c8b443a6501	-0.10199804702496708
80	0xbfc2f1cabc4394e3	-0.14800390427186647
81	0xbfb4b9240b4afc0d	-0.08095002437310957
82	0xbfd1157321ee122e	-0.26693418801758895
83	0x3fb7a61200000000	0.09237778186798096
84	0xbfad056900000000	-0.05668190121650696
85	0x3fb09e3f4dd0a4e0	0.06491466188221606
86	0xbfb809aa6408d970	-0.09389748518228713
87	0xbfbeb62a3c6b02cb	-0.11996711707162004
88	0xbfcf86958acaf8f2	-0.24629468228335544
89	0xbfbc5d139de7a3e4	-0.11079523663614982
90	0xbfaaeefd296239e1	-0.052604590703697836
91	0xbfb8ce9fc0000000	-0.09690283238887787
92	0xbfc5ceb3403f1f01	-0.1703704894737186
93	0x3fa510418844d15f	0.041139648327233706
94	0x3faf9ded00000000	0.061751753091812134
95	0xbfb0425ac0000000	-0.06351248919963837
96	0x3fa49dfa00000000	0.040267765522003174
97	0xbf97871000000000	-0.022976160049438477
98	0xbfa74572f3ff4751	-0.04545172909241891
99	0xbfa68e6700000000	-0.04405519366264343
100	0xbf6300323c025e25	-0.002319429506382214
101	0x3fbff86480000000	0.12488391995429993
102	0xbfbd0fd800000000	-0.11352300643920898
103	0x3fbb2ce3c0000000	0.1061537116765976
104	0xbfc34fc51dec8ec4	-0.15087188683638975
105	0xbfc00a1c82b3caa6	-0.12530857450436378
106	0xbfa945a59a26b682	-0.04935948855141438
107	0x3fa29632884fca08	0.036302165164574574
108	0x3f7bf483544f73c6	0.00682498264810944
109	0xbfb93cd28d38f96e	-0.09858432720009144
110	0x3fb05c4a23e1b33e	0.06390822769180901
111	0x3f77df99945730d5	0.0058284758756139326
112	0xbfa79b0eb0aab07b	-0.04610486895157436
113	0xbfc0760473ded375	-0.12860160501227438
114	0xbfc6c10c1c5148f1	-0.17776633627597208
115	0x3f9caa4f73de503f	0.027993432471319798
116	0xbfc7b74097a22078	-0.18527991680116762
117	0xbfccb7585987d522	-0.224345248905288
118	0x3f907390fcc38668	0.016065850665546583
119	0xbfb3583d190f30df	-0.07556516515541344
120	0xbfbb62ffc0000000	-0.1069793552160263
121	0x3fad392e8456411c	0.057076886801157495
122	0xbfa72c3f00000000	-0.045259445905685425
123	0xbfb6c062497cadbe	-0.08887304586521957
124	0xbfce255fa292ba51	-0.23551555097715718
125	0xbfc5291f883b934f	-0.1653174796294032
126	0xbfac90fd11097759	-0.05579367478342929
127	0xbfcd436db3a917a8	-0.22862025520788376

fc4.bias f8 [2]
0	0x3fb454482856e78e	0.07941103920793877
1	0xbfac0a7f42b58e3d	-0.054767586606228914
