src/backend/controller/checkpoints/checkpoint_epoch_6.pth (torch, 420170 bytes, 25 tensors)

fc1.weight f8 [64, 5]
0.19894663653700767 -0.4368135001508768 0.27650251200469106 -0.15917579990010317 0.13388119109039262 -0.15748682618141174 -0.2859317362308502 -0.4182189404964447
-0.23558029532432556 0.102683424949646 -0.3032242953777313 0.055708885192871094 -0.3561890721321106 0.3370480537414551 0.0773652195930481 0.29222941398620605
-0.12881866097450256 -0.2658160924911499 -0.36438190937042236 -0.08555623888969421 -0.16404101252555847 -0.012782365083694458 0.3968053460121155 0.01920926570892334
-0.4070501923561096 -0.13756580732869325 0.33224837377470406 0.3618411505588419 0.11830900176266682 -0.35349345271948024 -0.19213200809101696 -0.26325704681475526
0.29878664791751003 0.28022942500947007 0.42420938149339277 0.37379854917526245 -0.41267502307891846 -0.0874796211719513 -0.3212490677833557 0.085968017578125
0.24111789464950562 -0.19936363399028778 0.04515928030014038 0.16869336366653442 0.3027804493904114 0.32812268863588645 0.016457483520218794 0.07079708883802108
-0.36903834546943787 0.1338779900204411 -0.39514994621276855 -0.18186673521995544 0.25157636404037476 -0.08274263143539429 0.03622332215309143 0.2860663439707435
0.18463344163790385 0.0026437847099603823 0.3375739578418641 0.015212112839762032 -0.1584734320640564 0.10327941179275513 -0.35499274730682373 0.29825127124786377
-0.19943299889564514 -0.32017482230445443 0.19416221910974177 0.4072916993126355 0.002419383619515623 0.28165735675444037 -0.3037956637329721 0.29393658943750484
-0.07151461299261588 0.07191982650014969 -0.026560507252837883 -0.28154245018959045 -0.39090579748153687 -0.2809138894081116 0.3958856463432312 0.1273355484008789
0.20694912427286127 -0.056049122012812334 0.20373669153113833 -0.0012284471402756684 0.13261617546786986 -0.024138471847377854 0.3636289454419821 0.14538478374653643
0.16156526001583887 0.2586255072283893 0.2305031418800354 -0.17867669463157654 -0.4265388250350952 0.046540647745132446 -0.28340089321136475 0.12135406481179056
0.06844647083220833 0.12890243595765533 0.3042574179385641 -0.17331822899472996 0.44390225410461426 -0.40707674622535706 -0.3159036636352539 0.169264554977417
-0.07987993955612183 0.2008170485496521 -0.23314857482910156 -0.052512556314468384 -0.15051090717315674 -0.2524383068084717 0.4268262982368469 -0.1996842473745346
-0.30966246128082275 -0.41050320863723755 -0.41057053208351135 0.18324561943944864 0.28700437504035636 -0.08469294808904922 -0.4826785840639945 0.14827477301652664
-0.11689847707748413 -0.3861534297466278 0.3823000192642212 0.1358056664466858 -0.24432815611362457 -0.22320149015435284 0.14406022650546188 -0.27358342436864597
0.28327327207413666 -0.2644322016830287 0.3573336601257324 -0.11508020758628845 0.08344215154647827 -0.4326631426811218 -0.07486072182655334 -0.06321179866790771
-0.1253010332584381 -0.060605525970458984 -0.07296356558799744 0.3147851824760437 0.09319413722766026 -0.16755615063074042 0.2888867250438764 0.18977074232553826
-0.2580350016507652 -0.14019310474395752 -0.12256672978401184 0.3443242311477661 -0.013670265674591064 0.1359119415283203 -0.1553056836128235 0.21436315774917603
-0.09526622295379639 0.19238531589508057 0.035091787576675415 0.19413775205612183 0.016615450382232666 -0.32409489154815674 -0.39700549840927124 -0.2783563733100891
0.08245209732195917 0.1684172077986318 -0.22398856974919906 0.2533713913819446 0.34091304806023187 0.17147535022026347 -0.28557935532025197 0.07794231915272211
0.24598928081714416 0.41022322292941527 -0.2745234966278076 0.0585247278213501 -0.129891037940979 0.214630126953125 0.055469393730163574 -0.38239791989326477
-0.08170893788337708 0.031002163887023926 -0.35994672775268555 -0.3928275406360626 0.40789213760194126 -0.10881736637508824 -0.3487959891667668 0.03447050725971008
0.2275063797184152 0.34327180220729053 0.0701478912713883 0.22549638568776892 0.28356772325366236 0.3857016730159741 0.28581478694928486 -0.10764008531203545
-0.24453716246035315 -0.1727860526601035 -0.08421124980774523 -0.3501526713371277 -0.3885819911956787 0.41255056858062744 -0.19941279292106628 0.25096261501312256
0.42500425708447953 -0.1033845927854689 -0.38830548634639533 0.36322718690751665 -0.10369213625672997 0.06637710332870483 0.15834105014801025 -0.1603129506111145
-0.11477276682853699 -0.3749419152736664 0.024249494075775146 -0.1269947588443756 -0.22993823885917664 0.1692209243774414 -0.08096730709075928 0.14538714473901554
-0.010149637239890676 -0.4122019375656729 0.2230320995992333 -0.1292523700915508 -0.10147521300549636 0.44057275223513037 0.4044082616296302 0.3132033613050604
-0.33488730697072555 -0.33098822832107544 -0.028674572706222534 -0.3686550259590149 0.3990378975868225 0.23415035009384155 0.2599508015834988 -0.20131401816589142
0.04692019574261312 0.32506419636865586 0.20363449242707893 0.10858840558221504 0.3205687324248499 0.08594227589419894 0.39733793047717914 -0.07100482418442898
0.06372769831886949 0.29018786578990824 0.4027390903401309 0.22988409823050646 0.03187467805069005 0.07042723894119263 -0.09770673513412476 -0.027212321758270264
0.2269570231437683 -0.012213528156280518 0.10739648342132568 -0.37014228105545044 -0.3770074248313904 -0.043758511543273926 -0.33991312980651855 0.15040306364281067
00000000: caae c958 1577 c93f 0b5b 669c c0f4 dbbf
00000010: 939b 9497 37b2 d13f ca5a 7163 df5f c4bf
00000020: 9331 a4d4 0423 c13f 0000 0040 8728 c4bf
00000030: 0000 00a0 b44c d2bf 0000 0060 19c4 dabf
00000040: 0000 00c0 7e27 cebf 0000 0000 7649 ba3f
00000050: 0000 00e0 0668 d3bf 0000 0000 e085 ac3f
00000060: 0000 0040 cdcb d6bf 0000 0000 3292 d53f
00000070: 0000 0000 35ce b33f 0000 0000 e3b3 d23f
00000080: 0000 0040 217d c0bf 0000 0080 2103 d1bf
00000090: 0000 0080 0852 d7bf 0000 0080 03e7 b5bf
000000a0: 0000 00c0 4bff c4bf 0000 0000 a42d 8abf
000000b0: 0000 0040 4265 d93f 0000 0000 98ab 933f
000000c0: 0000 0040 1c0d dabf 4325 c3a1 c19b c1bf
000000d0: 0abd e0ae 8e43 d53f c0d2 ffc8 6728 d73f
000000e0: 9a9f 64ad 7f49 be3f 45f0 b100 a39f d6bf
000000f0: 4903 a219 c897 c8bf d4b2 a015 34d9 d0bf
00000100: 0761 5208 521f d33f 47b9 f265 47ef d13f
00000110: a1e9 0a1b 3f26 db3f 0000 00c0 50ec d73f
00000120: 0000 0080 4469 dabf 0000 0080 1065 b6bf
00000130: 0000 0040 588f d4bf 0000 0000 0002 b63f
00000140: 0000 0080 f3dc ce3f 0000 0060 bf84 c9bf
00000150: 0000 0000 1e1f a73f 0000 0080 be97 c53f
00000160: 0000 0040 c160 d33f fe11 314e f6ff d43f
00000170: 5ca6 f905 3bda 903f 3a18 360d c21f b23f
00000180: 43b7 3002 539e d7bf 8c60 65fa e922 c13f
00000190: 0000 0000 234a d9bf 0000 00c0 6847 c7bf
000001a0: 0000 00c0 d319 d03f 0000 0000 9f2e b5bf
000001b0: 0000 0000 dd8b a23f e2cc f535 e94e d23f
000001c0: a096 ca90 11a2 c73f c902 be1b 6ba8 653f
000001d0: ab5f 3acd cf9a d53f 1ddf 3239 8727 8f3f
000001e0: 0000 0080 db48 c4bf 0000 0000 8570 ba3f
000001f0: 0000 0080 33b8 d6bf 0000 0080 8c16 d33f
00000200: 0000 0040 0587 c9bf 2f37 b389 be7d d4bf
00000210: edf9 98be 4eda c83f e5b8 1e34 1111 da3f
00000220: afa9 b6b0 d0d1 633f 420a fc93 ac06 d23f
00000230: 2795 195e 6371 d3bf d5d6 ae69 dbcf d23f
00000240: 2248 fd1b c84e b2bf 0e8c c076 5669 b23f
00000250: 037f 1078 ad32 9bbf 0000 00a0 ca04 d2bf
00000260: 0000 00c0 9904 d9bf 0000 0040 7efa d1bf
00000270: 0000 00c0 3056 d93f 0000 0000 884c c03f
00000280: 2409 5814 4f7d ca3f 2372 0774 78b2 acbf
00000290: a28c 8f3d 0b14 ca3f 68d7 b512 7b20 54bf
000002a0: 780d 471c 91f9 c03f 07be a36c c1b7 98bf
000002b0: 9458 2357 b245 d73f 0d82 c3f5 f79b c23f
000002c0: aa08 f8a1 2bae c43f 1e45 ddff 518d d03f
000002d0: 0000 0080 2081 cd3f 0000 00c0 e0de c6bf
000002e0: 0000 0080 694c dbbf 0000 0000 2dd4 a73f
000002f0: 0000 0080 3d23 d2bf 3072 9a5b 0f11 bf3f
00000300: 6f3e c039 b585 b13f ee0b 6801 e07f c03f
00000310: 6a23 e71a f478 d33f e19f aaae 4a2f c6bf
00000320: 0000 0000 e568 dc3f 0000 00a0 8b0d dabf
00000330: 0000 0000 c437 d4bf 0000 0000 76aa c53f
00000340: 0000 0000 0373 b4bf 0000 0080 5fb4 c93f
00000350: 0000 0000 d0d7 cdbf 0000 0000 ede2 aabf
00000360: 0000 0000 f143 c3bf 0000 0000 f327 d0bf
00000370: 0000 0040 1f51 db3f 0000 00e0 408f c9bf
00000380: 0000 0080 82d1 d3bf 0000 0040 af45 dabf
00000390: 0000 00a0 c946 dabf 4558 50ab 9774 c73f
000003a0: 2cdd 2699 475e d23f ed89 3ee2 6fae b5bf
000003b0: 5134 42b7 34e4 debf 52c2 76f2 aafa c23f
000003c0: 0000 0000 0fed bdbf 0000 00e0 bcb6 d8bf
000003d0: 0000 0080 9a77 d83f 0000 0080 1462 c13f
000003e0: 0000 0020 2546 cfbf 17d2 50ce dd91 ccbf
000003f0: 5b66 bfc4 9070 c23f 8906 190d 6482 d1bf
00000400: bcea d837 2621 d23f 8039 8f0a 75ec d0bf
00000410: 0000 0000 8ede d63f 0000 0080 e575 bdbf
00000420: 0000 0000 775c b53f 0000 00c0 c0b0 dbbf
00000430: 0000 0080 122a b3bf 0000 0000 a62e b0bf
00000440: 0000 0040 dd09 c0bf 0000 0000 b007 afbf
00000450: 0000 0080 bdad b2bf 0000 00c0 7025 d43f
00000460: 5a5d 922b 92db b73f 6af1 99dd 7a72 c5bf
00000470: b3f7 13bf 1e7d d23f 644e 035e 684a c83f
00000480: ce0d 543d a583 d0bf 0000 0000 d9f1 c1bf
00000490: 0000 0080 8860 bfbf 0000 0080 6809 d63f
000004a0: 0000 0000 28ff 8bbf 0000 0000 9065 c13f
000004b0: 0000 0080 0ee1 c3bf 0000 0080 4070 cb3f
000004c0: 0000 0000 5e63 b8bf 0000 0000 15a0 c83f
000004d0: 0000 0000 8df7 a13f 0000 0080 81d9 c83f
000004e0: 0000 0000 a403 913f 0000 0080 f8bd d4bf
000004f0: 0000 00c0 8968 d9bf 0000 0040 97d0 d1bf
00000500: 3303 7ca5 941b b53f cd14 caef b18e c53f
00000510: 7a14 e04e a8ab ccbf d78e eea3 3c37 d03f
00000520: 21b2 0cf6 84d1 d53f 1f12 a27e e7f2 c53f
00000530: 05d9 e0a1 ee46 d2bf f93e bc1f 07f4 b33f
00000540: 565a 23a6 937c cf3f daa8 a2e7 1841 da3f
00000550: 0000 0000 cb91 d1bf 0000 0000 f4f6 ad3f
00000560: 0000 0000 45a0 c0bf 0000 0000 0079 cb3f
00000570: 0000 0000 7c66 ac3f 0000 0020 3579 d8bf
00000580: 0000 0080 e0ea b4bf 0000 0000 08bf 9f3f
00000590: 0000 0000 5e09 d7bf 0000 0020 1624 d9bf
000005a0: 87ef d29f e71a da3f e25e d175 74db bbbf
000005b0: 7a9f 9c69 ac52 d6bf c9c6 b64a 1ea6 a13f
000005c0: 4acf 42d6 ed1e cd3f 81a2 074b 2af8 d53f
000005d0: a7db e452 36f5 b13f ee94 f2c8 10dd cc3f
000005e0: 97d7 643c f925 d23f 176e e711 56af d83f
000005f0: c443 aa1a ca4a d23f 3462 27f6 4c8e bbbf
00000600: e740 b665 fe4c cfbf 68a6 b076 da1d c6bf
00000610: 532a e153 de8e b5bf 0000 00c0 e668 d6bf
00000620: 0000 0000 87de d8bf 0000 0080 3a67 da3f
00000630: 0000 00c0 5b86 c9bf 0000 0080 c50f d03f
00000640: e2ab 350e 4533 db3f 8382 eca4 6977 babf
00000650: e5c4 2d41 ffd9 d8bf 964b 323e 1d3f d73f
00000660: 3d35 135e 918b babf 0000 0000 17fe b03f
00000670: 0000 0000 8544 c43f 0000 0080 2285 c4bf
00000680: 0000 0080 bf61 bdbf 0000 0060 0cff d7bf
00000690: 0000 0000 dcd4 983f 0000 0040 5d41 c0bf
000006a0: 0000 00c0 9d6e cdbf 0000 0000 08a9 c53f
000006b0: 0000 0000 46ba b4bf 96d9 f4c3 0b9c c23f
000006c0: aebe 1740 55c9 84bf 4450 4c3c 8461 dabf
000006d0: 7453 deda 508c cc3f 2da2 3c77 578b c0bf
000006e0: f296 3691 47fa b9bf 3cf3 960e 5832 dc3f
000006f0: 429d 7b30 d3e1 d93f 435c 731c 860b d43f
00000700: d239 d22b cb6e d5bf 0000 0040 e92e d5bf
00000710: 0000 0000 de5c 9dbf 0000 0040 0b98 d7bf
00000720: 0000 0040 d689 d93f 0000 0080 a3f8 cd3f
00000730: ecaf d7af 08a3 d03f 6fda 1f62 a8c4 c9bf
00000740: e60e 7984 ec05 a83f e13f 200f dacd d43f
00000750: 26eb a7ee b110 ca3f 3f4d b322 73cc bb3f
00000760: 49a2 78b7 3284 d43f 6b34 4f20 5000 b63f
00000770: 1007 3712 fc6d d93f 5ff8 ba45 5f2d b2bf
00000780: 80ff 205c 7550 b03f 59e0 5020 7092 d23f
00000790: c839 752d 7ac6 d93f fb9e e295 d76c cd3f
000007a0: 48b3 98b7 e051 a03f 0000 0000 8507 b23f
000007b0: 0000 0000 4f03 b9bf 0000 0000 8cdd 9bbf
000007c0: 0000 0080 ed0c cd3f 0000 0000 6803 89bf
000007d0: 0000 0000 567e bb3f 0000 0040 69b0 d7bf
000007e0: 0000 00c0 e320 d8bf 0000 0000 8467 a6bf
000007f0: 0000 0000 23c1 d5bf b933 c857 6840 c33f

fc1.bias f8 [64]
-0.23031906007210232 0.16295605897903442 0.19226914644241333 0.06451404094696045 -0.38506436347961426 -0.14979659359472683 -0.18113920109461762 -0.2740658223628998
-0.3605882227420807 -0.03257664238442976 0.05445784330368042 -0.07602229280310116 -0.20395055413246155 -0.251459808433756 -0.049054243717351106 0.21260493993759155
-0.16104613605868767 -0.026865137181944426 -0.22168532013893127 -0.205396988057832 -0.010629445314407349 0.05535346269607544 0.04343867301940918 -0.09821763819044407
-0.2567555606365204 0.2794663220206332 -0.37204283475875854 -0.24961154162883759 -0.21418125031871457 -0.3390759229660034 -0.32782331109046936 -0.1563149392604828
-0.12002002132921008 -0.4225691812389372 -0.13466614484786987 -0.004641890525817871 -0.056859656316496913 0.2672868378387205 -0.08446229761190602 0.05125373601913452
-0.07623696236728031 -0.2067943662405014 0.03128430247306824 0.32498748144972095 0.29180571861550114 0.06738358736038208 -0.4406351784065199 -0.007979335879076505
-0.08350016641935185 -0.44391533732414246 0.38466185331344604 0.4319241030175268 0.08923688016562883 -0.26109030842781067 -0.3221997916698456 0.05373257398605347
-0.23185113323675968 0.1194906234741211 -0.2890077829360962 -0.4007154377806227 -0.2622549533843994 -0.17954987667744177 -0.23019103422210008 0.37511336488305574
00000000: 97db 534f 187b cdbf 0000 0080 bedb c43f
00000010: 0000 0080 469c c83f 0000 0000 fe83 b03f
00000020: 0000 0000 e5a4 d8bf ab51 45e7 882c c3bf
00000030: 2acb 5cc0 912f c7bf 0000 0060 4b8a d1bf
00000040: 0000 00a0 e013 d7bf 7929 4fbb e2ad a0bf
00000050: 0000 0000 e6e1 ab3f 9233 5b6d 3276 b3bf
00000060: 0000 0040 0d1b cabf 5fcf 5ee1 ea17 d0bf
00000070: 7ef8 fd48 a31d a9bf 0000 0080 a336 cb3f
00000080: 2076 c2e7 289d c4bf 8b61 65d6 8882 9bbf
00000090: 0000 0040 2f60 ccbf 93e0 33d1 724a cabf
000000a0: 0000 0000 e4c4 85bf 0000 0000 4a57 ac3f
000000b0: 0000 0000 983d a63f e216 eb87 ca24 b9bf
000000c0: 0000 00e0 ae6e d0bf 9b5e 5ab6 c6e2 d13f
000000d0: 0000 00c0 8ccf d7bf 0000 0060 45f3 cfbf
000000e0: af83 c48c 4a6a cbbf 0000 0080 6bb3 d5bf
000000f0: 0000 00a0 0efb d4bf 0000 00c0 2002 c4bf
00000100: d863 79d2 a1b9 bebf b5ff 6d9b 5f0b dbbf
00000110: 0000 0080 bd3c c1bf 0000 0000 6003 73bf
00000120: bfab ae78 b51c adbf afc9 ca40 3a1b d13f
00000130: bef7 fc35 529f b5bf 0000 0000 ee3d aa3f
00000140: 6225 1dfc 4384 b3bf 0000 00e0 3c78 cabf
00000150: 0000 0000 7f04 a03f bde6 1b4b 98cc d43f
00000160: 9b51 8fe4 f1ac d23f 0000 0000 0d40 b13f
00000170: bc47 2ee4 5d33 dcbf 7dcc 2755 7857 80bf
00000180: f64e fb53 4460 b5bf 0000 00e0 1b69 dcbf
00000190: 0000 00c0 4c9e d83f 561f 34fe a4a4 db3f
000001a0: fa8f e869 3ad8 b63f 0000 0020 b4b5 d0bf
000001b0: 0000 00e0 eb9e d4bf 0000 0000 d682 ab3f
000001c0: 116e 6545 4cad cdbf 0000 0000 f096 be3f
000001d0: 0000 0080 1a7f d2bf 4649 115d 52a5 d9bf
000001e0: 0000 0000 c9c8 d0bf 0a4c 2a88 7dfb c6bf
000001f0: b87d e859 e676 cdbf 7bc6 9d7c db01 d83f

fc2.weight f8 [128, 64]
0.14094322028023157 0.04848848283290863 -0.07610933482646942 0.08302196860313416 -0.07802818715572357 -0.040545464145873775 -0.07924878507885688 0.08403293788433075
0.04109923541545868 -0.11156331961880277 0.09737049043178558 -0.014699845146048813 0.045676231384277344 0.08721966635234195 0.026852851558339653 -0.11497291922569275
0.058122339005168326 -0.0698300931016617 -0.10099020600318909 0.06320596973195465 -0.08349849283695221 0.12457859516143799 -0.06810134649276733 -0.106539763150152
0.05323682725429535 -0.01059453107163395 -0.11731952428817749 0.11162075400352478 -0.006226334192427183 0.12082524597644806 -0.025568649172782898 0.032455697655677795
0.08941050246159611 0.0476052540826287 0.06213757395744324 0.0795111209154129 0.06571214424913562 0.12548479701045134 -0.08142123869910022 -0.0011937469244003296
-0.09879236913042566 -0.09662874042987823 -0.055537447333335876 -0.07524933953685013 0.11465543580378179 0.027180016040802002 0.08795322530943439 0.13045913409108048
-0.06249523262517725 -0.1192178875207901 0.06287510693073273 0.0815063545589885 0.12313187863870999 -0.0378129780292511 0.04424102604389191 -0.07410448789596558
-0.055928102930796315 -0.019375905394554138 -0.06127724051475525 0.1304808826778569 0.021099820733070374 -0.06339162251665907 0.12253213918356756 0.03339976443471785
0.12047274735032551 0.04754680395126343 0.09475253522396088 -0.11506190896034241 0.09858828783035278 0.11621933226081636 0.0974557382937806 -0.03155797719955444
-0.0717533528804779 0.12483521454007493 0.0026737749576568604 0.12867843410264085 -0.07030391693115234 0.028411339613470452 -0.032036781636561436 -0.05682685971260071
0.10312118521584762 0.09738480188042546 0.017434626817703247 0.13412393991346708 -0.0685277134180069 0.12297642230987549 -0.11962990462779999 0.02054161167234255
0.048812225461006165 0.05308423055068222 -0.07497991621494293 0.012364953756332397 -0.0942619265733948 -0.10351784527301788 0.10684394836425781 0.08454196155071259
0.06119910726461947 -0.01760418731393939 -0.0659954845905304 0.06951664388179779 -0.09351637791894638 -0.02762774914987362 -0.06533972501067442 -0.03159865736961365
-0.12791710755877297 -0.02407267689704895 0.0528220534324646 -0.053625829859698305 0.11388041195719634 -0.028339505195617676 -0.07746577995617258 -0.0049535531822868985
0.07152364867241906 -0.02115313708782196 -0.07013280689716339 -0.029190559063012527 0.0793440565758349 -0.0010669082403182983 0.04069015383720398 -0.03737284243106842
0.0685415597117548 0.09226661920547485 0.024788275361061096 -0.05057597885403799 0.07572837173938751 -0.06219922747149777 -0.02780423782173837 -0.011816419712998318
0.05128578841686249 0.11469148099422455 0.05626752972602844 -0.020994439721107483 -0.04542633891105652 0.024455711245536804 0.023697972297668457 -0.030291587114334106
0.11601851880550385 0.11583957076072693 0.014417141675949097 -0.036647602915763855 0.12222687900066376 0.0925413966178894 0.010417655110359192 0.11615128815174103
-0.09335191547870636 0.0029187947511672974 0.059048011898994446 0.009012162685394287 -0.1069951206445694 0.0514325350522995 0.010655850172042847 0.04085114598274231
-0.054498255252838135 -0.040580183267593384 -0.07728274166584015 -0.034776076674461365 0.00675007700920105 0.0437106192111969 -0.026751816272735596 -0.006144657731056213
0.00866323709487915 -0.020519152283668518 0.08007848262786865 -0.015260085463523865 0.08058206737041473 -0.06079699099063873 0.0950978696346283 0.049122899770736694
0.023044317960739136 0.013670369982719421 0.020310774445533752 0.10971090197563171 0.1072588562965393 0.11532142758369446 -0.05211260914802551 0.1025560200214386
-0.10017463564872742 -0.11907222867012024 0.10334251821041107 -0.08588787913322449 -0.044569388031959534 -0.11070370674133301 0.0897010862827301 -0.029435500502586365
-0.038821861147880554 0.008426100015640259 -0.0961381047964096 0.07351963222026825 0.0771975964307785 -0.07047675549983978 0.01842452585697174 -0.0614202618598938
-0.10520830750465393 0.01570376753807068 -0.07842087745666504 0.027011752128601074 -0.03354214131832123 -0.06039923429489136 0.06900322437286377 -0.08737963438034058
-0.01917882263660431 -0.10362283885478973 0.01719948649406433 0.10872858762741089 0.006345480680465698 -0.10763430595397949 -0.07922659814357758 -0.0721343457698822
0.07124049961566925 0.07701495289802551 -0.05910086631774902 0.03623458743095398 0.002151176333427429 0.004817202687263489 -0.07734706997871399 0.1110992580652237
0.022838890552520752 0.07761023938655853 -0.04409131407737732 0.04642479121685028 -0.08146217465400696 0.09533855319023132 0.07211227715015411 -0.009176477789878845
-0.07471226155757904 -0.09257663786411285 0.004039481282234192 -0.052190497517585754 0.017168685793876648 -0.1005190759897232 0.10775859653949738 -0.10661697387695312
0.0034256279468536377 -0.06597594916820526 -0.04985387623310089 0.0818420946598053 -0.08196958899497986 -0.08751511573791504 -0.0676000565290451 -0.09712125360965729
-0.008934259414672852 -0.0310785174369812 0.030491948127746582 0.059211328625679016 0.06194591522216797 0.10446573793888092 0.0017051398754119873 0.04514715075492859
0.08282795548439026 0.031386032700538635 -0.024935752153396606 -0.02411876618862152 -0.006971403956413269 0.036908313632011414 -0.09980732202529907 -0.10238665342330933
00000000: 8527 d96c 6d0a c23f 0000 0080 7bd3 a83f
00000010: 0000 00c0 e67b b3bf 0000 0080 ed40 b53f
00000020: 0000 00c0 a7f9 b3bf 1eed 0305 60c2 a4bf
00000030: 0653 29fc a549 b4bf 0000 00c0 2e83 b53f
00000040: 0000 0080 f50a a53f fb29 32e9 698f bcbf
00000050: 0000 00c0 45ed b83f b7b2 44d1 f31a 8ebf
00000060: 0000 0000 e062 a73f a324 8d2e 0754 b63f
00000070: 6d59 fd5c 507f 9b3f 0000 0080 dd6e bdbf
00000080: 3771 6312 36c2 ad3f 2bf5 258e 62e0 b1bf
00000090: 0000 0080 7eda b9bf 5d24 e934 442e b03f
000000a0: 0000 0040 2860 b5bf 0000 0000 62e4 bf3f
000000b0: 0000 0000 176f b1bf d717 749e 3046 bbbf
000000c0: 0000 0080 db41 ab3f e6c3 c0e3 95b2 85bf
000000d0: 0000 0000 a708 bebf 0000 0080 2d93 bc3f
000000e0: 3de3 afdb c880 79bf 0000 0040 67ee be3f
000000f0: 0000 0000 ab2e 9abf 0000 0080 089e a03f
00000100: d1d1 fd4f 9be3 b63f 8d29 ce42 b75f a83f
00000110: 0000 0000 7fd0 af3f 0000 0040 d75a b43f
00000120: b704 80d6 82d2 b03f 180d a7c5 e20f c03f
00000130: ff95 69b5 05d8 b4bf 0000 0000 f08e 53bf
00000140: 1871 82ea 744a b9bf 0000 0040 a9bc b8bf
00000150: 0000 0080 676f acbf 233b 5b6c 8a43 b3bf
00000160: 98fb 1503 0f5a bd3f 0000 0000 14d5 9b3f
00000170: 2020 4842 1a84 b63f 9d5d 3189 e2b2 c03f
00000180: 97e5 8f08 60ff afbf 0000 0040 1085 bebf
00000190: 0000 0040 9518 b03f c23d 3fb7 99dd b43f
000001a0: 372a d91f 9285 bf3f 0000 0000 395c a3bf
000001b0: 0000 0080 c2a6 a63f 0000 0000 83f8 b2bf
000001c0: 21ba 07ba 9ba2 acbf 0000 0000 47d7 93bf
000001d0: 0000 0000 bb5f afbf ce63 edf9 98b3 c03f
000001e0: 0000 0000 319b 953f 4fa7 8cf1 6e3a b0bf
000001f0: 8a99 802a 445e bf3f 35e7 e11f c619 a13f
00000200: 9ecd ed4d 4dd7 be3f 0000 0000 0e58 a83f
00000210: 0000 00c0 b341 b83f 0000 0080 b274 bdbf
00000220: 0000 0000 153d b93f 4721 39d7 8cc0 bd3f
00000230: ae81 c7f8 dbf2 b83f 0000 0000 5e28 a0bf
00000240: 0000 0080 6d5e b2bf 56b9 d65b 33f5 bf3f
00000250: 0000 0000 50e7 653f 42ee 15f1 8878 c03f
00000260: 0000 0000 70ff b1bf 89d0 e6b9 dc17 9d3f
00000270: 01d7 cb02 2067 a0bf 0000 0000 6918 adbf
00000280: f4dd 0666 2666 ba3f 9b30 34db 35ee b83f
00000290: 0000 0000 62da 913f 49fe c427 f92a c13f
000002a0: 0000 0040 088b b1bf 0000 0000 627b bf3f
000002b0: 0000 00c0 10a0 bebf d6ff 5b39 dc08 953f
000002c0: 0000 0080 eafd a83f be08 4c34 db2d ab3f
000002d0: 0000 0040 e231 b3bf 0000 0000 cc52 893f
000002e0: de03 e4b3 8c21 b8bf 0000 0040 2580 babf
000002f0: 0000 0000 205a bb3f 0000 00c0 8aa4 b53f
00000300: 68eb 7d48 7d55 af3f 76e4 2403 d506 92bf
00000310: 0000 0080 14e5 b0bf 0000 00c0 d7cb b13f
00000320: 5660 cd78 b0f0 b7bf 1842 3edc 724a 9cbf
00000330: 40ec 0cae 1aba b0bf 0000 0000 b32d a0bf
00000340: 0d2c c878 965f c0bf 0000 0000 82a6 98bf
00000350: 0000 0000 7e0b ab3f 5dc0 ef42 d874 abbf
00000360: c0db 0245 4427 bd3f 0000 0000 0805 9dbf
00000370: 7b8c 781f ccd4 b3bf 36b3 ab4e 2d4a 74bf
00000380: 4c4a f0b3 5f4f b23f 0000 0000 2ba9 95bf
00000390: 0000 0040 39f4 b1bf eb41 1c42 21e4 9dbf
000003a0: 1a0c 2060 e44f b43f 0000 0000 f07a 51bf
000003b0: 0000 0000 57d5 a43f 0000 0080 8822 a3bf
000003c0: 38fa 608d f08b b13f 0000 0000 c99e b73f
000003d0: 0000 0000 1962 993f f255 483e 18e5 a9bf
000003e0: 0000 0040 ef62 b33f 4231 a7bf 93d8 afbf
000003f0: 65cd 89d0 b678 9cbf 4efc c801 3533 88bf
00000400: 0000 0080 2142 aa3f 0000 00c0 6b5c bd3f
00000410: 0000 0000 19cf ac3f 0000 0000 917f 95bf
00000420: 0000 0000 1f42 a7bf 0000 0000 eb0a 993f
00000430: 0000 0000 4844 983f 0000 0000 c204 9fbf
00000440: 0000 00c0 63b3 bd3f 0000 0080 a9a7 bd3f
00000450: 0000 0000 bc86 8d3f 0000 0080 79c3 a2bf
00000460: 0000 00c0 424a bf3f 0000 0000 cbb0 b73f
00000470: 0000 0000 da55 853f 0000 0040 17bc bd3f
00000480: 0000 0040 e9e5 b7bf 0000 0000 28e9 673f
00000490: 0000 0080 8a3b ae3f 0000 0000 f874 823f
000004a0: 0000 0040 0864 bbbf 0000 0080 5d55 aa3f
000004b0: 0000 0000 bcd2 853f 0000 0000 71ea a43f
000004c0: 0000 0000 32e7 abbf 0000 0000 edc6 a4bf
000004d0: 0000 0040 cdc8 b3bf 0000 0080 2bce a1bf
000004e0: 0000 0000 f8a5 7b3f 0000 0000 3d61 a63f
000004f0: 0000 0000 d464 9bbf 0000 0000 242b 79bf
00000500: 0000 0000 08be 813f 0000 0000 f902 95bf
00000510: 0000 0000 0680 b43f 0000 0000 ae40 8fbf
00000520: 0000 00c0 06a1 b43f 0000 0080 c820 afbf
00000530: 0000 0080 5558 b83f 0000 0000 a326 a93f
00000540: 0000 0000 ee98 973f 0000 0000 36ff 8b3f
00000550: 0000 0000 59cc 943f 0000 0080 0316 bc3f
00000560: 0000 0000 5175 bb3f 0000 0080 b485 bd3f
00000570: 0000 0000 81ae aabf 0000 0080 1c41 ba3f
00000580: 0000 0080 0ba5 b9bf 0000 0080 847b bebf
00000590: 0000 00c0 a774 ba3f 0000 0080 bffc b5bf
000005a0: 0000 0080 ccd1 a6bf 0000 0000 1457 bcbf
000005b0: 0000 0080 a6f6 b63f 0000 0000 5724 9ebf
000005c0: 0000 0080 75e0 a3bf 0000 0000 b441 813f
000005d0: 0000 00c0 819c b8bf 0000 00c0 2ed2 b23f
000005e0: 0000 00c0 38c3 b33f 0000 00c0 c30a b2bf
000005f0: 0000 0000 e1dd 923f 0000 0000 7a72 afbf
00000600: 0000 0080 eeee babf 0000 0000 a614 903f
00000610: 0000 0000 6413 b4bf 0000 0000 f8a8 9b3f
00000620: 0000 0080 6f2c a1bf 0000 0000 a6ec aebf
00000630: 0000 0000 32aa b13f 0000 0000 835e b6bf
00000640: 0000 0000 9da3 93bf 0000 00c0 0687 babf
00000650: 0000 0000 be9c 913f 0000 0000 a3d5 bb3f
00000660: 0000 0000 b8fd 793f 0000 0000 ec8d bbbf
00000670: 0000 00c0 3148 b4bf 0000 0080 6577 b2bf
00000680: 0000 0040 d13c b23f 0000 0080 40b7 b33f
00000690: 0000 0000 7842 aebf 0000 0000 578d a23f
000006a0: 0000 0000 589f 613f 0000 0000 34bb 733f
000006b0: 0000 0080 04cd b3bf 0000 0040 0071 bc3f
000006c0: 0000 0000 1463 973f 0000 00c0 43de b33f
000006d0: 0000 0000 2393 a6bf 0000 0080 fdc4 a73f
000006e0: 0000 0080 b4da b4bf 0000 0080 1b68 b83f
000006f0: 0000 0040 f375 b23f 0000 0000 1ecb 82bf
00000700: 0000 00c0 5720 b3bf 0000 0040 1ab3 b7bf
00000710: 0000 0000 b48b 703f 0000 0080 b6b8 aabf
00000720: 0000 0000 ab94 913f 0000 0040 9ebb b9bf
00000730: 0000 0040 1196 bb3f 0000 0000 404b bbbf
00000740: 0000 0000 1010 6c3f 0000 00c0 cce3 b0bf
00000750: 0000 0080 7286 a9bf 0000 0080 9af3 b43f
00000760: 0000 0080 f5fb b4bf 0000 0000 6467 b6bf
00000770: 0000 00c0 3c4e b1bf 0000 0040 f0dc b8bf
00000780: 0000 0000 204c 82bf 0000 0000 0cd3 9fbf
00000790: 0000 0000 4839 9f3f 0000 0080 f250 ae3f
000007a0: 0000 0000 60b7 af3f 0000 0040 44be ba3f
000007b0: 0000 0000 e0ef 5b3f 0000 0000 871d a73f
000007c0: 0000 0080 3634 b53f 0000 0080 d411 a03f
000007d0: 0000 0000 c288 99bf 0000 0000 97b2 98bf
000007e0: 0000 0000 0c8e 7cbf 0000 0080 a5e5 a23f
000007f0: 0000 0000 f98c b9bf 0000 0000 0336 babf

fc2.bias f8 [128]
-0.030967149914037595 0.037619508567964144 -0.0954146683216095 0.013235166668891907 -0.04206374969357276 -0.033656216994115404 -0.06638862192630768 -0.044246748089790344
-0.07273711264133453 -0.022279644373486087 -0.015127554535865784 0.00379277765750885 0.04433757133678804 -0.11910250055819449 -0.021176752997578915 -0.07048699862269998
0.11686041256906382 -0.14094398989685292 0.0661192506150298 -0.1099620908498764 -0.04715263843536377 0.06210138466108888 0.012921558399481878 0.04804271459579468
0.13321955387518897 -0.0333428829908371 -0.030790239572525024 0.026976245408535528 0.06093257068332191 -0.11240359692767925 -0.007724327653279366 0.04853844281769394
-0.057813555002212524 -0.0039522665628640985 0.07972144492738636 0.03004781563994333 -0.01251731812953949 -0.07416805624961853 -0.03425891697406769 -0.03704369068145752
-0.09466436637715483 -0.1171420134583663 0.12147162653868729 0.03277561068534851 -0.09470455348491669 0.04484069138202697 -0.13674064618501955 0.010146434656422466
-0.07260601091836595 0.12035852496275941 -0.1164550632238388 -0.01989637315273285 0.02290805942666136 -0.034361119086249316 -0.016213630474080337 0.0105724036693573
-0.009527645813614632 -0.046863749623298645 -0.01932463049888611 -0.05828937888145447 -0.0336124799746292 -0.07057252526283264 -0.07524079100205391 -0.059964388608932495
-0.04321661591529846 0.13154829875288726 0.0030901427663031214 0.1279382177874327 0.05222130063981447 0.038976487397719764 0.05685187876224518 -0.047444311340644925
-0.05709615349769592 -0.05692397162072012 0.06977851337509033 0.08932798550778295 0.11684989807220426 -0.048286423087120056 0.10268919852996025 -0.0009809881448745728
-0.002176821231842041 0.039473116397857666 -0.058239377241624465 -0.11312625267023145 -0.10925917327404022 0.04514994285667858 -0.06514764967954575 0.03326792414741069
0.020363152455378408 0.11157701909542084 -0.11238811918574289 -0.1326206186990785 0.012959107756614685 -0.025975065133208634 0.05256189296158902 -0.0414355488747032
0.09712233064594097 -0.09230977296829224 -0.06566538493089388 -0.05808443150727606 0.028436489748939548 -0.05369061853519374 0.058965474058633 0.06661960240688627
0.021984056555890863 0.09315693382255602 0.05445243703232824 -0.14627616056000273 0.01268632709980011 0.05316530327585994 0.05026260890221876 0.11098127914553815
-0.042349804323563965 -0.06111308932304382 -0.08080018318952718 0.04020281136035919 -0.03816697310621777 0.07571702609816676 0.041308626532554626 -0.08779367839225595
0.09403924276977496 -0.09254749119281769 0.07973314769430015 0.09212315082550049 0.016545027494430542 0.11239482951094239 0.025078297618311696 -0.024409249424934387
00000000: 8044 8640 dab5 9fbf 1064 fb3d dd42 a33f
00000010: 0000 0080 186d b8bf 0000 0000 0a1b 8b3f
00000020: 83e2 8f3a 6189 a5bf d6f6 973e 633b a1bf
00000030: 0000 0040 d8fe b0bf 0000 0080 82a7 a6bf
00000040: 0000 0040 e69e b2bf c772 cd9f 79d0 96bf
00000050: 0000 0000 32fb 8ebf 0000 0000 0812 6f3f
00000060: ed4a c005 6ab3 a63f b0ee c460 807d bebf
00000070: 5c83 3dd6 5baf 95bf 85b0 e099 6f0b b2bf
00000080: e462 2e62 90ea bd3f ce5d 96e1 730a c2bf
00000090: 8a0f 07f3 30ed b03f 0000 00c0 7926 bcbf
000000a0: 0000 0000 6424 a8bf f7b6 4fb0 c0cb af3f
000000b0: 58bc e935 9e76 8a3f 0000 0000 0e99 a83f
000000c0: 6673 8a9d 560d c13f 0000 0080 5112 a1bf
000000d0: 0000 0000 7a87 9fbf eab1 312f a99f 9b3f
000000e0: df30 b1cc 8d32 af3f 7bd4 c16c 7bc6 bcbf
000000f0: 9284 786a 8ba3 7fbf d263 00e1 07da a83f
00000100: 0000 0000 bd99 adbf a007 1f7a 4030 70bf
00000110: ecc3 c0e6 9f68 b43f 898c f5c5 dac4 9e3f
00000120: 0000 0000 aea2 89bf 0000 0080 adfc b2bf
00000130: 0000 0080 628a a1bf 0000 0000 64f7 a2bf
00000140: aaba af85 ec3b b8bf 0291 cadc 04fd bdbf
00000150: 8226 60b7 c318 bf3f 0000 0000 f7c7 a03f
00000160: 0000 00c0 8e3e b8bf 821b 08ee 5bf5 a63f
00000170: 3704 b3ad b780 c1bf a7a5 2968 a7c7 843f
00000180: b12c 63ba 4e96 b2bf 9d85 82f8 d0cf be3f
00000190: 0000 00c0 ffcf bdbf 0000 0000 b75f 94bf
000001a0: 5297 35d8 3575 973f 3574 75d5 c797 a1bf
000001b0: c8db 8a52 4e9a 90bf 0000 0000 fca6 853f
000001c0: 7634 6bf9 3a83 83bf 0000 0080 86fe a7bf
000001d0: 0000 0000 d6c9 93bf 0000 0000 1bd8 adbf
000001e0: 4afc 74ac a735 a1bf 0000 0080 0a11 b2bf
000001f0: 76d2 ad00 fb42 b3bf 0000 0000 a7b3 aebf
00000200: 0000 0000 7d20 a6bf ae79 7e1c 93d6 c03f
00000210: be38 e1c3 7f50 693f 3a1c a78e 4760 c03f
00000220: e31f ce14 c0bc aa3f b250 5fe5 b9f4 a33f
00000230: 0000 0080 b01b ad3f 49ba 2deb 9e4a a8bf
00000240: 0000 0000 b53b adbf 7a58 f088 2325 adbf
00000250: c0d5 e830 01dd b13f 069d 5fe8 32de b63f
00000260: 39d4 c2fa dfe9 bd3f 0000 0080 ffb8 a8bf
00000270: 7eb0 56dd d649 ba3f 0000 0000 9012 50bf
00000280: 0000 0000 20d5 61bf 0000 0000 d235 a43f
00000290: b632 2f39 8dd1 adbf 2fa5 8993 d7f5 bcbf
000002a0: 0000 00c0 68f8 bbbf 1bae f8af e41d a73f
000002b0: 1ef0 c830 84ad b0bf 9718 704c 7e08 a13f
000002c0: b374 5b07 14da 943f 0000 00c0 4f90 bc3f
000002d0: 6999 5cc0 77c5 bcbf f53d 0b62 b6f9 c0bf
000002e0: 0000 0000 4e8a 8a3f b1ce 081d 3599 9abf
000002f0: 875e 9276 64e9 aa3f aa08 9e4e 0a37 a5bf
00000300: deea d551 02dd b83f 0000 0000 9da1 b7bf
00000310: 9ee7 c158 72cf b0bf 7204 761b 3ebd adbf
00000320: 455e f085 741e 9d3f bfdc 6b35 567d abbf
00000330: 0795 59fd b830 ae3f 7a2f 9c75 fb0d b13f
00000340: 808c c30f fd82 963f 14dc 2900 22d9 b73f
00000350: 1b92 7b98 30e1 ab3f 7913 e55e 2db9 c2bf
00000360: 0000 0000 4afb 893f 4817 b48d 7b38 ab3f
00000370: acb1 e44a 05bc a93f 2af9 65e4 4469 bc3f
00000380: 0398 1fa1 dfae a5bf 0000 0000 374a afbf
00000390: e750 4f20 52af b4bf 0000 0080 7695 a43f
000003a0: c399 8e1a 9f8a a3bf 9f8d d7e6 3062 b33f
000003b0: 0000 0080 6726 a53f 1183 7d81 a579 b6bf
000003c0: 229e 3cb0 f412 b83f 0000 0040 31b1 b7bf
000003d0: 6e10 c13d 6469 b43f 0000 0000 6295 b73f
000003e0: 0000 0000 2ef1 903f a92e fd54 e8c5 bc3f
000003f0: bda4 7010 20ae 993f 0000 0000 bdfe 98bf

fc3.weight f8 [64, 128]
0.0848686471581459 -0.03498281165957451 0.06604767590761185 0.01786002516746521 -0.0006941556930541992 0.0800449475646019 0.0023756399750709534 -0.0663505494594574
0.050822071731090546 0.009167216718196869 -0.07804253697395325 0.058533452451229095 -0.025803975760936737 -0.058010730892419815 0.004477478563785553 0.024836033582687378
-0.031208518892526627 0.008677065372467041 -0.02501729130744934 -0.0874214842915535 -0.08062593638896942 -0.05938373878598213 -0.03006502240896225 0.0031182467937469482
-0.0071896836161613464 -0.06485223025083542 0.029293134808540344 0.06011860817670822 -0.06906769424676895 0.040139056742191315 0.06365952640771866 0.014709025621414185
-0.032623935490846634 0.008565522730350494 -0.01448085904121399 -0.06644805520772934 -0.02327858656644821 -0.03797738626599312 -0.02580568939447403 -0.004791088402271271
0.01666373759508133 0.03995669633150101 0.08414778858423233 0.04126507788896561 0.01539059728384018 -0.010422095656394958 -0.03929447382688522 -0.06521560996770859
-0.03109651431441307 0.041932396590709686 0.05422230809926987 -0.027247272431850433 0.07018490880727768 0.013356313109397888 0.08319676667451859 0.032581329345703125
0.061544276773929596 -0.021692350506782532 -0.08063434064388275 -0.04421988129615784 0.008777156472206116 0.03653109818696976 -0.04375115782022476 -0.03575069457292557
0.040060438215732574 -0.01177099347114563 -0.024308308959007263 -0.038027774542570114 -0.02915528044104576 -0.054994408041238785 0.07431123405694962 0.04561062902212143
0.07363083213567734 -0.016354724764823914 0.02127157896757126 -0.05984385684132576 0.059687159955501556 -0.00019861012697219849 0.00412924587726593 -0.06728526949882507
-0.044808611273765564 -0.017688095569610596 -0.06433650851249695 0.06891421228647232 0.03760550171136856 -0.040938835591077805 -0.011077702045440674 -0.0760592520236969
-0.07745024561882019 -0.04349614679813385 -0.00960637629032135 -0.05857204273343086 -0.04578039050102234 -0.08630538731813431 -0.014202475547790527 -0.05570542439818382
-0.01101580262184143 0.08302933722734451 -0.053229447454214096 0.05552021414041519 -0.03526216000318527 -0.041774995625019073 0.029797233641147614 -0.08701277524232864
-0.04865783080458641 0.03560486435890198 0.05172955244779587 -0.010617777705192566 -0.013328500092029572 -0.08488147705793381 -0.042970966547727585 0.002468213438987732
0.08689621835947037 0.060747407376766205 0.07181928306818008 -0.02083909511566162 0.06186116486787796 -0.0851067528128624 -0.017286047339439392 -0.029787201434373856
0.06576121598482132 0.08647087961435318 -0.022642910480499268 -0.08270173519849777 -0.0597994439303875 -0.017428092658519745 -0.014658547937870026 -0.061476774513721466
0.038599997292086755 -0.040584822620989565 -0.07332978397607803 -0.0475492924451828 -0.09372605279930597 -0.06907430299313835 0.003832809627056122 -0.06956294924020767
-0.039431314915418625 0.0056759519363475935 0.043293945491313934 0.03848017007112503 0.05177036559223035 -0.0019501498136017758 -0.028023663899720087 -0.005449830788144628
0.038174791938070336 -0.004558630182475648 0.10408930471719058 -0.033302269876003265 0.025907032191753387 -0.03619606509875249 0.07744901740869169 0.0053833648562431335
-0.017387336399765342 -0.011640369892120361 -0.0072493404150009155 0.030747418579156187 -0.036084731839000184 0.034634682185767506 -0.05389273445126708 -0.0158068165291876
0.08470744639635086 -0.030044777936942033 0.013643490575913554 0.10587364589756502 0.08435668796300888 -0.05992360785603523 0.08348754793405533 -0.07899124175310135
-0.10778517664957657 0.034794934080585475 0.06566499251504433 0.08095332235097885 -0.06944087147712708 0.09035597636934728 0.025294045727353304 0.01896113177457151
0.004909990993511481 -0.052701226083610754 0.04437144845724106 0.0033841729164123535 0.08650984694812025 0.010788334065491479 0.02349675274219331 0.06298369914293289
-0.03278334635505687 0.04826918989419937 -0.022922120988368988 0.004500672221183777 0.045400246145608815 0.0030692368745803833 0.11684752541775358 -0.05488453060388565
0.08532261103391647 -0.024517112220644035 0.0020413586737010655 -0.006371565559500197 0.07755276568586085 0.01684327283305203 -0.004157230257987976 0.0945237218652981
0.06810916215181351 0.03839955790537606 0.0545206714098052 0.05770930935871202 -0.021534810429603563 -0.048373930156230927 0.05057812763821446 -0.03792813792824745
0.05243251472711563 0.06026030331850052 0.0687883607730447 -0.01013681170421287 0.034240394830703735 0.09709308360553134 0.046542540406844156 0.10211046193333596
0.043761463994529425 0.04430093616247177 0.06776095048291905 0.09040938973461202 0.01743505150079727 -0.02879470133549217 -0.03933312124986186 -0.019216535220713055
-0.028222117188670903 0.08324842900037766 0.020453331626540644 0.03363833477399093 0.08969237542099638 0.053243988369555253 0.019031625280506365 0.04556740842940856
-0.04163106794980891 0.011226771541406064 -0.001990570159802864 0.10673504773392652 0.008022651076316833 -0.05645135727679427 0.07191531319974671 0.027762158403599288
0.09375914550281 -0.023695193231105804 -0.08222329893837818 0.08371477574110031 -0.043236372863233494 0.08167449740312017 0.036592356860637665 0.05864300032239131
0.011348130396149349 -0.06053120642900467 -0.05885866425288238 -0.06253726035356522 0.01916337013244629 0.001228479307202662 -0.0042006361538248676 -0.013109229505062103
00000000: 0000 00a0 f3b9 b53f 0000 0060 44e9 a1bf
00000010: 0000 0020 80e8 b03f 0000 0000 e649 923f
00000020: 0000 0000 00bf 46bf 0000 0060 d37d b43f
00000030: 0000 0000 1476 633f 0000 0080 59fc b0bf
00000040: 0000 00c0 5905 aa3f 0000 0000 43c6 823f
00000050: 0000 0080 98fa b3bf 0000 00c0 18f8 ad3f
00000060: 0000 0080 5b6c 9abf 0000 0020 95b3 adbf
00000070: 0000 0000 fa56 723f 0000 0000 9e6e 993f
00000080: 0000 0040 20f5 9fbf 0000 0000 48c5 813f
00000090: 0000 0000 229e 99bf 0000 0020 4161 b6bf
000000a0: 0000 00c0 e6a3 b4bf 0000 00a0 8b67 aebf
000000b0: 0000 0080 5dc9 9ebf 0000 0000 708b 693f
000000c0: 0000 0000 ee72 7dbf 0000 00e0 279a b0bf
000000d0: 0000 0000 05ff 9d3f 0000 00c0 ddc7 ae3f
000000e0: 0000 00a0 6bae b1bf 0000 0040 1b8d a43f
000000f0: 0000 00a0 fd4b b03f 0000 0000 c41f 8e3f
00000100: 0000 00a0 15b4 a0bf 0000 0000 cd8a 813f
00000110: 0000 0000 24a8 8dbf 0000 0060 bd02 b1bf
00000120: 0000 0080 57d6 97bf 0000 00a0 c571 a3bf
00000130: 0000 0080 ce6c 9abf 0000 0000 d29f 73bf
00000140: 0000 0080 4c10 913f 0000 0040 3475 a43f
00000150: 0000 00a0 b58a b53f 0000 0040 b220 a53f
00000160: 0000 0000 1b85 8f3f 0000 0000 2e58 85bf
00000170: 0000 00c0 671e a4bf 0000 0060 f8b1 b0bf
00000180: 0000 00c0 c3d7 9fbf 0000 00c0 2978 a53f
00000190: 0000 00c0 06c3 ab3f 0000 0080 b5e6 9bbf
000001a0: 0000 0060 a3f7 b13f 0000 0000 8e5a 8b3f
000001b0: 0000 0020 624c b53f 0000 0000 80ae a03f
000001c0: 0000 0040 bb82 af3f 0000 0000 8536 96bf
000001d0: 0000 00c0 73a4 b4bf 0000 0000 fda3 a6bf
000001e0: 0000 0000 c2f9 813f 0000 0040 34b4 a23f
000001f0: 0000 0040 8d66 a6bf 0000 0040 ea4d a2bf
00000200: 0000 0040 cd82 a43f 0000 0000 641b 88bf
00000210: 0000 0000 47e4 98bf 0000 0060 6078 a3bf
00000220: 0000 00c0 e1da 9dbf 0000 0020 3a28 acbf
00000230: 0000 00a0 0f06 b33f 0000 00c0 465a a73f
00000240: 0000 0060 78d9 b23f 0000 0000 4bbf 90bf
00000250: 0000 0080 37c8 953f 0000 00a0 daa3 aebf
00000260: 0000 00c0 508f ae3f 0000 0000 4008 2abf
00000270: 0000 0000 d4e9 703f 0000 0080 9b39 b1bf
00000280: 0000 0080 27f1 a6bf 0000 0000 d41c 92bf
00000290: 0000 0080 5b78 b0bf 0000 00a0 5ca4 b13f
000002a0: 0000 0040 0741 a33f 0000 0060 eff5 a4bf
000002b0: 0000 0000 e8af 86bf 0000 0080 9e78 b3bf
000002c0: 0000 0080 c7d3 b3bf 0000 0080 2045 a6bf
000002d0: 0000 0000 82ac 83bf 0000 00a0 27fd adbf
000002e0: 0000 0000 8770 a7bf 0000 0020 1c18 b6bf
000002f0: 0000 0000 3016 8dbf 0000 00e0 6b85 acbf
00000300: 0000 0000 748f 86bf 0000 0020 6941 b53f
00000310: 0000 00e0 e340 abbf 0000 0040 256d ac3f
00000320: 0000 00c0 e10d a2bf 0000 0040 8863 a5bf
00000330: 0000 0080 2a83 9e3f 0000 0020 7846 b6bf
00000340: 0000 00e0 ade9 a8bf 0000 0000 cd3a a23f
00000350: 0000 00c0 4b7c aa3f 0000 0000 c6be 85bf
00000360: 0000 0000 f94b 8bbf 0000 00e0 caba b5bf
00000370: 0000 0060 4a00 a6bf 0000 0000 3838 643f
00000380: 0000 00a0 d43e b63f 0000 00c0 481a af3f
00000390: 0000 00a0 bf62 b23f 0000 0000 d856 95bf
000003a0: 0000 0040 44ac af3f 0000 0060 8ec9 b5bf
000003b0: 0000 0000 6fb3 91bf 0000 0040 8980 9ebf
000003c0: 0000 0020 bad5 b03f 0000 00a0 f422 b63f
000003d0: 0000 0000 b42f 97bf 0000 00e0 f02b b5bf
000003e0: 0000 0060 089e aebf 0000 0080 abd8 91bf
000003f0: 0000 0000 4d05 8ebf 0000 0040 e279 afbf
00000400: 028b fdfb 60c3 a33f 4902 beab 88c7 a4bf
00000410: 0000 00a0 bdc5 b2bf 0000 0080 6158 a8bf
00000420: 5d62 8e3b 6efe b7bf 6a7a 5980 daae b1bf
00000430: 0000 0000 fc65 6f3f 0000 00a0 e0ce b1bf
00000440: 0000 0060 5730 a4bf de63 0bbf aa3f 773f
00000450: 0000 00c0 9f2a a63f 0000 0040 acb3 a33f
00000460: 5ebe 3d36 a581 aa3f 6676 fd6a 85f3 5fbf
00000470: da83 da3f 3cb2 9cbf 67a0 0fd0 8f52 76bf
00000480: f9ac cf75 a58b a33f 39cd c5f8 11ac 72bf
00000490: 98ab 9fbf 98a5 ba3f 0000 00c0 fe0c a1bf
000004a0: 0000 0080 5f87 9a3f 7ea1 af67 4a88 a2bf
000004b0: afae e0e4 b2d3 b33f 0000 0000 de0c 763f
000004c0: 2a61 ce64 fccd 91bf 0000 0000 e8d6 87bf
000004d0: 0000 0000 7cb1 7dbf 1e83 ef54 407c 9f3f
000004e0: b051 44ae b279 a2bf c327 9716 a3bb a13f
000004f0: f09f eb17 d497 abbf c5da 2f80 a92f 90bf
00000500: 0000 0020 63af b53f 5c76 9eea 0ec4 9ebf
00000510: 945a 9d4e 1ef1 8b3f 5b69 a306 891a bb3f
00000520: 0000 0060 6698 b53f 0000 00a0 4eae aebf
00000530: 0000 00a0 705f b53f 0000 0020 c538 b4bf
00000540: 8219 b430 cf97 bbbf 379b e23f a4d0 a13f
00000550: 811d 58c3 6bcf b03f 0000 0060 5bb9 b43f
00000560: 0000 0080 e0c6 b1bf 9c26 81bb 9121 b73f
00000570: 28e4 baac aee6 993f c8bc 7703 8c6a 933f
00000580: cc42 daab 7f1c 743f b5f6 f9b4 a7fb aabf
00000590: 0000 00c0 dab7 a63f 0000 0000 20b9 6b3f
000005a0: 9094 6c63 8225 b63f edb7 eaaf 3118 863f
000005b0: 9e13 5c62 880f 983f 0000 0020 b31f b03f
000005c0: 0196 e590 fac8 a0bf 0000 0040 bdb6 a83f
000005d0: 0000 0080 e578 97bf 0000 0000 4c6f 723f
000005e0: 95fa d978 b33e a73f 0000 0000 a824 693f
000005f0: f9ab 492c b8e9 bd3f 0000 0040 d319 acbf
00000600: 0000 00e0 b3d7 b53f 4759 b88c 031b 99bf
00000610: 4c43 c617 0ab9 603f c6eb 3c1b 1219 7abf
00000620: a5ca 5580 7fda b33f 2efa e6e7 5c3f 913f
00000630: 0000 0000 2c07 71bf 4f8f 1be6 b432 b83f
00000640: 0000 0020 9a6f b13f 6dd6 c45a 1ba9 a33f
00000650: 7f78 5229 22ea ab3f 04a7 bd18 138c ad3f
00000660: 3834 15aa 380d 96bf 0000 00c0 77c4 a8bf
00000670: 01b6 3258 60e5 a93f 0000 0020 516b a3bf
00000680: 0000 0040 6fd8 aa3f 0000 0040 70da ae3f
00000690: f69c dd2f 1d9c b13f fbdc 0ad6 9bc2 84bf
000006a0: 0000 0000 f587 a13f b6e8 c0a2 17db b83f
000006b0: 731e d781 6cd4 a73f 1148 9546 e923 ba3f
000006c0: c3f8 5c11 e767 a63f 0000 00c0 9cae a63f
000006d0: 8e1f 451a c858 b13f 8a56 29dc 1125 b73f
000006e0: 0000 0080 7eda 913f d1d7 22b2 5b7c 9dbf
000006f0: 8de4 d58a 7823 a4bf d5f6 42d9 7fad 93bf
00000700: 309a 6539 42e6 9cbf 0000 00e0 c44f b53f
00000710: 688f b8d9 b7f1 943f b20c 7e37 0b39 a13f
00000720: 5f3c 225b 14f6 b63f 02fe 82c9 cb42 ab3f
00000730: d891 adc0 067d 933f 7381 ef81 9c54 a73f
00000740: 6718 afd6 aa50 a5bf 0549 e1c4 0ffe 863f
00000750: 046e 9337 874e 60bf b9ad 5af3 fc52 bb3f
00000760: 0000 0000 2e6e 803f 2d25 a33a 31e7 acbf
00000770: 3d46 46be 0a69 b23f 9caa a3e9 ae6d 9c3f
00000780: 74ae a26f 9900 b83f 0000 0080 8d43 98bf
00000790: 4ed9 e80b 960c b5bf 0000 00e0 546e b53f
000007a0: c6f7 e3ee 1323 a6bf c97d 43af 9ee8 b43f
000007b0: 0000 00c0 3bbc a23f 2c48 0c91 7406 ae3f
000007c0: 01ad 6047 b03d 873f 0000 0040 f2fd aebf
000007d0: c7d0 1a0c b922 aebf 0000 0020 7102 b0bf
000007e0: 0000 0000 909f 933f 1819 b09c 9d20 543f
000007f0: b5fc 72ae af34 71bf 0000 0000 03d9 8abf

fc3.bias f8 [64]
-0.054035577923059464 0.05303197257464083 -0.04667827267161119 0.09492872428971191 -0.10259612769035345 -0.022579033580959074 -0.049660455755912 -0.029674258083105087
-0.02485033869743347 0.054530249217146935 0.02731175720691681 0.09879240074382466 -0.06326628476381302 0.09322107263299337 -0.025991681987182155 -0.03680250127924778
0.08796948762952422 -0.03138390617169392 0.11917017004490349 0.08340711146593094 -0.06175457313656807 -0.07283691511489773 -0.10990801825881931 0.01917052197444594
0.11385458363990096 0.10189211752558641 -0.08496309071779251 -0.0798182263970375 0.09015934485905845 -0.11549688222104718 -0.015187300741672516 -0.01701618731021881
-0.04917610064148903 -0.04447825253009796 -0.0010180933026262187 -0.08453364670276642 -0.045310949169465424 -0.07643552124500275 -0.046004652976989746 -0.008897334337234497
-0.021273024762063126 -0.09798071412782307 -0.01867826282978058 -0.09547443938141831 0.036315253498342456 -0.07909569739178225 -0.0531947286054173 0.005927207169858563
-0.03957592690540705 -0.008156166470344409 0.054943780097656506 0.03345505728622859 0.03833210777688003 0.0726629848515158 -0.02870593191817776 -3.1210482120513916e-05
0.0456559881567955 0.03729724626259655 0.013900049030780792 -0.05147135453379252 0.0558628822144835 0.10851892403845682 -0.10171326940726849 0.06030697679441503
00000000: 0000 0020 8daa abbf 5a6e b3b7 0127 ab3f
00000010: d2de 1ded 36e6 a7bf f27a 46b6 3f4d b83f
00000020: ba55 2065 bd43 babf 4dd6 384b f51e 97bf
00000030: c98f c062 186d a9bf 0000 00c0 ed62 9ebf
00000040: 0000 0000 5e72 99bf 678d 0f8a 63eb ab3f
00000050: 0000 0000 9df7 9b3f d7bd 4972 754a b93f
00000060: 0000 0020 3832 b0bf 2eba 4112 56dd b73f
00000070: 7f73 6940 909d 9abf 508c cf06 c7d7 a2bf
00000080: ac28 6a18 2b85 b63f eb9d 4125 8d11 a0bf
00000090: 206a 00af ef81 be3f 0000 0020 2b5a b53f
000000a0: 0000 00a0 4b9e afbf de29 5ca8 70a5 b2bf
000000b0: 8563 fd8f ee22 bcbf 29c1 b5f3 6fa1 933f
000000c0: 8faa 3bf1 9225 bd3f dc19 7e10 9a15 ba3f
000000d0: 0000 0020 24c0 b5bf 0000 00a0 f76e b4bf
000000e0: 7b33 99cd ae14 b73f a2ea ed23 3491 bdbf
000000f0: 0000 0000 851a 8fbf 0000 0000 b16c 91bf
00000100: 0000 0020 9c2d a9bf 0000 0080 dac5 a6bf
00000110: 587f 195c 31ae 50bf 0000 0040 ffa3 b5bf
00000120: ffc9 aa29 ff32 a7bf 0000 0040 4791 b3bf
00000130: 0000 0000 ec8d a7bf 0000 0000 c438 82bf
00000140: b56b 8f86 98c8 95bf 7156 d19a 4315 b9bf
00000150: 0000 0000 6520 93bf a843 bf4a 0371 b8bf
00000160: 061f 3eb4 e997 a23f 0151 8d99 9d3f b4bf
00000170: 0117 5ce7 563c abbf c2f2 378f 2047 783f
00000180: 2604 89bf 4b43 a4bf 68c3 0122 2eb4 80bf
00000190: 8aae 4655 9721 ac3f b63d dc71 0521 a13f
000001a0: 53af 931a 44a0 a33f 2927 9197 0a9a b23f
000001b0: 0cbb 287b 1665 9dbf 0000 0000 005d 00bf
000001c0: 0000 00c0 3860 a73f ee7f dbe9 9f18 a33f
000001d0: 0000 0000 a177 8c3f 5692 ce10 745a aabf
000001e0: bacf 5748 0f9a ac3f 1506 be6d e5c7 bb3f
000001f0: 9467 ac7d e109 babf 16f4 1a5a 8ee0 ae3f
