src/backend/controller/checkpoints/checkpoint_epoch_42.pth (torch, 420207 bytes, 25 tensors)

fc1.weight f8 [64, 5]
00000000: 8637 c147 f916 c63f 0de3 953a c7a4 ddbf
00000010: 9b71 2a55 2b02 d03f d0c9 ddf8 a6bf c7bf
00000020: e73f 90b0 7186 bb3f 0000 0040 8728 c4bf
00000030: 0000 00a0 b44c d2bf 0000 0060 19c4 dabf
00000040: 0000 00c0 7e27 cebf 0000 0000 7649 ba3f
00000050: 7824 15b4 0db0 cdbf eae4 42f3 ab1c b93f
00000060: 07f8 5056 4f80 d8bf e64f 36b1 3811 da3f
00000070: 3fbc c5ec 2e00 b03f 0000 0000 e3b3 d23f
00000080: 0000 0040 217d c0bf 0000 0080 2103 d1bf
00000090: 0000 0080 0852 d7bf 0000 0080 03e7 b5bf
000000a0: 0000 00c0 4bff c4bf 0000 0000 a42d 8abf
000000b0: 0000 0040 4265 d93f 0000 0000 98ab 933f
000000c0: 0000 0040 1c0d dabf 79bf 19dd 0b29 c3bf
000000d0: 2b32 5781 769a d53f 2c4e 4c17 aa8b d73f
000000e0: cea2 4ff6 aa70 b93f 75b9 dd47 3bd7 d6bf
000000f0: 39fb de07 d2cb cabf b1a7 cc90 c0a0 d1bf
00000100: df1e ec47 1945 d23f cc0a 7a27 d6bb d03f
00000110: 9c97 2a1e 951f da3f 0000 00c0 50ec d73f
00000120: 0000 0080 4469 dabf 0000 0080 1065 b6bf
00000130: 0000 0040 588f d4bf 0000 0000 0002 b63f
00000140: 7ec5 c9e7 368e c83f 0246 b761 24d3 cfbf
00000150: 3a2f 564c ffd9 70bf 6e2b 8a39 f597 be3f
00000160: dc72 0bb3 6c3a d03f 7a84 aba4 cbe4 d43f
00000170: d72f c07c 4049 9a3f 62a3 d6ba 368c b43f
00000180: 24a4 3edd 6c24 d8bf ef63 1bb0 2a6f c13f
00000190: 9a5e 5f08 d784 d4bf 8c44 5894 a386 b0bf
000001a0: dd61 af6c b683 d73f 4ab3 c07c 5c61 853f
000001b0: 7d29 7e1c 1e8a c13f 7577 0150 8c2a d23f
000001c0: f65f af3b 45e1 c83f 2474 5b65 e5fd 893f
000001d0: be7d be0c 6317 d53f a843 748a 0b95 923f
000001e0: 0000 0080 db48 c4bf 0000 0000 8570 ba3f
000001f0: 0000 0080 33b8 d6bf 0000 0080 8c16 d33f
00000200: 0000 0040 0587 c9bf 4c0b 72aa c4e9 d4bf
00000210: 3572 a920 cd40 ca3f 50db 23a6 40bf da3f
00000220: 01c8 2a96 f722 86bf 4a2c 94fa dc0c d23f
00000230: ecba 4793 5351 d6bf df89 1d98 d423 d03f
00000240: 3b43 75a9 01ee bcbf 91ae 425a 8c94 9f3f
00000250: 943f 7c2e 1e3a b1bf 0000 00a0 ca04 d2bf
00000260: 0000 00c0 9904 d9bf 0000 0040 7efa d1bf
00000270: 0000 00c0 3056 d93f 0000 0000 884c c03f
00000280: 617f 36ce d458 ca3f bbbb fbb6 02dc a2bf
00000290: 5f4d 482f a3b3 cc3f 4486 7391 fcda 83bf
000002a0: 6075 58bf f745 c23f 6af0 97b6 4007 a4bf
000002b0: 6bb9 c758 3763 d73f c066 0c4e 6bec c23f
000002c0: 2376 2cb2 87dc c13f e7d0 1b49 161b d03f
000002d0: 0000 0080 2081 cd3f 0000 00c0 e0de c6bf
000002e0: 0000 0080 694c dbbf 0000 0000 2dd4 a73f
000002f0: 0000 0080 3d23 d2bf 1929 10b8 b215 b83f
00000300: 4f4c 1629 ea0e ab3f 7be2 a928 2622 bd3f
00000310: c3dc 702f 286d d13f 2a11 bbc1 f5f2 c8bf
00000320: f787 1194 abda df3f b474 3f09 a49d d7bf
00000330: 3df5 5cb7 bad1 d1bf 3a6e 28d4 be73 cd3f
00000340: 2e43 728c a9f7 9dbf 0000 0080 5fb4 c93f
00000350: 0000 0000 d0d7 cdbf 0000 0000 ede2 aabf
00000360: 0000 0000 f143 c3bf 0000 0000 f327 d0bf
00000370: 0000 0040 1f51 db3f 0000 00e0 408f c9bf
00000380: 0000 0080 82d1 d3bf 0000 0040 af45 dabf
00000390: 0000 00a0 c946 dabf 6e6f 4611 7baa c73f
000003a0: 3d91 dd06 531b d33f e985 e09d 13e9 b2bf
000003b0: 051a b3ea 89d4 debf c6e3 c92a 344e c43f
000003c0: 0000 0000 0fed bdbf 0000 00e0 bcb6 d8bf
000003d0: 0000 0080 9a77 d83f 0000 0080 1462 c13f
000003e0: 0000 0020 2546 cfbf 13fb ebce de1c cdbf
000003f0: a113 73f5 0b45 c13f a0f0 7478 456d d2bf
00000400: 08ff cf17 edec d13f db92 ab6c dabd d1bf
00000410: 0000 0000 8ede d63f 0000 0080 e575 bdbf
00000420: 0000 0000 775c b53f 0000 00c0 c0b0 dbbf
00000430: 0000 0080 122a b3bf 0000 0000 a62e b0bf
00000440: 0000 0040 dd09 c0bf 0000 0000 b007 afbf
00000450: 0000 0080 bdad b2bf 0000 00c0 7025 d43f
00000460: c668 983a 67c1 ab3f 0378 de00 f69a cabf
00000470: b7a1 9b82 bbdc cf3f 4ba8 2d09 9c51 c33f
00000480: 444a 3659 61f5 d2bf 0000 0000 d9f1 c1bf
00000490: 0000 0080 8860 bfbf 0000 0080 6809 d63f
000004a0: 0000 0000 28ff 8bbf 0000 0000 9065 c13f
000004b0: 0000 0080 0ee1 c3bf 0000 0080 4070 cb3f
000004c0: 0000 0000 5e63 b8bf 0000 0000 15a0 c83f
000004d0: 0000 0000 8df7 a13f 0000 0080 81d9 c83f
000004e0: 0000 0000 a403 913f 0000 0080 f8bd d4bf
000004f0: 0000 00c0 8968 d9bf 0000 0040 97d0 d1bf
00000500: ca2e 6ac2 b48f af3f 5b8f 385c 1884 c43f
00000510: 9fd4 ea5b 00a2 cdbf 3b14 7277 3e26 cd3f
00000520: 3b1f 6b76 1ae7 d43f 443b a848 e994 c23f
00000530: ae6c f6dc 32f6 d3bf 6753 4d63 dd6e aa3f
00000540: 3cfc 809a 9d1e cc3f 944c 1bda 2d92 d83f
00000550: 0000 0000 cb91 d1bf 0000 0000 f4f6 ad3f
00000560: 0000 0000 45a0 c0bf 0000 0000 0079 cb3f
00000570: 0000 0000 7c66 ac3f 0000 0020 3579 d8bf
00000580: 0000 0080 e0ea b4bf 0000 0000 08bf 9f3f
00000590: 0000 0000 5e09 d7bf 0000 0020 1624 d9bf
000005a0: 40e4 9876 aa0f da3f b275 258f 1934 bfbf
000005b0: 1ce3 4d78 4725 d7bf d86e 9e3a e323 a33f
000005c0: 4693 4cf2 2c2b cc3f f67e 43fe 1b9d d53f
000005d0: 98ee cd8f e6f9 b33f a5dd c1ec c3ee cd3f
000005e0: eca0 a21b 596a d13f b363 37f7 a0b9 d83f
000005f0: f89a 22a0 c49a d03f f32e 8a1e 1b27 c1bf
00000600: ed0a 5b6d 6856 d1bf fbfa 790b 7d7d c9bf
00000610: 618d 0bc6 9c4c bcbf 0899 de3e 9b0a d3bf
00000620: 8635 5450 6b0c d3bf 8bc8 e955 eb0e e03f
00000630: 225e 8b28 7cf2 c0bf b6d1 0744 51e8 d43f
00000640: 82f5 33e6 5b67 dc3f 4908 be73 6961 b7bf
00000650: 85df 8d29 a125 d8bf 81ab 316a 0d45 d93f
00000660: 643f 2996 2279 b4bf 0000 0000 17fe b03f
00000670: 0000 0000 8544 c43f 0000 0080 2285 c4bf
00000680: 0000 0080 bf61 bdbf 0000 0060 0cff d7bf
00000690: 0000 0000 dcd4 983f 0000 0040 5d41 c0bf
000006a0: 0000 00c0 9d6e cdbf 0000 0000 08a9 c53f
000006b0: 0000 0000 46ba b4bf bec2 cd67 2b12 c13f
000006c0: 41d6 b142 df5d 97bf 9087 1f0d b92f dbbf
000006d0: 9703 95c8 e5b4 ca3f e4b2 3368 a049 c2bf
000006e0: bc55 19e1 62df b9bf bcf1 4895 8604 dd3f
000006f0: 01f8 9fdf a6bc da3f 7743 2ff1 a1bb d33f
00000700: 668d 9cf7 9406 d5bf 4f5e b1ae e9e6 d8bf
00000710: 3a07 5833 d1e9 803f 20e3 7e55 676e d3bf
00000720: 431a 0a17 4976 da3f 135d 2fe8 d3e6 d23f
00000730: d430 0239 719b cb3f 01b7 5f85 245c cfbf
00000740: 1b4c a1ea 1a3e 673f 93d6 bdbe e3f7 d13f
00000750: 799f bf73 805a c43f 9a2c 8616 43d7 b93f
00000760: 88eb 88b8 140e d53f 2290 e4b9 c150 b83f
00000770: 4d66 2407 7189 d83f ee3d 162f 791d b2bf
00000780: d099 1d84 1ede 9a3f 1c53 6085 26ff d03f
00000790: de81 3c01 6938 d83f 31f3 f802 6feb c73f
000007a0: e672 0cfd a149 313f 0000 0000 8507 b23f
000007b0: 0000 0000 4f03 b9bf 0000 0000 8cdd 9bbf
000007c0: 0000 0080 ed0c cd3f 0000 0000 6803 89bf
000007d0: 03ba 6641 8cbf cd3f da5a cca6 1742 d0bf
000007e0: 9e1b 2ee6 38a0 d0bf e945 5eae 0fc1 b53f
000007f0: c51a 5b3a 75b6 cbbf 42d1 ff7a 6d1e c33f
0.17257610324525902 -0.46318226548423597 0.25013240162822975 -0.1855362620513703 0.10752020416862217 -0.15748682618141174 -0.2859317362308502 -0.4182189404964447
-0.23558029532432556 0.102683424949646 -0.23193522732825378 0.09809374512669292 -0.3828314154560534 0.4073011141383617 0.06250279694153081 0.29222941398620605
-0.12881866097450256 -0.2658160924911499 -0.36438190937042236 -0.08555623888969421 -0.16404101252555847 -0.012782365083694458 0.3968053460121155 0.01920926570892334
-0.4070501923561096 -0.14969013496328978 0.3375526679126632 0.36789943957521376 0.09937542451337864 -0.3568866922204486 -0.20934510597541037 -0.27543653622216896
0.28546745322863204 0.261464632560245 0.408177642306663 0.37379854917526245 -0.41267502307891846 -0.0874796211719513 -0.3212490677833557 0.085968017578125
0.19184004133016325 -0.2486310460213162 -0.004114148386530842 0.11950619368341872 0.25356595501743384 0.32646456795743684 0.02567005883615522 0.08026449262127991
-0.3772232208817192 0.13620503996824548 -0.3206079084170398 -0.06455442783068771 0.36741409887102155 0.0104396081515802 0.13702751532794002 0.28384692967471575
0.19437470831212494 0.012691299586942213 0.3295524239019548 0.0181466868644439 -0.1584734320640564 0.10327941179275513 -0.35499274730682373 0.29825127124786377
-0.19943299889564514 -0.3267680801874817 0.2051025781137398 0.41792312836280576 -0.0108088820173613 0.28203510733209625 -0.3487137735636867 0.2521869168760115
-0.11300669085654828 0.03084010411173083 -0.06729305872818109 -0.28154245018959045 -0.39090579748153687 -0.2809138894081116 0.3958856463432312 0.1273355484008789
0.20583591526974046 -0.03683479770358341 0.22423209961616927 -0.009695027531452578 0.14276024668735499 -0.039117834367034046 0.3654306761735799 0.1478399401756203
0.13954254341017344 0.2516532625152323 0.2305031418800354 -0.17867669463157654 -0.4265388250350952 0.046540647745132446 -0.28340089321136475 0.09408108705261888
0.05284816505004441 0.11380232327236144 0.2722874129571659 -0.19491455039509137 0.4977215715390452 -0.36899662879097694 -0.27842586428217314 0.23009477004312534
-0.02926506919590393 0.2008170485496521 -0.23314857482910156 -0.052512556314468384 -0.15051090717315674 -0.2524383068084717 0.4268262982368469 -0.1996842473745346
-0.30966246128082275 -0.41050320863723755 -0.41057053208351135 0.18489015906822764 0.29854274435480815 -0.07386896709842684 -0.48172233505138734 0.158636589901816
-0.11689847707748413 -0.3861534297466278 0.3823000192642212 0.1358056664466858 -0.24432815611362457 -0.22744355300525196 0.1349196384891487 -0.287919395097342
0.2800858242553521 -0.2772127209885135 0.3573336601257324 -0.11508020758628845 0.08344215154647827 -0.4326631426811218 -0.07486072182655334 -0.06321179866790771
-0.1253010332584381 -0.060605525970458984 -0.07296356558799744 0.3147851824760437 0.05420992460513356 -0.20785403292114787 0.24892372014370576 0.15092802475129682
-0.2962268229686382 -0.14019310474395752 -0.12256672978401184 0.3443242311477661 -0.013670265674591064 0.1359119415283203 -0.1553056836128235 0.21436315774917603
-0.09526622295379639 0.19238531589508057 0.035091787576675415 0.19413775205612183 0.016615450382232666 -0.32409489154815674 -0.39700549840927124 -0.2783563733100891
0.0616432654688573 0.16028122427916966 -0.23150639045858143 0.22772961456590388 0.326605430262578 0.14516941116058935 -0.3119017751539087 0.05162708127196574
0.2196843151486706 0.3839220647761945 -0.2745234966278076 0.0585247278213501 -0.129891037940979 0.214630126953125 0.055469393730163574 -0.38239791989326477
-0.08170893788337708 0.031002163887023926 -0.35994672775268555 -0.3928275406360626 0.4072061689544775 -0.12188873047622087 -0.36165034054242695 0.0373831757599114
0.2200676138974364 0.3377141936343685 0.07803193102693695 0.23384903965391604 0.27211597155338896 0.3863298811170878 0.25944629324150936 -0.13400591841888562
-0.27089892081509853 -0.19914210377097405 -0.11054401240430912 -0.29752236499406637 -0.29763300747512067 0.5018212011330133 -0.13240005473811417 0.3266795315132883
0.4438085315776662 -0.09133013797512136 -0.3772967248728423 0.3948396241236694 -0.0799733749965959 0.06637710332870483 0.15834105014801025 -0.1603129506111145
-0.11477276682853699 -0.3749419152736664 0.024249494075775146 -0.1269947588443756 -0.22993823885917664 0.1692209243774414 -0.08096730709075928 0.13336699074308983
-0.02281903118679041 -0.42478777200278106 0.20864555639311952 -0.14287190521226656 -0.10106485362606227 0.45340122774703295 0.417764395126028 0.30832718423066957
-0.32852672749341705 -0.3890938001618211 0.008258470897093074 -0.3036135039251793 0.4134695744509466 0.2953386084968354 0.21568122180577254 -0.24499947082897935
0.0028372312272409 0.2807549822531225 0.15901189471992064 0.10094088840394236 0.328984432420548 0.09498225010298758 0.3833887643573675 -0.07076222800809948
0.026237942517946256 0.2655731489660853 0.3784430038522525 0.18687236447467506 0.00026378826901111844 0.07042723894119263 -0.09770673513412476 -0.027212321758270264
0.2269570231437683 -0.012213528156280518 0.2324080771772544 -0.2540339592828055 -0.25977919081236134 0.084977130957007 -0.21650567387970035 0.14936607843231725

fc1.bias f8 [64]
00000000: 0a3c 60f1 9a6d d0bf 0000 0080 bedb c43f
00000010: 80cd e7a9 87c6 d03f 0000 0000 fe83 b03f
00000020: 0000 0000 e5a4 d8bf c5eb 15a5 c5f1 c4bf
00000030: de9f bb0a 4b66 c9bf 0000 0060 4b8a d1bf
00000040: 3de3 e8fc 473b dabf 17f6 1bb1 8e5a a2bf
00000050: 5996 bbd6 f1a2 c33f 3720 8923 e656 b4bf
00000060: 0000 0040 0d1b cabf aea5 28e0 139d d0bf
00000070: 8c03 bd1b 323f b7bf 0000 0080 a336 cb3f
00000080: b5ff 215e d704 c5bf 3d50 7bc1 0c46 a6bf
00000090: 0000 0040 2f60 ccbf cbdc 3b77 b9fe cdbf
000000a0: 54ab 549e 5b7d a73f 0000 0000 4a57 ac3f
000000b0: 0000 0000 983d a63f 46b9 c02c 8108 b9bf
000000c0: 0000 00e0 ae6e d0bf 7baf 1de2 4087 d13f
000000d0: 0000 00c0 8ccf d7bf 0000 0060 45f3 cfbf
000000e0: e0b1 54a7 8c31 d0bf 0000 0080 6bb3 d5bf
000000f0: 0000 00a0 0efb d4bf 0000 00c0 2002 c4bf
00000100: e407 a487 de2e c2bf 4daa ca38 5bba dcbf
00000110: 0000 0080 bd3c c1bf 0000 0000 6003 73bf
00000120: 402d eab2 02a2 acbf b5ac 9e03 aba9 d03f
00000130: 1b1a a43b 6c5f bcbf 4a8f 57f7 f371 bf3f
00000140: e068 6d15 f0cf acbf 0000 00e0 3c78 cabf
00000150: 0000 0000 7f04 a03f 610e 2150 ba0b d43f
00000160: 142d de03 52a0 d23f 22ee ea10 53f6 b43f
00000170: f63a fba6 5409 dfbf 4e75 c8c9 869f 91bf
00000180: 6bba 6d91 3844 bfbf 0000 00e0 1b69 dcbf
00000190: a3a3 d052 ce65 e03f fd6f 7a9c fb81 db3f
000001a0: 57dc 780b 47fc b33f 0000 0020 b4b5 d0bf
000001b0: 0000 00e0 eb9e d4bf 0000 0000 d682 ab3f
000001c0: 206c f801 c638 d1bf 8dbc a267 7579 ba3f
000001d0: 0000 0080 1a7f d2bf fc6a bc55 472c dabf
000001e0: 0000 0000 c9c8 d0bf 417d 55e2 d05b cabf
000001f0: d574 42e0 2699 cebf 9b01 1528 cdb2 d93f
-0.2566897732912713 0.16295605897903442 0.26211730568248726 0.06451404094696045 -0.38506436347961426 -0.16362829743215293 -0.19843423866336612 -0.2740658223628998
-0.40986823747839535 -0.03584714805581884 0.15341017708776652 -0.07945097320146109 -0.20395055413246155 -0.25958725824838325 -0.09080804040151075 0.21260493993759155
-0.16421024414375798 -0.04350318776928972 -0.22168532013893127 -0.2343360740848993 0.045878279759867496 0.05535346269607544 0.04343867301940918 -0.09778601973150555
-0.2567555606365204 0.2738802154697095 -0.37204283475875854 -0.24961154162883759 -0.25302425709631216 -0.3390759229660034 -0.32782331109046936 -0.1563149392604828
-0.1420553362186744 -0.44887428804455426 -0.13466614484786987 -0.004641890525817871 -0.05592354234712582 0.26035571435449906 -0.1108310361488311 0.122832534681547
-0.05627393971981731 -0.2067943662405014 0.03128430247306824 0.3132158072005265 0.29103517892572595 0.08188361323384943 -0.4849444990804125 -0.017210107866153117
-0.12213471937659796 -0.44391533732414246 0.5124274842720421 0.429808523951351 0.0780681994445883 -0.26109030842781067 -0.3221997916698456 0.05373257398605347
-0.26909017746374 0.10341581134956553 -0.2890077829360962 -0.4089525544419954 -0.2622549533843994 -0.20592700053655658 -0.23904882383513973 0.4015381709505392

fc2.weight f8 [128, 64]
00000000: a2e1 4af0 e75f c53f 0000 0080 7bd3 a83f
00000010: 26db 5bc7 ba9a c9bf 0000 0080 ed40 b53f
00000020: 0000 00c0 a7f9 b3bf df21 557b d88c 77bf
00000030: 3a11 d242 10a1 b7bf 0000 00c0 2e83 b53f
00000040: 7c49 3ea4 2352 80bf 7864 74b6 93df b8bf
00000050: ca2b 8cbf aaa2 ca3f 3c86 ae1b 98e4 6bbf
00000060: 0000 0000 e062 a73f 6938 f565 2c88 c23f
00000070: f82a 4f90 2324 ae3f 0000 0080 dd6e bdbf
00000080: 8dd9 04e0 e2e3 b23f 63a2 be77 e61f a9bf
00000090: 0000 0080 7eda b9bf aa28 701a 104d b33f
000000a0: b73f e9ed 78d6 cfbf 0000 0000 62e4 bf3f
000000b0: 0000 0000 176f b1bf f879 bf15 f767 b4bf
000000c0: 0000 0080 db41 ab3f 4a9c ee62 f029 b1bf
000000d0: 0000 0000 a708 bebf 0000 0080 2d93 bc3f
000000e0: bf42 41d0 5a10 a4bf 0000 0040 67ee be3f
000000f0: 0000 0000 ab2e 9abf 0000 0080 089e a03f
00000100: ca64 977b 01b5 b73f 9a90 62c2 22e0 b23f
00000110: 0000 0000 7fd0 af3f 0000 0040 d75a b43f
00000120: 039b 1888 6c26 99bf a41d 630f ecf1 c13f
00000130: 532d d233 aaed b1bf 8a51 95b9 c69f b93f
00000140: 2f74 c712 72c8 c4bf 0000 0040 a9bc b8bf
00000150: 0000 0080 676f acbf 6018 8a8e e5b3 bebf
00000160: 3075 f31c 5f53 c13f df75 c512 8492 c33f
00000170: 9031 e09e 4ba6 ba3f 39a7 4d25 71c7 c23f
00000180: 777e 8727 fe2b a4bf 0000 0040 1085 bebf
00000190: 9230 c35d b730 c0bf 7552 8daf 529a b73f
000001a0: 17f3 711b 6189 c13f 0000 0000 395c a3bf
000001b0: 0000 0080 c2a6 a63f 0000 0000 83f8 b2bf
000001c0: 8973 8d9b ee29 a3bf 24b1 4cf8 06e5 c93f
000001d0: 0000 0000 bb5f afbf 4f46 c824 af51 c83f
000001e0: 0000 0000 319b 953f 1878 6736 f113 a3bf
000001f0: 83ab 2ae2 8d81 c03f 1d5c 96eb fd75 b2bf
00000200: be2f 0c29 4cb9 c23f 0000 0000 0e58 a83f
00000210: e70a 88e7 549c 9fbf 0000 0080 b274 bdbf
00000220: 0000 0000 153d b93f e622 622e 665f c33f
00000230: 0bfc 2fbb ed61 b33f 0000 0000 5e28 a0bf
00000240: 32ff 05e9 5af2 bebf 9f86 da0e 8d6a c23f
00000250: 94b4 e40d daf8 bb3f 4ba6 efac 5c79 c23f
00000260: 0000 0000 70ff b1bf 5345 33be 513b b53f
00000270: 924e f132 fca1 6dbf 0000 0000 6918 adbf
00000280: 1dd8 9c60 ffcc be3f a59e 6c5a 2924 bf3f
00000290: 0000 0000 62da 913f 2932 f477 0ae9 c23f
000002a0: 440a ca6b 8b1b cebf 0000 0000 627b bf3f
000002b0: 0000 00c0 10a0 bebf 969d e3eb 35dc a73f
000002c0: 0000 0080 eafd a83f ce35 0061 7826 6a3f
000002d0: 0000 0040 e231 b3bf 0000 0000 cc52 893f
000002e0: 7d0c bdf4 0bcd bfbf 0000 0040 2580 babf
000002f0: 0000 0000 205a bb3f 0000 00c0 8aa4 b53f
00000300: 5b27 693e 6b0f b13f ffdf 3029 f623 803f
00000310: 0000 0080 14e5 b0bf 0000 00c0 d7cb b13f
00000320: c112 d9f7 e6bd c5bf 6320 4ceb 1c92 82bf
00000330: 982e ae64 7495 abbf 67fd c90e 9f08 b13f
00000340: 73c4 6008 3c84 c7bf 0000 0000 82a6 98bf
00000350: 0000 0000 7e0b ab3f c6fc 6015 efe8 b7bf
00000360: a0e3 bd3e 64b6 c13f c327 40f4 44bf b83f
00000370: 8478 90e9 1890 b2bf 0f31 d106 5bbb 8d3f
00000380: 5fc3 63bf 9be5 b83f 0000 0000 2ba9 95bf
00000390: b6eb c75f 46aa d0bf 75c2 922e c08f 8cbf
000003a0: fc4a a2ce add4 b83f 0000 0000 f07a 51bf
000003b0: 0000 0000 57d5 a43f 0000 0080 8822 a3bf
000003c0: 0787 8526 c9e7 b23f 0c0a 2b09 aff2 d33f
000003d0: 0000 0000 1962 993f 28e3 7b5d b493 863f
000003e0: 0000 0040 ef62 b33f 737f 8646 4b8d a2bf
000003f0: 7ca2 531d 6f51 96bf 5fff 21eb 2d3d bebf
00000400: 0000 0080 2142 aa3f 0000 00c0 6b5c bd3f
00000410: 0000 0000 19cf ac3f 0000 0000 917f 95bf
00000420: 0000 0000 1f42 a7bf 0000 0000 eb0a 993f
00000430: 0000 0000 4844 983f 0000 0000 c204 9fbf
00000440: 0000 00c0 63b3 bd3f 0000 0080 a9a7 bd3f
00000450: 0000 0000 bc86 8d3f 0000 0080 79c3 a2bf
00000460: 0000 00c0 424a bf3f 0000 0000 cbb0 b73f
00000470: 0000 0000 da55 853f 0000 0040 17bc bd3f
00000480: 0000 0040 e9e5 b7bf 0000 0000 28e9 673f
00000490: 0000 0080 8a3b ae3f 0000 0000 f874 823f
000004a0: 0000 0040 0864 bbbf 0000 0080 5d55 aa3f
000004b0: 0000 0000 bcd2 853f 0000 0000 71ea a43f
000004c0: 0000 0000 32e7 abbf 0000 0000 edc6 a4bf
000004d0: 0000 0040 cdc8 b3bf 0000 0080 2bce a1bf
000004e0: 0000 0000 f8a5 7b3f 0000 0000 3d61 a63f
000004f0: 0000 0000 d464 9bbf 0000 0000 242b 79bf
00000500: 0000 0000 08be 813f 0000 0000 f902 95bf
00000510: 0000 0000 0680 b43f 0000 0000 ae40 8fbf
00000520: 0000 00c0 06a1 b43f 0000 0080 c820 afbf
00000530: 0000 0080 5558 b83f 0000 0000 a326 a93f
00000540: 0000 0000 ee98 973f 0000 0000 36ff 8b3f
00000550: 0000 0000 59cc 943f 0000 0080 0316 bc3f
00000560: 0000 0000 5175 bb3f 0000 0080 b485 bd3f
00000570: 0000 0000 81ae aabf 0000 0080 1c41 ba3f
00000580: 0000 0080 0ba5 b9bf 0000 0080 847b bebf
00000590: 0000 00c0 a774 ba3f 0000 0080 bffc b5bf
000005a0: 0000 0080 ccd1 a6bf 0000 0000 1457 bcbf
000005b0: 0000 0080 a6f6 b63f 0000 0000 5724 9ebf
000005c0: 0000 0080 75e0 a3bf 0000 0000 b441 813f
000005d0: 0000 00c0 819c b8bf 0000 00c0 2ed2 b23f
000005e0: 0000 00c0 38c3 b33f 0000 00c0 c30a b2bf
000005f0: 0000 0000 e1dd 923f 0000 0000 7a72 afbf
00000600: 0000 0080 eeee babf 0000 0000 a614 903f
00000610: 0000 0000 6413 b4bf 0000 0000 f8a8 9b3f
00000620: 0000 0080 6f2c a1bf 0000 0000 a6ec aebf
00000630: 0000 0000 32aa b13f 0000 0000 835e b6bf
00000640: 0000 0000 9da3 93bf 0000 00c0 0687 babf
00000650: 0000 0000 be9c 913f 0000 0000 a3d5 bb3f
00000660: 0000 0000 b8fd 793f 0000 0000 ec8d bbbf
00000670: 0000 00c0 3148 b4bf 0000 0080 6577 b2bf
00000680: 0000 0040 d13c b23f 0000 0080 40b7 b33f
00000690: 0000 0000 7842 aebf 0000 0000 578d a23f
000006a0: 0000 0000 589f 613f 0000 0000 34bb 733f
000006b0: 0000 0080 04cd b3bf 0000 0040 0071 bc3f
000006c0: 0000 0000 1463 973f 0000 00c0 43de b33f
000006d0: 0000 0000 2393 a6bf 0000 0080 fdc4 a73f
000006e0: 0000 0080 b4da b4bf 0000 0080 1b68 b83f
000006f0: 0000 0040 f375 b23f 0000 0000 1ecb 82bf
00000700: 0000 00c0 5720 b3bf 0000 0040 1ab3 b7bf
00000710: 0000 0000 b48b 703f 0000 0080 b6b8 aabf
00000720: 0000 0000 ab94 913f 0000 0040 9ebb b9bf
00000730: 0000 0040 1196 bb3f 0000 0000 404b bbbf
00000740: 0000 0000 1010 6c3f 0000 00c0 cce3 b0bf
00000750: 0000 0080 7286 a9bf 0000 0080 9af3 b43f
00000760: 0000 0080 f5fb b4bf 0000 0000 6467 b6bf
00000770: 0000 00c0 3c4e b1bf 0000 0040 f0dc b8bf
00000780: 0000 0000 204c 82bf 0000 0000 0cd3 9fbf
00000790: 0000 0000 4839 9f3f 0000 0080 f250 ae3f
000007a0: 0000 0000 60b7 af3f 0000 0040 44be ba3f
000007b0: 0000 0000 e0ef 5b3f 0000 0000 871d a73f
000007c0: 0000 0080 3634 b53f 0000 0080 d411 a03f
000007d0: 0000 0000 c288 99bf 0000 0000 97b2 98bf
000007e0: 0000 0000 0c8e 7cbf 0000 0080 a5e5 a23f
000007f0: 0000 0000 f98c b9bf 0000 0000 0336 babf
0.16698931916267862 0.04848848283290863 -0.2000344727927878 0.08302196860313416 -0.07802818715572357 -0.005749555236726127 -0.09230138427125648 0.08403293788433075
-0.00796916813832093 -0.09716151432475495 0.20808920243174917 -0.0034049006330441316 0.045676231384277344 0.14478068331158347 0.05886946808421628 -0.11497291922569275
0.07378976792538179 -0.04907150470473167 -0.10099020600318909 0.07539463658773352 -0.24873267761949844 0.12457859516143799 -0.06810134649276733 -0.07971138268428735
0.05323682725429535 -0.06704618850072666 -0.11731952428817749 0.11162075400352478 -0.039187276765578975 0.12082524597644806 -0.025568649172782898 0.032455697655677795
0.09260567920081822 0.07373254056671144 0.06213757395744324 0.0795111209154129 -0.024560638243339216 0.14019537688566885 -0.07003272786294205 0.1000942423900765
-0.16236711422871639 -0.09662874042987823 -0.055537447333335876 -0.11993250589338933 0.13535679734824546 0.1529088107735523 0.10409996632387775 0.14671148606731224
-0.039398138356543315 -0.1192178875207901 -0.12648670271153556 0.09219853197039092 0.13700498428433924 -0.0378129780292511 0.04424102604389191 -0.07410448789596558
-0.03742929123720901 0.2023018562698634 -0.06127724051475525 0.18999280258190018 0.021099820733070374 -0.03726152218926887 0.1289536814050188 -0.07211291314739339
0.14627983097341074 0.04754680395126343 -0.030869795447879957 -0.11506190896034241 0.09858828783035278 0.15134885086833733 0.07571302242284632 -0.03155797719955444
-0.12088554562614887 0.1438766787078309 0.10926592673486574 0.14432867473742514 -0.07030391693115234 0.08293639081536712 -0.003617279602204545 -0.05682685971260071
0.12031551464755848 0.12164553125023277 0.017434626817703247 0.14773684365390352 -0.2352155948938891 0.12297642230987549 -0.11962990462779999 0.046601948781069755
0.048812225461006165 0.0031921721602034886 -0.07497991621494293 0.012364953756332397 -0.12422251439152095 -0.10351784527301788 0.10684394836425781 0.08454196155071259
0.06664152406406514 0.007881091243788772 -0.0659954845905304 0.06951664388179779 -0.1698578558154136 -0.009067750864702078 -0.05387462357529421 0.066537800894357
-0.18372297677118218 -0.02407267689704895 0.0528220534324646 -0.09339803955025436 0.13837864936411126 0.0966685386958082 -0.07251125051740998 0.014517508645575576
0.0972535459766397 -0.02115313708782196 -0.26039275506598913 -0.013946057721427632 0.09699522299551327 -0.0010669082403182983 0.04069015383720398 -0.03737284243106842
0.07384926977604432 0.3116872396023218 0.024788275361061096 0.011023911574271475 0.07572837173938751 -0.036234238013320395 -0.02179502121444664 -0.11812102308794924
0.05128578841686249 0.11469148099422455 0.05626752972602844 -0.020994439721107483 -0.04542633891105652 0.024455711245536804 0.023697972297668457 -0.030291587114334106
0.11601851880550385 0.11583957076072693 0.014417141675949097 -0.036647602915763855 0.12222687900066376 0.0925413966178894 0.010417655110359192 0.11615128815174103
-0.09335191547870636 0.0029187947511672974 0.059048011898994446 0.009012162685394287 -0.1069951206445694 0.0514325350522995 0.010655850172042847 0.04085114598274231
-0.054498255252838135 -0.040580183267593384 -0.07728274166584015 -0.034776076674461365 0.00675007700920105 0.0437106192111969 -0.026751816272735596 -0.006144657731056213
0.00866323709487915 -0.020519152283668518 0.08007848262786865 -0.015260085463523865 0.08058206737041473 -0.06079699099063873 0.0950978696346283 0.049122899770736694
0.023044317960739136 0.013670369982719421 0.020310774445533752 0.10971090197563171 0.1072588562965393 0.11532142758369446 -0.05211260914802551 0.1025560200214386
-0.10017463564872742 -0.11907222867012024 0.10334251821041107 -0.08588787913322449 -0.044569388031959534 -0.11070370674133301 0.0897010862827301 -0.029435500502586365
-0.038821861147880554 0.008426100015640259 -0.0961381047964096 0.07351963222026825 0.0771975964307785 -0.07047675549983978 0.01842452585697174 -0.0614202618598938
-0.10520830750465393 0.01570376753807068 -0.07842087745666504 0.027011752128601074 -0.03354214131832123 -0.06039923429489136 0.06900322437286377 -0.08737963438034058
-0.01917882263660431 -0.10362283885478973 0.01719948649406433 0.10872858762741089 0.006345480680465698 -0.10763430595397949 -0.07922659814357758 -0.0721343457698822
0.07124049961566925 0.07701495289802551 -0.05910086631774902 0.03623458743095398 0.002151176333427429 0.004817202687263489 -0.07734706997871399 0.1110992580652237
0.022838890552520752 0.07761023938655853 -0.04409131407737732 0.04642479121685028 -0.08146217465400696 0.09533855319023132 0.07211227715015411 -0.009176477789878845
-0.07471226155757904 -0.09257663786411285 0.004039481282234192 -0.052190497517585754 0.017168685793876648 -0.1005190759897232 0.10775859653949738 -0.10661697387695312
0.0034256279468536377 -0.06597594916820526 -0.04985387623310089 0.0818420946598053 -0.08196958899497986 -0.08751511573791504 -0.0676000565290451 -0.09712125360965729
-0.008934259414672852 -0.0310785174369812 0.030491948127746582 0.059211328625679016 0.06194591522216797 0.10446573793888092 0.0017051398754119873 0.04514715075492859
0.08282795548439026 0.031386032700538635 -0.024935752153396606 -0.02411876618862152 -0.006971403956413269 0.036908313632011414 -0.09980732202529907 -0.10238665342330933

fc2.bias f8 [128]
00000000: 4331 33c2 1375 94bf 08c8 2059 0948 ab3f
00000010: 0000 0080 186d b8bf 0000 0000 0a1b 8b3f
00000020: e2c2 58cf e9f6 8dbf da71 0981 a092 9a3f
00000030: 0000 0040 d8fe b0bf 0000 0080 82a7 a6bf
00000040: 0000 0040 e69e b2bf be0d 465e 14f5 a8bf
00000050: 0000 0000 32fb 8ebf db01 eee6 4296 9ebf
00000060: 081b dd27 1b5c aa3f ff7b 3b26 cd9c c2bf
00000070: 2674 4498 a1f1 a23f d20f cdf2 df1a b9bf
00000080: 84e5 1ebd 1d18 c03f 406d 6c41 d36a c5bf
00000090: f6e0 df74 2c73 a63f 0000 00c0 7926 bcbf
000000a0: 0000 0000 6424 a8bf d7ee 5b9f e1f3 b53f
000000b0: dc8b d255 0f0b 96bf 0000 0000 0e99 a83f
000000c0: fa6b 9533 f932 c33f 0000 0080 5112 a1bf
000000d0: 2d61 0f98 4eb3 aebf a11e d3e5 fb0c 84bf
000000e0: 2afc 09fb 77b7 b23f e5a4 e761 a0c3 c1bf
000000f0: 3a45 fbe8 1138 a1bf 35b1 80d6 b0b1 963f
00000100: 0000 0000 bd99 adbf dfd5 df38 280f 9fbf
00000110: 3e4a 9402 ae41 ab3f 6c5e e46a 28fb 6fbf
00000120: e9a1 18eb 4dcf abbf 0000 0080 adfc b2bf
00000130: 0000 0080 628a a1bf 0000 0000 64f7 a2bf
00000140: 7fae 22fe e547 bfbf 55d9 cc79 f308 c4bf
00000150: 0ac8 fcbb ac84 c03f 0000 0000 f7c7 a03f
00000160: 0000 00c0 8e3e b8bf 4fa9 8465 45c7 9b3f
00000170: dbcc 383f 14e1 c4bf bb2a 40c5 8786 93bf
00000180: b958 b7e5 a769 b7bf ad0a c6c1 bd8a c03f
00000190: 0000 00c0 ffcf bdbf 0000 0000 b75f 94bf
000001a0: 5d15 4c68 2fc1 9e3f 2af0 e260 6144 a3bf
000001b0: 2c18 ad68 b3ce a5bf 0000 0000 fca6 853f
000001c0: 2755 44d9 da5d a4bf 0000 0080 86fe a7bf
000001d0: 0000 0000 d6c9 93bf 0000 0000 1bd8 adbf
000001e0: 12b6 5a70 f411 b0bf 0000 0080 0a11 b2bf
000001f0: f654 367e c003 babf 0000 0000 a7b3 aebf
00000200: 0000 0000 7d20 a6bf 50cb 91f1 5e14 c23f
00000210: 0475 0fe0 d1d8 97bf f6b4 3e79 408f c23f
00000220: d3d6 fd0e bd97 aa3f 3719 4495 fa6f a83f
00000230: 0c02 73ec 10e3 b63f e5a8 98f3 59a4 b7bf
00000240: 0000 0000 b53b adbf e06d 5a75 12ed a0bf
00000250: 1d05 0401 4b3c b83f 0b02 7b1b 711d b03f
00000260: 95f5 89be ddaf b83f 0000 0080 ffb8 a8bf
00000270: 0499 047f 6ca2 b93f 0000 0000 9012 50bf
00000280: 0000 0000 20d5 61bf 0000 0000 d235 a43f
00000290: 9dba 6bd4 8ba9 b5bf 2fbf bf9a 4edb c1bf
000002a0: 0000 00c0 68f8 bbbf 83b1 d974 3cb1 933f
000002b0: e5cb 0d7d f8ee b9bf 05ed 8023 48b0 a43f
000002c0: 0667 ec13 71cf 933f 0000 00c0 4f90 bc3f
000002d0: 175d c72b 1dc3 c1bf 3a13 ffdb b2f4 c5bf
000002e0: 0000 0000 4e8a 8a3f 0664 2d77 1b72 aabf
000002f0: ad63 9c88 82dc ad3f 8053 75ef 4a5c b1bf
00000300: bebc 6381 b102 ba3f 0000 0000 9da1 b7bf
00000310: 4c49 4062 5be6 b8bf 2098 8d94 969d b5bf
00000320: 8f60 4f17 b4dd 603f 0fe4 b35c 57da abbf
00000330: 9666 a302 c4ee a03f 50f6 dbec 814a 983f
00000340: 20ac c4cf fe81 883f 40cf 5dac 6215 c03f
00000350: 3d36 9f92 7e1d 8abf e2f6 de1a 9019 c6bf
00000360: 0000 0000 4afb 893f c8f9 1d83 9f77 b23f
00000370: 1873 0f3f 5f54 983f 92d2 e86f 0d1c c13f
00000380: cd2f cde0 0fde a5bf 0000 0000 374a afbf
00000390: 66c7 6a7e 2ae3 b4bf 3ae2 d4fb 4fdf 83bf
000003a0: 1535 2ac9 f740 b1bf 8124 8962 d842 a93f
000003b0: 84f0 c84e 6785 81bf 3041 367c 6b3a bdbf
000003c0: 6bd0 25fc d7c6 bb3f 8ab6 7fcc a7cc c1bf
000003d0: e824 df70 9ba0 b63f 0000 0000 6295 b73f
000003e0: 47bc edef 9b1c b33f f4e9 c9b7 e6ed bd3f
000003f0: dd59 e233 9244 af3f 0000 0000 bdfe 98bf
-0.019977864006066836 0.053283970003022374 -0.0954146683216095 0.013235166668891907 -0.01463110603353485 0.025949962497508007 -0.06638862192630768 -0.044246748089790344
-0.07273711264133453 -0.04874480868150098 -0.015127554535865784 -0.029870076508361137 0.0514839636003242 -0.14541019789518825 0.03699974998219373 -0.0980663268829283
0.12573596701058076 -0.167322546906556 0.04384745527926441 -0.1099620908498764 -0.04715263843536377 0.08575258389094685 -0.021526565182863652 0.04804271459579468
0.14999308603987044 -0.0333428829908371 -0.05996175390436274 -0.009790389968102277 0.07311200980073865 -0.1387825468112062 -0.03363090485584981 0.0221622115060864
-0.057813555002212524 -0.030331257315955425 0.05323547154889184 -0.0039039410977570934 -0.05431598181559478 -0.07416805624961853 -0.03425891697406769 -0.03704369068145752
-0.12219083265761731 -0.15652316519999468 0.12904891184877015 0.03277561068534851 -0.09470455348491669 0.027127346345119204 -0.1631188687038961 -0.019067880071853987
-0.09145593031221012 0.1292340465698393 -0.1164550632238388 -0.01989637315273285 0.030033817997737845 -0.03763107593246702 -0.0425926270750526 0.0105724036693573
-0.039778555890885685 -0.046863749623298645 -0.01932463049888611 -0.05828937888145447 -0.06277396910692115 -0.07057252526283264 -0.10161974984506003 -0.059964388608932495
-0.04321661591529846 0.1412466697252861 -0.023288039494095095 0.14499669952548516 0.051938922958397214 0.047729330750416236 0.08940225384413497 -0.09235155293632465
-0.05709615349769592 -0.03305871660742432 0.09466999792859494 0.0629492466059746 0.09643350507572841 -0.048286423087120056 0.10013464070343409 -0.0009809881448745728
-0.002176821231842041 0.039473116397857666 -0.08461831985526165 -0.13950521999458362 -0.10925917327404022 0.01923078978727367 -0.10130265286515756 0.04040742333787687
0.019346014824896528 0.11157701909542084 -0.13876690518984766 -0.17153011075984087 0.012959107756614685 -0.05165181951333157 0.058322982002386815 -0.06781452509069474
0.1016035977261138 -0.09230977296829224 -0.0972649683829207 -0.08443585516724328 0.0020588414576928125 -0.05440018660187473 0.03307163746076218 0.023721723634471836
0.011966696467956395 0.125652631915381 -0.012751568650766315 -0.17265511810358364 0.01268632709980011 0.07213780356503385 0.023759353851221382 0.13366859402016878
-0.04270982379111352 -0.06111308932304382 -0.08159127794604401 -0.009703278420247863 -0.06739758168460626 0.04933811381176501 -0.0085552283209085 -0.11417266638296009
0.10850286394071566 -0.13905808911606626 0.08838817124992071 0.09212315082550049 0.07465529067643316 0.11691133486775823 0.06107003100730755 -0.024409249424934387

fc3.weight f8 [64, 128]
00000000: 0000 00a0 f3b9 b53f 0000 0060 44e9 a1bf
00000010: 0000 0020 80e8 b03f 0000 0000 e649 923f
00000020: 0000 0000 00bf 46bf 0000 0060 d37d b43f
00000030: 0000 0000 1476 633f 0000 0080 59fc b0bf
00000040: 0000 00c0 5905 aa3f 0000 0000 43c6 823f
00000050: 0000 0080 98fa b3bf 0000 00c0 18f8 ad3f
00000060: 0000 0080 5b6c 9abf 0000 0020 95b3 adbf
00000070: 0000 0000 fa56 723f 0000 0000 9e6e 993f
00000080: 0000 0040 20f5 9fbf 0000 0000 48c5 813f
00000090: 0000 0000 229e 99bf 0000 0020 4161 b6bf
000000a0: 0000 00c0 e6a3 b4bf 0000 00a0 8b67 aebf
000000b0: 0000 0080 5dc9 9ebf 0000 0000 708b 693f
000000c0: 0000 0000 ee72 7dbf 0000 00e0 279a b0bf
000000d0: 0000 0000 05ff 9d3f 0000 00c0 ddc7 ae3f
000000e0: 0000 00a0 6bae b1bf 0000 0040 1b8d a43f
000000f0: 0000 00a0 fd4b b03f 0000 0000 c41f 8e3f
00000100: 0000 00a0 15b4 a0bf 0000 0000 cd8a 813f
00000110: 0000 0000 24a8 8dbf 0000 0060 bd02 b1bf
00000120: 0000 0080 57d6 97bf 0000 00a0 c571 a3bf
00000130: 0000 0080 ce6c 9abf 0000 0000 d29f 73bf
00000140: 0000 0080 4c10 913f 0000 0040 3475 a43f
00000150: 0000 00a0 b58a b53f 0000 0040 b220 a53f
00000160: 0000 0000 1b85 8f3f 0000 0000 2e58 85bf
00000170: 0000 00c0 671e a4bf 0000 0060 f8b1 b0bf
00000180: 0000 00c0 c3d7 9fbf 0000 00c0 2978 a53f
00000190: 0000 00c0 06c3 ab3f 0000 0080 b5e6 9bbf
000001a0: 0000 0060 a3f7 b13f 0000 0000 8e5a 8b3f
000001b0: 0000 0020 624c b53f 0000 0000 80ae a03f
000001c0: 0000 0040 bb82 af3f 0000 0000 8536 96bf
000001d0: 0000 00c0 73a4 b4bf 0000 0000 fda3 a6bf
000001e0: 0000 0000 c2f9 813f 0000 0040 34b4 a23f
000001f0: 0000 0040 8d66 a6bf 0000 0040 ea4d a2bf
00000200: 0000 0040 cd82 a43f 0000 0000 641b 88bf
00000210: 0000 0000 47e4 98bf 0000 0060 6078 a3bf
00000220: 0000 00c0 e1da 9dbf 0000 0020 3a28 acbf
00000230: 0000 00a0 0f06 b33f 0000 00c0 465a a73f
00000240: 0000 0060 78d9 b23f 0000 0000 4bbf 90bf
00000250: 0000 0080 37c8 953f 0000 00a0 daa3 aebf
00000260: 0000 00c0 508f ae3f 0000 0000 4008 2abf
00000270: 0000 0000 d4e9 703f 0000 0080 9b39 b1bf
00000280: 0000 0080 27f1 a6bf 0000 0000 d41c 92bf
00000290: 0000 0080 5b78 b0bf 0000 00a0 5ca4 b13f
000002a0: 0000 0040 0741 a33f 0000 0060 eff5 a4bf
000002b0: 0000 0000 e8af 86bf 0000 0080 9e78 b3bf
000002c0: 0000 0080 c7d3 b3bf 0000 0080 2045 a6bf
000002d0: 0000 0000 82ac 83bf 0000 00a0 27fd adbf
000002e0: 0000 0000 8770 a7bf 0000 0020 1c18 b6bf
000002f0: 0000 0000 3016 8dbf 0000 00e0 6b85 acbf
00000300: 0000 0000 748f 86bf 0000 0020 6941 b53f
00000310: 0000 00e0 e340 abbf 0000 0040 256d ac3f
00000320: 0000 00c0 e10d a2bf 0000 0040 8863 a5bf
00000330: 0000 0080 2a83 9e3f 0000 0020 7846 b6bf
00000340: 0000 00e0 ade9 a8bf 0000 0000 cd3a a23f
00000350: 0000 00c0 4b7c aa3f 0000 0000 c6be 85bf
00000360: 0000 0000 f94b 8bbf 0000 00e0 caba b5bf
00000370: 0000 0060 4a00 a6bf 0000 0000 3838 643f
00000380: 0000 00a0 d43e b63f 0000 00c0 481a af3f
00000390: 0000 00a0 bf62 b23f 0000 0000 d856 95bf
000003a0: 0000 0040 44ac af3f 0000 0060 8ec9 b5bf
000003b0: 0000 0000 6fb3 91bf 0000 0040 8980 9ebf
000003c0: 0000 0020 bad5 b03f 0000 00a0 f422 b63f
000003d0: 0000 0000 b42f 97bf 0000 00e0 f02b b5bf
000003e0: 0000 0060 089e aebf 0000 0080 abd8 91bf
000003f0: 0000 0000 4d05 8ebf 0000 0040 e279 afbf
00000400: eb48 c6be 0d72 7e3f 8e10 527f f9a2 b0bf
00000410: 0000 00a0 bdc5 b2bf 0000 0080 6158 a8bf
00000420: 4ec3 7e52 1238 c2bf dde8 796a a827 bcbf
00000430: 0000 0000 fc65 6f3f 0000 00a0 e0ce b1bf
00000440: 0000 0060 5730 a4bf 5c73 fb6c 8769 a03f
00000450: 0000 00c0 9f2a a63f 0000 0040 acb3 a33f
00000460: 479b f3ad 14c4 523f 2e21 88fb 4568 993f
00000470: 823b ce06 9ab3 b3bf fa06 a4ba c0ea 953f
00000480: ec1f fd09 2c1b 773f 20ad 3998 ff57 963f
00000490: 83bb 259a 91b5 c03f 0000 00c0 fe0c a1bf
000004a0: 0000 0080 5f87 9a3f 5fb4 3daa fb87 b2bf
000004b0: d394 ca28 9442 ba3f 0000 0000 de0c 763f
000004c0: 3202 c520 bb66 aabf 0000 0000 e8d6 87bf
000004d0: 0000 0000 7cb1 7dbf ac1e 1f59 ec89 a93f
000004e0: c9d6 d485 6328 afbf 53f2 35a1 f83c af3f
000004f0: bbe9 2195 ee4c 9cbf e467 537e c7a6 853f
00000500: 0000 0020 63af b53f dec3 1750 5908 6ebf
00000510: 1aba c579 0b5f a43f dc8a e928 1c4b c13f
00000520: 6448 a072 c77d a43f 0000 00a0 4eae aebf
00000530: 0000 00a0 705f b53f 0000 0020 c538 b4bf
00000540: 7994 b549 3709 c2bf 6f65 a34e f1aa 9e3f
00000550: 03cd 7b2c 5aa8 a13f 0000 0060 5bb9 b43f
00000560: 0000 0080 e0c6 b1bf 463b baf9 4867 b03f
00000570: ae14 2507 e174 aa3f c884 ab2a 9407 a83f
00000580: 484f b3aa 9723 a13f 6cc3 0478 8411 babf
00000590: 0000 00c0 dab7 a63f 0000 0000 20b9 6b3f
000005a0: 9c85 5f75 01b8 ab3f c730 77b4 d939 7a3f
000005b0: b658 df7e 4289 a93f 0000 0020 b31f b03f
000005c0: 0695 81a9 6f35 76bf 0000 0040 bdb6 a83f
000005d0: 0000 0080 e578 97bf 0000 0000 4c6f 723f
000005e0: 178f cca8 fb05 a53f 0000 0000 a824 693f
000005f0: 1745 8064 3e55 c23f 0000 0040 d319 acbf
00000600: 0000 00e0 b3d7 b53f 2f69 e46c a31b afbf
00000610: 494f 4196 f419 9d3f 01e3 b121 b506 a1bf
00000620: 1556 666e e8d7 a93f 8da4 6bce e865 97bf
00000630: 0000 0000 2c07 71bf f527 a730 3586 bc3f
00000640: 0000 0020 9a6f b13f 3c3b 508b e691 9a3f
00000650: 4d7a f8d4 5119 933f 4ee1 5481 cb86 b53f
00000660: f71f 0456 0871 a6bf 0000 00c0 77c4 a8bf
00000670: 0f88 7c13 0485 773f 0000 0020 516b a3bf
00000680: 0000 0040 6fd8 aa3f 0000 0040 70da ae3f
00000690: df36 ae95 e15c b83f f63e 7d97 bca1 903f
000006a0: 0000 0000 f587 a13f 5bdc 4bdb 0e9c bf3f
000006b0: a30d 8c49 986b b23f 57e2 1378 1c2c b83f
000006c0: 5a5b 8d65 145d 953f 0000 00c0 9cae a63f
000006d0: b1b6 39d7 1419 b83f 1b17 7b37 4420 b93f
000006e0: 0000 0080 7eda 913f d6b0 0ce3 46ef 64bf
000006f0: adf0 265a 83a5 b4bf 0f42 6a04 4c56 7d3f
00000700: 29ff 95ad b7ac b1bf 0000 00e0 c44f b53f
00000710: f1a6 27ec 9cd2 9a3f 0124 6911 b253 84bf
00000720: 4e62 884f 3fb6 bd3f 2fa8 538c 3bba 933f
00000730: eee1 3c93 adc6 a73f 010d aa35 0801 ad3f
00000740: 33ad 74b7 197f 8dbf 3ac8 bbc2 140d 9dbf
00000750: d52e e388 6c2e 903f bff6 3c53 e009 c13f
00000760: 0000 0000 2e6e 803f f962 535e d274 b4bf
00000770: 93ed c75f 921a b93f 40b5 cc29 c849 99bf
00000780: faa6 5bb9 1ee6 ae3f 0000 0080 8d43 98bf
00000790: 8c14 f4f2 eb27 bfbf 0000 00e0 546e b53f
000007a0: 334d 3f02 492f b2bf 3aed 1ad6 62a9 bb3f
000007b0: 0000 00c0 3bbc a23f f7e7 6285 fac3 b53f
000007c0: 0c91 b75a b4b4 94bf 0000 0040 f2fd aebf
000007d0: ba50 6ad0 f10e b8bf 0000 0020 7102 b0bf
000007e0: 0000 0000 909f 933f 6b28 804a 12a9 a3bf
000007f0: 2f29 5e33 bc4a a9bf 0000 0000 03d9 8abf
0.0848686471581459 -0.03498281165957451 0.06604767590761185 0.01786002516746521 -0.0006941556930541992 0.0800449475646019 0.0023756399750709534 -0.0663505494594574
0.050822071731090546 0.009167216718196869 -0.07804253697395325 0.058533452451229095 -0.025803975760936737 -0.058010730892419815 0.004477478563785553 0.024836033582687378
-0.031208518892526627 0.008677065372467041 -0.02501729130744934 -0.0874214842915535 -0.08062593638896942 -0.05938373878598213 -0.03006502240896225 0.0031182467937469482
-0.0071896836161613464 -0.06485223025083542 0.029293134808540344 0.06011860817670822 -0.06906769424676895 0.040139056742191315 0.06365952640771866 0.014709025621414185
-0.032623935490846634 0.008565522730350494 -0.01448085904121399 -0.06644805520772934 -0.02327858656644821 -0.03797738626599312 -0.02580568939447403 -0.004791088402271271
0.01666373759508133 0.03995669633150101 0.08414778858423233 0.04126507788896561 0.01539059728384018 -0.010422095656394958 -0.03929447382688522 -0.06521560996770859
-0.03109651431441307 0.041932396590709686 0.05422230809926987 -0.027247272431850433 0.07018490880727768 0.013356313109397888 0.08319676667451859 0.032581329345703125
0.061544276773929596 -0.021692350506782532 -0.08063434064388275 -0.04421988129615784 0.008777156472206116 0.03653109818696976 -0.04375115782022476 -0.03575069457292557
0.040060438215732574 -0.01177099347114563 -0.024308308959007263 -0.038027774542570114 -0.02915528044104576 -0.054994408041238785 0.07431123405694962 0.04561062902212143
0.07363083213567734 -0.016354724764823914 0.02127157896757126 -0.05984385684132576 0.059687159955501556 -0.00019861012697219849 0.00412924587726593 -0.06728526949882507
-0.044808611273765564 -0.017688095569610596 -0.06433650851249695 0.06891421228647232 0.03760550171136856 -0.040938835591077805 -0.011077702045440674 -0.0760592520236969
-0.07745024561882019 -0.04349614679813385 -0.00960637629032135 -0.05857204273343086 -0.04578039050102234 -0.08630538731813431 -0.014202475547790527 -0.05570542439818382
-0.01101580262184143 0.08302933722734451 -0.053229447454214096 0.05552021414041519 -0.03526216000318527 -0.041774995625019073 0.029797233641147614 -0.08701277524232864
-0.04865783080458641 0.03560486435890198 0.05172955244779587 -0.010617777705192566 -0.013328500092029572 -0.08488147705793381 -0.042970966547727585 0.002468213438987732
0.08689621835947037 0.060747407376766205 0.07181928306818008 -0.02083909511566162 0.06186116486787796 -0.0851067528128624 -0.017286047339439392 -0.029787201434373856
0.06576121598482132 0.08647087961435318 -0.022642910480499268 -0.08270173519849777 -0.0597994439303875 -0.017428092658519745 -0.014658547937870026 -0.061476774513721466
0.007432988826979274 -0.0649867950288032 -0.07332978397607803 -0.0475492924451828 -0.14233616855701786 -0.10998013114468415 0.003832809627056122 -0.06956294924020767
-0.039431314915418625 0.03205512242650485 0.043293945491313934 0.03848017007112503 0.0011453821132875895 0.024811833836822554 -0.0769592539420341 0.021403323547025878
0.005641147639671811 0.02182006231889233 0.13054103876808307 -0.033302269876003265 0.025907032191753387 -0.07238743692660553 0.10257841106302416 0.0053833648562431335
-0.051565025091353425 -0.011640369892120361 -0.0072493404150009155 0.04988039577398004 -0.06085501679119216 0.061012048415226026 -0.027637222149204037 0.010572012465150445
0.08470744639635086 -0.0036660904304359606 0.03978763448218477 0.1351046752707451 0.04002211832279626 -0.05992360785603523 0.08348754793405533 -0.07899124175310135
-0.1409062490376163 0.02994896929235352 0.03448755066883715 0.08095332235097885 -0.06944087147712708 0.0640760049520682 0.05167296611993187 0.04693282147287331
0.03347467383141961 -0.10182979517118235 0.04437144845724106 0.0033841729164123535 0.05413822706010338 0.006402826700149861 0.04987533377395563 0.06298369914293289
-0.005422054462632225 0.04826918989419937 -0.022922120988368988 0.004500672221183777 0.04106127200637227 0.0030692368745803833 0.14322643191602744 -0.05488453060388565
0.08532261103391647 -0.06075773910761694 0.02841932456097077 -0.033254299510138814 0.05047537181523524 -0.02284969100847838 -0.004157230257987976 0.11142284810844656
0.06810916215181351 0.02594719147969758 0.018651274322218737 0.08408805758961543 -0.0438311200142038 -0.048373930156230927 0.0057420882438084095 -0.03792813792824745
0.05243251472711563 0.06026030331850052 0.09516725448903739 0.016241976495904496 0.034240394830703735 0.12347500661768278 0.07195426745970805 0.09442308360656547
0.02086288328004158 0.04430093616247177 0.09413271193053664 0.09814859728348006 0.01743505150079727 -0.0025555023679740647 -0.08065052939395186 0.007162377302521352
-0.06904170978486647 0.08324842900037766 0.026194049752951313 -0.009925261646587915 0.11606212321965723 0.019265108528010607 0.04643766805969905 0.05664849906045256
-0.014402581130147673 -0.028370212922659933 0.01580209336752499 0.13311389984476382 0.008022651076316833 -0.07990755846857302 0.09806170309450683 -0.024695518065688704
0.06034942639037229 -0.023695193231105804 -0.12170290643196519 0.08371477574110031 -0.07103401474823982 0.10805337645699789 0.036592356860637665 0.08502164608481154
-0.020220582997255085 -0.06053120642900467 -0.09397803629173299 -0.06253726035356522 0.01916337013244629 -0.0383992877905975 -0.04939830901192221 -0.013109229505062103

fc3.bias f8 [64]
00000000: 0000 0020 8daa abbf b846 43b7 12c8 a23f
00000010: 6c4a ed52 d7b0 3f3f a0bf 08b3 16d4 b43f
00000020: 6a4b 57d2 4182 c0bf 170a 640d 9b78 a73f
00000030: 5ccf 69a3 c834 a0bf 0000 00c0 ed62 9ebf
00000040: 0000 0000 5e72 99bf 2156 b196 c88f ba3f
00000050: 0000 0000 9df7 9b3f c080 6647 ff9f c23f
00000060: 0000 0020 3832 b0bf 631e e83f a082 c13f
00000070: 678c fee3 51d0 aabf 110c a3bf a92c b0bf
00000080: b74d 339d ffd3 ba3f a6c8 0aea 1793 adbf
00000090: 1add 3722 4e21 c63f 0000 0020 2b5a b53f
000000a0: 0000 00a0 4b9e afbf 90c4 4373 de65 b9bf
000000b0: 0bf3 1d5c d971 c1bf 29c2 6f09 051a 9e3f
000000c0: be27 f5c6 c225 cb3f 6827 b47b c5da bb3f
000000d0: 45a9 d280 6035 c1bf 0000 00a0 f76e b4bf
000000e0: 44b6 1503 2adb bf3f 1126 9630 fd28 c2bf
000000f0: c510 048e b415 b0bf 0000 0000 b16c 91bf
00000100: 0000 0020 9c2d a9bf 0000 0080 dac5 a6bf
00000110: f503 271f fb0d 9cbf 0000 0040 ffa3 b5bf
00000120: 6f24 f57c aa52 aebf 0000 0040 4791 b3bf
00000130: 0000 0000 ec8d a7bf 0000 0000 c438 82bf
00000140: 926a ecb4 d865 a8bf 6024 76c6 09d6 bfbf
00000150: c56d 7058 5ddf 913f 5908 57c8 5c70 c1bf
00000160: 4b1f fe1c 97c2 84bf 9241 7f37 defd babf
00000170: 097b 114c 111e b5bf f6e9 1ea3 70e2 9cbf
00000180: b2d6 1ba2 6ae2 b0bf 660a da21 cbac a6bf
00000190: 0702 6d81 679f ba3f 460e ed59 c7fb 7c3f
000001a0: 8a9c 23c7 e07d af3f 2702 7390 7204 ba3f
000001b0: a0ae 6f17 3831 afbf 5c94 25f0 aaee acbf
000001c0: 44ef d937 b5f2 b73f ab47 1e4f 4d5c 863f
000001d0: 5be9 9ec4 431d a2bf cf0b 4a4e 00ee b3bf
000001e0: 9602 58c7 2ec0 bb3f 9dc5 3e32 8c48 c03f
000001f0: f56b 8d3b 032f c1bf 903a 33dc 12b7 b73f
-0.054035577923059464 0.03668268668265057 0.00048356301242794583 0.08136121626807702 -0.12897513170772906 0.045842023262611935 -0.03165270800391681 -0.029674258083105087
-0.02485033869743347 0.10375646285077568 0.02731175720691681 0.1455077265391136 -0.06326628476381302 0.13679888840146068 -0.05237060459264669 -0.06318150452266048
0.1047973402776766 -0.05776285869559787 0.17289139433680917 0.08340711146593094 -0.06175457313656807 -0.09921064676361113 -0.13628689763927357 0.029396132183992094
0.21208986963966753 0.10880693693266397 -0.13444143572025716 -0.0798182263970375 0.12443792891800692 -0.14187588570011703 -0.06283119647202103 -0.01701618731021881
-0.04917610064148903 -0.04447825253009796 -0.027397083069221357 -0.08453364670276642 -0.059224441293346135 -0.07643552124500275 -0.046004652976989746 -0.008897334337234497
-0.0476520272115596 -0.12435971350909503 0.01745363094606291 -0.13624152929520753 -0.010136776516233367 -0.10543621878537682 -0.08249004466186362 -0.0282075500069627
-0.06595484216435457 -0.044287059671678716 0.10399481687364452 0.007076052394782878 0.061507248219464364 0.10163036371796662 -0.060922386990424515 -0.05650839025000984
0.09354717839772514 0.010918239571569751 -0.03537952208667391 -0.07785036002500977 0.10840122572700248 0.12721397832278294 -0.1342472115310042 0.09263723255137735
