src/backend/controller/checkpoints/checkpoint_epoch_90.pth (torch, 420207 bytes, 25 tensors)

fc1.weight f8 [64, 5]
000000 ef 97 98 de 88 fa c5 3f 68 d6 8f f8 fe b2 dd bf
       0.17170821064900063 -0.46405004762286817
000010 cb eb ea 79 e6 e7 cf 3f 6b 9e 25 1b 12 dc c7 bf
       0.24926453545580637 -0.1864035255959949
000020 15 50 44 df 9a 4d bb 3f 00 00 00 40 87 28 c4 bf
       0.1066529078564716 -0.15748682618141174
000030 00 00 00 a0 b4 4c d2 bf 00 00 00 60 19 c4 da bf
       -0.2859317362308502 -0.4182189404964447
000040 00 00 00 c0 7e 27 ce bf 00 00 00 00 76 49 ba 3f
       -0.23558029532432556 0.102683424949646
000050 c0 81 d8 11 56 16 ce bf 79 74 82 35 f1 1c b0 3f
       -0.2350566470277169 0.06294162327181309
000060 ca e7 b1 ac ee ee d9 bf 9c 2d bf a1 8b 04 da 3f
       -0.4052082716440252 0.40652743144593173
000070 86 81 c0 6f d2 b7 ab 3f 00 00 00 00 e3 b3 d2 3f
       0.05413682569656246 0.29222941398620605
000080 00 00 00 40 21 7d c0 bf 00 00 00 80 21 03 d1 bf
       -0.12881866097450256 -0.2658160924911499
000090 00 00 00 80 08 52 d7 bf 00 00 00 80 03 e7 b5 bf
       -0.36438190937042236 -0.08555623888969421
0000a0 00 00 00 c0 4b ff c4 bf 00 00 00 00 a4 2d 8a bf
       -0.16404101252555847 -0.012782365083694458
0000b0 00 00 00 40 42 65 d9 3f 00 00 00 00 98 ab 93 3f
       0.3968053460121155 0.01920926570892334
0000c0 00 00 00 40 1c 0d da bf 3f 31 3f 06 3c 38 c3 bf
       -0.4070501923561096 -0.15015363984128702
0000d0 73 31 bc f6 ce d6 d6 3f 29 7b 27 91 42 48 d8 3f
       0.356860867454791 0.3794104020616254
0000e0 6a 37 ed 7d 4e cd b9 3f 32 8c 90 dc 28 7b d6 bf
       0.10078898023968255 -0.3512670663787417
0000f0 40 bd ea b6 6e 98 cc bf 74 60 ee 34 75 39 d2 bf
       -0.2234018700741931 -0.2847569481759884
000100 22 00 5b 73 92 92 d1 3f 3a 41 28 6c 6b 92 cf 3f
       0.27457104935820287 0.246655872164874
000110 49 5a 85 2f 12 7a d9 3f 00 00 00 c0 50 ec d7 3f
       0.39807562485421905 0.37379854917526245
000120 00 00 00 80 44 69 da bf 00 00 00 80 10 65 b6 bf
       -0.41267502307891846 -0.0874796211719513
000130 00 00 00 40 58 8f d4 bf 00 00 00 00 00 02 b6 3f
       -0.3212490677833557 0.085968017578125
000140 88 ed 6d ca 47 3d c8 3f e6 c9 30 11 06 12 d0 bf
       0.18937013038872075 -0.2511000793339505
000150 f0 59 8b 20 7f f7 7a bf f3 0d 6d bd 96 f6 bd 3f
       -0.006583687391602741 0.11704389691026744
000160 bf 1a a0 76 0b 12 d0 3f f1 f8 96 4f 4d a2 d3 3f
       0.2511013658953906 0.3067811276668087
000170 77 ca 8c 01 62 64 91 3f 86 84 0a 85 21 ef b0 3f
       0.016984492630579297 0.06614884851525646
000180 3a ff 42 09 8d 75 d9 bf 23 63 60 a4 c0 b2 bd 3f
       -0.3977997389265401 0.11600879681681113
000190 02 2b 37 f1 0a 6b d4 bf 93 12 21 de 40 61 9f bf
       -0.3190333705539815 -0.030644429738702583
0001a0 21 d4 9d 04 44 e5 d8 3f 7e 13 c1 8e 0c 15 82 3f
       0.3889932675440964 0.008829210382950366
0001b0 be 9c 4a 19 33 e8 c1 3f ec 6f 06 81 a2 d9 d0 3f
       0.1398986695760182 0.26328337288009496
0001c0 6c a5 fa b5 0d c0 c7 3f d2 81 39 6e cc ae 55 bf
       0.1855485094613799 -0.0013234135048137874
0001d0 57 1c 37 98 2b b1 d3 3f 54 47 64 29 dd e0 66 bf
       0.3076886164166743 -0.002792770344179832
0001e0 00 00 00 80 db 48 c4 bf 00 00 00 00 85 70 ba 3f
       -0.1584734320640564 0.10327941179275513
0001f0 00 00 00 80 33 b8 d6 bf 00 00 00 80 8c 16 d3 3f
       -0.35499274730682373 0.29825127124786377
000200 00 00 00 40 05 87 c9 bf 5c 65 29 99 d4 41 d4 bf
       -0.19943299889564514 -0.316517972537971
000210 f5 a9 71 1c c3 82 ce 3f e1 a2 68 3c ee 42 dc 3f
       0.23836554421298187 0.4415851201943451
000220 de f1 fc 12 bd 84 32 3f 5e d2 dd 5d 4a f8 d2 3f
       0.0002825700384965472 0.29640444914483577
000230 28 ec 5f 35 33 69 d6 bf d3 64 e0 7a de 2d d0 3f
       -0.3501709004628446 0.2527996253935047
000240 4e 70 74 95 0b c2 bc bf 09 1c 97 a6 50 5b a0 3f
       -0.1123358955268838 0.03194667848179484
000250 d8 3c 9b 52 39 de b0 bf 00 00 00 a0 ca 04 d2 bf
       -0.06589086786992782 -0.28154245018959045
000260 00 00 00 c0 99 04 d9 bf 00 00 00 40 7e fa d1 bf
       -0.39090579748153687 -0.2809138894081116
000270 00 00 00 c0 30 56 d9 3f 00 00 00 00 88 4c c0 3f
       0.3958856463432312 0.1273355484008789
000280 9d b7 3c c4 87 50 c8 3f f9 62 e1 3f 58 cb a0 bf
       0.18995759088414568 -0.03280139713087311
000290 64 2c 28 ad 80 4f cc 3f 9c d4 4c 8c 83 c6 98 bf
       0.2211762280934152 -0.024194770277251906
0002a0 aa 4d 9a a5 75 0d c1 3f 86 2f 74 8a c1 95 a8 bf
       0.13322325311729105 -0.0480175477515266
0002b0 a6 79 ce 46 13 0d d8 3f 0e 34 71 01 0b 4b c3 3f
       0.3757980529279855 0.15072763033313702
0002c0 1a e8 69 ae cc f5 c0 3f bf cc c2 37 38 ce cf 3f
       0.13250120655340042 0.2484808227796744
0002d0 00 00 00 80 20 81 cd 3f 00 00 00 c0 e0 de c6 bf
       0.2305031418800354 -0.17867669463157654
0002e0 00 00 00 80 69 4c db bf 00 00 00 00 2d d4 a7 3f
       -0.4265388250350952 0.046540647745132446
0002f0 00 00 00 80 3d 23 d2 bf f6 53 97 6a de 1e b4 3f
       -0.28340089321136475 0.07859602072069535
000300 e4 a1 b2 f0 23 0f aa 3f ae 99 98 e2 f5 7e bb 3f
       0.05089676202016216 0.10740601331835961
000310 51 69 e2 62 b5 99 d0 3f ff 77 43 41 29 39 ca bf
       0.25938162476235954 -0.20486941992470517
000320 de 35 9b 84 40 36 e0 3f 60 f5 aa 21 26 1f d9 bf
       0.5066225614515891 -0.3925261811053442
000330 a1 e8 17 65 a5 65 d2 bf d4 56 1e 0b 4d c3 ce 3f
       -0.28745398399736116 0.2403351120271312
000340 b3 c9 c7 ce 2e 41 97 bf 00 00 00 80 5f b4 c9 3f
       -0.022709590311885196 0.2008170485496521
000350 00 00 00 00 d0 d7 cd bf 00 00 00 00 ed e2 aa bf
       -0.23314857482910156 -0.052512556314468384
000360 00 00 00 00 f1 43 c3 bf 00 00 00 00 f3 27 d0 bf
       -0.15051090717315674 -0.2524383068084717
000370 00 00 00 40 1f 51 db 3f 00 00 00 e0 40 8f c9 bf
       0.4268262982368469 -0.1996842473745346
000380 00 00 00 80 82 d1 d3 bf 00 00 00 40 af 45 da bf
       -0.30966246128082275 -0.41050320863723755
000390 00 00 00 a0 c9 46 da bf b9 73 3c 54 5a 4b c9 3f
       -0.41057053208351135 0.19761208642094433
0003a0 05 04 56 1f 5d 23 d5 3f 47 df 78 97 92 cf a9 bf
       0.33028343258052956 -0.05041177844071725
0003b0 fd 5b 73 18 b1 ac dd bf 18 d3 54 a0 0f 14 c7 3f
       -0.46366526973491756 0.18029971436194425
0003c0 00 00 00 00 0f ed bd bf 00 00 00 e0 bc b6 d8 bf
       -0.11689847707748413 -0.3861534297466278
0003d0 00 00 00 80 9a 77 d8 3f 00 00 00 80 14 62 c1 3f
       0.3823000192642212 0.1358056664466858
0003e0 00 00 00 20 25 46 cf bf 4c 03 e4 15 d0 83 d2 bf
       -0.24432815611362457 -0.2892952169204832
0003f0 bc e8 88 af 24 aa b0 3f fb 1d 1f 18 3a ec d5 bf
       0.06509618077771767 -0.3425431476175331
000400 bd 03 af 8e 14 d9 c8 3f 26 f6 5d ae b6 f3 d4 bf
       0.19412476508116852 -0.3273750975421045
000410 00 00 00 00 8e de d6 3f 00 00 00 80 e5 75 bd bf
       0.3573336601257324 -0.11508020758628845
000420 00 00 00 00 77 5c b5 3f 00 00 00 c0 c0 b0 db bf
       0.08344215154647827 -0.4326631426811218
000430 00 00 00 80 12 2a b3 bf 00 00 00 00 a6 2e b0 bf
       -0.07486072182655334 -0.06321179866790771
000440 00 00 00 40 dd 09 c0 bf 00 00 00 00 b0 07 af bf
       -0.1253010332584381 -0.060605525970458984
000450 00 00 00 80 bd ad b2 bf 00 00 00 c0 70 25 d4 3f
       -0.07296356558799744 0.3147851824760437
000460 9c b4 66 c7 2f 19 ab 3f 00 9b d8 a4 6e c6 ca bf
       0.05292653378578757 -0.20918067025305476
000470 ee 4a 79 59 9f b1 cf 3f 37 f1 a3 51 b5 27 c3 3f
       0.24760810726964827 0.14964930044505717
000480 bf 9e dc d4 fa 09 d3 bf 00 00 00 00 d9 f1 c1 bf
       -0.29748411929402246 -0.14019310474395752
000490 00 00 00 80 88 60 bf bf 00 00 00 80 68 09 d6 3f
       -0.12256672978401184 0.3443242311477661
0004a0 00 00 00 00 28 ff 8b bf 00 00 00 00 90 65 c1 3f
       -0.013670265674591064 0.1359119415283203
0004b0 00 00 00 80 0e e1 c3 bf 00 00 00 80 40 70 cb 3f
       -0.1553056836128235 0.21436315774917603
0004c0 00 00 00 00 5e 63 b8 bf 00 00 00 00 15 a0 c8 3f
       -0.09526622295379639 0.19238531589508057
0004d0 00 00 00 00 8d f7 a1 3f 00 00 00 80 81 d9 c8 3f
       0.035091787576675415 0.19413775205612183
0004e0 00 00 00 00 a4 03 91 3f 00 00 00 80 f8 bd d4 bf
       0.016615450382232666 -0.32409489154815674
0004f0 00 00 00 c0 89 68 d9 bf 00 00 00 40 97 d0 d1 bf
       -0.39700549840927124 -0.2783563733100891
000500 1b 8d 29 55 68 71 a9 3f af 40 f4 ee 2e 7c c4 3f
       0.04969335593775722 0.16003977458649873
000510 3f 4a 6f fe 44 40 ce bf 38 11 14 7a 1d 8a cb 3f
       -0.2363363497120918 0.21515243969782616
000520 68 ba 6e 5c 40 41 d4 3f 07 f1 de a2 88 78 c2 3f
       0.316482630029816 0.1443033976810357
000530 3b c0 3e 76 65 04 d4 bf 96 e6 a0 87 50 fd a9 3f
       -0.3127683310258395 0.05076076179143489
000540 58 6d 5a 42 3d 02 cc 3f 4d 62 06 34 fe 83 d8 3f
       0.21881833782104354 0.3830562122398405
000550 00 00 00 00 cb 91 d1 bf 00 00 00 00 f4 f6 ad 3f
       -0.2745234966278076 0.0585247278213501
000560 00 00 00 00 45 a0 c0 bf 00 00 00 00 00 79 cb 3f
       -0.129891037940979 0.214630126953125
000570 00 00 00 00 7c 66 ac 3f 00 00 00 20 35 79 d8 bf
       0.055469393730163574 -0.38239791989326477
000580 00 00 00 80 e0 ea b4 bf 00 00 00 00 08 bf 9f 3f
       -0.08170893788337708 0.031002163887023926
000590 00 00 00 00 5e 09 d7 bf 00 00 00 20 16 24 d9 bf
       -0.35994672775268555 -0.3928275406360626
0005a0 1d 5a bf 6f 76 99 d9 3f d7 bc 44 75 c4 c4 c3 bf
       0.3999916163715243 -0.15444236494065564
0005b0 a3 d6 c2 a1 31 95 d8 bf 01 8c f4 1b e8 71 a0 3f
       -0.38410607144337855 0.032119038975245935
0005c0 c3 22 62 de b0 8e ca 3f f1 0f b1 92 75 fa d4 3f
       0.20747958048402468 0.32778682065349957
0005d0 d4 96 7b ba b6 eb b4 3f 1a 7f 1f 87 a1 a0 cd 3f
       0.08172170689394004 0.23146456811718324
0005e0 76 da 9d c2 ce d4 d0 3f f8 10 2b 7f 6d 40 d8 3f
       0.2629887486031416 0.3789323560597633
0005f0 31 29 61 f4 8c 8c d0 3f 8f 0b 23 11 89 43 c1 bf
       0.25857852807225173 -0.1348735173870321
000600 cc 51 67 55 9e 64 d1 bf 4c 34 5d de e5 99 c9 bf
       -0.2717662652987911 -0.20000909192677552
000610 bd 67 bf 0c 56 85 bc bf c5 c9 88 ff c8 07 d4 bf
       -0.11140954791281295 -0.3129751677944593
000620 76 a6 85 fe 49 f1 d1 bf 97 55 00 80 20 54 e0 3f
       -0.2803521142546751 0.5102694034600742
000630 13 2b 92 e5 03 14 c3 bf 51 5a 87 47 99 72 d4 3f
       -0.14904831609268196 0.31949455247141595
000640 7c a6 f2 b8 96 82 dc 3f 68 b6 8d 60 89 a8 be bf
       0.4454705053454757 -0.11975916487946281
000650 26 0c e2 14 75 26 d9 bf 5a 6e 77 32 85 c8 d9 3f
       -0.3929722503600622 0.4028637879216369
000660 e4 a7 e8 18 fe bc b3 bf 00 00 00 00 17 fe b0 3f
       -0.07710254772305764 0.06637710332870483
000670 00 00 00 00 85 44 c4 3f 00 00 00 80 22 85 c4 bf
       0.15834105014801025 -0.1603129506111145
000680 00 00 00 80 bf 61 bd bf 00 00 00 60 0c ff d7 bf
       -0.11477276682853699 -0.3749419152736664
000690 00 00 00 00 dc d4 98 3f 00 00 00 40 5d 41 c0 bf
       0.024249494075775146 -0.1269947588443756
0006a0 00 00 00 c0 9d 6e cd bf 00 00 00 00 08 a9 c5 3f
       -0.22993823885917664 0.1692209243774414
0006b0 00 00 00 00 46 ba b4 bf ce 36 8a 1a f7 f3 c0 3f
       -0.08096730709075928 0.13244522853749746
0006c0 85 43 f9 77 45 62 a5 bf 01 ea 77 22 cd e6 db bf
       -0.04176537599108258 -0.43596199384742823
0006d0 58 70 95 45 46 90 ca 3f d1 82 72 dd 36 31 c3 bf
       0.20752790830272505 -0.14993940174919954
0006e0 ba 03 02 e6 80 49 bd bf de 7d 1d 22 ef ff dc 3f
       -0.11440282454897402 0.4531209786564129
0006f0 9c 95 a7 72 46 5b da 3f 80 4c 31 bc f1 eb d2 3f
       0.41182099529972915 0.2956508958643056
000700 7a a7 52 15 0f bb d5 bf c5 4f 41 f5 5a d5 e0 bf
       -0.33954217035590484 -0.5260443487300043
000710 ee 65 75 cc 15 1f a2 bf 85 4e c5 15 ae 4a d5 bf
       -0.03539341088135105 -0.3326831066708354
000720 29 68 48 e2 71 ba d6 3f 8f 08 2b 9e 1f dc d0 3f
       0.355129691104255 0.26343527265647365
000730 b2 de a7 b5 af 6b cb 3f 36 05 5d b8 44 8b cf bf
       0.21422382707509297 -0.24643763544194436
000740 b8 aa 00 e8 38 b5 56 3f 9d a1 5f 87 fd df d1 3f
       0.0013859801984021213 0.2792962858207149
000750 69 9d a6 79 5d 2a c4 3f 33 a4 a3 42 18 d8 b7 3f
       0.1575428813932647 0.09314109446462808
000760 a1 29 3e 25 0e a0 d5 3f 46 66 2f 60 4b f2 b8 3f
       0.33789399754518895 0.09744711969633454
000770 f3 6c 66 3a 8c 28 d8 3f 8b b5 a7 ef 7e b7 b2 bf
       0.37747483924040565 -0.07311242438273362
000780 f6 c6 ca b9 79 02 91 3f 9d da 43 e3 fa 7c d1 3f
       0.01661100574955917 0.2732531756768511
000790 1a 40 d2 23 58 40 d8 3f 52 7d bb 1c cb fd c6 3f
       0.37892726419613754 0.17962016013096133
0007a0 69 9a 27 1f 02 84 70 bf 00 00 00 00 85 07 b2 3f
       -0.004032142913706773 0.07042723894119263
0007b0 00 00 00 00 4f 03 b9 bf 00 00 00 00 8c dd 9b bf
       -0.09770673513412476 -0.027212321758270264
0007c0 00 00 00 80 ed 0c cd 3f 00 00 00 00 68 03 89 bf
       0.2269570231437683 -0.012213528156280518
0007d0 fc 49 82 5a da b4 cc 3f 9c c0 ab 65 42 12 d3 bf
       0.22426919383413224 -0.29798946312713226
0007e0 60 29 85 38 25 67 d2 bf 4e 9e 3c 50 b3 75 b5 3f
       -0.2875454952196801 0.08382721623331088
0007f0 71 23 0f a0 c7 2c cc bf d7 af c7 32 11 18 bd 3f
       -0.22011657061946324 0.11364848603960752

fc1.bias f8 [64]
000000 bd c1 06 32 d3 7b d0 bf 00 00 00 80 be db c4 3f
       -0.2575576771296502 0.16295605897903442
000010 e2 55 28 6a ef df d0 3f 00 00 00 00 fe 83 b0 3f
       0.2636679207510878 0.06451404094696045
000020 00 00 00 00 e5 a4 d8 bf 8f 0e 50 32 37 6c c5 bf
       -0.38506436347961426 -0.16736497837711226
000030 e9 c7 0a ab 03 3a cb bf 00 00 00 60 4b 8a d1 bf
       -0.21270795680680912 -0.2740658223628998
000040 4a 9e b1 4e c0 63 da bf 85 db 75 d3 bd 99 ad bf
       -0.41233833012527 -0.057813579619440815
000050 72 d2 f8 ac 9a 35 c3 3f 7a ad da b9 ef 24 ba bf
       0.1500733704175619 -0.10212610518890655
000060 00 00 00 40 0d 1b ca bf c0 df e6 67 c0 30 d0 bf
       -0.20395055413246155 -0.2529755606333275
000070 68 30 35 c7 76 1d b7 bf 00 00 00 80 a3 36 cb 3f
       -0.09029333461256928 0.21260493993759155
000080 7f 7b 2c fb 03 78 c7 bf fc dc d7 3f 0f 73 ac bf
       -0.1833500839647648 -0.05556533483825807
000090 00 00 00 40 2f 60 cc bf 85 6b 2d 6f aa 25 d0 bf
       -0.22168532013893127 -0.25229893548174004
0000a0 a3 02 a2 0c 81 95 ae 3f 00 00 00 00 4a 57 ac 3f
       0.05973437575540188 0.05535346269607544
0000b0 00 00 00 00 98 3d a6 3f 72 5b 0b e1 41 9a b6 bf
       0.04343867301940918 -0.08829128021475954
0000c0 00 00 00 e0 ae 6e d0 bf ef ae f3 8f e6 38 cb 3f
       -0.2567555606365204 0.21267396954441817
0000d0 00 00 00 c0 8c cf d7 bf 00 00 00 60 45 f3 cf bf
       -0.37204283475875854 -0.24961154162883759
0000e0 03 27 83 16 80 46 d0 bf 00 00 00 80 6b b3 d5 bf
       -0.25430299948185126 -0.3390759229660034
0000f0 00 00 00 a0 0e fb d4 bf 00 00 00 c0 20 02 c4 bf
       -0.32782331109046936 -0.1563149392604828
000100 eb 51 20 33 be f6 c3 bf c8 38 57 6e 8b c8 dc bf
       -0.15596749779128002 -0.4497402741952894
000110 00 00 00 80 bd 3c c1 bf 00 00 00 00 60 03 73 bf
       -0.13466614484786987 -0.004641890525817871
000120 e1 b0 73 df 81 7a ae bf f0 3b cc 69 df c0 cf 3f
       -0.059528406645627426 0.2480735079375047
000130 91 3c 5b 2c 4b 98 bc bf bc a8 e3 d9 e9 43 ba 3f
       -0.11169881661338567 0.1025987774807246
000140 e6 82 60 d3 1e 7a a9 bf 00 00 00 e0 3c 78 ca bf
       -0.049759829810005304 -0.2067943662405014
000150 00 00 00 00 7f 04 a0 3f 3a da 4d 50 78 31 d4 3f
       0.03128430247306824 0.3155194076747737
000160 7d 67 b1 6b 2a a0 d1 3f ea 43 fd 21 94 0f 98 3f
       0.27540073887723066 0.023496927809279734
000170 d6 87 80 e5 3a 21 df bf 99 9e 3c d1 e7 79 9c bf
       -0.4864032021742991 -0.02780878271656082
000180 79 34 02 a8 b4 3b c1 bf 00 00 00 e0 1b 69 dc bf
       -0.13463457301660123 -0.44391533732414246
000190 ca f3 39 2b 92 56 e0 3f ac 1d c3 5e eb 1d d9 3f
       0.5105677456154976 0.3924511361514884
0001a0 60 bd d3 5a 56 72 b0 3f 00 00 00 20 b4 b5 d0 bf
       0.06424464909990979 -0.26109030842781067
0001b0 00 00 00 e0 eb 9e d4 bf 00 00 00 00 d6 82 ab 3f
       -0.3221997916698456 0.05373257398605347
0001c0 b8 c6 26 fb cf 60 d1 bf 46 fc 8c 88 42 f3 b0 3f
       -0.2715339615489074 0.06621185144193573
0001d0 00 00 00 80 1a 7f d2 bf 0f 1d 8d e9 b5 37 da bf
       -0.2890077829360962 -0.4096503048680952
0001e0 00 00 00 00 c9 c8 d0 bf f0 ac fb bf 44 78 ca bf
       -0.2622549533843994 -0.20679530500579046
0001f0 37 0d f8 d8 ba 8f d2 bf df 6f c8 47 d0 e7 d9 3f
       -0.29002257526754555 0.40477377901129147

fc2.weight f8 [128, 64]
000000 95 9d e0 0f b0 7b c5 3f 00 00 00 80 7b d3 a8 3f
       0.16783715033782856 0.04848848283290863
000010 49 86 cd 22 88 70 cb bf 00 00 00 80 ed 40 b5 3f
       -0.21437169741970966 0.08302196860313416
000020 00 00 00 c0 a7 f9 b3 bf df c3 87 3c 1c b6 7b 3f
       -0.07802818715572357 0.006765470789546562
000030 ae 9a 0a c9 ac 6e b9 bf 00 00 00 c0 2e 83 b5 3f
       -0.09934501560438022 0.08403293788433075
000040 16 f1 e5 c9 e0 57 85 bf cf 26 ee 1b fc 11 bb bf
       -0.01042152038711967 -0.10574317628757089
000050 96 d6 64 ab a9 dc cb 3f a3 80 b1 4b 36 2a 71 bf
       0.21767159336893788 -0.00419064721344867
000060 00 00 00 00 e0 62 a7 3f 5e b3 cc 65 29 2b c5 3f
       0.045676231384277344 0.16537969084438492
000070 3f 14 8a a9 4a cd ae 3f 00 00 00 80 dd 6e bd bf
       0.06016000098774343 -0.11497291922569275
000080 9e f5 c9 0a 2f 6c b1 3f 88 91 b2 cb 5a e9 a6 bf
       0.06805700314904192 -0.04474910484831002
000090 00 00 00 80 7e da b9 bf 4f 01 53 05 9a a7 b1 3f
       -0.10099020600318909 0.06896364812837884
0000a0 96 ae f3 e2 76 a0 d7 bf 00 00 00 00 62 e4 bf 3f
       -0.3691689697577457 0.12457859516143799
0000b0 00 00 00 00 17 6f b1 bf 76 00 f9 ac fa 36 b4 bf
       -0.06810134649276733 -0.07896391604390537
0000c0 00 00 00 80 db 41 ab 3f d2 de bc fe f0 9d ae bf
       0.05323682725429535 -0.05979874715415935
0000d0 00 00 00 00 a7 08 be bf 00 00 00 80 2d 93 bc 3f
       -0.11731952428817749 0.11162075400352478
0000e0 a9 ff c4 93 93 9e a4 bf 00 00 00 40 67 ee be 3f
       -0.040272342479965424 0.12082524597644806
0000f0 00 00 00 00 ab 2e 9a bf 00 00 00 80 08 9e a0 3f
       -0.025568649172782898 0.032455697655677795
000100 cc b6 8d ff f5 3e b6 3f c6 0c 6d 34 7c 18 b3 3f
       0.08689820756054728 0.07459236411982592
000110 00 00 00 00 7f d0 af 3f 00 00 00 40 d7 5a b4 3f
       0.06213757395744324 0.0795111209154129
000120 35 46 f2 97 7d a0 a1 bf 54 0d ef d9 bc d4 c1 3f
       -0.03442757110418563 0.13930473939226806
000130 26 f9 0b 09 be dd b1 bf 09 9f 03 55 29 30 b4 3f
       -0.06978976937168521 0.07885988545933399
000140 7c ed 40 e4 70 cb c6 bf 00 00 00 40 a9 bc b8 bf
       -0.17808352608868094 -0.09662874042987823
000150 00 00 00 80 67 6f ac bf 65 6f db 9e 54 a7 c0 bf
       -0.055537447333335876 -0.13010652310083085
000160 2a 97 3b b4 c0 e1 c1 3f f9 2c b0 9d 4f 78 c4 3f
       0.13970192718914493 0.1599216003381583
000170 2c 0a 6a 99 21 c9 ba 3f 67 d0 05 ea a7 13 c3 3f
       0.10463151927437114 0.14903735091104695
000180 c9 6f e9 a5 eb 44 a2 bf 00 00 00 40 10 85 be bf
       -0.03568207168856891 -0.1192178875207901
000190 bf 58 0e 42 0f a1 c6 bf 60 ad 76 8d 72 f1 b6 3f
       -0.17679014897720965 0.08962169603062398
0001a0 88 1d a2 75 3c ae c0 3f 00 00 00 00 39 5c a3 bf
       0.13031726592837978 -0.0378129780292511
0001b0 00 00 00 80 c2 a6 a6 3f 00 00 00 00 83 f8 b2 bf
       0.04424102604389191 -0.07410448789596558
0001c0 02 ad 92 82 d0 15 a3 bf 63 6e d1 6c 52 4b d3 3f
       -0.037275806368905165 0.30147228838698065
0001d0 00 00 00 00 bb 5f af bf 74 d1 b3 df a4 fd cb 3f
       -0.06127724051475525 0.21867810175866575
0001e0 00 00 00 00 31 9b 95 3f cb cc e0 c4 23 a4 a2 bf
       0.021099820733070374 -0.03640853670403884
0001f0 8e 11 b7 76 d7 f1 bf 3f 99 b6 e5 4d 13 2c c0 bf
       0.12478396080320506 -0.1263450746877666
000200 1d 82 0e 84 9a d4 c2 3f 00 00 00 00 0e 58 a8 3f
       0.1471131462867711 0.04754680395126343
000210 4a d7 c0 21 2d a6 a5 bf 00 00 00 80 b2 74 bd bf
       -0.04228344952609449 -0.11506190896034241
000220 00 00 00 00 15 3d b9 3f da 90 a1 54 de a6 c5 3f
       0.09858828783035278 0.16915492184046493
000230 fb f7 f6 27 c8 21 b3 3f 00 00 00 00 5e 28 a0 bf
       0.07473422027302938 -0.03155797719955444
000240 ff 55 3d 19 6c 93 bf bf 06 89 c3 58 8d f1 c1 3f
       -0.12334323517037403 0.1401840861718215
000250 4a 1c 57 d8 2f cd bf 3f 38 4c 4f 74 67 0a c3 3f
       0.12422465354676251 0.1487550084990248
000260 00 00 00 00 70 ff b1 bf b8 01 3e f4 a6 6a bc 3f
       -0.07030391693115234 0.11100238287872954
000270 76 a4 d0 4f 50 51 63 bf 00 00 00 00 69 18 ad bf
       -0.0023581093396570175 -0.05682685971260071
000280 cf a5 1c ca 59 a7 be 3f 22 8e 04 3e 95 cf c0 3f
       0.11974106964466745 0.13133492973530375
000290 00 00 00 00 62 da 91 3f 13 79 81 d3 7f 74 c2 3f
       0.017434626817703247 0.1441802771323145
0002a0 60 6c 5a 77 6c e2 d6 bf 00 00 00 00 62 7b bf 3f
       -0.35756980567538754 0.12297642230987549
0002b0 00 00 00 c0 10 a0 be bf 5e 8c 00 4c da 7c ab 3f
       -0.11962990462779999 0.05368692567596932
0002c0 00 00 00 80 ea fd a8 3f d1 10 18 bf b1 7e 87 3f
       0.048812225461006165 0.0114721189920676
0002d0 00 00 00 40 e2 31 b3 bf 00 00 00 00 cc 52 89 3f
       -0.07497991621494293 0.012364953756332397
0002e0 a3 71 c2 c0 d7 06 c0 bf 00 00 00 40 25 80 ba bf
       -0.12520882522666196 -0.10351784527301788
0002f0 00 00 00 00 20 5a bb 3f 00 00 00 c0 8a a4 b5 3f
       0.10684394836425781 0.08454196155071259
000300 b9 06 2c a4 99 ef b0 3f 44 06 4e e8 8b db 81 3f
       0.06615600832085534 0.008719532992247932
000310 00 00 00 80 14 e5 b0 bf 00 00 00 c0 d7 cb b1 3f
       -0.0659954845905304 0.06951664388179779
000320 98 e6 b7 72 66 8e c6 bf 30 d3 8b 40 5d f5 73 bf
       -0.17622070886118446 -0.004872669473787991
000330 47 a6 2a 8d 55 75 ab bf cc e0 92 22 c0 b4 aa 3f
       -0.05362956379151434 0.05216026708643681
000340 de fb 41 52 da ee c8 bf 00 00 00 00 82 a6 98 bf
       -0.19478920952312156 -0.02407267689704895
000350 00 00 00 00 7e 0b ab 3f c2 2b 76 d7 67 59 ba bf
       0.0528220534324646 -0.10292672167103858
000360 e9 22 67 b5 fe ec c2 3f 5e 2a cd 71 92 6b ba 3f
       0.14785751206934286 0.10320391920428437
000370 90 fe a0 78 68 85 b2 bf 56 3b c5 b9 8c 8f 96 3f
       -0.07234814591446992 0.022031973684814098
000380 62 94 1c fc 30 1a bb 3f 00 00 00 00 2b a9 95 bf
       0.10586839823788943 -0.02115313708782196
000390 f0 62 1b 15 0d ef d3 bf 94 ba ba ab 5e 51 87 bf
       -0.3114655214426838 -0.01138566934181754
0003a0 bb 04 5a c6 89 5a b8 3f 00 00 00 00 f0 7a 51 bf
       0.095131503034298 -0.0010669082403182983
0003b0 00 00 00 00 57 d5 a4 3f 00 00 00 80 88 22 a3 bf
       0.04069015383720398 -0.03737284243106842
0003c0 86 99 08 9f 0f b4 b2 3f 6e c2 f2 e9 b7 58 da 3f
       0.07306001312881535 0.41166494223128935
0003d0 00 00 00 00 19 62 99 3f 88 54 3a 6e ec ec a7 3f
       0.024788275361061096 0.0467294582896694
0003e0 00 00 00 40 ef 62 b3 3f c4 f6 68 e6 d0 1e a2 bf
       0.07572837173938751 -0.03539135754225023
0003f0 5a 56 e0 46 2f 39 95 bf 84 1e 12 73 2d d7 c6 bf
       -0.0207259547242614 -0.17844169729891146
000400 00 00 00 80 21 42 aa 3f 00 00 00 c0 6b 5c bd 3f
       0.05128578841686249 0.11469148099422455
000410 00 00 00 00 19 cf ac 3f 00 00 00 00 91 7f 95 bf
       0.05626752972602844 -0.020994439721107483
000420 00 00 00 00 1f 42 a7 bf 00 00 00 00 eb 0a 99 3f
       -0.04542633891105652 0.024455711245536804
000430 00 00 00 00 48 44 98 3f 00 00 00 00 c2 04 9f bf
       0.023697972297668457 -0.030291587114334106
000440 00 00 00 c0 63 b3 bd 3f 00 00 00 80 a9 a7 bd 3f
       0.11601851880550385 0.11583957076072693
000450 00 00 00 00 bc 86 8d 3f 00 00 00 80 79 c3 a2 bf
       0.014417141675949097 -0.036647602915763855
000460 00 00 00 c0 42 4a bf 3f 00 00 00 00 cb b0 b7 3f
       0.12222687900066376 0.0925413966178894
000470 00 00 00 00 da 55 85 3f 00 00 00 40 17 bc bd 3f
       0.010417655110359192 0.11615128815174103
000480 00 00 00 40 e9 e5 b7 bf 00 00 00 00 28 e9 67 3f
       -0.09335191547870636 0.0029187947511672974
000490 00 00 00 80 8a 3b ae 3f 00 00 00 00 f8 74 82 3f
       0.059048011898994446 0.009012162685394287
0004a0 00 00 00 40 08 64 bb bf 00 00 00 80 5d 55 aa 3f
       -0.1069951206445694 0.0514325350522995
0004b0 00 00 00 00 bc d2 85 3f 00 00 00 00 71 ea a4 3f
       0.010655850172042847 0.04085114598274231
0004c0 00 00 00 00 32 e7 ab bf 00 00 00 00 ed c6 a4 bf
       -0.054498255252838135 -0.040580183267593384
0004d0 00 00 00 40 cd c8 b3 bf 00 00 00 80 2b ce a1 bf
       -0.07728274166584015 -0.034776076674461365
0004e0 00 00 00 00 f8 a5 7b 3f 00 00 00 00 3d 61 a6 3f
       0.00675007700920105 0.0437106192111969
0004f0 00 00 00 00 d4 64 9b bf 00 00 00 00 24 2b 79 bf
       -0.026751816272735596 -0.006144657731056213
000500 00 00 00 00 08 be 81 3f 00 00 00 00 f9 02 95 bf
       0.00866323709487915 -0.020519152283668518
000510 00 00 00 00 06 80 b4 3f 00 00 00 00 ae 40 8f bf
       0.08007848262786865 -0.015260085463523865
000520 00 00 00 c0 06 a1 b4 3f 00 00 00 80 c8 20 af bf
       0.08058206737041473 -0.06079699099063873
000530 00 00 00 80 55 58 b8 3f 00 00 00 00 a3 26 a9 3f
       0.0950978696346283 0.049122899770736694
000540 00 00 00 00 ee 98 97 3f 00 00 00 00 36 ff 8b 3f
       0.023044317960739136 0.013670369982719421
000550 00 00 00 00 59 cc 94 3f 00 00 00 80 03 16 bc 3f
       0.020310774445533752 0.10971090197563171
000560 00 00 00 00 51 75 bb 3f 00 00 00 80 b4 85 bd 3f
       0.1072588562965393 0.11532142758369446
000570 00 00 00 00 81 ae aa bf 00 00 00 80 1c 41 ba 3f
       -0.05211260914802551 0.1025560200214386
000580 00 00 00 80 0b a5 b9 bf 00 00 00 80 84 7b be bf
       -0.10017463564872742 -0.11907222867012024
000590 00 00 00 c0 a7 74 ba 3f 00 00 00 80 bf fc b5 bf
       0.10334251821041107 -0.08588787913322449
0005a0 00 00 00 80 cc d1 a6 bf 00 00 00 00 14 57 bc bf
       -0.044569388031959534 -0.11070370674133301
0005b0 00 00 00 80 a6 f6 b6 3f 00 00 00 00 57 24 9e bf
       0.0897010862827301 -0.029435500502586365
0005c0 00 00 00 80 75 e0 a3 bf 00 00 00 00 b4 41 81 3f
       -0.038821861147880554 0.008426100015640259
0005d0 00 00 00 c0 81 9c b8 bf 00 00 00 c0 2e d2 b2 3f
       -0.0961381047964096 0.07351963222026825
0005e0 00 00 00 c0 38 c3 b3 3f 00 00 00 c0 c3 0a b2 bf
       0.0771975964307785 -0.07047675549983978
0005f0 00 00 00 00 e1 dd 92 3f 00 00 00 00 7a 72 af bf
       0.01842452585697174 -0.0614202618598938
000600 00 00 00 80 ee ee ba bf 00 00 00 00 a6 14 90 3f
       -0.10520830750465393 0.01570376753807068
000610 00 00 00 00 64 13 b4 bf 00 00 00 00 f8 a8 9b 3f
       -0.07842087745666504 0.027011752128601074
000620 00 00 00 80 6f 2c a1 bf 00 00 00 00 a6 ec ae bf
       -0.03354214131832123 -0.06039923429489136
000630 00 00 00 00 32 aa b1 3f 00 00 00 00 83 5e b6 bf
       0.06900322437286377 -0.08737963438034058
000640 00 00 00 00 9d a3 93 bf 00 00 00 c0 06 87 ba bf
       -0.01917882263660431 -0.10362283885478973
000650 00 00 00 00 be 9c 91 3f 00 00 00 00 a3 d5 bb 3f
       0.01719948649406433 0.10872858762741089
000660 00 00 00 00 b8 fd 79 3f 00 00 00 00 ec 8d bb bf
       0.006345480680465698 -0.10763430595397949
000670 00 00 00 c0 31 48 b4 bf 00 00 00 80 65 77 b2 bf
       -0.07922659814357758 -0.0721343457698822
000680 00 00 00 40 d1 3c b2 3f 00 00 00 80 40 b7 b3 3f
       0.07124049961566925 0.07701495289802551
000690 00 00 00 00 78 42 ae bf 00 00 00 00 57 8d a2 3f
       -0.05910086631774902 0.03623458743095398
0006a0 00 00 00 00 58 9f 61 3f 00 00 00 00 34 bb 73 3f
       0.002151176333427429 0.004817202687263489
0006b0 00 00 00 80 04 cd b3 bf 00 00 00 40 00 71 bc 3f
       -0.07734706997871399 0.1110992580652237
0006c0 00 00 00 00 14 63 97 3f 00 00 00 c0 43 de b3 3f
       0.022838890552520752 0.07761023938655853
0006d0 00 00 00 00 23 93 a6 bf 00 00 00 80 fd c4 a7 3f
       -0.04409131407737732 0.04642479121685028
0006e0 00 00 00 80 b4 da b4 bf 00 00 00 80 1b 68 b8 3f
       -0.08146217465400696 0.09533855319023132
0006f0 00 00 00 40 f3 75 b2 3f 00 00 00 00 1e cb 82 bf
       0.07211227715015411 -0.009176477789878845
000700 00 00 00 c0 57 20 b3 bf 00 00 00 40 1a b3 b7 bf
       -0.07471226155757904 -0.09257663786411285
000710 00 00 00 00 b4 8b 70 3f 00 00 00 80 b6 b8 aa bf
       0.004039481282234192 -0.052190497517585754
000720 00 00 00 00 ab 94 91 3f 00 00 00 40 9e bb b9 bf
       0.017168685793876648 -0.1005190759897232
000730 00 00 00 40 11 96 bb 3f 00 00 00 00 40 4b bb bf
       0.10775859653949738 -0.10661697387695312
000740 00 00 00 00 10 10 6c 3f 00 00 00 c0 cc e3 b0 bf
       0.0034256279468536377 -0.06597594916820526
000750 00 00 00 80 72 86 a9 bf 00 00 00 80 9a f3 b4 3f
       -0.04985387623310089 0.0818420946598053
000760 00 00 00 80 f5 fb b4 bf 00 00 00 00 64 67 b6 bf
       -0.08196958899497986 -0.08751511573791504
000770 00 00 00 c0 3c 4e b1 bf 00 00 00 40 f0 dc b8 bf
       -0.0676000565290451 -0.09712125360965729
000780 00 00 00 00 20 4c 82 bf 00 00 00 00 0c d3 9f bf
       -0.008934259414672852 -0.0310785174369812
000790 00 00 00 00 48 39 9f 3f 00 00 00 80 f2 50 ae 3f
       0.030491948127746582 0.059211328625679016
0007a0 00 00 00 00 60 b7 af 3f 00 00 00 40 44 be ba 3f
       0.06194591522216797 0.10446573793888092
0007b0 00 00 00 00 e0 ef 5b 3f 00 00 00 00 87 1d a7 3f
       0.0017051398754119873 0.04514715075492859
0007c0 00 00 00 80 36 34 b5 3f 00 00 00 80 d4 11 a0 3f
       0.08282795548439026 0.031386032700538635
0007d0 00 00 00 00 c2 88 99 bf 00 00 00 00 97 b2 98 bf
       -0.024935752153396606 -0.02411876618862152
0007e0 00 00 00 00 0c 8e 7c bf 00 00 00 80 a5 e5 a2 3f
       -0.006971403956413269 0.036908313632011414
0007f0 00 00 00 00 f9 8c b9 bf 00 00 00 00 03 36 ba bf
       -0.09980732202529907 -0.10238665342330933

fc2.bias f8 [128]
000000 e9 7a eb 73 9f 57 98 bf 51 10 91 de 8e b5 ab 3f
       -0.02377175469416218 0.0541195532501041
000010 00 00 00 80 18 6d b8 bf 00 00 00 00 0a 1b 8b 3f
       -0.0954146683216095 0.013235166668891907
000020 dd 2a 8f b9 ea 1b a2 bf 34 da 18 d0 21 11 90 3f
       -0.03536923899772202 0.015690353704679263
000030 00 00 00 40 d8 fe b0 bf 00 00 00 80 82 a7 a6 bf
       -0.06638862192630768 -0.044246748089790344
000040 00 00 00 40 e6 9e b2 bf 82 c9 a1 ee 46 67 a9 bf
       -0.07273711264133453 -0.04961606657970476
000050 00 00 00 00 32 fb 8e bf a0 d0 de 9a 66 da ab bf
       -0.015127554535865784 -0.05440064087398011
000060 5d 29 24 39 28 64 a6 3f 1e a2 78 4c 2e b9 c2 bf
       0.04373288819813823 -0.1462762711901328
000070 b3 ed 00 5b c5 4f 9e 3f 22 a2 8a 9b 60 56 b9 bf
       0.029601176909847825 -0.09897426412010948
000080 4c 14 4c 96 a8 6c bf 3f 24 87 75 df 47 87 c5 bf
       0.12275174779286252 -0.16819094096268217
000090 ab 4f db 13 12 13 a6 3f 00 00 00 c0 79 26 bc bf
       0.04311424724951903 -0.1099620908498764
0000a0 00 00 00 00 64 24 a8 bf bf 0e 69 dd 47 57 b4 3f
       -0.04715263843536377 0.07945679812933813
0000b0 e0 3b e9 16 59 34 97 bf 00 00 00 00 0e 99 a8 3f
       -0.02266062929475854 0.04804271459579468
0000c0 ac c0 36 9e bc ae c2 3f 00 00 00 80 51 12 a1 bf
       0.14595754361426339 -0.0333428829908371
0000d0 ad d3 bd a3 52 51 b2 bf 5c a3 b2 fa 93 87 86 bf
       -0.07155338761897552 -0.011000782097043853
0000e0 57 20 29 3c fb 7b b2 3f 99 d6 ae 34 15 e0 c1 bf
       0.07220430582776892 -0.13965096542749647
0000f0 32 fc 53 6d db a7 a1 bf e5 74 c3 a7 15 ce 95 3f
       -0.03448377332278375 0.021293962826224883
000100 00 00 00 00 bd 99 ad bf 9f 39 fe fa ce f2 9f bf
       -0.057813555002212524 -0.031199678487206502
000110 72 f7 18 7e 64 cf aa 3f 78 1e ea 89 98 91 74 bf
       0.05236352957989156 -0.005021663526924784
000120 f7 d9 49 6a 2a e3 ac bf 00 00 00 80 ad fc b2 bf
       -0.05642063662974189 -0.07416805624961853
000130 00 00 00 80 62 8a a1 bf 00 00 00 00 64 f7 a2 bf
       -0.03425891697406769 -0.03704369068145752
000140 e6 c7 c3 61 49 83 bf bf ce de f2 f2 6e 33 c4 bf
       -0.12309702526889019 -0.15781962263803567
000150 f7 03 14 6f 2a f6 bf 3f 00 00 00 00 f7 c7 a0 3f
       0.12484994136686099 0.03277561068534851
000160 00 00 00 c0 8e 3e b8 bf dc 06 c3 98 1c fe 9a 3f
       -0.09470455348491669 0.026359984229890596
000170 31 8e 5a b0 88 fd c4 bf 29 bb d7 96 a6 82 94 bf
       -0.16398724185010985 -0.020029643017490138
000180 ad 06 28 1c 53 92 b7 bf 2c fa 28 90 fe 76 c2 3f
       -0.09207648694430288 0.14425642050805842
000190 00 00 00 c0 ff cf bd bf 00 00 00 00 b7 5f 94 bf
       -0.1164550632238388 -0.01989637315273285
0001a0 29 ea 6f d5 dc b4 9a 3f c8 de 50 7c 52 eb a8 bf
       0.026080561186953375 -0.048670365977554975
0001b0 c2 35 e0 cc 86 40 a6 bf 00 00 00 00 fc a6 85 3f
       -0.043461048611884504 0.0105724036693573
0001c0 ad 34 dc 51 63 e0 a4 bf 00 00 00 80 86 fe a7 bf
       -0.04077444433469544 -0.046863749623298645
0001d0 00 00 00 00 d6 c9 93 bf b1 4e 7a 35 1b 61 c0 bf
       -0.01932463049888611 -0.12796344863146694
0001e0 40 96 44 0d 9d 50 b0 bf 00 00 00 80 0a 11 b2 bf
       -0.06373006414340754 -0.07057252526283264
0001f0 db 8e 2c 26 aa 3c ba bf 00 00 00 00 a7 b3 ae bf
       -0.10248816902145157 -0.059964388608932495
000200 00 00 00 00 7d 20 a6 bf 61 a1 65 cb fd 5d c1 3f
       -0.04321661591529846 0.13568088942998727
000210 50 39 e1 3d 75 bc 98 bf 36 26 30 68 24 6f c2 3f
       -0.024156410123674477 0.1440167912226557
000220 98 c9 85 d4 9c 9c a9 3f 15 07 a6 52 87 48 a6 3f
       0.05002298445005521 0.04352209934132937
000230 8e 62 fa 18 bf 68 ac 3f a7 5c 80 32 3d 05 b8 bf
       0.05548665218265568 -0.09382994158692047
000240 00 00 00 00 b5 3b ad bf 37 32 0a f8 f9 a2 a7 bf
       -0.05709615349769592 -0.04616528656797352
000250 36 59 5b ef 0c 73 b6 3f ef 11 25 5d 0f c9 af 3f
       0.0876930317275296 0.062080841179099504
000260 c3 60 c7 ab 5e c5 b4 3f 00 00 00 80 ff b8 a8 bf
       0.08113662427729466 -0.048286423087120056
000270 a1 e9 0c b5 6f da b8 3f 00 00 00 00 90 12 50 bf
       0.09708307428528552 -0.0009809881448745728
000280 00 00 00 00 20 d5 61 bf 00 00 00 00 d2 35 a4 3f
       -0.002176821231842041 0.039473116397857666
000290 48 6a 06 78 75 e2 b5 bf b4 58 de 6f c3 f7 c1 bf
       -0.08548673801707551 -0.14037363970118621
0002a0 00 00 00 c0 68 f8 bb bf 3b e8 be aa 8d d1 92 3f
       -0.10925917327404022 0.018377507730953573
0002b0 87 bb 00 ad f9 3c ba bf 59 dd ec 82 7f 40 a2 3f
       -0.10249290918066666 0.03564833138664864
0002c0 e4 b7 d6 69 75 f3 92 3f 00 00 00 c0 4f 90 bc 3f
       0.018506846032032245 0.11157701909542084
0002d0 b6 63 8e e8 91 df c1 bf 60 05 10 22 ac 1e c6 bf
       -0.1396353135612835 -0.17281104720317852
0002e0 00 00 00 00 4e 8a 8a 3f 7d 13 db 1e e7 e0 aa bf
       0.012959107756614685 -0.0524971223035555
0002f0 56 ee ef a5 39 92 aa 3f 79 b3 15 9c 34 95 b1 bf
       0.05189685965157469 -0.06868294535315823
000300 d2 aa d9 d3 2a c9 b7 3f 00 00 00 00 9d a1 b7 bf
       0.0929133193218761 -0.09230977296829224
000310 0c a5 81 85 88 2a b9 bf 52 32 b8 07 77 d6 b5 bf
       -0.09830525645670124 -0.08530372560944358
000320 d7 b9 9b 28 56 81 53 3f 13 9a 79 ef ab 3d ae bf
       0.0011905042069276694 -0.05906426714209458
000330 19 55 f5 8b 08 7f a0 3f 3e d8 4c 39 4c d8 96 3f
       0.03221918781734185 0.022309485432934865
000340 d0 03 38 65 18 d5 87 3f 9a c8 6d 1e c0 e9 be 3f
       0.01163691576857842 0.12075424902812629
000350 d8 bd 7f 12 55 b5 8e bf 39 6b ad ee 04 36 c6 bf
       -0.014994301440281285 -0.1735235371987416
000360 00 00 00 00 4a fb 89 3f 2c 9a 0c ed a3 33 b2 3f
       0.01268632709980011 0.0711004689916101
000370 34 9b 9c 15 a6 6f 97 3f c5 c7 0b 5a 0a a1 be 3f
       0.022886843747211574 0.11964478205098235
000380 a0 aa ad d7 5e 38 a8 bf 00 00 00 00 37 4a af bf
       -0.04730507262032302 -0.06111308932304382
000390 4f 2a 8e cc c1 e7 b5 bf 82 59 cc 7c 69 26 91 bf
       -0.08556758159662901 -0.016748092882232786
0003a0 fc b7 4e 7a e8 7f b1 bf 0f e7 9c 2b 05 d1 a8 3f
       -0.06835797296545815 0.048469697545853056
0003b0 ff 8f 1c 78 9c ee 8f bf fc f9 ff 2b 55 73 bd bf
       -0.015591833510889328 -0.11504108738152036
0003c0 f4 e8 d2 a6 78 6a bb 3f 1d 1f cf 2a 7d aa c3 bf
       0.1070933730397064 -0.1536404093769698
0003d0 fa 15 8e 02 41 f2 b4 3f 00 00 00 00 62 95 b7 3f
       0.08182150184992301 0.09212315082550049
0003e0 49 cc 12 69 46 3a b4 3f b2 a9 bb ba 01 d8 bc 3f
       0.07901420655507353 0.11267100151932288
0003f0 2d b0 77 91 0e 9b ae 3f 00 00 00 00 bd fe 98 bf
       0.05977674031950673 -0.024409249424934387

fc3.weight f8 [64, 128]
000000 c9 9a 5c 25 fc 39 93 3f 83 4c eb 27 ff eb b9 bf
       0.018775882511500783 -0.1012572739085034
000010 00 00 00 20 80 e8 b0 3f 00 00 00 00 e6 49 92 3f
       0.06604767590761185 0.01786002516746521
000020 22 2d ab 80 49 8d b0 bf 4b e3 45 0e 7b ea 8e 3f
       -0.06465587035488743 0.015095673916890503
000030 00 00 00 00 14 76 63 3f 00 00 00 80 59 fc b0 bf
       0.0023756399750709534 -0.0663505494594574
000040 00 00 00 c0 59 05 aa 3f 00 00 00 00 43 c6 82 3f
       0.050822071731090546 0.009167216718196869
000050 00 00 00 80 98 fa b3 bf 00 00 00 c0 18 f8 ad 3f
       -0.07804253697395325 0.058533452451229095
000060 f3 1d e2 bf f6 64 b7 bf 00 00 00 20 95 b3 ad bf
       -0.09138433632516989 -0.058010730892419815
000070 c5 8d f3 2d de e6 ae bf 00 00 00 00 9e 6e 99 3f
       -0.06035513220720249 0.024836033582687378
000080 27 3f 15 6f 9a cb b8 bf 00 00 00 00 48 c5 81 3f
       -0.0968567391585081 0.008677065372467041
000090 00 00 00 00 22 9e 99 bf 00 00 00 20 41 61 b6 bf
       -0.02501729130744934 -0.0874214842915535
0000a0 00 00 00 c0 e6 a3 b4 bf 33 55 51 d1 83 e1 bf bf
       -0.08062593638896942 -0.12453483448310436
0000b0 00 00 00 80 5d c9 9e bf 00 00 00 00 70 8b 69 3f
       -0.03006502240896225 0.0031182467937469482
0000c0 3e 17 ee 88 42 8e b2 bf 00 00 00 e0 27 9a b0 bf
       -0.07248321383494002 -0.06485223025083542
0000d0 00 00 00 00 05 ff 9d 3f 00 00 00 c0 dd c7 ae 3f
       0.029293134808540344 0.06011860817670822
0000e0 87 a3 d0 66 14 42 c1 bf 00 00 00 40 1b 8d a4 3f
       -0.13482909221900405 0.040139056742191315
0000f0 00 00 00 a0 fd 4b b0 3f 00 00 00 00 c4 1f 8e 3f
       0.06365952640771866 0.014709025621414185
000100 00 00 00 a0 15 b4 a0 bf 00 00 00 00 cd 8a 81 3f
       -0.032623935490846634 0.008565522730350494
000110 00 00 00 00 24 a8 8d bf 00 00 00 60 bd 02 b1 bf
       -0.01448085904121399 -0.06644805520772934
000120 00 00 00 80 57 d6 97 bf 00 00 00 a0 c5 71 a3 bf
       -0.02327858656644821 -0.03797738626599312
000130 00 00 00 80 ce 6c 9a bf 00 00 00 00 d2 9f 73 bf
       -0.02580568939447403 -0.004791088402271271
000140 00 00 00 80 4c 10 91 3f 00 00 00 40 34 75 a4 3f
       0.01666373759508133 0.03995669633150101
000150 b0 77 5f c4 62 cb 92 3f 00 00 00 40 b2 20 a5 3f
       0.018353980289127214 0.04126507788896561
000160 00 00 00 00 1b 85 8f 3f 00 00 00 00 2e 58 85 bf
       0.01539059728384018 -0.010422095656394958
000170 00 00 00 c0 67 1e a4 bf 00 00 00 60 f8 b1 b0 bf
       -0.03929447382688522 -0.06521560996770859
000180 00 00 00 c0 c3 d7 9f bf 82 65 4f a4 3a 53 90 bf
       -0.03109651431441307 -0.015942493704505185
000190 00 00 00 c0 06 c3 ab 3f 00 00 00 80 b5 e6 9b bf
       0.05422230809926987 -0.027247272431850433
0001a0 d5 f5 79 ed 11 de 71 3f 72 9f 4c 18 8d 69 af bf
       0.00436217310891381 -0.06135216638204967
0001b0 00 00 00 20 62 4c b5 3f 00 00 00 00 80 ae a0 3f
       0.08319676667451859 0.032581329345703125
0001c0 00 00 00 40 bb 82 af 3f 00 00 00 00 85 36 96 bf
       0.061544276773929596 -0.021692350506782532
0001d0 00 00 00 c0 73 a4 b4 bf 00 00 00 00 fd a3 a6 bf
       -0.08063434064388275 -0.04421988129615784
0001e0 00 00 00 00 c2 f9 81 3f 00 00 00 40 34 b4 a2 3f
       0.008777156472206116 0.03653109818696976
0001f0 00 00 00 40 8d 66 a6 bf 00 00 00 40 ea 4d a2 bf
       -0.04375115782022476 -0.03575069457292557
000200 00 00 00 40 cd 82 a4 3f 05 d6 19 6c d5 e5 b3 bf
       0.040060438215732574 -0.07772573365385689
000210 00 00 00 00 47 e4 98 bf c1 95 7a 2a c8 80 ba bf
       -0.024308308959007263 -0.1035275558193325
000220 6b 6e a8 43 43 67 b8 bf b6 47 cf 79 65 e3 be bf
       -0.09532566453747797 -0.12065729354733787
000230 50 3d 00 3e 80 79 92 3f 00 00 00 c0 46 5a a7 3f
       0.01804161432670287 0.04561062902212143
000240 00 00 00 60 78 d9 b2 3f d2 0c d4 fa a2 c4 b4 bf
       0.07363083213567734 -0.08112543700922295
000250 97 18 2a 94 37 7c a6 bf 00 00 00 a0 da a3 ae bf
       -0.04391645129821702 -0.05984385684132576
000260 50 df 81 ef cf c3 8e bf 00 00 00 00 40 08 2a bf
       -0.015021919724162253 -0.00019861012697219849
000270 02 35 31 33 cc 16 ae bf 00 00 00 80 9b 39 b1 bf
       -0.058767682313012784 -0.06728526949882507
000280 00 00 00 80 27 f1 a6 bf 00 00 00 00 d4 1c 92 bf
       -0.044808611273765564 -0.017688095569610596
000290 00 00 00 80 5b 78 b0 bf 00 00 00 a0 5c a4 b1 3f
       -0.06433650851249695 0.06891421228647232
0002a0 00 00 00 40 07 41 a3 3f 00 00 00 60 ef f5 a4 bf
       0.03760550171136856 -0.040938835591077805
0002b0 00 00 00 00 e8 af 86 bf 85 38 bc fd f1 4c c2 bf
       -0.011077702045440674 -0.14297318353095903
0002c0 8f 90 0b b4 11 81 c2 bf 00 00 00 80 20 45 a6 bf
       -0.1445638779761151 -0.04349614679813385
0002d0 00 00 00 00 82 ac 83 bf 00 00 00 a0 27 fd ad bf
       -0.00960637629032135 -0.05857204273343086
0002e0 00 00 00 00 87 70 a7 bf 00 00 00 20 1c 18 b6 bf
       -0.04578039050102234 -0.08630538731813431
0002f0 4e 7a 8c 0d 8d b2 b4 bf 00 00 00 e0 6b 85 ac bf
       -0.08084947186260047 -0.05570542439818382
000300 c5 1f 24 f8 a1 9e b3 bf 00 00 00 20 69 41 b5 3f
       -0.07663929279453814 0.08302933722734451
000310 00 00 00 e0 e3 40 ab bf 00 00 00 40 25 6d ac 3f
       -0.053229447454214096 0.05552021414041519
000320 00 00 00 c0 e1 0d a2 bf 9d 1b 82 e2 11 9e bb bf
       -0.03526216000318527 -0.10788070468889406
000330 00 00 00 80 2a 83 9e 3f 00 00 00 20 78 46 b6 bf
       0.029797233641147614 -0.08701277524232864
000340 00 00 00 e0 ad e9 a8 bf 85 80 d2 59 dd 5e 9e bf
       -0.04865783080458641 -0.029658754927937032
000350 00 00 00 c0 4b 7c aa 3f 00 00 00 00 c6 be 85 bf
       0.05172955244779587 -0.010617777705192566
000360 00 00 00 00 f9 4b 8b bf dc 82 02 ea aa 5e c3 bf
       -0.013328500092029572 -0.15132652689228265
000370 00 00 00 60 4a 00 a6 bf c8 72 72 af 7c c1 af bf
       -0.042970966547727585 -0.062023064057233734
000380 fb 97 47 cf 75 e9 94 3f 00 00 00 c0 48 1a af 3f
       0.02042182996401463 0.060747407376766205
000390 8f 38 86 89 e7 f9 74 3f 00 00 00 00 d8 56 95 bf
       0.005121139948086064 -0.02083909511566162
0003a0 00 00 00 40 44 ac af 3f 00 00 00 60 8e c9 b5 bf
       0.06186116486787796 -0.0851067528128624
0003b0 00 00 00 00 6f b3 91 bf 00 00 00 40 89 80 9e bf
       -0.017286047339439392 -0.029787201434373856
0003c0 f6 f4 09 00 57 b6 26 3f 00 00 00 a0 f4 22 b6 3f
       0.00017328083051274646 0.08647087961435318
0003d0 b2 33 f2 e0 c4 98 b6 bf 00 00 00 e0 f0 2b b5 bf
       -0.08826857082222153 -0.08270173519849777
0003e0 70 8f d4 b4 af 8f be bf 46 99 86 d2 ed 7b b5 bf
       -0.11937997975161152 -0.08392225637235126
0003f0 0c 03 cd 71 6e 78 b4 bf 00 00 00 40 e2 79 af bf
       -0.07996263769474526 -0.061476774513721466
000400 ec cc a7 e0 63 cb 78 3f ea 79 67 e1 58 ec b0 bf
       0.00605334295913738 -0.06610637190849614
000410 00 00 00 a0 bd c5 b2 bf 00 00 00 80 61 58 a8 bf
       -0.07332978397607803 -0.0475492924451828
000420 6f c0 8c ff 4f 88 c2 bf 78 74 29 ca 80 a5 bc bf
       -0.14478492715852861 -0.11190037665933683
000430 00 00 00 00 fc 65 6f 3f 00 00 00 a0 e0 ce b1 bf
       0.003832809627056122 -0.06956294924020767
000440 00 00 00 60 57 30 a4 bf 07 5b ba e6 5a db a0 3f
       -0.039431314915418625 0.03292354647162737
000450 00 00 00 c0 9f 2a a6 3f 00 00 00 40 ac b3 a3 3f
       0.043293945491313934 0.03848017007112503
000460 5d 69 3b db 9e 7f 4f bf 49 47 1c c3 3a 4f 9a 3f
       -0.0009612584749121679 0.025692861708257273
000470 07 e4 9f e4 73 44 b4 bf b9 37 4a 02 7f d2 96 3f
       -0.0791695054212057 0.022287354006543334
000480 60 2c 35 8c ee 39 71 3f a3 42 06 1a a5 3b 97 3f
       0.004205638720416877 0.02268846484509147
000490 e8 58 a6 83 1a d2 c0 3f 00 00 00 c0 fe 0c a1 bf
       0.13141185215199092 -0.033302269876003265
0004a0 00 00 00 80 5f 87 9a 3f 47 15 fc 8b 86 f0 b2 bf
       0.025907032191753387 -0.07398262899012763
0004b0 72 4f 50 a7 cb 78 ba 3f 00 00 00 00 de 0c 76 3f
       0.10340569338614872 0.0053833648562431335
0004c0 5f ec af d7 d0 30 ab bf 00 00 00 00 e8 d6 87 bf
       -0.0531068099298515 -0.011640369892120361
0004d0 00 00 00 00 7c b1 7d bf 45 61 e0 72 7b dc a9 3f
       -0.0072493404150009155 0.05051027085591157
0004e0 d0 27 bc 33 fa bc af bf c6 1c f2 99 c8 ae af 3f
       -0.06198865777521656 0.06188036803455925
0004f0 d5 9d 61 c8 58 6a 9b bf bc 5f 1b a7 13 6e 87 3f
       -0.02677286837606892 0.011440423524092462
000500 00 00 00 20 63 af b5 3f 1f 59 9d 6c 2d eb 66 bf
       0.08470744639635086 -0.002797688216484975
000510 e4 79 90 43 db cf a4 3f 79 10 a8 9e a4 6a c1 3f
       0.04064831924209836 0.136066987484927
000520 2d e8 cf c2 a9 5a a3 3f 00 00 00 a0 4e ae ae bf
       0.037801079779413584 -0.05992360785603523
000530 00 00 00 a0 70 5f b5 3f 00 00 00 20 c5 38 b4 bf
       0.08348754793405533 -0.07899124175310135
000540 7e cd 08 fa f1 2c c2 bf 89 10 d9 42 1f 81 9e 3f
       -0.1419966193076156 0.02978943677432303
000550 b1 89 f3 77 d1 f5 a0 3f 00 00 00 60 5b b9 b4 3f
       0.03312544430970677 0.08095332235097885
000560 00 00 00 80 e0 c6 b1 bf 3b 83 aa da 8c 2a b0 3f
       -0.06944087147712708 0.0631492647030542
000570 50 b0 6b 42 b4 e6 aa 3f 80 1c 92 de 46 80 a8 3f
       0.052541382892599686 0.047853674573212324
000580 37 44 45 65 d9 9e a1 3f c1 82 10 ed a6 8d ba bf
       0.034415048229341876 -0.10372393882472421
000590 00 00 00 c0 da b7 a6 3f 00 00 00 00 20 b9 6b 3f
       0.04437144845724106 0.0033841729164123535
0005a0 29 e1 9e 9e d6 fb aa 3f 40 97 5e d9 91 48 79 3f
       0.05270262419020561 0.006172723506016997
0005b0 61 06 ea 03 15 fb a9 3f 00 00 00 20 b3 1f b0 3f
       0.05074372933178207 0.06298369914293289
0005c0 3a 5e dc 36 ec 84 72 bf 00 00 00 40 bd b6 a8 3f
       -0.004521296226605959 0.04826918989419937
0005d0 00 00 00 80 e5 78 97 bf 00 00 00 00 4c 6f 72 3f
       -0.022922120988368988 0.004500672221183777
0005e0 28 aa a4 26 cd fb a4 3f 00 00 00 00 a8 24 69 3f
       0.04098359200209628 0.0030692368745803833
0005f0 82 67 74 31 b3 71 c2 3f 00 00 00 40 d3 19 ac bf
       0.1440948478200959 -0.05488453060388565
000600 00 00 00 e0 b3 d7 b5 3f f1 24 f7 ac 9a e7 af bf
       0.08532261103391647 -0.062313874830190026
000610 c4 0a b4 0b 97 fd 9d 3f 67 0d 31 8e 7d a6 a1 bf
       0.02928768166476449 -0.03447334633576809
000620 18 c1 8d b4 da 3b a9 3f bc 6a fd d5 aa 1e 99 bf
       0.049284777202844576 -0.024531049071223818
000630 00 00 00 00 2c 07 71 bf 0e 50 88 f0 aa aa bc 3f
       -0.004157230257987976 0.11197918293356698
000640 00 00 00 20 9a 6f b1 3f 5b c8 21 33 f4 c7 99 3f
       0.06810916215181351 0.025176826115462663
000650 b9 aa 10 2f e5 6c 91 3f 8e 96 be f0 b4 bf b5 3f
       0.017016964910150565 0.08495646359969042
000660 f2 36 b6 7b fe e9 a6 bf 00 00 00 c0 77 c4 a8 bf
       -0.04475398311761393 -0.048373930156230927
000670 2c 61 a8 c0 d3 14 6c 3f 00 00 00 20 51 6b a3 bf
       0.0034278999130600476 -0.03792813792824745
000680 00 00 00 40 6f d8 aa 3f 00 00 00 40 70 da ae 3f
       0.05243251472711563 0.06026030331850052
000690 7f e2 27 2c cb 95 b8 3f c1 39 11 80 62 85 91 3f
       0.0960356695940252 0.017110385004622367
0006a0 00 00 00 00 f5 87 a1 3f f7 77 5c 20 fa d4 bf 3f
       0.034240394830703735 0.12434352197712416
0006b0 38 41 04 b9 6b a2 b2 3f a6 43 1f 00 02 0f b8 3f
       0.07279084460265473 0.09397900107366172
0006c0 ee bb 2f 02 fb 57 94 3f 00 00 00 c0 9c ae a6 3f
       0.01986686898083783 0.04430093616247177
0006d0 fe f1 22 f3 f6 51 b8 3f 86 32 27 bd f6 30 b9 3f
       0.0950006812663062 0.09840337865825619
0006e0 00 00 00 80 7e da 91 3f af 73 3e 3f 71 b7 5b bf
       0.01743505150079727 -0.001691685288256677
0006f0 34 35 b2 20 bb 15 b5 bf e5 51 68 de 72 72 80 3f
       -0.08236283825154517 0.008030793583238835
000700 8a 52 bd 39 37 1d b2 bf 00 00 00 e0 c4 4f b5 3f
       -0.07075829658180957 0.08324842900037766
000710 28 27 77 cf 27 04 9b 3f 22 26 8c 1b ac 43 87 bf
       0.026383039510427114 -0.011359543409997622
000720 25 ae 10 4f 1f ef bd 3f 4a b3 94 07 83 40 92 3f
       0.11692996673871699 0.017824218118380565
000730 7c b1 f6 71 ef 3c a8 3f 9f c4 28 d6 d8 30 ad 3f
       0.04733989969404015 0.057013298170553776
000740 8c 7c 5c b9 22 a9 8b bf 79 e0 cb 84 16 e1 9e bf
       -0.013506194383408741 -0.030155517440079358
000750 aa 6f ee 2a cd cb 90 3f 34 ec e3 18 55 26 c1 3f
       0.016402440781902485 0.13398231234882163
000760 00 00 00 00 2e 6e 80 3f 88 2f 2e 31 82 bb b4 bf
       0.008022651076316833 -0.08098615360921546
000770 41 c4 f5 8c fb 52 b9 3f 18 30 77 c4 cd 94 9b bf
       0.09892246428877717 -0.02693482886915896
000780 b9 bf 6e da 15 2c ae 3f 00 00 00 80 8d 43 98 bf
       0.058930094637048076 -0.023695193231105804
000790 17 c7 f1 0a ee 85 bf bf 00 00 00 e0 54 6e b5 3f
       -0.12313735739897101 0.08371477574110031
0007a0 3e 53 e4 26 9c 68 b2 bf b2 c9 a4 68 4c e2 bb 3f
       -0.07190872144230995 0.10892179064538857
0007b0 00 00 00 c0 3b bc a2 3f af 77 49 d9 e3 fc b5 3f
       0.036592356860637665 0.085890045689182
0007c0 be de 61 c7 1d 26 96 bf 00 00 00 40 f2 fd ae bf
       -0.021629777235345975 -0.06053120642900467
0007d0 7a 21 64 8d 6b 6f b8 bf 00 00 00 20 71 02 b0 bf
       -0.09545013620311762 -0.06253726035356522
0007e0 00 00 00 00 90 9f 93 3f e9 2a 00 59 87 7f a4 bf
       0.01916337013244629 -0.040035466780030955
0007f0 2a 26 3c 48 06 52 aa bf 00 00 00 00 03 d9 8a bf
       -0.05140704757475263 -0.013109229505062103
