src/backend/controller/checkpoints/checkpoint_epoch_105.pth (torch, 420244 bytes, 25 tensors)

fc1.weight f8 [64, 5]
0	0x3fc5fa55f6c433ed	0.17170214223042937
1	0xbfddb3186b564c65	-0.46405611498011573
2	0x3fcfe7b392a21d1a	0.2492584672911356
3	0xbfc7dc44f5ffe878	-0.18640958797169893
4	0x3fbb4d352835b909	0.10664684516607194
5	0xbfc4288740000000	-0.15748682618141174
6	0xbfd24cb4a0000000	-0.2859317362308502
7	0xbfdac41960000000	-0.4182189404964447
8	0xbfce277ec0000000	-0.23558029532432556
9	0x3fba497600000000	0.102683424949646
10	0xbfcc06e3d2dfe6b9	-0.21896026417362238
11	0x3fb3646af737f226	0.07575100455864767
12	0xbfd9172d40f6f4e9	-0.3920395979328775
13	0x3fdac29475fc1336	0.4181262161439919
14	0x3fb0911abc443c7b	0.06471411796904818
15	0x3fd2b3e300000000	0.29222941398620605
16	0xbfc07d2140000000	-0.12881866097450256
17	0xbfd1032180000000	-0.2658160924911499
18	0xbfd7520880000000	-0.36438190937042236
19	0xbfb5e70380000000	-0.08555623888969421
20	0xbfc4ff4bc0000000	-0.16404101252555847
21	0xbf8a2da400000000	-0.012782365083694458
22	0x3fd9654240000000	0.3968053460121155
23	0x3f93ab9800000000	0.01920926570892334
24	0xbfda0d1c40000000	-0.4070501923561096
25	0xbfc35606989f6007	-0.1510627980449046
26	0x3fd738881b8dc293	0.3628254193381874
27	0x3fd88bb3fb1982b8	0.3835267974991825
28	0x3fb96efdfa099a47	0.09934985498839764
29	0xbfd67adc330e4274	-0.3512487886992297
30	0xbfcc6c97b85cb883	-0.2220639848905571
31	0xbfd2250800c95856	-0.2835102088623719
32	0x3fd1a6ae8f5f3422	0.2757984542957407
33	0x3fcfb1cbb0e33c27	0.24761339318362838
34	0x3fd9925a9e3873b3	0.39955773783895693
35	0x3fd7ec50c0000000	0.37379854917526245
36	0xbfda694480000000	-0.41267502307891846
37	0xbfb6651080000000	-0.0874796211719513
38	0xbfd48f5840000000	-0.3212490677833557
39	0x3fb6020000000000	0.085968017578125
40	0x3fc83cb7115ce421	0.18935287807269766
41	0xbfd0124e64b03355	-0.2511173232349411
42	0xbf7b09954d956e64	-0.006600936141093781
43	0x3fbdf576848b7760	0.11702671752888483
44	0x3fd011c350d8b517	0.25108416457335764
45	0x3fd3b58235221384	0.30795340718059827
46	0x3f98539bfe150eb9	0.023756444342565717
47	0x3fb2323ee6320e86	0.07107918853767545
48	0xbfd968bcffadb3ea	-0.3970177170620547
49	0x3fbe197c511167aa	0.11757637957762648
50	0xbfd4519f85c2c649	-0.31748188078481526
51	0xbf9758ffaab67a7f	-0.022800440592272594
52	0x3fd9464f40d469c1	0.39491635638264816
53	0x3f82fd8ba8f8c8a0	0.009272662252531483
54	0x3fc21d2d48421e30	0.14151540783153527
55	0x3fd0fe080b21f847	0.26550484740426267
56	0x3fc8ce6034c5d263	0.19379808975976962
57	0x3f7463c57358685b	0.0049779618180086594
58	0x3fd3c021286e71f2	0.30860165546781027
59	0xbf4817927abc1e78	-0.0007352318984609882
60	0xbfc448db80000000	-0.1584734320640564
61	0x3fba708500000000	0.10327941179275513
62	0xbfd6b83380000000	-0.35499274730682373
63	0x3fd3168c80000000	0.29825127124786377
64	0xbfc9870540000000	-0.19943299889564514
65	0xbfd46f565990dabf	-0.3192954897562394
66	0x3fcf06e92c62d978	0.24239840190211814
67	0x3fdc677b2a2adc1d	0.44381598585045073
68	0xbf649b91e7582ba2	-0.0025155877763202864
69	0x3fd2e19ed84561d3	0.29502078170983487
70	0xbfd66ae43a0881f9	-0.35027414004619534
71	0x3fcf6ab34f9ca600	0.24544373881626314
72	0xbfbe70a6c91fe67f	-0.11890642557400531
73	0x3f97404d3b688484	0.02270622897242848
74	0xbfb2f32b81748d62	-0.07402297888306955
75	0xbfd204caa0000000	-0.28154245018959045
76	0xbfd90499c0000000	-0.39090579748153687
77	0xbfd1fa7e40000000	-0.2809138894081116
78	0x3fd95630c0000000	0.3958856463432312
79	0x3fc04c8800000000	0.1273355484008789
80	0x3fc79118fd79eede	0.18411552788517488
81	0xbfa06263474fdbd9	-0.0320006393957823
82	0x3fcc3ab68849a6ae	0.22054177908585387
83	0xbf9d7f612cb1bed3	-0.028806227066921885
84	0x3fc0a097ec30a9bc	0.1299009230873035
85	0xbfa9a0964390bc70	-0.05005330633900307
86	0x3fd85427ea066cb1	0.3801364694024399
87	0x3fc3a090ac9a5801	0.1533375590121864
88	0x3fc0a865caa5df9d	0.13013908762854678
89	0x3fcfab518c4f4646	0.24741572714860832
90	0x3fcd812080000000	0.2305031418800354
91	0xbfc6dee0c0000000	-0.17867669463157654
92	0xbfdb4c6980000000	-0.4265388250350952
93	0x3fa7d42d00000000	0.046540647745132446
94	0xbfd2233d80000000	-0.28340089321136475
95	0x3fb7758bb40fafbd	0.0916373552897189
96	0x3fb1487c1a78f0d7	0.06751227995204388
97	0x3fbf7f7c056ec03f	0.12303900845177028
98	0x3fd15413f82abb1b	0.2707567142014555
99	0xbfc8b49eb60cc665	-0.19301208390384086
100	0x3fe069480c82a7fa	0.5128517383902811
101	0xbfd9350cd50cdeda	-0.39386292272273027
102	0xbfd2585b8460d407	-0.28664291312753715
103	0x3fcf5a4594e207a3	0.2449423768012454
104	0xbf9403863b8f2655	-0.019544694314197326
105	0x3fc9b45f80000000	0.2008170485496521
106	0xbfcdd7d000000000	-0.23314857482910156
107	0xbfaae2ed00000000	-0.052512556314468384
108	0xbfc343f100000000	-0.15051090717315674
109	0xbfd027f300000000	-0.2524383068084717
110	0x3fdb511f40000000	0.4268262982368469
111	0xbfc98f40e0000000	-0.1996842473745346
112	0xbfd3d18280000000	-0.30966246128082275
113	0xbfda45af40000000	-0.41050320863723755
114	0xbfda46c9a0000000	-0.41057053208351135
115	0x3fc88ed0793ceba3	0.191858348081806
116	0x3fd527f1b1e8a4dc	0.33056299566176306
117	0xbfaa643cc4f8f6fb	-0.05154600052308741
118	0xbfddf4b898a10939	-0.4680615892904317
119	0x3fc6a88ee2dbb5ed	0.17701898648321848
120	0xbfbded0f00000000	-0.11689847707748413
121	0xbfd8b6bce0000000	-0.3861534297466278
122	0x3fd8779a80000000	0.3823000192642212
123	0x3fc1621480000000	0.1358056664466858
124	0xbfcf462520000000	-0.24432815611362457
125	0xbfd2b783d6b885f0	-0.29245086640193474
126	0x3fafa30188b81028	0.06179051202710212
127	0xbfd617267d5c73ae	-0.34516298525141564
128	0x3fc8461a03282c32	0.18963933138033578
129	0xbfd51d37d515b111	-0.3299083310037228
130	0x3fd6de8e00000000	0.3573336601257324
131	0xbfbd75e580000000	-0.11508020758628845
132	0x3fb55c7700000000	0.08344215154647827
133	0xbfdbb0c0c0000000	-0.4326631426811218
134	0xbfb32a1280000000	-0.07486072182655334
135	0xbfb02ea600000000	-0.06321179866790771
136	0xbfc009dd40000000	-0.1253010332584381
137	0xbfaf07b000000000	-0.060605525970458984
138	0xbfb2adbd80000000	-0.07296356558799744
139	0x3fd42570c0000000	0.3147851824760437
140	0x3fab18029b2af8e4	0.052917558137311166
141	0xbfcac6bc796948f6	-0.20918994835171362
142	0x3fcfb1522a7bd637	0.24759890627290002
143	0x3fc3276a4cc472fe	0.1496403574791642
144	0xbfd30a1fb662fc0f	-0.2974929123992646
145	0xbfc1f1d900000000	-0.14019310474395752
146	0xbfbf608880000000	-0.12256672978401184
147	0x3fd6096880000000	0.3443242311477661
148	0xbf8bff2800000000	-0.013670265674591064
149	0x3fc1659000000000	0.1359119415283203
150	0xbfc3e10e80000000	-0.1553056836128235
151	0x3fcb704080000000	0.21436315774917603
152	0xbfb8635e00000000	-0.09526622295379639
153	0x3fc8a01500000000	0.19238531589508057
154	0x3fa1f78d00000000	0.035091787576675415
155	0x3fc8d98180000000	0.19413775205612183
156	0x3f9103a400000000	0.016615450382232666
157	0xbfd4bdf880000000	-0.32409489154815674
158	0xbfd96889c0000000	-0.39700549840927124
159	0xbfd1d09740000000	-0.2783563733100891
160	0x3faab6d8747881f2	0.052176250665301085
161	0x3fc56a447d690ab8	0.16730552791167042
162	0xbfcd7d5eb35debbc	-0.2303884864630542
163	0x3fcbb24a989c3faf	0.21637852145840727
164	0x3fd4670a8af9e931	0.3187891347112269
165	0x3fc27855d4534d48	0.14429734103632996
166	0xbfd4047ee197049f	-0.31277439146294655
167	0x3fa9fc853b11c321	0.050754703007333875
168	0x3fcc020a7466476f	0.21881228145189932
169	0x3fd883e4cdfb5db4	0.38305015674037723
170	0xbfd191cb00000000	-0.2745234966278076
171	0x3fadf6f400000000	0.0585247278213501
172	0xbfc0a04500000000	-0.129891037940979
173	0x3fcb790000000000	0.214630126953125
174	0x3fac667c00000000	0.055469393730163574
175	0xbfd8793520000000	-0.38239791989326477
176	0xbfb4eae080000000	-0.08170893788337708
177	0x3f9fbf0800000000	0.031002163887023926
178	0xbfd7095e00000000	-0.35994672775268555
179	0xbfd9241620000000	-0.3928275406360626
180	0x3fdad4fde784b29f	0.419249988643779
181	0xbfc1d6e952d8f201	-0.13937107606206214
182	0xbfd79660c7ca61b4	-0.36855334769054626
183	0x3fa755401f9b768a	0.045572284563360446
184	0x3fcc2dc58389c0c2	0.22014683649786632
185	0x3fd4f0161c3f5570	0.32715370901617913
186	0x3fb64b46b80b180d	0.0870861243557501
187	0x3fce129b776eba29	0.23494284946123514
188	0x3fd0bd36a1481705	0.2615486693397176
189	0x3fd83bd4f64b9641	0.37865184833785653
190	0x3fd08c7381c7841f	0.25857246087804414
191	0xbfc143bbf2e8873d	-0.134879582984519
192	0xbfd164b7c3aa23a8	-0.27177232845184074
193	0xbfc99a18b389afe5	-0.200015151658021
194	0xbfbc85bb7b3a3ae4	-0.11141559370501458
195	0xbfd4108a19a8248c	-0.3135094881586802
196	0xbfd1a363a6ed12ab	-0.2755974893700947
197	0x3fe072ac7b1878c7	0.51399826089962
198	0xbfc33b8b871a5b9d	-0.15025467011284102
199	0x3fd4745f97af9a77	0.3196028691585648
200	0x3fdc786f3e8e79fa	0.4448507414726063
201	0xbfc0487bc88b4408	-0.12721202175319513
202	0xbfd9856eaf431474	-0.39876906505043697
203	0x3fd9ba2c0f673597	0.40198804382529246
204	0xbfb44a1b40ca3e5d	-0.07925577480113462
205	0x3fb0fe1700000000	0.06637710332870483
206	0x3fc4448500000000	0.15834105014801025
207	0xbfc4852280000000	-0.1603129506111145
208	0xbfbd61bf80000000	-0.11477276682853699
209	0xbfd7ff0c60000000	-0.3749419152736664
210	0x3f98d4dc00000000	0.024249494075775146
211	0xbfc0415d40000000	-0.1269947588443756
212	0xbfcd6e9dc0000000	-0.22993823885917664
213	0x3fc5a90800000000	0.1692209243774414
214	0xbfb4ba4600000000	-0.08096730709075928
215	0x3fc211c4ac117353	0.14116724397436062
216	0xbfa3a3d31cc81b0f	-0.0383592579492441
217	0xbfdb9b4de3bb9e39	-0.4313540195421158
218	0x3fcb6e9b1604344c	0.21431292128582624
219	0xbfc279f1200db453	-0.14434637131799608
220	0xbfbd0d573bd7496f	-0.11348481379471818
221	0x3fdd7c54d2b93aa7	0.4607135827872448
222	0x3fdab7800d8041cd	0.41744996374566484
223	0x3fd2e63145d59086	0.2952998334860769
224	0xbfd5aa41eb5838b3	-0.3385166929518945
225	0xbfe0f32b094f97e2	-0.5296836072782265
226	0xbfa48b5304e67f17	-0.040125460003080864
227	0xbfd59630e552a82e	-0.3372919311028707
228	0x3fd6702e6750cfb8	0.350597000974854
229	0x3fd0941dd4c7f5a3	0.25904031543162825
230	0x3fcb6b5a35316b09	0.2142136344653738
231	0xbfcf8b99180269a9	-0.2464476935609359
232	0x3f568aa6cfc93115	0.0013758305568841213
233	0x3fd1dfd2bd62b305	0.2792860841243939
234	0x3fc42a074ab9e5e2	0.15753260754335857
235	0x3fb7915f4d23ff06	0.09206195481601406
236	0x3fd5f45070652523	0.3430367562874201
237	0x3fb9d5da6b12925b	0.10091939081264327
238	0x3fd80d054a2ff555	0.3757947182164874
239	0xbfb2ce877b3813d9	-0.07346388586309106
240	0x3f893b7b54e629fe	0.012320483711637738
241	0x3fd19f65f77beae2	0.27535390060772447
242	0x3fd845412566d898	0.3792269578219787
243	0x3fc675de549397a4	0.17547206048692232
244	0xbf7c46400c9ecf76	-0.0069029333043778476
245	0x3fb2078500000000	0.07042723894119263
246	0xbfb9034f00000000	-0.09770673513412476
247	0xbf9bdd8c00000000	-0.027212321758270264
248	0x3fcd0ced80000000	0.2269570231437683
249	0xbf89036800000000	-0.012213528156280518
250	0x3fcc582febc0c226	0.22144125949263688
251	0xbfd3c447c9f95872	-0.3088550064470673
252	0xbfd2f70612a61247	-0.29632713147319517
253	0x3fb4df02942be9bc	0.08152786366910098
254	0xbfcca75ad33e709d	-0.2238572627510437
255	0x3fbe249922c05cf0	0.11774594400809568

fc1.bias f8 [64]
0	0xbfd07beca60ea54b	-0.257563745656246
1	0x3fc4dbbe80000000	0.16295605897903442
2	0x3fd2075a8e9e85a2	0.2816988365903744
3	0x3fb083fe00000000	0.06451404094696045
4	0xbfd8a4e500000000	-0.38506436347961426
5	0xbfc5dd9f1b159d15	-0.17082585165483324
6	0xbfcb1f3af5d3597a	-0.21189057353212687
7	0xbfd18a4b60000000	-0.2740658223628998
8	0xbfda6408ad191ede	-0.41235558418382634
9	0xbfada0a1ebed7264	-0.05786615376448337
10	0x3fc31ae324e212cb	0.1492580347150095
11	0xbfba2c858736b5d4	-0.10224184561840072
12	0xbfca1b0d40000000	-0.20395055413246155
13	0xbfd08672f1f79eaf	-0.25820611600509386
14	0xbfb93bcfcb89db6d	-0.098568904106157
15	0x3fcb36a380000000	0.21260493993759155
16	0xbfc868ca0342bd70	-0.19069790991987245
17	0xbfaeb6cc4f2c663f	-0.05998838869545552
18	0xbfcc602f40000000	-0.22168532013893127
19	0xbfceb3d7c2a687ee	-0.23986336712283624
20	0x3fb14c029206a122	0.06756607117734295
21	0x3fac574a00000000	0.05535346269607544
22	0x3fa63d9800000000	0.04343867301940918
23	0xbfb86f1289d170a3	-0.0954448305578262
24	0xbfd06eaee0000000	-0.2567555606365204
25	0x3fcad23d860f5496	0.20954102559941096
26	0xbfd7cf8cc0000000	-0.37204283475875854
27	0xbfcff34560000000	-0.24961154162883759
28	0xbfd046a59922ac06	-0.25431194262154155
29	0xbfd5b36b80000000	-0.3390759229660034
30	0xbfd4fb0ea0000000	-0.32782331109046936
31	0xbfc40220c0000000	-0.1563149392604828
32	0xbfc3df68e830db13	-0.15525542581027504
33	0xbfdcc8a4d5689c3a	-0.44974633064925096
34	0xbfc13cbd80000000	-0.13466614484786987
35	0xbf73036000000000	-0.004641890525817871
36	0xbfa42aa464d504eb	-0.03938783388958619
37	0x3fcf62a3dd1652b9	0.24519775672219682
38	0xbfbc98b0f7636529	-0.11170488395454882
39	0x3fb99efbebf44fdc	0.1000821543751153
40	0xbfa90fa36c543d96	-0.04894743630768088
41	0xbfca783ce0000000	-0.2067943662405014
42	0x3fa0047f00000000	0.03128430247306824
43	0x3fd4dd21ee4f20be	0.32599685928699873
44	0x3fd186837478e52c	0.27383505224459515
45	0x3f9305b1ac458d1d	0.01857640851939123
46	0xbfdf2165af8f10af	-0.4864134039346579
47	0xbf9fe3e5987bce28	-0.03114279502092479
48	0xbfc21565f95c5c34	-0.14127802539653234
49	0xbfdc691be0000000	-0.44391533732414246
50	0x3fe04e25d9fcbe99	0.5095395333828093
51	0x3fd93c6460809942	0.39431104110771653
52	0x3fad051d56051a70	0.05667964625404387
53	0xbfd0b5b420000000	-0.26109030842781067
54	0xbfd49eebe0000000	-0.3221997916698456
55	0x3fab82d600000000	0.05373257398605347
56	0xbfd16117aa98b119	-0.2715510526638965
57	0xbf9a7f4903b7938e	-0.025876179553864946
58	0xbfd27f1a80000000	-0.2890077829360962
59	0xbfda90784cbb1018	-0.4150677441905386
60	0xbfd0c8c900000000	-0.2622549533843994
61	0xbfca7877b0502db6	-0.20680137738268706
62	0xbfd2d76ac4128fc0	-0.2943980135698858
63	0x3fdaae67b05a2966	0.416894838541927

fc2.weight f8 [128, 64]
0	0x3fc57be15d3b036f	0.16784302761336842
1	0x3fa8d37b80000000	0.04848848283290863
2	0xbfcc52266b2823e2	-0.2212570212580252
3	0x3fb540ed80000000	0.08302196860313416
4	0xbfb3f9a7c0000000	-0.07802818715572357
5	0x3f965c4772f687b5	0.021836391822610064
6	0xbfb97d9a77d038f0	-0.09957280564433169
7	0x3fb5832ec0000000	0.08403293788433075
8	0xbf8560d5d07452ee	-0.010438604759238381
9	0xbfbad752702976cc	-0.1048480533440525
10	0x3fcc36485694bb2f	0.22040657260500882
11	0xbf60e1ba3e97b0ce	-0.0020607602680141395
12	0x3fa762e000000000	0.045676231384277344
13	0x3fc73f9115e29685	0.181627402959908
14	0x3fae4a5b59edcd21	0.05916104767575293
15	0xbfbd6edd80000000	-0.11497291922569275
16	0x3fb23e1c313aee79	0.07126022531422817
17	0xbfa43f72c57f5d5b	-0.03954657231195809
18	0xbfb9da7e80000000	-0.10099020600318909
19	0x3fb24d35ee451294	0.07149064128049992
20	0xbfdb62c5fc05fbe6	-0.4279036484876414
21	0x3fbfe46200000000	0.12457859516143799
22	0xbfb16f1700000000	-0.06810134649276733
23	0xbfb17d4c70ff8b85	-0.06831815489526434
24	0x3fab41db80000000	0.05323682725429535
25	0xbfae57a8d4ddcc7f	-0.05926253889529053
26	0xbfbe08a700000000	-0.11731952428817749
27	0x3fbc932d80000000	0.11162075400352478
28	0xbfa49f9233e88a5b	-0.04027993091246592
29	0x3fbeee6740000000	0.12082524597644806
30	0xbf9a2eab00000000	-0.025568649172782898
31	0x3fa09e0880000000	0.032455697655677795
32	0x3fb61d74ebfaefef	0.0863869739650338
33	0x3fb318e11041fd34	0.07459837576788148
34	0x3fafd07f00000000	0.06213757395744324
35	0x3fb45ad740000000	0.0795111209154129
36	0xbfa907ba7ff99ec9	-0.04888708889194288
37	0x3fc20d1a95f314c2	0.14102489778284705
38	0xbfb1dda7aa2a56c1	-0.0697884359782064
39	0x3fb3ff808f5edc72	0.07811740398652647
40	0xbfc8723c800a9353	-0.19098621608750452
41	0xbfb8bca940000000	-0.09662874042987823
42	0xbfac6f6780000000	-0.055537447333335876
43	0xbfc3bcf7d0c754f2	-0.15420434660214927
44	0x3fc278876dffce47	0.14430325385147766
45	0x3fc36c2d524d7889	0.15173880118067398
46	0x3fbac95ff7cc5970	0.10463523673783981
47	0x3fc397a204904cf7	0.15306496832690872
48	0xbf9eb85f7791f9f7	-0.03000020186709126
49	0xbfbe851040000000	-0.1192178875207901
50	0xbfca61d8158a6837	-0.20611096431531603
51	0x3fb6f0ceff27081d	0.08961194733913698
52	0x3fc0e999354362dd	0.13212885952704925
53	0xbfa35c3900000000	-0.0378129780292511
54	0x3fa6a6c280000000	0.04424102604389191
55	0xbfb2f88300000000	-0.07410448789596558
56	0xbfa315ac7ebce24f	-0.03727473303883199
57	0x3fd20446b9213805	0.2815110023410628
58	0xbfaf5fbb00000000	-0.06127724051475525
59	0x3fceddc901c2359c	0.24114334665175086
60	0x3f959b3100000000	0.021099820733070374
61	0xbfa2a35cec43d406	-0.03640261062711407
62	0x3fbfe9b4a651c8e0	0.12465981541189164
63	0xbfc8787d09957658	-0.19117701499901574
64	0x3fc2d4caacb13edc	0.14711888725513844
65	0x3fa8580e00000000	0.04754680395126343
66	0xbfa8e96d47218885	-0.04865590565965853
67	0xbfbd74b280000000	-0.11506190896034241
68	0x3fb93d1500000000	0.09858828783035278
69	0x3fc76bc94f2f6030	0.18297687879999236
70	0x3fb326a034d7a3af	0.07480813303085541
71	0xbfa0285e00000000	-0.03155797719955444
72	0xbfbf948b94eb5591	-0.12336037049984429
73	0x3fc1f36a86733618	0.14024097027724802
74	0x3fc022551ea56058	0.12604774471651825
75	0x3fc32be54f7f267b	0.1497770918052089
76	0xbfb1ff7000000000	-0.07030391693115234
77	0x3fc02816de758909	0.12622342931997135
78	0xbf6eceafc1482677	-0.0037606651988014122
79	0xbfad186900000000	-0.05682685971260071
80	0x3fbf3d5f362d6b9c	0.12203021118823049
81	0x3fc152267d29f44d	0.13531952964322827
82	0x3f91da6200000000	0.017434626817703247
83	0x3fc2cbec98debe7d	0.1468482729373938
84	0xbfdaaff59c096b1d	-0.4169897102162155
85	0x3fbf7b6200000000	0.12297642230987549
86	0xbfbea010c0000000	-0.11962990462779999
87	0x3fb007c219f1d08d	0.06261838086521916
88	0x3fa8fdea80000000	0.048812225461006165
89	0x3f88aa0deb8c44f8	0.012043102980472828
90	0xbfb331e240000000	-0.07497991621494293
91	0x3f8952cc00000000	0.012364953756332397
92	0xbfc007119dd63554	-0.12521572310326212
93	0xbfba802540000000	-0.10351784527301788
94	0x3fbb5a2000000000	0.10684394836425781
95	0x3fb5a48ac0000000	0.08454196155071259
96	0x3fb0b16da8b450f5	0.06520734184988781
97	0x3f81de9e861e03f4	0.00872539374154433
98	0xbfb0e51480000000	-0.0659954845905304
99	0x3fb1cbd7c0000000	0.06951664388179779
100	0xbfc85b5d96c90cc7	-0.19028825628820398
101	0xbf7232536a82f414	-0.00444252571486194
102	0xbfab752863d94262	-0.05362821787696671
103	0x3faa60b90f89e9c1	0.05151918711358717
104	0xbfcaaca61be104a5	-0.2083938251617258
105	0xbf98a68200000000	-0.02407267689704895
106	0x3fab0b7e00000000	0.0528220534324646
107	0xbfc07b19b48ab620	-0.1287567264129601
108	0x3fc3573f0d343496	0.15110004563067453
109	0x3fb85dfbeafc2eeb	0.09518408286038109
110	0xbfb285555565bec5	-0.07234700522325983
111	0x3f995a0aab6c3e01	0.024757544243639632
112	0x3fbc438af4006a74	0.11040562111922175
113	0xbf95a92b00000000	-0.02115313708782196
114	0xbfd5ea04bdcd5781	-0.34240835700381217
115	0xbf89813097c35b0e	-0.012453441268389234
116	0x3fb888f550281e5b	0.0958398171134091
117	0xbf517af000000000	-0.0010669082403182983
118	0x3fa4d55700000000	0.04069015383720398
119	0xbfa3228880000000	-0.03737284243106842
120	0x3fb2b3b306e38164	0.07305449407750114
121	0x3fd913ed5611d5ba	0.39184125333062136
122	0x3f99621900000000	0.024788275361061096
123	0x3fb1410744959fb7	0.06739850449014183
124	0x3fb362ef40000000	0.07572837173938751
125	0xbfa21e0d41ee8494	-0.035385526941589834
126	0xbf95070c11ffc52b	-0.020534695242479344
127	0xbfcfc722bcf68805	-0.2482646391554796
128	0x3faa422180000000	0.05128578841686249
129	0x3fbd5c6bc0000000	0.11469148099422455
130	0x3faccf1900000000	0.05626752972602844
131	0xbf957f9100000000	-0.020994439721107483
132	0xbfa7421f00000000	-0.04542633891105652
133	0x3f990aeb00000000	0.024455711245536804
134	0x3f98444800000000	0.023697972297668457
135	0xbf9f04c200000000	-0.030291587114334106
136	0x3fbdb363c0000000	0.11601851880550385
137	0x3fbda7a980000000	0.11583957076072693
138	0x3f8d86bc00000000	0.014417141675949097
139	0xbfa2c37980000000	-0.036647602915763855
140	0x3fbf4a42c0000000	0.12222687900066376
141	0x3fb7b0cb00000000	0.0925413966178894
142	0x3f8555da00000000	0.010417655110359192
143	0x3fbdbc1740000000	0.11615128815174103
144	0xbfb7e5e940000000	-0.09335191547870636
145	0x3f67e92800000000	0.0029187947511672974
146	0x3fae3b8a80000000	0.059048011898994446
147	0x3f8274f800000000	0.009012162685394287
148	0xbfbb640840000000	-0.1069951206445694
149	0x3faa555d80000000	0.0514325350522995
150	0x3f85d2bc00000000	0.010655850172042847
151	0x3fa4ea7100000000	0.04085114598274231
152	0xbfabe73200000000	-0.054498255252838135
153	0xbfa4c6ed00000000	-0.040580183267593384
154	0xbfb3c8cd40000000	-0.07728274166584015
155	0xbfa1ce2b80000000	-0.034776076674461365
156	0x3f7ba5f800000000	0.00675007700920105
157	0x3fa6613d00000000	0.0437106192111969
158	0xbf9b64d400000000	-0.026751816272735596
159	0xbf792b2400000000	-0.006144657731056213
160	0x3f81be0800000000	0.00866323709487915
161	0xbf9502f900000000	-0.020519152283668518
162	0x3fb4800600000000	0.08007848262786865
163	0xbf8f40ae00000000	-0.015260085463523865
164	0x3fb4a106c0000000	0.08058206737041473
165	0xbfaf20c880000000	-0.06079699099063873
166	0x3fb8585580000000	0.0950978696346283
167	0x3fa926a300000000	0.049122899770736694
168	0x3f9798ee00000000	0.023044317960739136
169	0x3f8bff3600000000	0.013670369982719421
170	0x3f94cc5900000000	0.020310774445533752
171	0x3fbc160380000000	0.10971090197563171
172	0x3fbb755100000000	0.1072588562965393
173	0x3fbd85b480000000	0.11532142758369446
174	0xbfaaae8100000000	-0.05211260914802551
175	0x3fba411c80000000	0.1025560200214386
176	0xbfb9a50b80000000	-0.10017463564872742
177	0xbfbe7b8480000000	-0.11907222867012024
178	0x3fba74a7c0000000	0.10334251821041107
179	0xbfb5fcbf80000000	-0.08588787913322449
180	0xbfa6d1cc80000000	-0.044569388031959534
181	0xbfbc571400000000	-0.11070370674133301
182	0x3fb6f6a680000000	0.0897010862827301
183	0xbf9e245700000000	-0.029435500502586365
184	0xbfa3e07580000000	-0.038821861147880554
185	0x3f8141b400000000	0.008426100015640259
186	0xbfb89c81c0000000	-0.0961381047964096
187	0x3fb2d22ec0000000	0.07351963222026825
188	0x3fb3c338c0000000	0.0771975964307785
189	0xbfb20ac3c0000000	-0.07047675549983978
190	0x3f92dde100000000	0.01842452585697174
191	0xbfaf727a00000000	-0.0614202618598938
192	0xbfbaeeee80000000	-0.10520830750465393
193	0x3f9014a600000000	0.01570376753807068
194	0xbfb4136400000000	-0.07842087745666504
195	0x3f9ba8f800000000	0.027011752128601074
196	0xbfa12c6f80000000	-0.03354214131832123
197	0xbfaeeca600000000	-0.06039923429489136
198	0x3fb1aa3200000000	0.06900322437286377
199	0xbfb65e8300000000	-0.08737963438034058
200	0xbf93a39d00000000	-0.01917882263660431
201	0xbfba8706c0000000	-0.10362283885478973
202	0x3f919cbe00000000	0.01719948649406433
203	0x3fbbd5a300000000	0.10872858762741089
204	0x3f79fdb800000000	0.006345480680465698
205	0xbfbb8dec00000000	-0.10763430595397949
206	0xbfb44831c0000000	-0.07922659814357758
207	0xbfb2776580000000	-0.0721343457698822
208	0x3fb23cd140000000	0.07124049961566925
209	0x3fb3b74080000000	0.07701495289802551
210	0xbfae427800000000	-0.05910086631774902
211	0x3fa28d5700000000	0.03623458743095398
212	0x3f619f5800000000	0.002151176333427429
213	0x3f73bb3400000000	0.004817202687263489
214	0xbfb3cd0480000000	-0.07734706997871399
215	0x3fbc710040000000	0.1110992580652237
216	0x3f97631400000000	0.022838890552520752
217	0x3fb3de43c0000000	0.07761023938655853
218	0xbfa6932300000000	-0.04409131407737732
219	0x3fa7c4fd80000000	0.04642479121685028
220	0xbfb4dab480000000	-0.08146217465400696
221	0x3fb8681b80000000	0.09533855319023132
222	0x3fb275f340000000	0.07211227715015411
223	0xbf82cb1e00000000	-0.009176477789878845
224	0xbfb32057c0000000	-0.07471226155757904
225	0xbfb7b31a40000000	-0.09257663786411285
226	0x3f708bb400000000	0.004039481282234192
227	0xbfaab8b680000000	-0.052190497517585754
228	0x3f9194ab00000000	0.017168685793876648
229	0xbfb9bb9e40000000	-0.1005190759897232
230	0x3fbb961140000000	0.10775859653949738
231	0xbfbb4b4000000000	-0.10661697387695312
232	0x3f6c101000000000	0.0034256279468536377
233	0xbfb0e3ccc0000000	-0.06597594916820526
234	0xbfa9867280000000	-0.04985387623310089
235	0x3fb4f39a80000000	0.0818420946598053
236	0xbfb4fbf580000000	-0.08196958899497986
237	0xbfb6676400000000	-0.08751511573791504
238	0xbfb14e3cc0000000	-0.0676000565290451
239	0xbfb8dcf040000000	-0.09712125360965729
240	0xbf824c2000000000	-0.008934259414672852
241	0xbf9fd30c00000000	-0.0310785174369812
242	0x3f9f394800000000	0.030491948127746582
243	0x3fae50f280000000	0.059211328625679016
244	0x3fafb76000000000	0.06194591522216797
245	0x3fbabe4440000000	0.10446573793888092
246	0x3f5befe000000000	0.0017051398754119873
247	0x3fa71d8700000000	0.04514715075492859
248	0x3fb5343680000000	0.08282795548439026
249	0x3fa011d480000000	0.031386032700538635
250	0xbf9988c200000000	-0.024935752153396606
251	0xbf98b29700000000	-0.02411876618862152
252	0xbf7c8e0c00000000	-0.006971403956413269
253	0x3fa2e5a580000000	0.036908313632011414
254	0xbfb98cf900000000	-0.09980732202529907
255	0xbfba360300000000	-0.10238665342330933

fc2.bias f8 [128]
0	0xbf9918c71c9826df	-0.024508582229862404
1	0x3faa943a268fd7d3	0.05191213341451797
2	0xbfb86d1880000000	-0.0954146683216095
3	0x3f8b1b0a00000000	0.013235166668891907
4	0xbf92bb20ff250175	-0.01829196507719773
5	0x3f9313f3d7c3ed26	0.018630800289412573
6	0xbfb0fed840000000	-0.06638862192630768
7	0xbfa6a78280000000	-0.044246748089790344
8	0xbfb29ee640000000	-0.07273711264133453
9	0xbfa9681363ff7c1a	-0.04962215991667325
10	0xbf8efb3200000000	-0.015127554535865784
11	0xbfabf0e32934fb82	-0.05457219961180383
12	0x3fa5def6abc0b7c1	0.04271670195190281
13	0xbfc2b9611bf020dd	-0.14628232826385715
14	0x3fa0ccefa5cd7670	0.032813538541387355
15	0xbfb956cb23fe03b1	-0.0989806139823617
16	0x3fbeffa50ec5a8d1	0.12108832941672466
17	0xbfc5877ad1a375b4	-0.16819701420074085
18	0x3fa6126603ef692d	0.04310911939656346
19	0xbfbc2679c0000000	-0.1099620908498764
20	0xbfa8246400000000	-0.04715263843536377
21	0x3fb49b49607643cc	0.08049448590305913
22	0xbf97366d5a1db757	-0.022668560624360037
23	0x3fa8990e00000000	0.04804271459579468
24	0x3fc267eae13998ec	0.1437963103991885
25	0xbfa1125180000000	-0.0333428829908371
26	0xbfb2289b02fcbdf9	-0.07093209097796906
27	0xbf868c042701cd71	-0.011009247246170447
28	0x3fb26cfd737a9a19	0.07197555608090801
29	0xbfc1e048275e9107	-0.13965703890165335
30	0xbfa1a8a391ed45b5	-0.034489738047919806
31	0x3f95cc7e2e55df93	0.021287890985575663
32	0xbfad99bd00000000	-0.057813555002212524
33	0xbf9ff46690e8128e	-0.031205751985924617
34	0x3faace97dfaea937	0.052357431464161434
35	0xbf7499cae886d297	-0.005029480562758557
36	0xbface51850201a2b	-0.0564353559312177
37	0xbfb2fcad80000000	-0.07416805624961853
38	0xbfa18a6280000000	-0.03425891697406769
39	0xbfa2f76400000000	-0.03704369068145752
40	0xbfbf83b3b5b504d5	-0.1231033629055845
41	0xbfc433bb023ddc82	-0.15782868966536873
42	0x3fc038f59a7762fb	0.12673826257994122
43	0x3fa0c7f700000000	0.03277561068534851
44	0xbfb83e8ec0000000	-0.09470455348491669
45	0x3f9afcb4713ffe38	0.02635461751196841
46	0xbfc4fdbba219fbea	-0.16399331488716423
47	0xbf948469fbe9af55	-0.020036369324244536
48	0xbfb7929bec506c35	-0.09208082694424109
49	0x3fc4928583c79e04	0.16072148260649055
50	0xbfbdcfffc0000000	-0.1164550632238388
51	0xbf945fb700000000	-0.01989637315273285
52	0x3f9789de1e88e6b4	0.022986860860533212
53	0xbfa15c10a23797aa	-0.03390552501859585
54	0xbfa6415297dcdca9	-0.043467122114117025
55	0x3f85a6fc00000000	0.0105724036693573
56	0xbfa4e14d067f408f	-0.040781409304714626
57	0xbfa7fe8680000000	-0.046863749623298645
58	0xbf93c9d600000000	-0.01932463049888611
59	0xbfc0d6b3cdf5772e	-0.13155219608864271
60	0xbfb0510cdf992fab	-0.06373672923035538
61	0xbfb2110a80000000	-0.07057252526283264
62	0xbfba3d100b91ef46	-0.10249424250099279
63	0xbfaeb3a700000000	-0.059964388608932495
64	0xbfa6207d00000000	-0.04321661591529846
65	0x3fc0fc884c7343d2	0.13270667775080242
66	0xbf98be0ccb724182	-0.024162483136537023
67	0x3fc231661c51ac98	0.14213253386273972
68	0x3fa834a8e0341a1b	0.04727676140651146
69	0x3fa54971692df5c5	0.04157595070772006
70	0x3fabc8f8c6ff2500	0.05426766804846217
71	0xbfb805eaaa12ea5b	-0.09384028103060287
72	0xbfad3bb500000000	-0.05709615349769592
73	0xbf9c8ca0c127ef2f	-0.027880203046137083
74	0x3fb6d2d16bba7652	0.0891543281563483
75	0x3fafc843937cf951	0.06207476783173383
76	0x3fbaa25810aa77f6	0.10403967291719582
77	0xbfa8b8ff80000000	-0.048286423087120056
78	0x3fbdd3c884217a41	0.1165128061852352
79	0xbf50129000000000	-0.0009809881448745728
80	0xbf61d52000000000	-0.002176821231842041
81	0x3fa435d200000000	0.039473116397857666
82	0xbfb5e2db5d611163	-0.08549281148686343
83	0xbfc1f7f66293d63f	-0.1403797131858244
84	0xbfbbf868c0000000	-0.10925917327404022
85	0x3f92cffd2fe511f1	0.018371540115610988
86	0xbfba3d8555b2c38b	-0.1025012335037571
87	0x3fa272e3cb5f8041	0.03603278977948366
88	0x3f91455ed19b9014	0.016866189521252364
89	0x3fc054ffc68de8ef	0.12759396739040293
90	0xbfc1dfc4db07f99e	-0.13964138693695544
91	0xbfc61ef74852fc2c	-0.17282000571683065
92	0x3f8a8a4e00000000	0.012959107756614685
93	0xbfaae1ad7cf4cd38	-0.05250303411812712
94	0x3fa92a882854f590	0.049152617381405084
95	0xbfb1959a81868ea8	-0.06868901884314005
96	0x3fb90d7fed57a0e1	0.09786223930825912
97	0xbfb7a19d00000000	-0.09230977296829224
98	0xbfb92b02957e67b9	-0.09831253194570778
99	0xbfb5d6dcdca65b08	-0.08530979525526672
100	0x3f5367dda7bd9900	0.0011844315149232565
101	0xbfac7c807c814127	-0.055637374113418674
102	0x3fa07e40807ddf39	0.03221322601797145
103	0x3f96d5b5671a6c8f	0.02229960862915142
104	0x3f87d3e2d61d2e2a	0.01163460937427548
105	0x3fbedefde98cf854	0.12059008552475464
106	0xbf8ebd8e4858d2e3	-0.015009986479620213
107	0xbfc63637e15fad87	-0.17352961067750192
108	0x3f89fb4a00000000	0.01268632709980011
109	0x3fb13a8b0baf508d	0.0672995475318336
110	0x3f976e0c94983496	0.022880741662494396
111	0x3fc041ee619b51f9	0.12701205984070876
112	0xbfa6a4bdb8d08a70	-0.044225624857308854
113	0xbfaf4a3700000000	-0.06111308932304382
114	0xbfb559c940a97845	-0.08340127781545544
115	0xbf91334f2c63a4a1	-0.016797291836074483
116	0xbfb18058fd3033b6	-0.06836467915873254
117	0x3fa8d039610facf1	0.04846362409429073
118	0xbf90042ea43f1b0f	-0.01564095380288238
119	0xbfbd73bb11789cf1	-0.11504716087857837
120	0x3fbb7a3900f19466	0.10733371995009264
121	0xbfc3add164abd1b1	-0.15374200263580698
122	0x3fb632451bfbe9a3	0.0867045586891551
123	0x3fb7956200000000	0.09212315082550049
124	0x3fb83e3fa32f5e26	0.0946998380089715
125	0x3fbd1c7447abe323	0.11371542691985019
126	0x3faee01ee35073ec	0.06030365490753539
127	0xbf98febd00000000	-0.024409249424934387

fc3.weight f8 [64, 128]
0	0x3f9230f86af928ab	0.017764932183390297
1	0xbfba2e6b9c12a53f	-0.10227081833240435
2	0x3fb0e88020000000	0.06604767590761185
3	0x3f9249e600000000	0.01786002516746521
4	0xbfb0cd8ae9404452	-0.06563633150678186
5	0x3f8ce0fd3ee9c48f	0.014101007921654833
6	0x3f63761400000000	0.0023756399750709534
7	0xbfb0fc5980000000	-0.0663505494594574
8	0x3faa0559c0000000	0.050822071731090546
9	0x3f82c64300000000	0.009167216718196869
10	0xbfb3fa9880000000	-0.07804253697395325
11	0x3fadf818c0000000	0.058533452451229095
12	0xbfb7a6bbbc69ef4e	-0.09238789892145613
13	0xbfadb39520000000	-0.058010730892419815
14	0xbfaf69053e56b137	-0.06134811769456621
15	0x3f996e9e00000000	0.024836033582687378
16	0xbfb90d71475cd855	-0.0978613661980899
17	0x3f81c54800000000	0.008677065372467041
18	0xbf999e2200000000	-0.02501729130744934
19	0xbfb6614120000000	-0.0874214842915535
20	0xbfb4a3e6c0000000	-0.08062593638896942
21	0xbfc01171a802fd39	-0.12553234771437774
22	0xbf9ec95d80000000	-0.03006502240896225
23	0x3f698b7000000000	0.0031182467937469482
24	0xbfb2cfc5320d09f3	-0.07348282310434921
25	0xbfb09a27e0000000	-0.06485223025083542
26	0x3f9dff0500000000	0.029293134808540344
27	0x3faec7ddc0000000	0.06011860817670822
28	0xbfc1630d63f2ed09	-0.13583533649748628
29	0x3fa48d1b40000000	0.040139056742191315
30	0x3fb04bfda0000000	0.06365952640771866
31	0x3f8e1fc400000000	0.014709025621414185
32	0xbfa0b415a0000000	-0.032623935490846634
33	0x3f818acd00000000	0.008565522730350494
34	0xbf8da82400000000	-0.01448085904121399
35	0xbfb102bd60000000	-0.06644805520772934
36	0xbf97d65780000000	-0.02327858656644821
37	0xbfa371c5a0000000	-0.03797738626599312
38	0xbf9a6cce80000000	-0.02580568939447403
39	0xbf739fd200000000	-0.004791088402271271
40	0x3f91104c80000000	0.01666373759508133
41	0x3fa4753440000000	0.03995669633150101
42	0x3f91c37f9721c63d	0.017347329711304694
43	0x3fa520b240000000	0.04126507788896561
44	0x3f8f851b00000000	0.01539059728384018
45	0xbf85582e00000000	-0.010422095656394958
46	0xbfa41e67c0000000	-0.03929447382688522
47	0xbfb0b1f860000000	-0.06521560996770859
48	0xbf9fd7c3c0000000	-0.03109651431441307
49	0xbf913d6902ca75a0	-0.016835823817577755
50	0x3fabc306c0000000	0.05422230809926987
51	0xbf9be6b580000000	-0.027247272431850433
52	0x3f6b7c06546146f4	0.0033550380349333057
53	0xbfaff12eab033b31	-0.062386949897350504
54	0x3fb54c6220000000	0.08319676667451859
55	0x3fa0ae8000000000	0.032581329345703125
56	0x3faf82bb40000000	0.061544276773929596
57	0xbf96368500000000	-0.021692350506782532
58	0xbfb4a473c0000000	-0.08063434064388275
59	0xbfa6a3fd00000000	-0.04421988129615784
60	0x3f81f9c200000000	0.008777156472206116
61	0x3fa2b43440000000	0.03653109818696976
62	0xbfa6668d40000000	-0.04375115782022476
63	0xbfa24dea40000000	-0.03575069457292557
64	0x3fa482cd40000000	0.040060438215732574
65	0xbfb427f5658cf46a	-0.07873471955550007
66	0xbf98e44700000000	-0.024308308959007263
67	0xbfbac27c021fa7c4	-0.1045300965485288
68	0xbfb8a9968ddb3690	-0.09633770907677275
69	0xbfbf253f58a92d04	-0.12166210093089452
70	0x3f919550f1616714	0.01717115853566671
71	0x3fa75a46c0000000	0.04561062902212143
72	0x3fb2d97860000000	0.07363083213567734
73	0xbfb505a62c2b6a21	-0.08211744860037885
74	0xbfa6ff091ab5ce20	-0.04491451693584403
75	0xbfaea3daa0000000	-0.05984385684132576
76	0xbf90712bd5a4ad4c	-0.016056713976621936
77	0xbf2a084000000000	-0.00019861012697219849
78	0xbfae954eb4b8c6e9	-0.05973287540508727
79	0xbfb1399b80000000	-0.06728526949882507
80	0xbfa6f12780000000	-0.044808611273765564
81	0xbf921cd400000000	-0.017688095569610596
82	0xbfb0785b80000000	-0.06433650851249695
83	0x3fb1a45ca0000000	0.06891421228647232
84	0x3fa3410740000000	0.03760550171136856
85	0xbfa4f5ef60000000	-0.040938835591077805
86	0xbf86afe800000000	-0.011077702045440674
87	0xbfc26e717c1224ce	-0.1439954620184722
88	0xbfc2a2a83b51cc7c	-0.14558890243970157
89	0xbfa6452080000000	-0.04349614679813385
90	0xbf83ac8200000000	-0.00960637629032135
91	0xbfadfd27a0000000	-0.05857204273343086
92	0xbfa7708700000000	-0.04578039050102234
93	0xbfb6181c20000000	-0.08630538731813431
94	0xbfb4f54ef5a81ded	-0.0818681096790141
95	0xbfac856be0000000	-0.05570542439818382
96	0xbfb3e0711e76bace	-0.07764346116776297
97	0x3fb5416920000000	0.08302933722734451
98	0xbfab40e3e0000000	-0.053229447454214096
99	0x3fac6d2540000000	0.05552021414041519
100	0xbfa20de1c0000000	-0.03526216000318527
101	0xbfbbe054186729a1	-0.10889173122192243
102	0x3f9e832a80000000	0.029797233641147614
103	0xbfb6467820000000	-0.08701277524232864
104	0xbfa8e9ade0000000	-0.04865783080458641
105	0xbf9f64ca612d0b50	-0.03065792291750863
106	0x3faa7c4bc0000000	0.05172955244779587
107	0xbf85bec600000000	-0.010617777705192566
108	0xbf8b4bf900000000	-0.013328500092029572
109	0xbfc37ff573543565	-0.15234249240203748
110	0xbfa6004a60000000	-0.042970966547727585
111	0xbfb0217fa3765964	-0.06301114788798184
112	0x3f93df0e9a0ddab9	0.019405582573620992
113	0x3faf1a48c0000000	0.060747407376766205
114	0x3f70ce66d97869c5	0.004103090053400431
115	0xbf9556d800000000	-0.02083909511566162
116	0x3fafac4440000000	0.06186116486787796
117	0xbfb5c98e60000000	-0.0851067528128624
118	0xbf91b36f00000000	-0.017286047339439392
119	0xbf9e808940000000	-0.029787201434373856
120	0xbf4b36c53522e9ea	-0.0008305037429388571
121	0x3fb622f4a0000000	0.08647087961435318
122	0xbfb6da9581b6e806	-0.08927282730920191
123	0xbfb52bf0e0000000	-0.08270173519849777
124	0xbfbecbd54adcd27a	-0.12029774739932889
125	0xbfb5be8b7088c427	-0.08493873116891902
126	0xbfb4b9f2db609a28	-0.08096235137836827
127	0xbfaf79e240000000	-0.061476774513721466
128	0x3f78c145c7b4a972	0.00604369409419757
129	0xbfb0ecdc3f0f5f92	-0.06611420192291309
130	0xbfb2c5bda0000000	-0.07332978397607803
131	0xbfa8586180000000	-0.0475492924451828
132	0xbfc288dfa934ab2e	-0.14480205308913113
133	0xbfbca6621a285824	-0.11191380632985265
134	0x3f6f65fc00000000	0.003832809627056122
135	0xbfb1cee0a0000000	-0.06956294924020767
136	0xbfa4305760000000	-0.039431314915418625
137	0x3fa0dc26b1b67299	0.03292961997360528
138	0x3fa62a9fc0000000	0.043293945491313934
139	0x3fa3b3ac40000000	0.03848017007112503
140	0xbf4ffb364a0fc62e	-0.0009759917339790586
141	0x3f9a50d84390b682	0.02569902336488506
142	0xbfb445773bc31a65	-0.07918496331249399
143	0x3f96d41deb9ec0cb	0.02229353666888371
144	0x3f712f6793329fcc	0.004195599164781027
145	0x3f973d3cacdbd0f1	0.022694538164572845
146	0x3fc0d24d9a4973cb	0.13141794236699264
147	0xbfa10cfec0000000	-0.033302269876003265
148	0x3f9a875f80000000	0.025907032191753387
149	0xbfb2f141b815209a	-0.07399378532602655
150	0x3fba792cb90c6b8e	0.10341147916589774
151	0x3f760cde00000000	0.0053833648562431335
152	0xbfab323aa769b24c	-0.05311759275068492
153	0xbf87d6e800000000	-0.011640369892120361
154	0xbf7db17c00000000	-0.0072493404150009155
155	0x3fa9dd0f43000a15	0.05051467602608654
156	0xbfafbe043bf4fc0d	-0.061996586150137124
157	0x3fafaf945c845ca1	0.06188644055708293
158	0xbf9b68c31b657813	-0.026766823336736034
159	0x3f877142cf97fde9	0.011446496925599585
160	0x3fb5af6320000000	0.08470744639635086
161	0xbf66de70d65a832d	-0.0027916149000052543
162	0x3fa4d0a53d83156c	0.04065433860663856
163	0x3fc16add1387231f	0.1360737176276183
164	0x3fa358a092ac8e96	0.037785547165438846
165	0xbfaeae4ea0000000	-0.05992360785603523
166	0x3fb55f70a0000000	0.08348754793405533
167	0xbfb438c520000000	-0.07899124175310135
168	0xbfc22d31f22107db	-0.14200424502092698
169	0x3f9e80d462ed0642	0.029788321054416984
170	0x3fa0f491d28990cf	0.03311591811214642
171	0x3fb4b95b60000000	0.08095332235097885
172	0xbfb1c6e080000000	-0.06944087147712708
173	0x3fb02a201d6c3282	0.06314278333975135
174	0x3faae7800d03a0d8	0.05254745634903352
175	0x3fa8811ef759ec53	0.04786011475967968
176	0x3fa19fb612c6fbd6	0.03442162493910643
177	0xbfba8e852cf6a7ed	-0.10373718593351074
178	0x3fa6b7dac0000000	0.04437144845724106
179	0x3f6bb92000000000	0.0033841729164123535
180	0x3faafa85b9d8cfbe	0.052692583977119054
181	0x3f7946e1dc992668	0.006171114227592513
182	0x3fa9fbe0ccc17f3c	0.0507498025842765
183	0x3fb01fb320000000	0.06298369914293289
184	0xbf727e512a4f28a3	-0.004514996578061456
185	0x3fa8b6bd40000000	0.04826918989419937
186	0xbf9778e580000000	-0.022922120988368988
187	0x3f726f4c00000000	0.004500672221183777
188	0x3fa4fbbfaa4a1d64	0.04098319009522802
189	0x3f6924a800000000	0.0030692368745803833
190	0x3fc271e62415cc7d	0.14410092126817978
191	0xbfac19d340000000	-0.05488453060388565
192	0x3fb5d7b3e0000000	0.08532261103391647
193	0xbfafe907dad0c538	-0.0623247580155159
194	0x3f9dff2e97093e17	0.0292937545476076
195	0xbfa1a79ba13b5d44	-0.034481872016551424
196	0x3fa93ac34ecdfd1a	0.04927645050974601
197	0xbf9921bff74c6d4f	-0.02454280802622338
198	0xbf71072c00000000	-0.004157230257987976
199	0x3fbcaaec379c48fa	0.11198307378461783
200	0x3fb16f9a20000000	0.06810916215181351
201	0x3f99c68aa2c2a87e	0.025171438392739713
202	0x3f9169e622aaacae	0.017005534997832576
203	0x3fb5c01ad598cce9	0.08496253695266244
204	0xbfa6ead70d4e8902	-0.044760437368738706
205	0xbfa8c477c0000000	-0.048373930156230927
206	0x3f6bf2e29d3d2999	0.0034117151316525704
207	0xbfa36b5120000000	-0.03792813792824745
208	0x3faad86f40000000	0.05243251472711563
209	0x3faeda7040000000	0.06026030331850052
210	0x3fb8963111623a42	0.09604174303442739
211	0x3f9186fa13e3b6d6	0.017116458381613985
212	0x3fa187f500000000	0.034240394830703735
213	0x3fbfd560089cf190	0.12434959612159546
214	0x3fb2a2cde1f36aab	0.07279669538858495
215	0x3fb80ecde4da1b4b	0.09397589528280752
216	0x3f94562789c84069	0.019859903130111798
217	0x3fa6ae9cc0000000	0.04430093616247177
218	0x3fb8525cc5f682cf	0.09500675042228156
219	0x3fb93114a2372b09	0.09840516052569738
220	0x3f91da7e80000000	0.01743505150079727
221	0xbf5b9e1a76b13b3f	-0.0016856440004350962
222	0xbfb516840ab6e1c4	-0.0823748136671219
223	0x3f8075a2089e7adc	0.008036867034943489
224	0xbfb21e00a4423a2e	-0.0707703019163339
225	0x3fb54fc4e0000000	0.08324842900037766
226	0x3f9b048082d19a5c	0.026384361252349428
227	0xbf8748ee70b45020	-0.011369574369872792
228	0x3fbdef851cb2f7e7	0.11693603468572143
229	0x3f923ddec2c29a64	0.017814140927521996
230	0x3fa83dc32c0e2f14	0.0473462096479961
231	0x3fad312e71a91008	0.05701584947067323
232	0xbf8ba5d94d749d93	-0.01349992530465619
233	0xbf9ee45c6f7141fb	-0.030168003370194523
234	0x3f90cce6ef12c336	0.01640663942515915
235	0x3fc126880b73593a	0.13398838576422084
236	0x3f806e2e00000000	0.008022651076316833
237	0xbfb4bc00bfd52e84	-0.08099369700829057
238	0x3fb953608c4a005c	0.09892848420167993
239	0xbf9b98e8c4731cb0	-0.026950489988646964
240	0x3fae2ac8c72f4c68	0.05892016822294793
241	0xbf98438d80000000	-0.023695193231105804
242	0xbfbf86965ab1ae62	-0.12314738954744933
243	0x3fb56e54e0000000	0.08371477574110031
244	0xbfb268ff5288fb3f	-0.07191463246361439
245	0x3fbbe2b24dd57148	0.10892786407697941
246	0x3fa2bc3bc0000000	0.036592356860637665
247	0x3fb5fd49bddff950	0.08589611898057581
248	0xbf9628b32be8139c	-0.021639632754176227
249	0xbfaefdf240000000	-0.06053120642900467
250	0xbfb870184811574c	-0.0954604316660525
251	0xbfb0027120000000	-0.06253726035356522
252	0x3f939f9000000000	0.01916337013244629
253	0xbfa481074f7b4e10	-0.04004690976367098
254	0xbfaa53ddac7cfacb	-0.051421096139610954
255	0xbf8ad90300000000	-0.013109229505062103

fc3.bias f8 [64]
0	0xbfbe7a6b268f012e	-0.11905545894024236
1	0x3fa25a41198af992	0.035844835632349206
2	0x3f804edb19eaf817	0.007962905624818757
3	0x3fb4aba9270c6bde	0.0807443352063468
4	0xbfc09ee99f2492f7	-0.12984962721488788
5	0x3fb15596f97a28d3	0.06771224585296247
6	0xbfa0d4fe8a854cc9	-0.03287501755644368
7	0xbfba0bf7d6fbea1e	-0.10174511908181968
8	0xbf99725e00000000	-0.02485033869743347
9	0x3fbd5a218cb4d624	0.11465654072966253
10	0x3f9bf79d00000000	0.02731175720691681
11	0x3fc35d6c29cecf5a	0.1512885288371944
12	0xbfb0323820000000	-0.06326628476381302
13	0x3fc32abbd0270a51	0.14974162734695765
14	0xbfab42f0eb103aa9	-0.053245094961416335
15	0xbfb065f95907e53b	-0.06405599998096971
16	0x3fbab760ce9646c2	0.10436062854412412
17	0xbfae05b70154f0a1	-0.05863735095269474
18	0x3fc702f6591ce886	0.17977790213791794
19	0x3fb55a2b20000000	0.08340711146593094
20	0xbfaf9e4ba0000000	-0.06175457313656807
21	0xbfb99f2877dee729	-0.10008480955630418
22	0xbfc18e81180689f8	-0.1371613852798672
23	0x3fa2619cbae55bcc	0.0359009721893738
24	0x3fce10d8e3621c3a	0.2348891363401167
25	0x3fbb7a26dd06d1b5	0.10733263870390071
26	0xbfc1902f0a3d7ea3	-0.13721263885507992
27	0xbfb46ef7a0000000	-0.0798182263970375
28	0x3fc07634f49a4d6e	0.12860738700383528
29	0xbfc245a4fd50bff2	-0.14275038117330002
30	0xbfb37fc4227b224b	-0.07616830674954504
31	0xbf916cb100000000	-0.01701618731021881
32	0xbfa92d9c20000000	-0.04917610064148903
33	0xbfa6c5da80000000	-0.04447825253009796
34	0xbf9cf339761d69e7	-0.02827157767692681
35	0xbfb5a3ff40000000	-0.08453364670276642
36	0xbfaeb343898367b8	-0.05996142438534896
37	0xbfb3914740000000	-0.07643552124500275
38	0xbfa78dec00000000	-0.046004652976989746
39	0xbf8238c400000000	-0.008897334337234497
40	0xbfa8d877e747ec1f	-0.048526522619759975
41	0xbfc007acaf677c27	-0.12523420872364108
42	0x3f944975437ee9ac	0.019811470265020212
43	0xbfc19ca5cc614a81	-0.13759300689214984
44	0xbf87e9f64f09c677	-0.01167671612458608
45	0xbfbb37051e2d5730	-0.1063082884478177
46	0xbfb55db6e3f8e605	-0.08346121850708961
47	0xbf9e0b158a917e8e	-0.029339157660045738
48	0xbfb11bba23a6db3c	-0.06682933206944325
49	0xbfa749ca00ca697c	-0.04548484096194991
50	0x3fbee46da0828404	0.12067303818413683
51	0x3f7966cdbc79969c	0.006201556832456181
52	0x3fafa9c44f974ca7	0.061842093196582675
53	0x3fba691866416725	0.10316612717124636
54	0xbfafbd34abfc9097	-0.06199040030904362
55	0xbfae40b5cb713cd3	-0.059087449154157
56	0x3fc38349c530a2b7	0.15244409683625346
57	0x3f8491d07c7d76a7	0.010043743895660496
58	0xbfa719ba7acc525c	-0.04511816739082938
59	0xbfb4274fe84ae299	-0.07872485562519173
60	0x3fbe005c0c3c1caf	0.11719298647595865
61	0x3fc0356a1e5c7a50	0.1266300819633721
62	0xbfc1525aa2123d88	-0.13532574571261713
63	0x3fb8322d75c46602	0.09451564908194857

fc4.weight f8 [2, 64]
0	0xbf95539b3012a03d	-0.02082674485123469
1	0x3fb8102fb6bb08fa	0.09399698458858899
2	0x3fa17e11bbdb6fb0	0.03416495721987134
3	0x3fa64fcfe7271076	0.04357766815840673
4	0xbfaa4546056d0ac0	-0.051309765016886555
5	0x3f7cc130070fdca4	0.007020175559765782
6	0x3fb3441769bb8668	0.07525774318085043
7	0xbf9686e175621ddb	-0.02199890402746783
8	0x3fa52fda80000000	0.04138071835041046
9	0xbfbf0defd541d636	-0.1213064094207191
10	0x3f83c02a00000000	0.00964386761188507
11	0x3fb03683b869f3eb	0.06333182575504252
12	0x3fb938be00000000	0.09852206707000732
13	0x3f64b026b48913b4	0.002525401683927753
14	0x3fa85d272f4f5a43	0.047585701489584874
15	0xbfa358137a722475	-0.03778134221745059
16	0x3fa7009fdbc01dbf	0.044926639151579455
17	0x3fa4db589527c481	0.04073597737068103
18	0x3fb060e994eb1cf4	0.06397876630500204
19	0x3fad9c2880000000	0.0578320175409317
20	0x3fa8d1fc80000000	0.04847706854343414
21	0x3f819a2ca52cf883	0.008594845572243997
22	0x3fa89ccac8acc109	0.048071228977621124
23	0xbf6915d24f157fc6	-0.0030621631237152972
24	0x3f9144d9b34e790d	0.01686420590305553
25	0x3f97ed7ec61c968b	0.023366909829880583
26	0xbfa8a7906466c99b	-0.048153412109417114
27	0xbfa4d1d580000000	-0.04066340625286102
28	0x3f9b35740fbe86ea	0.02657109590621235
29	0xbf97f339a9ece034	-0.02338876819268894
30	0xbf8468ffb67e5d40	-0.009965894467127812
31	0xbfbcbf26c0000000	-0.11229173839092255
32	0xbf805d8400000000	-0.007990866899490356
33	0x3fb8456ec0000000	0.09480945765972137
34	0x3f9465be51ebf58d	0.019919370412926397
35	0xbf8bb2d200000000	-0.013524666428565979
36	0x3fba97e9db9088f7	0.10388051615203496
37	0x3fbc6ae140000000	0.11100585758686066
38	0x3fbbf985c0000000	0.10927616059780121
39	0x3fa7525c80000000	0.04555024206638336
40	0xbfa2fd5c74f3c8ab	-0.037089242245103314
41	0xbf90923985511bff	-0.016182802927030334
42	0xbf92686be2cc7caf	-0.01797646114129908
43	0x3fa117e7e090b4cf	0.033385511553527196
44	0x3f73e0860a70e4ae	0.004852794262711386
45	0x3fa51949562beb12	0.041208545464504934
46	0x3f71b2c511607f8c	0.004320878788376958
47	0x3f9c7bdb471e753e	0.027816225257642595
48	0x3faa0b44fb1bfa97	0.05086722913073521
49	0x3faf53481e75a8b8	0.061182264059270464
50	0x3f77a6b94aa74449	0.005774234576578393
51	0xbfa42f16f1c5377e	-0.03942176533983764
52	0x3fb44487333f1fe6	0.079170656215069
53	0x3fb790fccff005b7	0.09205608440972567
54	0xbf66308c96e46324	-0.002708696926799441
55	0xbf87e2c44c5070b5	-0.011662992075848736
56	0xbfb1d273fd70ecfe	-0.06961750924613239
57	0xbfb008e4e2bccdf4	-0.06263571296295095
58	0x3fac2538ff0df4df	0.05497148621996372
59	0xbfaef507c63a36de	-0.060463183353119496
60	0x3fa0d77aa0b2cfc7	0.032893974415315656
61	0x3fb34f1b4bfb003d	0.07542582135192873
62	0x3f88ac3512149941	0.01204720937182613
63	0x3fb7d85ab1ee748f	0.09314505428342755
64	0x3fa5a1bd4ed890a5	0.042249599337339995
65	0xbfa4670e9e71a542	-0.039848763314533034
66	0xbfd4c3b680fb134a	-0.32444536777284283
67	0xbfb01c654f802218	-0.06293328467302961
68	0xbfc4f3ddc10ea90e	-0.16369220663666123
69	0xbfd708ac88b291e5	-0.35990441655510913
70	0xbfca83f337fc6cf6	-0.20715179666226619
71	0xbf87e63a65e7cff6	-0.011669594035062385
72	0x3fbb478d80000000	0.10656055808067322
73	0xbfd640d9d00b0b0a	-0.3477081805869352
74	0xbfb8257380000000	-0.09432145953178406
75	0xbfd6486ce546bccd	-0.3481704939867541
76	0xbf9ac55a00000000	-0.02614346146583557
77	0xbfd0313de4739432	-0.25300547895159575
78	0xbfb1dc98e7aee3ae	-0.0697722974426955
79	0xbfbb99e54d43ab3c	-0.10781701217972012
80	0xbfca37f1b4590136	-0.20483228021658711
81	0xbfb6367cb5288900	-0.08676890776454016
82	0xbfd67498d7cf67fc	-0.3508665187379163
83	0x3fb7a61200000000	0.09237778186798096
84	0xbfad056900000000	-0.05668190121650696
85	0x3fae4aa6c6919472	0.05916329549726464
86	0xbfb987001fee5369	-0.09971619395794352
87	0xbfc36bfe7429a227	-0.15173321411136095
88	0xbfd7f2919a76426d	-0.3741802223603717
89	0xbfc32e899bd1448a	-0.14985771282457377
90	0xbfa30a9def961605	-0.0371903758014405
91	0xbfb8ce9fc0000000	-0.09690283238887787
92	0xbfd074f5621c568b	-0.25713858204958545
93	0x3fa2158e22b2c561	0.03532070325435189
94	0x3fbc0456dbf5519e	0.10944121236872781
95	0xbfb0425ac0000000	-0.06351248919963837
96	0x3fa49dfa00000000	0.040267765522003174
97	0xbf97871000000000	-0.022976160049438477
98	0xbfaa402658963d15	-0.05127067405111966
99	0xbfa68e6700000000	-0.04405519366264343
100	0xbf94bb68c07c52c5	-0.02024615931357478
101	0x3fbff86480000000	0.12488391995429993
102	0xbfbd0fd800000000	-0.11352300643920898
103	0x3fbb2ce3c0000000	0.1061537116765976
104	0xbfc40e71eee8b18e	-0.15669082799412276
105	0xbfc0c8c965c0cfbc	-0.13112752407471173
106	0xbfcd3a92d14e90fa	-0.22835002155364476
107	0x3f9b32160f73e886	0.026558251088296923
108	0xbf7dc22225aa7d50	-0.00726521815036503
109	0xbfbab34692273e10	-0.10429802959628653
110	0x3fad6992ab573bda	0.05744608251153922
111	0xbf86396beabf30f0	-0.010851710416226429
112	0xbfaa95c2abadf507	-0.05192383142182604
113	0xbfc17b275835f3db	-0.1365708523479999
114	0xbfd49b06f277acc0	-0.32196210554566207
115	0x3f96b4e72f5b823c	0.022174465432615018
116	0xbfd03cc66cf3e9f5	-0.25370941772385375
117	0xbfd341b09f112c6b	-0.3008843949689381
118	0x3f8233d2cb532d7a	0.008887907819732577
119	0xbfb732a8130be5e0	-0.09061670746805062
120	0xbfeed1ae1abed9a3	-0.9630957147954188
121	0x3faa3e7a10c260ec	0.0512579102953071
122	0x3f864642cd2b2759	0.010876199613807523
123	0xbfb83dbc10a93bb9	-0.09469199568523735
124	0xbfd5bd31e5f503e1	-0.3396725412058555
125	0xbfcd7a7eeab940b8	-0.23030077420344752
126	0xbfb01df055ac8532	-0.0629568299450696
127	0xbfd35ec8b9d3bcf2	-0.3026601614682952

fc4.bias f8 [2]
0	0x3fb35323c6b46772	0.07548736191929864
1	0xbfbc1ffb0984a7b7	-0.10986298544290106
