src/backend/controller/checkpoints/checkpoint_epoch_51.pth (torch, 420207 bytes, 25 tensors)

fc1.weight f8 [64, 5]
00000000: f095 4552 5106 c63f 0988 dff3 1aad ddbf
00000010: f413 2ad4 aef3 cf3f 69ab ce04 4cd0 c7bf
00000020: 55ce 014b 2765 bb3f 0000 0040 8728 c4bf
00000030: 0000 00a0 b44c d2bf 0000 0060 19c4 dabf
00000040: 0000 00c0 7e27 cebf 0000 0000 7649 ba3f
00000050: 908c 45a1 a1a2 ccbf cd27 7ffc 51ba b73f
00000060: b49a 2193 3b81 d8bf 4db5 d6f1 6eb5 da3f
00000070: ca3a c95f 2f61 b23f 0000 0000 e3b3 d23f
00000080: 0000 0040 217d c0bf 0000 0080 2103 d1bf
00000090: 0000 0080 0852 d7bf 0000 0080 03e7 b5bf
000000a0: 0000 00c0 4bff c4bf 0000 0000 a42d 8abf
000000b0: 0000 0040 4265 d93f 0000 0000 98ab 933f
000000c0: 0000 0040 1c0d dabf 509b 8cb6 43c1 c2bf
000000d0: 4b3b 0cd2 df2c d63f 6b70 d806 6200 d83f
000000e0: d70d 3180 f8e8 b93f f8fb 1cc8 44ab d6bf
000000f0: 01b2 b6c9 f842 cbbf 2c68 c4a8 57c4 d1bf
00000100: 0e88 004b a319 d23f 8106 7a68 fe73 d03f
00000110: c2cc 9c49 e5de d93f 0000 00c0 50ec d73f
00000120: 0000 0080 4469 dabf 0000 0080 1065 b6bf
00000130: 0000 0040 588f d4bf 0000 0000 0002 b63f
00000140: cbb2 5f50 ce5e c83f c5a7 5174 4401 d0bf
00000150: 5dbb 241b dbc6 76bf 9171 2994 6a39 be3f
00000160: e4f7 66ba c422 d03f 2f4e b0c1 ee29 d53f
00000170: 9de0 485e 19d9 a03f 2fa0 5a0e e223 b63f
00000180: 4c44 ce0a dbe9 d7bf 0234 51e7 55ef c13f
00000190: 0835 eb71 e4b7 d3bf 3408 5987 9412 a4bf
000001a0: 1f67 690f d3d8 d83f 4e3a a5c3 2e16 933f
000001b0: 02f5 a150 cc9d c23f e02a da83 1d6c d23f
000001c0: e349 d055 67cf c93f 88f0 1de9 436f 933f
000001d0: 5c21 7534 8a51 d53f 99d0 1325 e0b1 963f
000001e0: 0000 0080 db48 c4bf 0000 0000 8570 ba3f
000001f0: 0000 0080 33b8 d6bf 0000 0080 8c16 d33f
00000200: 0000 0040 0587 c9bf 389f 263f c484 d4bf
00000210: 4d8d 9c26 f2f4 cb3f e43a 0fd1 f16c db3f
00000220: d469 2d6c 0eff 78bf 69c0 9742 7c55 d23f
00000230: 39f8 70e2 4e5f d6bf 1033 35a9 b529 d03f
00000240: 60a9 47a7 42d4 bcbf cea1 f4d5 371f a03f
00000250: 81fd 20b9 4c04 b1bf 0000 00a0 ca04 d2bf
00000260: 0000 00c0 9904 d9bf 0000 0040 7efa d1bf
00000270: 0000 00c0 3056 d93f 0000 0000 884c c03f
00000280: 5275 a902 395d ca3f 21dd 5880 0c48 9fbf
00000290: 119e 39c4 d549 cd3f 4a7d 9e4a f251 87bf
000002a0: fb5d d6dc b93e c23f f466 5f9a ed3f a2bf
000002b0: a6e7 5724 dbfa d73f cd4b dca2 06e1 c33f
000002c0: 2f0f 6aca 6f23 c23f 330e 2d75 bb4c d03f
000002d0: 0000 0080 2081 cd3f 0000 00c0 e0de c6bf
000002e0: 0000 0080 694c dbbf 0000 0000 2dd4 a73f
000002f0: 0000 0080 3d23 d2bf cbac 0b78 4b67 b83f
00000300: 592b 9295 156c ad3f b326 f801 230c be3f
00000310: 4395 1dfc f471 d13f 99c6 9015 b5d4 c8bf
00000320: 0d63 0d31 b42f e03f 331c 9542 9adb d7bf
00000330: 4a29 2065 7fb2 d1bf 159b 3214 b8de ce3f
00000340: 6d2f 3607 d8c1 90bf 0000 0080 5fb4 c93f
00000350: 0000 0000 d0d7 cdbf 0000 0000 ede2 aabf
00000360: 0000 0000 f143 c3bf 0000 0000 f327 d0bf
00000370: 0000 0040 1f51 db3f 0000 00e0 408f c9bf
00000380: 0000 0080 82d1 d3bf 0000 0040 af45 dabf
00000390: 0000 00a0 c946 dabf 0ed1 663e 8d47 c93f
000003a0: 1346 557b 783c d43f 1c0e 6060 7aef adbf
000003b0: 5b04 1945 f5f4 ddbf 425f e264 9c06 c63f
000003c0: 0000 0000 0fed bdbf 0000 00e0 bcb6 d8bf
000003d0: 0000 0080 9a77 d83f 0000 0080 1462 c13f
000003e0: 0000 0020 2546 cfbf 45e0 1fb4 392d cdbf
000003f0: 2b23 68d6 9fda c03f 16f9 f867 a18f d2bf
00000400: b88c 432b 0af1 d13f a468 cc93 61cd d1bf
00000410: 0000 0000 8ede d63f 0000 0080 e575 bdbf
00000420: 0000 0000 775c b53f 0000 00c0 c0b0 dbbf
00000430: 0000 0080 122a b3bf 0000 0000 a62e b0bf
00000440: 0000 0040 dd09 c0bf 0000 0000 b007 afbf
00000450: 0000 0080 bdad b2bf 0000 00c0 7025 d43f
00000460: 3cf2 a3e3 e25e ab3f afa4 308d 6bb4 cabf
00000470: 4c94 941f 7cc3 cf3f 3c5a 28df 1139 c33f
00000480: e64d 64cb 7101 d3bf 0000 0000 d9f1 c1bf
00000490: 0000 0080 8860 bfbf 0000 0080 6809 d63f
000004a0: 0000 0000 28ff 8bbf 0000 0000 9065 c13f
000004b0: 0000 0080 0ee1 c3bf 0000 0080 4070 cb3f
000004c0: 0000 0000 5e63 b8bf 0000 0000 15a0 c83f
000004d0: 0000 0000 8df7 a13f 0000 0080 81d9 c83f
000004e0: 0000 0000 a403 913f 0000 0080 f8bd d4bf
000004f0: 0000 00c0 8968 d9bf 0000 0040 97d0 d1bf
00000500: 9076 3bff 1b33 b03f 64e6 4f5d 1423 c53f
00000510: 9797 ae77 871f cdbf 0d7a 7754 6147 cd3f
00000520: 390c b463 e702 d53f fb53 76b4 4a84 c23f
00000530: 4702 277c 83fe d3bf 1de9 080f 5d2c aa3f
00000540: 6278 2533 ff0d cc3f fece f1f4 de89 d83f
00000550: 0000 0000 cb91 d1bf 0000 0000 f4f6 ad3f
00000560: 0000 0000 45a0 c0bf 0000 0000 0079 cb3f
00000570: 0000 0000 7c66 ac3f 0000 0020 3579 d8bf
00000580: 0000 0080 e0ea b4bf 0000 0000 08bf 9f3f
00000590: 0000 0000 5e09 d7bf 0000 0020 1624 d9bf
000005a0: d797 4f65 4064 da3f cd12 5186 3816 c0bf
000005b0: 4ffa 5006 1128 d7bf 9e6e 630e dc16 a73f
000005c0: 69e3 c7ef b10d cd3f 63ae 23ee 0bd4 d53f
000005d0: a113 b332 94cb b53f 7dec 8415 b9b2 ce3f
000005e0: 0816 765d 1996 d13f def1 a7d4 f2ef d83f
000005f0: 6533 e7f0 7092 d03f 232b 07b8 c137 c1bf
00000600: 3dba 4a23 bb5e d1bf 3853 02d1 208e c9bf
00000610: f812 21dd d66d bcbf 5199 2901 15b7 d2bf
00000620: a4d9 3146 2edf d1bf 4071 05cb 2586 e03f
00000630: 265e f90c d1c6 c0bf 3095 7e8c 5818 d53f
00000640: 770c 215b da44 dd3f 67aa d10d 2f8b b6bf
00000650: 9247 0cf3 50a3 d7bf fff9 a66a 2b82 da3f
00000660: 68d9 cbc9 4484 aebf 0000 0000 17fe b03f
00000670: 0000 0000 8544 c43f 0000 0080 2285 c4bf
00000680: 0000 0080 bf61 bdbf 0000 0060 0cff d7bf
00000690: 0000 0000 dcd4 983f 0000 0040 5d41 c0bf
000006a0: 0000 00c0 9d6e cdbf 0000 0000 08a9 c53f
000006b0: 0000 0000 46ba b4bf acef 7eff 0f79 c13f
000006c0: 58a6 7bc4 1cc0 98bf da8a f0be a928 dbbf
000006d0: be6b cff6 825b cb3f 401c 2c10 efb0 c1bf
000006e0: bd9f 6510 840d b9bf 1ee3 e2f8 5e71 dd3f
000006f0: 891b e049 d218 db3f d312 c647 f2e6 d33f
00000700: 09a2 9180 54d2 d4bf 7a57 27e5 8b46 dbbf
00000710: 8fa7 41c7 654f a33f 65c6 5a27 86e4 d0bf
00000720: 2e78 7cac 7aa7 db3f ee3c 363e 715b d53f
00000730: 7b34 f449 797f cb3f 40c8 05fb bd77 cfbf
00000740: ed18 54db aa47 603f 2d55 6994 e4e9 d13f
00000750: 5011 b16f 4f3e c43f f400 4cbd 2570 ba3f
00000760: 87b1 339b 7881 d53f 9646 3859 1cc4 b93f
00000770: 19bd 6f9c 039e d83f 77e0 0fdf bb90 b1bf
00000780: 6f2c d3e6 bbd4 9d3f 4fcb da19 7d7f d13f
00000790: ab81 c360 fb9e d83f 41b1 464f 9b2b c83f
000007a0: 2f88 a2ae fa90 673f 0000 0000 8507 b23f
000007b0: 0000 0000 4f03 b9bf 0000 0000 8cdd 9bbf
000007c0: 0000 0080 ed0c cd3f 0000 0000 6803 89bf
000007d0: b6e4 10cd 78d8 cd3f 5349 f552 4c1e d1bf
000007e0: 50bb f0d6 950a d1bf 6298 943d 3671 b73f
000007f0: 68f3 f45d 7784 cabf d340 5536 a2de c33f
0.1720677997320048 -0.4636905080388947 0.24962411269748908 -0.18604421839458077 0.10701222974039955 -0.15748682618141174 -0.2859317362308502 -0.4182189404964447
-0.23558029532432556 0.102683424949646 -0.22371311544984396 0.09268677153082124 -0.3828877388790872 0.41732381455479556 0.07179542625929539 0.29222941398620605
-0.12881866097450256 -0.2658160924911499 -0.36438190937042236 -0.08555623888969421 -0.16404101252555847 -0.012782365083694458 0.3968053460121155 0.01920926570892334
-0.4070501923561096 -0.14652296460664127 0.34648890984037867 0.3750233713960884 0.1012111008613411 -0.3542034105520879 -0.2129813179902982 -0.2776087902180986
0.2828148109857701 0.2570796985893154 0.4042294710990967 0.37379854917526245 -0.41267502307891846 -0.0874796211719513 -0.3212490677833557 0.085968017578125
0.19039324688437484 -0.250077355950108 -0.005560737498213478 0.1180636035655367 0.25212209895459936 0.3306843654147284 0.032906334647522 0.08648503160895936
-0.3736484151386932 0.14011644167695186 -0.3080988991249147 -0.03920425560183141 0.38823391442348226 0.018639307681320987 0.14544061600819452 0.2878488338107399
0.20164195718878294 0.018979130843476827 0.3331017982750575 0.022162916434311872 -0.1584734320640564 0.10327941179275513 -0.35499274730682373 0.29825127124786377
-0.19943299889564514 -0.32060342948033194 0.21841265569046656 0.42852445045438814 -0.006102615678936069 0.28646761420441763 -0.34956714738280287 0.252545752756121
-0.11261383613569853 0.0314881752659094 -0.06647185821292646 -0.28154245018959045 -0.39090579748153687 -0.2809138894081116 0.3958856463432312 0.1273355484008789
0.2059699309346948 -0.03054828198784521 0.22881576615621715 -0.011386769201463882 0.1425392463977316 -0.035643982977218075 0.374686036578732 0.15530474617170711
0.14170644172201594 0.25468336527794405 0.2305031418800354 -0.17867669463157654 -0.4265388250350952 0.046540647745132446 -0.28340089321136475 0.09532615357209122
0.05746524287049821 0.11737269208983996 0.2725803815904621 -0.19399131348614132 0.5058232267429915 -0.37277847768968114 -0.276519631152628 0.24117184625830448
-0.016364455642857424 0.2008170485496521 -0.23314857482910156 -0.052512556314468384 -0.15051090717315674 -0.2524383068084717 0.4268262982368469 -0.1996842473745346
-0.30966246128082275 -0.41050320863723755 -0.41057053208351135 0.19749608561472382 0.3161908344673929 -0.05846769739585175 -0.4680760550291489 0.1720767490958171
-0.11689847707748413 -0.3861534297466278 0.3823000192642212 0.1358056664466858 -0.24432815611362457 -0.2279426698221433 0.13167188614922884 -0.290016509566969
0.28033689713465604 -0.27816047128147603 0.3573336601257324 -0.11508020758628845 0.08344215154647827 -0.4326631426811218 -0.07486072182655334 -0.06321179866790771
-0.1253010332584381 -0.060605525970458984 -0.07296356558799744 0.3147851824760437 0.05345829991162929 -0.20863098520320508 0.24815322439204335 0.15017913242691516
-0.296963165879076 -0.14019310474395752 -0.12256672978401184 0.3443242311477661 -0.013670265674591064 0.1359119415283203 -0.1553056836128235 0.21436315774917603
-0.09526622295379639 0.19238531589508057 0.035091787576675415 0.19413775205612183 0.016615450382232666 -0.32409489154815674 -0.39700549840927124 -0.2783563733100891
0.06327986699349197 0.16513304287200292 -0.2275246939072388 0.22874085068083652 0.3283022378602172 0.14466222583419594 -0.3124092781472751 0.051119716725638954
0.21917715070134408 0.3834149734532132 -0.2745234966278076 0.0585247278213501 -0.129891037940979 0.214630126953125 0.055469393730163574 -0.38239791989326477
-0.08170893788337708 0.031002163887023926 -0.35994672775268555 -0.3928275406360626 0.41236886876720064 -0.12567812498504907 -0.3618204652483756 0.04509627986564378
0.2269804402165179 0.3410672975139503 0.08513761747151573 0.23982919264549088 0.27478632094457156 0.389645297691258 0.25893806005188075 -0.1345140598844746
-0.27140692182993914 -0.19964990811845396 -0.1110510148874474 -0.2924244414665696 -0.2792468724723227 0.5163754430064174 -0.1310674012517989 0.3296109554306268
0.45732745074582887 -0.0880612763154801 -0.3693430303111366 0.4141949216390514 -0.059602880128226954 0.06637710332870483 0.15834105014801025 -0.1603129506111145
-0.11477276682853699 -0.3749419152736664 0.024249494075775146 -0.1269947588443756 -0.22993823885917664 0.1692209243774414 -0.08096730709075928 0.13650703406699216
-0.024170350544329672 -0.42435687681624545 0.21373021174698964 -0.1382120923010195 -0.09786248588863962 0.4600446157960948 0.4233899804534578 0.3109708500781327
-0.32533752971224367 -0.426180814535989 0.03771513039903517 -0.26394800036641747 0.43209711880070045 0.3337061984575048 0.21482769118339093 -0.24584173924410102
0.0019872986837326996 0.2799006890612244 0.15815155938811154 0.10327373382097332 0.336027289928801 0.10064866235941347 0.38464441563606183 -0.06861471362924641
0.02913182827323307 0.27340629124517063 0.3847034878690702 0.1888307702150858 0.002876748670204619 0.07042723894119263 -0.09770673513412476 -0.027212321758270264
0.2269570231437683 -0.012213528156280518 0.2331686974810389 -0.26747425176030964 -0.2662710761095939 0.09157122615269622 -0.20716754997001918 0.15523173954944144

fc1.bias f8 [64]
00000000: 5c70 c7f2 ee75 d0bf 0000 0080 bedb c43f
00000010: 2ce0 026a d765 d13f 0000 0000 fe83 b03f
00000020: 0000 0000 e5a4 d8bf 5b10 a04d c59e c4bf
00000030: 0563 d6d9 10de c9bf 0000 0060 4b8a d1bf
00000040: dc8d 53b4 fc52 dabf 25f0 b700 1773 a0bf
00000050: 3b26 6432 5a0d c53f 0e3e f76b e066 b3bf
00000060: 0000 0040 0d1b cabf 34af 6c22 6c44 d0bf
00000070: 3e30 79c8 702b b7bf 0000 0080 a336 cb3f
00000080: 188d 132d 1a17 c5bf 0f2f e391 dbd1 a4bf
00000090: 0000 0040 2f60 ccbf 4803 d0f9 b4e7 cdbf
000000a0: 5942 767b a268 ac3f 0000 0000 4a57 ac3f
000000b0: 0000 0000 983d a63f 3a9f a889 b9f6 b5bf
000000c0: 0000 00e0 ae6e d0bf 3882 cfb5 837f d13f
000000d0: 0000 00c0 8ccf d7bf 0000 0060 45f3 cfbf
000000e0: 52b4 0dc7 d13d d0bf 0000 0080 6bb3 d5bf
000000f0: 0000 00a0 0efb d4bf 0000 00c0 2002 c4bf
00000100: b4ad b5e3 fe03 c2bf 1bc1 b271 aac2 dcbf
00000110: 0000 0080 bd3c c1bf 0000 0000 6003 73bf
00000120: 2f78 ab4c cd71 a9bf ae58 483a fbd9 d03f
00000130: 3bdb d21c bb80 bcbf 53a4 2f13 cb30 c03f
00000140: 3acf 70f0 3836 a5bf 0000 00e0 3c78 cabf
00000150: 0000 0000 7f04 a03f 443f 8e5e 3b4a d43f
00000160: 3b96 0aa7 0acf d23f e44a c3bd 80bb b93f
00000170: 192e 42d5 5317 dfbf df89 622e 7b81 8fbf
00000180: 6d8b 4bdd a4a8 bebf 0000 00e0 1b69 dcbf
00000190: 8364 32ca 6d7e e03f 32b2 c98a 68dd db3f
000001a0: a979 021d 3217 b43f 0000 0020 b4b5 d0bf
000001b0: 0000 00e0 eb9e d4bf 0000 0000 d682 ab3f
000001c0: be9f 3ef5 3850 d1bf 5d12 6b41 82e5 b43f
000001d0: 0000 0080 1a7f d2bf 3047 1441 7709 dabf
000001e0: 0000 0000 c9c8 d0bf 71ab ecbf 7a6c cabf
000001f0: 0169 97f0 f225 cebf 07b7 c77d 299c d93f
-0.25719808300869373 0.16295605897903442 0.2718409095064114 0.06451404094696045 -0.38506436347961426 -0.16109529772086514 -0.20208941113084947 -0.2740658223628998
-0.4113151322364652 -0.032128065908154015 0.16446998081691952 -0.07578852306254921 -0.20395055413246155 -0.254176171891902 -0.09050660032625132 0.21260493993759155
-0.16476752472872458 -0.04066358714916706 -0.22168532013893127 -0.2336336345470278 0.055485799380339436 0.05535346269607544 0.04343867301940918 -0.08579597101981742
-0.2567555606365204 0.27340786700191044 -0.37204283475875854 -0.24961154162883759 -0.2537731593973308 -0.3390759229660034 -0.32782331109046936 -0.1563149392604828
-0.14074693792950443 -0.4493814573607026 -0.13466614484786987 -0.004641890525817871 -0.04969636498366047 0.2633045262495085 -0.11133927777960377 0.12648905217000336
-0.04142930922571826 -0.2067943662405014 0.03128430247306824 0.31703075632048106 0.29388681709892567 0.10051731713182793 -0.4857987959482855 -0.015383684495024972
-0.11976080324852285 -0.44391533732414246 0.5154332112462189 0.4353886943197579 0.07847893913501615 -0.26109030842781067 -0.3221997916698456 0.05373257398605347
-0.2705213923422852 0.08162702653050631 -0.2890077829360962 -0.40682774882690165 -0.2622549533843994 -0.20643553134263073 -0.23553311107281874 0.40015637667862375

fc2.weight f8 [128, 64]
00000000: 8245 12e3 3270 c53f 0000 0080 7bd3 a83f
00000010: 1dc4 dc99 e661 ccbf 0000 0080 ed40 b53f
00000020: 0000 00c0 a7f9 b3bf d93e 8349 ca5a 6d3f
00000030: 9814 501c e1b7 b7bf 0000 00c0 2e83 b53f
00000040: 569c 0f79 9743 83bf 0ba1 998b f0d9 b7bf
00000050: e82c d8f9 64a4 cc3f e081 5dc9 58ce 203f
00000060: 0000 0000 e062 a73f 463f 22a2 1117 c43f
00000070: be29 8454 3487 ae3f 0000 0080 dd6e bdbf
00000080: 6358 24b3 1dd8 b33f f08d d6e9 b097 a6bf
00000090: 0000 0080 7eda b9bf 0063 f328 280d b43f
000000a0: 2d60 d93b 69e6 d3bf 0000 0000 62e4 bf3f
000000b0: 0000 0000 176f b1bf 105f 11f5 eaa6 b2bf
000000c0: 0000 0080 db41 ab3f 2361 b026 75cb b1bf
000000d0: 0000 0000 a708 bebf 0000 0080 2d93 bc3f
000000e0: 7824 07e2 a563 a4bf 0000 0040 67ee be3f
000000f0: 0000 0000 ab2e 9abf 0000 0080 089e a03f
00000100: 78d1 47fd 99e6 b73f d41a 7a77 2301 b33f
00000110: 0000 0000 7fd0 af3f 0000 0040 d75a b43f
00000120: 3ada 2b49 6dc9 a4bf 84df bdae d956 c23f
00000130: 0813 f12c f7e3 b1bf 9089 e78f 3eb2 b93f
00000140: 1e6b 284a d3f9 c5bf 0000 0040 a9bc b8bf
00000150: 0000 0080 676f acbf c532 1c79 724f c0bf
00000160: 1caf 3f92 44fe c13f d9a3 8856 000c cb3f
00000170: 3d34 b67e b2ba ba3f f173 ede3 6354 c33f
00000180: 7fd0 a1e8 78d1 a1bf 0000 0040 1085 bebf
00000190: bb70 73eb 1633 c2bf 827f 4219 f44a b83f
000001a0: 8f1f 3a8b aaf7 c13f 0000 0000 395c a3bf
000001b0: 0000 0080 c2a6 a63f 0000 0000 83f8 b2bf
000001c0: de74 2c62 261e a3bf 5a0c d532 40aa d03f
000001d0: 0000 0000 bb5f afbf 1058 6fee 0068 ca3f
000001e0: 0000 0000 319b 953f f750 edb9 65d2 a2bf
000001f0: c7c2 a75e 94a1 c03f 1a68 9ca4 a6e2 b7bf
00000200: 27e9 1ca3 53c9 c23f 0000 0000 0e58 a83f
00000210: 324c 62d4 b6cf abbf 0000 0080 b274 bdbf
00000220: 0000 0000 153d b93f dec7 eb41 988b c43f
00000230: a68d 3340 e640 b33f 0000 0000 5e28 a0bf
00000240: 8a7a 9edc ba50 bfbf 9b30 3eab d4e1 c23f
00000250: 36d4 98f1 106e bf3f 5f2f 6ad8 99df c23f
00000260: 0000 0000 70ff b1bf 3faf 7e12 6458 b83f
00000270: ffe0 cb38 7597 67bf 0000 0000 6918 adbf
00000280: c77a b419 dfa9 bf3f 2e9f a2d0 8a27 c03f
00000290: 0000 0000 62da 913f 3de2 3c92 f646 c33f
000002a0: b6b0 53fb 9e3e d3bf 0000 0000 627b bf3f
000002b0: 0000 00c0 10a0 bebf 4d46 6e6c 4556 ab3f
000002c0: 0000 0080 eafd a83f 0248 90ba ef6e 503f
000002d0: 0000 0040 e231 b3bf 0000 0000 cc52 893f
000002e0: 54de a122 e7f2 bfbf 0000 0040 2580 babf
000002f0: 0000 0000 205a bb3f 0000 00c0 8aa4 b53f
00000300: 2e70 d798 af31 b13f f2c0 e974 6d25 813f
00000310: 0000 0080 14e5 b0bf 0000 00c0 d7cb b13f
00000320: 2608 f87d 19cb c7bf 9e2c 5fc4 fd44 7abf
00000330: e9df f803 e481 abbf 4168 4d29 47c6 b03f
00000340: 0373 1812 acd8 c8bf 0000 0000 82a6 98bf
00000350: 0000 0000 7e0b ab3f 5479 6f84 9ceb b9bf
00000360: 2c0a 0e72 a453 c23f dddc 4ff7 14ce c33f
00000370: 2fe2 504c d689 b2bf d480 68d7 ffe1 923f
00000380: aeb0 5cb1 29fe b93f 0000 0000 2ba9 95bf
00000390: e718 9b01 fffc d1bf 97a4 a88d b3ea 87bf
000003a0: 09a8 a139 f797 b93f 0000 0000 f07a 51bf
000003b0: 0000 0000 57d5 a43f 0000 0080 8822 a3bf
000003c0: cb62 c702 7ec9 b23f 52c7 e0af 1bb2 d73f
000003d0: 0000 0000 1962 993f 33ca e5bd abc9 9b3f
000003e0: 0000 0040 ef62 b33f f969 9a76 7b4c a2bf
000003f0: 0297 eace f5a5 95bf 3cd0 9a0e 3524 c2bf
00000400: 0000 0080 2142 aa3f 0000 00c0 6b5c bd3f
00000410: 0000 0000 19cf ac3f 0000 0000 917f 95bf
00000420: 0000 0000 1f42 a7bf 0000 0000 eb0a 993f
00000430: 0000 0000 4844 983f 0000 0000 c204 9fbf
00000440: 0000 00c0 63b3 bd3f 0000 0080 a9a7 bd3f
00000450: 0000 0000 bc86 8d3f 0000 0080 79c3 a2bf
00000460: 0000 00c0 424a bf3f 0000 0000 cbb0 b73f
00000470: 0000 0000 da55 853f 0000 0040 17bc bd3f
00000480: 0000 0040 e9e5 b7bf 0000 0000 28e9 673f
00000490: 0000 0080 8a3b ae3f 0000 0000 f874 823f
000004a0: 0000 0040 0864 bbbf 0000 0080 5d55 aa3f
000004b0: 0000 0000 bcd2 853f 0000 0000 71ea a43f
000004c0: 0000 0000 32e7 abbf 0000 0000 edc6 a4bf
000004d0: 0000 0040 cdc8 b3bf 0000 0080 2bce a1bf
000004e0: 0000 0000 f8a5 7b3f 0000 0000 3d61 a63f
000004f0: 0000 0000 d464 9bbf 0000 0000 242b 79bf
00000500: 0000 0000 08be 813f 0000 0000 f902 95bf
00000510: 0000 0000 0680 b43f 0000 0000 ae40 8fbf
00000520: 0000 00c0 06a1 b43f 0000 0080 c820 afbf
00000530: 0000 0080 5558 b83f 0000 0000 a326 a93f
00000540: 0000 0000 ee98 973f 0000 0000 36ff 8b3f
00000550: 0000 0000 59cc 943f 0000 0080 0316 bc3f
00000560: 0000 0000 5175 bb3f 0000 0080 b485 bd3f
00000570: 0000 0000 81ae aabf 0000 0080 1c41 ba3f
00000580: 0000 0080 0ba5 b9bf 0000 0080 847b bebf
00000590: 0000 00c0 a774 ba3f 0000 0080 bffc b5bf
000005a0: 0000 0080 ccd1 a6bf 0000 0000 1457 bcbf
000005b0: 0000 0080 a6f6 b63f 0000 0000 5724 9ebf
000005c0: 0000 0080 75e0 a3bf 0000 0000 b441 813f
000005d0: 0000 00c0 819c b8bf 0000 00c0 2ed2 b23f
000005e0: 0000 00c0 38c3 b33f 0000 00c0 c30a b2bf
000005f0: 0000 0000 e1dd 923f 0000 0000 7a72 afbf
00000600: 0000 0080 eeee babf 0000 0000 a614 903f
00000610: 0000 0000 6413 b4bf 0000 0000 f8a8 9b3f
00000620: 0000 0080 6f2c a1bf 0000 0000 a6ec aebf
00000630: 0000 0000 32aa b13f 0000 0000 835e b6bf
00000640: 0000 0000 9da3 93bf 0000 00c0 0687 babf
00000650: 0000 0000 be9c 913f 0000 0000 a3d5 bb3f
00000660: 0000 0000 b8fd 793f 0000 0000 ec8d bbbf
00000670: 0000 00c0 3148 b4bf 0000 0080 6577 b2bf
00000680: 0000 0040 d13c b23f 0000 0080 40b7 b33f
00000690: 0000 0000 7842 aebf 0000 0000 578d a23f
000006a0: 0000 0000 589f 613f 0000 0000 34bb 733f
000006b0: 0000 0080 04cd b3bf 0000 0040 0071 bc3f
000006c0: 0000 0000 1463 973f 0000 00c0 43de b33f
000006d0: 0000 0000 2393 a6bf 0000 0080 fdc4 a73f
000006e0: 0000 0080 b4da b4bf 0000 0080 1b68 b83f
000006f0: 0000 0040 f375 b23f 0000 0000 1ecb 82bf
00000700: 0000 00c0 5720 b3bf 0000 0040 1ab3 b7bf
00000710: 0000 0000 b48b 703f 0000 0080 b6b8 aabf
00000720: 0000 0000 ab94 913f 0000 0040 9ebb b9bf
00000730: 0000 0040 1196 bb3f 0000 0000 404b bbbf
00000740: 0000 0000 1010 6c3f 0000 00c0 cce3 b0bf
00000750: 0000 0080 7286 a9bf 0000 0080 9af3 b43f
00000760: 0000 0080 f5fb b4bf 0000 0000 6467 b6bf
00000770: 0000 00c0 3c4e b1bf 0000 0040 f0dc b8bf
00000780: 0000 0000 204c 82bf 0000 0000 0cd3 9fbf
00000790: 0000 0000 4839 9f3f 0000 0080 f250 ae3f
000007a0: 0000 0000 60b7 af3f 0000 0040 44be ba3f
000007b0: 0000 0000 e0ef 5b3f 0000 0000 871d a73f
000007c0: 0000 0080 3634 b53f 0000 0080 d411 a03f
000007d0: 0000 0000 c288 99bf 0000 0000 97b2 98bf
000007e0: 0000 0000 0c8e 7cbf 0000 0080 a5e5 a23f
000007f0: 0000 0000 f98c b9bf 0000 0000 0336 babf
0.16748653495282545 0.04848848283290863 -0.22173769486246978 0.08302196860313416 -0.07802818715572357 0.003583331195933553 -0.09264952603560273 0.08403293788433075
-0.009406264669406788 -0.09316924484449289 0.2237669200843364 0.0001282199270305059 0.045676231384277344 0.15695400635422113 0.05962527782147074 -0.11497291922569275
0.07751641868193952 -0.044126061005297035 -0.10099020600318909 0.07832575797818819 -0.3109381756271457 0.12457859516143799 -0.06810134649276733 -0.07285946353055928
0.05323682725429535 -0.06951076693110685 -0.11731952428817749 0.11162075400352478 -0.039822753754898466 0.12082524597644806 -0.025568649172782898 0.032455697655677795
0.09336244996649679 0.0742361227695299 0.06213757395744324 0.0795111209154129 -0.040599265272181786 0.14327546150502368 -0.06988472792825118 0.10037604344646511
-0.17168656464567617 -0.09662874042987823 -0.055537447333335876 -0.127424534927192 0.14057213917782796 0.21130375123291747 0.10441127389476974 0.15101288441920205
-0.034801271817657124 -0.1192178875207901 -0.14218412872913241 0.09489369980519594 0.1403706722087432 -0.0378129780292511 0.04424102604389191 -0.07410448789596558
-0.03733940075310625 0.26039128269275624 -0.06127724051475525 0.20629893915491992 0.021099820733070374 -0.03676145453087714 0.12993101713029473 -0.09330216902563429
0.1467690035295359 0.04754680395126343 -0.05431910841539213 -0.11506190896034241 0.09858828783035278 0.16051009386825305 0.075209036516347 -0.03155797719955444
-0.12232559095580534 0.1475168071887126 0.12277322672237365 0.1474487597191638 -0.07030391693115234 0.09509873820814806 -0.002879837941119345 -0.05682685971260071
0.12368578317225874 0.1262067335821881 0.017434626817703247 0.15060312405127432 -0.30069708388942773 0.12297642230987549 -0.11962990462779999 0.053392571912934096
0.048812225461006165 0.0010030118085109234 -0.07497991621494293 0.012364953756332397 -0.12480015368952851 -0.10351784527301788 0.10684394836425781 0.08454196155071259
0.06716439706309593 0.008372168665318178 -0.0659954845905304 0.06951664388179779 -0.18588560725044195 -0.006413451459546552 -0.0537253622864567 0.06552548178061192
-0.19411230929917886 -0.02407267689704895 0.0528220534324646 -0.10125139458930238 0.1431775624187862 0.15472662044314847 -0.07241572726423649 0.018440244219278437
0.10153446750763592 -0.02115313708782196 -0.28106665760823407 -0.01167812610681755 0.09997506291406934 -0.0010669082403182983 0.04069015383720398 -0.03737284243106842
0.07338702743380592 0.37024585891332606 0.024788275361061096 0.027136500802450846 0.07572837173938751 -0.035739763477256 -0.021140900377438328 -0.14172995770570818
0.05128578841686249 0.11469148099422455 0.05626752972602844 -0.020994439721107483 -0.04542633891105652 0.024455711245536804 0.023697972297668457 -0.030291587114334106
0.11601851880550385 0.11583957076072693 0.014417141675949097 -0.036647602915763855 0.12222687900066376 0.0925413966178894 0.010417655110359192 0.11615128815174103
-0.09335191547870636 0.0029187947511672974 0.059048011898994446 0.009012162685394287 -0.1069951206445694 0.0514325350522995 0.010655850172042847 0.04085114598274231
-0.054498255252838135 -0.040580183267593384 -0.07728274166584015 -0.034776076674461365 0.00675007700920105 0.0437106192111969 -0.026751816272735596 -0.006144657731056213
0.00866323709487915 -0.020519152283668518 0.08007848262786865 -0.015260085463523865 0.08058206737041473 -0.06079699099063873 0.0950978696346283 0.049122899770736694
0.023044317960739136 0.013670369982719421 0.020310774445533752 0.10971090197563171 0.1072588562965393 0.11532142758369446 -0.05211260914802551 0.1025560200214386
-0.10017463564872742 -0.11907222867012024 0.10334251821041107 -0.08588787913322449 -0.044569388031959534 -0.11070370674133301 0.0897010862827301 -0.029435500502586365
-0.038821861147880554 0.008426100015640259 -0.0961381047964096 0.07351963222026825 0.0771975964307785 -0.07047675549983978 0.01842452585697174 -0.0614202618598938
-0.10520830750465393 0.01570376753807068 -0.07842087745666504 0.027011752128601074 -0.03354214131832123 -0.06039923429489136 0.06900322437286377 -0.08737963438034058
-0.01917882263660431 -0.10362283885478973 0.01719948649406433 0.10872858762741089 0.006345480680465698 -0.10763430595397949 -0.07922659814357758 -0.0721343457698822
0.07124049961566925 0.07701495289802551 -0.05910086631774902 0.03623458743095398 0.002151176333427429 0.004817202687263489 -0.07734706997871399 0.1110992580652237
0.022838890552520752 0.07761023938655853 -0.04409131407737732 0.04642479121685028 -0.08146217465400696 0.09533855319023132 0.07211227715015411 -0.009176477789878845
-0.07471226155757904 -0.09257663786411285 0.004039481282234192 -0.052190497517585754 0.017168685793876648 -0.1005190759897232 0.10775859653949738 -0.10661697387695312
0.0034256279468536377 -0.06597594916820526 -0.04985387623310089 0.0818420946598053 -0.08196958899497986 -0.08751511573791504 -0.0676000565290451 -0.09712125360965729
-0.008934259414672852 -0.0310785174369812 0.030491948127746582 0.059211328625679016 0.06194591522216797 0.10446573793888092 0.0017051398754119873 0.04514715075492859
0.08282795548439026 0.031386032700538635 -0.024935752153396606 -0.02411876618862152 -0.006971403956413269 0.036908313632011414 -0.09980732202529907 -0.10238665342330933

fc2.bias f8 [128]
00000000: 2fb0 5449 a329 92bf e47e 9f70 aa33 ac3f
00000010: 0000 0080 186d b8bf 0000 0000 0a1b 8b3f
00000020: 11e7 c004 a44c 7abf 71cb beed 2e4e a13f
00000030: 0000 0040 d8fe b0bf 0000 0080 82a7 a6bf
00000040: 0000 0040 e69e b2bf 6448 c5bc f537 a9bf
00000050: 0000 0000 32fb 8ebf bbe2 6400 2ca6 a6bf
00000060: 7b57 f321 2a5f ab3f b71c 5c05 6cad c2bf
00000070: 2337 260e ef2e a63f 4dec 1e08 b93d b9bf
00000080: 6bec db9a df41 c03f a7cc 2d89 7d7b c5bf
00000090: d4dc fcf2 e33a a63f 0000 00c0 7926 bcbf
000000a0: 0000 0000 6424 a8bf 43ad 1f4b 946d b73f
000000b0: 2b3a b50d 2bb9 96bf 0000 0000 0e99 a83f
000000c0: cc8d a9e2 4b58 c33f 0000 0080 5112 a1bf
000000d0: 689a 5ccc 8e16 b1bf 725d 9f1d a380 85bf
000000e0: 1594 e27a 993e b33f 82d4 c3c6 4ad4 c1bf
000000f0: 29d6 32e7 8979 a1bf 505d b0fa 632c 963f
00000100: 0000 0000 bd99 adbf 6f18 fa77 7b94 9fbf
00000110: bff8 1832 bffe aa3f 3aa3 3103 faab 72bf
00000120: 5c7a c932 dd70 acbf 0000 0080 adfc b2bf
00000130: 0000 0080 628a a1bf 0000 0000 64f7 a2bf
00000140: 6851 6af0 ad6a bfbf 2014 60c1 d421 c4bf
00000150: a8a1 75a2 9fe2 c03f 0000 0000 f7c7 a03f
00000160: 0000 00c0 8e3e b8bf a49c 5f09 7651 9b3f
00000170: e7b6 326e bef1 c4bf b8a8 1c98 2f1a 94bf
00000180: 67b9 d246 7981 b7bf 8496 a3d1 c77b c23f
00000190: 0000 00c0 ffcf bdbf 0000 0000 b75f 94bf
000001a0: 4034 5d20 9611 9f3f 5e84 5731 3e5d a2bf
000001b0: 26d9 f509 5d11 a6bf 0000 0000 fca6 853f
000001c0: d3a5 435f 4daa a4bf 0000 0080 86fe a7bf
000001d0: 0000 0000 d6c9 93bf 0000 0000 1bd8 adbf
000001e0: bcb4 4a64 ab36 b0bf 0000 0080 0a11 b2bf
000001f0: f589 4249 1525 babf 0000 0000 a7b3 aebf
00000200: 0000 0000 7d20 a6bf 1130 3aa0 d132 c23f
00000210: d3f8 0240 235e 98bf eb74 0bde a2cf c23f
00000220: e237 1376 9a0a ab3f d506 9470 1d2b a93f
00000230: 493b cb17 af7f b93f c55c b418 18dd b7bf
00000240: 0000 0000 b53b adbf eb7f d439 511e 97bf
00000250: 409e ef23 954c b93f 9957 0ae2 38f8 af3f
00000260: 9b0c 7e19 f8c6 b83f 0000 0080 ffb8 a8bf
00000270: 4a56 4777 4d2d bf3f 0000 0000 9012 50bf
00000280: 0000 0000 20d5 61bf 0000 0000 d235 a43f
00000290: 3f5a 109d e0ca b5bf 38b3 e600 f9eb c1bf
000002a0: 0000 00c0 68f8 bbbf 10b0 9436 3c2e 933f
000002b0: 63b6 1e8b a71c babf af1a 570d 1787 a63f
000002c0: 901a d122 628a 953f 0000 00c0 4f90 bc3f
000002d0: ac92 7f84 c7d3 c1bf 7ba0 0fe2 470d c6bf
000002e0: 0000 0000 4e8a 8a3f b572 44c8 feb2 aabf
000002f0: 2a04 383a 7d86 ae3f af7e 14bd 9f7d b1bf
00000300: 5311 4fde bf21 bb3f 0000 0000 9da1 b7bf
00000310: 7b38 b2e6 480e b9bf b671 1cfb e5be b5bf
00000320: fcb4 80f6 6566 593f 2e8a d026 5383 a9bf
00000330: a65f c93f 54ad a03f a8c4 313b b171 973f
00000340: 59d6 d04d bc1c 883f b9fd 3097 e991 c03f
00000350: a3b0 0040 21ce 8cbf 936c 4c80 3a2a c6bf
00000360: 0000 0000 4afb 893f 30da babe 4abe b23f
00000370: 1664 d848 6bce 973f f1a4 56b9 becd c13f
00000380: 7670 f517 5008 a4bf 0000 0000 374a afbf
00000390: c5d9 690c 5a3f b4bf 492c 5d0a ea52 8cbf
000003a0: 0ceb eb8b d665 b1bf 9787 3cda 2e00 a93f
000003b0: cb9c 6e00 a1f6 89bf 9e0a 944b c05b bdbf
000003c0: b39d 6ee8 642f bc3f 68b9 12ce aae4 c2bf
000003d0: bd6e b49b 161f b83f 0000 0000 6295 b73f
000003e0: b83f 5613 4e58 b53f d15e 39dc 136d be3f
000003f0: 8434 6c08 3a68 b03f 0000 0000 bdfe 98bf
-0.01773696074558034 0.055081678626945935 -0.0954146683216095 0.013235166668891907 -0.006420746514828727 0.03379961635746199 -0.06638862192630768 -0.044246748089790344
-0.07273711264133453 -0.04925506524399806 -0.015127554535865784 -0.04423654084025005 0.053460423130373656 -0.14591741811475398 0.04332682655068101 -0.09859806488286545
0.1270102983615716 -0.16783112714947387 0.04341804829749099 -0.1099620908498764 -0.04715263843536377 0.09151579698634742 -0.02219073554197785 0.04804271459579468
0.15113209311958398 -0.0333428829908371 -0.06675045480060648 -0.010499262181766087 0.07517394304393606 -0.13929114060707454 -0.0341303915715055 0.021653711486661564
-0.057813555002212524 -0.030839852521716112 0.05272481428663544 -0.004558540927157401 -0.05554858441313534 -0.07416805624961853 -0.03425891697406769 -0.03704369068145752
-0.12272154922022127 -0.1572824424949042 0.13191600258438752 0.03277561068534851 -0.09470455348491669 0.02667793686114507 -0.16362743740813032 -0.019631141337563135
-0.09181936244087795 0.1444024823787694 -0.1164550632238388 -0.01989637315273285 0.03034052441153201 -0.03586763717954321 -0.043101222482550036 0.0105724036693573
-0.04036180293935456 -0.046863749623298645 -0.01932463049888611 -0.05828937888145447 -0.06333419035464066 -0.07057252526283264 -0.10212834395000654 -0.059964388608932495
-0.04321661591529846 0.142175868259415 -0.02379660680957658 0.14696155397442764 0.05281527224870765 0.04915706633802378 0.09960455256371605 -0.09321737864626119
-0.05709615349769592 -0.022576588778178957 0.09882480742782551 0.06244066008836952 0.0967860281216865 -0.048286423087120056 0.12178501283718748 -0.0009809881448745728
-0.002176821231842041 0.039473116397857666 -0.08512691340033827 -0.14001381439211413 -0.10925917327404022 0.01873106082091175 -0.10199973246081977 0.04399940526814327
0.02103570306305841 0.11157701909542084 -0.13927549333233935 -0.17228029764305916 0.012959107756614685 -0.05214687533063992 0.059619820935047876 -0.0683231197949634
0.10598372628652912 -0.09230977296829224 -0.09787421829443758 -0.08494412785188996 0.0015502925616702181 -0.049830053794967064 0.032572396074726215 0.022894639242114906
0.011773558735607969 0.12945289499655901 -0.014065036550242665 -0.17316371216370338 0.01268632709980011 0.07321612507335185 0.023248363801119686 0.13909133958558287
-0.03912592213120629 -0.06111308932304382 -0.07909167101920563 -0.013830021325381152 -0.06796017566732021 0.04882952131289569 -0.012677438569723162 -0.11468126149342558
0.11009817766772904 -0.14760336935200802 0.09422437001597479 0.09212315082550049 0.08337867710201763 0.11885189177098289 0.06409037309295412 -0.024409249424934387

fc3.weight f8 [64, 128]
00000000: 76f3 29f7 ba23 b43f d555 7a84 6119 a5bf
00000010: 0000 0020 80e8 b03f 0000 0000 e649 923f
00000020: 7cb6 9f11 fee6 7abf f95d dc44 4ef3 b23f
00000030: 0000 0000 1476 633f 0000 0080 59fc b0bf
00000040: 0000 00c0 5905 aa3f 0000 0000 43c6 823f
00000050: 0000 0080 98fa b3bf 0000 00c0 18f8 ad3f
00000060: 711d b18b cc58 a0bf 0000 0020 95b3 adbf
00000070: c8d5 dcb2 a2fd 58bf 0000 0000 9e6e 993f
00000080: 7454 b890 d61d a3bf 0000 0000 48c5 813f
00000090: 0000 0000 229e 99bf 0000 0020 4161 b6bf
000000a0: 0000 00c0 e6a3 b4bf f26e 230a 75c0 b0bf
000000b0: 0000 0080 5dc9 9ebf 0000 0000 708b 693f
000000c0: 8ef2 3939 7f28 8bbf 0000 00e0 279a b0bf
000000d0: 0000 0000 05ff 9d3f 0000 00c0 ddc7 ae3f
000000e0: 760a 8ca8 3241 b3bf 0000 0040 1b8d a43f
000000f0: 0000 00a0 fd4b b03f 0000 0000 c41f 8e3f
00000100: 0000 00a0 15b4 a0bf 0000 0000 cd8a 813f
00000110: 0000 0000 24a8 8dbf 0000 0060 bd02 b1bf
00000120: 0000 0080 57d6 97bf 0000 00a0 c571 a3bf
00000130: 0000 0080 ce6c 9abf 0000 0000 d29f 73bf
00000140: 0000 0080 4c10 913f 0000 0040 3475 a43f
00000150: 793d 5d55 65f7 b33f 0000 0040 b220 a53f
00000160: 0000 0000 1b85 8f3f 0000 0000 2e58 85bf
00000170: 0000 00c0 671e a4bf 0000 0060 f8b1 b0bf
00000180: 0000 00c0 c3d7 9fbf e98a b161 8eef a23f
00000190: 0000 00c0 06c3 ab3f 0000 0080 b5e6 9bbf
000001a0: b0b5 1dd4 4c64 b03f 0034 90ed e13c 07bf
000001b0: 0000 0020 624c b53f 0000 0000 80ae a03f
000001c0: 0000 0040 bb82 af3f 0000 0000 8536 96bf
000001d0: 0000 00c0 73a4 b4bf 0000 0000 fda3 a6bf
000001e0: 0000 0000 c2f9 813f 0000 0040 34b4 a23f
000001f0: 0000 0040 8d66 a6bf 0000 0040 ea4d a2bf
00000200: 0000 0040 cd82 a43f 2ad7 2403 e360 92bf
00000210: 0000 0000 47e4 98bf fabd bebb 6998 a6bf
00000220: cab7 c87f 8d1b a2bf 08c1 3343 044c afbf
00000230: e743 fe88 27d2 b13f 0000 00c0 465a a73f
00000240: 0000 0060 78d9 b23f 7cb8 5367 b8e3 96bf
00000250: b55a deda bc28 8f3f 0000 00a0 daa3 aebf
00000260: 69ec 18b0 dab2 a73f 0000 0000 4008 2abf
00000270: fcd4 7275 95f4 59bf 0000 0080 9b39 b1bf
00000280: 0000 0080 27f1 a6bf 0000 0000 d41c 92bf
00000290: 0000 0080 5b78 b0bf 0000 00a0 5ca4 b13f
000002a0: 0000 0040 0741 a33f 0000 0060 eff5 a4bf
000002b0: 0000 0000 e8af 86bf e415 1aa0 a218 b5bf
000002c0: b6da 9656 3976 b5bf 0000 0080 2045 a6bf
000002d0: 0000 0000 82ac 83bf 0000 00a0 27fd adbf
000002e0: 0000 0000 8770 a7bf 0000 0020 1c18 b6bf
000002f0: 9451 ddea cafd 94bf 0000 00e0 6b85 acbf
00000300: 96cf a36a e28e 91bf 0000 0020 6941 b53f
00000310: 0000 00e0 e340 abbf 0000 0040 256d ac3f
00000320: 0000 00c0 e10d a2bf 740e 28ee 0d91 a8bf
00000330: 0000 0080 2a83 9e3f 0000 0020 7846 b6bf
00000340: 0000 00e0 ade9 a8bf cc8f 8cd6 0d3f 9e3f
00000350: 0000 00c0 4b7c aa3f 0000 0000 c6be 85bf
00000360: 0000 0000 f94b 8bbf 98ea a3a8 a054 b7bf
00000370: 0000 0060 4a00 a6bf 10ce fc8e 6089 6cbf
00000380: 66e1 31a6 2fa4 b43f 0000 00c0 481a af3f
00000390: d227 4d25 86c0 b03f 0000 0000 d856 95bf
000003a0: 0000 0040 44ac af3f 0000 0060 8ec9 b5bf
000003b0: 0000 0000 6fb3 91bf 0000 0040 8980 9ebf
000003c0: 856d 3824 8889 ae3f 0000 00a0 f422 b63f
000003d0: f3cc 3adb 1476 9dbf 0000 00e0 f02b b5bf
000003e0: 47c5 e9c8 39a4 b0bf d5ad 2a68 e244 98bf
000003f0: 93d0 ab74 543b 95bf 0000 0040 e279 afbf
00000400: 4edf bbd6 ce22 7b3f d4ef 4d14 f2cd b0bf
00000410: 0000 00a0 bdc5 b2bf 0000 0080 6158 a8bf
00000420: 5375 b7a8 1067 c2bf bbe2 9918 5c71 bcbf
00000430: 0000 0000 fc65 6f3f 0000 00a0 e0ce b1bf
00000440: 0000 0060 5730 a4bf 4afc db1c 31ac a03f
00000450: 0000 00c0 9f2a a63f 0000 0040 acb3 a33f
00000460: a379 dae0 402b 17bf 04d9 d7b6 88ef 993f
00000470: 46da 0835 6f08 b4bf 7a2a fe76 7972 963f
00000480: e8e1 c1de 9ea9 733f 4733 9126 52dd 963f
00000490: b6e7 13c3 47c6 c03f 0000 00c0 fe0c a1bf
000004a0: 0000 0080 5f87 9a3f 8415 f97a 35c5 b2bf
000004b0: 77a7 77c1 5462 ba3f 0000 0000 de0c 763f
000004c0: 42ff 6c3c 15dd aabf 0000 0000 e8d6 87bf
000004d0: 0000 0000 7cb1 7dbf e9c0 103a 46ba a93f
000004e0: 8272 9f10 697f afbf 3f42 635f a07f af3f
000004f0: ee05 262f 3bc8 9bbf 96ae cb3c 6db1 863f
00000500: 0000 0020 63af b53f 7315 0af5 c4dd 69bf
00000510: 7d86 8d14 1da1 a43f 459b 3ad6 935d c13f
00000520: dc53 7fcb 48d3 a33f 0000 00a0 4eae aebf
00000530: 0000 00a0 705f b53f 0000 0020 c538 b4bf
00000540: 697d 8e18 241e c2bf 5d6d 8140 7392 9e3f
00000550: 3998 0efc ca3f a13f 0000 0060 5bb9 b43f
00000560: 0000 0080 e0c6 b1bf 0398 c723 b743 b03f
00000570: 6fa1 d891 8ab7 aa3f 0acd 4626 444e a83f
00000580: 7379 3545 c76b a13f 2d96 05af 375a babf
00000590: 0000 00c0 dab7 a63f 0000 0000 20b9 6b3f
000005a0: 2df4 5ef7 cd49 ab3f e5dd 0d0d 8bac 793f
000005b0: 641f 03a5 ebcb a93f 0000 0020 b31f b03f
000005c0: 7a97 b0ec 460c 74bf 0000 0040 bdb6 a83f
000005d0: 0000 0080 e578 97bf 0000 0000 4c6f 723f
000005e0: 2a4f 33b4 b7ff a43f 0000 0000 a824 693f
000005f0: a0a6 25c6 e865 c23f 0000 0040 d319 acbf
00000600: 0000 00e0 b3d7 b53f 926b 458c 1793 afbf
00000610: d617 fa75 459f 9d3f 8f92 d002 4964 a1bf
00000620: b48b d5ac 837c a93f 8bf5 ff9e 0a68 98bf
00000630: 0000 0000 2c07 71bf 4b56 2b8c 8f9b bc3f
00000640: 0000 0020 9a6f b13f 6c0e 4026 a11b 9a3f
00000650: 200e dd27 691e 923f 4b91 2c2d 20a8 b53f
00000660: 5522 9ed0 dfb7 a6bf 0000 00c0 77c4 a8bf
00000670: 94f6 3f29 ddf7 713f 0000 0020 516b a3bf
00000680: 0000 0040 6fd8 aa3f 0000 0040 70da ae3f
00000690: 9e24 1457 367e b83f 2619 8c5e 0f27 913f
000006a0: 0000 0000 f587 a13f f7aa b598 64bd bf3f
000006b0: 1341 1536 b48b b23f b29d 9610 111b b83f
000006c0: 401d 6167 2ac4 943f 0000 00c0 9cae a63f
000006d0: fc2a 1578 653a b83f 8d69 dd9c 0b2a b93f
000006e0: 0000 0080 7eda 913f c8c1 1b76 54ca 60bf
000006f0: 7322 03eb 3be7 b4bf 18e4 5e47 986b 7f3f
00000700: 2fcc 0747 9aee b1bf 0000 00e0 c44f b53f
00000710: 61b9 3bb8 a0ef 9a3f a8dc f536 180c 86bf
00000720: fb2e 2cc6 8ed7 bd3f f109 76bf 04dd 923f
00000730: 204e 069f ef0b a83f bbdd f9fe 081d ad3f
00000740: d595 bdf9 dc6b 8cbf b5cb 9ef1 2b1f 9ebf
00000750: 6851 f5ca 978a 903f a6e2 dab0 8a1a c13f
00000760: 0000 0000 2e6e 803f f5da 2047 389e b4bf
00000770: a58f aaec 9b3b b93f 6eb1 77ff 92a1 9abf
00000780: c958 b8fa 2a79 ae3f 0000 0080 8d43 98bf
00000790: f04b f760 fa5e bfbf 0000 00e0 546e b53f
000007a0: 2822 758c 0951 b2bf 5eb8 5495 b7ca bb3f
000007b0: 0000 00c0 3bbc a23f 0bff 0b22 4fe5 b53f
000007c0: 3104 cc68 0d8d 95bf 0000 0040 f2fd aebf
000007d0: fe42 f82a 7247 b8bf 0000 0020 7102 b0bf
000007e0: 0000 0000 909f 933f 45ce d95e ab26 a4bf
000007f0: 936a 2991 eee4 a9bf 0000 0000 03d9 8abf
0.07867020162843893 -0.04120926611100698 0.06604767590761185 0.01786002516746521 -0.006567947822970429 0.07402505093738644 0.0023756399750709534 -0.0663505494594574
0.050822071731090546 0.009167216718196869 -0.07804253697395325 0.058533452451229095 -0.0319274826547894 -0.058010730892419815 -0.001525315175468266 0.024836033582687378
-0.03733702198602709 0.008677065372467041 -0.02501729130744934 -0.0874214842915535 -0.08062593638896942 -0.06543666360397163 -0.03006502240896225 0.0031182467937469482
-0.013260835584554511 -0.06485223025083542 0.029293134808540344 0.06011860817670822 -0.07521359076421583 0.040139056742191315 0.06365952640771866 0.014709025621414185
-0.032623935490846634 0.008565522730350494 -0.01448085904121399 -0.06644805520772934 -0.02327858656644821 -0.03797738626599312 -0.02580568939447403 -0.004791088402271271
0.01666373759508133 0.03995669633150101 0.07799371084296593 0.04126507788896561 0.01539059728384018 -0.010422095656394958 -0.03929447382688522 -0.06521560996770859
-0.03109651431441307 0.036983918595771055 0.05422230809926987 -0.027247272431850433 0.06403045824637021 -4.432262876017529e-05 0.08319676667451859 0.032581329345703125
0.061544276773929596 -0.021692350506782532 -0.08063434064388275 -0.04421988129615784 0.008777156472206116 0.03653109818696976 -0.04375115782022476 -0.03575069457292557
0.040060438215732574 -0.017947718684090543 -0.024308308959007263 -0.04413156906900535 -0.03536646065582223 -0.06112683601702612 0.06961295218049167 0.04561062902212143
0.07363083213567734 -0.022353059107381487 0.015214419774378521 -0.05984385684132576 0.046286424633273544 -0.00019861012697219849 -0.0015841922338897798 -0.06728526949882507
-0.044808611273765564 -0.017688095569610596 -0.06433650851249695 0.06891421228647232 0.03760550171136856 -0.040938835591077805 -0.011077702045440674 -0.08240715416658123
-0.08383520473476377 -0.04349614679813385 -0.00960637629032135 -0.05857204273343086 -0.04578039050102234 -0.08630538731813431 -0.020499392113678974 -0.05570542439818382
-0.0171466233814069 0.08302933722734451 -0.053229447454214096 0.05552021414041519 -0.03526216000318527 -0.04798167736228445 0.029797233641147614 -0.08701277524232864
-0.04865783080458641 0.029537407131229362 0.05172955244779587 -0.010617777705192566 -0.013328500092029572 -0.09113506428904328 -0.042970966547727585 -0.003483475294979284
0.0806302815198073 0.060747407376766205 0.06543768320730628 -0.02083909511566162 0.06186116486787796 -0.0851067528128624 -0.017286047339439392 -0.029787201434373856
0.05964303438323796 0.08647087961435318 -0.02877075756141507 -0.08270173519849777 -0.06500588564974406 -0.023700273139793133 -0.020734138127366974 -0.061476774513721466
0.0066249923363484575 -0.06564248080934415 -0.07332978397607803 -0.0475492924451828 -0.14377029646031278 -0.11110473251927548 0.003832809627056122 -0.06956294924020767
-0.039431314915418625 0.032563719532838833 0.043293945491313934 0.03848017007112503 -8.838256345675712e-05 0.025327812347279113 -0.0782536987761456 0.021921060455080334
0.004800434671885935 0.02232864723582686 0.13105103516846633 -0.033302269876003265 0.025907032191753387 -0.07332166912336474 0.10306291316342518 0.0053833648562431335
-0.052467979074661844 -0.011640369892120361 -0.0072493404150009155 0.05024928530508694 -0.06151893928447284 0.06152058758164402 -0.027131008866040966 0.011080602090678664
0.08470744639635086 -0.003157505685808354 0.040291699179545205 0.1356682582893091 0.03872134670351787 -0.05992360785603523 0.08348754793405533 -0.07899124175310135
-0.1415448303132323 0.02985553818903718 0.03368982626788903 0.08095332235097885 -0.06944087147712708 0.06353325484778342 0.05218155889844211 0.04747212378733863
0.034025408933973454 -0.10293911002153129 0.04437144845724106 0.0033841729164123535 0.05329745907463521 0.006268065612736494 0.05038391484555296 0.06298369914293289
-0.0048945208064078375 0.04826918989419937 -0.022922120988368988 0.004500672221183777 0.041013470408556366 0.0030692368745803833 0.14373502421522222 -0.05488453060388565
0.08532261103391647 -0.06166909777922237 0.028927884412517667 -0.033968240350337735 0.04977809414665249 -0.023834386782245736 -0.004157230257987976 0.11174866840459534
0.06810916215181351 0.025496023139579924 0.017694132860255007 0.08459664442904573 -0.04437159940340921 -0.048373930156230927 0.004386772070572715 -0.03792813792824745
0.05243251472711563 0.06026030331850052 0.09567584634727885 0.01675056471415206 0.034240394830703735 0.1239836571527738 0.0724442131079324 0.09416300444592343
0.02027956253030294 0.04430093616247177 0.09464105779367665 0.09829781131467126 0.01743505150079727 -0.0020496034275014653 -0.08165335166553138 0.0076709698095607445
-0.07004703745023798 0.08324842900037766 0.026304732556064695 -0.010765256097086187 0.11657039964864772 0.01842124384485006 0.04696606460779784 0.05686214554310306
-0.013877607699849396 -0.02941578542931796 0.01615369011172288 0.1336224902677447 0.008022651076316833 -0.08053924309283984 0.09856581237778402 -0.026006981699468516
0.05951818762348322 -0.023695193231105804 -0.12254299990972561 0.08371477574110031 -0.07154903105868782 0.10856196780943736 0.036592356860637665 0.08553022938940218
-0.021045884629533333 -0.06053120642900467 -0.09484017895762162 -0.06253726035356522 0.01916337013244629 -0.03935752423140263 -0.05057473680490889 -0.013109229505062103

fc3.bias f8 [64]
00000000: 7cc6 33e8 aaac aebf 6836 2c30 3488 a23f
00000010: 271f 3209 1aee 663f 8e6c 3a88 93bc b43f
00000020: e722 363b ec92 c0bf fd23 b44a 3a09 ab3f
00000030: fc75 beb2 8b93 a0bf 494c bb85 508c b1bf
00000040: 0000 0000 5e72 99bf b9ee 846f f53b bc3f
00000050: 0000 0000 9df7 9b3f b55b 55a7 ddc7 c23f
00000060: 0000 0020 3832 b0bf 1b95 61ca 0353 c23f
00000070: edf7 596f fb12 abbf ba5f 4391 fe4d b0bf
00000080: bd2a 2c8d 7fc2 ba3f efd3 437e c1d5 adbf
00000090: 92a0 ccc1 9655 c63f 0000 0020 2b5a b53f
000000a0: 0000 00a0 4b9e afbf 02d5 ef37 3087 b9bf
000000b0: 280a c1bb 8382 c1bf da46 12e6 c13b a03f
000000c0: e3fd 3cd5 521a cc3f d2c9 412d 78c8 bb3f
000000d0: a8e1 4e75 306a c1bf 0000 00a0 f76e b4bf
000000e0: 2fae 51a0 a82c c03f 06c8 6a99 a739 c2bf
000000f0: 52b8 4eb4 1912 b2bf 0000 0000 b16c 91bf
00000100: 0000 0020 9c2d a9bf 0000 0080 dac5 a6bf
00000110: 649a ab5d 4e93 9cbf 0000 0040 ffa3 b5bf
00000120: 48f8 0898 d88a aebf 0000 0040 4791 b3bf
00000130: 0000 0000 ec8d a7bf 0000 0000 c438 82bf
00000140: c5d7 f057 82a8 a8bf 04fa 8397 5ef7 bfbf
00000150: 83c2 bfc5 8be1 963f 8f0b db3f 1e8a c1bf
00000160: 7f2d afcf 2598 86bf e796 7cc9 1c1f bbbf
00000170: c6ec d872 1543 b5bf bcec 8aeb f68e 9dbf
00000180: e9e4 b266 bf03 b1bf 52ac a5a4 1908 a7bf
00000190: 616a 081b 4a23 bc3f 08a9 ff3b 7ae6 7a3f
000001a0: c253 a480 193f af3f fd29 24d1 41f4 b93f
000001b0: b11c 5d33 a282 afbf 0665 69df 44b3 adbf
000001c0: e60e 7d69 f949 bf3f 3683 05be a651 853f
000001d0: f99f 28e0 b503 a5bf 06a2 3f20 550f b4bf
000001e0: a52d ca21 7071 bc3f d405 aedb 2533 c03f
000001f0: 1ad2 3a17 9143 c1bf d774 6bf4 28a9 b73f
-0.059911099286080266 0.036195402985055136 0.0027990826143343864 0.08100244594463588 -0.12948372737107336 0.052804776782132 -0.032375684327444504 -0.06854727997715417
-0.02485033869743347 0.11028989765776033 0.02731175720691681 0.14672442122056642 -0.06326628476381302 0.14315841085332512 -0.05287919744749545 -0.06369010015930501
0.10453030773730183 -0.05827145258255217 0.17448696577890083 0.08340711146593094 -0.06175457313656807 -0.09971906057019811 -0.136795489002979 0.031705912909399905
0.2195533314897907 0.10852767090708618 -0.1360531399530036 -0.0798182263970375 0.1263628752525263 -0.14238448134489107 -0.07058869030035567 -0.01701618731021881
-0.04917610064148903 -0.04447825253009796 -0.027905678240950485 -0.08453364670276642 -0.059653061446156175 -0.07643552124500275 -0.046004652976989746 -0.008897334337234497
-0.04816062282081605 -0.12486830901250562 0.022344764656681903 -0.13702753179503843 -0.011032386208077892 -0.10594348830326404 -0.0830548673047132 -0.02886567890776058
-0.06646343476576856 -0.04498367438176189 0.10991347465498215 0.006567456701285453 0.061028286889416986 0.1013833175276559 -0.06154353024481319 -0.058008339187560806
0.12222250771906892 0.010409643815991392 -0.041043933499452075 -0.0783589557391978 0.11110592675156868 0.12656090952445587 -0.13487447389856372 0.0924249264457616
