src/backend/controller/checkpoints/checkpoint_epoch_53.pth (torch, 420207 bytes, 25 tensors)

fc1.weight f8 [64, 5]
0.172002911194531 -0.4637553882831215 0.24955922614393733 -0.18610905970226602 0.10694738597249233 -0.15748682618141174 -0.2859317362308502 -0.4182189404964447
-0.23558029532432556 0.102683424949646 -0.22191207238008262 0.09165870344381707 -0.3828565856492379 0.4201050444192564 0.07397755568035302 0.29222941398620605
-0.12881866097450256 -0.2658160924911499 -0.36438190937042236 -0.08555623888969421 -0.16404101252555847 -0.012782365083694458 0.3968053460121155 0.01920926570892334
-0.4070501923561096 -0.14631749576181297 0.3479259667520476 0.3760507572119902 0.10088088169843967 -0.35423211215966977 -0.2133151697947253 -0.2776777868312198
0.28263740913176444 0.25672417532274416 0.40397446304924794 0.37379854917526245 -0.41267502307891846 -0.0874796211719513 -0.3212490677833557 0.085968017578125
0.19020858456938677 -0.2502619523708586 -0.0057453718874453195 0.11787951294323963 0.25193783621532206 0.3313838366369138 0.03420554889172565 0.08756341225370567
-0.373165641875235 0.1406818986326829 -0.30697994909715154 -0.035540210701369576 0.3909764250089809 0.018623115123770843 0.14576150098528082 0.28846676157621615
0.2028789924521521 0.02000654994300189 0.33352997464985984 0.022688892848895584 -0.1584734320640564 0.10327941179275513 -0.35499274730682373 0.29825127124786377
-0.19943299889564514 -0.32001754868875476 0.22057401206594301 0.43009116253483415 -0.006199430533767413 0.2865474686083363 -0.3496760906725621 0.2525915624117829
-0.1125636835718221 0.03157090920581379 -0.0663670222639055 -0.28154245018959045 -0.39090579748153687 -0.2809138894081116 0.3958856463432312 0.1273355484008789
0.20564947101970676 -0.02961517579751448 0.22936401084372807 -0.012284921654014886 0.1420177917001053 -0.03532763208071163 0.3762070306531632 0.15642517902505162
0.14151951402865184 0.2547740963812225 0.2305031418800354 -0.17867669463157654 -0.4265388250350952 0.046540647745132446 -0.28340089321136475 0.09533438251790585
0.058194384022934 0.11786505524663253 0.2722388133756286 -0.19413271221650885 0.5075301112736033 -0.3737229217797506 -0.2763853324595803 0.24402972527326017
-0.013831168608304979 0.2008170485496521 -0.23314857482910156 -0.052512556314468384 -0.15051090717315674 -0.2524383068084717 0.4268262982368469 -0.1996842473745346
-0.30966246128082275 -0.41050320863723755 -0.41057053208351135 0.19873697971368093 0.3187101849147822 -0.056455018962643246 -0.46722646554663944 0.1731854355154307
-0.11689847707748413 -0.3861534297466278 0.3823000192642212 0.1358056664466858 -0.24432815611362457 -0.2279307836878892 0.13105892967758162 -0.2903139951613355
0.2807094906156384 -0.2780879272291087 0.3573336601257324 -0.11508020758628845 0.08344215154647827 -0.4326631426811218 -0.07486072182655334 -0.06321179866790771
-0.1253010332584381 -0.060605525970458984 -0.07296356558799744 0.3147851824760437 0.05336234614538573 -0.2087301723300503 0.24805486151784406 0.1500835275619217
-0.2970571686635448 -0.14019310474395752 -0.12256672978401184 0.3443242311477661 -0.013670265674591064 0.1359119415283203 -0.1553056836128235 0.21436315774917603
-0.09526622295379639 0.19238531589508057 0.035091787576675415 0.19413775205612183 0.016615450382232666 -0.32409489154815674 -0.39700549840927124 -0.2783563733100891
0.06345406094527994 0.16593199664779562 -0.2269181930276758 0.2286777665904748 0.32839467475008743 0.14459747762586636 -0.31247406690790375 0.05105494563897767
0.21911240519867298 0.3833502372802949 -0.2745234966278076 0.0585247278213501 -0.129891037940979 0.214630126953125 0.055469393730163574 -0.38239791989326477
-0.08170893788337708 0.031002163887023926 -0.35994672775268555 -0.3928275406360626 0.41365278471282185 -0.12650094362712505 -0.3618753393571164 0.047395416491250945
0.2287749886801046 0.34149629407045345 0.08630670922870326 0.24075030115693402 0.2749410476382643 0.38995951384565286 0.25887318108172874 -0.1345789263761002
-0.2714717692146178 -0.19971472874961982 -0.11111572645145693 -0.29254563163164626 -0.27680215829603494 0.5180523093859958 -0.13218397580983088 0.3290767445771825
0.45967779687188487 -0.08814004072968076 -0.3684658352948562 0.41795218697027176 -0.05623771243703435 0.06637710332870483 0.15834105014801025 -0.1603129506111145
-0.11477276682853699 -0.3749419152736664 0.024249494075775146 -0.1269947588443756 -0.22993823885917664 0.1692209243774414 -0.08096730709075928 0.1376922199158666
-0.02424098282802837 -0.4239893095845791 0.2157365852547635 -0.13665747354222088 -0.0974462731971716 0.46113883844579256 0.4242608648541151 0.31114460708624675
-0.3250249335781392 -0.43091524674970094 0.04147548384309147 -0.25888442751070445 0.43447501578532055 0.33860399873197544 0.21471872786848906 -0.2459492648033645
0.001878794707853682 0.27979162842558125 0.1580417274013756 0.1034402220054229 0.337152681801477 0.10146695438215331 0.3844077604368955 -0.06860564361636157
0.029407618574873257 0.27471598197356684 0.38566197884432224 0.1886889289411572 0.002965035859586267 0.07042723894119263 -0.09770673513412476 -0.027212321758270264
0.2269570231437683 -0.012213528156280518 0.23379707658619334 -0.2697700914421991 -0.2673347909272218 0.0937015097688182 -0.2052393969039643 0.15626286835652267
00000000: d3da 32ff 3004 c63f 3744 8114 2bae ddbf
00000010: 0c05 5a85 8ef1 cf3f b58c 74f2 6bd2 c7bf
00000020: d100 2565 e760 bb3f 0000 0040 8728 c4bf
00000030: 0000 00a0 b44c d2bf 0000 0060 19c4 dabf
00000040: 0000 00c0 7e27 cebf 0000 0000 7649 ba3f
00000050: 95e2 ba62 9d67 ccbf 5659 afdd f176 b73f
00000060: 21fd 9ae8 b880 d8bf d394 aa44 00e3 da3f
00000070: a0fe 486e 31f0 b23f 0000 0000 e3b3 d23f
00000080: 0000 0040 217d c0bf 0000 0080 2103 d1bf
00000090: 0000 0080 0852 d7bf 0000 0080 03e7 b5bf
000000a0: 0000 00c0 4bff c4bf 0000 0000 a42d 8abf
000000b0: 0000 0040 4265 d93f 0000 0000 98ab 933f
000000c0: 0000 0040 1c0d dabf e896 901d 88ba c2bf
000000d0: 4545 2846 6b44 d63f 6023 f731 3711 d83f
000000e0: c0ba af57 54d3 b93f 62cd 3a2a bdab d6bf
000000f0: f827 0157 e94d cbbf 0602 510d 79c5 d1bf
00000100: e336 3637 bb16 d23f f2a3 463c 2b6e d03f
00000110: b5cd cdb4 b7da d93f 0000 00c0 50ec d73f
00000120: 0000 0080 4469 dabf 0000 0080 1065 b6bf
00000130: 0000 0040 588f d4bf 0000 0000 0002 b63f
00000140: 7e6d 1241 c158 c83f ae6b 37b5 4a04 d0bf
00000150: aa4b c285 7588 77bf d9a9 f50c 5a2d be3f
00000160: 36de cadf bf1f d03f c9d3 318d 6435 d53f
00000170: 5dd3 a9c3 6383 a13f 60b1 f447 8e6a b63f
00000180: 3114 f624 f2e1 d7bf a51e e24c dd01 c23f
00000190: c699 793a 8fa5 d3bf 9e87 4f95 5332 a2bf
000001a0: 9cea bafb c105 d93f 0efd 9f19 f011 933f
000001b0: 17b3 df17 50a8 c23f f3fb bc4a 3d76 d23f
000001c0: 6f4f d056 f0f7 c93f 220c d8d6 987c 943f
000001d0: bfd6 561b 8e58 d53f d1e5 12d3 c13b 973f
000001e0: 0000 0080 db48 c4bf 0000 0000 8570 ba3f
000001f0: 0000 0080 33b8 d6bf 0000 0080 8c16 d33f
00000200: 0000 0040 0587 c9bf 1eea 70e2 2a7b d4bf
00000210: a2da 15ec c43b cc3f daaf 5815 9d86 db3f
00000220: 3278 57f6 9264 79bf 3929 9b31 cb56 d23f
00000230: 2a6f 68d3 1761 d6bf 3377 f3cc 752a d03f
00000240: 4784 a83b f9d0 bcbf 5881 16ed 0f2a a03f
00000250: 6408 28de 6dfd b0bf 0000 00a0 ca04 d2bf
00000260: 0000 00c0 9904 d9bf 0000 0040 7efa d1bf
00000270: 0000 00c0 3056 d93f 0000 0000 884c c03f
00000280: 5813 3ccc b852 ca3f 7cfd 0fce 7053 9ebf
00000290: 8102 bac6 cc5b cd3f 9740 e745 d628 89bf
000002a0: f8aa 6695 a32d c23f dc11 dda0 7616 a2bf
000002b0: 0a8f 4ba7 c613 d83f 4d7e 1782 bd05 c43f
000002c0: 11db 3fba 4f1d c23f c2d1 f402 384e d03f
000002d0: 0000 0080 2081 cd3f 0000 00c0 e0de c6bf
000002e0: 0000 0080 694c dbbf 0000 0000 2dd4 a73f
000002f0: 0000 0080 3d23 d2bf 5248 1987 d567 b83f
00000300: a3f4 6080 a7cb ad3f 1322 a07d 672c be3f
00000310: 6c9c 0958 5c6c d13f 28df 0639 57d9 c8bf
00000320: c4f8 b4c9 af3d e03f 67d0 b38b 13eb d7bf
00000330: d282 001b 4cb0 d1bf 5877 a6b4 5d3c cf3f
00000340: 677e b406 8453 8cbf 0000 0080 5fb4 c93f
00000350: 0000 0000 d0d7 cdbf 0000 0000 ede2 aabf
00000360: 0000 0000 f143 c3bf 0000 0000 f327 d0bf
00000370: 0000 0040 1f51 db3f 0000 00e0 408f c9bf
00000380: 0000 0080 82d1 d3bf 0000 0040 af45 dabf
00000390: 0000 00a0 c946 dabf 3a23 309e 3670 c93f
000003a0: 4c1c 4767 bf65 d43f 4d7b 4718 ace7 acbf
000003b0: 9d4d 56d5 09e7 ddbf 5655 d7ba f02a c63f
000003c0: 0000 0000 0fed bdbf 0000 00e0 bcb6 d8bf
000003d0: 0000 0080 9a77 d83f 0000 0080 1462 c13f
000003e0: 0000 0020 2546 cfbf 1777 d8fe d52c cdbf
000003f0: 6530 68fc 89c6 c03f 9a7f b226 8194 d2bf
00000400: 3bbe 77f0 24f7 d13f fe21 374e 31cc d1bf
00000410: 0000 0000 8ede d63f 0000 0080 e575 bdbf
00000420: 0000 0000 775c b53f 0000 00c0 c0b0 dbbf
00000430: 0000 0080 122a b3bf 0000 0000 a62e b0bf
00000440: 0000 0040 dd09 c0bf 0000 0000 b007 afbf
00000450: 0000 0080 bdad b2bf 0000 00c0 7025 d43f
00000460: d384 1037 4f52 ab3f 104a ec97 abb7 cabf
00000470: 149e eafe 42c0 cf3f 81fc 45e1 ef35 c33f
00000480: 2cf2 1c12 fc02 d3bf 0000 0000 d9f1 c1bf
00000490: 0000 0080 8860 bfbf 0000 0080 6809 d63f
000004a0: 0000 0000 28ff 8bbf 0000 0000 9065 c13f
000004b0: 0000 0080 0ee1 c3bf 0000 0080 4070 cb3f
000004c0: 0000 0000 5e63 b8bf 0000 0000 15a0 c83f
000004d0: 0000 0000 8df7 a13f 0000 0080 81d9 c83f
000004e0: 0000 0000 a403 913f 0000 0080 f8bd d4bf
000004f0: 0000 00c0 8968 d9bf 0000 0040 97d0 d1bf
00000500: 38f1 8e7c 863e b03f 762b 7b79 423d c53f
00000510: 98ec f5c4 a70b cdbf 5d09 6a24 5045 cd3f
00000520: 14dc 0e19 6b04 d53f 2b5c be8e 2b82 c23f
00000530: 8bec 8d3a 93ff d3bf 180e a3b3 df23 aa3f
00000540: 26f4 3c13 e00b cc3f dd17 026f cf88 d83f
00000550: 0000 0000 cb91 d1bf 0000 0000 f4f6 ad3f
00000560: 0000 0000 45a0 c0bf 0000 0000 0079 cb3f
00000570: 0000 0000 7c66 ac3f 0000 0020 3579 d8bf
00000580: 0000 0080 e0ea b4bf 0000 0000 08bf 9f3f
00000590: 0000 0000 5e09 d7bf 0000 0020 1624 d9bf
000005a0: e26a 8f87 4979 da3f 8454 e5d3 2e31 c0bf
000005b0: 4522 f12e f728 d7bf 67d5 9e47 3644 a83f
000005c0: 840c 43b3 7f48 cd3f 0e38 af45 13db d53f
000005d0: 9c0a 904d 3218 b63f b64f fce6 e7d0 ce3f
000005e0: f4cb fb55 a298 d13f f8ca aebf 18f5 d83f
000005f0: 42ae a3d1 6091 d03f f210 c2db e139 c1bf
00000600: 4819 a420 cb5f d1bf 1c2b 4192 4090 c9bf
00000610: 7627 2e8b 1472 bcbf 7284 1c50 11b9 d2bf
00000620: f0fe 5566 20b7 d1bf 97c3 cd6f e293 e03f
00000630: 0849 948e 67eb c0bf 3c52 f5e7 970f d53f
00000640: ddc5 106c 5c6b dd3f 2aef 6680 5890 b6bf
00000650: 0439 12ba f194 d7bf 3f0e 9587 babf da3f
00000660: a015 707f 30cb acbf 0000 0000 17fe b03f
00000670: 0000 0000 8544 c43f 0000 0080 2285 c4bf
00000680: 0000 0080 bf61 bdbf 0000 0060 0cff d7bf
00000690: 0000 0000 dcd4 983f 0000 0040 5d41 c0bf
000006a0: 0000 00c0 9d6e cdbf 0000 0000 08a9 c53f
000006b0: 0000 0000 46ba b4bf 8ae4 b90e e69f c13f
000006c0: ca8a e0d1 a0d2 98bf a13d a10e a422 dbbf
000006d0: 8126 1ca5 419d cb3f db14 cff9 fd7d c1bf
000006e0: 19ba 7f2c 3df2 b8bf 1b91 8279 4c83 dd3f
000006f0: b559 e10a 1727 db3f e1c7 f011 cbe9 d33f
00000700: 5092 0661 35cd d4bf aad0 088b 1d94 dbbf
00000710: b93a 624d 463c a53f c389 66fd 8f91 d0bf
00000720: c087 ee4b 70ce db3f 7250 361b b0ab d53f
00000730: 5256 043d e77b cb3f fe20 67f8 437b cfbf
00000740: 024e df74 3cc8 5e3f c013 7225 1be8 d13f
00000750: 05cf 4b19 b63a c43f 7fb1 9af2 0e7b ba3f
00000760: 7d25 86d7 e893 d53f cc31 b202 bdf9 b93f
00000770: a6ec d901 239a d83f f03e a7b3 2390 b1bf
00000780: 3819 21e0 071d 9e3f aef5 9057 f294 d13f
00000790: c79b 9c94 afae d83f 6db3 7575 f526 c83f
000007a0: be69 8c81 214a 683f 0000 0000 8507 b23f
000007b0: 0000 0000 4f03 b9bf 0000 0000 8cdd 9bbf
000007c0: 0000 0080 ed0c cd3f 0000 0000 6803 89bf
000007d0: 1d47 eb06 10ed cd3f 22b9 0bc6 e943 d1bf
000007e0: f662 0762 031c d1bf 69fb 0a78 d2fc b73f
000007f0: 38d2 c6d8 4845 cabf 43d0 95f2 6b00 c43f

fc1.bias f8 [64]
-0.25726297239023455 0.16295605897903442 0.27400347518625234 0.06451404094696045 -0.38506436347961426 -0.16104370099050075 -0.2024284661695766 -0.2740658223628998
-0.4114998081942656 -0.03152326845047361 0.16526562118221996 -0.07524298125716841 -0.20395055413246155 -0.2537824439797739 -0.09046811792505292 0.21260493993759155
-0.16524543804087252 -0.04049620428350469 -0.22168532013893127 -0.2337361755198315 0.05755662717110367 0.05535346269607544 0.04343867301940918 -0.08472855767080256
-0.2567555606365204 0.273461991372806 -0.37204283475875854 -0.24961154162883759 -0.25386876561972693 -0.3390759229660034 -0.32782331109046936 -0.1563149392604828
-0.14064538126767903 -0.44944620352581693 -0.13466614484786987 -0.004641890525817871 -0.04813822952187779 0.26364399214577566 -0.11140415789813947 0.126050363534403
-0.03874775986148331 -0.2067943662405014 0.03128430247306824 0.3184006301577828 0.29422369663454306 0.10289605210194544 -0.4859078570840757 -0.015333977589846327
-0.11961021716367594 -0.44391533732414246 0.5165023716790337 0.4363637062866648 0.07824298083741141 -0.26109030842781067 -0.3221997916698456 0.05373257398605347
-0.27070410386500116 0.07884544279014569 -0.2890077829360962 -0.4072568089798156 -0.2622549533843994 -0.20650045080379859 -0.2349539805617578 0.4012284424280191
00000000: dad1 381d ff76 d0bf 0000 0080 bedb c43f
00000010: 4c94 3adf 4589 d13f 0000 0000 fe83 b03f
00000020: 0000 0000 e5a4 d8bf 8691 7d7a 149d c4bf
00000030: b227 fd0c 2de9 c9bf 0000 0060 4b8a d1bf
00000040: 154c a04a 0356 dabf a299 1d5e d123 a0bf
00000050: bbbc 1083 6c27 c53f cec9 c0bf 1f43 b3bf
00000060: 0000 0040 0d1b cabf 0e4b 4cb8 f83d d0bf
00000070: 279b d127 eb28 b7bf 0000 0080 a336 cb3f
00000080: 5f70 1934 c326 c5bf e702 0522 ebbb a4bf
00000090: 0000 0040 2f60 ccbf 30f9 df26 11eb cdbf
000000a0: a264 bcee 0f78 ad3f 0000 0000 4a57 ac3f
000000b0: 0000 0000 983d a63f a0bc 3b50 c5b0 b5bf
000000c0: 0000 00e0 ae6e d0bf 8c4b 69b9 6680 d13f
000000d0: 0000 00c0 8ccf d7bf 0000 0060 45f3 cfbf
000000e0: e801 74c7 623f d0bf 0000 0080 6bb3 d5bf
000000f0: 0000 00a0 0efb d4bf 0000 00c0 2002 c4bf
00000100: a566 70f8 aa00 c2bf 851a 5d02 bac3 dcbf
00000110: 0000 0080 bd3c c1bf 0000 0000 6003 73bf
00000120: 87b5 f7f2 92a5 a8bf 2564 030d 8bdf d03f
00000130: 0d99 cf9e fb84 bcbf e7bb 8316 6b22 c03f
00000140: 36f2 cb12 bfd6 a3bf 0000 00e0 3c78 cabf
00000150: 0000 0000 7f04 a03f 076c 6309 ad60 d43f
00000160: c83a b0a0 8fd4 d23f 8a55 aa4a 6557 ba3f
00000170: 3eea c244 1d19 dfbf babd 20a2 6b67 8fbf
00000180: 3146 fc72 c69e bebf 0000 00e0 1b69 dcbf
00000190: 535f 55fb 2f87 e03f a167 ea09 62ed db3f
000001a0: ae96 d663 bb07 b43f 0000 0020 b4b5 d0bf
000001b0: 0000 00e0 eb9e d4bf 0000 0000 d682 ab3f
000001c0: 0d90 3f4e 3753 d1bf 9ee9 3806 372f b43f
000001d0: 0000 0080 1a7f d2bf 6b10 e9dc 7e10 dabf
000001e0: 0000 0000 c9c8 d0bf 96e1 6755 9b6e cabf
000001f0: 5af4 49d7 f812 cebf dd03 9d0f baad d93f

fc2.weight f8 [128, 64]
0.16754991716039846 0.04848848283290863 -0.22845241061748384 0.08302196860313416 -0.07802818715572357 0.005151867053236367 -0.09228580082743555 0.08403293788433075
-0.009589608613617254 -0.09266119061661093 0.2247664143116998 0.0004417684358285156 0.045676231384277344 0.1589481699242282 0.059721765550615945 -0.11497291922569275
0.07790762596703242 -0.043520774524171385 -0.10099020600318909 0.07876140137226446 -0.3247211954902284 0.12457859516143799 -0.06810134649276733 -0.07159882601347677
0.05323682725429535 -0.06983576825441824 -0.11731952428817749 0.11162075400352478 -0.03990387955933264 0.12082524597644806 -0.025568649172782898 0.032455697655677795
0.09322406911910074 0.0743004079776521 0.06213757395744324 0.0795111209154129 -0.044025497254399554 0.14349991989840094 -0.06986668271848558 0.09906900971706972
-0.1749646441524808 -0.09662874042987823 -0.055537447333335876 -0.12900857133448518 0.14121821186885133 0.2187567299234426 0.10445101587975619 0.15149226391355997
-0.034206680747431065 -0.1192178875207901 -0.14745139435468002 0.09504215457358035 0.14071384917989402 -0.0378129780292511 0.04424102604389191 -0.07410448789596558
-0.03732792534279628 0.26780575030773723 -0.06127724051475525 0.20920695003394493 0.021099820733070374 -0.03669768528854571 0.1297365378186299 -0.09788571680191414
0.14683129568602718 0.04754680395126343 -0.061268599705937225 -0.11506190896034241 0.09858828783035278 0.16217482252402526 0.07561726501156966 -0.03155797719955444
-0.12250933564954439 0.14807536068986243 0.12402177556217335 0.14779471899341154 -0.07030391693115234 0.09725924094210538 -0.00278569506201109 -0.05682685971260071
0.12411837748985087 0.12685589800194916 0.017434626817703247 0.15106801807753295 -0.31505363247913326 0.12297642230987549 -0.11962990462779999 0.05480101036129376
0.048812225461006165 0.0006921816354199991 -0.07497991621494293 0.012364953756332397 -0.12487389601722479 -0.10351784527301788 0.10684394836425781 0.08454196155071259
0.06704161625491667 0.008434855081060979 -0.0659954845905304 0.06951664388179779 -0.18936513348855294 -0.006163445606534987 -0.053707160398970846 0.06457290384894303
-0.1973940309810997 -0.02407267689704895 0.0528220534324646 -0.1029268260932539 0.14386560989266436 0.16213733826935717 -0.07240353261653369 0.01895745170845179
0.10216828624503252 -0.02115313708782196 -0.2865317908898027 -0.011503611807837998 0.10035017942454603 -0.0010669082403182983 0.04069015383720398 -0.03737284243106842
0.0733280181066243 0.3777207164435645 0.024788275361061096 0.03021175976488047 0.07572837173938751 -0.035676753026959364 -0.02131795266569354 -0.14689157525094793
0.05128578841686249 0.11469148099422455 0.05626752972602844 -0.020994439721107483 -0.04542633891105652 0.024455711245536804 0.023697972297668457 -0.030291587114334106
0.11601851880550385 0.11583957076072693 0.014417141675949097 -0.036647602915763855 0.12222687900066376 0.0925413966178894 0.010417655110359192 0.11615128815174103
-0.09335191547870636 0.0029187947511672974 0.059048011898994446 0.009012162685394287 -0.1069951206445694 0.0514325350522995 0.010655850172042847 0.04085114598274231
-0.054498255252838135 -0.040580183267593384 -0.07728274166584015 -0.034776076674461365 0.00675007700920105 0.0437106192111969 -0.026751816272735596 -0.006144657731056213
0.00866323709487915 -0.020519152283668518 0.08007848262786865 -0.015260085463523865 0.08058206737041473 -0.06079699099063873 0.0950978696346283 0.049122899770736694
0.023044317960739136 0.013670369982719421 0.020310774445533752 0.10971090197563171 0.1072588562965393 0.11532142758369446 -0.05211260914802551 0.1025560200214386
-0.10017463564872742 -0.11907222867012024 0.10334251821041107 -0.08588787913322449 -0.044569388031959534 -0.11070370674133301 0.0897010862827301 -0.029435500502586365
-0.038821861147880554 0.008426100015640259 -0.0961381047964096 0.07351963222026825 0.0771975964307785 -0.07047675549983978 0.01842452585697174 -0.0614202618598938
-0.10520830750465393 0.01570376753807068 -0.07842087745666504 0.027011752128601074 -0.03354214131832123 -0.06039923429489136 0.06900322437286377 -0.08737963438034058
-0.01917882263660431 -0.10362283885478973 0.01719948649406433 0.10872858762741089 0.006345480680465698 -0.10763430595397949 -0.07922659814357758 -0.0721343457698822
0.07124049961566925 0.07701495289802551 -0.05910086631774902 0.03623458743095398 0.002151176333427429 0.004817202687263489 -0.07734706997871399 0.1110992580652237
0.022838890552520752 0.07761023938655853 -0.04409131407737732 0.04642479121685028 -0.08146217465400696 0.09533855319023132 0.07211227715015411 -0.009176477789878845
-0.07471226155757904 -0.09257663786411285 0.004039481282234192 -0.052190497517585754 0.017168685793876648 -0.1005190759897232 0.10775859653949738 -0.10661697387695312
0.0034256279468536377 -0.06597594916820526 -0.04985387623310089 0.0818420946598053 -0.08196958899497986 -0.08751511573791504 -0.0676000565290451 -0.09712125360965729
-0.008934259414672852 -0.0310785174369812 0.030491948127746582 0.059211328625679016 0.06194591522216797 0.10446573793888092 0.0017051398754119873 0.04514715075492859
0.08282795548439026 0.031386032700538635 -0.024935752153396606 -0.02411876618862152 -0.006971403956413269 0.036908313632011414 -0.09980732202529907 -0.10238665342330933
00000000: c061 5393 4672 c53f 0000 0080 7bd3 a83f
00000010: beb0 25b8 ed3d cdbf 0000 0080 ed40 b53f
00000020: 0000 00c0 a7f9 b3bf a3a1 1cc8 1f1a 753f
00000030: a962 70d0 0aa0 b7bf 0000 00c0 2e83 b53f
00000040: c8f1 037b b7a3 83bf 3888 4ecf a4b8 b7bf
00000050: ae9d 5a57 25c5 cc3f 9855 fafb a4f3 3c3f
00000060: 0000 0000 e062 a73f c3b3 cae3 6958 c43f
00000070: c36d cceb d993 ae3f 0000 0080 dd6e bdbf
00000080: f32c a311 c1f1 b33f b449 8ede 5a48 a6bf
00000090: 0000 0080 7eda b9bf c5bc 140b b529 b43f
000000a0: 1ab5 bc68 3bc8 d4bf 0000 0000 62e4 bf3f
000000b0: 0000 0000 176f b1bf afed 28f8 4c54 b2bf
000000c0: 0000 0080 db41 ab3f 2567 bec4 c1e0 b1bf
000000d0: 0000 0000 a708 bebf 0000 0080 2d93 bc3f
000000e0: f4b7 6103 486e a4bf 0000 0040 67ee be3f
000000f0: 0000 0000 ab2e 9abf 0000 0080 089e a03f
00000100: 770b 1158 88dd b73f dded 57fe 5905 b33f
00000110: 0000 0000 7fd0 af3f 0000 0040 d75a b43f
00000120: 54aa cb8d 828a a6bf b49b 7893 345e c23f
00000130: 851c 5b6d c8e2 b1bf f42b c82c 965c b93f
00000140: e0ab 4bd0 3d65 c6bf 0000 0040 a9bc b8bf
00000150: 0000 0080 676f acbf 9c84 6455 5a83 c0bf
00000160: b5c4 c938 7013 c23f 238a 6674 3800 cc3f
00000170: bcce 3c41 4dbd ba3f ec88 8d37 1964 c33f
00000180: 02d8 3abe 8983 a1bf 0000 0040 1085 bebf
00000190: a860 40f2 afdf c2bf 1989 a2c1 ae54 b83f
000001a0: b734 2952 e902 c23f 0000 0000 395c a3bf
000001b0: 0000 0080 c2a6 a63f 0000 0000 83f8 b2bf
000001c0: 6151 2655 a51c a3bf 8628 d0ba ba23 d13f
000001d0: 0000 0000 bb5f afbf 03f0 3e18 4bc7 ca3f
000001e0: 0000 0000 319b 953f c670 4efc 09ca a2bf
000001f0: ff7d 83f5 349b c03f a7e4 68d0 090f b9bf
00000200: f919 802e 5ecb c23f 0000 0000 0e58 a83f
00000210: 5f76 0410 995e afbf 0000 0080 b274 bdbf
00000220: 0000 0000 153d b93f 64d6 7c03 25c2 c43f
00000230: 13d7 3c30 a75b b33f 0000 0000 5e28 a0bf
00000240: 72c9 1196 c55c bfbf 82d0 c027 22f4 c23f
00000250: f308 081e e4bf bf3f 3b92 4cf6 efea c23f
00000260: 0000 0000 70ff b1bf 3183 144b fbe5 b83f
00000270: f4d1 03a6 06d2 66bf 0000 0000 6918 adbf
00000280: 2fc8 26d4 38c6 bf3f ff8d 9c66 d03c c03f
00000290: 0000 0000 62da 913f 46a9 8e62 3256 c33f
000002a0: e7f7 feb5 d629 d4bf 0000 0000 627b bf3f
000002b0: 0000 00c0 10a0 bebf 293b 94c6 e00e ac3f
000002c0: 0000 0080 eafd a83f abb1 56be 70ae 463f
000002d0: 0000 0040 e231 b3bf 0000 0000 cc52 893f
000002e0: 3aa1 8453 bcf7 bfbf 0000 0040 2580 babf
000002f0: 0000 0000 205a bb3f 0000 00c0 8aa4 b53f
00000300: 682d 49ad a329 b13f 2edb c115 4b46 813f
00000310: 0000 0080 14e5 b0bf 0000 00c0 d7cb b13f
00000320: 5a02 abdf 1d3d c8bf 4acd f854 d73e 79bf
00000330: 92ff f242 817f abbf ab2c 3d8e d987 b03f
00000340: c6a5 be25 3544 c9bf 0000 0000 82a6 98bf
00000350: 0000 0000 7e0b ab3f 629c f397 6959 babf
00000360: 0309 c134 306a c23f 88e7 a992 eac0 c43f
00000370: 0bf0 b3b4 0989 b2bf 6ac7 690c 9569 933f
00000380: 2a5c 1c68 b327 ba3f 0000 0000 2ba9 95bf
00000390: 71b4 c86f 8956 d2bf 061d 01a4 348f 87bf
000003a0: 3fb2 c6a2 8cb0 b93f 0000 0000 f07a 51bf
000003b0: 0000 0000 57d5 a43f 0000 0080 8822 a3bf
000003c0: a300 a6ff 9fc5 b23f 2765 0983 932c d83f
000003d0: 0000 0000 1962 993f a83e 94e0 d4ef 9e3f
000003e0: 0000 0040 ef62 b33f 6dde f42e 3944 a2bf
000003f0: d33b 1196 5fd4 95bf 1260 e1d7 57cd c2bf
00000400: 0000 0080 2142 aa3f 0000 00c0 6b5c bd3f
00000410: 0000 0000 19cf ac3f 0000 0000 917f 95bf
00000420: 0000 0000 1f42 a7bf 0000 0000 eb0a 993f
00000430: 0000 0000 4844 983f 0000 0000 c204 9fbf
00000440: 0000 00c0 63b3 bd3f 0000 0080 a9a7 bd3f
00000450: 0000 0000 bc86 8d3f 0000 0080 79c3 a2bf
00000460: 0000 00c0 424a bf3f 0000 0000 cbb0 b73f
00000470: 0000 0000 da55 853f 0000 0040 17bc bd3f
00000480: 0000 0040 e9e5 b7bf 0000 0000 28e9 673f
00000490: 0000 0080 8a3b ae3f 0000 0000 f874 823f
000004a0: 0000 0040 0864 bbbf 0000 0080 5d55 aa3f
000004b0: 0000 0000 bcd2 853f 0000 0000 71ea a43f
000004c0: 0000 0000 32e7 abbf 0000 0000 edc6 a4bf
000004d0: 0000 0040 cdc8 b3bf 0000 0080 2bce a1bf
000004e0: 0000 0000 f8a5 7b3f 0000 0000 3d61 a63f
000004f0: 0000 0000 d464 9bbf 0000 0000 242b 79bf
00000500: 0000 0000 08be 813f 0000 0000 f902 95bf
00000510: 0000 0000 0680 b43f 0000 0000 ae40 8fbf
00000520: 0000 00c0 06a1 b43f 0000 0080 c820 afbf
00000530: 0000 0080 5558 b83f 0000 0000 a326 a93f
00000540: 0000 0000 ee98 973f 0000 0000 36ff 8b3f
00000550: 0000 0000 59cc 943f 0000 0080 0316 bc3f
00000560: 0000 0000 5175 bb3f 0000 0080 b485 bd3f
00000570: 0000 0000 81ae aabf 0000 0080 1c41 ba3f
00000580: 0000 0080 0ba5 b9bf 0000 0080 847b bebf
00000590: 0000 00c0 a774 ba3f 0000 0080 bffc b5bf
000005a0: 0000 0080 ccd1 a6bf 0000 0000 1457 bcbf
000005b0: 0000 0080 a6f6 b63f 0000 0000 5724 9ebf
000005c0: 0000 0080 75e0 a3bf 0000 0000 b441 813f
000005d0: 0000 00c0 819c b8bf 0000 00c0 2ed2 b23f
000005e0: 0000 00c0 38c3 b33f 0000 00c0 c30a b2bf
000005f0: 0000 0000 e1dd 923f 0000 0000 7a72 afbf
00000600: 0000 0080 eeee babf 0000 0000 a614 903f
00000610: 0000 0000 6413 b4bf 0000 0000 f8a8 9b3f
00000620: 0000 0080 6f2c a1bf 0000 0000 a6ec aebf
00000630: 0000 0000 32aa b13f 0000 0000 835e b6bf
00000640: 0000 0000 9da3 93bf 0000 00c0 0687 babf
00000650: 0000 0000 be9c 913f 0000 0000 a3d5 bb3f
00000660: 0000 0000 b8fd 793f 0000 0000 ec8d bbbf
00000670: 0000 00c0 3148 b4bf 0000 0080 6577 b2bf
00000680: 0000 0040 d13c b23f 0000 0080 40b7 b33f
00000690: 0000 0000 7842 aebf 0000 0000 578d a23f
000006a0: 0000 0000 589f 613f 0000 0000 34bb 733f
000006b0: 0000 0080 04cd b3bf 0000 0040 0071 bc3f
000006c0: 0000 0000 1463 973f 0000 00c0 43de b33f
000006d0: 0000 0000 2393 a6bf 0000 0080 fdc4 a73f
000006e0: 0000 0080 b4da b4bf 0000 0080 1b68 b83f
000006f0: 0000 0040 f375 b23f 0000 0000 1ecb 82bf
00000700: 0000 00c0 5720 b3bf 0000 0040 1ab3 b7bf
00000710: 0000 0000 b48b 703f 0000 0080 b6b8 aabf
00000720: 0000 0000 ab94 913f 0000 0040 9ebb b9bf
00000730: 0000 0040 1196 bb3f 0000 0000 404b bbbf
00000740: 0000 0000 1010 6c3f 0000 00c0 cce3 b0bf
00000750: 0000 0080 7286 a9bf 0000 0080 9af3 b43f
00000760: 0000 0080 f5fb b4bf 0000 0000 6467 b6bf
00000770: 0000 00c0 3c4e b1bf 0000 0040 f0dc b8bf
00000780: 0000 0000 204c 82bf 0000 0000 0cd3 9fbf
00000790: 0000 0000 4839 9f3f 0000 0080 f250 ae3f
000007a0: 0000 0000 60b7 af3f 0000 0040 44be ba3f
000007b0: 0000 0000 e0ef 5b3f 0000 0000 871d a73f
000007c0: 0000 0080 3634 b53f 0000 0080 d411 a03f
000007d0: 0000 0000 c288 99bf 0000 0000 97b2 98bf
000007e0: 0000 0000 0c8e 7cbf 0000 0080 a5e5 a23f
000007f0: 0000 0000 f98c b9bf 0000 0000 0336 babf

fc2.bias f8 [128]
-0.01765565830349926 0.05517816202997963 -0.0954146683216095 0.013235166668891907 -0.004814160405074499 0.03480234697243853 -0.06638862192630768 -0.044246748089790344
-0.07273711264133453 -0.04932020555731277 -0.015127554535865784 -0.04607058850970801 0.05375269007327081 -0.14598217079651415 0.044303812245505364 -0.09866594755714009
0.1271139205634166 -0.1678960533368723 0.04336322939629514 -0.1099620908498764 -0.04715263843536377 0.0924632454048469 -0.02227552477783288 0.04804271459579468
0.15117312802156782 -0.0333428829908371 -0.0676171128062435 -0.010589758144887022 0.0753953201562684 -0.13935606863846212 -0.03419415698371916 0.0215887962141911
-0.057813555002212524 -0.03090478074493138 0.05265962282885856 -0.004642108363116175 -0.0557059406525327 -0.07416805624961853 -0.03425891697406769 -0.03704369068145752
-0.1227893014532068 -0.1573793731969846 0.13221369458640675 0.03277561068534851 -0.09470455348491669 0.026620564401570613 -0.163692362025602 -0.019703048335483638
-0.09186575886764668 0.14782874538184587 -0.1164550632238388 -0.01989637315273285 0.03011456606661632 -0.03575600731209083 -0.04316615073321329 0.0105724036693573
-0.040436261358087325 -0.046863749623298645 -0.01932463049888611 -0.05828937888145447 -0.0634056709471736 -0.07057252526283264 -0.10219327202344679 -0.059964388608932495
-0.04321661591529846 0.1421044816606845 -0.023861531238098074 0.14713526754717918 0.05278871793610834 0.04929329089305102 0.10255411904684908 -0.09332791158984749
-0.05709615349769592 -0.0206896717083234 0.09941698248943431 0.06237573304724966 0.09654158033285413 -0.048286423087120056 0.1262575387710643 -0.0009809881448745728
-0.002176821231842041 0.039473116397857666 -0.08519184139760354 -0.1400787425053629 -0.10925917327404022 0.01866726448662658 -0.10208872295308218 0.04456733077749601
0.021215494441922077 0.11157701909542084 -0.13934042059453827 -0.17237606790951415 0.012959107756614685 -0.05221007508901479 0.059682212077629006 -0.06838804794994646
0.1067010493030501 -0.09230977296829224 -0.0979519962880505 -0.08500901489924487 0.0014853706392474123 -0.049078641314813744 0.032508661975792164 0.022789052091490025
0.01174890241048779 0.12989229578902028 -0.014232716310075829 -0.1732286402310446 0.01268632709980011 0.07316759424183972 0.023183129866789182 0.1400474174761824
-0.03869969809194648 -0.06111308932304382 -0.0789613146206488 -0.01435672413169842 -0.06803197883669376 0.04876459345797565 -0.013203525003061899 -0.11474618970367514
0.11020705332135881 -0.14869358047581202 0.09516884084476525 0.09212315082550049 0.08609151548019134 0.11911004640239117 0.06447820528155256 -0.024409249424934387
00000000: 05f3 022c 5314 92bf a48a bee2 4f40 ac3f
00000010: 0000 0080 186d b8bf 0000 0000 0a1b 8b3f
00000020: 4fbb f557 03b8 73bf 9c2e 24fc 9cd1 a13f
00000030: 0000 0040 d8fe b0bf 0000 0080 82a7 a6bf
00000040: 0000 0040 e69e b2bf c222 cd7b 7f40 a9bf
00000050: 0000 0000 32fb 8ebf 8ed0 e96d 9096 a7bf
00000060: 069a dffb 7885 ab3f ea5f af34 8baf c2bf
00000070: cc79 5d41 fdae a63f d09c fce9 2b42 b9bf
00000080: efd5 d7d9 4445 c03f 98cb 1a2d 9e7d c5bf
00000090: 044a 3688 b433 a63f 0000 00c0 7926 bcbf
000000a0: 0000 0000 6424 a8bf f488 18d7 abab b73f
000000b0: 9a28 b029 65cf 96bf 0000 0000 0e99 a83f
000000c0: e97d 711c a459 c33f 0000 0080 5112 a1bf
000000d0: 301b 27e8 5a4f b1bf 6f1c 3d47 15b0 85bf
000000e0: 1ab6 5792 1b4d b33f da91 a66e 6bd6 c1bf
000000f0: bb31 eb83 e581 a1bf 27c2 cc96 5f1b 963f
00000100: 0000 0000 bd99 adbf f6ad 5bba 80a5 9fbf
00000110: c941 bdbb 33f6 aa3f 7847 aa79 9a03 73bf
00000120: a751 9732 7d85 acbf 0000 0080 adfc b2bf
00000130: 0000 0080 628a a1bf 0000 0000 64f7 a2bf
00000140: 1a4b 0aa2 1e6f bfbf 7117 79de 0125 c4bf
00000150: 507d 2adb 60ec c03f 0000 0000 f7c7 a03f
00000160: 0000 00c0 8e3e b8bf 6df2 05d6 6b42 9b3f
00000170: 4ca2 c00e dff3 c4bf bffc ed30 092d 94bf
00000180: 9771 f5ad 8384 b7bf 4870 6965 0dec c23f
00000190: 0000 00c0 ffcf bdbf 0000 0000 b75f 94bf
000001a0: 5cb1 8e51 5ad6 9e3f a0f9 1484 9c4e a2bf
000001b0: c1ff 62ab df19 a6bf 0000 0000 fca6 853f
000001c0: 4203 36c8 0fb4 a4bf 0000 0080 86fe a7bf
000001d0: 0000 0000 d6c9 93bf 0000 0000 1bd8 adbf
000001e0: 355b 19a3 5a3b b0bf 0000 0080 0a11 b2bf
000001f0: 6b41 3699 5629 babf 0000 0000 a7b3 aebf
00000200: 0000 0000 7d20 a6bf 8280 acca 7a30 c23f
00000210: fc50 3341 286f 98bf 3307 1a15 54d5 c23f
00000220: f846 4472 1f07 ab3f 4182 9860 f83c a93f
00000230: b055 609b fc40 ba3f 7c16 1588 56e4 b7bf
00000240: 0000 0000 b53b adbf caad 685d ac2f 95bf
00000250: 3889 7530 6473 b93f 6301 014b b6ef af3f
00000260: 0bd8 3bf2 f2b6 b83f 0000 0080 ffb8 a8bf
00000270: 0995 f2ff 3429 c03f 0000 0000 9012 50bf
00000280: 0000 0000 20d5 61bf 0000 0000 d235 a43f
00000290: 5b50 b0ec 21cf b5bf 8071 f6a8 19ee c1bf
000002a0: 0000 00c0 68f8 bbbf 7d43 e7e9 821d 933f
000002b0: 6bb7 5f8e 7c22 babf 9597 5178 87d1 a63f
000002c0: 46a4 2fbb 83b9 953f 0000 00c0 4f90 bc3f
000002d0: 5672 bb2a e8d5 c1bf 7a68 2443 6b10 c6bf
000002e0: 0000 0000 4e8a 8a3f 14dc 0e6a 47bb aabf
000002f0: 1d7e 0dba aa8e ae3f 68de 610d e181 b1bf
00000300: 969a 348d c250 bb3f 0000 0000 9da1 b7bf
00000310: 4795 a2cc 6113 b9bf c280 db9a 26c3 b5bf
00000320: e336 5a94 1856 583f ad2b c2ee d520 a9bf
00000330: 60a5 0bb0 f9a4 a03f 5358 c265 0356 973f
00000340: 917e effc ce0f 883f 1046 358d 4fa0 c03f
00000350: be1f aed8 0a26 8dbf f1ed 4228 5b2c c6bf
00000360: 0000 0000 4afb 893f 904c 6588 1cbb b23f
00000370: 651a 6382 51bd 973f fb87 f9e2 12ed c13f
00000380: 1c08 5763 72d0 a3bf 0000 0000 374a afbf
00000390: e7e1 f107 cf36 b4bf 0299 fce4 0e67 8dbf
000003a0: 388e 2f34 8b6a b1bf 9ca0 353c acf7 a83f
000003b0: 4cfb a320 730a 8bbf 7a2e 1e9c 0160 bdbf
000003c0: 7fc3 cd89 8736 bc3f 9f66 a228 6408 c3bf
000003d0: 6dc8 0633 fc5c b83f 0000 0000 6295 b73f
000003e0: f053 73f3 170a b63f 365e ecf9 fe7d be3f
000003f0: e731 fdc6 a481 b03f 0000 0000 bdfe 98bf

fc3.weight f8 [64, 128]
0.06786265174908401 -0.05204454813866427 0.06604767590761185 0.01786002516746521 -0.01704954259793986 0.06339162673581583 0.0023756399750709534 -0.0663505494594574
0.050822071731090546 0.009167216718196869 -0.07804253697395325 0.058533452451229095 -0.042656105397636264 -0.058010730892419815 -0.012140774534800208 0.024836033582687378
-0.04807697850578387 0.008677065372467041 -0.02501729130744934 -0.0874214842915535 -0.08062593638896942 -0.07610055072740492 -0.03006502240896225 0.0031182467937469482
-0.023947136400327064 -0.06485223025083542 0.029293134808540344 0.06011860817670822 -0.08597082952150466 0.040139056742191315 0.06365952640771866 0.014709025621414185
-0.032623935490846634 0.008565522730350494 -0.01448085904121399 -0.06644805520772934 -0.02327858656644821 -0.03797738626599312 -0.02580568939447403 -0.004791088402271271
0.01666373759508133 0.03995669633150101 0.06723209257668526 0.04126507788896561 0.01539059728384018 -0.010422095656394958 -0.03929447382688522 -0.06521560996770859
-0.03109651431441307 0.027433656157830836 0.05422230809926987 -0.027247272431850433 0.05326369462659829 -0.011107006294864896 0.08319676667451859 0.032581329345703125
0.061544276773929596 -0.021692350506782532 -0.08063434064388275 -0.04421988129615784 0.008777156472206116 0.03653109818696976 -0.04375115782022476 -0.03575069457292557
0.040060438215732574 -0.028734286005938317 -0.024308308959007263 -0.054849193217914725 -0.0461857213276681 -0.07186873322719883 0.06030719824195061 0.04561062902212143
0.07363083213567734 -0.032958166338989826 0.00454463341713338 -0.05984385684132576 0.035223657102076415 -0.00019861012697219849 -0.011902594223259877 -0.06728526949882507
-0.044808611273765564 -0.017688095569610596 -0.06433650851249695 0.06891421228647232 0.03760550171136856 -0.040938835591077805 -0.011077702045440674 -0.09333593695268151
-0.094793333524392 -0.04349614679813385 -0.00960637629032135 -0.05857204273343086 -0.04578039050102234 -0.08630538731813431 -0.03138919594798473 -0.05570542439818382
-0.027881705324549186 0.08302933722734451 -0.053229447454214096 0.05552021414041519 -0.03526216000318527 -0.0587900860350358 0.029797233641147614 -0.08701277524232864
-0.04865783080458641 0.01885584031096655 0.05172955244779587 -0.010617777705192566 -0.013328500092029572 -0.1019962325998766 -0.042970966547727585 -0.014046573063702699
0.06976603388362934 0.060747407376766205 0.05455386902507582 -0.02083909511566162 0.06186116486787796 -0.0851067528128624 -0.017286047339439392 -0.029787201434373856
0.04891209592623029 0.08647087961435318 -0.03950676402959652 -0.08270173519849777 -0.07481736670804044 -0.03456696528974004 -0.031421540406390384 -0.061476774513721466
0.006521841978005332 -0.06572618689591098 -0.07332978397607803 -0.0475492924451828 -0.14395337990986404 -0.11124830125494704 0.003832809627056122 -0.06956294924020767
-0.039431314915418625 0.03262864796889863 0.043293945491313934 0.03848017007112503 -0.0002458872792495767 0.025393683119616494 -0.07841895004617017 0.02198715571915893
0.004693107666565769 0.022393574059162546 0.13111614224572368 -0.033302269876003265 0.025907032191753387 -0.07344093497035321 0.10312476560619739 0.0053833648562431335
-0.052583251886584186 -0.011640369892120361 -0.0072493404150009155 0.05029637843337052 -0.06160369688537222 0.061585508180289524 -0.027066384746767893 0.011145529554656865
0.08470744639635086 -0.0030925788859164135 0.040356048980257964 0.135740206353084 0.03855528901616478 -0.05992360785603523 0.08348754793405533 -0.07899124175310135
-0.1416263527390221 0.02984361060989447 0.033587987265448295 0.08095332235097885 -0.06944087147712708 0.06346396635110721 0.05224648679140962 0.04754097212605254
0.034095716798164206 -0.10308072722858508 0.04437144845724106 0.0033841729164123535 0.053190125044971615 0.006250861758148702 0.05044884114569979 0.06298369914293289
-0.004827174876750457 0.04826918989419937 -0.022922120988368988 0.004500672221183777 0.04100771813378785 0.0030692368745803833 0.14379995204297488 -0.05488453060388565
0.08532261103391647 -0.0617854435466001 0.028992807825516234 -0.03405938338934684 0.04968907836085862 -0.023960094900781746 -0.004157230257987976 0.11179026323522939
0.06810916215181351 0.025438426139514553 0.017571942372471627 0.08466157151395252 -0.04444059802252691 -0.048373930156230927 0.004213749878220089 -0.03792813792824745
0.05243251472711563 0.06026030331850052 0.09574077411503615 0.016815491986658184 0.034240394830703735 0.1240485924164882 0.07250676048564672 0.09412980225007962
0.020205094701826996 0.04430093616247177 0.09470595209281045 0.09831686025332761 0.01743505150079727 -0.0019850194343160143 -0.08178137384561175 0.007735897665592386
-0.07017537947399885 0.08324842900037766 0.02631886253068897 -0.010872491351484038 0.116635284501367 0.01831351448814829 0.047033520697396615 0.05688942004810852
-0.013810588607799932 -0.02954926519030792 0.016198575577426166 0.13368741784022292 0.008022651076316833 -0.08061988514593549 0.09863016789483231 -0.026174405613211105
0.05941207011762786 -0.023695193231105804 -0.12265024781539895 0.08371477574110031 -0.0716143994790119 0.10862689550837609 0.036592356860637665 0.08559515599336552
-0.02115124419617047 -0.06053120642900467 -0.09495024171856362 -0.06253726035356522 0.01916337013244629 -0.039479854499196596 -0.050724921795917526 -0.013109229505062103
00000000: c8d4 e15d 725f b13f 489e 6140 95a5 aabf
00000010: 0000 0020 80e8 b03f 0000 0000 e649 923f
00000020: d7c9 7a6f 6f75 91bf 5caa ab03 6f3a b03f
00000030: 0000 0000 1476 633f 0000 0080 59fc b0bf
00000040: 0000 00c0 5905 aa3f 0000 0000 43c6 823f
00000050: 0000 0080 98fa b3bf 0000 00c0 18f8 ad3f
00000060: e9ad 5063 05d7 a5bf 0000 0020 95b3 adbf
00000070: b6c1 992c 43dd 88bf 0000 0000 9e6e 993f
00000080: 73e4 beb4 8b9d a8bf 0000 0000 48c5 813f
00000090: 0000 0000 229e 99bf 0000 0020 4161 b6bf
000000a0: 0000 00c0 e6a3 b4bf 65f0 9460 537b b3bf
000000b0: 0000 0080 5dc9 9ebf 0000 0000 708b 693f
000000c0: da63 b01e 9985 98bf 0000 00e0 279a b0bf
000000d0: 0000 0000 05ff 9d3f 0000 00c0 ddc7 ae3f
000000e0: 4d71 342d 2f02 b6bf 0000 0040 1b8d a43f
000000f0: 0000 00a0 fd4b b03f 0000 0000 c41f 8e3f
00000100: 0000 00a0 15b4 a0bf 0000 0000 cd8a 813f
00000110: 0000 0000 24a8 8dbf 0000 0060 bd02 b1bf
00000120: 0000 0080 57d6 97bf 0000 00a0 c571 a3bf
00000130: 0000 0080 ce6c 9abf 0000 0000 d29f 73bf
00000140: 0000 0080 4c10 913f 0000 0040 3475 a43f
00000150: 27c7 db56 1f36 b13f 0000 0040 b220 a53f
00000160: 0000 0000 1b85 8f3f 0000 0000 2e58 85bf
00000170: 0000 00c0 671e a4bf 0000 0060 f8b1 b0bf
00000180: 0000 00c0 c3d7 9fbf 51c6 0780 9117 9c3f
00000190: 0000 00c0 06c3 ab3f 0000 0080 b5e6 9bbf
000001a0: 7e82 f804 6145 ab3f a6e1 5726 45bf 86bf
000001b0: 0000 0020 624c b53f 0000 0000 80ae a03f
000001c0: 0000 0040 bb82 af3f 0000 0000 8536 96bf
000001d0: 0000 00c0 73a4 b4bf 0000 0000 fda3 a6bf
000001e0: 0000 0000 c2f9 813f 0000 0040 34b4 a23f
000001f0: 0000 0040 8d66 a6bf 0000 0040 ea4d a2bf
00000200: 0000 0040 cd82 a43f 447b ad4a 856c 9dbf
00000210: 0000 0000 47e4 98bf a375 2a86 3115 acbf
00000220: 74fc 49a5 a7a5 a7bf 24d6 d042 fd65 b2bf
00000230: ed3b 53c8 95e0 ae3f 0000 00c0 465a a73f
00000240: 0000 0060 78d9 b23f 2dca 1f8d e4df a0bf
00000250: 65e1 61be 649d 723f 0000 00a0 daa3 aebf
00000260: 2f0e 99ce d508 a23f 0000 0000 4008 2abf
00000270: b363 6927 6360 88bf 0000 0080 9b39 b1bf
00000280: 0000 0080 27f1 a6bf 0000 0000 d41c 92bf
00000290: 0000 0080 5b78 b0bf 0000 00a0 5ca4 b13f
000002a0: 0000 0040 0741 a33f 0000 0060 eff5 a4bf
000002b0: 0000 0000 e8af 86bf 49d7 c02c dde4 b7bf
000002c0: afb7 5d3b 6044 b8bf 0000 0080 2045 a6bf
000002d0: 0000 0000 82ac 83bf 0000 00a0 27fd adbf
000002e0: 0000 0000 8770 a7bf 0000 0020 1c18 b6bf
000002f0: 70b2 16a4 3e12 a0bf 0000 00e0 6b85 acbf
00000300: 6c43 1a92 058d 9cbf 0000 0020 6941 b53f
00000310: 0000 00e0 e340 abbf 0000 0040 256d ac3f
00000320: 0000 00c0 e10d a2bf 54f2 b2f1 bb19 aebf
00000330: 0000 0080 2a83 9e3f 0000 0020 7846 b6bf
00000340: 0000 00e0 ade9 a8bf a294 e505 f24e 933f
00000350: 0000 00c0 4b7c aa3f 0000 0000 c6be 85bf
00000360: 0000 0000 f94b 8bbf ebe8 54d3 6c1c babf
00000370: 0000 0060 4a00 a6bf f691 6f1f 73c4 8cbf
00000380: 68dd e6d1 2fdc b13f 0000 00c0 481a af3f
00000390: ca7a aa16 7cee ab3f 0000 0000 d856 95bf
000003a0: 0000 0040 44ac af3f 0000 0060 8ec9 b5bf
000003b0: 0000 0000 6fb3 91bf 0000 0040 8980 9ebf
000003c0: 1692 c398 010b a93f 0000 00a0 f422 b63f
000003d0: 20b0 f406 3b3a a4bf 0000 00e0 f02b b5bf
000003e0: 4b12 2f1f 3b27 b3bf 44ff e1e2 c2b2 a1bf
000003f0: 57eb def0 7b16 a0bf 0000 0040 e279 afbf
00000400: 125a 15a0 a5b6 7a3f c46e 356f 6ed3 b0bf
00000410: 0000 00a0 bdc5 b2bf 0000 0080 6158 a8bf
00000420: 9946 6e79 106d c2bf 4324 a0c7 c47a bcbf
00000430: 0000 0000 fc65 6f3f 0000 00a0 e0ce b1bf
00000440: 0000 0060 5730 a4bf dfd3 e0bf b3b4 a03f
00000450: 0000 00c0 9f2a a63f 0000 0040 acb3 a33f
00000460: 9f38 a8d2 4d1d 30bf 534f 183a cd00 9a3f
00000470: d8bf d5a9 4313 b4bf 4fbf fb0a cd83 963f
00000480: 37b3 1c7f 1439 733f 830c e650 57ee 963f
00000490: 1127 76eb 69c8 c03f 0000 00c0 fe0c a1bf
000004a0: 0000 0080 5f87 9a3f f9a4 e26d 06cd b2bf
000004b0: 45b0 af77 6266 ba3f 0000 0000 de0c 763f
000004c0: af25 5726 31ec aabf 0000 0000 e8d6 87bf
000004d0: 0000 0000 7cb1 7dbf 9e06 f568 72c0 a93f
000004e0: eae8 de0e 858a afbf d171 15bf 2288 af3f
000004f0: 97b8 3b55 4ab7 9bbf c187 78a7 77d3 863f
00000500: 0000 0020 63af b53f 0c26 9ca5 9b55 69bf
00000510: 68c8 214d 8ca9 a43f fbf6 8461 ef5f c13f
00000520: 2f13 d3d2 84bd a33f 0000 00a0 4eae aebf
00000530: 0000 00a0 705f b53f 0000 0020 c538 b4bf
00000540: b307 a2f4 cf20 c2bf bb97 41ce 528f 9e3f
00000550: bde7 afd5 7132 a13f 0000 0060 5bb9 b43f
00000560: 0000 0080 e0c6 b1bf c2d3 f3ab 2c3f b03f
00000570: 3d33 3330 0dc0 aa3f 2bbd 0051 4a57 a83f
00000580: c9e0 2969 fe74 a13f 786f 4ba0 7f63 babf
00000590: 0000 00c0 dab7 a63f 0000 0000 20b9 6b3f
000005a0: 889c 136f bc3b ab3f fa46 2bed 809a 793f
000005b0: dd0a af35 6ed4 a93f 0000 0020 b31f b03f
000005c0: 94b9 a4e3 a8c5 73bf 0000 0040 bdb6 a83f
000005d0: 0000 0080 e578 97bf 0000 0000 4c6f 723f
000005e0: 2952 89b0 f6fe a43f 0000 0000 a824 693f
000005f0: e770 986d 0968 c23f 0000 0040 d319 acbf
00000600: 0000 00e0 b3d7 b53f a191 cd76 57a2 afbf
00000610: d41e b865 4ab0 9d3f 69ef 8e43 3b70 a1bf
00000620: 4879 0ecd d870 a93f 991a 08c0 fe88 98bf
00000630: 0000 0000 2c07 71bf 4c46 9b64 499e bc3f
00000640: 0000 0020 9a6f b13f 68de 52e1 870c 9a3f
00000650: c391 4417 61fe 913f 5361 e178 61ac b53f
00000660: c62c 3e06 ebc0 a6bf 0000 00c0 77c4 a8bf
00000670: 7748 bade 6f42 713f 0000 0020 516b a3bf
00000680: 0000 0040 6fd8 aa3f 0000 0040 70da ae3f
00000690: fac1 b7a5 7782 b83f 576b 9890 1438 913f
000006a0: 0000 0000 f587 a13f ad2c 8b07 a6c1 bf3f
000006b0: 8656 0695 cd8f b23f d137 3e06 e418 b83f
000006c0: 69e5 d3f3 a4b0 943f 0000 00c0 9cae a63f
000006d0: 53a4 f936 a63e b83f 36f6 6e33 4b2b b93f
000006e0: 0000 0080 7eda 913f 9789 ac31 e342 60bf
000006f0: 05bf 16c6 9fef b4bf 29aa a937 adaf 7f3f
00000700: 4641 d37f 03f7 b1bf 0000 00e0 c44f b53f
00000710: 8a52 59f7 54f3 9a3f 3ace 3e16 5144 86bf
00000720: 0337 7e5c cfdb bd3f 34a7 3427 c7c0 923f
00000730: bd0f 6c12 c714 a83f 25a8 302d 9c20 ad3f
00000740: 7fa7 45d3 b948 8cbf aeeb 739e 2942 9ebf
00000750: 5327 6301 5c96 903f 3e56 c157 ab1c c13f
00000760: 0000 0000 2e6e 803f f4eb 1b3a 81a3 b4bf
00000770: 04de 81a1 d33f b93f 7067 67a0 76cd 9abf
00000780: 5426 4944 426b ae3f 0000 0080 8d43 98bf
00000790: 9ba3 36b3 0166 bfbf 0000 00e0 546e b53f
000007a0: 7d5e af3f 5255 b2bf 06ab ace3 f8ce bb3f
000007b0: 0000 00c0 3bbc a23f 8701 b06b 90e9 b53f
000007c0: ec79 5ef8 aba8 95bf 0000 0040 f2fd aebf
000007d0: dab3 edb6 a84e b8bf 0000 0020 7102 b0bf
000007e0: 0000 0000 909f 933f e68a d917 b436 a4bf
000007f0: 7747 69f0 9df8 a9bf 0000 0000 03d9 8abf

fc3.bias f8 [64]
-0.07040617095036153 0.036133195424519114 0.003073871554885528 0.08095664464624094 -0.12954865565654672 0.053976709705365084 -0.03265225074438175 -0.07443867376717156
-0.02485033869743347 0.11162195719319046 0.02731175720691681 0.14677092694121324 -0.06326628476381302 0.1442537775123026 -0.05294412535084946 -0.06375502844114565
0.10435372429931462 -0.05833638062633276 0.17457946211581055 0.08340711146593094 -0.06175457313656807 -0.09978396411310088 -0.13686041670345056 0.03205823224114911
0.22072245013788613 0.10836829951463804 -0.13625889223605073 -0.0798182263970375 0.1265641791300133 -0.1424494096278378 -0.07157892216078676 -0.01701618731021881
-0.04917610064148903 -0.04447825253009796 -0.027970606459535474 -0.08453364670276642 -0.05970777990750613 -0.07643552124500275 -0.046004652976989746 -0.008897334337234497
-0.048225551098930314 -0.12493323727621866 0.023448642504209576 -0.13712787436109333 -0.011146721430536076 -0.10600823618604722 -0.0831269736242489 -0.028949696886203313
-0.06652836263464067 -0.0450726055251401 0.11091754132224059 0.006502528411709491 0.060791109028455005 0.10118284219961134 -0.061622826562434896 -0.058199825444424806
0.127852015324527 0.010344715517968795 -0.04176699259811727 -0.07842388403158888 0.11145288331821124 0.12629839848508087 -0.1349545513530429 0.09221242327491763
00000000: 7a1b ab89 2306 b2bf 33ec 4bd9 0c80 a23f
00000010: 765e 9c39 602e 693f 8645 261d 93b9 b43f
00000020: a48f a4e3 0c95 c0bf f446 dcd5 d5a2 ab3f
00000030: b502 2dba cbb7 a0bf bc3a 63b5 690e b3bf
00000040: 0000 0000 5e72 99bf 2007 a9af 4193 bc3f
00000050: 0000 0000 9df7 9b3f b2a9 9bc5 63c9 c23f
00000060: 0000 0020 3832 b0bf c3b1 5e64 e876 c23f
00000070: cf60 cb0d 7e1b abbf af3a 1ce2 3f52 b0bf
00000080: cdd3 14f9 ecb6 ba3f f409 ea1d 44de adbf
00000090: 509b 2bac 9e58 c63f 0000 0020 2b5a b53f
000000a0: 0000 00a0 4b9e afbf 01f0 871e 718b b9bf
000000b0: 36db ed62 a484 c1bf 7e2c 16c6 ef69 a03f
000000c0: 37e8 6a1c a240 cc3f 23a8 565e 06be bb3f
000000d0: 15b5 f86e ee70 c1bf 0000 00a0 f76e b4bf
000000e0: e5af 1a49 4133 c03f 2cd1 d741 c83b c2bf
000000f0: 5075 c309 ff52 b2bf 0000 0000 b16c 91bf
00000100: 0000 0020 9c2d a9bf 0000 0080 dac5 a6bf
00000110: b0d2 f89f 53a4 9cbf 0000 0040 ffa3 b5bf
00000120: 86fc 09a4 0492 aebf 0000 0040 4791 b3bf
00000130: 0000 0000 ec8d a7bf 0000 0000 c438 82bf
00000140: ec5b 9af9 04b1 a8bf 82e6 48e8 9ffb bfbf
00000150: 8ec3 c3c2 eb02 983f 411d e0fb 678d c1bf
00000160: 7fa2 03a0 17d4 86bf 5d95 8613 5b23 bbbf
00000170: c6b0 2131 cf47 b5bf 83e2 6b45 fda4 9dbf
00000180: 8faf c5b5 0008 b1bf ca1a 5aad c113 a7bf
00000190: e520 888c 1765 bc3f ede4 e92d 65a2 7a3f
000001a0: a55e 5422 0320 af3f 95e5 2966 1ee7 b93f
000001b0: 50a4 8bf1 068d afbf 6f5b d515 5ecc adbf
000001c0: d6f4 4570 745d c03f 0755 b036 9c2f 853f
000001d0: 66ba 85b6 7b62 a5bf ab16 2471 9613 b4bf
000001e0: f888 e518 2d88 bc3f a5ea 83c1 8b2a c03f
000001f0: 64fb 40d4 3046 c1bf 982c 40be 3b9b b73f
