src/backend/controller/checkpoints/checkpoint_epoch_5.pth (torch, 418434 bytes, 24 tensors)

fc1.weight f8 [64, 5]
0.49111780339240396 0.13309448478406072 0.16865582907429758 0.033403049009817956 0.012342606652790801 0.2532796490122466 -0.053632466930037245 -0.008190503470341132
0.12876862466428815 -0.05465666893386994 0.20775105544379577 0.15564229881662842 0.1572364008730371 0.2542555844841773 0.1460764071724093 0.3108545564031317
0.31630621943654447 -0.025103259315732457 0.04011185053322409 -0.3695565956426924 -0.38507940640866806 0.16481590982036254 -0.29875452512515155 -0.06071463594332665
-0.09664808208819813 -0.11496307612020075 -0.26112690260934474 -0.3010146807111132 -0.38585280058555427 -0.27058969851698317 -0.3171513354724068 0.31577841328727047
0.16722905247955688 0.3809522951068031 -0.3033431597093884 0.052826775777327306 0.2690942398966475 -0.32128797560999806 -0.38978267866635014 0.3573855712297266
-0.31976258234294036 0.009403197629785741 0.15723852562255577 0.43716835708081864 0.4011927300041254 0.08093554534492821 0.048734454870302826 -0.1898633508180621
0.027968556507236838 0.08177741767710953 -0.3744292210024043 0.3307828975533756 0.04022304315938398 0.2791565637151661 -0.12966290485272872 -0.39989147595069435
-0.009233300083910798 -0.28931889157798196 -0.42770951192099005 -0.3587693698302965 -0.2454959382968617 0.3982911471928439 0.25489948095331344 -0.137076958849835
0.3489138255270887 0.36367525797859507 0.06463218199151016 0.10617526239849916 0.10182409506721099 -0.08149692426603655 -0.21486768454089392 -0.3539481354452148
0.06368676596683394 0.14536214595179317 -0.4419513718649472 0.2246060710706359 -0.28780052054051447 0.23098815220777605 -0.2502584926921682 0.41892340936753064
0.40005385965765106 0.4887581757450395 0.24102797227262163 -0.14542046754186538 0.4218466944721877 0.1711139536681906 -0.030724923804027075 -0.08366816916839177
0.40796702555615066 0.22702015531166958 0.2158436031954115 -0.13599875521094643 -0.06539519077831878 -0.21325367069308765 0.3042828629800501 0.4011045855374443
-0.21975130501971715 0.054023410214361245 0.47831040651885925 0.0163713574539473 0.2559713492979508 0.29249823627464905 0.1554225725340441 -0.3595404023235766
-0.10123182571812916 -0.2078197664055749 0.11082950173749144 0.16176327575727012 -0.014440134715792578 0.22724402115185588 -0.32668925373167224 0.09811977022266752
0.15716104968414413 0.3446985442585552 -0.377888520942575 -0.2282507601281908 0.28102021301851343 0.4613281259770378 0.45169538540880405 0.22052007610413668
0.3522105331508203 0.034019387657193645 0.43276953176487004 0.3828943105126079 0.30967417370303185 0.43067260499140586 -0.40645500075629276 0.418153282858511
0.09347676544344813 -0.14796692666408792 0.22854918459449722 -0.371015454155308 0.12174593472962558 -0.1316651461051164 0.1939575019031543 -0.3676212797764473
0.32533289480974026 0.03918309822542586 0.04240498392831325 -0.32939265782829863 0.43462137655952365 0.3521411999100408 0.013852406861499997 -0.12653694438106805
0.2522833794124526 0.29128328439250684 -0.2668606099937339 -0.2543281576836908 -0.07919037443760724 -0.26943751840617497 -0.24633458166983152 0.3030950746024924
-0.293932857448543 -0.26689265027813003 0.2515423178265299 -0.38875051309274905 0.15880239010323288 -0.2123961799951403 -0.13501365179947517 0.03390398634209457
0.20939626383189933 -0.0817087721082717 0.1165648972882023 0.20353790600977023 0.11487773023886719 0.3557067062813629 -0.19670240675835657 -0.04195505219202817
0.30120641463280806 0.2967230281419981 -0.40419612588165027 0.10564690715496373 0.22592883897475866 -0.3298412439357566 0.22579036893572257 0.467432621849418
0.38394036017772487 -0.16882987605883443 -0.14475698935074166 0.3634832302360939 -0.3532693449573688 -0.3149290154624147 -0.3421253842165209 0.16486252937902401
-0.4522187620908583 0.3154436967792517 0.48281196986358244 0.4245780328689271 0.05402553526557196 -0.1094076396225047 0.26237116333322386 0.09392273604606638
0.015623337263379193 -0.09588787320602203 -0.06976720766505048 0.19509301392819547 0.1326787562275341 -0.4499677485555913 -0.2861502539185018 -0.2008376981864731
0.04753220141053797 0.2320650390593967 -0.21545844625239136 -0.18730928917456233 -0.43010279079672475 0.3553154186515376 0.16537584639434436 0.30406964885338594
0.42213237457904235 0.4349916958314987 -0.1816606808899432 -0.10161909022469967 0.3942133769527207 -0.008947497305263289 -0.07217981694927492 -0.11587638211367227
0.46513995026564975 -0.1364728554526063 -0.1830978639236711 -0.06037500380541263 -0.30936473716653357 -0.16184572568435882 -0.1684692102959821 -0.14974054858745786
-0.30499424427867927 -0.010449415351549708 -0.22560871955999595 0.325786109203326 0.03929422702052565 -0.28566400076794324 -0.19337773188254428 -0.1917381417734303
-0.2818554413642074 -0.06480245497941185 -0.4739142824133436 0.47551943036457334 -0.39580703939088624 0.07883597793059463 -0.3544075872741418 0.09695045256822837
-0.15796212138452626 -0.21074750944745144 -0.31788102087798137 -0.059436901843916645 0.09809062180601916 0.30647306673695296 -0.3742882321894465 -0.24524474436793436
0.3548234245597898 0.05787738327523782 -0.14952201879748706 0.25767350739332456 -0.111932055997305 -0.1816334078306652 0.17701322286225663 -0.4143970074856007
00000000: 5c70 035e 796e df3f 2077 b675 3d09 c13f
00000010: 25b2 13a3 8396 c53f d2ee 2a56 341a a13f
00000020: a178 5e9f 1447 893f 4fff 4fd8 bb35 d03f
00000030: 86c6 eff6 b675 abbf 8ad6 57c4 2ec6 80bf
00000040: db8d d783 7d7b c03f 2796 287b f5fb abbf
00000050: 4f98 6b2a 9697 ca3f b955 a53b 16ec c33f
00000060: bfc6 be87 5220 c43f 82d5 0b37 b945 d03f
00000070: 1be7 c2b7 a1b2 c23f 3319 6482 0ae5 d33f
00000080: 4016 0071 5c3e d43f 68e5 2237 abb4 99bf
00000090: 21c9 715c 8a89 a43f 0a9d 13b5 d0a6 d7bf
000000a0: 45da 3818 24a5 d8bf 10fc 440f b018 c53f
000000b0: 4873 bc4c cb1e d3bf a7bf 871f fd15 afbf
000000c0: 2339 cabf edbd b8bf e10e 2f5c 386e bdbf
000000d0: c306 b49c 4db6 d0bf 8949 5114 d343 d3bf
000000e0: 1270 e5f1 cfb1 d8bf d1f4 7074 5751 d1bf
000000f0: 4a26 6f1d 354c d4bf 9780 76a9 b635 d43f
00000100: 2c9e abf7 c267 c53f 9778 34bc 8561 d83f
00000110: 3ab2 9a6d f969 d3bf 802c a274 1c0c ab3f
00000120: 227a f90b d738 d13f 81f3 f570 fb8f d4bf
00000130: 01d5 5a0c 33f2 d8bf f29c 1fbb 67df d63f
00000140: 976f 697a fd76 d4bf 19cd 61d2 fb41 833f
00000150: 632d 9c5a 6420 c43f cb85 20fd 90fa db3f
00000160: edae b045 24ad d93f e923 5720 31b8 b43f
00000170: 0272 b6f3 b8f3 a83f 927c 3c39 714d c8bf
00000180: 9f44 0f0e caa3 9c3f fe79 7966 5def b43f
00000190: 34d0 b7fa a5f6 d7bf ed57 c407 8c2b d53f
000001a0: a28e d45d 1d98 a43f 49b4 e77d b3dd d13f
000001b0: e964 ec47 cb98 c0bf e312 ca6a d297 d9bf
000001c0: 520a 288f e8e8 82bf 5250 5c62 3384 d2bf
000001d0: aee1 78b7 975f dbbf dc91 8ecd 13f6 d6bf
000001e0: e596 2431 696c cfbf 8db1 de26 9a7d d93f
000001f0: 0d8f 9de9 4550 d03f 6ec8 a5df bc8b c1bf
00000200: ccb5 70a7 9a54 d63f b779 d896 7446 d73f
00000210: 3433 ec13 bc8b b03f 5751 a54f 4d2e bb3f
00000220: d62a 42d6 2411 ba3f bc7c 7280 fbdc b4bf
00000230: 5902 09c7 c880 cbbf 7de9 8d14 16a7 d6bf
00000240: 95fb 03a1 c64d b03f fb3b 780f 3a9b c23f
00000250: 1f44 2568 ee48 dcbf 989f dd48 e4bf cc3f
00000260: ff91 dfdf 526b d2bf 9d78 bf0f 0591 cd3f
00000270: fb2e 6a32 3c04 d0bf 93ca b021 a4cf da3f
00000280: 5890 f780 7b9a d93f 6d90 1e5f d047 df3f
00000290: 6882 2a2d 01da ce3f a273 214c 239d c2bf
000002a0: 90c2 2b47 89ff da3f 1c73 72e1 0fe7 c53f
000002b0: ce3c a4bb 5a76 9fbf 4d60 4bf2 466b b5bf
000002c0: 470b 27ba 211c da3f da58 4c17 ff0e cd3f
000002d0: 4336 6360 c3a0 cb3f adbf f63e 6868 c1bf
000002e0: 2f64 b53d bdbd b0bf 607b b072 e54b cbbf
000002f0: 55e2 4ed4 5e79 d33f 5e2c 4a91 b2ab d93f
00000300: 9310 288e cf20 ccbf 189b 2dd8 f4a8 ab3f
00000310: 1470 5540 a39c de3f 905e 6c33 a7c3 903f
00000320: f9a6 7ca7 d561 d03f b3fc bb85 4ab8 d23f
00000330: 2705 0c09 e3e4 c33f 2782 64bf b502 d7bf
00000340: 9813 c634 54ea b9bf 954f 168e d699 cabf
00000350: 03fe 647d 525f bc3f 8420 89b5 a8b4 c43f
00000360: 9c53 d512 ca92 8dbf 3a85 8703 5516 cd3f
00000370: 02dc 2e0b 7ae8 d4bf 4288 3294 601e b93f
00000380: 5c99 4c70 da1d c43f 766f a47b 8a0f d63f
00000390: e3db be55 532f d8bf 04d4 0427 5237 cdbf
000003a0: 6a7c 1b34 3cfc d13f 53f7 7267 6686 dd3f
000003b0: 7a6f 05c3 93e8 dc3f fb45 7d79 003a cc3f
000003c0: b820 4c0c 9e8a d63f b8ce d53a fd6a a13f
000003d0: 93a9 68fa 7eb2 db3f c078 5e23 5781 d83f
000003e0: 221a 1ea0 b3d1 d33f 6128 6ed4 2390 db3f
000003f0: cbcf e2d5 5b03 dabf efe8 a5fc 05c3 da3f
00000400: 04f6 83e2 17ee b73f bfb8 748b 94f0 c2bf
00000410: c32f ae84 1941 cd3f b216 7a9a b7be d7bf
00000420: 68ae 15d8 bd2a bf3f 61b3 454c 67da c0bf
00000430: b073 be73 99d3 c83f 4406 7d67 1b87 d7bf
00000440: 7c55 e10f 41d2 d43f 2e4a de9a ce0f a43f
00000450: 6eab 5126 1bb6 a53f 5c90 3af1 c414 d5bf
00000460: 4bcd 9d2d d6d0 db3f 4c05 4c3e 7b89 d63f
00000470: f239 8793 a65e 8c3f 5a1d edd2 5c32 c0bf
00000480: 6ca7 f92f 6925 d03f 1096 15a5 62a4 d23f
00000490: 6de0 2086 3e14 d1bf 3b04 ed9b e946 d0bf
000004a0: a015 5e04 d245 b4bf c3ac 77dc 763e d1bf
000004b0: 82a8 123e e487 cfbf c6c4 3fe2 e865 d33f
000004c0: 4d86 7dc2 cbcf d2bf 7a30 1fe9 c414 d1bf
000004d0: bcff 27f3 4419 d03f 4757 02d5 49e1 d8bf
000004e0: fe8f 0200 a353 c43f 35ee 6f4b cc2f cbbf
000004f0: f202 7f99 2048 c1bf f02e 1601 dd5b a13f
00000500: 1f03 882c 7fcd ca3f 1358 00b8 ddea b4bf
00000510: c0e4 b675 32d7 bd3f e275 e7b4 870d ca3f
00000520: 2a26 6a7e a068 bd3f b290 9c0f e6c3 d63f
00000530: 332b 0962 8b2d c9bf f92a 22f2 217b a5bf
00000540: 765f 0c45 f746 d33f 0fc2 7595 82fd d23f
00000550: b938 756d 59de d9bf 4174 27fb ac0b bb3f
00000560: df56 4f77 3ceb cc3f b9dd e472 1e1c d5bf
00000570: 7854 2ae5 b2e6 cc3f 7350 fb83 6aea dd3f
00000580: 7ffa a496 7a92 d83f ae55 21a6 379c c5bf
00000590: 587e 90a3 6587 c2bf a38a a02a 4f43 d73f
000005a0: 055c d106 f79b d6bf 403e 7e07 cc27 d4bf
000005b0: 5dd9 15de 61e5 d5bf 5066 0222 371a c53f
000005c0: 8257 74f6 26f1 dcbf c75b 59c2 3a30 d43f
000005d0: 749c 2b2d 64e6 de3f 5969 7157 492c db3f
000005e0: 2fa3 3a26 3ca9 ab3f 5b78 1c9a 2302 bcbf
000005f0: ba7f 7b6b b0ca d03f a02f ab07 520b b83f
00000600: 0f03 ced4 20ff 8f3f 63bb 808f 1b8c b8bf
00000610: 962f 4183 43dc b1bf 41f5 3fd1 cef8 c83f
00000620: fc83 6f13 9efb c03f d843 1387 45cc dcbf
00000630: a69c 9427 4950 d2bf a3e5 c1b8 0cb5 c9bf
00000640: c55a 2105 2456 a83f 950c a7a4 4eb4 cd3f
00000650: fe86 2672 2494 cbbf bbf1 9e33 c0f9 c7bf
00000660: 10fa 18db cd86 dbbf a2dd b7e1 7cbd d63f
00000670: 8df0 e725 092b c53f 0a04 628b e075 d33f
00000680: 7796 d981 3704 db3f f72e e868 e7d6 db3f
00000690: 5619 b23d a840 c7bf 6413 2a6d b503 babf
000006a0: 0717 6abe ca3a d93f 220d 75c2 1053 82bf
000006b0: 9278 3a61 607a b2bf fa98 8e17 13aa bdbf
000006c0: dd0e 9d5a dac4 dd3f 8af7 7a49 f177 c1bf
000006d0: 1883 c234 c06f c7bf 9324 aef5 78e9 aebf
000006e0: 109e 2ac1 a1cc d3bf 0fe6 6759 5cb7 c4bf
000006f0: 1656 4d2a 6690 c5bf c7bb 88c3 b22a c3bf
00000700: 584a 2994 0685 d3bf 67eb 93c9 8066 85bf
00000710: 64ef 191c bfe0 ccbf 5b3d 21fb add9 d43f
00000720: 6013 f377 5f1e a43f 6957 3ca9 5148 d2bf
00000730: 51e7 1afd 99c0 c8bf 6006 281c e08a c8bf
00000740: 7df8 b667 eb09 d2bf 494b d6c8 e496 b0bf
00000750: c9a5 0492 9c54 debf 2cd1 810c e96e de3f
00000760: da77 6d0c e754 d9bf eac7 f53a 982e b43f
00000770: 36fd 3229 9dae d6bf a4e9 1caf bed1 b83f
00000780: ac39 ad50 1a38 c4bf 1327 653e c6f9 cabf
00000790: 5729 2ca3 2958 d4bf f8bb 307b 836e aebf
000007a0: 027f b38c 771c b93f ca5c af35 419d d33f
000007b0: 4401 22a1 56f4 d7bf 8ebf 4906 2e64 cfbf
000007c0: 83b2 154f 6db5 d63f 8ebe b0b8 1aa2 ad3f
000007d0: 7830 629a 8923 c3bf 4532 d305 b97d d03f
000007e0: 45e9 e147 94a7 bcbf c932 3f75 c33f c7bf
000007f0: ec93 9389 5ea8 c63f c07f ad06 7b85 dabf

fc1.bias f8 [64]
0.4527237600171322 0.04962497207688847 0.036013197357672846 -0.35733806451814165 -0.38134244381769633 0.15106790592864494 0.12639365928189775 -0.1578076498366025
-0.14741705945698008 -0.10939045714386399 -0.333904557851865 0.1400727121127543 0.2555428832472692 0.24815068255727432 -0.35199443716723205 -0.19446349681593783
0.10028539770417202 0.37532015101560523 0.17355455137041081 0.09081116873757347 -0.03492202346705568 -0.03916638603111356 0.34415867421975166 0.31894848126437486
0.227439280176559 0.25785379715443046 0.4284031576297457 0.33018001721397566 0.13340998641401217 0.30970788897113805 -0.2872588422489617 -0.36916771969948187
-0.11496621224664555 -0.058468212176833324 -0.31192605878463947 -0.20120871590914133 0.07063799527308319 -0.2001676273563797 0.45412806834092123 -0.34700644997451213
-0.11466441808583465 0.2813907036811062 0.1854309582059282 -0.04833863605681258 0.2907962941167215 0.37785190378018463 0.04991478560860657 0.20390628142594655
-0.037824182768218896 0.19591389232097295 -0.19014216426985703 0.10694736203245374 0.4436467872893585 -0.32124017655293124 -0.43950352333866954 0.2329352213833254
-0.2403458185941907 -0.0322562178831058 0.18990718694785985 0.39778425053973504 0.0187095609582208 -0.11448239494989022 -0.14472811773870686 -0.0020051251437376433
00000000: ba53 d913 6df9 dc3f 4632 45c0 7168 a93f
00000010: 724e c061 5270 a23f b42a 2e79 a0de d6bf
00000020: ae84 3123 ea67 d8bf 7428 b871 3156 c33f
00000030: 61cd 84dc aa2d c03f 86ac 8d83 0a33 c4bf
00000040: 6ebf 9eec 8fde c2bf 2169 ed53 0301 bcbf
00000050: e661 fd38 b15e d5bf f80b cb12 e7ed c13f
00000060: bf71 9189 d05a d03f 1723 08cd 66c3 cf3f
00000070: c775 00ad 1387 d6bf 6a8d 8b0b 2ee4 c8bf
00000080: b2e0 67c7 4dac b93f 5813 89cf 3e05 d83f
00000090: 5e9b 1a19 0937 c63f f2e3 d697 663f b73f
000000a0: f6fc 66a9 4ce1 a1bf 8158 36d6 9d0d a4bf
000000b0: b625 9a1a b206 d63f 41eb 08e4 a669 d43f
000000c0: a890 17f7 ba1c cd3f 625f 7b36 ad80 d03f
000000d0: 0a77 e113 f56a db3f f382 ee5d ab21 d53f
000000e0: 81d2 4d14 9413 c13f 616e 9c09 41d2 d33f
000000f0: 208d 3ce9 7262 d2bf 6948 b6a4 71a0 d7bf
00000100: e48c bef9 6c6e bdbf b567 4fa6 8bef adbf
00000110: 4703 50b7 98f6 d3bf 47fd 3f0b 35c1 c9bf
00000120: 858a 8de7 5415 b23f 1f56 9bc2 179f c9bf
00000130: 0013 6e2c 6f10 dd3f ce0f 898a 5a35 d6bf
00000140: 3b8b b1b5 a55a bdbf 9e5c 6d27 4e02 d23f
00000150: 2288 949e 33bc c73f 6598 fe79 d7bf a8bf
00000160: 50e0 410f 689c d23f 20e7 5dc0 b92e d83f
00000170: d837 8d47 6e8e a93f 6332 16dd 9919 ca3f
00000180: 0590 f9f7 b05d a3bf eae1 2cd8 b413 c93f
00000190: de99 9014 9456 c8bf 03a7 52fe e660 bb3f
000001a0: 6387 987e b564 dc3f d630 1df5 328f d4bf
000001b0: d1d8 cd62 d320 dcbf 82c5 f642 d2d0 cd3f
000001c0: b1d3 4bdb a6c3 cebf 1a1a cd11 e383 a0bf
000001d0: 86b3 9bf2 e04e c83f 6ba6 bb12 4c75 d93f
000001e0: 3297 c061 9928 933f 790c 47de b74e bdbf
000001f0: cceb 3f72 7386 c2bf 20f0 555d 0d6d 60bf

fc2.weight f8 [128, 64]
0.11944145247315502 -0.026900351189645025 -0.07001638958977083 0.042222731211875905 -0.0031105629249381806 -0.00962281041757807 0.0025118590990402647 -0.018703112750470482
-0.02871490980841231 -0.037753150647521806 -0.12681649522014382 -0.04463696689333092 -0.029668417050996168 0.1390228640228445 0.07656018446916037 0.08132773007154918
0.11425738971474346 0.04516167098655771 0.06476857147192924 0.0716162728095404 0.0992852746496328 0.1105472980239649 -0.02060383588133974 0.09793911870252366
0.01684951146059811 -0.06264423147683135 -0.011966678737373691 0.11618026242945097 -0.011834634346337584 0.07943256073476603 -0.060221321898160346 -0.0688257210143504
0.16341763163878467 0.11534674512016563 -0.16736623094727457 0.10164522795515782 0.11642422757330272 0.08138867150802008 0.02783329365602171 0.11517855819555883
-0.060080289990448024 0.13695497727755696 0.06952702495747787 -0.08193684285107349 0.07582769818070995 -0.014296906077617778 0.03864433473549613 0.1410159960531651
0.02652006171276582 0.12936710370690227 -0.09228357897729733 0.09383386500394617 0.11600512679148206 -0.03778327323068567 -0.11636425319430267 0.04194012993642413
-0.06462884759989067 0.05150698724583479 -0.09203237648474347 0.03236256890734112 0.08486546730965039 -0.009910504078671688 0.06268196021178331 0.04337840687610496
0.15733700248089696 -0.01829115098889058 0.024408128557529312 -0.04249179340971208 -0.07953518689854322 0.03648179483637647 0.05101401908039533 -0.010078790967757276
-0.06772270117775021 -0.07257496534331916 0.028953208094618762 -0.022898430232350147 -0.025262156585003328 -0.06205782779626284 -0.004150408890396938 -0.07053255633862537
0.10071481827067644 -0.09691861811638797 0.15880757340123391 -0.020004472337254425 -0.0062262885639465925 0.07704305045108804 0.0012700767176073826 -0.05111928001572754
0.09427170710610239 0.17744505485031206 0.0003022732944531368 -0.05178949524467476 0.06406901944890424 -0.03096711988494706 -0.015543064387445916 -0.08621408347078739
0.055758034058654295 0.1402674771508785 -0.06355493601409393 -0.08848692582533252 -0.05275332971490191 0.14856969770900386 -0.03899986002125156 -0.07313209250760835
-0.049947590123054816 0.04521506738393007 -0.024784520058334574 -0.03672662043320367 -0.06895328891117537 -0.02981686028535904 0.030073763104781888 0.07809762966864056
0.006351373707681192 0.03440256149284852 -0.1014963995070371 0.013816250621654293 0.03931256110199112 -0.004712632128173276 0.06771545503473443 -0.033255073037540925
0.09565569022607277 0.07394535213347883 0.08244461899964503 -0.0035655703793876217 0.10496591728114783 0.1172889801941426 -0.036069987144720234 0.1605675121617193
0.009541624619607902 0.10415186634257177 0.02082218095523075 -0.05351434725285295 -0.025915009477366788 0.01816091745960927 0.02931673804977377 0.08033981772334933
-0.11992771097865929 -0.10384287946310634 -0.11186243793921379 -0.11497376490517754 0.08161547388899795 -0.08824688420471517 -0.06457551186694589 -0.013845668178555164
0.13411583345375142 0.01834872588276128 0.01667639274427696 0.004133800381096956 -0.0010377412544431948 -0.01692627996286081 -0.06079728239767219 0.02922455100148268
0.1149713842038213 -0.037124247905267936 -0.014124532395357386 -0.05569401945362399 0.11151025897205982 -0.004802136628101352 0.034066246670227306 -0.0746699880662775
0.05052297336679065 0.034668300377791596 -0.10041630035936643 0.10703429643227272 -0.14647456556556557 0.061183651745841276 -0.03507712293203713 -0.04218486364573527
-0.000464432751260646 0.009267750799565912 0.05385229141633267 0.03680697702429331 0.003891275670004272 -0.11916517722233363 0.04577633965219502 -0.004983682428065446
0.003047841470395618 0.07251558581352073 -0.14201788286205105 0.05662360028433778 -0.05078054611232465 0.07986608948179388 -0.1022263518424882 0.05175123527071765
-0.09997958388119968 0.14532066793822354 -0.0952892945745472 -0.08927941958059113 0.04019326417070269 0.01590498053697476 0.05866224596721225 -0.1072196806998848
0.04680017539643319 -0.09897565571748242 0.046084962050556774 0.08198537715849792 0.026289402591647353 -0.05570624075691632 0.10562798921937497 0.02136422862726456
0.002594627299730294 0.12050107104729116 -0.11530681537289045 0.024147522347297785 -0.11992511184827793 -0.11240834299841591 -0.017016815491736094 -0.021312842741889715
0.06155438568865682 0.04601122437059254 -0.01579355680309531 -0.02468525253315805 0.07794307936841793 -0.002382801516883086 -0.007786829409250973 0.0524012797655754
0.012351785055492726 0.04086076622372396 0.07098176576932042 -0.007501370691365826 0.08427255934061766 0.05960587933092028 -0.0639820921335524 -0.022062242208048845
0.07797777087452928 0.031452973660019166 -0.11149773113842693 -0.09049204787084601 -0.08591076201721763 -0.0443317538560389 0.0711345729549416 -0.030325299286146884
-0.13047291277972695 -0.10769785837906273 -0.0858223559649158 0.019141790114918907 0.07696097488231551 0.03954752444832327 -0.022540971076529272 -0.05200820902872887
-0.02865645842341588 -0.006283329582031678 0.05850505179058027 0.08743640298040758 0.042672576076382765 0.0774437039618832 0.07994343948779604 -0.06287800658957737
0.07594942497800657 -0.08298356829203608 -0.027874861853717105 -0.10734630173858503 -0.0155420476877599 0.005201513900981912 0.02360950737651711 -0.04717198627851447
00000000: 3cb0 280c b793 be3f 3417 7102 c48b 9bbf
00000010: f6d8 7817 98ec b1bf 1ed6 67c3 379e a53f
00000020: 24c0 1cc1 527b 69bf c316 50c0 1fb5 83bf
00000030: da59 d715 c093 643f cffd 62a6 e826 93bf
00000040: c58d 23fa 7067 9dbf 2d42 b486 6154 a3bf
00000050: 802c c8dd 853b c0bf 4abd ff11 a8da a6bf
00000060: b41c d5c3 6561 9ebf 6deb 2f4f 80cb c13f
00000070: 7184 78c0 7299 b33f d34b eae4 e4d1 b43f
00000080: c3b1 26e8 f83f bd3f 4807 d737 6e1f a73f
00000090: bed3 4750 ac94 b03f 5f11 94ad 7155 b23f
000000a0: 7a34 987f c26a b93f 7891 ace5 d34c bc3f
000000b0: 2149 2105 2c19 95bf 058f d3bf 8912 b93f
000000c0: 2317 b592 ff40 913f 0cde 79cd 7309 b0bf
000000d0: 4cd1 8c6e fc81 88bf 9d3f 935b fdbd bd3f
000000e0: 0234 d2bb c13c 88bf 09e6 973a b155 b43f
000000f0: 3423 2640 54d5 aebf 6358 e1fc 8f9e b1bf
00000100: bd3a bd73 deea c43f 98bc fd41 5d87 bd3f
00000110: 31c9 2fb4 416c c5bf 5ea3 dcf1 6b05 ba3f
00000120: 7faf e369 facd bd3f 2f4f 6452 e3d5 b43f
00000130: 3e66 f8b7 5480 9c3f dc7d a68c 577c bd3f
00000140: a24d 4901 d8c2 aebf 623c 379e bd87 c13f
00000150: 486b 61ea 85cc b13f 9702 621c d0f9 b4bf
00000160: fc2d d1ab 7169 b33f 347f 4c40 b247 8dbf
00000170: 23b1 bab3 30c9 a33f 4d6f a1e9 cf0c c23f
00000180: ad17 fa36 1328 9b3f abb8 cceb 198f c03f
00000190: c052 aa89 e59f b7bf 9600 7305 7f05 b83f
000001a0: 1cdd bc11 83b2 bd3f 3427 b945 5458 a3bf
000001b0: 399b e435 0cca bdbf bd11 ef3c 2d79 a53f
000001c0: c3d7 d122 848b b0bf ce02 79b3 1f5f aa3f
000001d0: 7ed5 2c0f 6f8f b7bf afa5 249e d391 a03f
000001e0: c89a a746 beb9 b53f ccf7 3c57 f54b 84bf
000001f0: f9a5 28c9 ec0b b03f 025a c5cd b135 a63f
00000200: 7395 0d70 9e23 c43f 46c4 365d eaba 92bf
00000210: 0b05 a5c7 71fe 983f 6d11 16fe 7bc1 a5bf
00000220: 2049 9c02 6b5c b4bf ff77 71e7 bdad a23f
00000230: 79f6 2c6f 821e aa3f 65c8 b76c 30a4 84bf
00000240: f555 c162 4656 b1bf 6d6b a8de 4594 b2bf
00000250: 5fce 85e7 e8a5 9d3f 5b25 e9a3 af72 97bf
00000260: 07a3 6fa1 52de 99bf f805 b129 0bc6 afbf
00000270: d842 30e7 0400 71bf 9c15 c7ee 6b0e b2bf
00000280: 9af4 b142 72c8 b93f 44f3 2e97 a8cf b8bf
00000290: 0ec6 0e7b ce53 c43f 9b56 d969 0d7c 94bf
000002a0: 0e2b 1f9c bc80 79bf e74d 12e6 17b9 b33f
000002b0: 3452 cb7d 16cf 543f d3a8 b967 4e2c aabf
000002c0: f473 f5ca 3022 b83f 55a2 b501 85b6 c63f
000002d0: 3073 04ea 4dcf 333f ea56 b418 2784 aabf
000002e0: e346 38c7 d366 b03f 44ee a03c d8b5 9fbf
000002f0: 8724 cac9 0ad5 8fbf 6f2e f64c 2012 b6bf
00000300: 5dd7 8a29 518c ac3f 0019 87e1 48f4 c13f
00000310: 520e aee3 2245 b0bf 041b 8b44 14a7 b6bf
00000320: 25df c203 7c02 abbf 881b 6bf4 5404 c33f
00000330: 4101 ae26 caf7 a3bf 9ab4 9be9 c8b8 b2bf
00000340: 7e60 2f04 bb92 a9bf eb9c 66e7 6d26 a73f
00000350: 0bf2 63fc 1c61 99bf 3672 4ee3 d4cd a2bf
00000360: 393c d338 eca6 b1bf 4719 2e9f 4f88 9ebf
00000370: 12c1 0214 a8cb 9e3f 0a6a 52cd 34fe b33f
00000380: c823 bfe5 e503 7a3f e554 0569 369d a13f
00000390: b462 8b04 abfb b9bf d435 96c4 b14b 8c3f
000003a0: 6296 82a8 c620 a43f 65b7 e58d 8d4d 73bf
000003b0: 59d5 ced0 cc55 b13f fea1 3e16 cf06 a1bf
000003c0: 8f81 322d e47c b83f 36c0 1a25 15ee b23f
000003d0: feab 552e 171b b53f be4a 7905 8b35 6dbf
000003e0: bbcb eadd 0bdf ba3f e272 1d8e a606 be3f
000003f0: 94b3 4eee c377 a2bf f56f c4ea 798d c43f
00000400: a60f 892d 8f8a 833f bf3a c25b b2a9 ba3f
00000410: 90ba efe8 6852 953f 7cb5 a286 3b66 abbf
00000420: fc28 b9d8 7689 9abf a9ae 378a c698 923f
00000430: e6c1 98fc 3405 9e3f 1a3a b079 2691 b43f
00000440: 6898 891c 95b3 bebf 516d 376b 7295 babf
00000450: 6789 9948 04a3 bcbf 496d 2ab0 eb6e bdbf
00000460: da66 336f c0e4 b43f 2916 a209 5997 b6bf
00000470: 494b 974f 0588 b0bf 4932 2520 1e5b 8cbf
00000480: 73a2 4727 b52a c13f c5e1 5b26 02ca 923f
00000490: 71c4 cec5 9d13 913f 44bc 1e97 9aee 703f
000004a0: 7485 f82f 9a00 51bf 29a1 886b 1f55 91bf
000004b0: e9d7 2a47 d220 afbf dda6 2a6b 0aed 9d3f
000004c0: 7c9a 21bf c36e bd3f d38f 480d f301 a3bf
000004d0: 03c1 aca5 52ed 8cbf 45af 4530 ed83 acbf
000004e0: c217 74b3 ef8b bc3f 7643 4cbc 67ab 73bf
000004f0: 6333 b18e 2171 a13f 6cc4 bc84 921d b3bf
00000500: fc34 9dac 25de a93f d539 a920 0bc0 a13f
00000510: e75e 07f6 e1b4 b9bf 6a1b ba82 9966 bb3f
00000520: 8363 66b6 adbf c2bf 1fb3 98ae 7653 af3f
00000530: f067 a9ef a0f5 a1bf 1143 7d23 4199 a5bf
00000540: 98c1 547a e36f 3ebf d49f bb74 f8fa 823f
00000550: 6647 e50c 8792 ab3f 38fd 2a35 5dd8 a23f
00000560: 3ca6 c1b7 98e0 6f3f 8ef1 fdea 9b81 bebf
00000570: 5839 7913 ff6f a73f 6ed0 ac10 c569 74bf
00000580: 1a2c 0a6e c9f7 683f 53f4 84a5 6190 b23f
00000590: 3f7a 2b59 a42d c2bf f156 cebe c4fd ac3f
000005a0: f3a1 a661 e8ff a9bf 1a3b 62a2 1a72 b43f
000005b0: b1ef f395 812b babf dcd9 074e 237f aa3f
000005c0: c295 0913 4398 b9bf 3920 1d1e de99 c23f
000005d0: 8349 db13 e164 b8bf c6f3 4d1b 04db b6bf
000005e0: 91eb 4326 3694 a43f a1d1 ff2c 6549 903f
000005f0: afcf e057 fa08 ae3f 0cf4 17be bf72 bbbf
00000600: 4cab 8c4d 31f6 a73f 4520 68f4 7756 b9bf
00000610: de67 b0b9 7298 a73f 8d5e a561 fefc b43f
00000620: fe33 73f1 9beb 9a3f 6fd6 7744 8785 acbf
00000630: fe4c 3d97 6f0a bb3f b091 081d 81e0 953f
00000640: 568d b9ec 5341 653f 62f5 477f 28d9 be3f
00000650: 4050 0859 bf84 bdbf c256 0bcb 20ba 983f
00000660: d984 5b81 69b3 bebf 8dca f90c cbc6 bcbf
00000670: ca87 1328 db6c 91bf 20ad 3eaa 08d3 95bf
00000680: d592 ea72 0e84 af3f 9b5a d77f c88e a73f
00000690: b3c6 d3a7 2f2c 90bf 4c2d 4b41 1747 99bf
000006a0: 403e d6e0 13f4 b33f 0ad9 cfd2 1885 63bf
000006b0: 4dac 6f1a 15e5 7fbf cf2f b92d 57d4 aa3f
000006c0: c06e e286 e44b 893f 86a4 3dcd b3eb a43f
000006d0: b470 976a dc2b b23f 18a3 b6dc c1b9 7ebf
000006e0: bb73 51ee e292 b53f ea51 c06c a984 ae3f
000006f0: b546 3e61 2161 b0bf 9a3d 0a03 7c97 96bf
00000700: 0099 b8e7 59f6 b33f 8ba5 76aa 9a1a a03f
00000710: b457 d184 1d8b bcbf f341 27a2 7c2a b7bf
00000720: 0b07 3d69 3ffe b5bf 2bd6 f8d1 a6b2 a6bf
00000730: a6d6 7418 e035 b23f 789f b362 980d 9fbf
00000740: 8c8e b31e 56b3 c0bf 365a 963b 1692 bbbf
00000750: 4e8e 2234 74f8 b5bf 4234 1fca e799 933f
00000760: 2415 30e6 b6b3 b33f c85f 49b8 923f a43f
00000770: 9706 60f6 fa14 97bf c7c8 cde9 d1a0 aabf
00000780: 78b3 fd5e 1e58 9dbf e17b 0971 8cbc 79bf
00000790: 9cc2 2ec8 5ff4 ad3f c2dd 476b 3b62 b63f
000007a0: 1247 5e0d 2ed9 a53f 0322 ccbf 59d3 b33f
000007b0: 213d 215a 2c77 b43f c49d f0e5 c518 b0bf
000007c0: 1d38 6ee8 6b71 b33f fd6f eb3f 693e b5bf
000007d0: 1a3f 2b50 3a8b 9cbf 4653 5017 0c7b bbbf
000007e0: fb20 4154 82d4 8fbf 98b0 82c1 2e4e 753f
000007f0: dc2c 3a38 172d 983f 7d08 b534 ed26 a8bf

fc2.bias f8 [128]
0.11216777207102141 0.12468423234498589 0.057393261408999766 -0.06707517809818923 0.09570288357967982 0.023568597785038743 -0.0646868349279056 0.15006512439636854
0.15047744548157296 -0.15763851293522385 0.055068545621464154 0.04484161210489331 -0.06893496255850197 0.04897458150269963 0.0676936837546084 -0.029088948011128275
0.16562308368936374 0.05230758090977772 -0.04635819384175067 -0.01193557791802846 0.1705228665146326 -0.016414237851606422 -0.05330534680804333 -0.08384507173843256
0.03246050566999037 0.11835004514292251 -0.06884556894801232 -0.08353995422331625 -0.028378621936686152 0.10868330974890919 -0.054053656494655364 -0.009581684153679432
-0.10155380296871098 -0.09895972580446671 0.1365959624785863 0.0869614270924217 0.057533992932306946 -0.13066693668354212 -0.0021196082732001815 -0.047360781237790577
0.09736235336457962 0.021552216663477626 0.04237824123084486 -0.040023830539814224 0.009144987842979454 -0.039813070187720394 0.13047447130086895 0.03076748554826498
0.06769577369564284 0.08817250676032298 0.04721857331356709 0.11891308004554264 -0.1365482598628754 0.14331933055355173 0.08697602163307865 -0.04007786090780118
0.14473647035591175 0.05766793087687479 0.1329407670170711 0.09630442375872457 -0.020064537214380503 -0.06386535408193544 -0.09896369257039471 0.045108790236273066
0.060497191532128985 -0.01211888220938279 0.10153136573709239 -0.10457156838512459 -0.00796975053129758 0.05153703552652542 0.038325963838608736 -0.057991214901602216
0.08428953412095083 -0.07085815831954348 0.09892450656960326 0.008340584239018723 0.06561618541888392 0.07652129462596748 0.018926342901780607 0.09821412394326079
0.05806491197748392 0.02365153295493055 -0.09119381380057251 -0.020853020632541623 0.06103696935846258 0.08824428804284384 -0.04515320443862988 0.09962743991868067
0.09612747598193445 -0.10469855868907124 0.007741093158518946 -0.045921194764105534 0.15438339122621245 -0.027167877872214297 -0.06954477336010345 0.026030788098090542
0.08711529764030128 0.0006774447906889554 0.10438927712348377 0.03322735582375481 0.14982307450510426 -0.09024543385766298 0.12979084405869745 0.1177435322510403
-0.11989239227117476 -0.00507945349733685 0.11267490534256408 0.040727839189262864 0.005344482045423115 0.034645140549878155 -0.04047611084102647 0.047605214641606906
0.13817746813562895 0.13394911310703841 -0.032427325237600696 0.03145629455513535 -0.08988741327712312 -0.07695058024573807 -0.10341907410838809 0.032489170987745696
-0.03309966339485241 0.030109534621441277 0.08126738533956208 -0.09460090140085395 -0.11950015205619316 -0.12230375010584585 0.021647105141397026 -0.04810897418292323
00000000: ecd0 b5f0 06b7 bc3f eda2 3f4c 4eeb bf3f
00000010: 9a5d 8649 a662 ad3f eb1a 4ec0 d62b b1bf
00000020: 008d 1bf3 fb7f b83f 651a ccd2 5d22 983f
00000030: 4742 7f00 518f b0bf c4ba c680 5535 c33f
00000040: 6182 904d d842 c33f 4acc d2b0 7f2d c4bf
00000050: a406 f7c4 f131 ac3f 3b1a fbd2 7af5 a63f
00000060: 4960 bdc1 b8a5 b1bf 015d c743 3213 a93f
00000070: e92e df8d 5f54 b13f 4207 8841 7ec9 9dbf
00000080: 5849 f41f 2333 c53f e044 ae2a 0fc8 aa3f
00000090: b165 e7dc 42bc a7bf 3fca 8826 ae71 88bf
000000a0: 4244 737b b1d3 c53f 58b0 0bdb e4ce 90bf
000000b0: e026 7ca2 d64a abbf 961e 0ce1 de76 b5bf
000000c0: 5049 87d4 a99e a03f 3375 5e45 304c be3f
000000d0: a131 1bfb dc9f b1bf 3669 4cdb df62 b5bf
000000e0: fc94 7e14 490f 9dbf 3a1b fe5c abd2 bb3f
000000f0: d65d bfbd ebac abbf 3d2e a5e0 8f9f 83bf
00000100: 79f8 8816 6eff b9bf 2c89 f3b1 6c55 b9bf
00000110: dc3a cefb f97b c13f cf1c 60a5 1a43 b63f
00000120: 4ae8 1a74 1875 ad3f 64b6 dcb5 b1b9 c0bf
00000130: 84d7 d606 245d 61bf 2703 0f1d ac3f a8bf
00000140: b5fd 8f3b bdec b83f 825d e7c6 c811 963f
00000150: 3d05 4cd0 99b2 a53f e752 75e6 007e a4bf
00000160: fece a97d 9bba 823f 9fb8 d1f4 6062 a4bf
00000170: 9f9d 9931 63b3 c03f 52fd d600 8381 9f3f
00000180: e8a6 199e 8254 b13f 1222 f130 7992 b63f
00000190: 6685 4a68 082d a83f 7dbb dc6d 1671 be3f
000001a0: bae7 37d3 697a c1bf e459 ceae 4958 c23f
000001b0: 5344 7380 0f44 b63f 7f08 c9db 1585 a4bf
000001c0: 68ca 5b83 b986 c23f 1ad0 49aa a686 ad3f
000001d0: 6b5d 52fb 3304 c13f 25fc 801e 68a7 b83f
000001e0: 5f9f 944c cc8b 94bf 941e 21d7 7a59 b0bf
000001f0: 5fcc 143f af55 b9bf a861 a7d5 7f18 a73f
00000200: 34bc 42e6 7cf9 ae3f a2e9 06d6 c8d1 88bf
00000210: 2de9 5ba7 f5fd b93f b737 4eca 33c5 babf
00000220: cc15 1dcf 7152 80bf fd09 3df4 0f63 aa3f
00000230: ad8b 8cf2 759f a33f 4356 ea46 06b1 adbf
00000240: aece 71b8 ff93 b53f 7a21 a3a0 c223 b2bf
00000250: 3748 7dd0 1d53 b93f 7af8 4944 de14 813f
00000260: 705e 76ea 38cc b03f 71b9 dd49 e696 b33f
00000270: 5822 2f5f 6d61 933f d072 5792 8f24 b93f
00000280: 2711 fa23 afba ad3f 8fb1 2a82 1b38 983f
00000290: 0cf8 de4f 7a58 b7bf eeed 8e86 7e5a 95bf
000002a0: 8fac 7bd6 3c40 af3f e4eb 337b 2d97 b63f
000002b0: ab3d bf20 521e a7bf ec24 3c14 2f81 b93f
000002c0: 25e5 966d cf9b b83f 9405 8255 86cd babf
000002d0: 39d2 37df 1fb5 7f3f 3500 699b fb82 a7bf
000002e0: 1f5b 2ec0 d5c2 c33f ddfd d96b e5d1 9bbf
000002f0: f87a 30af afcd b1bf 3a18 489e d0a7 9a3f
00000300: abad 582a 304d b63f e8f6 449c d132 463f
00000310: cf66 4c73 41b9 ba3f 21f0 300d 2d03 a13f
00000320: 8dc1 970a 672d c33f bc30 0823 531a b7bf
00000330: 20b3 4683 fc9c c03f f16f 55ac 7024 be3f
00000340: c009 d88f 44b1 bebf 001c 716a 31ce 74bf
00000350: 98b5 8639 43d8 bc3f 3792 b582 47da a43f
00000360: d91f 9679 18e4 753f b70c 4103 02bd a13f
00000370: b7b7 a9e8 48b9 a4bf 2b70 02f0 b55f a83f
00000380: c9e2 579d ccaf c13f 55bc 0f9a 3e25 c13f
00000390: 0cd5 c87a 509a a0bf 843c bc18 0a1b a03f
000003a0: 57e7 588c dc02 b7bf 974c 9081 08b3 b3bf
000003b0: 2500 1425 ac79 babf 7ba8 bbad 6ba2 a03f
000003c0: 4539 9467 70f2 a0bf 7fcb fca9 08d5 9e3f
000003d0: 25cd 437a f0cd b43f 6e54 b0c1 c337 b8bf
000003e0: d2c8 f2dc 8f97 bebf dafc e16e 4c4f bfbf
000003f0: 669f 8aa2 a82a 963f bcff 844d bda1 a8bf

fc3.weight f8 [64, 128]
0.03957150891626077 0.11986249763760232 -0.018908855447110684 0.06956759261322953 -0.0277786233218097 0.02344008796908268 -0.040158898700752746 0.041938732046354114
0.07974323057840238 0.10650622241882211 -0.09076241273505964 0.024641874830616486 -0.017064055310611434 -0.036671010405363684 -0.007758293666267562 0.10602678340200662
0.13464131918972097 -0.01621480239706572 0.0743743052788279 -0.031238290305218092 0.12699358926950027 0.11292191632171605 -0.03926397595940702 0.10527296052934895
0.045606374691619905 0.0942607611654699 -0.015496938166362075 0.009858396737982876 0.02332706689539859 -0.017774313528845266 -0.047216374628019996 0.13028296588197608
-0.009700216564808767 0.05802229469786296 0.001061008771470388 0.040880619742839956 0.10153911033592436 0.06765297192373321 0.12315509922394395 0.10102500586144347
0.07383387998406006 -0.04527674490724106 0.0537651116841925 -0.005676216363670858 0.04463226828411139 0.028891950452537115 0.07800031144139286 0.033306603568393336
-0.0031466706065443406 0.00419105804381769 0.0028950336490034968 0.03994455270168608 -0.015349650203050328 0.018168438811944923 0.02673769488045199 0.08614631226568661
0.012743230414802652 0.08457485274622283 0.08260573574666082 0.08180060887708482 -0.05400810466832988 -0.04406921973065161 0.11205069035048026 0.01896534229322639
0.08631377882257396 -0.024209365923743904 0.004223719336064172 -0.04763608849320635 0.08267630139261302 0.02886077028548327 -0.02912758231952216 -0.021249209111351842
0.07116734157844465 0.036990149548836976 0.051189478987203066 0.11437842989681057 -0.05822174486369172 -0.019446159352599354 -0.03523428842513071 -0.004467403992408848
0.06427533665693752 -0.03035099485120322 -0.013356748486730049 0.06743478324749726 0.032538045145441265 -0.012502116888555613 -0.028478653856955402 0.029442233383687975
0.040564775052419504 -0.11738386641825713 0.058193411834389884 -0.026804426114976403 -0.01943350695923874 0.11830889002132164 0.11415494705526505 0.050562168434734434
0.02176359151422252 0.04370957130988893 0.06192662789712818 0.0515248689105349 0.13674141914980387 -0.017056356710628856 -0.12541545221313175 0.07376270731956443
0.04169113229349072 0.03311156888752177 0.028004202941972707 -0.014470882295931412 -0.017684159128884262 -0.030121676006762063 0.07057405099546672 -0.03486799002968958
-0.010393732175216362 0.016012329826230694 -0.06468369070398565 0.028492462572310195 -0.10168034051299124 -0.021149912274840425 -0.005862599863688331 0.11328703985408654
-0.02544606861910582 -0.02183760367815506 0.026937439124410323 0.12256120734493693 -0.04807309632891129 0.07423704172061457 0.09167058965320418 0.002944723408681473
-0.0070093711218901286 0.004917462738939426 -0.043003705948958734 -0.005627538413214371 0.04583206160749511 0.03437207711884513 -0.026494937850530215 -0.0039489782074644585
0.13046024417172208 -0.023083854170486477 -0.07171439937972039 0.09968035617503541 0.07836397185175177 0.09340771903763652 0.08496430174827346 -0.0015063205661559262
0.03587467859136936 0.05284208090836969 0.10357757749592864 0.11676472163046284 0.021459037331210292 0.03218930354560469 -0.1275215180314076 -0.012042714962547203
-0.036491746946843914 0.10148366110654249 0.11469453718760902 0.02195327192043547 0.1208219510674326 0.1276710018733048 0.11800387373416903 0.008939496988601917
-0.029918990404109926 0.0865313581946206 0.11973661205502316 -0.0051513080989602595 0.12628748526942002 -0.013889703479006593 0.03877459445840012 -0.007421656125827501
0.0789751114962767 0.12265946620261789 -0.0034852192773007426 0.04985358728475528 -0.023134986128616516 -0.04112920257493441 0.10878268753857115 -0.007469275313998508
-0.021921203829209018 -0.049364444723894854 0.12128233788742161 0.14641422859918618 -0.005449422969348934 0.02542654633119007 -0.12087861376324427 0.02061830460157007
0.11902401146207855 -0.03354879763087167 0.021021347683460957 0.006781922452100852 0.08856138422661092 -0.04666115251505301 -0.009580185736148515 0.06518826115983628
0.014573425898287183 0.0599009588483756 0.03992380483435089 0.12299589243102059 0.05166886043135493 -0.03854500698163159 0.09782533969637965 0.026482037306524896
-0.01910319206760226 -0.0219030732072233 0.05057147730806731 0.05307282195500155 0.1106224058834577 -0.005808412937004533 -0.00836128263362268 -0.028155421161959952
0.06766303500554893 0.014053257629718806 -0.011205630220221637 -0.04140253402434199 -0.010514620291372394 0.10873141612460671 0.05136858163846159 0.02079414767459005
-0.01734621705424897 -0.10667090847494003 0.0081715046186524 0.027859231995994695 0.11726027363039132 0.06253220242177727 0.034057448860110286 0.0030374738514220567
0.02860506384438428 0.03282054766767943 0.05504011607005335 -0.02475442041036559 0.06925693375971491 0.027383137952337728 0.0021048341010498108 0.04062367185676617
0.08538720200071133 0.0022437503659958414 0.11596805939050744 -0.01712370450597613 0.0927474259464281 0.045254679620650856 0.012809130229100027 -0.04019520905739697
0.011531829439759472 0.012128155071727873 0.030309526012545666 -0.0669713768851698 -0.08832616656881456 0.06653004854886903 -0.018568494728822077 0.09191375693745811
-0.000289928105581266 0.02392441741091407 0.04884763625471987 0.14800342290961252 -0.0242694821618528 0.12448176569512902 -0.08623033525611931 0.03912609877593484
00000000: 0824 4c81 b742 a43f 2cd1 5e03 4faf be3f
00000010: 9022 00cf d75c 93bf 30a1 2287 2ecf b13f
00000020: e2c1 c7da ff71 9cbf 1a65 f8ac ad00 983f
00000030: f24f 2009 b58f a4bf ef4b 2655 fe78 a53f
00000040: 4860 6967 0d6a b43f e7fd 1be6 fd43 bb3f
00000050: dc33 679a 343c b7bf b4da 093a b83b 993f
00000060: cc1e fc5d 3d79 91bf effb cdec 8ac6 a2bf
00000070: 7931 1c19 29c7 7fbf 9531 363f 9224 bb3f
00000080: 5b19 4e3f ed3b c13f daa7 06f8 9c9a 90bf
00000090: 4ed5 d5c8 310a b33f e5b7 f92c eefc 9fbf
000000a0: 9a69 5b70 5341 c03f ac79 9a61 73e8 bc3f
000000b0: b22b 5069 681a a4bf 4e6c a032 2bf3 ba3f
000000c0: 544a 94ff b759 a73f 5973 8026 7921 b83f
000000d0: eeb9 e6d4 dbbc 8fbf 1921 a59c a330 843f
000000e0: ee98 b5f5 0ce3 973f 7ace 42fd 6d33 92bf
000000f0: 13df b9a1 be2c a8bf 3430 d8ba 1cad c03f
00000100: f09e 4707 b5dd 83bf 9717 5524 19b5 ad3f
00000110: 78db 597e 3162 513f 1fe2 abf9 4dee a43f
00000120: 0a61 2896 77fe b93f 78bf e385 b451 b13f
00000130: 27a2 80b3 1787 bf3f b0cb 4058 c6dc b93f
00000140: ad4a def3 c6e6 b23f fbb7 4a75 832e a7bf
00000150: cee3 b2c8 1987 ab3f 630e 5aba f13f 77bf
00000160: 02cc 4069 0ada a63f 3fc5 3ef9 d995 9d3f
00000170: f8f5 b712 d4f7 b33f 2259 222a 900d a13f
00000180: 92a5 15eb 0bc7 69bf 78c9 bd93 a42a 713f
00000190: 643a fc5a 53b7 673f 52a1 03c7 9c73 a43f
000001a0: 7562 042d a36f 8fbf b414 114a bf9a 923f
000001b0: 66ef 5354 2061 9b3f 0a25 da49 af0d b63f
000001c0: cc08 046f 1f19 8a3f 3bea 9b92 b2a6 b53f
000001d0: f571 7e45 a625 b53f ee82 eb7b e2f0 b43f
000001e0: a6f1 8946 f3a6 abbf e3bb 01a3 3d90 a6bf
000001f0: 5cae 8ca2 5aaf bc3f 129e a093 a66b 933f
00000200: b8b4 3ce9 a818 b63f 42f6 980b 57ca 98bf
00000210: 2a70 a706 e44c 713f 0318 60e4 c163 a8bf
00000220: edb0 a22a 462a b53f fcd7 0d82 ad8d 9d3f
00000230: dd44 e5f5 9ed3 9dbf 7ae6 cb48 5ac2 95bf
00000240: 0268 9fdc 0538 b23f 243d 2c75 5ff0 a23f
00000250: 3273 4ce4 8135 aa3f 284e c69f e747 bd3f
00000260: c412 3694 3dcf adbf 6f12 cfa9 b1e9 93bf
00000270: 68b0 f788 3a0a a2bf f405 baa0 694c 72bf
00000280: 1085 e134 5974 b03f abde 25c9 5414 9fbf
00000290: 7183 736f c85a 8bbf 6d2d a9ec 6743 b13f
000002a0: b506 8d9f d3a8 a03f b940 56b9 b59a 89bf
000002b0: 6c85 cc1b 8229 9dbf 163d 04d6 1a26 9e3f
000002c0: 8f81 70fc e7c4 a43f ae2d 587b de0c bebf
000002d0: 03bd 57e1 86cb ad3f ee1d 3596 9e72 9bbf
000002e0: 6298 5893 60e6 93bf 12b7 77cd 7d49 be3f
000002f0: e66a 4734 4239 bd3f 481e afd7 48e3 a93f
00000300: 0f38 30e7 3149 963f 7da7 98d6 1961 a63f
00000310: 3bb3 23d3 d8b4 af3f d488 cdb5 7761 aa3f
00000320: 8ce6 a029 be80 c13f 9853 0bb9 3877 91bf
00000330: d38f d510 9d0d c0bf 5519 9adf 1ce2 b23f
00000340: 5bae 7743 8a58 a53f f278 fbe2 fff3 a03f
00000350: 0231 253f 22ad 9c3f 826f a4f1 e8a2 8dbf
00000360: ee98 76d4 cb1b 92bf 1c25 6675 37d8 9ebf
00000370: a5c5 f818 2411 b23f 85a4 b599 37da a1bf
00000380: 921e 351e 4f49 85bf 82e6 be43 8965 903f
00000390: a37f 2840 1c8f b0bf 00e9 b8cb 202d 9d3f
000003a0: c841 2609 b907 babf 8184 2296 52a8 95bf
000003b0: 17f9 f1aa 6103 78bf 2be4 3b23 6100 bd3f
000003c0: 4392 1fc2 880e 9abf ed94 7bc6 985c 96bf
000003d0: 7030 4ff0 7c95 9b3f 0106 4ed9 2b60 bf3f
000003e0: dbaa 1971 099d a8bf fc81 57e2 3201 b33f
000003f0: c0c7 9048 b977 b73f 1ebe 8d57 881f 683f
00000400: e6a5 bebb dbb5 7cbf e6e7 495a 5524 743f
00000410: 1eae 50ed 9404 a6bf 655d 11d7 e60c 77bf
00000420: 13c6 6ccb 4c77 a73f 9cf7 3d86 3799 a13f
00000430: 1571 4f2e 7d21 9bbf 250f 0fc4 cd2c 70bf
00000440: fca6 12d9 ebb2 c03f 7157 e93a 4ba3 97bf
00000450: 7bf9 fcf7 df5b b2bf fd4d d3dd a684 b93f
00000460: 55b6 4948 a90f b43f 3dea 757a 91e9 b73f
00000470: 6c18 5671 38c0 b53f 6061 6964 f7ad 58bf
00000480: ecdf 9b76 2a5e a23f eb43 b502 1e0e ab3f
00000490: aea4 f163 0f84 ba3f c2b8 baf4 4ae4 bd3f
000004a0: 0f2e 2a9e 5bf9 953f a2ce 04cc 1d7b a03f
000004b0: fa96 bd06 a052 c0bf 5780 5ad7 d9a9 88bf
000004c0: 16d4 6bd7 0baf a2bf 27ec 874d d5fa b93f
000004d0: b829 4006 9f5c bd3f 17fd c023 eb7a 963f
000004e0: 9c39 79f8 2fee be3f 4bc1 d8fc 8557 c03f
000004f0: 6b54 7d7a 8035 be3f a27d abf9 de4e 823f
00000500: ba8c 4275 15a3 9ebf 443c 8649 eb26 b63f
00000510: 7f00 e900 0fa7 be3f 0b04 11bd 8919 75bf
00000520: a828 9035 302a c03f 633a 8c71 3472 8cbf
00000530: 9c9e 3a7e 43da a33f b13c 7ba5 2b66 7ebf
00000540: f20f 1381 b637 b43f 5e93 e25b 9c66 bf3f
00000550: 30b8 17da 088d 6cbf 4cde f3cd 6886 a93f
00000560: bc66 43a3 b2b0 97bf 0897 f007 e30e a5bf
00000570: e261 59a5 2ed9 bb3f 53d3 2c53 1a98 7ebf
00000580: 9b40 2416 8372 96bf 8a41 59e7 4b46 a9bf
00000590: e913 cffa 5b0c bf3f 4c54 c091 b3bd c23f
000005a0: 1580 f756 2252 76bf 9050 c5a3 6a09 9a3f
000005b0: 9021 e69c e6f1 bebf 96d0 d9ff f61c 953f
000005c0: 6a19 ab8c 5b78 be3f 3b18 4ad9 4e2d a1bf
000005d0: 1af3 45c3 9e86 953f ff28 2c72 5cc7 7b3f
000005e0: c418 f178 f5ab b63f d475 1778 f8e3 a7bf
000005f0: 4c31 69c3 c69e 83bf 14bd c389 2db0 b03f
00000600: d996 fd1c acd8 8d3f f970 81a6 56ab ae3f
00000610: 62db 3098 e470 a43f df97 88a7 a87c bf3f
00000620: 876b 8c43 5774 aa3f a605 d2d0 2bbc a3bf
00000630: 794e b7da 140b b93f 46e3 a670 1b1e 9b3f
00000640: 23de b784 c98f 93bf e37b 6d5c c26d 96bf
00000650: 6e0f 4c32 81e4 a93f b5d1 3465 5c2c ab3f
00000660: fe6a 79ff bf51 bc3f 9593 b2f9 8fca 77bf
00000670: 4051 b65b b81f 81bf 8e05 6254 c6d4 9cbf
00000680: 3037 7f5a 5d52 b13f 990f 604f f4c7 8c3f
00000690: de88 9d3a faf2 86bf 9c4f 3683 b632 a5bf
000006a0: 7c1b 4072 b088 85bf 528e 4d74 d2d5 bb3f
000006b0: d1b2 5b94 fb4c aa3f b49c d7a0 0f4b 953f
000006c0: da4a d4eb 34c3 91bf 43a0 55df c84e bbbf
000006d0: 9e11 c5c8 38bc 803f 7a05 4269 2187 9c3f
000006e0: 8ccf 5cf0 c404 be3f c92f 5944 1c02 b03f
000006f0: cd27 145a fa6f a13f 0088 565b 0be2 683f
00000700: 93b3 d856 a54a 9d3f 162e bdd5 dacd a03f
00000710: 2454 fad4 372e ac3f c535 6008 3959 99bf
00000720: 33eb 8489 d2ba b13f c55b de47 530a 9c3f
00000730: 4899 1434 283e 613f 2ef1 223c a0cc a43f
00000740: 4d0a 1788 efdb b53f 92a6 274e 7c61 623f
00000750: 0e7b 762e 15b0 bd3f 25af 5b5b e088 91bf
00000760: 2464 3a99 4bbe b73f cc5d ec11 9f2b a73f
00000770: 85bd 645b ac3b 8a3f 86fd b668 7794 a4bf
00000780: 705c 74f2 ff9d 873f 9fae 266b a5d6 883f
00000790: 41b1 ecdb 7509 9f3f bc69 7d41 0925 b1bf
000007a0: 9a4a cb2c 8b9c b6bf b9fb b7fe 1c08 b13f
000007b0: 888c 6296 9e03 93bf eb4f 19f4 a887 b73f
000007c0: 6040 4ebb 2f00 33bf 3444 6c79 a47f 983f
000007d0: bedf 66b0 8e02 a93f 47e2 8bb2 c6f1 c23f
000007e0: cb3c b460 19da 98bf c7e1 9b78 09de bf3f
000007f0: 3e20 d9f5 3013 b6bf 2c4e 5305 5608 a43f

fc3.bias f8 [64]
0.006010610834846354 0.022934176325731775 -0.013137032942610372 0.03364629460945238 -0.01470743412326672 0.013714034997688992 0.02954753746436373 0.0450566208015763
0.036525389520730006 0.008317256319670596 -0.014467393459847119 0.02742224796557536 -0.12584362103925012 -0.04967727110190255 0.027390593378741283 0.01269167650961604
-0.024787668108909765 -0.0816948536192088 -0.11988590324933207 -0.047543561716705485 -0.12657131521772183 -0.03663055651713627 0.10605495548463627 -0.03419781856847896
-0.0698862369871173 -0.000342057038990087 -0.008698705044095863 0.04173228051261897 0.04583264814684213 -0.06684004308273583 0.011924891341489084 -0.1012001697869291
0.04324033968166587 0.11704491747918588 -0.007879953229297718 0.11024434518791502 -0.024671082396428363 0.05283433395148384 -0.07788970439831636 -0.017219508348999102
0.09114578824978367 0.06903615819189884 0.0689604379409021 0.03968929214919636 -0.003440148634344076 0.08285841320905835 -0.09962070231471229 0.1048829325085142
0.02266370858760172 -0.028288929363760113 0.1507687693073972 0.02722282806173356 0.03965016528299893 0.08466266588646064 0.04485694220932423 0.05851243669487356
-0.11192351526311814 -0.040553949929422135 0.0685722266785421 0.04488754633789582 0.05179402447408478 0.030719713651295503 0.10352973863207818 -0.05049961009707195
00000000: 1b33 6f0f 959e 783f b86d 1e85 0e7c 973f
00000010: 0003 d7b6 96e7 8abf f556 f54d 163a a13f
00000020: 0f40 8a64 ee1e 8ebf 0b7d 7d9e 1a16 8c3f
00000030: 11dc 58ac b541 9e3f 1841 9f51 a911 a73f
00000040: 3c2e eeb2 74b3 a23f b35e 153f a308 813f
00000050: ebb2 25ae 14a1 8dbf a2a0 c7e8 9314 9c3f
00000060: c60b 63ce a41b c0bf ee71 799d 4c6f a9bf
00000070: 0171 1e9b 470c 9c3f d65a 52fc 17fe 893f
00000080: 63cb 7c3f f061 99bf 3fc7 8b34 f4e9 b4bf
00000090: b411 b5b1 d7b0 bebf a0ce 6a35 a157 a8bf
000000a0: ad64 bc25 7d33 c0bf 9afe 8c84 3dc1 a2bf
000000b0: a79f 62e5 6a26 bb3f b63b b160 6082 a1bf
000000c0: 3ad8 4c7e 10e4 b1bf 6073 bbcb c36a 36bf
000000d0: fe9d 746d a0d0 81bf fa77 faf7 ee5d a53f
000000e0: 2970 c279 6077 a73f 5084 1ad7 6d1c b1bf
000000f0: f275 8fd2 136c 883f 4da2 951b 41e8 b9bf
00000100: 83f3 9909 9923 a63f 8072 bcdc a7f6 bd3f
00000110: 128d 4f6b 5d23 80bf e7a9 2631 f938 bc3f
00000120: 65c5 3250 6043 99bf dfe9 da10 1a0d ab3f
00000130: fafb 1565 94f0 b3bf e03d d9a4 fda1 91bf
00000140: 3e72 b393 5455 b73f e4f9 ac89 5aac b13f
00000150: 0f8c ac29 64a7 b13f ef7a 90a7 2752 a43f
00000160: 34a6 17bc 832e 6cbf 9c6d ee7e 3536 b53f
00000170: d63c 720a be80 b9bf 575b 089d 9bd9 ba3f
00000180: 2761 c2bc 2735 973f 1527 d3e9 c5f7 9cbf
00000190: f27a b71a 644c c33f 964a eb10 4de0 9b3f
000001a0: 92cb 57c6 064d a43f 8fad 2cd5 73ac b53f
000001b0: 8f41 9337 7df7 a63f 8a0a 0794 57f5 ad3f
000001c0: ee5c b5fd 04a7 bcbf 694a 57c1 7cc3 a4bf
000001d0: 768c ff0e f38d b13f 70b3 091f 80fb a63f
000001e0: 5224 7d12 bf84 aa3f b131 e615 fd74 9f3f
000001f0: 8294 96c9 ec80 ba3f 12c5 a7bb 15db a9bf

fc4.weight f8 [1, 64]
0.14326514979468627 0.1261226760469284 0.0655334063557013 0.1224178504124317 0.01939188032009979 0.03201045891027617 0.012290412356750926 0.1396439752556912
-0.016106452924925872 0.017573492207869794 0.07557716753590918 -0.050588731131922124 -0.06046718549012773 -0.0565343582761075 0.025521846111817792 -0.01243494672076418
-0.013064733054779407 -0.04849735712052274 -0.005285758120192389 -0.016358013172823125 -0.032003525621901355 0.04687414132321516 0.1331714036110925 0.10311389846503215
-0.03632738053779761 0.12538904912654925 0.002415224791122831 0.049799300652656135 -0.07831957528619303 -0.032820114475763475 -0.011774387328748488 -0.08080056147242004
-0.023794477847251035 0.06581894966049073 0.1192045393064266 0.12835112805426313 -0.0023571817565026646 0.10652405587872739 -0.011804803941930576 0.005089274915996385
0.06480351652259639 0.054604654331063075 0.14016306122092917 -0.07418354314018939 0.025950570300641563 0.15635783278210788 0.023549716132384137 0.1531818698922256
0.09196887549652903 0.023288974700451916 0.17310152937820972 -0.07728159549575737 -0.039686298716139885 0.1291663962118542 0.08091252391252916 -0.04963369813568378
-0.02717452248033299 0.00612805331930215 0.09238269679053199 0.013089693079297181 0.11166993968432257 0.08724213957694824 0.07721354960683714 -0.07776870932518003
00000000: fb29 832e 8356 c23f 64e9 73b0 c924 c03f
00000010: fbdc 171d ccc6 b03f c8cf f7b7 c656 bf3f
00000020: ab8f 210f 77db 933f cb96 4cc4 ac63 a03f
00000030: 9b46 0339 b72b 893f 8d3f 6791 dadf c13f
00000040: 26bb 44c2 357e 90bf 2ebc 3c19 c9fe 913f
00000050: 621b e476 0659 b33f d6f6 8323 c4e6 a9bf
00000060: 3d91 5210 8ef5 aebf 7bde ca47 12f2 acbf
00000070: 7003 8919 6622 9a3f c40a f24b 7e77 89bf
00000080: c527 9cc9 aec1 8abf 03d7 8c45 a5d4 a8bf
00000090: 0435 2ce4 84a6 75bf f953 6bae 27c0 90bf
000000a0: 2237 ce1f c462 a0bf f8c7 0530 e3ff a73f
000000b0: d1d2 a2b3 c20b c13f df9d ab25 ac65 ba3f
000000c0: 71e7 b79e 8099 a2bf 6035 a394 bf0c c03f
000000d0: 8809 b1ef 17c9 633f af6a 553f 4b7f a93f
000000e0: a7a5 7d6e c00c b4bf 2d15 a64c cccd a0bf
000000f0: ca2d 0f84 2b1d 88bf 5cc1 0579 58af b4bf
00000100: d2a4 b760 945d 98bf 78b6 3fbc 82d9 b03f
00000110: e818 db4d 3084 be3f 12ea b24c cf6d c03f
00000120: ddcb c151 5e4f 63bf 6985 3c18 2945 bb3f
00000130: 2726 eef6 1d2d 88bf 5563 31d5 7dd8 743f
00000140: 6e5e 2198 f696 b03f cd62 1f29 24f5 ab3f
00000150: a58b 06fa dcf0 c13f c142 b053 b1fd b2bf
00000160: 4de5 034b c992 9a3f 3be4 2291 8803 c43f
00000170: 8a85 79b2 6a1d 983f 787c c3a8 769b c33f
00000180: bbea 81b0 458b b73f 0a83 c8a2 10d9 973f
00000190: 4293 c8df 3028 c63f a5aa 3c05 bac8 b3bf
000001a0: 3993 2b36 c351 a4bf 836d bc43 8688 c03f
000001b0: 8b87 0ae4 aeb6 b43f a56a 8b8c 9669 a9bf
000001c0: b58b 5955 a3d3 9bbf b243 83c9 ba19 793f
000001d0: 967e 6e75 64a6 b73f 79a6 85dd c4ce 8a3f
000001e0: 0ef5 e3b2 6696 bc3f 4ee9 5038 8055 b63f
000001f0: 9193 5e66 44c4 b33f d32a 346f a6e8 b3bf

fc4.bias f8 [1]
-0.01028347488713283
00000000: a2c2 a2a2 800f 85bf
